results/RollingBall/RollingBall/RollingBall-564.pt (torch, 447837 bytes, 36 tensors)

network_body._body_endoder.seq_layers.0.weight f4 [128, 8]
-0.0668498 0.03445811 0.017045725 0.13850668 0.41943428 -0.10446315 -0.029523924 -0.25476494
-0.034991503 -0.024012849 -1.0180076 0.28298256 -0.35561085 0.19302829 -0.37806186 0.0849358
0.11941712 0.2001333 -0.09534669 -0.24609011 0.43196636 -0.34852564 0.00034540406 -0.10226987
0.8568989 -0.1912644 0.15708157 -0.029944513 0.17267133 -0.1758128 -0.4378363 0.010898481
-0.37974826 0.14447007 -0.47239807 -0.29482308 0.38975716 -0.44930696 0.15306754 -0.6171367
0.32948038 -0.107749745 -0.12163417 0.06774218 -0.049259674 -0.046687108 0.112693995 0.3517161
0.15082078 0.61532265 -0.30752125 0.13342656 0.4150696 -0.41147825 -0.6566438 -0.2824579
0.1260642 -0.13187079 -0.6733289 -0.12507337 -0.22963363 0.03609454 -0.37043157 0.66739684
-0.13354585 0.5242746 -0.09710491 0.008981733 -0.009006538 -0.2150522 0.5927961 -0.26287374
-0.32433715 0.018765893 -0.41906643 -0.24036269 0.14278832 0.28951815 0.23920967 -0.42204002
0.066359416 0.45768166 0.23416573 0.054628283 0.3117281 0.42045468 0.2728753 0.8243752
-0.3139142 0.362374 -0.025689637 0.3098235 0.014688341 -0.20287782 -0.6134002 -0.2881104
-0.24431427 0.5304582 0.34927827 0.9548762 -0.25196433 -0.77802056 0.16472754 -0.10271983
-0.97355986 -0.20318392 -0.2434598 -0.40280572 0.400898 0.38251418 0.51498103 0.6643613
-0.20438007 0.77127314 0.02434534 0.3044662 0.51256585 0.45684937 0.6207805 -0.10993849
0.3269866 0.04847505 0.03291363 0.8887317 0.62102854 -0.21216297 -0.25310072 0.08392309
-0.8205733 -0.3449108 -0.046855044 -0.0916793 -0.7542793 -0.7947383 0.04668461 -0.41685987
-0.5566693 -0.43645576 -0.09583313 -0.4579094 -0.31866628 0.40000093 0.08919711 0.028063541
0.32569635 0.18984754 -0.260423 -0.35218245 -0.2770004 -0.17477474 -0.59386754 -0.3588018
-0.38205102 0.16358897 0.40803075 0.11534066 0.06630609 -0.32363284 0.6263833 0.101751454
0.056019146 0.017931094 -0.28941727 0.13163367 -0.39492372 -0.17189147 -0.47509152 -0.26079565
-0.14122668 -0.23665433 -0.27424332 -0.092641376 -0.43706036 0.3506156 -0.3106484 -0.39376804
-0.69096345 0.23146261 0.33002838 0.09946136 -0.14942168 -0.014060489 -1.1136805 0.15130083
-0.16535117 0.011437784 -0.07911425 -0.30080125 -0.18668905 -0.6074701 0.14158818 0.059741393
-0.5376991 0.50878227 0.096847326 -0.265354 0.26212427 -0.26894608 -0.22994806 0.24947235
-0.011710606 -0.19692801 0.63273704 -0.493537 -0.38337967 0.019599838 0.15946819 -0.46429664
-0.8081924 0.080836125 -0.48838472 -0.53496534 0.36315718 -0.15082207 0.6053152 0.2519078
-0.031400032 -0.39836043 0.3665039 -0.12600185 0.20309034 -0.21381223 0.14151809 -0.61078763
0.09496835 -0.40596992 -0.2225896 0.19151507 0.050948165 -0.08040016 -0.2665555 0.06662417
-0.34224477 -0.1669069 0.1105673 0.01186439 0.17241026 0.3050847 -0.1998799 -0.33864328
-0.39007363 -0.32649186 0.32182765 -0.0025701306 -0.07635579 0.2799125 0.33744735 0.2852198
0.6171039 -0.20435184 -0.19194567 0.4797222 -0.11107416 0.056280535 0.5518539 -0.2825896
00000000: 8ce8 88bd f223 0d3d 7aa3 8b3c b2d4 0d3e
00000010: 17c0 d63e c7f0 d5bd 28dc f1bc 8d70 82be
00000020: 4053 0fbd 98b6 c4bc 134e 82bf 17e3 903e
00000030: a012 b6be 35a9 453e 5391 c1be d2f2 ad3d
00000040: f790 f43d beef 4c3e 2045 c3bd 0cff 7bbe
00000050: b22a dd3e f471 b2be 5917 b539 de72 d1bd
00000060: ba5d 5b3f d1da 43be fed9 203e 324e f5bc
00000070: c1d0 303e 4508 34be 142c e0be 8b8f 323c
00000080: 5d6e c2be f6ef 133e 29de f1be 0df3 96be
00000090: 408e c73e 900b e6be bdbd 1c3e acfc 1dbf
000000a0: a7b1 a83e e6ab dcbd 561b f9bd 69bc 8a3d
000000b0: 83c4 49bd fb3a 3fbd 1ccc e63d 2214 b43e
000000c0: c370 1a3e c985 1d3f 6d73 9dbe f9a0 083e
000000d0: 0184 d43e 47ad d2be cf19 28bf 529e 90be
000000e0: f916 013e 2309 07be 485f 2cbf 3c13 00be
000000f0: 1425 6bbe ded7 133d 35a9 bdbe 85da 2a3f
00000100: 3ec0 08be dc36 063f f0de c6bd 1e28 133c
00000110: 2990 13bc a536 5cbe 7cc1 173f 6397 86be
00000120: 850f a6be eeba 993c e08f d6be a321 76be
00000130: 1a37 123e b93b 943e 61f3 743e a115 d8be
00000140: 72e7 873d 4055 ea3e 24c9 6f3e e8c1 5f3d
00000150: d39a 9f3e d645 d73e 50b6 8b3e 410a 533f
00000160: 5db9 a0be 1689 b93e 1373 d2bc 30a1 9e3e
00000170: 5ea7 703c 34bf 4fbe cc07 1dbf 3583 93be
00000180: 852d 7abe 1ccc 073f 9ad4 b23e c472 743f
00000190: 7801 81be 5b2c 47bf 56ae 283e c65e d2bd
000001a0: 383b 79bf 720f 50be 874d 79be 8d3c cebe
000001b0: 8142 cd3e e6d8 c33e ccd5 033f 9513 2a3f
000001c0: 0249 51be 2872 453f e16f c73c fee2 9b3e
000001d0: 8437 033f 29e8 e93e 79eb 1e3f 6e27 e1bd
000001e0: ca6a a73e c68d 463d 71d0 063d ec83 633f
000001f0: bafb 1e3f 4041 59be 6b96 81be dedf ab3d
00000200: 1711 52bf 2698 b0be 13eb 3fbd 5bc2 bbbd
00000210: 7318 41bf f873 4bbf 5d38 3f3d a86e d5be
00000220: e181 0ebf 2177 dfbe 2944 c4bd 1a73 eabe
00000230: 3a28 a3be eccc cc3e f9ac b63d 83e5 e53c
00000240: acc1 a63e 6567 423e 2a56 85be 4251 b4be
00000250: ffd2 8dbe 26f8 32be b407 18bf dfb4 b7be
00000260: 319c c3be de83 273e 68e9 d03e b937 ec3d
00000270: 7dcb 873d 34b3 a5be a85a 203f 1163 d03d
00000280: 5574 653d 3be4 923c 802e 94be faca 063e
00000290: 7133 cabe 5104 30be 323f f3be 0287 85be
000002a0: ba9d 10be 8355 72be 9f69 8cbe c3ba bdbd
000002b0: 60c6 dfbe e383 b33e 4f0d 9fbe f79b c9be
000002c0: fbe2 30bf 8904 6d3e 7bf9 a83e 66b2 cb3d
000002d0: ff01 19be f75d 66bc 158d 8ebf 9bee 1a3e
000002e0: d151 29be 8b65 3b3c a706 a2bd 9f02 9abe
000002f0: 6a2b 3fbe 2983 1bbf 7efc 103e 64b3 743d
00000300: a6a6 09bf 8e3f 023f e457 c63d 7bdc 87be
00000310: 2735 863e 4db3 89be 8177 6bbe ae75 7f3e
00000320: d7dd 3fbc 7fa7 49be 0efb 213f e2b0 fcbe
00000330: 574a c4be d78f a03c a14b 233e 4ab8 edbe
00000340: b2e5 4ebf 698d a53d 900d fabe 7df3 08bf
00000350: bdef b93e 1a71 1abe f0f5 1a3f 0ffa 803e
00000360: 529d 00bd e6f5 cbbe 66a6 bb3e a106 01be
00000370: eaf6 4f3e 98f1 5abe 1eea 103e 945c 1cbf
00000380: c47e c23d 4adb cfbe 87ee 63be 871c 443e
00000390: 06af 503d d7a8 a4bd f679 88be 4172 883d
000003a0: b53a afbe a4e9 2abe 1c71 e23d dc62 423c
000003b0: 518c 303e 1034 9c3e 51ad 4cbe a762 adbe
000003c0: bbb7 c7be f129 a7be 98c6 a43e a36f 28bb
000003d0: 6d60 9cbd b150 8f3e e6c5 ac3e 5408 923e
000003e0: 85fa 1d3f 9c41 51be 688d 44be 269e f53e
000003f0: d97a e3bd 6b86 663d 4c46 0d3f 96af 90be

network_body._body_endoder.seq_layers.0.bias f4 [128]
-0.0006156544 -0.0024570567 0.0023327686 -0.00318017 0.002388006 -0.0005041158 0.00025042138 -0.0031939233
3.4494762e-05 0.00055968214 -0.0007138854 -0.00043223516 0.0015092968 0.0010754261 0.0005925922 -0.00049882365
-0.00037018926 0.0031731909 -0.0018114463 0.00043080738 -0.0023341055 -0.003040044 -0.0020123401 0.0018277721
-0.0027246282 -0.00088187924 -0.0021136294 0.0019062288 0.002515771 0.002002389 -0.0020201255 -6.809551e-05
-0.0008898909 -0.0005547848 -0.0036703795 -0.001405848 0.0022182656 -0.0030050068 -0.0018645887 0.0008869061
0.00078256725 0.0016142089 -0.0006848955 -0.0053513064 -0.0025306558 -0.0062033734 -0.0024753052 -0.0013445498
-0.0029168243 -0.001290757 0.001134268 -0.0012719405 0.00069286796 0.0010008926 0.0045860484 -0.0018926502
-0.0004305144 0.0021666738 -0.0015672221 0.006347665 -0.0018791019 -0.004125422 0.0022547925 0.0011650071
-0.0005905396 0.003333949 0.0021598747 -0.0016208352 -0.0026228004 -0.0024213924 0.0018675779 0.002985976
0.00032265624 0.0034963044 -0.0011929653 -0.0022450327 -0.000977254 0.0016467107 -0.0006861825 0.00026986058
-0.0008124951 -0.00083367573 0.0014160858 -0.0042657787 -0.0033314377 -0.0030994655 -0.0006745214 0.0012989377
0.006759403 0.0007348164 -0.0033664883 0.0016356877 0.0035129737 -0.0013195494 -0.0023793792 -0.0018679546
-0.0019789792 0.0012498489 -0.0048037344 -0.0026189429 -0.0023926566 -0.0010669362 -0.00033797792 -0.0038034613
0.0026319122 0.0014673019 -0.0021931208 0.0015507502 0.00027154898 0.0028571673 0.0022529908 -0.0022608908
-0.004961893 -0.0016268871 -0.0009981892 -0.003277526 0.0021712095 -0.003508394 -0.0006840323 0.00020507252
-0.0047357106 0.00079802243 0.0010076844 0.001756424 0.0019011925 -0.002051707 0.0007618889 -0.00019275773
00000000: de63 21ba 9206 21bb 5de1 183b 666a 50bb
00000010: 1880 1c3b a326 04ba fd4a 8339 2451 51bb
00000020: 78ae 1038 a2b7 123a 0a24 3bba 9f9d e2b9
00000030: 99d3 c53a 50f5 8c3a 3058 1b3a 7dc3 02ba
00000040: f615 c2b9 4ff5 4f3b 0d6e edba fddd e139
00000050: cbf7 18bb 7a3b 47bb 77e1 03bb db91 ef3a
00000060: ad8f 32bb ea2d 67ba d184 0abb 6dda f93a
00000070: a2df 243b 833a 033b 1564 04bb 80ce 8eb8
00000080: 9147 69ba fa6e 11ba c08a 70bb 6e44 b8ba
00000090: 5260 113b a6ef 44bb 3765 f4ba 437f 683a
000000a0: 3325 4d3a dd93 d33a 8f8a 33ba 035a afbb
000000b0: 5cd9 25bb ab45 cbbb bb38 22bb 9b3b b0ba
000000c0: 3128 3fbb 9e2e a9ba b8ab 943a 3eb7 a6ba
000000d0: 95a1 353a 6230 833a 9046 963b cd12 f8ba
000000e0: aab6 e1b9 c1fe 0d3b 3f6b cdba 1300 d03b
000000f0: 324c f6ba 8c2e 87bb 24c5 133b 27b3 983a
00000100: 71ce 1aba 627e 5a3b af8c 0d3b 3472 d4ba
00000110: 4ae3 2bbb 39b0 1ebb 84c9 f43a 5db0 433b
00000120: 302a a939 4122 653b 465d 9cba 6621 13bb
00000130: 3417 80ba 71d6 d73a eee0 33ba 137c 8d39
00000140: a0fd 54ba 088b 5aba f49b b93a f2c7 8bbb
00000150: 4054 5abb 6720 4bbb 5dd2 30ba 1e41 aa3a
00000160: fb7d dd3b b2a0 403a 4da0 5cbb 9264 d63a
00000170: eb39 663b bbf4 acba 5cef 1bbb 28d6 f4ba
00000180: c3b1 01bb f8d1 a33a a568 9dbb 92a2 2bbb
00000190: 1ece 1cbb 70d8 8bba a132 b1b9 7e43 79bb
000001a0: 297c 2c3b 7b52 c03a 76ba 0fbb 8b42 cb3a
000001b0: b05e 8e39 503f 3b3b eaa6 133b 742b 14bb
000001c0: 6097 a2bb 463d d5ba acd5 82ba c3cb 56bb
000001d0: da4a 0e3b 15ed 65bb a150 33ba bc08 5739
000001e0: 052e 9bbb 6132 513a 4714 843a cf37 e63a
000001f0: 6f31 f93a ee75 06bb 80b9 473a 021f 4ab9

network_body._body_endoder.seq_layers.2.weight f4 [128, 128]
-0.11405956 0.097943716 -0.049473725 -0.047583446 -0.05167094 0.08168436 -0.06935066 -0.03912956
0.2141204 -0.03011318 -0.0096178865 0.12164856 -0.017112829 0.018879186 0.049324036 0.03766345
0.14475691 0.0882497 0.04815658 0.02481787 0.0023069573 -0.027177425 -0.07624165 0.0064366437
-0.19052398 -0.20927708 -0.17723718 -0.019892162 -0.019865327 -0.058173325 -0.086046346 -0.122126184
0.08454432 0.052374743 0.09459835 0.094047494 0.07981275 -0.012041158 -0.1280549 0.06676658
-0.1298329 -0.008578736 0.03619453 0.08828452 -0.07403086 -0.04616317 -0.0281929 0.015970623
0.04034074 -0.026274715 0.06644837 -0.010158975 0.17109223 -0.11388853 0.14202473 -0.03989772
-0.013474113 -0.06396392 0.008522708 0.14613974 -0.046299268 -0.07198279 -0.21781482 -0.041100275
-0.041582916 -0.14758216 -0.09102456 0.09180461 -0.10535223 0.026711164 0.018362088 0.15934522
-0.08602973 -0.08023548 -0.011197676 0.031038597 0.122278176 -0.070519224 0.07852996 0.069474205
-0.021496342 0.079477966 0.028111305 -0.04789926 -0.04180128 0.06940422 -0.14778963 0.046245035
0.04509905 -0.049165092 -0.0691346 0.04152401 -0.08592292 -0.03184742 -0.017484404 -0.17191897
-0.05887716 -0.043022834 0.023277873 0.052305005 -0.07762841 0.10882154 0.005579894 0.06969178
-0.07665305 0.03353832 0.05560743 -0.080212496 0.07440827 0.028904857 -0.23508039 0.08908601
0.053460147 -0.061310012 -0.06951359 0.07861777 0.044358004 0.2109327 -0.027026275 0.015234252
-0.036443766 -0.009088678 0.03632734 0.023013672 -0.09188608 0.09262065 -0.019378237 -0.087481335
0.046720024 0.018380046 -0.001996983 0.014280519 0.14548384 -0.0047039543 0.046165258 -0.08103777
-0.05507125 0.029036624 0.02018572 0.018619241 -0.0010008953 -0.036253773 0.11164599 -0.06447952
-0.009373344 -0.0062217475 0.10632706 -0.082750626 0.08143005 0.1363668 0.12601523 0.026353162
0.04563238 -0.10682509 0.22149132 0.059305422 0.09671528 -0.034532644 -0.005853734 -0.04139634
0.043707356 -0.031277582 -0.09571482 -0.11738514 -0.03729867 0.03450282 -0.11163989 -0.031371098
0.06718689 0.14856908 -0.102922544 -0.10350342 -0.01232051 -0.12931304 0.10394695 -0.10852213
-0.09786392 -0.0608468 -0.087013796 -0.10945277 0.042554125 0.0055572595 0.008656277 0.13764396
-0.020440046 -0.138771 -0.0061881356 0.03278595 0.08008871 -0.058528658 -0.14955008 0.012415888
0.09164265 -0.035924263 0.030426307 -0.08497756 0.25298607 -0.029722903 0.036179654 -0.07551039
0.074318096 -0.012486926 -0.02273081 -0.079269476 -0.049895924 0.030248072 0.055243716 -0.046476286
0.012540746 -0.019827459 -0.054091137 -0.003243886 -0.16060631 -0.12904134 0.10306807 -0.061862905
-0.05103805 0.038740877 0.011112988 0.016949398 -0.13193753 -0.019156663 0.13400942 -0.09710101
-0.009887851 0.031021956 0.029229471 0.06988954 -0.029939102 0.028950693 -0.02048751 -0.14431332
-0.1509243 0.15592693 0.025174538 0.012683135 0.018035488 0.027570486 0.00901738 -0.1017823
-0.10121981 -0.057523444 -0.09982671 -0.020951906 -0.056994762 -0.11552815 0.099610575 -0.015603827
0.014878579 -0.12114758 -0.0574912 0.020723416 -0.012265556 0.06854746 0.02253439 0.29670662
00000000: 0f98 e9bd b796 c83d f6a4 4abd dce6 42bd
00000010: e8a4 53bd 214a a73d b807 8ebd 5146 20bd
00000020: 6142 5b3e eaaf f6bc 5794 1dbc e122 f93d
00000030: 3430 8cbc 86a8 9a3c 0008 4a3d fd44 1a3d
00000040: 283b 143e 42bc b43d d63f 453d d94e cb3c
00000050: 5230 173b 31a3 debc 9524 9cbd 7bea d23b
00000060: b818 43be bb4c 56be aa7d 35be e3f4 a2bc
00000070: 9cbc a2bc 2747 6ebd 1139 b0bd 4b1d fabd
00000080: 9325 ad3d e686 563d c8bc c13d f99b c03d
00000090: de74 a33d 4748 45bc d320 03be ebbc 883d
000000a0: eaf2 04be d48d 0cbc b740 143d 84ce b43d
000000b0: 7e9d 97bd 9815 3dbd ccf4 e6bc d3d4 823c
000000c0: 553c 253d 123e d7bc 1516 883d d471 26bc
000000d0: cd32 2f3e 643e e9bd ee6e 113e cb6b 23bd
000000e0: 87c2 5cbc 84ff 82bd d4a2 0b3c a8a5 153e
000000f0: 4da4 3dbd b76b 93bd d90a 5fbe c358 28bd
00000100: d952 2abd c71f 17be 166b babd 0e04 bc3d
00000110: e9c2 d7bd 5fd1 da3c 176c 963c 652b 233e
00000120: 5b30 b0bd 8052 a4bd 7576 37bc a844 fe3c
00000130: fb6c fa3d 626c 90bd 51d4 a03d 7e48 8e3d
00000140: 1919 b0bc 58c5 a23d ae49 e63c 0432 44bd
00000150: d237 2bbd cd23 8e3d 2a56 17be 6f6b 3d3d
00000160: c8b9 383d 5661 49bd 7196 8dbd 1515 2a3d
00000170: 5bf8 afbd 7172 02bd 743b 8fbc 870b 30be
00000180: 2d29 71bd b638 30bd 3db1 be3c c63d 563d
00000190: a5fb 9ebd d4dd de3d 8bd7 b63b 90ba 8e3d
000001a0: 46fc 9cbd 7a5f 093d 9ec4 633d 7346 a4bd
000001b0: 5d63 983d e1c9 ec3c eab8 70be ba72 b63d
000001c0: 07f9 5a3d 3520 7bbd 245d 8ebd 5a02 a13d
000001d0: bdb0 353d befe 573e 3566 ddbc 1699 793c
000001e0: 0f46 15bd aee8 14bc facb 143d 2b87 bc3c
000001f0: c52e bcbd e5af bd3d 1cbf 9ebc 6a29 b3bd
00000200: 7f5d 3f3d c091 963c d1df 02bb d7f8 693c
00000210: b7f9 143e a123 9abb c817 3d3d 21f7 a5bd
00000220: 6492 61bd 37de ed3c 865c a53c 6187 983c
00000230: 7930 83ba d67e 14bd a7a6 e43d d70d 84bd
00000240: a792 19bc cddf cbbb 00c2 d93d 2979 a9bd
00000250: ccc4 a63d bda3 0b3e 230a 013e 96e2 d73c
00000260: 05e9 3a3d 1dc7 dabd 9fce 623e 3eea 723d
00000270: a912 c63d 1a72 0dbd aed0 bfbb 358f 29bd
00000280: 7c06 333d ec1c 00bd 2206 c4bd 9f67 f0bd
00000290: 7dc6 18bd d452 0d3d 74a3 e4bd fb7e 00bd
000002a0: 4899 893d 7e22 183e 0ec9 d2bd 9af9 d3bd
000002b0: f7db 49bc a36a 04be 23e2 d43d da40 debd
000002c0: e16c c8bd 7f3a 79bd 4a34 b2bd c628 e0bd
000002d0: 3c4d 2e3d ac19 b63b 0fd3 0d3c 8af2 0c3e
000002e0: e271 a7bc fc19 0ebe d8c5 cabb 8f4a 063d
000002f0: 8d05 a43d bfbb 6fbd a823 19be 026c 4b3c
00000300: 24af bb3d 5225 13bd 9740 f93c b708 aebd
00000310: 6487 813e 727d f3bc 1e31 143d 31a5 9abd
00000320: 1634 983d f795 4cbc f735 babc 0958 a2bd
00000330: ab5f 4cbd ceca f73c 3c47 623d eb5d 3ebd
00000340: b377 4d3c 326d a2bc ab8e 5dbd 6097 54bb
00000350: fb75 24be 6a23 04be 5a15 d33d f563 7dbd
00000360: 460d 51bd c1ae 1e3d 4013 363c 77d9 8a3c
00000370: a21a 07be 6fee 9cbc c439 093e e5dc c6bd
00000380: a700 22bc c221 fe3c a572 ef3c 3f22 8f3d
00000390: d942 f5bc 012a ed3c 6cd5 a7bc dfc6 13be
000003a0: e68b 1abe 4fab 1f3e d53a ce3c edcc 4f3c
000003b0: 29bf 933c 80db e13c a2bd 133c 3d73 d0bd
000003c0: 554c cfbd b49d 6bbd f271 ccbd 55a3 abbc
000003d0: 5773 69bd 069a ecbd a100 cc3d 32a7 7fbc
000003e0: 49c5 733c 391c f8bd e47b 6bbd 27c4 a93c
000003f0: 78f5 48bc 9c62 8c3d 0b9a b83c eee9 973e

network_body._body_endoder.seq_layers.2.bias f4 [128]
0.0030785361 0.000774867 -0.00045733116 -0.0029938447 -0.0028419269 0.00014496983 -0.003384511 -0.0034763073
0.0011096218 0.0018859553 -0.0010368399 -0.0022223846 0.0018730556 3.103526e-05 0.002438398 0.0012580355
0.0016743308 -0.0003261568 0.0013770355 0.00049913465 -0.0022926643 0.00096398825 -0.0028568823 0.0025517256
-0.0025483018 0.0005774073 -0.002307588 0.0019346282 0.0012472497 0.002647533 0.00019517311 0.0017739638
0.0022529997 0.0015047952 0.0013230798 -0.0008577432 -0.00033235832 0.0026485492 0.0037635318 -1.3422248e-05
-0.003117238 -0.0016031046 -0.00043284488 0.0004829916 0.0012746644 -0.002574372 0.001031362 -0.0028261421
-0.0028924327 -0.00086505286 0.0013134084 -0.0017160295 0.0017769218 -0.0009675821 -0.0015632758 0.0025520693
0.0018545266 0.0024628986 0.0005251056 0.0013751825 0.004515565 0.0018006554 0.0020271887 6.547123e-05
0.00052421674 -0.0018945091 0.0018760836 0.0012932132 -0.00036184324 -0.0005949008 0.0013831874 -0.00022420763
-0.0003726978 -0.002504768 -0.0039897687 0.0007140109 -0.00024178546 0.0022499128 0.001803962 -0.0010562442
0.0018597925 -0.0012072686 -0.0005001311 -0.0029118035 -0.002579179 -0.0036737816 -0.0013165807 -0.0013988724
-0.0002874371 -0.0024363296 -0.0041435445 -0.0026153715 0.001226978 -0.00016615143 0.0010447109 -0.0006729481
-0.002273318 -0.0036816923 0.0021176692 0.0019963575 0.0017153221 -0.00070874963 0.002333845 -0.0009982602
-0.0025353427 -0.0026027907 -0.0007054227 0.0006378734 -0.0020819223 0.00027088137 0.0018439837 -0.0025374342
-0.003249653 -0.0019182008 -0.0019597572 -0.00057754276 0.0031289721 0.0011312898 -0.0009848762 0.0020828
-0.0030073025 0.00011493773 -0.003420525 0.0014832637 -0.001179882 -0.0026833257 0.00088037044 -0.0039572585
00000000: 44c1 493b 7220 4b3a f3c5 efb9 6134 44bb
00000010: 9f3f 3abb 0b03 1839 acce 5dbb c2d2 63bb
00000020: bb70 913a 2932 f73a 93e6 87ba 6da5 11bb
00000030: 5181 f53a db2b 0238 88cd 1f3b abe4 a43a
00000040: 3875 db3a 0600 abb9 a57d b43a 5cd8 023a
00000050: 8640 16bb 28b4 7c3a 883a 3bbb da3a 273b
00000060: 6901 27bb 265d 173a e73a 17bb 5a93 fd3a
00000070: c17a a33a 3c82 2d3b 62a7 4c39 5984 e83a
00000080: 10a7 133b 8c3c c53a 316b ad3a 2cda 60ba
00000090: 6140 aeb9 4893 2d3b 96a5 763b 1e30 61b7
000000a0: 934a 4cbb 441f d2ba 75ef e2b9 093a fd39
000000b0: a412 a73a ccb6 28bb c42e 873a cc36 39bb
000000c0: f88e 3dbb b7c4 62ba ac26 ac3a 65ec e0ba
000000d0: 9ae7 e83a 56a5 7dba d5e6 ccba 9e40 273b
000000e0: 9613 f33a 9568 213b 3ea7 093a 783f b43a
000000f0: 4ef7 933b f803 ec3a 95da 043b 994d 8938
00000100: 976b 093a 2d51 f8ba ebe6 f53a 0981 a93a
00000110: c7b5 bdb9 1ef3 1bba 114c b53a 4719 6bb9
00000120: a766 c3b9 0927 24bb 9bbc 82bb 762c 3b3a
00000130: ca87 7db9 4673 133b ec72 ec3a ad71 8aba
00000140: 48c4 f33a 363d 9eba 3b1b 03ba f5d3 3ebb
00000150: 7107 29bb d4c3 70bb 1e91 acba 5e5a b7ba
00000160: 28b3 96b9 d4aa 1fbb 92c6 87bb a766 2bbb
00000170: 8dd2 a03a ef38 2eb9 aeee 883a c868 30ba
00000180: f2fb 14bb 8c48 71bb 98c8 0a3b 52d5 023b
00000190: a9d4 e03a 62cb 39ba 6cf3 183b 0ed8 82ba
000001a0: fe27 26bb 9593 2abb 1eec 38ba f636 273a
000001b0: dc70 08bb 1505 8e39 d3b1 f13a 154b 26bb
000001c0: 21f8 54bb 236c fbba 456f 00bb 3d66 17ba
000001d0: 710f 4d3b c947 943a f616 81ba 967f 083b
000001e0: 2a16 45bb b90a f138 e32a 60bb 126a c23a
000001f0: 45a6 9aba bcda 2fbb a9c8 663a e4ab 81bb

action_model._continuous_distribution.log_sigma f4 [1, 2]
0.004222002 0.008109794
00000000: b858 8a3b f1de 043c

action_model._continuous_distribution.mu.weight f4 [2, 128]
-0.020915575 -0.0077778855 -0.012667495 -0.012960935 -0.02369854 -0.014356223 -0.0029749612 0.024819974
0.01160611 0.008976192 -0.006364094 -0.0007635925 0.023140715 -0.0003065283 0.00028967092 0.02156799
-0.0009522333 0.008273461 0.0047515407 -0.0054053743 -0.025997816 0.02456189 -0.006548891 0.03871563
-0.011329479 -0.0023348155 0.005700109 0.017724724 0.004606732 0.006369151 -0.0074984897 0.013002314
0.018311838 -0.012342317 0.012803133 -0.024598442 0.006453668 -0.019496916 0.020898243 0.014817056
0.0023487671 -0.028240599 -0.009707738 -0.004027939 -0.005666811 0.012115407 0.018282939 -0.012722464
-0.0031067168 0.002283171 -0.0040022573 0.005561952 -0.011143631 0.014765011 -0.03892325 0.031093178
0.038654238 -0.027438493 0.016795348 -0.0030295483 0.0024893733 0.012380921 0.04039698 -0.005106469
-0.00024669475 0.008743402 0.0031166382 0.013847632 -0.019859549 -0.0107491 0.002819949 0.010335376
0.010607996 -0.024394311 -0.0030561981 0.022587052 0.021643013 -0.0030310706 0.01614068 0.018565228
0.01482695 -0.0021451244 -0.008836652 -0.008632913 0.003888596 -0.005001739 -0.035282906 0.0028161127
-0.011849795 -0.0019369678 0.0011294463 -0.0031894548 0.0011521247 0.0023034671 0.0033475868 -0.010469255
0.013345706 0.0041834987 0.014536836 0.013079114 0.0060712695 -0.02675901 0.016509408 -0.014999964
-0.027662838 0.0015912467 -0.024118397 0.0002948298 0.0060283784 -0.012670085 0.017282883 -0.020313019
-0.02417656 0.008142988 0.0062601287 0.015248526 0.0074137915 -0.0025604358 -0.010852174 0.03612057
-0.009020484 0.0040489337 -0.006314305 0.009529714 0.0003078188 0.003605701 0.0040605823 0.0017486791
-0.014604719 -0.025466388 0.018624833 -0.019697096 -0.044861514 0.013643382 -0.015653476 0.0239011
0.0017846769 -0.00095093774 0.01431857 -0.014853717 0.0029614884 0.010601272 -0.0033392145 0.0016825357
0.005104939 0.001076188 0.008511309 0.032782543 -0.011888279 -0.0045096283 -0.025568519 0.0307351
-0.016852122 0.004743955 -0.006105261 0.036960077 0.024961006 0.028332397 0.027619971 0.005663672
0.01364844 -0.0109379655 0.021334698 -0.03686266 -0.0047179945 -0.010713796 0.017692568 -0.02262247
-0.0037545187 0.0138214845 0.019009514 0.020898607 0.036730614 0.009881992 -0.00041189694 -0.01893017
-0.019330954 -0.010501723 0.039543577 -0.0011968843 -0.0060187015 -0.011241317 0.0130708 0.010661723
0.004110007 -0.013358962 -0.0031451234 0.017050587 -0.00032382738 0.011250445 0.014474543 0.00012472992
0.012277799 -0.023622815 0.032139815 -3.038502e-05 0.017241018 0.01435125 0.012807098 -0.0034075135
0.0042150784 -0.012828413 -0.003651702 0.010409579 -0.017732564 0.012958529 0.005610439 -0.016501788
0.010928139 -0.019287368 0.013970365 -0.0036515696 -0.010212349 -0.0027948203 0.004655226 -0.005410086
0.026450021 -0.027361572 0.0016203455 -0.023519456 0.038098365 0.017211992 0.018231548 0.014236518
-0.022678016 -0.0146301 0.010717462 0.012785507 0.01453929 0.033395447 0.018760968 0.013589219
-0.003011795 -0.018495172 0.030767119 -0.012711537 -0.016628426 0.017166387 0.008540963 -0.02976994
-0.027075209 -0.01385158 -0.018251255 -0.023502687 0.0016041773 0.024911704 0.011826001 0.011646302
-0.010410506 -0.0075069293 -0.005831966 0.004821353 0.00038374146 0.012886897 0.0070911306 1.3171531e-05
00000000: 2457 abbc a2dd febb 538b 4fbc 1a5a 54bc
00000010: 7123 c2bc 5d36 6bbc 91f7 42bb 4253 cb3c
00000020: 8e27 3e3c e110 133c e489 d0bb d32b 48ba
00000030: 9991 bd3c 88b5 a0b9 f9de 9739 5aaf b03c
00000040: 4c9f 79ba 698d 073c d0b2 9b3b 911f b1bb
00000050: 5ff9 d4bc 0436 c93c 1498 d6bb 4894 1e3d
00000060: 479f 39bc b403 19bb fbc7 ba3b 7133 913c
00000070: 12f4 963b 50b4 d03b e4b5 f5bb a807 553c
00000080: b502 963c 6e37 4abc 3bc4 513c ac82 c9bc
00000090: 4a79 d33b ffb7 9fbc cb32 ab3c 3dc3 723c
000000a0: c6ed 193b d458 e7bc 340d 1fbc cdfc 83bb
000000b0: a8b0 b9bb b37f 463c 1ac6 953c e271 50bc
000000c0: 0f9a 4bbb 41a1 153b 5e25 83bb 0941 b63b
000000d0: c793 36bc f2e8 713c fc6d 1fbd 1fb7 fe3c
000000e0: e853 1e3d b1c6 e0bc 6696 893c 638b 46bb
000000f0: c124 233b 59d9 4a3c 4e77 253d 2b54 a7bb
00000100: cf56 81b9 7c40 0f3c 8340 4c3b 2ee1 623c
00000110: 7eb0 a2bc fe1c 30bc e5ce 383b b555 293c
00000120: 29cd 2d3c 94d6 c7bc 7f4a 48bb 7b08 b93c
00000130: b04c b13c eda4 46bb 7639 843c 1b16 983c
00000140: bcec 723c 3795 0cbb 9bc7 10bc 1071 0dbc
00000150: d1d7 7e3b a1e5 a3bb cf84 10bd 888e 383b
00000160: a425 42bc dbe1 fdba ee09 943a 2c06 51bb
00000170: e402 973a c4f5 163b 3063 5b3b 3d87 2bbc
00000180: f3a7 5a3c bb15 893b e92b 6e3c c849 563c
00000190: 80f1 c63b b635 dbbc bd3e 873c 69c2 75bc
000001a0: 2d9d e2bc 6191 d03a f293 c5bc 6393 9a39
000001b0: b489 c53b 3096 4fbc d594 8d3c 7d67 a6bc
000001c0: ec0d c6bc 2b6a 053c c421 cd3b f4d4 793c
000001d0: 64ef f23b fccc 27bb 51cd 31bc 2af3 133d
000001e0: a7ca 13bc ebac 843b 3be8 cebb 8422 1c3c
000001f0: bd62 a139 a04d 6c3b a20e 853b ef33 e53a
00000200: a248 6fbc e39e d0bc 1b93 983c ce5b a1bc
00000210: b5c0 37bd 7e88 5f3c b83b 80bc 3dcc c33c
00000220: d2eb e93a 5a48 79ba 6f98 6a3c 015d 73bc
00000230: 8815 423b f5b0 2d3c b9d6 5abb 8888 dc3a
00000240: 5547 a73b e10e 8d3a 0473 0b3c fd46 063d
00000250: 0ec7 42bc 81c5 93bb 1275 d1bc 2dc8 fb3c
00000260: 760d 8abc 2e73 9b3b a40e c8bb 7363 173d
00000270: 067b cc3c 5819 e83c 4743 e23c 5396 b93b
00000280: b59d 5f3c 2735 33bc 1bc6 ae3c 4dfd 16bd
00000290: 6899 9abb eb88 2fbc 01f0 903c c252 b9bc
000002a0: 5f0e 76bb 8273 623c d7b9 9b3c 8e33 ab3c
000002b0: d772 163d 14e8 213c dff3 d7b9 7213 9bbc
000002c0: f35b 9ebc 6b0f 2cbc 72f8 213d c6e0 9cba
000002d0: 8738 c5bb 802d 38bc e926 563c 82ae 2e3c
000002e0: 3dad 863b 8cdf 5abc 6a1e 4ebb acad 8b3c
000002f0: 60c7 a9b9 c953 383c a226 6d3c efc9 0239
00000300: d228 493c a284 c1bc 0aa5 033d 55e3 feb7
00000310: 093d 8d3c 8121 6b3c ddd4 513c 9750 5fbb
00000320: a41e 8a3b 442e 52bc 6551 6fbb f08c 2a3c
00000330: e243 91bc 0350 543c c6d7 b73b c22e 87bc
00000340: f00b 333c 8b00 9ebc f5e3 643c 2c4f 6fbb
00000350: b251 27bc 4e29 37bb de8a 983b 1747 b1bb
00000360: b7ad d83c 6025 e0bc c661 d43a e0ab c0bc
00000370: 080d 1c3d 2a00 8d3c 545a 953c 4940 693c
00000380: 3fc7 b9bc 16b3 6fbc 4b98 2f3c 4e7a 513c
00000390: 3436 6e3c aac9 083d 9ab0 993c 51a5 5e3c
000003a0: 8961 45bb 3083 97bc 530b fc3c 0d44 50bc
000003b0: 5638 88bc 86a0 8c3c 65ef 0b3c 17e0 f3bc
000003c0: d4cc ddbc bdf1 62bc a883 95bc b588 c0bc
000003d0: 4243 d23a a113 cc3c d8c1 413c 22d0 3e3c
000003e0: d490 2abc b0fc f5bb 141a bfbb 71fc 9d3b
000003f0: e830 c939 9023 533c b75c e83b 4bfb 5c37

action_model._continuous_distribution.mu.bias f4 [2]
0.0019170957 0.0019729347
00000000: 0f47 fb3a 5a4c 013b

exp_avg f4 [128, 8]
-5.149745e-07 1.9993718e-07 2.177876e-06 -6.7293416e-07 1.9993718e-07 -1.6933927e-05 1.0334895e-05 -1.7469743e-05
-1.2900572e-06 5.008701e-07 5.4558122e-06 -9.879972e-07 5.008701e-07 1.5857572e-06 1.9009339e-07 2.1595312e-07
-3.063391e-05 1.18937405e-05 0.00012955461 -2.32236e-05 1.18937405e-05 3.2161424e-05 1.2060034e-05 -5.2673668e-06
5.1878833e-06 -2.0142215e-06 -2.1940192e-05 1.8657133e-06 -2.0142215e-06 -1.28933625e-05 -6.049665e-06 -7.4494797e-06
-2.108418e-06 8.186018e-07 8.916757e-06 -1.5374882e-06 8.186018e-07 3.3730537e-06 7.513592e-07 1.5074074e-06
2.3321786e-06 -9.0547815e-07 -9.863077e-06 1.8502575e-06 -9.0547815e-07 -3.8034516e-06 -1.7802045e-06 -6.113248e-07
-2.1163762e-05 8.21692e-06 8.9504225e-05 -1.5768137e-05 8.21692e-06 2.0863925e-05 9.864245e-06 -2.2782833e-06
-5.318007e-06 2.0647383e-06 2.2490525e-05 -3.9758384e-06 2.0647383e-06 6.902076e-06 1.6505497e-06 2.9095523e-07
2.647477e-05 -1.0278941e-05 -0.00011196512 2.062992e-05 -1.0278941e-05 -3.1442476e-05 -4.3914133e-06 -7.3053167e-07
-1.0198469e-05 3.9595993e-06 4.3130538e-05 -8.91118e-06 3.9595993e-06 5.836236e-06 -1.0283076e-06 -2.2632364e-06
-5.263155e-05 2.0434407e-05 0.00022258518 -4.0524374e-05 2.0434407e-05 -8.968077e-07 4.2338892e-05 -8.181365e-05
5.7120964e-05 -2.2177484e-05 -0.00024157198 4.7641402e-05 -2.2177484e-05 1.401043e-06 -5.4122003e-05 7.739969e-05
-7.3564814e-05 2.8561824e-05 0.00031111456 -5.430177e-05 2.8561824e-05 0.00010647158 2.8876297e-05 2.8003276e-05
-0.00014529238 5.6410365e-05 0.0006144596 -0.00010712863 5.6410365e-05 0.00012642486 7.67466e-05 -5.88786e-05
-0.00018545915 7.200529e-05 0.0007843291 -0.00014320656 7.200529e-05 0.00013648282 7.837987e-05 -9.513427e-05
-3.3591104e-07 1.3041898e-07 1.4206109e-06 -3.628893e-07 1.3041898e-07 -1.5683263e-06 2.7573758e-06 -2.6627415e-06
1.5925305e-05 -6.1830674e-06 -6.735011e-05 1.3128525e-05 -6.1830674e-06 -1.7549237e-05 -9.5255736e-08 2.3387165e-06
-2.7966142e-05 1.08579625e-05 0.00011827225 -2.0626792e-05 1.08579625e-05 9.143697e-06 2.123955e-05 -3.0642317e-05
4.231364e-06 -1.642846e-06 -1.7894961e-05 3.1512448e-06 -1.642846e-06 -3.9337424e-06 -3.0902252e-06 1.2910604e-06
-5.9765996e-05 2.3204404e-05 0.00025275792 -4.628641e-05 2.3204404e-05 7.054104e-05 1.8483608e-05 -1.9236359e-06
1.0804562e-05 -4.1949193e-06 -4.5693883e-05 7.75413e-06 -4.1949193e-06 -2.1623922e-05 -1.8734005e-06 -1.2193485e-05
-3.1979816e-06 1.2416308e-06 1.352467e-05 -2.3842126e-06 1.2416308e-06 1.4692151e-05 -5.8605997e-06 4.7484714e-06
0.00015124644 -5.8722057e-05 -0.00063964026 0.000113290305 -5.8722057e-05 -0.00012802704 -8.717258e-05 3.9619958e-05
-7.927017e-06 3.077697e-06 3.3524317e-05 -6.305787e-06 3.077697e-06 7.853195e-06 1.9998326e-06 -6.203899e-06
4.0608633e-05 -1.5766473e-05 -0.00017173901 2.8598071e-05 -1.5766473e-05 -9.4519004e-05 -6.175863e-06 -7.5740136e-05
-0.00012206563 4.7392492e-05 0.0005162307 -9.448015e-05 4.7392492e-05 0.000120926685 3.6875743e-05 -2.4531651e-05
-1.5173703e-05 5.891254e-06 6.417149e-05 -1.177101e-05 5.891254e-06 2.1318105e-05 8.510005e-06 8.808266e-06
-0.00039298492 0.00015257795 0.0016619815 -0.0002977059 0.00015257795 0.0004217346 0.00014185581 -8.566556e-06
-1.0523481e-05 4.0857853e-06 4.450509e-05 -7.624948e-06 4.0857853e-06 1.2090426e-05 5.6550457e-06 1.4166676e-06
-0.00026258215 0.00010194862 0.0011104929 -0.00019726693 0.00010194862 0.00031195552 9.57598e-05 2.1434e-05
1.080433e-05 -4.194843e-06 -4.5692937e-05 7.988757e-06 -4.194843e-06 1.8315315e-05 -2.6601014e-05 3.0512118e-05
-8.03448e-06 3.119412e-06 3.397881e-05 -6.253307e-06 3.119412e-06 -1.1233853e-06 5.7234006e-06 -1.2830354e-05
00000000: c73c 0ab5 50ae 5634 a027 1236 afa3 34b5
00000010: 50ae 5634 550d 8eb7 0964 2d37 fd8b 92b7
00000020: 0726 adb5 8873 0635 1211 b736 539b 84b5
00000030: 8873 0635 34d6 d435 791c 4c34 bee0 6734
00000040: e97c 00b8 3a8b 4737 0dd9 0739 4dd0 c2b7
00000050: 3a8b 4737 11e5 0638 7455 4a37 56be b0b6
00000060: 9413 ae36 102c 07b6 340c b8b7 6c69 fa35
00000070: 102c 07b6 9250 58b7 3afe cab6 8bf6 f9b6
00000080: 587e 0db6 e3bd 5b35 2e99 1537 b15b ceb5
00000090: e3bd 5b35 9f5c 6236 03b1 4935 2052 ca35
000000a0: 8682 1c36 fc0f 73b5 9879 25b7 5d56 f835
000000b0: fc0f 73b5 cd3e 7fb6 5cef eeb5 ec19 24b5
000000c0: d588 b1b7 67db 0937 37b4 bb38 d145 84b7
000000d0: 67db 0937 f004 af37 9c7e 2537 9ce4 18b6
000000e0: 5571 b2b6 ef8f 0a36 09aa bc37 3168 85b6
000000f0: ef8f 0a36 6298 e736 7588 dd35 9534 9c34
00000100: 2316 de37 b773 2cb7 d1ce eab8 6a0e ad37
00000110: b773 2cb7 1ae1 03b8 f459 93b6 c119 44b5
00000120: 171a 2bb7 b3dc 8436 10e7 3438 3a81 15b7
00000130: b3dc 8436 e3d4 c336 6104 8ab5 1be2 17b6
00000140: b2c0 5cb8 8e6a ab37 c165 6939 b7f8 29b8
00000150: 8e6a ab37 28bc 70b5 0a95 3138 5e93 abb8
00000160: 2b95 6f38 c909 bab7 7c4e 7db9 91d2 4738
00000170: c909 bab7 790b bc35 0f01 63b8 a451 a238
00000180: cf46 9ab8 0d98 ef37 171d a339 15c2 63b8
00000190: 0d98 ef37 7f49 df38 603b f237 94e8 ea37
000001a0: a059 18b9 2b9a 6c38 b013 213a 3faa e0b8
000001b0: 2b9a 6c38 ea90 0439 04f3 a038 6af4 76b8
000001c0: d077 42b9 8c01 9738 6f9b 4d3a b829 16b9
000001d0: 8c01 9738 d41c 0f39 df5f a438 d382 c7b8
000001e0: 4357 b4b4 4c09 0c34 d2ab be35 20d3 c2b4
000001f0: 4c09 0c34 487f d2b5 5b0b 3936 8db1 32b6
00000200: 5597 8537 2578 cfb6 513e 8db8 9642 5c37
00000210: 2578 cfb6 b336 93b7 658f ccb3 d8f2 1c36
00000220: d598 eab7 982a 3637 ee08 f838 b307 adb7
00000230: 982a 3637 e167 1937 962b b237 f085 00b8
00000240: 24fb 8d36 c27f dcb5 231d 96b7 f979 5336
00000250: c27f dcb5 97fe 83b6 aa61 4fb6 7f48 ad35
00000260: 40ad 7ab8 14a7 c237 9884 8439 a823 42b8
00000270: 14a7 c237 6fef 9338 3f0d 9b37 d017 01b6
00000280: 3e45 3537 15c2 8cb6 6fa7 3fb8 bc17 0237
00000290: 15c2 8cb6 0565 b5b7 8d71 fbb5 9f92 4cb7
000002a0: e89c 56b6 1ca6 a635 04e8 6237 7600 20b6
000002b0: 1ca6 a635 4f7e 7637 2ba6 c4b6 0f55 9f36
000002c0: e897 1e39 544c 76b8 88ad 27ba 4596 ed38
000002d0: 544c 76b8 ff3e 06b9 6cd0 b6b8 9b2d 2638
000002e0: 47fe 04b7 6f8a 4e36 769c 0c38 4c96 d3b6
000002f0: 6f8a 4e36 37c1 0337 dd34 0636 162b d0b6
00000300: 3053 2a38 3e42 84b7 d714 34b9 e4e5 ef37
00000310: 3e42 84b7 8138 c6b8 423a cfb6 add6 9eb8
00000320: 7cfd ffb8 4dc7 4638 a853 073a a523 c6b8
00000330: 4dc7 4638 059a fd38 07ab 1a38 52c9 cdb7
00000340: 8f92 7eb7 7dad c536 ce93 8638 1a7c 45b7
00000350: 7dad c536 48d4 b237 31c6 0e37 37c7 1337
00000360: 8b09 ceb9 55fd 1f39 d8d6 d93a 6915 9cb9
00000370: 55fd 1f39 431c dd39 21bf 1439 14b9 0fb7
00000380: 028e 30b7 a118 8936 faaa 3a38 ced9 ffb6
00000390: a118 8936 fcd7 4a37 79c0 bd36 5424 be35
000003a0: 2eab 89b9 40cd d538 f58d 913a 70d9 4eb9
000003b0: 40cd d538 f68d a339 a7d2 c838 2acd b337
000003c0: 3e44 3537 6dc1 8cb6 6ba6 3fb8 7307 0637
000003d0: 6dc1 8cb6 d7a3 9937 3e25 dfb7 46f4 ff37
000003e0: d4cb 06b7 1757 5136 7884 0e38 80d3 d1b6
000003f0: 1757 5136 3ac7 96b5 a30b c036 f341 57b7

exp_avg_sq f4 [128, 8]
5.5804794e-08 8.412088e-09 9.980963e-07 1.5080312e-08 8.412088e-09 3.94894e-08 9.203093e-10 7.3585504e-10
7.7074e-12 1.1618237e-12 1.3785072e-10 2.1118892e-12 1.1618237e-12 5.8512422e-12 1.7973196e-13 4.778637e-13
7.457184e-08 1.1241062e-08 1.3337544e-06 1.5369123e-08 1.1241062e-08 3.695219e-08 1.3863553e-09 2.2756617e-09
7.17359e-08 1.0813563e-08 1.2830308e-06 1.7719573e-08 1.0813563e-08 4.51322e-08 1.4949284e-09 3.8729695e-09
6.0137717e-10 9.0652395e-11 1.0755931e-08 1.07959176e-10 9.0652395e-11 3.2145983e-10 1.6115229e-11 5.6881604e-11
9.616421e-10 1.4495918e-10 1.7199438e-08 2.45867e-11 1.4495918e-10 3.2785347e-10 4.6733162e-11 5.603474e-10
1.3648745e-08 2.0574296e-09 2.4411466e-07 4.7143534e-09 2.0574296e-09 1.140349e-08 1.7469702e-10 4.25442e-10
2.060986e-10 3.1067576e-11 3.686177e-09 6.61235e-11 3.1067576e-11 1.6279227e-10 5.676732e-12 1.567432e-11
3.5054315e-09 5.2841326e-10 6.2696365e-08 1.2495789e-09 5.2841326e-10 2.9238887e-09 6.974656e-11 8.554997e-11
5.264569e-09 7.935878e-10 9.41594e-08 1.713669e-09 7.935878e-10 4.6764073e-09 9.81643e-11 1.360547e-10
7.977922e-07 1.2026025e-07 1.4268916e-05 2.3197954e-07 1.2026025e-07 5.9667514e-07 1.4787355e-08 1.4835036e-08
1.2029535e-06 1.8133484e-07 2.1515418e-05 2.6650798e-07 1.8133484e-07 6.919956e-07 2.8427337e-08 2.4104828e-08
7.1914224e-07 1.0840441e-07 1.286221e-05 1.3087464e-07 1.0840441e-07 3.711181e-07 1.6451857e-08 5.1124292e-08
7.3386167e-07 1.10623304e-07 1.3125483e-05 2.4334489e-07 1.10623304e-07 5.8439497e-07 1.1441039e-08 2.9339398e-08
2.1581163e-06 3.253173e-07 3.8598973e-05 5.502321e-07 3.253173e-07 1.3922474e-06 3.5104545e-08 4.1660034e-08
6.4179396e-08 9.674484e-09 1.1478799e-06 4.2720747e-09 9.674484e-09 1.6380712e-08 2.207542e-09 3.6805372e-09
1.0316477e-08 1.5551196e-09 1.8451537e-07 9.904061e-10 1.5551196e-09 2.2022684e-09 2.503272e-10 2.3182176e-10
4.882953e-08 7.3606303e-09 8.7334024e-07 2.2566697e-08 7.3606303e-09 5.5176766e-08 4.751729e-10 9.080992e-10
3.3992504e-09 5.1240756e-10 6.079727e-08 5.7275595e-10 5.1240756e-10 1.5970587e-09 4.899126e-11 2.566796e-10
8.831979e-08 1.3313444e-08 1.5796426e-06 1.4411321e-08 1.3313444e-08 3.7977795e-08 2.200145e-09 5.757577e-09
1.62875e-08 2.4551994e-09 2.9130993e-07 5.363795e-09 2.4551994e-09 1.3878197e-08 2.5486732e-10 6.656408e-10
3.7043948e-09 5.584054e-10 6.625495e-08 1.7495752e-09 5.584054e-10 4.4261506e-09 1.1899944e-10 2.9272612e-10
3.2083767e-06 4.836348e-07 5.73834e-05 6.6594237e-07 4.836348e-07 1.7521712e-06 5.514785e-08 9.503953e-08
3.2734288e-08 4.9344098e-09 5.854691e-07 3.9984798e-09 4.9344098e-09 1.0305242e-08 5.9665856e-10 1.9978095e-09
6.618108e-07 9.9762275e-08 1.1836816e-05 1.9113668e-07 9.9762275e-08 4.988041e-07 1.1785036e-08 3.5809023e-08
3.3260048e-07 5.013662e-08 5.948725e-06 8.326299e-08 5.013662e-08 2.0458333e-07 6.5521264e-09 4.4432165e-09
2.3725548e-09 3.5764203e-10 4.243432e-08 4.652187e-10 3.5764203e-10 1.4777721e-09 5.4422605e-10 3.5731523e-10
5.66523e-06 8.539844e-07 0.00010132548 1.428549e-06 8.539844e-07 3.6079612e-06 9.3979494e-08 1.6779984e-07
4.6414863e-09 6.9966405e-10 8.3015344e-08 1.5412863e-09 6.9966405e-10 3.712342e-09 6.414184e-11 1.4460322e-10
2.2394295e-06 3.375749e-07 4.0053335e-05 5.841678e-07 3.375749e-07 1.4722729e-06 3.877869e-08 9.435336e-08
4.2887814e-07 6.464967e-08 7.670697e-06 8.594298e-08 6.464967e-08 2.3535317e-07 8.315901e-09 1.0220203e-08
2.2569495e-08 3.4021552e-09 4.0366686e-07 6.3742114e-09 3.4021552e-09 1.610938e-08 3.4760994e-10 3.4898448e-10
00000000: 05ae 6f33 c184 1032 54f6 8535 f589 8132
00000010: c184 1032 0e9b 2933 02f9 7c30 3245 4a30
00000020: 0b97 072d 1c83 a32b 8791 172f 6a9c 142c
00000030: 1c83 a32b 4edf cd2c 365c 4a2a b581 062b
00000040: 4d24 a033 b71e 4132 7403 b335 0f05 8432
00000050: b71e 4132 5db5 1e33 0a8a be30 dd61 1c31
00000060: 3a0d 9a33 8ec6 3932 9a34 ac35 c135 9832
00000070: 8ec6 3932 61d7 4133 1e76 cd30 0013 8531
00000080: 284e 2530 c358 c72e 16c9 3832 9d67 ed2e
00000090: c358 c72e 73b9 b02f 45c0 8d2d fe2a 7a2e
000000a0: c62a 8430 6262 1f2f f7bd 9332 5444 d82d
000000b0: 6262 1f2f 463d b42f dd88 4d2e f106 1a30
000000c0: d17b 6a32 af62 0d31 dd0e 8334 e4fb a131
000000d0: af62 0d31 14e9 4332 d714 402f a3e3 e92f
000000e0: 999b 622f fba2 082e e94f 7d31 3968 912e
000000f0: fba2 082e f3fd 322f 75bb c72c 6edf 892d
00000100: 34e4 7031 c73f 1130 b1a3 8633 a6bd ab30
00000110: c73f 1130 98ed 4831 d35f 992e 5a20 bc2e
00000120: a3e3 b431 c723 5a30 ad34 ca33 5e86 eb30
00000130: c723 5a30 1dae a031 97dd d72e fe97 152f
00000140: dd27 5635 e320 0134 8764 6f37 0d16 7934
00000150: e320 0134 342b 2035 7a0b 7e32 2edd 7e32
00000160: 2b75 a135 f1b4 4234 027c b437 9414 8f34
00000170: f1b4 4234 93c1 3935 6030 f432 140f cf32
00000180: 140b 4135 f4cb e833 c5ca 5737 8c86 0c34
00000190: f4cb e833 153e c734 0452 8d32 c193 5b33
000001a0: 97fe 4435 ce8f ed33 8535 5c37 11a5 8234
000001b0: ce8f ed33 51df 1c35 398e 4432 0506 fc32
000001c0: 28d4 1036 45a7 ae34 55e5 2138 a9b3 1335
000001d0: 45a7 ae34 42dd ba35 dbc5 1633 b1ed 3233
000001e0: ffd2 8933 d534 2632 da10 9a35 91c9 9231
000001f0: d534 2632 91b5 8c32 7db3 1731 b2ec 7c31
00000200: 583c 3132 e8bb d530 331f 4634 d11e 8830
00000210: e8bb d530 b756 1731 6c9e 892f 06e4 7e2f
00000220: a3b8 5133 cae8 fc31 7c6f 6a35 b1d8 c132
00000230: cae8 fc31 7ffb 6c33 529d 0230 cd9d 7930
00000240: 3f98 6931 7ad9 0c30 a78f 8233 1e70 1d30
00000250: 7ad9 0c30 827f db30 4177 572e 711c 8d2f
00000260: 51aa bd33 25b9 6432 1b04 d435 a995 7732
00000270: 25b9 6432 071d 2333 5c31 1731 2fd4 c531
00000280: 97e8 8b32 53b8 2831 5565 9c34 714c b831
00000290: 53b8 2831 f56c 6e32 631d 8c2f 4ff8 3630
000002a0: 6790 7e31 497e 1930 0b48 8e33 b475 f030
000002b0: 497e 1930 d514 9831 5dd7 022f 8aed a02f
000002c0: 7e4f 5736 21d3 0135 f5ae 7038 36c3 3235
000002d0: 21d3 0135 252c eb35 b4db 6c33 8918 cc33
000002e0: bb97 0c33 878b a931 2129 1d35 0063 8931
000002f0: 878b a931 ef0a 3132 1d02 2430 d649 0931
00000300: 4ba7 3135 e43c d633 bd96 4637 403b 4d34
00000310: e43c d633 8fe5 0535 2377 4a32 70cc 1933
00000320: 4390 b234 cc55 5733 299b c736 50ce b233
00000330: cc55 5733 70ab 5b34 1d21 e131 f2aa 9831
00000340: 6d0a 2331 a49d c42f 0741 3633 b6c1 ff2f
00000350: a49d c42f 7c1a cb30 8198 1530 a66f c42f
00000360: f517 be36 5c3d 6535 b47e d438 92bc bf35
00000370: 5c3d 6535 4d20 7236 c6d1 c933 782c 3434
00000380: f27a 9f31 7b52 4030 2b46 b233 31d5 d330
00000390: 7b52 4030 361c 7f31 a50c 8d2e 30fe 1e2f
000003a0: 1b49 1636 f13b b534 f1fe 2738 b5cf 1c35
000003b0: f13b b534 e99a c535 9f8d 2633 4f9f ca33
000003c0: 9040 e634 88d5 8a33 65b1 0037 a78f b833
000003d0: 88d5 8a33 63b5 7c34 b8dd 0e32 ee94 2f32
000003e0: d8de c132 59cb 6931 8db7 d834 2804 db31
000003f0: 59cb 6931 e760 8a32 c019 bf2f 33db bf2f

exp_avg f4 [128]
3.9987435e-07 1.0017402e-06 2.3787481e-05 -4.028443e-06 1.6372036e-06 -1.8109563e-06 1.643384e-05 4.1294766e-06
-2.0557882e-05 7.919199e-06 4.0868814e-05 -4.435497e-05 5.712365e-05 0.00011282073 0.00014401058 2.6083796e-07
-1.2366135e-05 2.1715925e-05 -3.285692e-06 4.6408808e-05 -8.3898385e-06 2.4832616e-06 -0.00011744411 6.155394e-06
-3.1532945e-05 9.4784984e-05 1.1782508e-05 0.0003051559 8.171571e-06 0.00020389725 -8.389686e-06 6.238824e-06
-1.8991135e-05 0.00021922041 1.6400639e-06 1.5862776e-06 2.3435334e-05 -8.576071e-06 2.8813842e-05 -5.2568594e-06
8.947488e-06 0.00020955056 -4.859751e-06 2.956972e-06 9.084831e-05 -1.1456148e-06 -1.4928245e-05 1.1841025e-06
-5.30583e-05 -2.103943e-06 -1.7786644e-05 1.3614691e-05 0.00025810677 0.0002062021 8.686181e-06 -1.3045264e-05
4.2205356e-05 6.5802565e-06 5.766791e-07 -2.6500831e-05 6.3340296e-05 2.8071756e-05 0.0001784858 1.0990449e-05
4.5346227e-05 -1.974272e-05 1.2427457e-05 -6.780432e-05 -9.1914815e-05 6.279493e-06 -7.8633894e-07 7.974675e-06
0.00010084871 8.287423e-06 -0.00013392026 -4.4376775e-05 -3.520777e-05 0.0001795094 3.3341792e-05 -4.0235587e-05
2.4719193e-05 9.537163e-05 1.6188884e-05 4.0705886e-06 1.94877e-05 -7.784585e-05 0.00014083456 0.00010936419
-2.7412086e-06 -5.6971985e-06 -1.684309e-06 1.4859164e-05 -1.6037749e-06 9.892042e-05 -1.4872679e-05 -3.740013e-05
-3.369662e-05 0.00021387443 2.968028e-05 -1.9575607e-05 0.000140921 -3.3830776e-05 2.9302098e-05 1.5991462e-06
4.425423e-06 4.8627302e-05 -7.4463696e-06 2.639881e-06 6.706623e-06 5.990254e-06 2.0850004e-05 -1.0704914e-05
7.908738e-06 -3.5662444e-05 -2.1659976e-06 -3.7749352e-05 2.883237e-07 1.0317865e-05 2.3509663e-06 9.463249e-06
2.7828093e-05 0.00022658987 1.203976e-05 -9.702781e-06 2.4938217e-05 -3.095214e-05 -3.5144283e-05 7.4144305e-06
00000000: 50ae d634 8873 8635 3a8b c737 102c 87b6
00000010: e3bd db35 fc0f f3b5 67db 8937 ef8f 8a36
00000020: b773 acb7 b3dc 0437 8e6a 2b38 c909 3ab8
00000030: 0d98 6f38 2b9a ec38 8c01 1739 4c09 8c34
00000040: 2578 4fb7 982a b637 c27f 5cb6 14a7 4238
00000050: 15c2 0cb7 1ca6 2636 544c f6b8 6f8a ce36
00000060: 3e42 04b8 4dc7 c638 7dad 4537 55fd 9f39
00000070: a118 0937 40cd 5539 6dc1 0cb7 1757 d136
00000080: 274f 9fb7 88de 6539 2b20 dc35 15e8 d435
00000090: ff96 c437 f2e1 0fb7 41b5 f137 1464 b0b6
000000a0: 2b1d 1637 cdba 5b39 f110 a3b6 6470 4636
000000b0: d185 be38 06c3 99b5 5374 7ab7 74ed 9e35
000000c0: ea8a 5eb8 7731 0db6 8734 95b7 a76a 6437
000000d0: 8152 8739 f437 5839 ddba 1137 fbdc 5ab7
000000e0: a805 3138 f9cb dc36 16cd 1a35 1a4e deb7
000000f0: 90d5 8438 a37b eb37 eb27 3b39 9e63 3837
00000100: 2432 3e38 2b9d a5b7 857f 5037 2b32 8eb8
00000110: 64c2 c0b8 6fb4 d236 cd14 53b5 f8ca 0537
00000120: bd7e d338 360a 0b37 f26c 0cb9 3321 3ab8
00000130: 0eac 13b8 b03a 3c39 7ad8 0b38 a2c2 28b8
00000140: 105c cf37 4102 c838 5dcd 8737 1796 8836
00000150: 8479 a337 2c41 a3b8 fdac 1339 745a e538
00000160: 9bf5 37b6 902a bfb6 6b10 e2b5 a04b 7937
00000170: 4941 d7b5 7f73 cf38 ab85 79b7 15de 1cb8
00000180: 7855 0db8 7b43 6039 eaf9 f837 4c36 a4b7
00000190: 31c4 1339 85e5 0db8 c7cd f537 3fa2 d635
000001a0: 187e 9436 2bf5 4b38 d4db f9b6 cf28 3136
000001b0: 7409 e136 e4ff c836 0be7 ae37 4199 33b7
000001c0: c5af 0437 4294 15b8 8e5b 11b6 0f55 1eb8
000001d0: e8ca 9a34 e51a 2d37 4bc5 1d36 58c4 1e37
000001e0: 6070 e937 c198 6d39 60fe 4937 21c9 22b7
000001f0: 6a32 d137 9bd2 01b8 e367 13b8 79c9 f836

exp_avg_sq f4 [128]
3.364835e-08 4.6472947e-12 4.496425e-08 4.3254254e-08 3.6260958e-10 5.7983673e-10 8.229718e-09 1.242703e-10
2.113653e-09 3.1743512e-09 4.81041e-07 7.2533936e-07 4.3361763e-07 4.4249322e-07 1.3012692e-06 3.8697937e-08
6.2204784e-09 2.9442521e-08 2.0496302e-09 5.3253775e-08 9.8207975e-09 2.2336215e-09 1.9345391e-06 1.9737639e-08
3.990491e-07 2.0054648e-07 1.4305681e-09 3.4159375e-06 2.7986562e-09 1.3502996e-06 2.5859867e-07 1.3608621e-08
1.7793575e-08 6.200537e-07 1.0958353e-09 3.644488e-10 3.745584e-08 1.2991964e-08 5.0959756e-07 3.1179852e-09
4.392164e-09 1.1988515e-06 3.7641382e-06 9.389454e-11 1.5713685e-07 3.3472447e-10 7.263746e-08 2.7707205e-09
1.3895153e-06 1.7081944e-09 3.076596e-08 7.8546583e-07 1.0812985e-06 1.7949342e-06 5.234857e-10 2.178588e-07
3.3698966e-06 2.61656e-08 2.3086155e-10 6.0909424e-09 1.6371906e-07 2.1752898e-07 1.1876134e-06 6.7640595e-09
1.5666099e-07 4.2189086e-08 1.3018665e-07 9.767306e-07 4.3899402e-07 2.791219e-09 4.5103654e-10 1.4967185e-08
2.3176288e-07 3.3337255e-08 1.4580025e-06 1.16290735e-07 8.445562e-07 1.6629159e-06 2.2829249e-07 1.6824447e-07
1.554024e-07 3.3759227e-07 8.38974e-09 4.0509768e-10 6.5145805e-08 2.791765e-07 1.2924947e-07 1.6062596e-06
1.033279e-09 4.4595154e-09 1.5384417e-09 1.4369828e-08 8.728756e-09 7.687441e-07 4.485157e-07 2.964873e-07
3.3992944e-08 2.3234672e-06 4.7444882e-08 1.7641734e-07 5.5229464e-07 3.6258548e-08 1.385384e-07 4.6729545e-09
3.869656e-09 7.7421184e-08 3.4090522e-08 1.8227096e-09 5.9578436e-09 3.142926e-07 2.1564265e-08 9.797703e-09
7.8593554e-10 2.3043204e-07 1.3979463e-09 4.3328083e-07 1.0946739e-08 3.2242852e-07 2.7180833e-09 3.695299e-08
3.1502927e-07 7.8884324e-07 1.0760607e-07 1.5543196e-07 3.8053938e-07 7.966893e-08 1.2075557e-08 2.8839509e-08
00000000: c184 1033 1c83 a32c b71e 4133 8ec6 3933
00000010: c358 c72f 6262 1f30 af62 0d32 fba2 082f
00000020: c73f 1131 c723 5a31 e320 0135 f1b4 4235
00000030: f4cb e834 ce8f ed34 45a7 ae35 d534 2633
00000040: e8bb d531 cae8 fc32 7ad9 0c31 25b9 6433
00000050: 53b8 2832 497e 1931 21d3 0136 878b a932
00000060: e43c d634 cc55 5734 a49d c430 5c3d 6536
00000070: 7b52 4031 f13b b535 88d5 8a34 59cb 6932
00000080: 7cd8 9832 c471 2635 479c 9630 9c5b c82f
00000090: 22df 2033 4333 5f32 47cb 0835 2d44 5631
000000a0: e2e9 9631 39e8 a035 679b 7c36 ed79 ce2e
000000b0: 73b9 2834 4804 b82f defc 9b33 0867 3e31
000000c0: 627f ba35 bfc5 ea30 8823 0433 cdd8 5235
000000d0: 2221 9135 78e9 f035 08e5 0f30 92ec 6934
000000e0: 6226 6236 c3c2 e032 c0d5 7d2f 7f48 d131
000000f0: c1ca 2f34 e991 6934 1666 9f35 4c69 e831
00000100: a536 2834 6433 3533 6fc9 0b34 3518 8335
00000110: e1ae eb34 a5cf 3f31 c0f5 f72f 3091 8032
00000120: 7fda 7834 b32e 0f33 96b0 c335 82bb f933
00000130: 76b5 6235 5b31 df35 9020 7534 b0a6 3434
00000140: b0dc 2634 543e b534 7722 1032 6eb4 de2f
00000150: 49e6 8b33 bae1 9534 d3c7 0a34 a996 d735
00000160: 4603 8e30 503a 9931 1b71 d330 2cdf 7632
00000170: 7af5 1532 b15b 4e35 87cb f034 e72c 9f34
00000180: a3ff 1133 ddec 1b36 33c6 4b33 3b6d 3d34
00000190: 6641 1435 b2ba 1b33 25c1 1434 be8f a031
000001a0: dbf5 8431 bf42 a633 ed6a 1233 e582 fa30
000001b0: bfb5 cc31 0cbc a834 523c b932 c152 2832
000001c0: 4c09 5830 ad6c 7734 dd21 c030 aa9d e834
000001d0: 4410 3c32 3d1a ad34 07c9 3a31 3eb6 1e33
000001e0: 4b21 a934 e5c0 5335 1015 e733 d0e4 2634
000001f0: ef4c cc34 7516 ab33 dd74 4f32 c0ba f732
