results/ManAgent/ManAgent/checkpoint.pt (torch, 505122 bytes, 33 tensors)

network_body._body_endoder.seq_layers.0.weight f4 [128, 27]
-0.4123122 -0.02916988 -0.75971365 -0.057075128 -0.329557 0.11878903 0.096806884 -0.12865885
-0.21267137 0.23178461 -0.28091502 0.04501993 0.11644692 0.17379847 -0.13935202 0.5555408
-0.22019963 -0.29317808 0.059012283 0.1528225 0.15695706 -0.34901637 -0.05093189 0.24238844
-0.17037046 -0.21758096 -0.49377593 -0.012738828 -0.10133868 0.6715043 0.36716795 0.19893591
0.27947015 -0.14856799 0.09653409 -0.0697376 0.08567694 0.31153253 0.16746539 -0.048015233
0.21811949 0.3326255 -0.09587952 0.23721072 0.15954502 -0.40492928 -0.2900523 -0.050241716
0.11471921 -0.2525378 -0.10468135 0.16284719 0.28183714 0.09692477 0.3041147 -0.25153
0.6011825 -0.09541919 -0.2180425 0.1604935 -0.04275982 0.33557743 -0.3565097 -0.4546547
-0.06931017 0.2849666 0.05485882 -0.24789669 -0.3852852 -0.41360503 0.1143514 0.23561439
-0.04930031 -0.09650843 0.03575433 -0.060466398 0.10998338 -0.061437245 0.36692822 0.1613009
0.52200574 -0.32614574 -0.17504095 0.12951323 -0.2952863 -0.027984917 -0.08160709 -0.2209766
-0.06798744 -0.16424683 -0.43022949 0.11141382 -0.21782841 -0.12507191 0.12769344 -0.12684973
-0.48746684 0.052052766 0.036065105 -0.13366166 -0.10938456 -0.06342572 -0.19115739 -0.19347976
0.081072256 -0.10713858 0.25037372 -0.09857786 -0.13148165 0.19941638 -0.42574358 0.030165112
0.02063398 -0.226323 -0.07349863 0.13304444 -0.10794228 0.99316996 0.18489234 -0.06413619
-0.008617638 0.14538912 0.10707584 0.523613 -0.218079 -0.40200666 0.25860012 -0.05394895
-0.23995356 -0.066266544 -0.24555862 -0.22012563 -0.29480574 -0.17425026 -0.48478618 0.17575969
0.09717893 0.6055818 0.4798034 -0.028934218 0.25433892 -0.21355288 0.16479985 -0.06711625
-0.5452076 0.04182139 0.26210904 0.14429116 -0.15356673 -0.0045407545 -0.31101078 0.2400801
0.13007882 0.029148435 -0.017427897 -0.15515225 -0.06223872 0.20444429 -0.2332341 0.09776651
-0.23440534 -0.03011494 0.1929126 -0.004918523 -0.6546455 0.6684626 0.02698412 -0.12595548
-0.09820708 -0.16705061 0.077123165 -0.064965785 0.11358596 -0.10415789 0.21834639 0.048301347
-0.17292403 -0.009565346 0.049844846 0.098886155 -0.20683862 0.25826868 -0.18447234 -0.09939594
-0.0458512 -0.034579124 0.24554698 -0.29866257 0.24514866 0.03239101 -0.104634754 0.47142762
0.06915508 -0.28074953 -0.37247664 0.2105351 0.03710002 0.08942134 -0.6249949 -0.18380176
-0.1268474 -0.00908372 -0.2705751 -0.11715623 -0.8787556 -0.08838368 0.082947336 0.038190287
0.08363258 0.09069661 -0.20056386 -0.15057911 0.17550859 -0.17425317 0.22580539 -0.18486273
0.07412486 -0.26848328 0.2440417 -0.11048949 0.12585515 0.21351862 0.026643187 0.09304424
-0.040765107 -0.6468282 -0.14963841 -0.0137446495 -0.11420148 0.030356381 -0.2180739 -0.028850326
0.06916083 0.23744786 0.0016277591 -0.66438305 -0.43460742 0.16155884 -0.15166701 0.06267137
-0.14729856 -0.56266004 0.11364583 0.08959652 -0.20308353 -0.42527524 0.56528366 -0.26895103
-0.020636335 -0.3963685 -0.010380764 -0.10379084 0.21647748 -0.08380799 0.0359465 -0.05099143
00000000: 961a d3be acf5 eebc 987c 42bf 9cc7 69bd
00000010: b2bb a8be aa47 f33d b042 c63d 25bf 03be
00000020: 86c6 59be f258 6d3e 18d4 8fbe d166 383d
00000030: b97b ee3d 3af8 313e 4cb2 0ebe ec37 0e3f
00000040: 037c 61be 701b 96be ddb6 713d 807d 1c3e
00000050: 5ab9 203e 46b2 b2be f59d 50bd ad34 783e
00000060: 9875 2ebe 8bcd 5ebe 33d0 fcbe 84b6 50bc
00000070: a78a cfbd b5e7 2b3f 70fd bb3e dbb5 4b3e
00000080: b616 8f3e 3522 18be aab3 c53d 96d2 8ebd
00000090: 6477 af3d 3181 9f3e 0c7c 2b3e 9fab 44bd
000000a0: b75a 5f3e e44d aa3e 7b5c c4bd 5ee7 723e
000000b0: c55f 233e e452 cfbe bc81 94be 42ca 4dbd
000000c0: e8f1 ea3d a24c 81be 2d63 d6bd 6ac1 263e
000000d0: f54c 903e 7e80 c63d ecb4 9b3e 8ac8 80be
000000e0: 19e7 193f 236b c3bd 8846 5fbe 6858 243e
000000f0: ec24 2fbd ced0 ab3e 7088 b6be 80c8 e8be
00000100: 7ef2 8dbd 24e7 913e a4b3 603d a1d8 7dbe
00000110: 1a44 c5be 0ac4 d3be 1131 ea3d e644 713e
00000120: 1fef 49bd 36a6 c5bd 2273 123d 9dab 77bd
00000130: f73e e13d 9fa5 7bbd 04de bb3e 102c 253e
00000140: 2ba2 053f 93fc a6be ef3d 33be 1e9f 043e
00000150: c42f 97be a040 e5bc 9e21 a7bd b147 62be
00000160: 003d 8bbd 5230 28be 0a47 dcbe ee2c e43d
00000170: 690e 5fbe da12 00be 12c2 023e e5e4 01be
00000180: 4195 f9be 4835 553d 01b9 133d 9ade 08be
00000190: 0305 e0bd 58e5 81bd c3be 43be 8f1f 46be
000001a0: 3609 a63d 796b dbbd fc30 803e 30e3 c9bd
000001b0: 20a3 06be cf33 4c3e 10fb d9be d31c f73c
000001c0: 9808 a93c 37c1 67be 7386 96bd cd3c 083e
000001d0: d810 ddbd 6340 7e3f 6b54 3d3e d659 83bd
000001e0: fe30 0dbc e3e0 143e 944a db3d 800b 063f
000001f0: 1a50 5fbe d1d3 cdbe 3c67 843e 93f9 5cbd
00000200: 63b6 75be c1b6 87bd b873 7bbe 9d68 61be
00000210: c7f0 96be a96e 32be e535 f8be 59fa 333e
00000220: bf05 c73d 6907 1b3f cba8 f53e 7407 edbc
00000230: b638 823e 9bad 5abe 4bc1 283e 3f74 89bd
00000240: ba92 0bbf e84c 2b3d 2833 863e 10c1 133e
00000250: 9940 1dbe 9cca 94bb ce3c 9fbe 8fd7 753e
00000260: 6233 053e b3c8 ee3c f3c4 8ebc 3be0 1ebe
00000270: 07ee 7ebd d859 513e ebd4 6ebe cf39 c83d
00000280: f407 70be 9bb3 f6bc e18a 453e 902b a1bb
00000290: d996 27bf 5d20 2b3f cd0d dd3c 79fa 00be
000002a0: cb20 c9bd 510f 2bbe c0f2 9d3d c80c 85bd
000002b0: c19f e83d bb50 d5bd 3296 5f3e a2d7 453d
000002c0: ff12 31be f8b7 1cbc 1c2a 4c3d d384 ca3d
000002d0: 81cd 53be cb3b 843e 51e6 3cbe 1990 cbbd
000002e0: 78ce 3bbd d7a2 0dbd ab70 7b3e 4dea 98be
000002f0: 4008 7b3e 70ac 043d bf4a d6bd f65e f13e
00000300: 2ea1 8d3d 67be 8fbe 42b5 bebe 8396 573e
00000310: 31f6 173d 8922 b73d aaff 1fbf 8736 3cbe
00000320: 49e4 01be e2d3 14bc d288 8abe 9bef efbd
00000330: 21f6 60bf 8102 b5bd 4be0 a93d 6b6d 1c3d
00000340: 8f47 ab3d 25bf b93d 9d60 4dbe 6931 1abe
00000350: 86b8 333e 6c6f 32be 8739 673e a84c 3dbe
00000360: c6ce 973d a476 89be 11e6 793e 5048 e2bd
00000370: 2ce0 003e a0a4 5a3e d042 da3c fa8d be3d
00000380: 50f9 26bd 8896 25bf d03a 19be 3d31 61bc
00000390: 77e2 e9bd f2ad f83c c44e 5fbe 8557 ecbc
000003a0: 31a4 8d3d 8825 733e 885a d53a 0215 2abf
000003b0: dd84 debe ae6f 253e 994e 1bbe d959 803d
000003c0: 6fd5 16be 7d0a 10bf 25bf e83d 617e b73d
000003d0: 21f5 4fbe adbd d9be 6eb6 103f f3b3 89be
000003e0: 880d a9bc d0f0 cabe 1414 2abc 4b90 d4bd
000003f0: 46ac 5d3e 86a3 abbd a33c 133d 64dc 50bd

network_body._body_endoder.seq_layers.0.bias f4 [128]
-0.049205944 0.107160896 0.04110963 -0.14845043 0.010874869 0.02630989 -0.02774697 -0.09881654
0.0055405996 -0.021584619 0.04351641 -0.1532499 -0.08854056 -0.02596207 -0.1404169 0.028426012
0.016465934 -0.24107805 -0.00931426 -0.22611658 -0.03407824 -0.21921355 -0.046774335 -0.15301053
-0.3198835 -0.08379389 0.041359838 -0.30862778 0.03032462 -0.27186498 0.0061385715 -0.2155056
0.14111537 -0.34793812 -0.1826657 -0.09696124 -0.04332748 -0.013768364 0.030155761 -0.22203106
0.02127584 -0.058571376 0.034246024 0.058677725 0.041867595 0.039422005 -0.021665264 -0.017805653
0.024834728 -0.017326808 -0.04278428 -0.113503575 -0.017465848 -0.084956706 0.008529263 0.06426861
-0.0917945 -0.08033175 -0.03321126 -0.10737048 -0.0034176125 0.10033753 -0.05266265 -0.117266946
-0.04148367 -0.16102634 -0.025473094 0.035273194 -0.07120637 -0.1276137 -0.22516361 -0.01381943
-0.00025182398 0.03613912 -0.10801972 -0.07879866 -0.21428722 -0.010178164 0.046985246 0.044836145
0.050389327 -0.23394124 -0.024033975 0.0066008847 -0.11392115 -0.048196435 -0.04596772 -0.014461367
0.12575382 -0.03702163 -0.24819063 -0.025043877 -0.11483847 0.025303282 -0.18628179 -0.06901007
0.05117523 -0.108257584 -0.0888051 -0.055621255 -0.58888566 -0.06282015 -0.10237876 -0.047755055
0.027775675 0.11327418 -0.11691177 -0.05691886 0.005056752 -0.04229919 -0.28854504 0.034024157
0.054676164 -0.01412148 -0.11688096 -0.35667065 0.07589707 0.042084716 0.010495501 -0.20868365
-0.061532672 0.049587447 -0.04425863 -0.079005174 -0.03838817 -0.017136633 -0.0034033868 -0.007814967
00000000: 2c8c 49bd 2c77 db3d 9262 283d 6403 18be
00000010: 822c 323c d787 d73c 9d4d e3bc 5360 cabd
00000020: eb8d b53b 3ad2 b0bc 433e 323d 8bed 1cbe
00000030: c154 b5bd 68ae d4bc 73c9 0fbe abdd e83c
00000040: 91e3 863c 2add 76be d79a 18bc 1b8b 67be
00000050: a095 0bbd 8479 60be 7296 3fbd cbae 1cbe
00000060: c5c7 a3be 229c abbd ef68 293d 7604 9ebe
00000070: 566b f83c e331 8bbe 1226 c93b 80ad 5cbe
00000080: 8c80 103e f224 b2be b80c 3bbe 9d93 c6bd
00000090: 2878 31bd b494 61bc 3709 f73c 1c5c 63be
000000a0: ac4a ae3c 8ae8 6fbd 8f45 0c3d 0e58 703d
000000b0: 5b7d 2b3d f878 213d 5a7b b1bc 29dd 91bc
000000c0: 3372 cb3c f3f0 8dbc 923e 2fbd 9074 e8bd
000000d0: 8a14 8fbc c8fd adbd 52be 0b3c 439f 833d
000000e0: c1fe bbbd f984 a4bd 8808 08bd 0ee5 dbbd
000000f0: 06fa 5fbb c37d cd3d cab4 57bd a729 f0bd
00000100: c8ea 29bd 17e4 24be f3ac d0bc a07a 103d
00000110: a5d4 91bd 2aad 02be 4a91 66be e46a 62bc
00000120: 3e07 84b9 9d06 143d 7139 ddbd 3161 a1bd
00000130: 1c6e 5bbe 50c2 26bc 9a73 403d 1ba6 373d
00000140: 0a65 4e3d 4b8e 6fbe e6e2 c4bc 3c4c d83b
00000150: 7e4f e9bd a069 45bd a648 3cbd 5fef 6cbc
00000160: 9cc5 003e fea3 17bd af25 7ebe d128 cdbc
00000170: 6f30 ebbd d448 cf3c a7c0 3ebe 2755 8dbd
00000180: 1e9d 513d 27b6 ddbd 73df b5bd 1dd3 63bd
00000190: 36c1 16bf daa7 80bd f5ab d1bd ce9a 43bd
000001a0: d089 e33c 4bfc e73d 706f efbd c023 69bd
000001b0: 1cb3 a53b ea41 2dbd 2dbc 93be ea5c 0b3d
000001c0: 1df4 5f3d c85d 67bc 495f efbd 899d b6be
000001d0: ec6f 9b3d 0661 2c3d 52f5 2b3c 2bb1 55be
000001e0: af09 7cbd 351c 4b3d 8a48 35bd 77cd a1bd
000001f0: ea3c 1dbd 2062 8cbc 5b0b 5fbb 590a 00bc

network_body._body_endoder.seq_layers.2.weight f4 [128, 128]
0.031156825 -0.052942663 -0.104593836 -0.10321119 0.070274025 0.21473886 0.053985495 -0.13111249
0.39028972 0.050952837 0.0389009 -0.042004034 0.23748569 0.06377228 0.07022589 -0.25034153
-0.21349175 -0.034689594 0.18600383 -0.002936865 -0.39739046 0.008962479 -0.08383326 -0.087188505
-0.09166129 -0.13283318 -0.063767925 0.10739139 -0.09582135 -0.024205733 0.19514489 0.17743437
0.31225038 -0.008425887 -0.0595602 0.059718486 -0.06614122 0.023307955 0.062422328 -0.026510872
0.14815418 0.047387652 -0.0038714833 -0.072624244 0.17684221 0.38923955 -0.22685349 0.048616163
0.11338493 -0.024848504 -0.26341715 0.015633855 0.013290682 -0.11046781 -0.0401929 0.004469614
0.03277824 0.045324966 0.017684914 -0.0053048492 0.088869095 -0.3438071 -0.06529819 0.079962544
-0.020304933 -0.09818419 0.1326239 0.11519482 0.06856135 0.047671545 -0.07032832 -0.0043721204
-0.036836226 0.30675554 -0.025699526 0.012938489 0.2097058 0.22087301 -0.04527087 0.21065025
0.17196818 -0.025731465 -0.001262911 -0.1544738 0.15319951 0.12041829 -0.330463 0.016118132
0.04840272 -0.12549183 0.044870242 0.07410142 0.12834647 0.040746555 0.069760635 -0.04678248
0.15464647 -0.0036813426 -0.15160127 0.1984793 -0.11180221 0.015159111 -0.09577548 0.22863449
0.0943516 0.052503027 0.23605785 -0.14735833 -0.03442876 -0.118589215 -0.019542536 -0.07335998
0.11639768 0.033824004 0.012091467 -0.08362047 0.3184726 0.10627902 0.1632265 -0.008988818
-0.056726933 0.29830277 -0.05792347 -0.20868415 -0.034042727 -0.090629295 0.058085933 0.03725091
-0.3883479 0.49643233 -0.12424021 0.14019512 0.09227115 -0.13432913 -0.3513172 -0.058229484
-0.092243604 -0.2484537 -0.29830512 -0.17275657 -0.27282244 -0.29636002 -0.09175368 0.10142549
-0.02781431 -0.20961219 -0.36008945 0.09194058 -0.054875005 0.021108067 0.34525573 -0.16785531
0.15780118 -0.06314601 0.045766853 0.0810387 -0.04844091 0.056110684 -0.073498905 -0.015035715
-0.11651214 -0.01946012 -0.082721315 -0.29251832 -0.08421256 -0.1381112 -0.07806436 -0.003749773
-0.057125885 -0.039001368 0.15484612 -0.047203124 -0.20977584 0.055188246 -0.24366459 0.050785657
-0.13325222 0.18517062 -0.13737188 -0.02835601 0.029161714 -0.23648968 -0.34807843 -0.17066151
-0.11751753 -0.26528245 0.019199578 0.19149016 -0.051538017 0.065878935 -0.38383967 -0.015396906
-0.16335574 -0.24116693 -0.28811255 -0.011356 -0.19592789 -0.24880925 0.10553347 -0.1570208
-0.36213624 -0.1164215 -0.12071685 0.005922035 -0.029378084 -0.27949902 -0.017129634 -0.111813836
-0.22522284 0.059562147 -0.43742886 -0.13369465 -0.12800138 0.18104059 -0.041030098 -0.27204686
0.17615691 -0.08511633 -8.165091e-05 -0.08191747 -0.1702383 -0.18408635 -0.21469541 -0.2643521
-0.21417661 -0.051688094 -0.2339657 0.209322 0.1347707 -0.09729222 -0.041366603 -0.07345084
-0.16253512 0.06555913 0.014525246 0.038844757 -0.046348356 -0.19759327 -0.22893696 -0.019004652
-0.2045874 0.15826908 -0.19246513 0.08408941 -0.016071586 -0.062012512 -0.075738095 0.042766258
-0.291218 -0.16567184 -0.034131885 0.0077963523 -0.34892386 -0.06403026 -0.086363934 -0.07587502
00000000: 993c ff3c 68da 58bd 4b35 d6bd 6360 d3bd
00000010: d4eb 8f3d 81e4 5b3e e51f 5d3d 5a42 06be
00000020: 0ed4 c73e ecb3 503d 8d56 1f3d 6c0c 2cbd
00000030: 732f 733e 0b9b 823d 97d2 8f3d c42c 80be
00000040: 959d 5abe ad16 0ebd ca77 3e3e 6b78 40bb
00000050: c376 cbbe 5dd7 123c c6b0 abbd e38f b2bd
00000060: eab8 bbbd 6c05 08be c298 82bd 04f0 db3d
00000070: fc3d c4bd 1a4b c6bc 10d4 473e 5bb1 353e
00000080: 48df 9f3e bb0c 0abc 65f5 73bd 5f9b 743d
00000090: 0c75 87bd 53f0 be3c 8eae 7f3d 542d d9bc
000000a0: bbb5 173e 8e19 423d b6b8 7dbb 05bc 94bd
000000b0: 2016 353e 684a c73e 484c 68be be21 473d
000000c0: 5c36 e83d 178f cbbc 9dde 86be 9212 803c
000000d0: 29c1 593c f23c e2bd 4fa1 24bd d775 923b
000000e0: 7a42 063d aca6 393d f4df 903c 4dd4 adbb
000000f0: 0001 b63d 7c07 b0be 0fbb 85bd 67c3 a33d
00000100: 8856 a6bc cb14 c9bd 8fce 073e 43eb eb3d
00000110: e569 8c3d 3d43 433d 4b08 90bd 0144 8fbb
00000120: 95e1 16bd 100f 9d3e d087 d2bc f5fb 533c
00000130: 1ebd 563e 892c 623e f36d 39bd b3b4 573e
00000140: 6d18 303e cbca d2bc 4388 a5ba 612e 1ebe
00000150: 55e0 1c3e dd9d f63d 7232 a9be 2c0a 843c
00000160: ee41 463d ee80 00be dcc9 373d 7cc2 973d
00000170: 426d 033e dce5 263d aade 8e3d fc9e 3fbd
00000180: a55b 1e3e ae42 71bb 5d3d 1bbe 283e 4b3e
00000190: 8ff8 e4bd eb5d 783c ef25 c4bd 291f 6a3e
000001a0: 693b c13d 6a0d 573d 26b9 713e 1ae5 16be
000001b0: 2c05 0dbd e7de f2bd ab17 a0bc c23d 96bd
000001c0: e861 ee3d 0a8b 0a3d 4a1b 463c 3541 abbd
000001d0: d70e a33e d1a8 d93d d924 273e d645 13bc
000001e0: 805a 68bd 24bb 983e 2941 6dbd 4cb1 55be
000001f0: 6370 0bbd da9b b9bd 84eb 6d3d 6994 183d
00000200: 89d5 c6be 612c fe3e a771 febd 4f8f 0f3e
00000210: a8f8 bc3d 938d 09be d9df b3be 0a82 6ebd
00000220: 37ea bcbd a66a 7ebe 73bb 98be 19e7 30be
00000230: 62af 8bbe 80bc 97be 5ae9 bbbd 2bb8 cf3d
00000240: d6da e3bc 94a4 56be a55d b8be 584b bc3d
00000250: 9dc4 60bd d3ea ac3c 5cc5 b03e 43e2 2bbe
00000260: a296 213e b252 81bd 0676 3b3d 9ef7 a53d
00000270: fa69 46bd 51d4 653d 9886 96bd 5c58 76bc
00000280: eb9d eebd d46a 9fbc cb69 a9bd f6c4 95be
00000290: a277 acbd 066d 0dbe 35e0 9fbd c0be 75bb
000002a0: d5fc 69bd e6bf 1fbd fb8f 1e3e 1058 41bd
000002b0: 7acf 56be 120d 623d 3683 79be 9f04 503d
000002c0: 4573 08be 5e9d 3d3e 37ab 0cbe dd4a e8bc
000002d0: 8ce4 ee3c 5a2a 72be 5637 b2be e4c1 2ebe
000002e0: 08ad f0bd 1ad3 87be 6f48 9d3c ff15 443e
000002f0: 8719 53bd 89eb 863d a286 c4be 4e43 7cbc
00000300: ba46 27be 77f4 76be 7d83 93be 840e 3abc
00000310: 52a1 48be dac7 7ebe ef21 d83d 10ca 20be
00000320: ec69 b9be 656e eebd 653a f7bd a10d c23b
00000330: 4faa f0bc 7f1a 8fbe 7253 8cbc a7fe e4bd
00000340: d1a0 66be 70f7 733d adf6 dfbe 40e7 08be
00000350: cb12 03be b462 393e 2d0f 28bd ba49 8bbe
00000360: 7a62 343e 7851 aebd 003c abb8 59c4 a7bd
00000370: f352 2ebe 2281 3cbe 1dd9 5bbe 2959 87be
00000380: 1d51 5bbe e5b6 53bd b494 6fbe 8258 563e
00000390: 5501 0a3e 2541 c7bd 0770 29bd 656d 96bd
000003a0: 9b6f 26be dd43 863d 4cfb 6d3c ae1b 1f3d
000003b0: c6d7 3dbd e455 4abe 736e 6abe a5af 9bbc
000003c0: 5c7f 51be 4a11 223e 9415 45be 1237 ac3d
000003d0: 8fa8 83bc d500 7ebd 931c 9bbd ac2b 2f3d
000003e0: 871a 95be e1a5 29be e0cd 0bbd 8b78 ff3b
000003f0: 26a6 b2be 4c22 83bd 93df b0bd 5d64 9bbd

network_body._body_endoder.seq_layers.2.bias f4 [128]
0.001563246 -0.12176097 -0.0196376 0.03418453 -0.035858944 -0.059554566 -0.01827536 0.011708064
-0.0642834 -0.16510317 -0.19630428 -0.15485896 -0.030135768 -0.063609675 -0.010953539 0.03509947
-0.03706757 0.032210045 -0.18482018 -0.06620325 -0.37888446 -0.06540349 0.050486267 0.04659969
0.011857021 0.055002842 -0.07737832 -0.19793431 -0.15581311 0.009521754 0.018439481 -0.038066376
-0.04315877 -0.23509195 -0.15705365 -0.021028508 -0.021879211 0.022669964 -0.12080004 -0.0481231
0.022412643 -0.023731919 -0.26876405 -0.04917078 -0.121409535 0.12490798 -0.33159027 -0.0023056227
0.027615527 -0.3285216 -0.014042575 -0.08411565 -0.0129471095 -0.13214244 0.057116326 -0.0023146751
0.04952263 -0.04073268 -0.0233673 -0.06621047 0.018338192 -0.058998045 -0.04270831 0.070756316
-0.008616103 0.049448516 -0.1621718 -0.026844924 -0.19645423 -0.15442 0.07644639 -0.20927301
-0.0053928397 0.0407318 0.037239138 -0.07734437 -0.03744994 -0.055331916 0.024336983 -0.07761861
-0.05871197 0.046952277 -0.00015604087 -0.16157332 0.053789347 -0.23982896 -0.2427043 -0.20983486
-0.13273193 -0.06451431 0.03537961 -0.033764735 -0.18376122 0.0010051816 -0.13679543 0.011748696
0.027241774 -0.119239055 -0.052592743 -0.0460195 -0.13414276 0.017269732 -0.017268717 -0.011896154
-0.1622633 0.011168709 0.034126773 -0.22037992 -0.01255325 0.056025498 -0.14684343 0.010077543
0.058758296 0.014383814 -0.04667765 -0.080372855 -0.10029107 -0.18822503 -0.28186205 -0.3053265
-0.11652872 -0.16978621 0.029542863 -0.07905173 -0.029826244 -0.0108915735 -0.0102640325 0.018379543
00000000: d5e5 cc3a d15d f9bd 08df a0bc 1405 0c3d
00000010: d4e0 12bd 7def 73bd 35b6 95bc 2ed3 3f3c
00000020: 04a7 83bd ce10 29be fd03 49be 5993 1ebe
00000030: 49df f6bc ca45 82bd 7976 33bc 76c4 0f3d
00000040: 2ad4 17bd aeee 033d 8041 3dbe 9295 87bd
00000050: 25fd c1be 44f2 85bd b0ca 4e3d 51df 3e3d
00000060: f343 423c a94a 613d 8678 9ebd 4baf 4abe
00000070: 798d 1fbe 2201 1c3c 650e 973c 7deb 1bbd
00000080: 40c7 30bd f2bb 70be acd2 20be fa43 acbc
00000090: 083c b3bc 5cb6 b93c 0366 f7bd ba1c 45bd
000000a0: b89a b73c 7169 c2bc 719b 89be 4d67 49bd
000000b0: 90a5 f8bd c1cf ff3d 33c6 a9be ee19 17bb
000000c0: f539 e23c fc33 a8be d412 66bc d344 acbd
000000d0: 1d20 54bc 5950 07be cff2 693d ceb1 17bb
000000e0: 3ed8 4a3d 50d7 26bd c86c bfbc 5b99 87bd
000000f0: fa39 963c efa7 71bd e9ee 2ebd b0e8 903d
00000100: 8e2a 0dbc 878a 4a3d 5d10 26be e3e9 dbbc
00000110: 4c2b 49be 4720 1ebe ed8f 9c3d aa4b 56be
00000120: 6bb6 b0bb 63d6 263d 1188 183d ba66 9ebd
00000130: 1c65 19bd b8a3 62bd 5a5e c73c 81f6 9ebd
00000140: f67b 70bd 0851 403d e79e 23b9 7a73 25be
00000150: 3852 5c3d b995 75be 7a87 78be f3de 56be
00000160: e1ea 07be 1420 84bd 36ea 103d e44c 0abd
00000170: e72b 3cbe 4cc0 833a 1a14 0cbe 9a7d 403c
00000180: 242a df3c 9b33 f4bd 7d6b 57bd f17e 3cbd
00000190: b85c 09be 4179 8d3c 2077 8dbc 16e8 42bc
000001a0: 5a28 26be f6fc 363c 84c8 0b3d 46ab 61be
000001b0: 26ac 4dbc fe7a 653d 205e 16be 471c 253c
000001c0: 8aac 703d 17aa 6b3c 1031 3fbd 869a a4bd
000001d0: 6865 cdbd 10be 40be 3950 90be c153 9cbe
000001e0: 9ca6 eebd 70dc 2dbe e003 f23c e0e5 a1bd
000001f0: 2b56 f4bc 9272 32bc 792a 28bc b290 963c

action_model._discrete_distribution.branches.0.weight f4 [2, 128]
0.05090186 0.09184735 0.18857649 0.10681739 0.058992147 0.21155739 0.10536901 -0.14148
0.072649784 0.043886695 0.020130295 0.062356535 0.16000885 0.14170647 0.24683675 0.13621369
0.15863472 0.10664108 0.03665406 0.16423188 0.005540886 0.1467702 -0.099899456 -0.19244793
-0.13102897 -0.07264156 0.06677651 0.019916188 0.021505838 -0.05364732 -0.21013352 -0.0009135786
0.18895113 -0.012588112 0.0652574 -0.06657853 0.18921864 0.1442513 0.047824785 0.18544081
0.12819552 0.06950597 0.0075177043 0.19335276 0.0761402 -0.22924298 0.010428924 0.09506201
-0.1870834 0.033813823 0.080774225 0.051143173 0.20906882 0.051348403 -0.22373627 -0.07899802
0.19066356 0.27100113 0.20683946 0.14311178 0.25719976 0.17244567 0.09375392 0.07663341
0.21052684 0.17884523 0.08902141 0.2116052 0.055061016 0.04555844 0.10629351 0.052994933
0.13829288 -0.16866942 0.14590035 0.0871536 0.06440336 0.097128175 -0.13026719 0.10509682
0.07225612 -0.04378219 0.17219299 -0.0072285533 -0.10024885 0.05013398 0.03968258 0.044122558
0.03160674 0.15447383 0.13182878 0.24292602 0.022201983 0.15923013 0.06250505 0.1886613
0.12141886 0.07918858 0.08522225 0.18548994 0.07626869 0.06264112 0.18923943 0.24220365
0.076213 0.05018451 0.09175829 0.023657007 0.13451855 -0.09463913 0.062837616 0.10775519
0.045245875 -0.08298487 0.1412464 0.034628727 0.09801058 0.044930905 0.014883046 0.002567886
0.121090725 0.02389067 0.22753263 0.13593453 0.24644461 0.02182708 0.11617384 0.21770717
-0.0628534 -0.10754196 -0.20161551 -0.10667757 -0.0634716 -0.22542669 -0.081846364 0.14337656
-0.06740494 -0.06252433 0.009593592 -0.029944489 -0.15366307 -0.1404457 -0.2495758 -0.12648365
-0.16066119 -0.110880435 -0.027002204 -0.1701266 -0.0005832285 -0.12679878 0.11972261 0.18758
0.12919983 0.07877712 -0.052745435 -0.048849467 -0.02716147 0.059039883 0.18425642 0.003831861
-0.19351304 -0.012519365 -0.061775643 0.06283584 -0.1946412 -0.15558288 -0.054832075 -0.18510003
-0.11353429 -0.04962138 -0.026436914 -0.18129559 -0.08910721 0.23234697 -0.007366302 -0.09778474
0.18188038 -0.035722915 -0.09002327 -0.046864647 -0.21838452 -0.05232177 0.20922297 0.104394615
-0.20968673 -0.26238784 -0.20195347 -0.15472034 -0.24524048 -0.18719235 -0.068073556 -0.08600412
-0.20756803 -0.18760298 -0.08336905 -0.23562115 -0.054642495 -0.03951499 -0.103873074 -0.046418842
-0.12789471 0.17001523 -0.15516232 -0.06654769 -0.07990372 -0.09975979 0.117246024 -0.101136014
-0.076651625 0.04535767 -0.15272625 0.0083063925 0.09707921 -0.045983173 -0.026960576 -0.044496674
-0.046842784 -0.162306 -0.11973252 -0.2451677 -0.037096597 -0.17822687 -0.042205796 -0.18506597
-0.113888174 -0.05927107 -0.08987205 -0.19473921 -0.09492139 -0.061508454 -0.16862598 -0.2060699
-0.09136606 -0.058309298 -0.08203763 -0.033644836 -0.12496174 0.080022156 -0.05025441 -0.100356564
-0.050501134 0.078296445 -0.14683425 -0.035919018 -0.09207523 -0.035895124 0.0044193855 -0.004534583
-0.12222465 -0.01892226 -0.22075015 -0.16954789 -0.2440777 -0.008815816 -0.113565065 -0.22222191
00000000: 787e 503d 771a bc3d 321a 413e 13c3 da3d
00000010: c0a1 713d 80a2 583e b5cb d73d 22e0 10be
00000020: 69c9 943d 89c2 333d 4ae8 a43c 9169 7f3d
00000030: 5cd9 233e 801b 113e c6c2 7c3e 9a7b 0b3e
00000040: 2471 223e a366 da3d 9122 163d 672c 283e
00000050: 5290 b53b ed4a 163e 1698 ccbd 1211 45be
00000060: 752c 06be 19c5 94bd 1fc2 883d 4627 a33c
00000070: 032d b03c 4bbd 5bbd 3e2d 57be 397d 6fba
00000080: 687c 413e 5e3e 4ebc aca5 853d 535a 88bd
00000090: 88c2 413e 9db6 133e ece3 433d 32e4 3d3e
000000a0: b045 033e 2559 8e3d 1357 f63b 44fe 453e
000000b0: 65ef 9b3d acbe 6abe 14de 2a3c dfaf c23d
000000c0: ca92 3fbe 5d80 0a3d f56c a53d 817b 513d
000000d0: 2316 563e b452 523d 1f1b 65be b7c9 a1bd
000000e0: 4f3d 433e a9c0 8a3e b9cd 533e e58b 123e
000000f0: b0af 833e 9995 303e 0e02 c03d faf1 9c3d
00000100: 5994 573e 3423 373e db50 b63d 09af 583e
00000110: a987 613d 7d9b 3a3d 69b0 d93d 3711 593d
00000120: a69c 0d3e adb7 2cbe e766 153e 967d b23d
00000130: e9e5 833d 23eb c63d c364 05be 003d d73d
00000140: 04fb 933d f454 33bd 5c53 303e 80dd ecbb
00000150: 454f cdbd 4a59 4d3d 338a 223d dbb9 343d
00000160: 1276 013d 632e 1e3e 20fe 063e 99c1 783e
00000170: efe0 b53c 390d 233e a602 803d 6e30 413e
00000180: 74aa f83d 9f2d a23d 0189 ae3d 13f1 3d3e
00000190: c232 9c3d fd49 803d fbc7 413e 3c04 783e
000001a0: 9015 9c3d 468e 4d3d c5eb bb3d 57cc c13c
000001b0: 3bbf 093e 29d2 c1bd 02b1 803d c1ae dc3d
000001c0: bd53 393d f9f3 a9bd e5a2 103e dad6 0d3d
000001d0: c5b9 c83d 7809 383d 05d8 733c fa49 283b
000001e0: 6afe f73d 5eb6 c33c 50fe 683e 6c32 0b3e
000001f0: fa5b 7c3e b4ce b23c 8dec ed3d a1ee 5e3e
00000200: 49b9 80bd f63e dcbd 4c74 4ebe c579 dabd
00000210: 66fd 81bd 41d6 66be 119f a7bd 4ed1 123e
00000220: 9a0b 8abd c20c 80bd 712e 1d3c 254e f5bc
00000230: da59 1dbe ffd0 0fbe cc90 7fbe ee84 01be
00000240: 5e84 24be 4815 e3bd ba33 ddbc ab35 2ebe
00000250: cde3 18ba 8ad7 01be 2131 f53d f914 403e
00000260: f64c 043e e655 a13d 990b 58bd 6116 48bd
00000270: bb81 debc ced3 713d b7ad 3c3e f61f 7b3b
00000280: 4828 46be 061e 4dbc 7508 7dbd 14b0 803d
00000290: 0650 47be 1e51 1fbe 9997 60bd dd8a 3dbe
000002a0: aa84 e8bd ca3f 4bbd 3a92 d8bc 8da5 39be
000002b0: d77d b6bd 5dec 6d3e 0561 f1bb 5e43 c8bd
000002c0: da3e 3a3e 3152 12bd 1f5e b8bd 25f5 3fbd
000002d0: 31a0 5fbe 5a4f 56bd 8c3e 563e d8cc d53d
000002e0: 1eb8 56be b357 86be e4cc 4ebe 026f 1ebe
000002f0: 5220 7bbe 5aaf 3fbe 266a 8bbd ee22 b0bd
00000300: b78c 54be ff1a 40be 64bd aabd ac46 71be
00000310: cfd0 5fbd 78da 21bd 68bb d4bd af21 3ebd
00000320: d5f6 02be 7918 2e3e dfe2 1ebe 284a 88bd
00000330: 90a4 a3bd dc4e ccbd af1e f03d 6620 cfbd
00000340: 87fb 9cbd f7c8 393d 4564 1cbe 8917 083c
00000350: 77d1 c63d da58 3cbd 6ddc dcbc 2542 36bd
00000360: 38de 3fbd 8b33 26be 5336 f5bd 3e0d 7bbe
00000370: 9af2 17bd 1b81 36be fcdf 2cbd ef81 3dbe
00000380: 343e e9bd 39c6 72bd d60e b8bd b769 47be
00000390: 2566 c2bd 4af0 7bbd 4aac 2cbe fd03 53be
000003a0: 211e bbbd bbd5 6ebd 5803 a8bd 2bcf 09bd
000003b0: f1eb ffbd a8e2 a33d 91d7 4dbd be87 cdbd
000003c0: 47da 4ebd e359 a03d b85b 16be d21f 13bd
000003d0: f091 bcbd c406 13bd 7ed0 903b d796 94bb
000003e0: eb50 fabd db02 9bbc 540c 62be f69d 2dbe
000003f0: 81ef 79be 3670 10bc cd94 e8bd 248e 63be

action_model._discrete_distribution.branches.0.bias f4 [2]
-0.05903222 0.05908488
00000000: c5cb 71bd fd02 723d

exp_avg f4 [128, 27]
2.0482668e-05 -4.9921177e-06 6.7283718e-06 -4.751497e-06 2.0242047e-05 1.6685017e-05 -6e-45 1.549055e-05
1.549055e-05 -2.401046e-07 1.5730655e-05 1.5634896e-05 0.0 1.549055e-05 1.549055e-05 -5.1593546e-10
1.5491067e-05 1.5491098e-05 0.0 1.549055e-05 1.549055e-05 -9.317568e-05 9.781519e-07 0.0
0.0 -1.2628734e-05 1.549055e-05 -3.9660605e-05 1.8879404e-05 -7.6407e-06 1.7717974e-05 -3.8499173e-05
-2.5263278e-05 6e-45 -2.0781199e-05 -2.0781199e-05 4.7099584e-07 -2.1252197e-05 -2.1064354e-05 0.0
-2.0781199e-05 -2.0781199e-05 6.9043404e-07 -2.1471633e-05 -2.1314774e-05 0.0 -2.0781199e-05 -2.0781199e-05
0.00012499894 3.4765555e-05 0.0 0.0 4.612784e-05 -2.0781199e-05 -7.1282404e-05 3.2534776e-05
-1.4441437e-05 3.1441876e-05 -7.0189504e-05 -4.66951e-05 6e-45 -3.874763e-05 -3.874763e-05 7.6712433e-07
-3.9514754e-05 -3.9208808e-05 0.0 -3.874763e-05 -3.874763e-05 3.2577893e-07 -3.9073402e-05 -3.899954e-05
0.0 -3.874763e-05 -3.874763e-05 0.00023306702 5.683112e-05 0.0 0.0 8.141915e-05
-3.874763e-05 -4.969108e-05 2.3696528e-05 -8.518102e-06 2.3433076e-05 -4.9427625e-05 -3.193235e-05 6e-45
-2.5994546e-05 -2.5994546e-05 5.032398e-07 -2.6497788e-05 -2.6297088e-05 0.0 -2.5994546e-05 -2.5994546e-05
-2.3978845e-07 -2.575476e-05 -2.5809399e-05 0.0 -2.5994546e-05 -2.5994546e-05 0.00015635724 4.359917e-05
0.0 0.0 6.0360475e-05 -2.5994546e-05 6.9613685e-07 -1.1276717e-06 -5.734039e-07 -1.0756081e-06
6.440732e-07 -1.5932746e-07 -6e-45 -4.3153491e-07 -4.3153491e-07 -5.4950746e-09 -4.2603992e-07 -4.2823135e-07
0.0 -4.3153491e-07 -4.3153491e-07 -4.656848e-08 -3.8496646e-07 -3.9556048e-07 0.0 -4.3153491e-07
-4.3153491e-07 2.5956836e-06 -3.7757231e-06 0.0 0.0 -2.7405404e-06 -4.3153491e-07 0.00012989322
-5.7099838e-05 2.5665433e-05 -6.0091264e-05 0.00013288466 8.798766e-05 -6e-45 7.2793395e-05 7.2793395e-05
-1.2906337e-06 7.4084026e-05 7.3569296e-05 0.0 7.2793395e-05 7.2793395e-05 4.2820643e-06 6.851132e-05
6.9485686e-05 0.0 7.2793395e-05 7.2793395e-05 -0.00043785234 -9.431241e-05 0.0 0.0
-0.00015381898 7.2793395e-05 9.316582e-05 -2.241672e-05 3.4787565e-05 -2.3240658e-05 9.398976e-05 7.6650096e-05
-6e-45 7.07491e-05 7.07491e-05 -9.986335e-08 7.084897e-05 7.080914e-05 0.0 7.07491e-05
7.07491e-05 9.238016e-07 6.982529e-05 7.003547e-05 0.0 7.07491e-05 7.07491e-05 -0.00042555592
5.701312e-06 0.0 0.0 -5.866034e-05 7.07491e-05 -1.8313127e-05 1.3146821e-05 5.4184045e-07
1.2958769e-05 -1.8125074e-05 -8.457483e-06 6e-45 -5.166305e-06 -5.166305e-06 2.0324393e-07 -5.3695485e-06
-5.2884925e-06 0.0 -5.166305e-06 -5.166305e-06 -1.5192033e-08 -5.1511133e-06 -5.154598e-06 0.0
-5.166305e-06 -5.166305e-06 3.1075335e-05 3.3599765e-05 0.0 0.0 3.321741e-05 -5.166305e-06
-1.216409e-05 5.9972963e-06 -1.1729901e-06 6.5326535e-06 -1.2699447e-05 -7.813107e-06 -6e-45 -6.166794e-06
-6.166794e-06 1.3761684e-07 -6.3044095e-06 -6.249526e-06 0.0 -6.166794e-06 -6.166794e-06 -6.7297344e-07
-5.4938205e-06 -5.6469444e-06 0.0 -6.166794e-06 -6.166794e-06 3.7093265e-05 1.1380962e-05 0.0
0.0 1.6661312e-05 -6.166794e-06 7.4042684e-05 -1.3958819e-05 3.145096e-05 -1.4261354e-05 7.434522e-05
6.369417e-05 -6e-45 6.008386e-05 6.008386e-05 -7.359511e-08 6.0157465e-05 6.012811e-05 0.0
00000000: 32d2 ab37 f781 a7b6 46c4 e136 0c6f 9fb6
00000010: 77cd a937 cdf6 8b37 0400 0080 b4f1 8137
00000020: b4f1 8137 bae7 80b4 53f5 8337 af27 8337
00000030: 0000 0000 b4f1 8137 b4f1 8137 bbd1 0db0
00000040: d0f2 8137 e1f2 8137 0000 0000 b4f1 8137
00000050: b4f1 8137 5067 c3b8 0b49 8335 0000 0000
00000060: 0000 0000 00e0 53b7 b4f1 8137 4059 26b8
00000070: 365f 9e37 8e30 00b7 0fa1 9437 2c7a 21b8
00000080: 7aec d3b7 0400 0000 4953 aeb7 4953 aeb7
00000090: 2ddd fc34 bf46 b2b7 5bb3 b0b7 0000 0000
000000a0: 4953 aeb7 4953 aeb7 4456 3935 fb1d b4b7
000000b0: 21cd b2b7 0000 0000 4953 aeb7 4953 aeb7
000000c0: 2612 0339 3bd1 1138 0000 0000 0000 0000
000000d0: 6479 4138 4953 aeb7 737d 95b8 f375 0838
000000e0: 8049 72b7 75e0 0338 b432 93b8 7bda 43b8
000000f0: 0400 0000 f384 22b8 f384 22b8 62ec 4d35
00000100: a5bc 25b8 2374 24b8 0000 0000 f384 22b8
00000110: f384 22b8 b7e6 ae34 bfe2 23b8 7093 23b8
00000120: 0000 0000 f384 22b8 f384 22b8 7463 7439
00000130: f35d 6e38 0000 0000 0000 0000 93bf aa38
00000140: f384 22b8 646b 50b8 e8c7 c637 f8e8 0eb7
00000150: 2692 c437 8250 4fb8 1aef 05b8 0400 0000
00000160: dd0e dab7 dd0e dab7 6016 0735 9147 deb7
00000170: 9198 dcb7 0000 0000 dd0e dab7 dd0e dab7
00000180: 46bc 80b4 ed0b d8b7 4381 d8b7 0000 0000
00000190: dd0e dab7 dd0e dab7 d4f3 2339 41de 3638
000001a0: 0000 0000 0000 0000 912b 7d38 dd0e dab7
000001b0: 29de 3a35 815a 97b5 04ec 19b5 9d5d 90b5
000001c0: 60e4 2c35 9913 2bb4 0400 0080 b5ad e7b4
000001d0: b5ad e7b4 30cf bcb1 7bba e4b4 abe7 e5b4
000001e0: 0000 0000 b5ad e7b4 b5ad e7b4 9602 48b3
000001f0: 63ad ceb4 6b5d d4b4 0000 0000 b5ad e7b4
00000200: b5ad e7b4 8131 2e36 6e62 7db6 0000 0000
00000210: 0000 0000 20ea 37b6 b5ad e7b4 f233 0839
00000220: 7c7e 6fb8 194c d737 810a 7cb8 f456 0b39
00000230: 0486 b838 0400 0080 a8a8 9838 a8a8 9838
00000240: d639 adb5 8f5d 9b38 3749 9a38 0000 0000
00000250: a8a8 9838 a8a8 9838 a7ae 8f36 bcad 8f38
00000260: d8b8 9138 0000 0000 a8a8 9838 a8a8 9838
00000270: 8c8f e5b9 97c9 c5b8 0000 0000 0000 0000
00000280: 784a 21b9 a8a8 9838 0562 c338 8a0b bcb7
00000290: dde8 1138 eff4 c2b7 5e1c c538 35bf a038
000002a0: 0400 0080 225f 9438 225f 9438 7574 d6b3
000002b0: c094 9438 5e7f 9438 0000 0000 225f 9438
000002c0: 225f 9438 2afb 7735 2b6f 9238 02e0 9238
000002d0: 0000 0000 225f 9438 225f 9438 261d dfb9
000002e0: e64d bf36 0000 0000 0000 0000 0f0a 76b8
000002f0: 225f 9438 249f 99b7 2b91 5c37 fe72 1135
00000300: 7d69 5937 4d0b 98b7 9de4 0db7 0400 0000
00000310: 395a adb6 395a adb6 443b 5a34 122c b4b6
00000320: ce73 b1b6 0000 0000 395a adb6 395a adb6
00000330: a27f 82b2 bad7 acb6 a9f5 acb6 0000 0000
00000340: 395a adb6 395a adb6 e356 0238 79ed 0c38
00000350: 0000 0000 0000 0000 ec52 0b38 395a adb6
00000360: 5e14 4cb7 623c c936 a26f 9db5 1133 db36
00000370: b60f 55b7 0a15 03b7 0400 0080 5bec ceb6
00000380: 5bec ceb6 d4c3 1334 778a d3b6 05b3 d1b6
00000390: 0000 0000 5bec ceb6 5bec ceb6 62a6 34b5
000003a0: 8f57 b8b6 e27a bdb6 0000 0000 5bec ceb6
000003b0: 5bec ceb6 9794 1b38 dcf0 3e37 0000 0000
000003c0: 0000 0000 e5c3 8b37 5bec ceb6 5d47 9b38
000003d0: ac30 6ab7 36ea 0338 0d44 6fb7 c9e9 9b38
000003e0: 8c93 8538 0400 0080 8e02 7c38 8e02 7c38
000003f0: 570b 9eb3 9651 7c38 1132 7c38 0000 0000

exp_avg_sq f4 [128, 27]
7.761649e-06 1.5286707e-07 2.2060483e-06 1.0285289e-07 7.813495e-06 7.8594085e-06 7e-43 7.914835e-06
7.914835e-06 7.2211375e-09 7.905525e-06 7.90751e-06 0.0 7.914835e-06 7.914835e-06 4.24973e-08
7.871967e-06 7.874072e-06 0.0 7.914835e-06 7.914835e-06 0.000286361 1.0381053e-05 0.0
0.0 1.0531493e-06 7.638749e-06 2.9968736e-05 1.267085e-06 1.2638862e-05 1.2145557e-06 3.0027977e-05
3.0557643e-05 7e-43 3.121505e-05 3.121505e-05 1.8690608e-08 3.1186868e-05 3.1193627e-05 0.0
3.121505e-05 3.121505e-05 3.2263298e-08 3.1182313e-05 3.1183947e-05 0.0 3.121505e-05 3.121505e-05
0.0011293666 5.051269e-05 0.0 0.0 9.318736e-06 3.0827145e-05 6.546748e-05 3.8749968e-06
2.939385e-05 3.7649559e-06 6.558818e-05 6.725472e-05 7e-43 6.9283706e-05 6.9283706e-05 5.8974106e-08
6.920616e-05 6.92229e-05 0.0 6.9283706e-05 6.9283706e-05 4.6554486e-08 6.92359e-05 6.9238435e-05
0.0 6.9283706e-05 6.9283706e-05 0.002506697 0.00012776547 0.0 0.0 2.732757e-05
6.851777e-05 4.3568245e-05 2.391505e-06 1.8755416e-05 2.3238965e-06 4.364552e-05 4.4622804e-05 7e-43
4.5931592e-05 4.5931592e-05 4.3246576e-08 4.5873727e-05 4.588644e-05 0.0 4.5931592e-05 4.5931592e-05
2.158608e-08 4.5909437e-05 4.5910507e-05 0.0 4.5931592e-05 4.5931592e-05 0.0016618175 8.146926e-05
0.0 0.0 2.1051485e-05 4.523838e-05 5.287177e-09 4.8219237e-09 7.538611e-09 4.788489e-09
5.3214233e-09 7.4171593e-09 7e-43 1.0073789e-08 1.0073789e-08 1.0212171e-11 1.0058596e-08 1.0062208e-08
0.0 1.0073789e-08 1.0073789e-08 2.1252191e-11 1.0052753e-08 1.0053702e-08 0.0 1.0073789e-08
1.0073789e-08 3.6447193e-07 8.0030816e-08 0.0 0.0 3.87552e-08 1.0006016e-08 0.00016912784
1.5036195e-05 7.98243e-05 1.4401584e-05 0.00016979221 0.00017615427 7e-43 0.0001840114 0.0001840114
4.1340948e-07 0.00018353606 0.0001836267 0.0 0.0001840114 0.0001840114 2.0066781e-07 0.00018380179
0.00018381348 0.0 0.0001840114 0.0001840114 0.0066575925 0.0004080901 0.0 0.0
0.0001102496 0.00018145364 9.890129e-05 2.3876885e-06 3.5371504e-05 2.3791697e-06 9.891442e-05 9.9955345e-05
7e-43 0.00010124401 0.00010124401 3.4357348e-09 0.000101235746 0.000101238045 0.0 0.00010124401
0.00010124401 4.299556e-09 0.000101238315 0.000101238846 0.0 0.00010124401 0.00010124401 0.0036630346
0.00013899115 0.0 0.0 1.64336e-05 9.9736e-05 5.2029336e-06 5.866004e-07 2.7609326e-06
5.81649e-07 5.2091978e-06 5.4586217e-06 7e-43 5.781888e-06 5.781888e-06 3.5395065e-09 5.776164e-06
5.7775846e-06 0.0 5.781888e-06 5.781888e-06 9.618865e-10 5.780889e-06 5.7809416e-06 0.0
5.781888e-06 5.781888e-06 0.00020919042 1.4392422e-05 0.0 0.0 4.837497e-06 5.7163497e-06
1.982803e-06 1.41625e-07 7.3988497e-07 1.366962e-07 1.9881131e-06 2.0509365e-06 7e-43 2.1234603e-06
2.1234603e-06 3.3501517e-09 2.119487e-06 2.120268e-06 0.0 2.1234603e-06 2.1234603e-06 1.3884424e-09
2.1219319e-06 2.1220296e-06 0.0 2.1234603e-06 2.1234603e-06 7.682741e-05 4.2664624e-06 0.0
0.0 9.1055006e-07 2.0767368e-06 5.7314253e-05 8.42521e-07 2.0124156e-05 8.3995155e-07 5.7319226e-05
5.7687877e-05 7e-43 5.8136022e-05 5.8136022e-05 2.161534e-09 5.8131038e-05 5.8132395e-05 0.0
00000000: 0738 0237 c823 2434 9f0b 1436 f9df dc33
00000010: b516 0337 e7db 0337 f401 0000 f5c9 0437
00000020: f5c9 0437 cc1d f831 f9a1 0437 7faa 0437
00000030: 0000 0000 f5c9 0437 f5c9 0437 4786 3633
00000040: d711 0437 e21a 0437 0000 0000 f5c9 0437
00000050: f5c9 0437 b922 9639 482a 2e37 0000 0000
00000060: 0000 0000 ef59 8d35 2d28 0037 5f65 fb37
00000070: b610 aa35 800b 5437 d103 a335 97e4 fb37
00000080: 052b 0038 f401 0000 e8ec 0238 e8ec 0238
00000090: 158d a032 a5ce 0238 e7d5 0238 0000 0000
000000a0: e8ec 0238 e8ec 0238 df91 0a33 c1c9 0238
000000b0: 82cb 0238 0000 0000 e8ec 0238 e8ec 0238
000000c0: 4107 943a 97dd 5338 0000 0000 0000 0000
000000d0: ab57 1c37 654c 0138 964b 8938 f805 8236
000000e0: d092 f637 73a9 7c36 638c 8938 1a0b 8d38
000000f0: f401 0000 684c 9138 684c 9138 b74a 7d33
00000100: c622 9138 c32b 9138 0000 0000 684c 9138
00000110: 684c 9138 33f3 4733 be32 9138 1a34 9138
00000120: 0000 0000 684c 9138 684c 9138 6647 243b
00000130: c8f8 0539 0000 0000 0000 0000 823d e537
00000140: 33b1 8f38 0cbd 3638 be7d 2036 f354 9d37
00000150: 3df4 1b36 0510 3738 5f29 3b38 f401 0000
00000160: aca6 4038 aca6 4038 1dbe 3933 8a68 4038
00000170: 3176 4038 0000 0000 aca6 4038 aca6 4038
00000180: 4b6c b932 e28e 4038 0890 4038 0000 0000
00000190: aca6 4038 aca6 4038 58d1 d93a 7ada aa38
000001a0: 0000 0000 0000 0000 b897 b037 57be 3d38
000001b0: 80aa b531 17ae a531 2983 0132 ff87 a431
000001c0: bcd7 b631 06da fe31 f401 0000 fe10 2d32
000001d0: fe10 2d32 88a7 332d 2cce 2c32 0fde 2c32
000001e0: 0000 0000 fe10 2d32 fe10 2d32 aeef ba2d
000001f0: 7ab4 2c32 a6b8 2c32 0000 0000 fe10 2d32
00000200: fe10 2d32 a4ac c334 68dd ab33 0000 0000
00000210: 0000 0000 cb73 2633 ece6 2b32 e957 3139
00000220: f743 7c37 5867 a738 559e 7137 400a 3239
00000230: 0db6 3839 f401 0000 2ff3 4039 2ff3 4039
00000240: 91f2 dd34 9673 4039 eb8b 4039 0000 0000
00000250: 2ff3 4039 2ff3 4039 2677 5734 ebba 4039
00000260: 0ebe 4039 0000 0000 2ff3 4039 2ff3 4039
00000270: ef27 da3b edf4 d539 0000 0000 0000 0000
00000280: ce35 e738 9744 3e39 3a69 cf38 2d3c 2036
00000290: dd5b 1438 d3a9 1f36 4670 cf38 1e9f d138
000002a0: f401 0000 f752 d438 f752 d438 161a 6c31
000002b0: 874e d438 c34f d438 0000 0000 f752 d438
000002c0: f752 d438 4bbb 9331 e84f d438 3150 d438
000002d0: 0000 0000 f752 d438 f752 d438 860f 703b
000002e0: 27be 1139 0000 0000 0000 0000 e3da 8937
000002f0: 5b29 d138 dc94 ae36 df76 1d35 7648 3936
00000300: 9d22 1c35 abca ae36 3429 b736 f401 0000
00000310: 0a02 c236 0a02 c236 a83b 7331 dfd0 c136
00000320: 13dd c136 0000 0000 0a02 c236 0a02 c236
00000330: 5f33 8430 75f9 c136 e9f9 c136 0000 0000
00000340: 0a02 c236 0a02 c236 205a 5b39 fb76 7137
00000350: 0000 0000 0000 0000 c851 a236 12cf bf36
00000360: 4c10 0536 9511 1834 829c 4635 c4c6 1234
00000370: 866b 0536 d2a2 0936 f401 0000 c580 0e36
00000380: c580 0e36 7e38 6631 823c 0e36 ed49 0e36
00000390: 0000 0000 c580 0e36 c580 0e36 79d3 be30
000003a0: 8366 0e36 3168 0e36 0000 0000 c580 0e36
000003b0: c580 0e36 671e a138 a228 8f36 0000 0000
000003c0: 0000 0000 866c 7435 115e 0b36 b664 7038
000003d0: 9a29 6235 4cd0 a837 0879 6135 0d6a 7038
000003e0: e3f5 7138 f401 0000 14d7 7338 14d7 7338
000003f0: 1c8a 1431 bad1 7338 2fd3 7338 0000 0000

exp_avg f4 [128]
1.549055e-05 -2.0781199e-05 -3.874763e-05 -2.5994546e-05 -4.3153491e-07 7.2793395e-05 7.07491e-05 -5.166305e-06
-6.166794e-06 6.008386e-05 -1.3424468e-05 -2.055555e-05 8.293365e-07 6.656444e-05 -1.0755835e-05 -5.845469e-05
-7.722344e-05 -3.943303e-07 1.5131499e-05 3.1649612e-09 9.441255e-06 -1.8345247e-07 8.4954564e-07 9.1335784e-07
-5.092779e-09 -2.386205e-06 3.5991588e-06 -7.0865935e-09 3.549381e-05 -4.9224884e-08 9.2140355e-05 -6.26941e-06
8.638382e-05 4.5008172e-10 -8.201448e-06 -2.954797e-06 -1.3143265e-05 3.4285924e-05 1.3981525e-05 1.3241955e-08
-9.469038e-06 -1.2110138e-06 3.472055e-05 0.00013027115 7.0757e-05 0.00013936164 -1.7311026e-05 -1.8455136e-06
0.00010310571 -6.5677555e-06 9.315069e-06 -7.3243683e-07 -2.3295665e-05 3.4081588e-06 2.442639e-06 -7.894202e-06
-2.7886271e-08 -5.5035393e-06 -2.7801052e-06 2.4067126e-07 -3.8147726e-05 -7.8884164e-05 -1.4512316e-05 -2.5137665e-06
3.6371286e-05 -4.6795332e-05 -2.7086776e-06 1.5720363e-05 -2.8035414e-05 -2.340048e-06 1.341817e-07 7.827375e-05
1.3327002e-05 1.49603875e-05 -4.8128567e-07 -9.800736e-06 -3.9447826e-07 6.3113794e-06 1.0485745e-05 8.803096e-05
0.00016329308 -1.1741055e-07 1.3894004e-06 -8.872782e-06 1.9806028e-05 -2.7808332e-05 7.758405e-06 -4.2775963e-07
-1.9260044e-05 -3.280719e-05 4.1025682e-08 -2.6163525e-05 2.0659292e-05 5.786056e-05 -1.3930286e-07 -9.2324135e-06
3.5619298e-05 -1.0844142e-05 -1.2992157e-06 1.0348818e-06 -4.7123267e-11 6.5754502e-06 -4.94111e-05 2.4620108e-06
4.7802307e-05 -4.8572398e-05 1.4925668e-08 1.0880085e-06 3.3393434e-07 2.5423122e-05 -1.3334763e-07 3.8042797e-06
3.8146325e-05 -5.3977532e-05 -2.0003952e-06 -6.258227e-09 1.5762893e-05 -4.8280053e-06 4.1947796e-06 -1.009731e-07
2.270464e-06 2.2682032e-05 -1.29014e-05 -2.6073469e-05 5.732311e-05 7.873853e-06 2.2024742e-05 -3.5354556e-06
00000000: b4f1 8137 4953 aeb7 f384 22b8 dd0e dab7
00000010: b5ad e7b4 a8a8 9838 225f 9438 395a adb6
00000020: 5bec ceb6 8e02 7c38 a739 61b7 b56e acb7
00000030: 929f 5e35 8398 8b38 f673 34b7 3f2d 75b8
00000040: 05f3 a1b8 58b4 d3b4 4bdd 7d37 967e 5931
00000050: e265 1e37 08fb 44b4 550c 6435 792d 7535
00000060: 8ffc aeb1 b122 20b6 1489 7136 567e f3b1
00000070: 30df 1438 556b 53b3 7a3b c138 d25d d2b6
00000080: f628 b538 5f6f f72f f398 09b7 074b 46b6
00000090: e581 5cb7 3bce 0f38 3192 6a37 bc7e 6332
000000a0: 35dd 1eb7 1e8a a2b5 e8a0 1138 6599 0839
000000b0: 6063 9438 9b21 1239 2537 91b7 5db3 f7b5
000000c0: 753a d838 9760 dcb6 eb47 1c37 ad9c 44b5
000000d0: 0f6b c3b7 b9b7 6436 38ec 2336 5771 04b7
000000e0: 8f8a efb2 0bab b8b6 d891 3ab6 9b35 8134
000000f0: cf00 20b8 9d6e a5b8 ec79 73b7 2eb2 28b6
00000100: 5f8d 1838 1b46 44b8 bac6 35b6 39df 8337
00000110: 982d ebb7 b809 1db6 9613 1034 e626 a438
00000120: 0a97 5f37 60fe 7a37 b331 01b5 d76d 24b7
00000130: aec8 d3b4 56c6 d336 efeb 2f37 439d b838
00000140: a739 2b39 2223 fcb3 6f7b ba35 4fdc 14b7
00000150: 1f25 a637 f045 e9b7 192a 0237 d6a6 e5b4
00000160: a190 a1b7 749a 09b8 3734 3033 be79 dbb7
00000170: 7e4d ad37 4eaf 7238 4793 15b4 eae4 1ab7
00000180: ee65 1538 3cef 35b7 b660 aeb5 45e6 8a35
00000190: 1540 4fae b0a2 dc36 c43e 4fb8 0639 2536
000001a0: 567f 4838 37ba 4bb8 e435 8032 b007 9235
000001b0: 9647 b334 bd43 d537 512e 0fb4 074d 7f36
000001c0: 4eff 1f38 ef65 62b8 873e 06b6 f207 d7b1
000001d0: 8e3a 8437 4000 a2b6 e2c0 8c36 8cd6 d8b3
000001e0: 465e 1836 4b45 be37 1773 58b7 59b8 dab7
000001f0: 386e 7038 f119 0437 c6c1 b837 aa42 6db6

exp_avg_sq f4 [128]
7.914835e-06 3.121505e-05 6.9283706e-05 4.5931592e-05 1.0073789e-08 0.0001840114 0.00010124401 5.781888e-06
2.1234603e-06 5.8136022e-05 1.2145036e-06 4.6890946e-06 1.14680105e-07 0.000100949146 1.1057649e-06 0.00011168271
0.0002365422 4.5708628e-08 1.690329e-05 1.82392e-13 3.2378034e-06 1.5188535e-09 1.39195535e-08 2.1084846e-08
1.6635606e-12 1.8920783e-06 1.489745e-05 1.900139e-12 4.0605133e-05 6.016993e-11 8.958013e-05 6.208399e-07
6.468214e-05 4.717829e-13 4.45591e-05 1.5130304e-07 1.0255546e-05 2.3008624e-05 1.1791811e-05 7.4544204e-11
1.1081152e-05 2.3282948e-07 1.6315582e-05 0.00044305614 6.2077735e-05 0.00016927184 4.351513e-06 2.9360013e-08
0.00013613001 7.783356e-06 2.997415e-07 2.8071236e-06 6.024633e-06 7.989258e-07 1.5197246e-06 7.423409e-07
2.218902e-09 2.0567916e-07 3.353991e-06 6.7530204e-09 2.0578043e-05 0.00025459324 1.2530315e-06 7.946835e-08
8.328702e-05 2.686647e-05 1.3353785e-05 1.7573246e-06 1.0460967e-05 5.312239e-09 1.3205326e-09 0.00011815
2.2780327e-05 7.6270253e-06 8.074762e-08 6.1480205e-06 1.5410937e-08 9.370977e-06 1.0281159e-06 0.00011301235
0.00040669434 2.3715627e-10 1.6855814e-06 3.4369848e-06 8.7971614e-07 2.4735984e-05 5.19389e-07 2.3519494e-08
3.1742235e-05 2.6129324e-05 4.085827e-11 2.1395475e-05 6.7218075e-06 7.610906e-05 1.4640237e-09 5.3880433e-07
4.3097556e-05 2.0298643e-05 3.9050465e-09 6.308192e-07 2.9737747e-16 5.1483397e-07 0.0001086933 1.9993314e-07
5.3908378e-05 0.00010880596 4.597824e-09 6.5400165e-08 1.4173267e-09 3.4560813e-05 2.27223e-09 3.727551e-07
4.71946e-05 7.969967e-05 8.596285e-08 1.3175964e-12 2.21615e-05 4.951223e-07 2.8645936e-06 1.7759519e-10
2.0944888e-08 1.0569929e-05 1.450525e-05 1.707318e-05 5.50445e-05 1.9973418e-06 1.5018823e-05 4.186956e-07
00000000: f5c9 0437 e8ec 0238 684c 9138 aca6 4038
00000010: fe10 2d32 2ff3 4039 f752 d438 0a02 c236
00000020: c580 0e36 14d7 7338 0702 a335 0457 9d36
00000030: 0e46 f633 a9b4 d338 cb69 9435 3337 ea38
00000040: 5008 7839 2b51 4433 8acb 8d37 ea5a 4d2a
00000050: 0a49 5936 e8bf d030 d822 6f32 111e b532
00000060: 1620 ea2b 51f3 fd35 0ff0 7937 dcb5 052c
00000070: 6e4f 2a38 a950 842e f7dc bb38 cba7 2635
00000080: f6a5 8738 8acb 042b f8e4 3a38 dd75 2234
00000090: 3c0f 2c37 a502 c137 71d5 4537 a8ec a32e
000000a0: 2fe9 3937 aeff 7934 72dd 8837 fd49 e839
000000b0: bb2f 8238 907e 3139 3603 9236 5a33 fc32
000000c0: 1fbe 0e39 4295 0237 28ec a034 0462 3c36
000000d0: 3427 ca36 c375 5635 57f9 cb35 4745 4735
000000e0: 567b 1831 a8d8 5c34 2015 6136 3208 e831
000000f0: 039f ac37 ed7a 8539 d62d a835 30a8 aa33
00000100: 61aa ae38 4e5f e137 120a 6037 37dd eb35
00000110: 8381 2f37 f386 b631 1c7e b530 4cc7 f738
00000120: 6118 bf37 a6eb ff36 7967 ad33 184b ce36
00000130: 0261 8432 0a38 1d37 cbfd 8935 0b01 ed38
00000140: 9739 d539 c760 822f 233c e235 f3a6 6636
00000150: a225 6c35 1f80 cf37 246c 0b35 ea07 ca32
00000160: f722 0538 4c30 db37 53b2 332e 6f7a b337
00000170: e38b e136 be9c 9f38 c136 c930 5aa2 1035
00000180: a6c3 3438 0147 aa37 272d 8631 9155 2935
00000190: 2b6d ab25 1f33 0a35 45f2 e338 34ad 5634
000001a0: ae1b 6238 c12e e438 e3fa 9d31 1f72 8c33
000001b0: c0cb c230 64f5 1038 7e25 1c31 121f c834
000001c0: d1f2 4538 6f24 a738 949a b833 6a6f b92b
000001d0: 75e7 b937 8ce8 0435 583d 4036 9a44 432f
000001e0: 4cea b332 8055 3137 935b 7337 6038 8f37
000001f0: 95df 6638 120a 0636 5bf9 7b37 16c9 e034
