results/ManAgent/ManAgent/ManAgent-510095.onnx (onnx, 86389 bytes, 6 tensors)

network_body._body_endoder.seq_layers.0.weight f4 [128, 27]
0	0x3e9d5d8d	0.30735436
1	0x3c6bf466	0.014401531
2	0xbe9b3c18	-0.30319285
3	0x3e493aae	0.19651291
4	0xbe6af60c	-0.22945422
5	0x3c71ef49	0.014766523
6	0xbe659913	-0.22421674
7	0x3d3a8f24	0.045546666
8	0xbe7cb9f3	-0.24680309
9	0x3db8ebeb	0.09029373
10	0xbe509e58	-0.20372903
11	0xbca2384e	-0.019802239
12	0xbe584557	-0.21120201
13	0x3eaab594	0.33341658
14	0x3cfdc672	0.030978415
15	0x3eca2712	0.39482933
16	0xbe85ce62	-0.2613402
17	0xbe1c94e4	-0.15291172
18	0x3e8129e6	0.25227278
19	0x3dbeb89d	0.09312556
20	0xbe1f5439	-0.15559472
21	0xbe219c50	-0.15782285
22	0xbe8e25c4	-0.27763188
23	0x3e8069ee	0.25080818
24	0xbe6a31d1	-0.22870566
25	0x3e82cce1	0.25546935
26	0xbec7914a	-0.38978034
27	0xbd2b1392	-0.04176671
28	0xbebb1cf0	-0.36545515
29	0xbefbb9a4	-0.4916507
30	0xbd829d67	-0.06377678
31	0x3e2cca91	0.16874148
32	0xbdcf7cb7	-0.10131209
33	0x3e0c3436	0.13691792
34	0xbdf4f3ee	-0.119605884
35	0x3e2c9425	0.16853388
36	0xbe79a70a	-0.24380127
37	0x3e367d07	0.17821132
38	0x3ed65f46	0.41869563
39	0xbeb0b0a0	-0.34509754
40	0xbad66736	-0.0016357664
41	0xbcee0b8f	-0.029058246
42	0xbde34a6f	-0.110981815
43	0x3e364af2	0.17802027
44	0x3e3fbc78	0.18724239
45	0xbe838adf	-0.25691888
46	0xbc200fb4	-0.009769369
47	0x3e77c8bf	0.24197672
48	0x3b9f2134	0.004856253
49	0x3d5c5cae	0.053799324
50	0x3e20367b	0.15645783
51	0xbee5b571	-0.4486499
52	0xbe896259	-0.26832846
53	0xbf102e01	-0.56320196
54	0xbbe83455	-0.0070863166
55	0x3db1a1b4	0.086734205
56	0xbd0f07e5	-0.03491964
57	0xbd94e64c	-0.07270488
58	0x3e062069	0.13098301
59	0xbdf29b7d	-0.11846063
60	0x3b1db703	0.0024065382
61	0xbf089805	-0.53356963
62	0xbd604b80	-0.054759502
63	0xbe891090	-0.2677045
64	0xbdb3f500	-0.087869644
65	0xbea67a83	-0.32515344
66	0xbcd38f34	-0.02582512
67	0x3dbab584	0.091166526
68	0x3d2ec472	0.042667814
69	0xbe692fd7	-0.22772156
70	0xbdfc841b	-0.123298846
71	0xbe0f24e3	-0.13978915
72	0x3d94e78b	0.07270726
73	0xbce36e79	-0.027762638
74	0xbee12259	-0.43971518
75	0xbe9b6941	-0.3035374
76	0xbe266cae	-0.16252396
77	0xbde7c329	-0.11316521
78	0x3cdc64b7	0.026903493
79	0xbdae6655	-0.08515612
80	0x3e92ecef	0.2869639
81	0xbe9696ba	-0.2941187
82	0xbe449dd7	-0.19200836
83	0x3f2f1ca8	0.684031
84	0x3db4d6cb	0.08830031
85	0x3eae0445	0.33987632
86	0x3e1db6f6	0.15401825
87	0xbec180b9	-0.3779352
88	0xbe41c6ca	-0.18923488
89	0x3e178572	0.14796999
90	0x3e9f70d9	0.31140783
91	0xbe10d4e8	-0.14143717
92	0xbdba28eb	-0.09089836
93	0xbed77c1c	-0.42086875
94	0x3e142e3e	0.14470765
95	0xbd9deeb2	-0.07711543
96	0xbd9fd691	-0.07804597
97	0xbca52154	-0.020157494
98	0xbe01641b	-0.12635843
99	0x3d068496	0.032841288
100	0xbe4eb4cc	-0.20186156
101	0xbe2e6852	-0.17031983
102	0xbe52ac31	-0.20573498
103	0x3e844210	0.25831652
104	0x3d9e9931	0.07744063
105	0x3df7dff9	0.12103266
106	0xbe5d1d4a	-0.21593204
107	0x3e50ba4b	0.20383565
108	0x3da1fa1e	0.07909034
109	0xbe0af9f5	-0.13571914
110	0x3e954e6f	0.29161403
111	0x3e8b8b04	0.27254498
112	0xbcc47db7	-0.023985727
113	0xbe86c422	-0.26321512
114	0xbe12a6db	-0.14321463
115	0xbf18f404	-0.5974734
116	0xbeacd9ab	-0.33759817
117	0xbecdce95	-0.40196672
118	0x3e0a618a	0.1351377
119	0x3d97f489	0.07419688
120	0x3e3f976a	0.18710104
121	0xbde4c209	-0.11169822
122	0x3dd00ce1	0.101587065
123	0xbe8398aa	-0.2570241
124	0x3ea7b4be	0.32755083
125	0xbe1f9dc8	-0.15587533
126	0x3e1a556c	0.15071648
127	0x3d6a2553	0.0571645
128	0xbc84d868	-0.016216472
129	0xbe46eae7	-0.19425546
130	0x3dd09ab4	0.10185757
131	0x3ef173ab	0.4715856
132	0xbe079618	-0.1324085
133	0x3b940376	0.004517014
134	0x3ea3606b	0.319095
135	0xbf094d8b	-0.53633946
136	0xbe17bb06	-0.14817438
137	0xbe18cdf8	-0.14922321
138	0xbd965838	-0.07341045
139	0xbf0d5642	-0.55209744
140	0xbf0062b8	-0.5015063
141	0x3eaa6b0b	0.33284792
142	0xbf02fafd	-0.5116423
143	0xbe9233a4	-0.28555024
144	0xbd12f164	-0.03587474
145	0xbe5a22db	-0.21302359
146	0xbf31a69d	-0.69394857
147	0xbe2fb4f5	-0.17158873
148	0xbcfa9dd7	-0.030592842
149	0xbddd1913	-0.10795798
150	0xbeb96539	-0.3621004
151	0xbedaeda2	-0.42759424
152	0xbddc5315	-0.10758034
153	0x3cb0fafd	0.021604056
154	0xbf5dd2c9	-0.8664976
155	0xbde8122f	-0.11331593
156	0x3f1c3ea6	0.61033094
157	0xbdd5c9f9	-0.10438914
158	0xbb4e6bc4	-0.0031497339
159	0xbdce5136	-0.100740835
160	0x3d8ac3a9	0.067756005
161	0x3e0a9d1a	0.13536492
162	0xbd31207f	-0.04324388
163	0xbeb806e1	-0.35942748
164	0xbf091c2c	-0.5355861
165	0x3ea2559a	0.31705934
166	0xbe8951bc	-0.2682017
167	0xbda2e62f	-0.0795406
168	0xbed6c934	-0.4195038
169	0x3da5fbc4	0.08104661
170	0x3d30c911	0.043160502
171	0xbe063f57	-0.131101
172	0x3d437c9e	0.047726266
173	0xbdf1a1ec	-0.11798462
174	0x3e011520	0.12605715
175	0x3e14ce1e	0.14531752
176	0xbddcadb6	-0.1077532
177	0xbe1d6484	-0.15370375
178	0xbbd75094	-0.006570885
179	0x3d834b09	0.06410796
180	0xbdb4adde	-0.08822225
181	0x3e901f2c	0.28148782
182	0xbd33b8d1	-0.043877427
183	0xbe646993	-0.22305898
184	0xbe26447a	-0.16237059
185	0xbe9d887f	-0.307682
186	0xbe93aaae	-0.28841156
187	0x3e3892f3	0.18024807
188	0xbee3b4fe	-0.44474024
189	0xbe5afc6f	-0.21385358
190	0xbe1dc59f	-0.15407418
191	0xbe0ec504	-0.13942343
192	0x3e910f91	0.2833219
193	0x3d44b2e2	0.04802216
194	0x3b0a9426	0.0021145432
195	0xba5cf258	-0.0008428446
196	0x3ceaac5b	0.028646639
197	0xbdc93861	-0.098252065
198	0xbea2bb4f	-0.3178353
199	0xbe2d66d1	-0.16933753
200	0xbd5e31e0	-0.054246783
201	0xbc7db6b1	-0.015485452
202	0xbdc4b4cb	-0.09604796
203	0xbdc41b33	-0.095755
204	0x3e00c139	0.12573709
205	0xbc46a2e6	-0.012123799
206	0xbd881e0b	-0.06646355
207	0xbe83168c	-0.2560314
208	0xbda42150	-0.08014166
209	0x3d8cf2c3	0.068822406
210	0x3e1750b5	0.14776881
211	0xbdbd2b1c	-0.09236738
212	0x3d1a20a5	0.03762879
213	0x3e4c6d6f	0.1996362
214	0xbe80cb8d	-0.25155297
215	0xbd4180f2	-0.047242112
216	0xbe9b8789	-0.30376843
217	0x3d606667	0.05478516
218	0x3ed5ef52	0.4178415
219	0xbeb492d2	-0.35268265
220	0xbe9570e6	-0.29187697
221	0xbe349402	-0.17634585
222	0xbdc716ad	-0.09721122
223	0x3d554474	0.052067235
224	0xbe2080cd	-0.15674134
225	0x3e6b9926	0.2300764
226	0x3d8b3a41	0.067982204
227	0x3eb56c38	0.35434127
228	0x3cddc586	0.027071726
229	0xbdff2568	-0.124583066
230	0x3e1e5597	0.15462337
231	0xbe34089b	-0.17581408
232	0x3e48b5d7	0.19600616
233	0x3e0232bd	0.12714668
234	0x3ded8717	0.11598032
235	0x3dfc52ff	0.12320518
236	0x3bf49246	0.007463726
237	0x39dc16cf	0.00041978664
238	0x3da7970b	0.08183106
239	0x3e802c24	0.25033677
240	0xbe34b624	-0.17647606
241	0xbdfe6dd0	-0.12423289
242	0xbe464668	-0.19362795
243	0xbd4d348a	-0.050098933
244	0xbed113e6	-0.40835494
245	0xbf2fca5e	-0.6866816
246	0x3dc7a502	0.097482696
247	0x3ce6faf6	0.02819584
248	0x3d96f407	0.07370763
249	0x3da8b598	0.08237761
250	0x3d6b75d0	0.0574854
251	0xbe21af38	-0.15789497
252	0xbde2f6e7	-0.11082249
253	0xbe869567	-0.2628586
254	0x3df2b8a4	0.11851624
255	0x3e15f61e	0.14644668

network_body._body_endoder.seq_layers.0.bias f4 [128]
0	0x3b88b22f	0.0041716318
1	0x3cc9fd9f	0.024657069
2	0xbdb3d780	-0.08781338
3	0x3bbe1c7c	0.0058017354
4	0xbcb323cc	-0.021867655
5	0xbe907b72	-0.2821918
6	0xbd2f08dd	-0.042733062
7	0xbc95494d	-0.01822343
8	0xbcf49e08	-0.029860511
9	0xbc904f8f	-0.017616061
10	0x3c8897d0	0.016673952
11	0xbda506e7	-0.08057957
12	0xbd8971b5	-0.06711141
13	0xbdd7eb29	-0.105429
14	0x3db11939	0.08647389
15	0xbdd25345	-0.10269789
16	0x3d078fbf	0.03309607
17	0xbb651d09	-0.0034959933
18	0xbd33213c	-0.043732867
19	0xbd0572cd	-0.032580186
20	0xbd3ac496	-0.045597635
21	0xbcb79e76	-0.022414427
22	0xbdebed99	-0.115199275
23	0xbc4665b9	-0.0121092135
24	0x3c4e8b5d	0.012606469
25	0xbd816414	-0.063179165
26	0x3d83a66d	0.064282276
27	0xbc516014	-0.0127792545
28	0x3c6191cd	0.013767672
29	0xbdb50d52	-0.08840431
30	0x3ce3bbfe	0.027799603
31	0xbc88d4d2	-0.016703043
32	0xbc38e74f	-0.011285617
33	0x3bb0a212	0.005390414
34	0x3d484ccc	0.048901364
35	0x3d153e57	0.036436405
36	0xbd7fbc54	-0.062435463
37	0x3c7898f3	0.015173185
38	0x3c2dc458	0.010605894
39	0xbda66c68	-0.081261456
40	0x3d767317	0.060168352
41	0xbe343f7a	-0.1760234
42	0xbce0c5f5	-0.027438143
43	0x3de8ac74	0.11361018
44	0x38c71068	9.492115e-05
45	0x3d2f3c10	0.04278189
46	0xbd384076	-0.04498335
47	0x3ce5b24d	0.028039122
48	0x3d735e41	0.05941606
49	0xbd69dbf7	-0.05709454
50	0x3d545b82	0.05184508
51	0xbda8956e	-0.082316265
52	0x3d114fd9	0.03547654
53	0x3c8b1a91	0.016980441
54	0x3a8d42e6	0.0010777384
55	0xbb21c93d	-0.0024686598
56	0xbc91ac1a	-0.01778226
57	0x3d8aa39b	0.067694865
58	0xbebac87b	-0.3648108
59	0x3d139970	0.036035
60	0xbdb5ce14	-0.08877197
61	0x3d94c137	0.07263415
62	0xbc875be0	-0.016523302
63	0xbb821268	-0.0039694794
64	0xbde4cef1	-0.111722834
65	0x3c29189b	0.010320808
66	0xbc5fbdbc	-0.013656076
67	0x3c716413	0.014733332
68	0xbd902bdb	-0.07039615
69	0x3c1d7855	0.009611209
70	0xbc8787f3	-0.016544318
71	0x3c9f77dc	0.019466333
72	0x3d06c319	0.032900903
73	0x3cd1686f	0.025562493
74	0xbe4dd611	-0.20101191
75	0x3d668bf2	0.056285806
76	0xbda32cc1	-0.079675205
77	0x3d8215b7	0.06351798
78	0xbc808fb4	-0.015693523
79	0xbce72685	-0.02821661
80	0x3d400c59	0.046886776
81	0x3c500b48	0.012698002
82	0x3a8bbdeb	0.0010661458
83	0xbcfd2d68	-0.03090544
84	0xbe92af21	-0.28649238
85	0xbd292a7f	-0.041300293
86	0xbc428342	-0.011872115
87	0xbbe4eb02	-0.006986023
88	0x3dd863ae	0.105658874
89	0xbcb89038	-0.022529706
90	0xbbf9b4c5	-0.0076204264
91	0xbc4c18b8	-0.012457065
92	0xbba9b82d	-0.005179426
93	0xbbb9d72a	-0.0056714015
94	0x3d1c4023	0.038147103
95	0xbd4a6a5c	-0.04941784
96	0x3d3d6593	0.046239447
97	0x3d906a34	0.07051507
98	0xbed5a5b1	-0.41727975
99	0xbb67b525	-0.0035355773
100	0xbdc0b52f	-0.09409558
101	0x3d7ba00c	0.06143193
102	0xbd8d48d2	-0.06898655
103	0x3dab7a8f	0.083729856
104	0xbb8116a1	-0.003939465
105	0xbe1daa19	-0.15396918
106	0xbc0b18c8	-0.008489795
107	0xbd5ca8ec	-0.053872034
108	0xbd9623bf	-0.07331037
109	0xbd829192	-0.063754216
110	0xbd868b2a	-0.06569512
111	0x3d8c14f0	0.06839931
112	0xbd33ae68	-0.0438675
113	0x3bf815d7	0.007570963
114	0xbc3055aa	-0.010762611
115	0xbcb17ddd	-0.021666462
116	0x3d1ca6c8	0.038244992
117	0xbd59f89a	-0.0532156
118	0xbd076cd3	-0.033062767
119	0xbd6749fe	-0.05646705
120	0x3d2f03c2	0.042728193
121	0x3c8cf46b	0.017206391
122	0x3c1f8aae	0.009737654
123	0xb7ab8b42	-2.0449635e-05
124	0x3a237ff3	0.00062370225
125	0x3d41312f	0.047166046
126	0xbc231789	-0.009954342
127	0xbd58dbf4	-0.05294414

network_body._body_endoder.seq_layers.2.weight f4 [128, 128]
0	0xbe09263c	-0.13393492
1	0xbe14d81c	-0.14535564
2	0xbc9ae9ed	-0.018910373
3	0xbe28802c	-0.16455144
4	0xbe01127e	-0.1260471
5	0x3e2bf8b2	0.16794088
6	0xbe11eebe	-0.14251229
7	0x3d98f9a6	0.07469492
8	0xbe149c03	-0.14512639
9	0x3e06768b	0.13131158
10	0xbe03a1a4	-0.1285463
11	0x3e82c662	0.2554198
12	0x3e59c59c	0.21266788
13	0xbd64cfb0	-0.05586213
14	0xbdbf8e70	-0.0935334
15	0x3e13c89d	0.14431997
16	0xbdaa23da	-0.083076194
17	0xbdef814b	-0.116945826
18	0xbe23e2bb	-0.1600446
19	0xbe1da22d	-0.15393896
20	0x3ba8f2f1	0.005155914
21	0x3e0eef43	0.13958459
22	0x3e0a53c8	0.13508523
23	0x3ce6f66d	0.028193677
24	0xbd5e951d	-0.054341424
25	0xbdb2ea9d	-0.08736155
26	0xbb08f107	-0.0020895617
27	0xbe61e30d	-0.22059269
28	0x3ca78d88	0.02045323
29	0xbe4f5e35	-0.20250781
30	0x3dc280c5	0.09497217
31	0x3dd3e787	0.10346895
32	0xbd2cdcd9	-0.042202804
33	0xbda7e7a5	-0.081984796
34	0x3d992bd6	0.07479064
35	0xbe891d2d	-0.26780072
36	0xbe5e5ccc	-0.21715087
37	0x3d53cfac	0.051711723
38	0xbe451df3	-0.19249706
39	0xbdcf6d09	-0.10128219
40	0x3e3f38d5	0.18674023
41	0x3e132963	0.14371257
42	0x3e07af6b	0.1325051
43	0xbe909423	-0.2823802
44	0xbcb42036	-0.021988016
45	0x3aa4b0aa	0.0012564857
46	0x3d2029b1	0.03910226
47	0xbc518548	-0.012788124
48	0x3e330c7a	0.17485228
49	0xbe40dd65	-0.18834455
50	0x3d1d7490	0.03844124
51	0xbca40c95	-0.02002553
52	0xbe2f6cc4	-0.17131335
53	0xbc6bef76	-0.014400354
54	0x3d60c96b	0.054879587
55	0xbc620c43	-0.013796869
56	0x3da933bd	0.082618214
57	0x3ba7709d	0.00510986
58	0x3d13acb3	0.03605337
59	0x3e488e22	0.1958547
60	0xbe0dec93	-0.13859777
61	0xbd371f09	-0.04470733
62	0xbe4e83b5	-0.2016743
63	0x3e0dcf46	0.138486
64	0x3be2f051	0.0069256206
65	0x3d9e0bd0	0.07717097
66	0xbe20b81a	-0.15695229
67	0xbe03da19	-0.12876166
68	0x3d6fd883	0.05855609
69	0xbdf35d4a	-0.11883028
70	0xbe0ed0ba	-0.1394681
71	0x3ce52af0	0.027974576
72	0x3defcb28	0.11708671
73	0xbe1fa499	-0.15590133
74	0x3da4898a	0.08034046
75	0xbde828ff	-0.113359444
76	0x3da09f21	0.078428514
77	0x3d54c9d9	0.05195031
78	0xbd650148	-0.055909425
79	0xbd249848	-0.04018429
80	0x3d17080f	0.03687292
81	0xbd3c33e6	-0.04594793
82	0x3ea85003	0.32873544
83	0xbdc1bd80	-0.094599724
84	0x3dab85f5	0.0837516
85	0x3de71878	0.11283964
86	0xbd84f1e9	-0.06491453
87	0x3d911e79	0.0708589
88	0x3db35483	0.08756354
89	0xbd96a3ea	-0.07355483
90	0xbd1a1234	-0.037615016
91	0x3e16245e	0.1466231
92	0xbe747ade	-0.23874995
93	0xbe77f908	-0.24216092
94	0xbd4760ba	-0.04867623
95	0xbdc92c93	-0.09822955
96	0x3e1a1042	0.15045264
97	0x3d1c3161	0.03813303
98	0x3d432d55	0.047650654
99	0x3e9070f2	0.2821117
100	0x3e815d3b	0.25266442
101	0x3e110572	0.14162233
102	0xbd636872	-0.05551953
103	0xbc7cb850	-0.015424803
104	0xbcb2f691	-0.021846088
105	0xba854011	-0.0010166188
106	0xbe162818	-0.14663732
107	0xbe006cb3	-0.12541465
108	0x3db93ba6	0.0904458
109	0xbd2d0ad1	-0.042246643
110	0xbd281384	-0.041034237
111	0x3c69896c	0.014253955
112	0xbcb7ac83	-0.022421127
113	0xbdcc70af	-0.0998243
114	0x3d8174df	0.063211195
115	0xbea359f8	-0.31904578
116	0x3e5134cf	0.20430301
117	0xbde64cbd	-0.112451054
118	0xbd62da16	-0.055383764
119	0x3e354199	0.17700805
120	0x3e0dfd06	0.13866052
121	0xbbb080b5	-0.005386437
122	0xbda437e7	-0.08018475
123	0xbe7f1b40	-0.24912739
124	0xbdd75049	-0.1051336
125	0xbca3c946	-0.019993436
126	0xbdd56ab2	-0.10420741
127	0xbea3c616	-0.31987065
128	0xbe861032	-0.2618423
129	0xbd087d72	-0.03332276
130	0xbcbf2dd5	-0.023337284
131	0x3e11079c	0.14163059
132	0x3df7f129	0.121065445
133	0xbbced4b2	-0.0063119764
134	0xbd102159	-0.035188053
135	0xbbf04b60	-0.007333204
136	0x3e2de53b	0.16981976
137	0xbeb38aad	-0.3506674
138	0xbd1bd161	-0.038041476
139	0x3c892ffd	0.016746515
140	0x3d5baaf5	0.053629834
141	0x3c9594c3	0.018259412
142	0xbdd11a55	-0.102101006
143	0x3cdcee39	0.026969062
144	0x3e48aedc	0.19597954
145	0xbd23a192	-0.039949007
146	0x3dc66964	0.096880704
147	0x3d9ed578	0.0775556
148	0xbde767d3	-0.112991
149	0xbe0e4a67	-0.1389557
150	0xb9e9d077	-0.00044596542
151	0xbe06fb0c	-0.13181704
152	0x3d52a5ad	0.051427532
153	0xbe04b5f8	-0.1296004
154	0x3e96ed64	0.2947799
155	0x3e285e84	0.16442305
156	0xbdd3b3a8	-0.10337001
157	0x3da25f1a	0.079282954
158	0xbe40393c	-0.18771833
159	0xbd494b71	-0.049144212
160	0xbd35fae3	-0.044428717
161	0xbce560b2	-0.02800021
162	0xbd2f5292	-0.042803355
163	0x3da306a8	0.07960254
164	0x3da30e51	0.07961715
165	0xbe2f8aff	-0.17142867
166	0xbd251581	-0.04030371
167	0xbe2662fa	-0.16248694
168	0xbd4aff6b	-0.04955999
169	0xbe5bcb4e	-0.21464273
170	0x3d91d28c	0.07120237
171	0x3e670576	0.22560677
172	0x3d07a088	0.03311208
173	0x3e759b74	0.23985082
174	0x3c9c195c	0.019055061
175	0xbdb091be	-0.08621548
176	0xbdb907a7	-0.09034663
177	0xbd2cc540	-0.0421803
178	0x3e44483b	0.19168179
179	0xbe00d66f	-0.125818
180	0x3df93546	0.12168364
181	0x3d406529	0.046971474
182	0x3e81550d	0.252602
183	0xbd969964	-0.07353476
184	0xbe811162	-0.25208575
185	0xbd4c9a3f	-0.049951788
186	0xbdab4673	-0.083630465
187	0xbe8b7e71	-0.27244905
188	0xbdff89b6	-0.12477438
189	0xbdeb200a	-0.1148072
190	0x3e14abf9	0.14518727
191	0xbdd9d6b0	-0.106366515
192	0xbcf8bf41	-0.030364634
193	0xbdb1cb9d	-0.08681414
194	0x3e1553f0	0.14582801
195	0xbe3d1c19	-0.1846775
196	0xbbbab938	-0.0056983493
197	0x3e3005ab	0.17189662
198	0x3e0bf830	0.13668895
199	0xbdbb3a4b	-0.09141978
200	0xbd4f5827	-0.050621178
201	0x3eab7a72	0.33491856
202	0x3e0ab91f	0.1354718
203	0x3ec8c968	0.3921616
204	0xbe11702b	-0.14202945
205	0xbe393703	-0.18087392
206	0xbcedf563	-0.029047674
207	0xbec72dc4	-0.38902104
208	0xbe9a2135	-0.3010346
209	0x3e08b40f	0.13349937
210	0xbec0b10d	-0.3763508
211	0xbddde996	-0.108355686
212	0xbd7beefc	-0.06150721
213	0x3dcde37a	0.10053153
214	0x3bcfdafb	0.006343243
215	0xbe61bef2	-0.22045496
216	0xbc2e9a9a	-0.010656977
217	0x3dc386b9	0.09547181
218	0x3caa7b90	0.020810872
219	0xbc1e9ad8	-0.009680472
220	0xbdd35533	-0.10318985
221	0xbd529841	-0.051414732
222	0xbeb44304	-0.3520738
223	0x3c0d6f08	0.008632429
224	0xbdba1efd	-0.09087942
225	0xbe440c22	-0.19145253
226	0xbd85e54f	-0.06537878
227	0xbebf8dd9	-0.3741291
228	0xbdb01d16	-0.08599298
229	0x3dea2f11	0.114347585
230	0x3bd6c932	0.006554746
231	0x3ed71f1f	0.4201593
232	0x3d0fd1e2	0.03511227
233	0xbd830ec5	-0.063993014
234	0x3d2a6806	0.04160311
235	0xbe0ac2c2	-0.13550857
236	0xbe1a5cdb	-0.15074484
237	0x3e1c60de	0.15271327
238	0x3d11d5e7	0.035604384
239	0x3e3ee226	0.18640956
240	0x3e255bf8	0.16148365
241	0x3e18a9ab	0.14908473
242	0xbe385a03	-0.18003087
243	0x3d96b65a	0.073589996
244	0xbd98f486	-0.07468514
245	0x3d12ed65	0.03587093
246	0xbd192c0b	-0.03739552
247	0xbd3ba56d	-0.04581206
248	0xbe4ba05e	-0.19885394
249	0x3c1152a0	0.008869797
250	0xbd47b24b	-0.048754018
251	0xbda296c9	-0.07938916
252	0x3e4548a2	0.19265988
253	0x3ca98232	0.020691965
254	0xbe40e4b4	-0.18837243
255	0x3d0ac389	0.033877883

network_body._body_endoder.seq_layers.2.bias f4 [128]
0	0xbdcb325d	-0.099217154
1	0x3c7f7c7f	0.015593647
2	0xbb0a55cc	-0.0021108268
3	0xbcf39d5f	-0.029738126
4	0x3caf2236	0.021378618
5	0xbcf59918	-0.029980227
6	0x3cfa7197	0.030571742
7	0x3cb5ff2b	0.0222164
8	0x3b960f18	0.004579436
9	0x3ccb16db	0.024791172
10	0x3d118e89	0.035536323
11	0xbc309c3d	-0.010779438
12	0xbaed92ae	-0.0018125379
13	0x3ccd574a	0.025066037
14	0xbc6a85e5	-0.0143141495
15	0xbd322d74	-0.04350038
16	0x3c3c7f34	0.011504937
17	0xbda8431e	-0.082159266
18	0x3c9af057	0.018913431
19	0xbcfe8ee2	-0.031073991
20	0x3b89f139	0.004209664
21	0x3c87bbb3	0.016568994
22	0xbdb86f14	-0.090055615
23	0xbd62cd81	-0.055371765
24	0xbce2f351	-0.027703913
25	0xbdc6f8fb	-0.09715458
26	0xbb8141c5	-0.003944608
27	0x3cdc2e37	0.026877506
28	0x3c6b2bd7	0.014353714
29	0xbc40c233	-0.011765051
30	0xbd32f948	-0.043694764
31	0x3cc253a2	0.02372152
32	0x3c29c6fb	0.010362382
33	0x3d4092eb	0.047015112
34	0xbde836a1	-0.11338545
35	0x3cd0c4b1	0.025484415
36	0xbd1c6a5e	-0.038187377
37	0x3afe3437	0.0019394223
38	0x3ba72cb3	0.005101764
39	0x3ab8c8a6	0.0014097884
40	0x3cbee416	0.02330212
41	0xbd4fb6e0	-0.050711513
42	0x3cae46c1	0.021273972
43	0x3cf73a92	0.030179296
44	0xbe056533	-0.13026886
45	0xbc464e7e	-0.012103675
46	0x3bc2d256	0.005945484
47	0xbd7e7d22	-0.062131055
48	0xbd86fad0	-0.065908074
49	0xbd4a69b7	-0.049417224
50	0xbd3f49d1	-0.046701256
51	0x3cbeb2f9	0.0232787
52	0x3cb5e47d	0.022203678
53	0x3bb15ebe	0.0054129055
54	0x3c6bb811	0.014387147
55	0xbe0bd2d2	-0.1365464
56	0x3d2e87e1	0.042610053
57	0x3c16db0d	0.009207499
58	0xbdb504df	-0.0883882
59	0xbc05f29b	-0.008175517
60	0x3c872ad2	0.01649991
61	0xbbefe4f3	-0.007320994
62	0x3ca5fbf3	0.02026174
63	0x3b00073b	0.001953556
64	0x3c0776d7	0.00826808
65	0x3c2714b2	0.010197805
66	0xbcb73303	-0.022363191
67	0x3c7347a3	0.0148486225
68	0x3d0cf0e4	0.03440942
69	0xbdbd1ab7	-0.09233611
70	0xbd86b695	-0.065777935
71	0xbc2e7779	-0.010648602
72	0xbdbe7d31	-0.09301222
73	0xbc9f1318	-0.019418284
74	0xbd1d0ab8	-0.0383403
75	0xbd4f227f	-0.050570007
76	0xbce46539	-0.027880298
77	0xbc9b01d8	-0.018921778
78	0x3c215f49	0.009849378
79	0xbdd03b45	-0.10167555
80	0xbc7206cb	-0.014772127
81	0xbdb721d5	-0.08942
82	0x3d1e7cf2	0.038693376
83	0xbcdb7946	-0.026791226
84	0xbd800821	-0.062515505
85	0xbd51cdde	-0.05122172
86	0x3d85d148	0.06534058
87	0x3d238d87	0.039929893
88	0xbddb066f	-0.106945865
89	0xbcb3a95a	-0.021931339
90	0x3bf8fdc8	0.0075986125
91	0x3d204110	0.03912455
92	0xbcb4726f	-0.022027222
93	0xbd41ce03	-0.04731561
94	0xbd9e8a07	-0.077411704
95	0xbca6e109	-0.020370977
96	0xbc89bc49	-0.016813414
97	0x3c65091f	0.013979225
98	0xbbe68d18	-0.0070358627
99	0xbc361652	-0.01111372
100	0xbd0d3330	-0.034472644
101	0xbdebc923	-0.11512973
102	0xbd51a1b8	-0.051179618
103	0x3c8bca46	0.017064225
104	0x3d226fbe	0.039657347
105	0xbcd5886e	-0.026066031
106	0xbba6bd2f	-0.0050884704
107	0x3c4e5ad1	0.0125948945
108	0xbd031e3e	-0.032011263
109	0xbc455053	-0.012043077
110	0x3ccc5be7	0.024946166
111	0x3cd4b5df	0.02596563
112	0x3d00ae0d	0.031415988
113	0xbbc4a730	-0.0060013756
114	0x3c9fd35c	0.019509964
115	0x38310ff1	4.2214935e-05
116	0xbb316d9b	-0.0027073387
117	0xbe33086f	-0.17483686
118	0x3d0d5d30	0.0345127
119	0x3bfe8222	0.007766978
120	0xbe24899c	-0.16068119
121	0x3d3ed305	0.046587963
122	0xbc478f50	-0.012180164
123	0xbc9d8945	-0.019230494
124	0xbb085516	-0.0020802668
125	0xbd13a279	-0.036043618
126	0x3d0beecb	0.034163278
127	0xbceff128	-0.029289797

action_model._discrete_distribution.branches.0.weight f4 [2, 128]
0	0xbbf849bf	-0.0075771506
1	0xbe27dd8b	-0.16393106
2	0xbca01916	-0.019543212
3	0x3d90d611	0.0707208
4	0xbe26c630	-0.1628654
5	0x3ce58fec	0.028022729
6	0xbe2aa04f	-0.16662715
7	0xbe1db14c	-0.15399665
8	0x3e01e638	0.12685478
9	0xbe4a2e44	-0.19744211
10	0x3e1e2d64	0.15447003
11	0xbde1b49d	-0.110207774
12	0x3dd796c0	0.105268
13	0x3de33464	0.11093977
14	0xbd4c6126	-0.049897335
15	0xb9c06572	-0.00036696676
16	0x3debdb1b	0.115164004
17	0x3d260f7b	0.040542107
18	0xbe2a775c	-0.16647094
19	0x3c4924fb	0.012276883
20	0x3dfeb6e8	0.1243723
21	0xbe37d4ba	-0.17952242
22	0x3d1be6f6	0.03806206
23	0xbcb91150	-0.022591263
24	0x3d8815c3	0.06644776
25	0x3d35dafd	0.044398297
26	0x3df25e6f	0.11834418
27	0x3dfebdb0	0.12438524
28	0xbcf54076	-0.029937964
29	0xbd1ba495	-0.037998755
30	0xbd1861a6	-0.0372025
31	0x3e1c12a5	0.15241487
32	0xbd79b300	-0.060961723
33	0xbe5da865	-0.21646269
34	0x3d16e967	0.036843684
35	0xbe1f3eb2	-0.1555126
36	0x3d909274	0.07059184
37	0x3de9e9b0	0.114215255
38	0x3dfd2c9a	0.12362023
39	0xbd379eaf	-0.044829067
40	0xbe2775b0	-0.16353488
41	0x3d60a985	0.054849166
42	0xbdd88996	-0.105731174
43	0xbe2c22e0	-0.16810179
44	0x3cc33f63	0.023833936
45	0xbd7622ac	-0.06009166
46	0xbe3884cc	-0.18019408
47	0xbd11308c	-0.03544669
48	0xbc398a93	-0.011324543
49	0x3ca26440	0.019823194
50	0x3a64a41f	0.0008721966
51	0xbdfb23a9	-0.12262661
52	0xbe1249c1	-0.14285947
53	0x3e1c69bf	0.15274714
54	0x3e0f666d	0.14003916
55	0x3d31c7a7	0.043403294
56	0xbe10f916	-0.14157519
57	0xbe0010fe	-0.12506482
58	0x3d007c4a	0.03136853
59	0x3dfa49be	0.122210965
60	0xbe2083b6	-0.15675244
61	0x3d0a8b3b	0.033824187
62	0xbdaefd95	-0.08544461
63	0xbe3da48a	-0.18519798
64	0xbdd9d336	-0.106359884
65	0xbe39cb5d	-0.18143983
66	0xbd8e2e64	-0.06942442
67	0xbe4f5d94	-0.20250541
68	0xbe37613b	-0.17908184
69	0x3d1b7690	0.037954867
70	0x3cda02c0	0.02661264
71	0x3bf8dd7b	0.007594762
72	0x3d23dadb	0.04000364
73	0x3c0369db	0.008020843
74	0x3cd34dfc	0.025794022
75	0xbce0e7b7	-0.02745424
76	0xbd4809f5	-0.04883762
77	0xbd291c17	-0.041286554
78	0x3df0b7b6	0.1175379
79	0x3d34f2bd	0.044176806
80	0xbce793df	-0.028268753
81	0x3ced1808	0.028942123
82	0x3e51f20a	0.20502487
83	0xbd06566d	-0.032797266
84	0xbc901458	-0.017587826
85	0x3c989118	0.018623874
86	0xbd3ea84d	-0.046547223
87	0xbe39e2cf	-0.18152927
88	0x3cb4d64b	0.02207484
89	0x39fc3e3b	0.0004811155
90	0xbdc753f4	-0.0973281
91	0xbe49908d	-0.19684048
92	0x3caa4e13	0.020789182
93	0x3cc6b974	0.024258353
94	0x3c916e22	0.01775271
95	0x3dc71fa9	0.097228356
96	0xbe042577	-0.12904917
97	0xbe1cd388	-0.15315068
98	0xbdef5498	-0.11686057
99	0xbdaeea07	-0.08540731
100	0xbd40068e	-0.04688125
101	0x3d1437be	0.036185972
102	0xbd6071af	-0.054795917
103	0x3ddf2fb9	0.10897774
104	0xbe29a359	-0.16566218
105	0xbc07a62c	-0.008279365
106	0x3dde6d21	0.108606584
107	0x3e2d6a70	0.16935134
108	0x3d65bedf	0.056090232
109	0xbd0477e4	-0.0323409
110	0x3e08ca50	0.13358426
111	0xbe05eaa7	-0.13077794
112	0xbe3bdf9e	-0.18347022
113	0xbdbdf839	-0.0927586
114	0x3e0c22e2	0.13685182
115	0x3dd83ce3	0.10558488
116	0xbdee7e9c	-0.116452426
117	0x3d106bf2	0.035259195
118	0x3e573aa2	0.2101846
119	0x3e0ef52f	0.13960718
120	0x3d2af4fa	0.041737534
121	0x3e08627a	0.13318816
122	0x3dc7ddd5	0.09759108
123	0x3dc9db14	0.09856239
124	0xbc7bd3b2	-0.015370296
125	0x3a19b000	0.0005862713
126	0xbe39b211	-0.18134333
127	0x3d769dc6	0.06020906
128	0xba188360	-0.0005817916
129	0x3e1ff81d	0.15621991
130	0x3cca8215	0.024720231
131	0xbda5ac74	-0.080895334
132	0x3e2afe1b	0.16698496
133	0xbcf411c7	-0.029793633
134	0x3e2f743a	0.1713418
135	0x3e180192	0.14844349
136	0xbdd9d2d9	-0.10635919
137	0x3e365ed6	0.17809615
138	0xbe24b884	-0.16086012
139	0x3ddd1df5	0.107967295
140	0xbde9aee0	-0.11410308
141	0xbdd771b8	-0.10519737
142	0x3d2d51f0	0.04231447
143	0xbc3c74f7	-0.011502496
144	0xbde6f617	-0.11277407
145	0xbd2aa1e4	-0.041658297
146	0x3e380922	0.17972234
147	0x3c503626	0.0127082225
148	0xbe0674bb	-0.13130467
149	0x3e345ce5	0.17613561
150	0xbcb6c909	-0.022312658
151	0x3bf7b5f3	0.007559532
152	0xbd95604c	-0.07293758
153	0xbd1514b7	-0.03639671
154	0xbdfacdfb	-0.12246319
155	0xbe0184bf	-0.12648295
156	0x3bbd8c0f	0.0057845186
157	0x3d49ed1a	0.049298383
158	0x3cbc9832	0.023021791
159	0xbe119f4a	-0.1422092
160	0x3d8aa52e	0.06769787
161	0x3e598bac	0.21244687
162	0xbd3510c7	-0.044205453
163	0x3e348b49	0.17631258
164	0xbd945e7d	-0.07244585
165	0xbdf248d3	-0.11830296
166	0xbdf3f36d	-0.11911664
167	0x3cd4f545	0.02599586
168	0x3e271c9c	0.16319507
169	0xbd1d278b	-0.03836779
170	0x3dcd7adc	0.10033199
171	0x3e3c6b55	0.18400319
172	0xbd09f264	-0.033678427
173	0x3d4d4bd6	0.05012115
174	0x3e36d9ad	0.17856474
175	0x3d075c18	0.03304681
176	0xbbfcfda5	-0.0077206665
177	0xbcfe3a7e	-0.03103375
178	0x3b15eab0	0.002287548
179	0x3e04567c	0.12923616
180	0x3e114356	0.14185843
181	0xbe24a1d5	-0.16077359
182	0xbe05a762	-0.13052133
183	0xbc6a4ab0	-0.014300033
184	0x3e163ab7	0.14670835
185	0x3e05af8a	0.13055244
186	0xbce3b992	-0.027798448
187	0xbdd7c1f4	-0.105350405
188	0x3e34a316	0.17640337
189	0xbce6efd1	-0.028190525
190	0x3db21ccc	0.08696899
191	0x3e39d317	0.1814693
192	0x3de78669	0.113049336
193	0x3e32ecaf	0.174731
194	0x3d513959	0.05108008
195	0x3e403551	0.18770339
196	0x3e42bca0	0.19017267
197	0xbd42b3bf	-0.0475347
198	0xbd29674a	-0.04135827
199	0xbca896d5	-0.020579735
200	0xbd294fab	-0.041335743
201	0xbb9ae0f7	-0.004726525
202	0xbbe08441	-0.0068517034
203	0x3cb3d8ac	0.021953903
204	0x3d38abf9	0.04508588
205	0x3d44085b	0.04785953
206	0xbde954c2	-0.113931194
207	0xbd106b15	-0.03525837
208	0x3d5e4e10	0.054273665
209	0xbd02b382	-0.031909473
210	0xbe401538	-0.18758094
211	0x3d17fc2a	0.037105717
212	0x3c94110f	0.01807454
213	0xbc7c2e5d	-0.015391913
214	0x3d54c969	0.051949892
215	0x3e47969e	0.1949105
216	0xbcf37f96	-0.029723924
217	0xbc6e3c56	-0.014540752
218	0x3decb9f1	0.11558903
219	0x3e3fdd79	0.18736829
220	0xbd1a1dba	-0.037626006
221	0xbcb81500	-0.022470951
222	0xbcf913a1	-0.030404868
223	0xbdf0460d	-0.11732111
224	0x3df76a29	0.12080795
225	0x3e13a5eb	0.14418761
226	0x3de012a6	0.10941057
227	0x3dc90595	0.09815518
228	0x3d317bab	0.04333083
229	0xbd0055f4	-0.03133197
230	0x3d8aa394	0.06769481
231	0xbe002a0c	-0.1251604
232	0x3e271b33	0.1631897
233	0xbb17b6e0	-0.0023149773
234	0xbdea2e3b	-0.11434599
235	0xbe3e144c	-0.1856243
236	0xbd80b117	-0.06283777
237	0x3d239933	0.039941024
238	0xbe07ded7	-0.132686
239	0x3e145257	0.14484535
240	0x3e3fa24f	0.1871426
241	0x3dd1bd84	0.10241225
242	0xbdf43952	-0.119249955
243	0xbdf5ccfb	-0.120019875
244	0x3dd2e281	0.102971084
245	0xbd0488c8	-0.032357007
246	0xbe3f9378	-0.18708599
247	0xbe2aeb71	-0.16691376
248	0xbd225be3	-0.03963841
249	0xbe10b8dc	-0.14133018
250	0xbe01207e	-0.12610051
251	0xbdb2038a	-0.08692081
252	0x3d38fa1a	0.04516039
253	0xba332850	-0.0006834315
254	0x3e41ea64	0.18937069
255	0xbd81c18a	-0.06335743

action_model._discrete_distribution.branches.0.bias f4 [2]
0	0xbd4a1106	-0.04933264
1	0x3d4a1151	0.04933292
