results/ManAgent/ManAgent/ManAgent-22817.pt (torch, 502286 bytes, 33 tensors)

network_body._body_endoder.seq_layers.0.weight f4 [128, 26]
000000 f3 37 94 3e 83 71 27 3e 5f 0f 77 3e 4f 7f 0c be
       0.28948936 0.16351895 0.24126957 -0.1372044
000010 dd 3b 8e be ed 6f 87 3d 86 1a bc bd 46 5b 44 3e
       -0.27780047 0.06613145 -0.091847464 0.19175443
000020 d0 8b 3d be 46 0a 9e 3e 7b 6c 2c 3e 92 c5 1b 3d
       -0.18510365 0.30867213 0.16838257 0.038030215
000030 df 28 81 3e c9 e9 23 3d 1f 8a f5 3c 55 05 82 3d
       0.25226495 0.040017877 0.029973088 0.06348673
000040 13 d3 fa 3d 3c dc d2 bd 68 20 12 be ac 4e ae 3d
       0.122472905 -0.102959126 -0.14270175 0.08511099
000050 e7 e0 4d be 79 e6 d3 3d 26 86 36 3e 8f d6 7a 3e
       -0.20105325 0.103466935 0.17824611 0.2449591
000060 b7 4f 01 3e 27 f2 cf bc 81 4b da 3d ed 7e 9c be
       0.12628065 -0.025384022 0.106589325 -0.30565587
000070 cd 26 1e be ba 60 b8 bb e7 f9 58 be 4d 01 b0 3c
       -0.15444489 -0.005626765 -0.2118908 0.021484995
000080 81 ac 5f be 6c 89 2e be 1c c2 32 3e db 15 0a 3f
       -0.21843149 -0.1704461 0.1745686 0.539396
000090 a2 9a b1 3d cc 58 af 3e 70 eb 34 bb 0e e2 d1 3e
       0.08672072 0.34247434 -0.0027606152 0.4099278
0000a0 ce 21 c4 be 92 ca db bc a5 31 4e bc 84 06 be 3d
       -0.3830704 -0.026829991 -0.012585078 0.092785865
0000b0 9b 8e 58 3e 9e d4 a5 3e b8 05 95 3e 7a a0 84 bb
       0.2114815 0.32388777 0.29105926 -0.0040474506
0000c0 c0 ce f9 3d 68 ee 4f be 08 c4 d7 3e a7 6f f3 bd
       0.121976376 -0.20305789 0.42141747 -0.1188653
0000d0 38 4d 5c bd 03 43 19 3e 8d f6 30 be 33 73 f5 bd
       -0.05378458 0.14966969 -0.17281552 -0.11984863
0000e0 93 1a 55 3d ef 94 89 3e c6 5b c2 3d d3 63 78 3e
       0.052027296 0.2687144 0.09490161 0.2425683
0000f0 67 34 0e bc 1f cc 0d 3e 0c 1c ca be 55 5e d9 bd
       -0.008679486 0.13847397 -0.39474523 -0.106136955
000100 f5 06 e2 bd a7 6c 25 3e 31 fd 74 3e 79 c3 89 be
       -0.11036483 0.16154729 0.2392471 -0.26906946
000110 75 f5 06 3d bb 4c b9 be 9f 7c 3e 3e 7a d2 81 bd
       0.03294893 -0.36191353 0.18602227 -0.06338973
000120 d3 d6 0f be cd dd 96 be b5 b1 f0 3e 68 0a b7 3d
       -0.14046793 -0.29466096 0.4701058 0.08937532
000130 f1 ea 2a 3d 01 2b 74 3e c3 13 eb 3d c1 2a 8d 3e
       0.041727964 0.2384453 0.114783786 0.2757168
000140 7f 2f 1c 3d b7 38 0b 3f 89 27 42 3e 79 a2 45 3e
       0.038131233 0.54383415 0.18960394 0.1930026
000150 fe d2 31 bd 4e c7 2d 3e c0 05 11 3e ef 8a 58 bd
       -0.04341411 0.1697056 0.1416235 -0.052866872
000160 72 10 81 3c a9 66 3b 3e 99 f5 11 bd ca 77 e6 3e
       0.015754912 0.1830088 -0.03563461 0.45013267
000170 f7 37 7a bd 54 5c a1 be b3 62 10 3d bf 69 c5 3e
       -0.06108853 -0.31515753 0.035250377 0.3855724
000180 9b f4 ff bd 23 99 46 be bb 02 49 3e 5c da de 3d
       -0.12497827 -0.19394355 0.19629948 0.108814925
000190 5a db 3c 3d 07 69 48 bd a8 a6 72 3e e7 d4 63 3e
       0.046107627 -0.048928287 0.23696387 0.22249185
0001a0 f8 7f a7 be a2 32 96 be 66 5b 90 be f1 18 88 bd
       -0.3271482 -0.29335505 -0.2819473 -0.06645382
0001b0 53 27 9b bd a0 f5 58 3e d7 9b 62 3e e9 4b 8d 3e
       -0.0757586 0.21187449 0.2212976 0.27596977
0001c0 08 83 5e 3e 68 c7 28 be 7d 44 20 bd c5 e0 90 3e
       0.21729672 -0.16482317 -0.039127816 0.28296486
0001d0 3d d4 20 bd 83 4e f4 bd 0c a0 02 3e 80 90 5f be
       -0.039264906 -0.119290374 0.12756366 -0.21832466
0001e0 8b 18 8d 3d c8 0e 73 3e c6 18 5f bc da 15 a4 3e
       0.06889447 0.23736107 -0.013616746 0.3204792
0001f0 74 3d 26 3e 42 f7 bd bc 84 56 05 be c4 c3 47 3e
       0.1623438 -0.02318919 -0.13021284 0.19508272
000200 a6 2e 8f 3e ed 5d 1a be 0f c4 c0 3c 12 a6 e8 3d
       0.27965277 -0.15074892 0.023530988 0.113598004
000210 ed d3 66 3e 0e ee d4 be 60 e6 91 3d c6 5a 70 bc
       0.22541781 -0.4158787 0.07124019 -0.01467008
000220 b6 eb c2 3b 7b cc 63 bd 8e 47 6f 3d 78 54 a2 bd
       0.005948509 -0.05561493 0.05841785 -0.079262674
000230 61 98 11 3d 98 17 b8 bd 99 b4 32 be d8 38 ed 3d
       0.03554571 -0.08988875 -0.17451705 0.11583108
000240 c7 45 90 3d 12 2b bb be ac 41 fb bd 1e 65 0b be
       0.07044559 -0.36556298 -0.12268385 -0.13612792
000250 91 55 70 be cf d5 00 3d a7 34 01 be 4b b9 a7 bd
       -0.23470141 0.031453904 -0.12617742 -0.08189639
000260 99 ab 32 3c 51 c0 7b be 69 06 18 bd 49 c6 1c be
       0.01090517 -0.24585082 -0.03711549 -0.15310015
000270 f4 23 8b bd bf 31 1a 3e 26 d3 9c 3e 76 07 e7 3d
       -0.06793967 0.15058039 0.30629843 0.1128072
000280 84 7b b6 3d da 42 d5 bd d3 bc 85 3d ed 28 6c 3c
       0.089102775 -0.104131415 0.06530156 0.014414054
000290 16 6d 4c 3e b8 1a e5 bd 8d 76 9d 3e 50 de 22 be
       0.19963488 -0.11186737 0.3075451 -0.15905118
0002a0 31 9e 84 be 98 07 7e 3e 19 21 1f bd be 25 2b 3c
       -0.2590194 0.24807584 -0.038849924 0.01044601
0002b0 e7 b1 32 3e 5e 93 d5 3d 83 a5 28 be 9e 51 8c be
       0.17450677 0.10428499 -0.16469388 -0.2740602
0002c0 07 d8 78 be da f5 60 3d cd 81 b6 3e da 07 68 3d
       -0.24301158 0.054921962 0.35645905 0.056648113
0002d0 f8 32 31 be d9 b7 0e 3d 03 f4 17 be 75 92 58 3e
       -0.173046 0.0348433 -0.14839177 0.21149619
0002e0 12 a3 1b be 50 7f 89 be 28 dd 00 3e 8a 17 bd bd
       -0.15198925 -0.26854944 0.12584364 -0.09233005
0002f0 67 71 ff 3d f1 52 3e 3e a5 d6 99 be 06 d2 50 be
       0.12472802 0.18586327 -0.30046573 -0.20392618
000300 85 0e 14 be 2b ad 3b be 47 4a c8 3d 6c d1 74 3e
       -0.14458664 -0.18327777 0.09779792 0.23908013
000310 6d 65 06 3e c4 d8 65 3e 44 36 0b bd bc 7c 51 bd
       0.13124628 0.22445971 -0.0339873 -0.051144347
000320 37 97 c7 bd aa 23 a8 bc 50 c0 93 3d e9 17 34 be
       -0.09745639 -0.020524818 0.07214415 -0.17587246
000330 8b 77 36 3e fa 57 20 bf 1c cf 62 3d 61 2c b9 3c
       0.1781904 -0.6263424 0.055373296 0.02260417
000340 2a 69 28 be 43 54 87 3e e9 c7 9e be 41 26 59 be
       -0.16446367 0.26431474 -0.31011894 -0.21205999
000350 85 a6 1c 3e 58 28 2a 3e b6 cb 9e be e3 5e e3 3c
       0.15297897 0.16616952 -0.31014794 0.027755206
000360 2b 00 33 3e 23 ec 36 3d 08 ac ac 3d 88 74 4c 3e
       0.17480533 0.04465879 0.0843125 0.19966328
000370 f2 fc 30 3c 2e 17 3e bd 99 8c f3 3e 6b d9 9f bc
       0.010802494 -0.046408825 0.47568205 -0.019512853
000380 14 03 d5 3d ed 72 01 bd 72 a2 45 be bc d8 d1 bd
       0.10400978 -0.031603742 -0.19300249 -0.10246417
000390 be 99 dd bd d5 76 6f 3e d5 bf 31 3d 4d 8c 0e bd
       -0.108203396 0.23385175 0.043395836 -0.03480177
0003a0 fc a6 76 3e 74 14 86 be 22 06 99 be 0e 50 02 be
       0.24087137 -0.2618748 -0.2988749 -0.12725851
0003b0 ba 95 ad 3e a9 d9 db bc e5 d9 4b 3d f7 0a a0 bd
       0.33903295 -0.026837187 0.049768347 -0.078145914
0003c0 06 24 8d be 89 87 2d be 75 45 3c 3e 74 68 60 be
       -0.27566546 -0.16946234 0.18385871 -0.21914846
0003d0 2e e4 bd bc b6 97 43 3d f4 02 9b be f3 21 84 3c
       -0.023180094 0.047752105 -0.3027569 0.01612947
0003e0 2f c7 1c 3f 72 b9 88 3e f9 17 8b 3e fb 40 61 bd
       0.6124143 0.26703984 0.27166727 -0.05499361
0003f0 86 53 d8 3d 10 29 69 bd e4 70 e1 3d 6a 21 57 be
       0.10562806 -0.056923926 0.1100786 -0.2100884

network_body._body_endoder.seq_layers.0.bias f4 [128]
000000 32 bc 7b 3c 0d 2d ae bb b2 65 88 bc 6c 5e f6 3b
       0.0153646935 -0.005315429 -0.016650055 0.00751858
000010 93 c6 ef bb a5 aa 40 3c 5f 48 7f 3c b5 4c 1b 3d
       -0.007317373 0.011759435 0.015581219 0.03791495
000020 a1 69 cd 3c 3f e7 c7 bb 97 16 3e 3b d1 06 87 3b
       0.025074782 -0.0061005647 0.0029005164 0.0041206856
000030 32 5a cd 3c b8 94 95 3b 15 72 72 3a 12 ad 63 bc
       0.025067423 0.004564848 0.0009248567 -0.013896244
000040 aa 3c d4 bc 9b 9a e0 3b 55 60 95 bb 60 f0 cb 3c
       -0.025907833 0.006854368 -0.004558603 0.024894893
000050 ff 86 df 3c 8e ea ed 3c a5 8c be bc 02 25 08 3d
       0.02728605 0.029042508 -0.023260424 0.03323842
000060 16 e5 05 bd 78 de b2 3c 7e e9 7c bb 8b 85 62 bb
       -0.032689176 0.021834597 -0.003859132 -0.003456446
000070 ee 1c d8 3c c8 c0 7f 3c b8 a0 3b 3d bb 12 1b bc
       0.026380982 0.0156099275 0.04580757 -0.009464915
000080 02 b8 8a 3c 87 cc 98 3d 8e 0f e4 bc ce 50 51 bc
       0.016933445 0.074608855 -0.027839448 -0.012775613
000090 51 a0 ad bc 81 89 20 bc 2c 50 8d 3c 61 2e 87 3a
       -0.021194609 -0.0097984085 0.017250143 0.0010313505
0000a0 4e 1d a0 ba d6 42 a1 bc c5 47 3c bd a8 0f 2d bd
       -0.0012215765 -0.01968519 -0.045966882 -0.04225126
0000b0 c4 b4 1e 3d 0f 12 96 b9 ec f6 97 bc ee 87 38 3b
       0.03874661 -0.00028623684 -0.018550359 0.0028157192
0000c0 fd 52 23 3d bd 0c 6c 3c 7f 4e 83 3d 97 ac 90 3c
       0.039874066 0.014407334 0.06411456 0.017660422
0000d0 ec de 0e bb 65 e0 92 3c 43 64 2c bd 91 c4 52 bb
       -0.0021800352 0.017929265 -0.042087805 -0.003216062
0000e0 f0 9c d3 bc ae 61 2a bb c8 bc ef bc e2 70 c4 ba
       -0.02583167 -0.0025998163 -0.029264823 -0.0014987255
0000f0 22 21 3a 3d 0e 08 c4 3c c1 8e 56 bb 8f e7 f1 bc
       0.045441754 0.023929622 -0.0032738897 -0.029529361
000100 24 ce 5c bc e9 1a 38 3b 14 57 46 ba f8 00 0a 3d
       -0.013476882 0.0028092212 -0.0007566076 0.03369233
000110 c8 15 80 bc a6 63 8e 3d 5b ff e6 bc c6 21 8e 3c
       -0.015635386 0.069526 -0.028197935 0.017350089
000120 db b1 e3 3b 76 3d 2e 3c 74 fa d8 bb ee 9c 90 bc
       0.0069486923 0.010634771 -0.006621653 -0.017652955
000130 d5 11 ba bc 5e 75 1c bc 38 7f f9 bb ec 1e 07 3d
       -0.022713581 -0.009549467 -0.0076140426 0.032988474
000140 f7 51 a2 bd 84 78 81 bb e5 85 23 bc 41 59 61 3c
       -0.0792579 -0.003951134 -0.009980653 0.01375419
000150 f1 ea 11 bc 3f 9a af bc 58 ab 07 bd 48 83 c9 3c
       -0.008906112 -0.021435855 -0.03312239 0.024598733
000160 2c 49 5d ba c9 2f 5c bc 4f a1 80 3b e0 32 1a 3d
       -0.00084413844 -0.013439127 0.0039254795 0.037646174
000170 0b 6c 02 3c 12 2f 0b bc 0d b8 46 3c e8 e0 5f 3c
       0.00796033 -0.008495109 0.012128842 0.013664462
000180 14 9d 04 bd 22 60 4b ba 15 f0 0d bd e6 2d 1e bd
       -0.032376364 -0.00077581604 -0.03465279 -0.03861799
000190 2d d5 9c 3c ee f9 8a 3a 6b 09 14 bb 9a 8d c8 3b
       0.019144619 0.0010603049 -0.0022588621 0.006120396
0001a0 c8 ea e0 ba d0 c7 65 3b 85 d3 74 bb ef 14 06 3d
       -0.0017159814 0.0035061724 -0.003735752 0.032734808
0001b0 46 85 49 bb e6 ed 8e 3c 89 25 27 3d 70 15 56 bc
       -0.0030749603 0.017447423 0.04080728 -0.013066635
0001c0 44 c1 72 3c f5 bb cd bc 85 2d 88 3c 48 a9 60 bc
       0.014816586 -0.025114039 0.016623268 -0.013712235
0001d0 7d c2 92 bc b9 7c 9f bc aa d5 de 3c fe fb 2b bd
       -0.017915005 -0.019468652 0.027201492 -0.041988365
0001e0 bf 76 ca b9 5d b1 0d 3d c0 84 c8 3c 83 f4 c3 3c
       -0.00038616915 0.034592975 0.024477363 0.023920303
0001f0 f1 62 09 3c 67 40 be bb 81 c1 94 bb bf b7 26 3d
       0.008385406 -0.005806017 -0.004539669 0.040702578

network_body._body_endoder.seq_layers.2.weight f4 [128, 128]
000000 c8 02 a8 bd e9 1a bc 3d 28 d7 cc bd 7e 96 05 3d
       -0.082036555 0.0918482 -0.10001975 0.032614224
000010 97 ac b5 3b 4b 86 cd 3d 68 a8 04 bd 80 5f 2e 3d
       0.005544256 0.1003538 -0.032387167 0.042571545
000020 30 25 0e bd 58 67 f5 3d 32 80 99 3c b3 8e eb 3c
       -0.034703434 0.11982602 0.018737886 0.028754568
000030 ec be 74 3e 43 b2 01 3d 56 69 92 3d 47 36 19 39
       0.23900956 0.031664144 0.071489975 0.00014611437
000040 5a f5 30 bd 4e d4 fc 3d 7e 1a cd bd 9e 3c 2d 3d
       -0.043202735 0.123451814 -0.100148186 0.042294137
000050 2a 6e d0 3c 6f 9a c9 3d 2c 1a 1c bd 75 89 ac bc
       0.025443155 0.09843909 -0.038110897 -0.021061638
000060 46 09 96 3d 1c a4 5c 3d 1a 7c 8d bd af 1a a3 bc
       0.073259875 0.053867444 -0.06908436 -0.019910185
000070 e5 f3 1b bd ab d3 c9 bd 04 60 1d 3d 6a 87 cd 3d
       -0.038074393 -0.098548256 0.038421646 0.10035594
000080 60 bd c8 bd f8 72 c4 3d 29 1c e7 bd a6 87 1c bd
       -0.098017454 0.09592241 -0.11284668 -0.038215302
000090 fc 37 cd 3c 93 d6 07 bd 6b ae 5c 3c b3 ca 81 bd
       0.02505111 -0.03316362 0.013469319 -0.0633749
0000a0 50 59 24 bc 17 c2 81 3d cf ac 12 bd e3 46 83 3d
       -0.010031059 0.06335848 -0.035809334 0.06410005
0000b0 5f 09 03 be 50 d1 a0 3d c9 1c 93 bd c2 a6 06 be
       -0.12796544 0.07852423 -0.07183225 -0.1314955
0000c0 d0 20 b6 bd be 8b 9d 3d 52 dc ff 3d 0c 78 64 bd
       -0.08892977 0.07692669 0.12493195 -0.055778548
0000d0 5e b3 84 3b 8c 75 73 bd 67 c0 1b bd a3 2c 26 3d
       0.0040497025 -0.059438273 -0.038025286 0.040569913
0000e0 93 a5 ae bd 03 94 00 3e e3 60 8b bd 94 6c 15 3e
       -0.085276745 0.12556462 -0.06805589 0.145922
0000f0 a0 a6 a7 bd ab 83 8c bd fc 57 98 bd 50 2e 6a bd
       -0.08186078 -0.06861051 -0.07438657 -0.057173073
000100 55 93 a5 3c 67 e0 37 3d a8 8a 66 bd e2 89 27 bd
       0.020211855 0.04489174 -0.056284577 -0.04090298
000110 8e a5 b7 bd 87 6b ba bc 9e ec 8b 3c 07 e9 19 3e
       -0.08967124 -0.022756351 0.017080601 0.15030299
000120 b7 40 4a bc ab 64 e8 3d 78 93 ad 3d 40 64 08 be
       -0.012344531 0.11347326 0.08475393 -0.13319492
000130 25 05 08 bd 7e f1 f1 3d f7 16 9f bd 99 97 1f bd
       -0.03320803 0.11813639 -0.07768052 -0.038962934
000140 ca bd 67 bd ca 73 a2 3c a5 e0 cc 3d 6b 36 66 3c
       -0.05657748 0.019830603 0.10003785 0.01405106
000150 4e 54 ff bd 88 82 b2 bd 67 cf 78 3c 19 72 15 3e
       -0.12467252 -0.08716303 0.015186167 0.14594306
000160 88 ad be bc da d3 3c 3e 73 7e 7c 3d c0 18 bf 3c
       -0.023276106 0.1844019 0.06164403 0.023327231
000170 04 89 c9 bd cd 18 25 be 63 db 81 3d 57 9c b1 3d
       -0.09840587 -0.16122742 0.06340673 0.086723976
000180 64 06 80 3d ca 0a eb bd 54 54 0d 3d 52 15 ec 3c
       0.06251219 -0.11476667 0.03450425 0.02881876
000190 58 b0 16 be 05 b2 45 3e 06 53 2a bc 57 38 b4 bd
       -0.14715707 0.1930619 -0.010395771 -0.087998085
0001a0 8e 52 b0 3d e9 aa 43 be 72 ef b5 3a 71 a8 8e bd
       0.08609496 -0.19108166 0.0013880564 -0.069657214
0001b0 cd 1c f3 3d 90 c1 d1 3d bc 90 12 3b 7e d5 fe 3d
       0.11870728 0.10241997 0.00223641 0.12443064
0001c0 16 6f 3f 3d db e4 10 be 08 45 13 3e 0e 3d 39 bd
       0.0467368 -0.14149801 0.14381802 -0.045224242
0001d0 a6 2d c3 3d 77 4c ec bc 20 ff eb bd e3 a2 e7 3d
       0.09530191 -0.028845055 -0.115232706 0.11310365
0001e0 2b 34 af 3d b0 bb 56 bd 72 3a f4 bd d6 d9 3d bd
       0.08554872 -0.052425086 -0.1192521 -0.046350323
0001f0 08 f3 5a 3e 75 fc 83 3d 7a b8 31 bc cd ee fa bd
       0.21381772 0.06444637 -0.010847205 -0.12252579
000200 ad 85 7c bd 3e 25 41 3b 1f 0f a2 bc 67 a9 8b 3d
       -0.06165092 0.002947166 -0.0197826 0.0681942
000210 eb bc bb 3a 47 8c ae 3d 02 7a 8c bc 0c 3c 31 3c
       0.001432327 0.085228495 -0.017148022 0.010817539
000220 c7 03 a7 bd cc 7b 89 bd 55 3c e3 3d 6c e9 10 be
       -0.08155017 -0.067130655 0.11095492 -0.14151543
000230 ff 88 5d be 75 bd 40 bd af 47 08 be 5b 66 d0 3d
       -0.21634291 -0.04705568 -0.13308595 0.10175773
000240 65 92 08 bd 63 55 aa 3d 35 8c 29 3d d6 b2 d3 3c
       -0.033342738 0.083170675 0.041393477 0.025842112
000250 f5 c6 25 bd 8a 16 85 be c8 1a 04 3e 3f 46 10 bd
       -0.040472943 -0.25993758 0.12900841 -0.035223242
000260 11 61 c9 bd ed 18 2b bd ae ce 71 3d 60 0e a5 3d
       -0.09832967 -0.041771818 0.059034996 0.080593824
000270 d2 a6 0b 3e 44 de 38 3c db 54 d0 bd 8b 24 9f bc
       0.13637856 0.011283461 -0.10172435 -0.019426605
000280 25 b4 7e bd fa cc 9f 3d f8 19 a7 bd 25 29 f2 bd
       -0.062183518 0.07802768 -0.0815925 -0.11824254
000290 7e c7 ec 3d a2 3e ae 3c ea 0b b5 bd c2 35 32 3d
       0.115614876 0.0212701 -0.08840163 0.0435083
0002a0 9d e4 5e bd 9a 9e 87 3d 95 88 88 3b f1 7b ee bd
       -0.05441724 0.06622048 0.0041666725 -0.11644734
0002b0 be 2d 1d 3d 6b af 84 bd dc 9e b1 3c 8a 5e 8f 3d
       0.0383737 -0.06478771 0.021682195 0.07000454
0002c0 94 ec c9 bd ed bc 06 3e 32 ca 49 3e 97 59 2e 3e
       -0.09859577 0.13158007 0.19706038 0.17026363
0002d0 ea 63 dc bd 35 7a 69 3d e2 65 86 3c 60 b6 d7 bd
       -0.107612446 0.05700131 0.016406003 -0.10532832
0002e0 e2 70 dd bc 91 88 07 3e 36 1e 8a 3d 39 25 e6 bd
       -0.027031366 0.1323569 0.067440435 -0.112375684
0002f0 d7 f1 6c 3d 3b f4 7d bd 96 e4 2f 3d cf 1b 84 3d
       0.057847824 -0.062000494 0.042942606 0.064506166
000300 a5 90 04 be bd 7d 27 be 4e b4 6d 3d 3a 89 9b 3d
       -0.12945803 -0.16356559 0.05803328 0.07594533
000310 f8 ff 70 bd ec 1b 45 be 15 5f 85 bb d0 e5 77 3c
       -0.05883786 -0.19248933 -0.0040701726 0.015130475
000320 e3 e5 0f bc d1 2a 36 be 02 12 b8 3d b9 73 27 3e
       -0.008782837 -0.1778977 0.0898781 0.16352738
000330 dd 6d 79 bd 77 de e7 3c e1 d1 5d 3d 3a 8e 2a 3c
       -0.06089579 0.028304322 0.054155234 0.010409886
000340 04 e9 95 3b 3a 65 38 bd 3b ae 01 3d 93 ea 00 bd
       0.004574897 -0.045018412 0.0316603 -0.031473707
000350 54 c3 c2 3d b5 2f cb bb 2b e4 04 be 1e 59 08 be
       0.09509912 -0.0062007555 -0.12977664 -0.13315246
000360 5e 65 5c bd 74 d3 44 bb 0b 0f 92 3c ac 4e 06 3c
       -0.05380761 -0.0030033262 0.017829439 0.008197468
000370 d2 b8 7d bb c8 60 c1 3d 51 80 02 be 37 a8 84 3d
       -0.0038714898 0.09442288 -0.12744261 0.06477397
000380 2b 91 5e 3d b0 81 e0 3d 64 d3 a1 bd c0 66 65 3d
       0.05433766 0.10962236 -0.07901648 0.056006193
000390 3e 30 9a 3c e4 90 51 bd 60 0a a0 bb ac 84 ca 3d
       0.018821832 -0.05116357 -0.0048840493 0.098885864
0003a0 35 dc 7f 3d 8e 7b ab bc 5f 2b 17 3d 66 eb bf bb
       0.062465865 -0.020932939 0.036906596 -0.005856919
0003b0 7e 0c fc bd 59 67 cd bd 01 03 49 3d 5a dd 26 3d
       -0.1230707 -0.100294776 0.04907513 0.04073844
0003c0 5f a3 cc 3c 27 63 7d bc cf 05 d8 3b 07 f5 62 3c
       0.024980245 -0.015465534 0.0065924893 0.013852364
0003d0 e2 85 bc 3c 6e e0 bd bd 95 d1 04 be 14 42 97 3d
       0.023013059 -0.09271322 -0.12970574 0.0738565
0003e0 0d fd 29 bc bb 64 a3 bd 83 ae e6 3d 3e 34 69 bd
       -0.010375273 -0.07978197 0.11263754 -0.056934588
0003f0 11 b9 86 3d fa da 71 bc c1 93 0d 3e 45 51 42 3d
       0.06578267 -0.014761681 0.13825895 0.047440786

network_body._body_endoder.seq_layers.2.bias f4 [128]
000000 46 40 e6 3b 48 33 b9 3b cb 98 7c bb 2c 02 80 3b
       0.007026705 0.005651865 -0.003854322 0.003906509
000010 6b 6e 76 3c 14 2d b8 3a f5 f4 56 3d 5e 06 6c bb
       0.015040974 0.001405152 0.052479703 -0.0036014537
000020 fa 92 da bb c2 0f 94 bc 98 28 05 3d 6c 7b 1b 3b
       -0.006670353 -0.01807392 0.032509416 0.0023724688
000030 e4 82 1e bc 62 ad 8a 3b b7 0c 9c 3c 79 65 28 3c
       -0.009674761 0.0042320946 0.019049032 0.010278099
000040 71 0d f4 bb 10 c7 84 bc 65 99 ee 3c 7d 0e d1 3c
       -0.0074478914 -0.016208202 0.029125879 0.025519604
000050 59 6b 88 3b 7d 01 4f bc 10 0e 4e bc 1e ab 89 bc
       0.0041631875 -0.012634632 -0.012576595 -0.016805228
000060 ae 4e 21 bc 2d 4f bb 3a f9 74 66 bc bf a1 6e bc
       -0.009845419 0.0014290564 -0.014065974 -0.01456493
000070 20 ec 21 bc 47 17 8b 3c ad 14 06 3d ae 20 47 39
       -0.009882957 0.016978873 0.03273456 0.00018990293
000080 6e fc 01 3b e3 30 f6 3a 04 db 24 bc 5e cc 96 bb
       0.0019834298 0.001878288 -0.010061983 -0.004601999
000090 b8 b0 ba 3c 08 4c 23 3d a5 cf 9a 3c 74 1d 76 bc
       0.022789344 0.03986743 0.01889784 -0.015021671
0000a0 ce d7 a4 3c 9c bb 59 3c 08 3f 16 3b b1 b1 69 3c
       0.020122435 0.0132893585 0.0022925753 0.014263556
0000b0 32 7c fa 3b d7 f4 12 3c 05 d5 bc 3c 30 1a 1b 3c
       0.0076441998 0.008969507 0.023050794 0.009466693
0000c0 b8 c4 9d 3b f3 15 1a 3c 5e 3b d2 bb 89 93 69 bc
       0.0048147105 0.009404647 -0.0064157685 -0.0142563665
0000d0 96 4e 3c bb ab 67 ad 3c fb 5d 80 3a 02 c6 ac b9
       -0.0028733364 0.021167597 0.0009793633 -0.00032953924
0000e0 bb 51 ac bc 97 37 00 bc fb 7c 25 bc a4 16 86 3c
       -0.021035066 -0.007825754 -0.010100598 0.016368218
0000f0 c7 4e 08 3a 98 f3 98 bb a5 a5 83 3c 8d a7 14 3c
       0.0005199727 -0.0046677105 0.016070196 0.00907315
000100 6c f1 6e bc 00 70 c5 ba 9c af 8a bc 76 08 69 bc
       -0.014583927 -0.0015063286 -0.01692944 -0.014223209
000110 ba 49 03 3d 27 f8 cc 3c 04 c5 31 bd a4 16 7c bc
       0.032052733 0.025020672 -0.04340078 -0.015386257
000120 21 de 01 bc d7 a1 03 bb 92 d0 a5 bc 0c d8 0c 3d
       -0.007926495 -0.0020085478 -0.020241056 0.034385726
000130 29 88 43 3c 16 6a 14 bc f7 8f 2a 3d e0 b9 b7 bb
       0.011934319 -0.009058496 0.0416412 -0.005606875
000140 8c 1e da 3c e6 e8 1f 3d 44 99 6b bc e0 e4 e5 3b
       0.026625894 0.03904047 -0.014379803 0.0070158094
000150 8f 0a d0 3c ab 2a 92 3c 4d 0a c5 3a 8b b5 f5 bb
       0.02539566 0.017842611 0.0015032977 -0.0074984482
000160 15 b4 8c bc d9 97 39 bc f5 c0 d9 3b c1 73 ba 3c
       -0.017175714 -0.011327707 0.0066453167 0.022760274
000170 17 6e cb 3b d8 ae 23 bc 5d 28 6a bc 35 48 31 3c
       0.006208192 -0.0099904165 -0.01429185 0.010820438
000180 ee 97 39 3c 34 7a ac bc 35 c9 48 3c f7 da 86 3c
       0.011327727 -0.021054365 0.012255003 0.016461832
000190 e9 52 f0 3b 46 1c b7 bc 74 c5 38 3b e9 ef 6b 3c
       0.0073341024 -0.022352349 0.0028193863 0.014400461
0001a0 64 96 63 bb 9d 87 88 bc 18 10 47 bc a7 f0 cd ba
       -0.003472709 -0.016666228 -0.012149833 -0.0015711979
0001b0 e3 1c 1c 3c a8 90 4c 3b ce 50 8d 3c e8 2b 9c bb
       0.0095283715 0.0031214152 0.017250445 -0.004765976
0001c0 ec 6c 0b 3d 85 a7 86 3c 68 74 c5 3b ea f8 dd 3a
       0.034039423 0.016437301 0.0060258396 0.0016935144
0001d0 0e 3c 32 bb 7f a8 ca ba 3d d8 80 3a 72 fd 6c bc
       -0.002719644 -0.0015461593 0.0009830069 -0.014464723
0001e0 c9 f9 0f 3d 76 a9 c9 3b 00 66 b8 3c d3 91 51 3d
       0.035150323 0.0061542345 0.022509575 0.05116446
0001f0 46 ad de 3c 5f 93 da bb 7c 79 52 bc a1 95 25 bb
       0.027182233 -0.0066704 -0.012846347 -0.0025266188

action_model._discrete_distribution.branches.0.weight f4 [2, 128]
000000 34 dc 0e 3d 19 bf 04 bd 37 98 aa 3c 4e e0 94 bb
       0.03487797 -0.032408807 0.020824535 -0.0045433408
000010 e5 f2 76 bb 0a 7c cf 3c 84 8d 3b bd 18 3c ce bb
       -0.0037681398 0.025327701 -0.045789257 -0.006293785
000020 18 14 e8 3c 93 e7 55 3c db 47 5c bd 78 37 f0 3b
       0.028329894 0.0130557 -0.053779464 0.007330831
000030 52 b2 4a 3c 5f 3c 3a 3c 59 f1 99 bc 83 22 84 3b
       0.012371616 0.011366933 -0.018791841 0.0040324344
000040 78 91 f2 3c 8e 67 7f 3c a6 99 08 bd e8 c0 44 3d
       0.02961038 0.015588654 -0.033349656 0.048035532
000050 c1 48 88 3a 1d d0 a8 bb d1 50 7f 3c 32 04 89 3b
       0.0010397659 -0.005151762 0.015583233 0.0041814083
000060 88 6f 7e 3c 1d 9a be 3b 4e ef 61 bb c4 e4 5c 3c
       0.015529521 0.0058167116 -0.0034474912 0.013482276
000070 be 72 43 3c cb ad 0d bd 60 cc 36 bd 08 67 a1 ba
       0.011929212 -0.03458957 -0.0446285 -0.0012314031
000080 8a a6 8e 3b 4c 55 27 3c 89 33 f6 3c 81 9b 69 3c
       0.004353349 0.010213207 0.03005387 0.014258266
000090 84 4b a7 bc 5a 0c 3d bd af 31 61 3d 80 e8 3f 3c
       -0.02042175 -0.046154357 0.054979023 0.011713147
0000a0 07 1c 3e bd 24 66 e4 3c 7d 44 b6 3b 40 84 1b 3d
       -0.046413448 0.027880736 0.0055623637 0.03796792
0000b0 d3 dd 15 3d 22 ec 89 3b e3 3e 40 bd 1a 9a 8d 3c
       0.0365885 0.0042090574 -0.046934973 0.017285395
0000c0 b9 1a d7 bc 22 12 2c bd e9 37 96 3c 58 e8 0a 3b
       -0.02625786 -0.04200948 0.018337207 0.0021195617
0000d0 d9 e3 de 3c 41 03 01 3d 40 e8 ef bc ae b4 a6 3c
       0.027208256 0.031497244 -0.02928555 0.020349827
0000e0 98 19 78 bc 9d 77 09 3c 95 36 3c bb 85 05 a6 3c
       -0.015142821 0.008390334 -0.0028719057 0.020266304
0000f0 7a 15 89 bb 47 53 29 bc 88 78 c9 bc 74 00 09 38
       -0.0041834684 -0.010334796 -0.024593607 3.2663767e-05
000100 80 d9 02 3d 7a cd 30 3c 3d d2 a7 bb 82 8d f2 3b
       0.031945705 0.010791177 -0.005121498 0.007402123
000110 0e 0f 6a bd 89 c5 00 bd 39 1e 13 bc 7f 28 dc 3b
       -0.057143264 -0.031438384 -0.008979374 0.0067186947
000120 43 79 10 3c b2 e7 6a 3c cc 76 ef 38 be ef 33 bd
       0.008817974 0.014337467 0.00011418536 -0.043929808
000130 26 8e 01 3d 58 1a 15 b9 c7 76 8e bd e9 ce 39 3c
       0.031629704 -0.00014219561 -0.06956249 0.011340835
000140 85 ef cd bc 90 bf 57 bd 1d 5a 0d 3c 1b 71 bd 3c
       -0.025138626 -0.052672923 0.008627442 0.023125222
000150 52 e6 28 3d 96 b5 18 3d 2b 77 b9 3c 84 51 e3 3c
       0.041235276 0.03728255 0.022639832 0.02774883
000160 dc 8b 03 3d 52 75 ef 3b cb f6 64 bc 40 34 12 3d
       0.032115802 0.007307687 -0.013974856 0.03569436
000170 4b fd 36 3c 5f f3 87 bb 92 9b e6 3a eb 05 18 3d
       0.011168788 -0.004148885 0.0017593971 0.03711502
000180 b4 fd d0 bc f6 a2 85 bb 4f a1 f9 bc 00 84 ec 3c
       -0.0255116 -0.0040782643 -0.030472426 0.028871536
000190 3a 9a 25 3c 86 e3 7e 3c ec 92 29 3d 19 96 8e 3c
       0.010107571 0.0155571755 0.04139988 0.017405557
0001a0 f9 d0 e2 3b 98 cc 77 3b a9 5b db 3a e3 15 f5 3c
       0.006921884 0.0037811156 0.0016735691 0.029917663
0001b0 2c 31 fc bb 1e 55 9c 3c e8 b0 0a bd e6 3e 92 ba
       -0.0076962914 0.019083556 -0.033860117 -0.0011157661
0001c0 34 73 13 bd c2 1c d5 bb 60 7b 30 3d 2d 23 c9 3b
       -0.035998538 -0.0065036723 0.04308641 0.0061382265
0001d0 7a 2a c5 3c cc 8c 2c 3a 02 3d 9c 3c e9 64 33 3c
       0.024068106 0.00065822597 0.01907206 0.010949352
0001e0 ab 10 16 bd 2f cb 9f bc 59 ea d6 bc fd 51 6b bd
       -0.03663699 -0.019506065 -0.026234793 -0.057451237
0001f0 2e 3d da bc 10 b5 54 bb b0 71 8d 3c e2 bc 83 ba
       -0.0266405 -0.0032456554 0.017266124 -0.0010050798
000200 a8 3d b3 bc 6c d2 b2 3c a0 e7 92 3b 39 9c 46 bb
       -0.021879986 0.021828853 0.0044831783 -0.0030305518
000210 1a 17 03 3b bb 57 05 bd 22 b4 47 3c b1 e7 06 bb
       0.0020002783 -0.03255437 0.012188943 -0.0020584876
000220 ae 1c 0e bb 31 fd 3f bc 1a 01 5f 3d d3 ce 5d bb
       -0.0021684575 -0.01171808 0.05444441 -0.00338452
000230 96 66 87 ba a9 a2 93 bc 91 34 bd 3c 42 54 1f bb
       -0.0010330256 -0.018021898 0.023096355 -0.0024311696
000240 96 1d d9 bb 41 3b c1 ba e6 88 2a 3d 23 d4 26 bd
       -0.0066258414 -0.001474239 0.041634463 -0.040729653
000250 f3 78 5a bb c8 d5 9d bb 6a f3 16 bc 66 dc be bb
       -0.0033336252 -0.0048167445 -0.009213308 -0.0058246134
000260 6a 04 91 3a 89 7e 26 bd 89 b1 64 3b 28 46 86 3b
       0.0011063938 -0.040648017 0.0034895858 0.0040977187
000270 7c 6a 0a bc 8a a6 3d 3d 95 7b 3d 3d ab 22 85 bc
       -0.008448239 0.046301402 0.046260435 -0.016251883
000280 5b 4c 12 bc 46 d0 76 bc e6 14 45 bb 50 c5 ca bc
       -0.008929337 -0.015064305 -0.003007227 -0.024752289
000290 81 40 05 3d 54 37 4f 3d b0 16 30 bd 8b 8f 73 bc
       0.03253222 0.050589874 -0.042990386 -0.014865766
0002a0 12 68 57 3d 6c fb 27 bd 8e 36 e5 3b b9 a9 f2 bc
       0.052589484 -0.04101126 0.006995029 -0.029621946
0002b0 63 7c db bc 4f 5a ba bc 7c d0 de 3c 50 8e d2 bc
       -0.02679271 -0.02274814 0.027199022 -0.025702626
0002c0 53 93 8d 3b eb 52 f0 3b 78 b2 1e bc 2a 5b c8 3b
       0.004320541 0.0073341033 -0.009686105 0.006114383
0002d0 11 2b d8 bc ff 33 f1 bc 12 11 a4 3c 19 6e 8d bc
       -0.026387723 -0.029443739 0.020027671 -0.017264413
0002e0 e1 e4 04 ba 26 84 b6 bc 92 18 a7 b9 4a 78 d8 bc
       -0.0005069506 -0.02227981 -0.00031871028 -0.026424546
0002f0 0c 55 8c bb e5 79 60 bb 03 fd 02 3d aa b0 17 bb
       -0.0042825993 -0.0034252342 0.031979572 -0.0023146071
000300 7a 6e 05 3c 09 81 80 bc 50 60 33 bc a5 dc ba bc
       0.008144015 -0.015686529 -0.010948256 -0.02281029
000310 20 56 56 3d 3d 0c a0 3c 94 a8 15 bc 05 44 a4 bc
       0.05232823 0.019537086 -0.00913443 -0.020051965
000320 e4 9e 2f 3c 9a 9e bf bc 06 68 42 bc 9c d8 3b 3d
       0.010719035 -0.023391057 -0.011865621 0.04586087
000330 86 1f 3c bd a2 2b 41 bc 3a 37 33 3d 64 38 cc bc
       -0.0459285 -0.011790188 0.04375384 -0.024929233
000340 67 c3 37 3d 00 ca 1e 3d e4 ef c5 bc 8b 86 06 bd
       0.044864085 0.03876686 -0.02416224 -0.032843154
000350 e6 30 3a bd b1 8b 9d bc db 8c 2b bd 51 c2 ad bc
       -0.04545679 -0.01923165 -0.041882377 -0.021210821
000360 bc 68 6e bc a6 43 87 bc 19 d9 6e bc ae f1 eb bc
       -0.014551338 -0.01651175 -0.014578127 -0.028801765
000370 b6 f1 ac bc b7 ad a5 3b f6 2c f1 bb 27 e7 11 bd
       -0.02111135 0.005056109 -0.007360096 -0.035620835
000380 d3 d8 24 3d 04 5f 53 bb 29 3e 19 3d 4c 30 1c bd
       0.040245842 -0.0032252679 0.037412796 -0.038131997
000390 34 76 00 bd ff 15 50 3b ad 9e 9a bc 70 85 0f bc
       -0.031362727 0.0031751392 -0.01887449 -0.008759841
0003a0 49 13 96 bc c1 89 34 3a 88 7f 67 3b 8f d0 6b bc
       -0.018319743 0.0006886982 0.0035323817 -0.014392986
0003b0 c7 ae c3 3c 59 8e 83 bc 40 da 68 3c 5f 5c 9d 3c
       0.023887051 -0.016059088 0.014212191 0.019209085
0003c0 66 cb 1c 3d aa ea 7d 3a 7c fb 09 bd de ae a0 bc
       0.038279913 0.0009686152 -0.0336871 -0.019614633
0003d0 31 34 d8 bc 43 43 03 3c e9 dd f1 3b 2b 4f 0e bc
       -0.026392074 0.008011642 0.00738119 -0.008685867
0003e0 5c 61 dd 3c a4 01 8f 3c bd 63 3e 3d 1b a0 59 3d
       0.027023964 0.017456837 0.046481837 0.053131204
0003f0 0e a2 d6 3c 14 4b 08 3c c9 d2 0a 3c 5c e8 57 bb
       0.02620032 0.008318681 0.008473107 -0.0032944893

action_model._discrete_distribution.branches.0.bias f4 [2]
000000 84 3e 2b bc 9e 3e 2b 3c
       -0.010451917 0.010451941

exp_avg f4 [128, 26]
000000 73 31 fb 39 a6 2c 9a b9 c5 3e fa b8 65 c9 bf b6
       0.00047911293 -0.00029406435 -0.00011932621 -5.715689e-06
000010 e6 07 48 39 7b 20 44 39 9b 16 43 a2 98 09 42 39
       0.00019076429 0.00018704117 -2.6439395e-18 0.00018504856
000020 98 09 42 39 77 97 9b b8 ab ea 87 39 04 6c 77 39
       0.00018504856 -7.4191885e-05 0.00025924048 0.00023595995
000030 00 00 00 00 98 09 42 39 98 09 42 39 6e a4 92 b4
       0.0 0.00018504856 0.00018504856 -2.7314258e-07
000040 eb 52 42 39 ce 44 42 39 00 00 00 00 98 09 42 39
       0.00018532171 0.00018526913 0.0 0.00018504856
000050 98 09 42 39 33 87 91 ba fd c8 3f 38 00 00 00 00
       0.00018504856 -0.0011102915 4.5725134e-05 0.0
000060 00 00 00 00 5f 86 c1 38 9f d3 db 39 10 55 6d b9
       0.0 9.227986e-05 0.00041928605 -0.0002263377
000070 d7 89 a8 b8 a1 71 9c b6 bd 35 4f 39 ff f7 4b 39
       -8.036539e-05 -4.6623904e-06 0.00019761077 0.00019451974
000080 29 6a 8b a1 2f 52 4a 39 2f 52 4a 39 06 a8 66 b8
       -9.447107e-19 0.00019294837 0.00019294837 -5.4992757e-05
000090 18 fe 81 39 4e da 71 39 00 00 00 00 2f 52 4a 39
       0.00024794112 0.00023064876 0.0 0.00019294837
0000a0 2f 52 4a 39 fe 07 5f 34 6d 1a 4a 39 28 25 4a 39
       0.00019294837 2.0771401e-07 0.00019274066 0.00019278063
0000b0 00 00 00 00 2f 52 4a 39 2f 52 4a 39 a3 bd 97 ba
       0.0 0.00019294837 0.00019294837 -0.0011576902
0000c0 87 75 d0 38 00 00 00 00 00 00 00 00 35 e3 87 38
       9.940104e-05 0.0 0.0 6.479622e-05
0000d0 37 c8 71 3b 87 80 11 bb e7 d1 6d ba 86 6e b7 b7
       0.003689302 -0.0022201852 -0.00090721104 -2.1866766e-05
0000e0 1c 6d c3 3a 44 94 c1 3a 5e e7 13 a2 67 8f c0 3a
       0.0014909836 0.0014768918 -2.00447e-18 0.0014691175
0000f0 67 8f c0 3a 8c e6 a5 b9 05 09 ea 3a 20 11 dd 3a
       0.0014691175 -0.00031643023 0.0017855471 0.0016866066
000100 00 00 00 00 67 8f c0 3a 67 8f c0 3a 27 dd 0a b6
       0.0 0.0014691175 0.0014691175 -2.069233e-06
000110 d2 d4 c0 3a 73 c7 c0 3a 00 00 00 00 67 8f c0 3a
       0.0014711863 0.0014707878 0.0 0.0014691175
000120 67 8f c0 3a 8a 6b 10 bc dd 32 4d 3a 00 00 00 00
       0.0014691175 -0.008814702 0.00078277086 0.0
000130 00 00 00 00 1e f6 f5 39 c5 83 02 3b 07 4d 99 ba
       0.0 0.00046913413 0.0019914967 -0.001169593
000140 e6 e4 f3 b9 b3 96 4d b7 60 ab 5a 3a 14 96 58 3a
       -0.00046519114 -1.225404e-05 0.0008341577 0.00082621095
000150 26 8d 8d 20 02 75 57 3a 02 75 57 3a 3c cf 1f b9
       2.3979733e-19 0.00082190346 0.00082190346 -0.00015240622
000160 d0 68 7f 3a f7 e5 72 3a 00 00 00 00 02 75 57 3a
       0.00097430963 0.0009265835 0.0 0.00082190346
000170 02 75 57 3a 1a 33 d7 b4 eb 8f 57 3a bc 8a 57 3a
       0.00082190346 -4.0084052e-07 0.00082230446 0.0008222272
000180 00 00 00 00 02 75 57 3a 02 75 57 3a c3 97 a1 bb
       0.0 0.00082190346 0.00082190346 -0.0049314215
000190 97 95 02 3a 00 00 00 00 00 00 00 00 63 f9 6c 39
       0.0004981397 0.0 0.0 0.00022599618
0001a0 7b 42 8f ba 4f 21 34 3a 5d 04 9d 39 23 ac 03 37
       -0.0010929847 0.00068714184 0.00029948624 7.848287e-06
0001b0 a9 e4 d8 b9 66 40 d6 b9 48 06 ba 22 4c c7 d4 b9
       -0.00041369096 -0.0004086524 5.042205e-18 -0.0004058428
0001c0 4c c7 d4 b9 0a 6d e4 38 47 f1 06 ba f3 0e fc b9
       -0.0004058428 0.00010892197 -0.00051476475 -0.00048076324
0001d0 00 00 00 00 4c c7 d4 b9 4c c7 d4 b9 ab 40 3a 35
       0.0 -0.0004058428 -0.0004058428 6.9384504e-07
0001e0 6a 24 d5 b9 7b 12 d5 b9 00 00 00 00 4c c7 d4 b9
       -0.00040653656 -0.00040640295 0.0 -0.0004058428
0001f0 4c c7 d4 b9 77 95 1f 3b 7b 7b 27 b9 00 00 00 00
       -0.0004058428 0.0024350563 -0.00015972361 0.0
000200 00 00 00 00 f6 78 33 b9 83 76 8c ba c3 b7 44 3a
       0.0 -0.00017115832 -0.0010716472 0.0007504189
000210 e7 dd ba 39 92 b6 94 36 67 bd aa b9 a1 5d a9 b9
       0.00035642015 4.4319977e-06 -0.00032566043 -0.0003230395
000220 15 11 c3 23 89 6a a8 b9 89 6a a8 b9 64 e9 c2 38
       2.1149177e-17 -0.00032122832 -0.00032122832 9.294113e-05
000230 e3 24 d9 b9 40 fb c9 b9 00 00 00 00 89 6a a8 b9
       -0.00041416948 -0.00038524903 0.0 -0.00032122832
000240 89 6a a8 b9 f7 22 cf 35 aa 39 a9 b9 d0 11 a9 b9
       -0.00032122832 1.5432878e-06 -0.00032277155 -0.00032247463
000250 00 00 00 00 89 6a a8 b9 89 6a a8 b9 c5 9f fc 3a
       0.0 -0.00032122832 -0.00032122832 0.0019273689
000260 b5 c4 a1 b8 00 00 00 00 00 00 00 00 27 6c 2e b9
       -7.713718e-05 0.0 0.0 -0.00016634223
000270 52 0e b9 3a 51 a3 90 ba 7a 2e 1a ba cd 62 49 b7
       0.0014118648 -0.0011035 -0.00058815593 -1.2003537e-05
000280 15 f7 a7 39 61 f1 a3 39 8b 51 fe a2 fe ab a1 39
       0.00032036813 0.00031269624 -6.8933175e-18 0.00030836457
000290 fe ab a1 39 ee 88 1b b9 7b 70 ef 39 71 1d d7 39
       0.00030836457 -0.00014832962 0.00045669437 0.0004102993
0002a0 00 00 00 00 fe ab a1 39 fe ab a1 39 38 b8 a7 b5
       0.0 0.00030836457 0.00030836457 -1.2496084e-06
0002b0 b7 53 a2 39 6d 33 a2 39 00 00 00 00 fe ab a1 39
       0.0003096142 0.00030937363 0.0 0.00030836457
0002c0 fe ab a1 39 ff 81 f2 ba 0e 48 a7 b5 00 00 00 00
       0.00030836457 -0.0018501877 -1.246344e-06 0.0
0002d0 00 00 00 00 35 3d 5c 39 27 4e 29 3a e9 e7 f5 b9
       0.0 0.00021003636 0.0006458484 -0.00046902828
0002e0 5d 21 80 b9 a4 e6 d1 b6 fb f7 3f 39 2d a0 3b 39
       -0.0002443892 -6.2555355e-06 0.0001830756 0.0001789338
0002f0 fe 6f 69 22 c9 68 39 39 c9 68 39 39 0c d7 bc b8
       3.1636676e-18 0.0001768201 0.0001768201 -9.004594e-05
000300 25 ea 8b 39 33 2b 7a 39 00 00 00 00 c9 68 39 39
       0.00026686597 0.00023857951 0.0 0.0001768201
000310 c9 68 39 39 19 79 12 34 25 44 39 39 37 4b 39 39
       0.0001768201 1.3641365e-07 0.0001766836 0.00017670995
000320 00 00 00 00 c9 68 39 39 c9 68 39 39 94 0e 8b ba
       0.0 0.0001768201 0.0001768201 -0.0010609203
000330 fe b7 80 36 00 00 00 00 00 00 00 00 29 1d eb 38
       3.836117e-06 0.0 0.0 0.00011211105
000340 43 3c 05 ba f4 ba ec 39 4d 91 92 39 3d ab b6 36
       -0.0005082527 0.0004515272 0.00027955548 5.4439574e-06
000350 fb 60 82 b8 c5 2e 76 b8 28 66 a6 22 8f ec 6d b8
       -6.216947e-05 -5.8694528e-05 4.5102552e-18 -5.6725516e-05
000360 8f ec 6d b8 78 d8 d7 38 5d 67 27 b9 d3 c1 05 b9
       -5.6725516e-05 0.00010292319 -0.00015964867 -0.00012756074
000370 00 00 00 00 8f ec 6d b8 8f ec 6d b8 a8 ce 3d 35
       0.0 -5.6725516e-05 -5.6725516e-05 7.070871e-07
000380 bd e3 70 b8 9d 51 70 b8 00 00 00 00 8f ec 6d b8
       -5.7432557e-05 -5.7296467e-05 0.0 -5.6725516e-05
000390 8f ec 6d b8 7a 71 b2 39 c1 8b 3a 39 00 00 00 00
       -5.6725516e-05 0.00034035352 0.00017790405 0.0
0003a0 00 00 00 00 58 32 2c b9 ed 72 22 bb 57 67 c0 3a
       0.0 -0.00016421953 -0.002478774 0.0014679235
0003b0 4b 19 17 3a 2c 4d 46 37 1d 0b 86 ba 4e 11 85 ba
       0.0005763962 1.1819688e-05 -0.0010226701 -0.0010152252
0003c0 04 21 a1 23 82 7e 84 ba 82 7e 84 ba 5c 89 3f 39
       1.7469638e-17 -0.0010108503 -0.0010108503 0.0001826635
0003d0 ae 6f 9c ba 58 f6 94 ba 00 00 00 00 82 7e 84 ba
       -0.0011935139 -0.001136492 0.0 -0.0010108503
0003e0 82 7e 84 ba e3 1d d9 35 c9 b4 84 ba 55 aa 84 ba
       -0.0010108503 1.6176458e-06 -0.0010124679 -0.0010121564
0003f0 00 00 00 00 82 7e 84 ba 82 7e 84 ba bf bd c6 3b
       0.0 -0.0010108503 -0.0010108503 0.0060651

exp_avg_sq f4 [128, 26]
000000 6f 57 92 36 23 c5 32 37 ff 0a 4f 37 42 2c 8a 35
       4.3613177e-06 1.0655526e-05 1.2340722e-05 1.0294682e-06
000010 b3 b4 6d 37 97 9b 73 37 11 c5 1e 29 34 60 7e 37
       1.4168373e-05 1.4520155e-05 3.5253975e-14 1.5161979e-05
000020 34 60 7e 37 c2 b8 06 35 d6 3e 6d 37 d4 15 71 37
       1.5161979e-05 5.018775e-07 1.4140931e-05 1.4369802e-05
000030 00 00 00 00 34 60 7e 37 34 60 7e 37 cd d7 d1 30
       0.0 1.5161979e-05 1.5161979e-05 1.5268086e-09
000040 20 69 7e 37 69 66 7e 37 00 00 00 00 34 60 7e 37
       1.5164056e-05 1.5163424e-05 0.0 1.5161979e-05
000050 34 60 7e 37 12 16 0f 3a b1 1c f6 38 00 00 00 00
       1.5161979e-05 0.0005458306 0.00011735538 0.0
000060 00 00 00 00 e9 f4 fa 37 6d 98 2f 36 e1 78 6d 36
       0.0 2.9916368e-05 2.6165756e-06 3.5386113e-06
000070 11 a3 97 36 87 32 52 34 fc 68 ce 36 0c f4 d0 36
       4.519134e-06 1.9576156e-07 6.1515e-06 6.227294e-06
000080 c2 8d cd 29 be 53 d5 36 be 53 d5 36 7c 83 1b 34
       9.12842e-14 6.3576435e-06 6.3576435e-06 1.4483334e-07
000090 fe 9f ca 36 d3 3a cd 36 00 00 00 00 c0 53 d5 36
       6.0386947e-06 6.116324e-06 0.0 6.3576445e-06
0000a0 c0 53 d5 36 f7 a5 12 31 87 47 d5 36 ff 46 d5 36
       6.3576445e-06 2.1340136e-09 6.3562215e-06 6.3561597e-06
0000b0 00 00 00 00 c0 53 d5 36 c0 53 d5 36 36 fe 6f 39
       0.0 6.3576445e-06 6.3576445e-06 0.00022887517
0000c0 4e ca 04 38 00 00 00 00 00 00 00 00 b2 82 13 37
       3.1659663e-05 0.0 0.0 8.792313e-06
0000d0 58 cf b1 38 f2 e3 14 39 9d 7f 34 39 54 eb 1b 37
       8.4786385e-05 0.00014199296 0.00017213677 9.2935115e-06
0000e0 9a 81 68 39 9d 0e 6c 39 38 f9 ba 25 c7 4a 72 39
       0.00022173524 0.00022512158 3.2434734e-16 0.00023106775
0000f0 c7 4a 72 39 4b 55 8b 36 1f ff 67 39 6d 85 6a 39
       0.00023106775 4.152452e-06 0.00022124917 0.00022365684
000100 00 00 00 00 c7 4a 72 39 c7 4a 72 39 c0 8f b9 31
       0.0 0.00023106775 0.00023106775 5.400551e-09
000110 c7 55 72 39 6b 53 72 39 00 00 00 00 c7 4a 72 39
       0.00023110873 0.00023109994 0.0 0.00023106775
000120 c7 4a 72 39 04 4a 08 3c 32 14 a5 3a 00 00 00 00
       0.00023106775 0.008318428 0.001259452 0.0
000130 00 00 00 00 10 32 8f 39 d9 d6 a6 37 36 67 0b 38
       0.0 0.00027312385 1.9888788e-05 3.3236305e-05
000140 2b d6 28 38 bd 5c 27 36 ac cd 58 38 70 b7 5c 38
       4.025378e-05 2.493892e-06 5.168996e-05 5.2622927e-05
000150 7d a1 d7 23 04 6d 63 38 04 6d 63 38 ab 01 5b 35
       2.337874e-17 5.4222546e-05 5.4222546e-05 8.1586285e-07
000160 fd 7d 5b 38 81 6d 5d 38 00 00 00 00 04 6d 63 38
       5.2331005e-05 5.279249e-05 0.0 5.4222546e-05
000170 04 6d 63 38 10 95 40 31 c7 6b 63 38 a1 6b 63 38
       5.4222546e-05 2.802441e-09 5.4221393e-05 5.4221255e-05
000180 00 00 00 00 04 6d 63 38 04 6d 63 38 a6 da ff 3a
       0.0 5.4222546e-05 5.4222546e-05 0.0019520118
000190 b9 fd 9c 39 00 00 00 00 00 00 00 00 5d e2 70 38
       0.00029943677 0.0 0.0 5.7431276e-05
0001a0 d8 a4 e4 36 3f bf 95 37 ae 54 a8 37 08 d7 e5 35
       6.81412e-06 1.785124e-05 2.0066593e-05 1.7124412e-06
0001b0 90 21 c2 37 48 3c c7 37 6f 04 ab 27 7b 3d d0 37
       2.3142231e-05 2.375072e-05 4.746684e-15 2.4824161e-05
0001c0 7b 3d d0 37 7f e3 0b 35 05 ca c6 37 d6 03 c9 37
       2.4824161e-05 5.2112586e-07 2.3697512e-05 2.3962853e-05
0001d0 00 00 00 00 7b 3d d0 37 7b 3d d0 37 48 ad 43 30
       0.0 2.4824161e-05 2.4824161e-05 7.1186834e-10
0001e0 77 43 d0 37 10 42 d0 37 00 00 00 00 7b 3d d0 37
       2.4826948e-05 2.4826295e-05 0.0 2.4824161e-05
0001f0 7b 3d d0 37 26 45 6a 3a 82 0f 4b 39 00 00 00 00
       2.4824161e-05 0.00089366955 0.00019365366 0.0
000200 00 00 00 00 3e 41 15 38 21 59 97 36 b5 90 3b 37
       0.0 3.558513e-05 4.5105267e-06 1.1179761e-05
000210 b8 be 57 37 d9 20 24 35 63 37 80 37 7c 1d 82 37
       1.2859404e-05 6.114256e-07 1.528458e-05 1.5510937e-05
000220 54 7e 3d 29 c4 5b 85 37 c4 5b 85 37 83 a2 af 34
       4.2076003e-14 1.5897567e-05 1.5897567e-05 3.2714533e-07
000230 cf ef 7e 37 6e dc 80 37 00 00 00 00 c5 5b 85 37
       1.5195415e-05 1.5361435e-05 0.0 1.5897569e-05
000240 c5 5b 85 37 a3 88 99 30 69 62 85 37 bf 60 85 37
       1.5897569e-05 1.117105e-09 1.5900661e-05 1.5899886e-05
000250 00 00 00 00 c5 5b 85 37 c5 5b 85 37 28 07 16 3a
       0.0 1.5897569e-05 1.5897569e-05 0.0005723112
000260 0e 85 ec 38 00 00 00 00 00 00 00 00 fa 8d a5 37
       0.0001127814 0.0 0.0 1.9735646e-05
000270 2b 6a 8c 37 29 41 4b 38 20 08 67 38 ad 38 7b 36
       1.6738739e-05 4.8459657e-05 5.508226e-05 3.7434904e-06
000280 3d bd 82 38 ca 94 85 38 7c 34 09 27 92 90 8a 38
       6.2341314e-05 6.369648e-05 1.9041021e-15 6.607281e-05
000290 92 90 8a 38 0c 94 b4 35 fc 15 84 38 ca a2 85 38
       6.607281e-05 1.3454132e-06 6.2983454e-05 6.372256e-05
0002a0 00 00 00 00 92 90 8a 38 92 90 8a 38 2a c4 fc 30
       0.0 6.607281e-05 6.607281e-05 1.8391166e-09
0002b0 30 97 8a 38 bf 95 8a 38 00 00 00 00 92 90 8a 38
       6.608514e-05 6.608245e-05 0.0 6.607281e-05
0002c0 92 90 8a 38 a7 e2 1b 3b 23 69 f1 39 00 00 00 00
       6.607281e-05 0.0023786218 0.00046045435 0.0
0002d0 00 00 00 00 7e 9c d9 38 db b4 d1 36 d0 03 8c 37
       0.0 0.00010376515 6.2497397e-06 1.6691076e-05
0002e0 9d 7d 9e 37 17 44 9c 35 2c 1a b9 37 8c 4b bc 37
       1.8893561e-05 1.1642722e-06 2.2065906e-05 2.2446526e-05
0002f0 16 c7 13 29 c4 47 c2 37 c4 47 c2 37 a3 87 17 35
       3.2813236e-14 2.316002e-05 2.316002e-05 5.644926e-07
000300 89 7a b8 37 11 b1 ba 37 00 00 00 00 c4 47 c2 37
       2.199157e-05 2.225538e-05 0.0 2.316002e-05
000310 c4 47 c2 37 27 69 24 31 da 47 c2 37 0c 47 c2 37
       2.316002e-05 2.3924913e-09 2.316006e-05 2.3159686e-05
000320 00 00 00 00 c4 47 c2 37 c4 47 c2 37 bd 90 5a 3a
       0.0 2.316002e-05 2.316002e-05 0.0008337608
000330 9b a1 27 39 00 00 00 00 00 00 00 00 28 01 1b 38
       0.00015986564 0.0 0.0 3.6955957e-05
000340 6f 54 5d 35 6e c9 f9 36 1e 13 01 37 a0 bc ce 34
       8.245178e-07 7.444228e-06 7.69345e-06 3.8507733e-07
000350 e3 de 04 37 3e 2e 07 37 fe 26 a2 29 c6 56 0b 37
       7.919708e-06 8.057394e-06 7.201009e-14 8.305249e-06
000360 c6 56 0b 37 d8 46 ad 34 ef 92 01 37 72 af 03 37
       8.305249e-06 3.2275307e-07 7.72321e-06 7.8490575e-06
000370 00 00 00 00 c7 56 0b 37 c7 56 0b 37 a8 5c e2 2f
       0.0 8.30525e-06 8.30525e-06 4.1174997e-10
000380 5c 5d 0b 37 cd 5b 0b 37 00 00 00 00 c7 56 0b 37
       8.306783e-06 8.30642e-06 0.0 8.30525e-06
000390 c7 56 0b 37 aa c1 9c 39 56 d2 c1 38 00 00 00 00
       8.30525e-06 0.0002989893 9.242135e-05 0.0
0003a0 00 00 00 00 04 af d5 37 03 04 d4 37 db 59 44 38
       0.0 2.5473077e-05 2.5274237e-05 4.6813726e-05
0003b0 2e 10 69 38 5c 44 78 36 f5 80 91 38 b4 88 94 38
       5.5566597e-05 3.699467e-06 6.938159e-05 7.082653e-05
0003c0 db f5 ba 2a b5 84 99 38 b5 84 99 38 43 9e c2 35
       3.3210834e-13 7.320327e-05 7.320327e-05 1.4500187e-06
0003d0 0f 65 93 38 6e cd 94 38 00 00 00 00 b5 84 99 38
       7.02833e-05 7.095454e-05 0.0 7.320327e-05
0003e0 b5 84 99 38 fa 47 22 32 51 84 99 38 9a 83 99 38
       7.320327e-05 9.446007e-09 7.3202544e-05 7.320121e-05
0003f0 00 00 00 00 b5 84 99 38 b5 84 99 38 41 b5 2c 3b
       0.0 7.320327e-05 7.320327e-05 0.0026353153

exp_avg f4 [128]
000000 98 09 42 39 2f 52 4a 39 67 8f c0 3a 02 75 57 3a
       0.00018504856 0.00019294837 0.0014691175 0.00082190346
000010 4c c7 d4 b9 89 6a a8 b9 fe ab a1 39 c9 68 39 39
       -0.0004058428 -0.00032122832 0.00030836457 0.0001768201
000020 8f ec 6d b8 82 7e 84 ba c5 25 12 3a 37 29 74 b8
       -5.6725516e-05 -0.0010108503 0.0005575086 -5.8212518e-05
000030 c3 73 eb b8 a6 da 1a 39 fb 3c 09 ba 80 e2 6d b8
       -0.000112272355 0.00014768037 -0.0005235222 -5.6716148e-05
000040 dc 2a 86 b7 2c c2 b8 b8 b8 90 7d 39 2a 40 24 b9
       -1.5994003e-05 -8.809971e-05 0.00024181872 -0.00015664162
000050 b2 7d ba b7 74 41 15 b8 7b a1 3c 38 dd fe 18 bb
       -2.223146e-05 -3.5585326e-05 4.4973083e-05 -0.002334527
000060 a7 0a 75 36 57 85 04 39 17 e2 a0 b9 11 50 9c 39
       3.6514045e-06 0.00012638174 -0.00030686028 0.00029814293
000070 5f f3 77 38 cb 62 05 39 78 aa fc ba 32 b1 09 38
       5.9116046e-05 0.00012720672 -0.0019276878 3.282837e-05
000080 c9 fa b3 39 22 77 14 38 dc a5 7e b7 7a 98 75 3a
       0.0003432839 3.53969e-05 -1.5178197e-05 0.0009368729
000090 ff f1 7a 37 31 df 92 38 dd e9 26 ba e2 c7 78 35
       1.4957505e-05 7.003395e-05 -0.0006367246 9.267807e-07
0000a0 bf 0c 11 3a 02 46 01 b8 3e 3e 75 39 81 8a 7a b8
       0.00055332104 -3.0821197e-05 0.00023388208 -5.9733637e-05
0000b0 a5 4b 35 3a 83 95 15 3a 7e 90 bb 3a 4b f6 05 b8
       0.0006915874 0.0005706178 0.001431003 -3.193905e-05
0000c0 7d 0e 1d ba bf b9 df 3a 08 1d 12 3a a4 a8 76 b9
       -0.00059912336 0.0017068906 0.0005573784 -0.00023523212
0000d0 cf 8a 17 38 bd 9f 17 b9 96 27 1f b6 a9 8a 68 b8
       3.613048e-05 -0.0001445999 -2.3715888e-06 -5.5442248e-05
0000e0 1f 66 1f 38 f5 83 30 39 62 3e 0b b8 08 d9 f9 b9
       3.800366e-05 0.00016833826 -3.319828e-05 -0.00047654682
0000f0 6b 7b d4 3a 00 43 e9 36 ac 2d a2 3a dd eb 32 b6
       0.0016211098 6.951741e-06 0.001237323 -2.6661357e-06
000100 99 01 49 ba 9a da b4 ba c6 ab e8 39 cb 3b b6 39
       -0.00076677796 -0.0013798058 0.0004437847 0.00034758294
000110 82 dc 42 38 67 f6 1d 38 f6 01 ac b7 8b eb 8c b7
       4.645857e-05 3.7661197e-05 -2.0504911e-05 -1.6798984e-05
000120 d9 6f cd 39 0f fa c6 b9 54 94 66 ba b2 9d 54 3a
       0.0003918398 -0.0003795181 -0.00087959063 0.00081106566
000130 f4 36 05 39 05 9f 89 38 90 0a 80 39 41 8e 59 b9
       0.0001270434 6.562289e-05 0.00024421932 -0.00020747726
000140 6e 04 43 36 f8 e6 15 ba 68 e6 94 b9 77 f9 c4 38
       2.9059843e-06 -0.0005718316 -0.00028400426 9.392475e-05
000150 72 83 c5 b7 06 ab 34 b9 25 06 0b 38 56 3d 2f ba
       -2.3545439e-05 -0.00017229849 3.3145905e-05 -0.000668486
000160 f3 32 a4 b8 ca 3d b6 b9 5b 88 80 ba ff a2 a8 b7
       -7.8296194e-05 -0.00034759782 -0.0009806262 -2.0103062e-05
000170 c6 89 99 ba f0 6a f3 39 66 30 8b ba 6a 91 b2 37
       -0.0011714033 0.00046428246 -0.0010619282 2.1286967e-05
000180 84 4b c3 39 d3 dc 0c 38 f8 9f bd 36 21 ba a0 37
       0.00037249562 3.358426e-05 5.6512617e-06 1.916016e-05
000190 4e 82 4f 3a 84 bb 39 b7 09 03 05 37 0c 4f 4e 3a
       0.000791584 -1.1070519e-05 7.928124e-06 0.0007870055
0001a0 b9 2a 85 39 06 db ea 39 2b 7a ff b9 79 b4 95 39
       0.00025399568 0.00044795143 -0.00048728412 0.00028553957
0001b0 3d 39 8c 38 8c 40 93 ba 00 4f e4 b9 9e d5 6b 37
       6.686382e-05 -0.0011234446 -0.00043546408 1.4056828e-05
0001c0 9e ee 99 38 c6 c1 85 3a 4c 37 10 b6 bf 03 4b b9
       7.3400544e-05 0.0010204844 -2.148986e-06 -0.00019360984
0001d0 32 cd 71 37 dc f9 a6 b9 e6 95 fa b9 3d 49 b8 b8
       1.4412495e-05 -0.00031848147 -0.000477954 -8.7874454e-05
0001e0 22 48 89 b9 df c4 82 38 df 72 da 39 0a 1c c3 b9
       -0.0002618442 6.235553e-05 0.00041665786 -0.0003721419
0001f0 64 6e 02 ba 6d 74 95 38 36 56 d6 b8 6f 07 ab b9
       -0.0004975556 7.12656e-05 -0.00010220373 -0.000326212
