results/ManAgent/ManAgent/ManAgent-419617.onnx (onnx, 101239 bytes, 6 tensors)

network_body._body_endoder.seq_layers.0.weight f4 [128, 56]
00000000: 67f0 42bd 8d91 443e 04a1 d03d 3b5c f63c
00000010: b476 f7bb 3084 96bd 9f13 02be a24b 523e
00000020: 3de6 543e 779a 12bc 31f7 19be 98c0 3a3e
00000030: 9794 b23d b5d8 91bd a5fb 42be b5df 2bbe
00000040: 5103 bebd 57c3 a7bc ab3c f5bd 1bcb 03be
00000050: 6bb7 433e b695 6c3e 2b43 143e 37f8 22be
00000060: 0409 4b3e dca1 adbb edd5 b43d 0425 3c3e
00000070: 3280 8e3d 3100 eb3c 5574 b0bd 0e87 42be
00000080: e48d 3a3d 34e1 d43d 3b1e 5cbd c00d 8fbe
00000090: 7b59 59bc 00a5 13bd 5bd1 923d d0a1 b8bd
000000a0: 2491 133e d396 91bd 6cf6 1d3d 7330 95bd
000000b0: 3a95 713d 3ecd 71be cbee 6cbe bf99 c4bd
000000c0: 1f04 b5bd 727f 93be 1d3d f63d afc1 5abd
000000d0: b205 b53c d0f2 82be 0ab8 6a3e 4290 7b3e
000000e0: 2e2e d13c bc7a f63d f2bd 1fbe 08ce 9fbd
000000f0: 94b2 703c 689f 8f3d 49b0 8b3e b2ae c3be
00000100: 19b3 763e bd99 253d 4dc7 8fbd 53b9 d93d
00000110: c80b d3bd 063b 42be 3f70 74be bc77 60bc
00000120: 7685 fdbd 333a 1abd c66f 80be f9d5 a63e
00000130: 45fe febc d9bd 6f3c ff99 3e3e 8aa8 723d
00000140: 4bf8 e13d 2211 403e 5ed8 26be 40a9 06bd
00000150: 411a 6abd 04dc eabd f236 82be 6923 e53d
00000160: a953 02bd 1994 1fbd 1bd1 b0bd c0cd 493d
00000170: 4c90 ee3d a760 20bd abc2 63bb aa91 dd3c
00000180: b45f e4bd e17f 3a3e 99c8 2bbd 979c a23c
00000190: 4b01 fa3b 0de6 a3bd 7b7b 313d 2d7b ef3d
000001a0: bb1f 703e 32c9 5e3e d812 5cbe 45f2 64bd
000001b0: ea08 a9bc 786a 1e3e 380b 83bd 4c75 bf3e
000001c0: 41de ba3d ffcb bdbe 9a85 a4be a8a1 d0bd
000001d0: 54e7 e63d eb60 8f3d 0ae5 f0bc 378c 9abd
000001e0: 3d96 57be 196a 85bd 4bde 033e 6767 0f3e
000001f0: 3649 143d b912 a3bd ac88 e43d cf67 453e
00000200: 4ca2 1abe 94f7 043e 7021 06be b780 313c
00000210: 8b60 60bd ce0b 783c 61d4 e1bd 007c b9bd
00000220: 452d 523e 9b3c 92bd 0d6f cf3e ee5d a2bd
00000230: adde 18be 1551 3bbe a023 d3bd 41d0 2b3d
00000240: 17bd cc3d 1d10 f4bd f4f1 c7bd 79d5 dbbd
00000250: 761e 04bd c9e8 723d 31c3 fb3d 032a e8ba
00000260: 0397 743d 09c8 4abc c6a1 80bd 2f90 923d
00000270: 09ba 9c3d aac3 08be 2168 073b 77ab 533d
00000280: 7d1f 2d3d 8d85 c9ba 6c09 b73e 4f43 273d
00000290: 95ec 71be 2838 5e3e 43d3 3ebd 58c9 b13d
000002a0: 7b72 a83d 961a f03d ac1e 13be db88 3a3e
000002b0: f097 2d3e 5987 51be 7738 85bc 7332 e4bd
000002c0: 903e 52be b5bf e63d e593 b73c da9e acbc
000002d0: 6555 d4bd 0b76 8cbe 51e5 3dbe 8a13 17be
000002e0: 217d 36be 620c 01be f0ea e8bd 7706 a8be
000002f0: 3946 03be 82d9 3e3e e6cf 0fbe 0fb8 33be
00000300: ab37 00be d34e b0bd 6453 24be f58c d33b
00000310: b403 843d 5434 503d dbdc cfbb e64a 3e3d
00000320: d018 15be 474a 013d e78d b7bd 8cb6 adbd
00000330: 87ba 04bd 2021 0bbe 5c44 8fbe 49af f73d
00000340: ca82 c9bc 11dc a13d 7d49 b83d be0a a43d
00000350: ec07 18be 2d0d d13d 7ca2 5c3e 94dc bb3d
00000360: a868 ec3d d8f8 f7be 0a20 99be c1d2 503e
00000370: f938 e33c b4e7 153d 65a7 16be eda7 b53e
00000380: 950e 11be aed7 c1bd 347a 8ebe a9b1 143e
00000390: 8307 193e 1b38 f5bd f4b4 8bbd 9f47 2dbd
000003a0: 1c39 10be 8494 c93d 4304 b7bd 6805 473e
000003b0: 9191 a23b 2634 053e bf97 69be 6fbe 09be
000003c0: b32c 623d ae03 9d3e a715 453d 405d 6bbe
000003d0: 3bbd 8f3d afba 19be 924f b2bd 9ee1 8c3d
000003e0: 768e 32be bf26 d13d 4907 91bd da2e bcbd
000003f0: 7d79 4bbe 8d65 743e 3873 ac3d 8a15 5dbd
-0.047592547 0.19196148 0.10186961 0.030073276 -0.0075519923 -0.073494315 -0.12702797 0.20536664
0.20790954 -0.00894796 -0.15035702 0.18237531 0.087197475 -0.07121412 -0.19041307 -0.16784556
-0.09277976 -0.020478887 -0.11974462 -0.12870447 0.19112937 0.23103985 0.14478748 -0.15914999
0.19827658 -0.005298836 0.088298656 0.18373495 0.06958045 0.028686615 -0.086159386 -0.18996832
0.045545474 0.103945166 -0.053739768 -0.27940178 -0.013265963 -0.036046028 0.07168838 -0.09015238
0.14410836 -0.071088456 0.038565084 -0.072846316 0.058980204 -0.2361345 -0.23137967 -0.09599637
-0.08838677 -0.2880817 0.12023375 -0.053407367 0.022097442 -0.25575876 0.22921768 0.24566749
0.025534716 0.120351285 -0.15599802 -0.07802969 0.014691014 0.07012826 0.27282932 -0.3821922
0.24091758 0.04042982 -0.070204355 0.10631051 -0.103049815 -0.18967828 -0.23870943 -0.013700422
-0.12378971 -0.03765316 -0.25085276 0.32585123 -0.031127105 0.014632666 0.18613432 0.059242763
0.11033686 0.18756536 -0.16293475 -0.032876253 -0.057153944 -0.11467746 -0.25432545 0.111883946
-0.031818066 -0.038959596 -0.08633634 0.049268484 0.11648616 -0.039154675 -0.0034753482 0.027046997
-0.111510664 0.18212844 -0.04193935 0.019850058 0.0076295487 -0.08002863 0.04333065 0.11693416
0.23449604 0.21756437 -0.21491563 -0.05589511 -0.020634133 0.15470302 -0.06398624 0.37394178
0.09124423 -0.370697 -0.3213318 -0.101870835 0.11274591 0.070009075 -0.02940609 -0.07546275
-0.21053405 -0.06514377 0.12877767 0.14004289 0.036202632 -0.079625554 0.111588806 0.19277881
-0.15100974 0.12985069 -0.13098693 0.010833911 -0.05477957 0.015139533 -0.11026836 -0.09056854
0.20525081 -0.07140466 0.40514413 -0.07928072 -0.14928694 -0.18292649 -0.10309529 0.041946653
0.099970035 -0.11917136 -0.09762946 -0.10734076 -0.032255612 0.059304032 0.12293089 -0.0017712716
0.05971433 -0.012376794 -0.06280856 0.07156407 0.07652671 -0.1335589 0.002066143 0.051677193
0.042266358 -0.0015374884 0.35749376 0.040835675 -0.23625405 0.2170111 -0.046588194 0.086809814
0.082249604 0.11723821 -0.14367169 0.18216269 0.16952491 -0.20461787 -0.016262276 -0.11142435
-0.20531678 0.11267034 0.022409389 -0.02107184 -0.1036785 -0.2743381 -0.18544509 -0.14753547
-0.1782117 -0.1260238 -0.11372936 -0.32817432 -0.12819757 0.1863766 -0.1404415 -0.17550682
-0.12521236 -0.086087845 -0.16047436 0.0064560124 0.06446019 0.050831154 -0.0063434667 0.046458147
-0.14560246 0.031564977 -0.089626126 -0.08482084 -0.03240445 -0.13586855 -0.27981842 0.1209398
-0.024598498 0.079033025 0.08998392 0.080098614 -0.14846772 0.10207591 0.21546358 0.09172931
0.11543399 -0.4843204 -0.29907256 0.20392896 0.027737128 0.036597922 -0.14712293 0.3547968
-0.14165719 -0.09464966 -0.2782761 0.14520897 0.14944272 -0.11973592 -0.068216234 -0.04230463
-0.14084285 0.0984278 -0.0893636 0.19435656 0.0049612005 0.13008174 -0.22811793 -0.13451551
0.05521841 0.3066687 0.048116352 -0.22984791 0.07018515 -0.1501262 -0.08706583 0.068789706
-0.17437157 0.10212468 -0.07081468 -0.09188624 -0.19870563 0.23866864 0.08420414 -0.05397562

network_body._body_endoder.seq_layers.0.bias f4 [128]
00000000: 5a73 87bc 735a 61bc ecfa 6a3d f031 b5bd
00000010: 3b65 123d 2cf1 2dbc 9e40 0e3d 27d5 5a3d
00000020: ea33 b4bc d65e a03d 95bb 003d 82e0 e9bc
00000030: a8e1 9abd dd97 94bd 6035 b63d 5164 5dbd
00000040: b1b8 223c 865d 87ba 92ed 0d3d 0e88 463d
00000050: 0e21 bf3c c96b e2b9 c9e4 bcbd 8c21 64bd
00000060: 5ef0 ba3c 0a13 ef3c 274b 62bc b646 113c
00000070: f8aa dfbc 4c82 aebd d7ac b5bb 7768 3b39
00000080: f0cd f2bb afef ae3d 2964 76bb 7214 853d
00000090: 4578 66be 9ccf 0b3d dcbf 11bd 01a8 6c3d
000000a0: c868 67bd 133f c03c 9811 c33c 2dc0 b9bc
000000b0: b96a 17bd 242e 4e3d d9db 56be 9c8f c03c
000000c0: b6d5 153d 76f1 4b3d 166a 373b c23f 223d
000000d0: df1d 92bb 38f4 28bb 84dd b83d 5ad9 7abd
000000e0: 9591 703b f14b 663d d667 2fbd 94df 043d
000000f0: 2fd6 0b3d 7177 273d d29b b63c 00e3 a3bc
00000100: d984 a9bb f13d 8a3c e99a eb3c 643c 263c
00000110: 033f 35bc 92f7 17bd bca0 8bbc c224 153d
00000120: 406f 84bd 99c2 90bd eea0 ae3d cd92 d63d
00000130: 1691 75bc 0532 643d 8cee 10be 8fac 423d
00000140: d1d3 f5bc a620 9abc 207e 48bd 5228 fd3b
00000150: 04e2 01be 97f8 463c fdf8 383d df24 543c
00000160: 479c 393d 0536 943c fe23 4a3d 3347 9bbd
00000170: 47eb babd 11fe 11be 79af 503d 2466 803c
00000180: ab45 d43b 229c 7b3d 42c1 db3c 9bf2 4f3c
00000190: b3ca 243d b130 b43b ae97 6b3c edb8 e03c
000001a0: 5fbf 013b 7af6 3dbd ff32 983d 6d43 57bc
000001b0: 2748 cd3c 4f17 c93b 15cc c33d 206c 913d
000001c0: 4114 833c ad1c 993d 7cef d23c 1eca febb
000001d0: d5a3 8cbd 8fde a3bc a23c 70bd f395 c2bc
000001e0: 7e2e 563c 95cf 103d caa1 2fbc 28ce 2e3d
000001f0: 0e44 1dbc b42d c43c 24a4 ab3c 16eb 443d
-0.016534496 -0.013754475 0.057368204 -0.088474154 0.035741072 -0.010616582 0.034729593 0.053425934
-0.02199741 0.078305885 0.031428892 -0.028549436 -0.07562572 -0.07255528 0.08896899 -0.054050747
0.009931729 -0.0010327555 0.034650393 0.048469596 0.023331191 -0.00043186385 -0.09223325 -0.055696055
0.022819694 0.029183883 -0.013811863 0.008866956 -0.027303204 -0.08520946 -0.0055442858 0.00017872626
-0.0074098036 0.0854181 -0.0037596321 0.0649804 -0.22506817 0.03413354 -0.035583362 0.05777741
-0.05649641 0.023467576 0.0238121 -0.022674644 -0.036967013 0.050336972 -0.20982303 0.023505978
0.036580764 0.049790822 0.0027986816 0.039611585 -0.0044591273 -0.0025780331 0.09026626 -0.06124244
0.0036707867 0.056224767 -0.042823635 0.032439783 0.03413981 0.040885393 0.022291098 -0.020005703
-0.0051733074 0.01687524 0.02876039 0.010146234 -0.011062386 -0.037101336 -0.017044418 0.036412008
-0.06466532 -0.070683666 0.08526789 0.10477219 -0.014988204 0.055711765 -0.14153498 0.047527846
-0.030008228 -0.018814396 -0.048948407 0.007725754 -0.12683874 0.012144229 0.04515933 0.012948244
0.045315053 0.018092165 0.04935073 -0.075819395 -0.09126907 -0.14257075 0.050948594 0.015673704
0.0064780316 0.061428197 0.026825551 0.012692119 0.04023237 0.0054989685 0.014379425 0.02743193
0.0019797904 -0.046377636 0.07431602 -0.013138634 0.025058819 0.006136812 0.0956041 0.07100701
0.016000869 0.074761726 0.02574896 -0.007775559 -0.06867186 -0.020003585 -0.058651574 -0.023753142
0.013072608 0.035354216 -0.010719726 0.042677075 -0.009598745 0.023947574 0.020952292 0.048075758

network_body._body_endoder.seq_layers.2.weight f4 [128, 128]
00000000: 1151 323e 7731 0abe c174 99bd 249d 18bc
00000010: 4a3d 25be 72ef 0dbe 715c 8f3c 6130 88be
00000020: 6fe7 13be 8a82 0f3d fc1e 2dbd 8943 dbbc
00000030: 7215 183e 838a d03d e99b 4d3e a947 423d
00000040: bc87 dd3d 7139 00be b04e 383d 9fbb d9bc
00000050: 3201 f2bd b98f 883e 517e 75bc 38ee 39bd
00000060: 6a26 683d c111 f7bc 33bf dabd cc72 fa3d
00000070: 794f b93d 5856 b53d 3350 dbbd c1c5 7c3d
00000080: d4f9 093d f1a6 b03d 97b2 d0bc 3337 413c
00000090: 8b33 c83c da8b 06be b76f 243e 1fdb b63d
000000a0: f21b 1d3c 68bc d1bd 5487 9c3d 8375 20be
000000b0: 7efa 4dbd 1254 c93c 07c4 38be 619d af3d
000000c0: 4a57 253c 90e6 0abd 7f5b e53d e859 7bbc
000000d0: 724e 583e 71f8 dabd c2f5 95bd 68e2 8ebd
000000e0: c699 e43d 927f 933d a9a1 1bbd cd6b 5e3d
000000f0: 3cf8 3b3d c7a0 3d3e d958 debd dccb 963d
00000100: 3734 483d 7e76 93bd 1726 013e 119d c1bd
00000110: 53fc 2f3c f5e8 243e 56d0 8d3d 4d6c d3bd
00000120: fbe9 b2bd f2e0 f9bb 5c07 04bd ec2c 8f3d
00000130: 1b50 3d3d 0eda 3a3e 0efd 4bbd 9491 ac3c
00000140: 49b4 c0bd 897a e4bd c630 e4bd 9ef1 2d3d
00000150: 4747 c83c b474 14bc 7d2a e2bd 8630 4fbd
00000160: 37d7 86bc 19cd b03d 0ea2 01be 3b7e 223e
00000170: 7c4a d63b 9631 013d 6e2e 1a3e 385a 14be
00000180: 5b5d 203e 55e4 6cbd da7b 75bc e0f5 01be
00000190: baab 313e 4736 e43d 2781 70bc de87 353e
000001a0: 32d5 043e c702 b43d 9fa3 fcbc 570f 0dbe
000001b0: 1691 b2bd 2c33 413b 2fbe cd3d f6c7 653d
000001c0: 2683 3c3d 82f1 073e e688 44bb 51e8 5c3e
000001d0: f736 6abd 1993 5ebb 921c 6a3b d84c 9a3d
000001e0: 14cc 6bbd 16bd 07bd 5b7a da3d ed18 90bd
000001f0: fe6d 0bbd c110 bfbd 6eb9 1e3e 4fb3 363d
00000200: 3b01 5fbc 1699 ca3d 5914 aebd b46f 423d
00000210: 382e 7b3d 669f 1cbe 75ce 8ebc 5899 513e
00000220: 01db 933d 9b1d 4e3c ed08 523d 2079 013d
00000230: 060c 9cbd e673 3cbd 8106 4abe 2dc4 733d
00000240: 2235 6dbe 5e1a 1cbd 6697 cf3d 67b5 babd
00000250: 2ba7 fa3b 1fbe 55be 032d 82bd 7ce1 e33d
00000260: 4ec5 91be f646 9c3b f2b6 703d 5198 a5be
00000270: 6863 babc 4904 c03c f5b3 5c3e 9b05 04be
00000280: d691 3e3d 74aa 753d 3deb 80bd fb44 c2bd
00000290: 8e00 713d e99f 343e 2382 7ebb a5c3 8dbd
000002a0: 4125 c93d d1c3 e33c 3c47 b93c ac72 5d3b
000002b0: 4535 903c 5a0a 33bd a1a9 ddbd 6ab9 1dbe
000002c0: 9546 21be 664a 5e3e 7a1a 07be 0d41 52bc
000002d0: 0438 4b3d b37f d43c fd8e f0bc 5ed9 a33d
000002e0: 576d 8ebe b3e7 24be efef f23d 1a8d 25be
000002f0: 0398 da3d 8802 4fbd 7bb7 6bbc d620 833c
00000300: c1f6 1bbe 4f29 8f3d e32d 0bbd b784 3c3d
00000310: 6592 533d 6722 4e3e cf95 26bd 702f 633b
00000320: ca08 763d 8f59 ad3c 2be0 01bb 9fe0 4ebd
00000330: b042 42bd 5b1f 14bd 7b5c 913d 20ad 4abb
00000340: 0bbe f9bc b4ad 07bc bf38 9abd 3086 f5bd
00000350: 1dfc 85bd 6c2a f33d 8e58 1fbd efa1 f83d
00000360: de62 03be 7fc0 863d cf0f 98bd 35c0 0b3d
00000370: 5fc5 0f3e 37ff 7e3d 6216 b3bd 2e0b c63c
00000380: 2f60 11be e6a8 b23d d314 153c f7cf 573d
00000390: 8724 81bb d948 0fbe 4bd0 fd3d b7be a7bc
000003a0: c3f2 d03b 3937 cb3e 4aa1 d2bd 15ba 24bc
000003b0: cdcb b83d 3024 88bd 74f1 0abe ab6d 423e
000003c0: 593d 103d 3cc9 dbbd 6f49 413d b2b6 cdbd
000003d0: fe48 a0bc 8cbf 613d 2d52 b23d 25d2 933d
000003e0: 04ee a83d c295 41bd b076 1fbd 5310 593e
000003f0: 4672 e0bc a106 753d 7b6e b4bd e541 dcbd
0.17413737 -0.13495432 -0.07492972 -0.009314809 -0.16136661 -0.13860872 0.017500134 -0.2659941
-0.14443754 0.0350366 -0.042265877 -0.026765602 0.1485193 0.10182669 0.20079006 0.04743162
0.10816905 -0.12521912 0.044996917 -0.026578723 -0.11816634 0.26672152 -0.014983729 -0.0453932
0.05667726 -0.030159833 -0.106809996 0.12228927 0.09048361 0.088543594 -0.10708656 0.06171203
0.03368552 0.086255915 -0.025475783 0.011792946 0.02443864 -0.13139287 0.16058241 0.08928513
0.009589182 -0.10241014 0.07642999 -0.15669827 -0.050287716 0.02457622 -0.18043528 0.085749395
0.010091612 -0.033911288 0.11199092 -0.01534126 0.21123675 -0.10691918 -0.07322265 -0.06976777
0.111621425 0.072020665 -0.037995968 0.054302026 0.04589103 0.18518363 -0.1085679 0.07363102
0.04887792 -0.07200335 0.12612186 -0.09453786 0.010741311 0.16104491 0.069245026 -0.10323391
-0.087360345 -0.0076256925 -0.03223358 0.0699099 0.046218973 0.18247244 -0.04980188 0.02106551
-0.09409387 -0.11156184 -0.11142115 0.042466752 0.02444805 -0.009061027 -0.1104326 -0.050583385
-0.016460044 0.08632869 -0.12659475 0.15868466 0.006539641 0.03154143 0.15056774 -0.1448754
0.15660612 -0.057834942 -0.014983142 -0.1269145 0.17350665 0.11143165 -0.01467923 0.1772761
0.12971953 0.08789592 -0.03083974 -0.13775383 -0.08719079 0.0029479964 0.1004604 0.0560989
0.04602351 0.13275722 -0.0029988824 0.21572997 -0.057181325 -0.0033962189 0.0035722596 0.07534188
-0.05756767 -0.03313931 0.10667869 -0.07036004 -0.034040444 -0.093293674 0.15500423 0.044604596
-0.013611133 0.0989248 -0.08499975 0.04746981 0.061323375 -0.1529518 -0.01743243 0.20468652
0.07219506 0.012580301 0.051278044 0.031609654 -0.07619481 -0.046008967 -0.19729044 0.05951326
-0.231648 -0.038111083 0.10136299 -0.09116631 0.0076493225 -0.20873307 -0.063562416 0.11126992
-0.28470844 0.0047692014 0.05876822 -0.3234277 -0.022752479 0.023439543 0.21553023 -0.12892763
0.0465258 0.05997701 -0.06294868 -0.09485813 0.05883842 0.17639126 -0.0038834892 -0.06922082
0.09821559 0.027803333 0.022616975 0.0033790274 0.017603526 -0.043711044 -0.1082337 -0.15402761
-0.15749581 0.21708068 -0.13193694 -0.012832892 0.049613968 0.025939798 -0.029365057 0.08000444
-0.27817795 -0.16104011 0.1186217 -0.16167107 0.10673525 -0.050539523 -0.014387007 0.016006868
-0.15230848 0.06990301 -0.033979308 0.046025004 0.051653285 0.20130311 -0.040670212 0.0034665726
0.060066976 0.021160869 -0.0019817452 -0.050507184 -0.04742688 -0.036162715 0.070977174 -0.0030925944
-0.030486127 -0.00828116 -0.07530355 -0.11988485 -0.065422274 0.11873326 -0.03890281 0.121402614
-0.12830684 0.065796845 -0.0742489 0.03411885 0.14040135 0.06225511 -0.087445036 0.024175253
-0.14196847 0.08723621 0.009099203 0.052688565 -0.003941122 -0.13992633 0.12393244 -0.020476682
0.0063765957 0.3969057 -0.1028467 -0.010054131 0.09023247 -0.06647527 -0.1356867 0.18987148
0.035214756 -0.10731742 0.047189172 -0.10044612 -0.019566055 0.055114314 0.0870708 0.07217816
0.08248523 -0.04726196 -0.03893155 0.21197633 -0.02739824 0.059820775 -0.08810135 -0.10754756

network_body._body_endoder.seq_layers.2.bias f4 [128]
00000000: d27d f2ba 8066 a23b 2671 103d 99ce ebbc
00000010: c1ea 3e3c 4d81 07bd f517 cd3c 2243 8abc
00000020: 8451 9b3c 8164 b2bc a8cb 393c 020f 243c
00000030: e36e bf3c 7973 92bb bf63 a93b f378 47bc
00000040: 209c 0dbb 943b 993c a653 d7bc 0cd5 9cbd
00000050: 99b6 8c3a be6e 11bc 8ead 84bc 86e6 523c
00000060: b53e 1d3c e7c4 4abb fdf5 723c dd76 dd3c
00000070: 3fb2 043d b7cb 313c 6e7f 403c 754a fb3c
00000080: c43d 4dbc df58 b83c 91b3 e1bb 9c63 4bbc
00000090: 364b 793c fd8e 593c f854 053b 88d6 bdbc
000000a0: 6984 09bd afee 603c d953 8a39 1f52 9f3b
000000b0: 1a52 b73c ae73 833c 3437 473c d8e8 a03c
000000c0: a082 bf3b 2b5d e13a 1154 a7bc 8b71 f3bc
000000d0: e826 443d 8183 203d e5fa 92bc 6a24 62bc
000000e0: 6095 2f3c b58f 723b 6035 3ebc a231 233c
000000f0: bfe5 4fbb cac8 74bc dd4e e73b 0f9b abbb
00000100: 1cbf d63b d814 8abc 2f61 93bb a967 c4bc
00000110: 25e5 1abc 6583 14bb 8a51 603d 6604 6dbc
00000120: a083 da3c 6df9 e93b 8917 34bb b99a 8f3c
00000130: 4814 553d c53a 22bb 9062 2fbc 046e 4d3d
00000140: f7dc 783c f1aa 4b3c 2638 66bc 599b 893c
00000150: 7913 313c e673 353c 0341 783c 0115 fbbc
00000160: 8ae7 783a ef5e c13c cdca 8538 9e4e 7abc
00000170: b166 683b 05c2 983c 8f2f 433c 7b0c ba3c
00000180: bd33 123b 144f e33c 06d5 b23b b5aa 3c3b
00000190: 3eb5 5c38 9260 a83a 5efa 143c 2c4c eabc
000001a0: cfaa 57bc 536f 2b3c fa72 2b3d 5525 92bc
000001b0: 611d a3be f99d 503d 2297 e83c d6e4 5a3c
000001c0: cc9c 733c 0b60 cc3c 7d77 a4bc 46d0 603b
000001d0: 33de 1f3c 1079 483d ef2b c3bb 9f61 8d3b
000001e0: 5a20 4bbe 993d 16bc 9428 d5bb 31ff e03b
000001f0: 9c77 93ba 63dc c9bd 11ca 08bd 7afb 2b3d
-0.0018500632 0.0049560666 0.035264157 -0.028785037 0.011652649 -0.033082295 0.025035838 -0.016877715
0.018959768 -0.02177644 0.011340059 0.010013344 0.023368305 -0.004469332 0.0051693614 -0.012174833
-0.002160795 0.018705167 -0.026285004 -0.07657823 0.0010735571 -0.008876501 -0.016196039 0.012872344
0.00959747 -0.0030940117 0.014829156 0.027034217 0.03239655 0.010851792 0.011749132 0.030675152
-0.012526933 0.022503315 -0.006887861 -0.012413885 0.015215686 0.01327872 0.0020344835 -0.023173586
-0.03357354 0.013728782 0.00026383883 0.0048620845 0.022378016 0.016046371 0.012159158 0.019642279
0.005844429 0.0017193904 -0.020425828 -0.029717227 0.047888666 0.039187912 -0.017941901 -0.013802627
0.010716766 0.0037011926 -0.011609405 0.009960564 -0.0031722633 -0.01494045 0.007058962 -0.0052369903
0.0065535437 -0.016855642 -0.004497669 -0.02397521 -0.009454046 -0.0022661325 0.05476526 -0.014466381
0.026674092 0.0071403296 -0.0027479848 0.017529832 0.052021295 -0.0024754268 -0.0107046515 0.050153747
0.015189401 0.012430892 -0.014051473 0.016797708 0.010807865 0.011074996 0.015152219 -0.030649664
0.0009494951 0.023604838 6.379709e-05 -0.015277533 0.00354616 0.018647203 0.011913194 0.02271103
0.002230867 0.027747668 0.0054575233 0.0028788273 5.2620882e-05 0.0012846163 0.009092895 -0.028600775
-0.013163283 0.0104635535 0.041857697 -0.017840067 -0.31858352 0.050931904 0.028392378 0.013360223
0.014868926 0.02494814 -0.020076508 0.0034303828 0.009757566 0.04894358 -0.005956165 0.004314616
-0.1983656 -0.009169959 -0.0065050814 0.0068663587 -0.0011250856 -0.098564886 -0.03339583 0.041987874

action_model._discrete_distribution.branches.0.weight f4 [2, 128]
00000000: 2247 04bb ef93 923d 881c fabd 9e60 1e3d
00000010: 0791 9e3d a098 4bbd 0536 05be b026 903d
00000020: 7a54 e5bd 7d6b dfbc 8204 bcbd 2f62 c7bd
00000030: f40a 3cbd ad44 cf3c 7e38 783d dc68 d43d
00000040: f927 8e3d 35de f93d b0d2 b33c f5f1 70bc
00000050: cd55 f83c b3e4 973d af95 af3d b581 b33d
00000060: 7e82 acbc 1609 43bd 6b79 9fbb e2ac 283c
00000070: 78f6 d5bd 9931 443d 72df bebd d674 55bb
00000080: 1ff6 9c3d 0eb6 38bc cf02 40bb 3293 a53d
00000090: fbe7 cfbd eced b93d 8cea 083e 881d 13bc
000000a0: c62c 1b3b 8044 503d 638c 893d 8ff4 b73c
000000b0: 5fa1 d8bd af77 94bc 3c5a 2dbd a37b 9c3d
000000c0: 18fd 9abd f2c6 c3bd c377 c23a bae5 e7bc
000000d0: 43b4 a8bd 8801 aebd 6d70 a03d 8dc0 4439
000000e0: 678b ac3d bd8f 7e3a 53a6 78ba 231b d6bd
000000f0: 9f8c 5a3d 0f57 efbc fa50 a73c 316f 84ba
00000100: 4d0c 31ba c895 6cbd 674c 1a3c 8d16 9c3d
00000110: 5be4 82bb 9eab 58bb 9b4f 0bbe 66a6 583d
00000120: d4d1 f8bd 2df7 adbd 284d 88bd 22a8 acbc
00000130: c89e 0abe 5435 963d e2ec 1dbc d5eb 31bd
00000140: 892f 95bc 1588 efbd fa5a 4cbd b81d ac3d
00000150: d88f d23d 85a6 6ebd 2135 35bd a180 cdbc
00000160: 14e6 5e3d 3470 1bbb 92e7 8c3d 02a7 ab3c
00000170: 5431 6f3d 736c 33bd 69ee 2a3d 3822 52ba
00000180: 6dc4 21bd 1a8e d53d 1a08 0d3d f28a c0bd
00000190: 2ea4 d23d a6de 283c 5180 53bd 4707 1dbc
000001a0: 1fff 973b ba08 06bd 8839 a1bd e2cc 943d
000001b0: 6c20 ffba 5a2e f7bd 521c 6abd fd05 39bc
000001c0: a2b0 28bd bcb8 11bd 2aac 053c 0d33 a93d
000001d0: 5fdd 8cbd 79da 0fbe 7084 c4bb 5d98 643d
000001e0: 9449 2ebc 042e c43d d524 15bc 20d4 66bc
000001f0: cb4e da3d ce12 2bbd 70b4 2fbc b638 e8bd
00000200: d6e0 583c 09cc 69bd 940e 083e 7e01 19bd
00000210: 4dd7 8abd 30cf 293d 2804 f03d 9bca 72bd
00000220: 6736 d83d c014 4d3d 7705 c83d 3d77 d03d
00000230: b204 9e3c 9cf7 98bc 20b1 40bd f1ad e6bd
00000240: a907 87bd 953e edbd 2679 353b 4e02 243c
00000250: ff01 a8bc 53f9 89bd 3761 a3bd f7eb 98bd
00000260: 4a01 22bb 5453 223d 554b 0bbc e193 3f3c
00000270: 50e6 913d 0b8d 3ebd c347 a83d 89e1 ed39
00000280: 4eac 9abd c54b e93b 634d 45bb e15f aabd
00000290: 81ce f13d cee4 95bd f005 fcbd 2772 f4bb
000002a0: 8128 b8bb 2875 4fbd 278b 7abd eb8e d2bc
000002b0: 56d3 da3d ce57 75bb cf38 553d 5cf8 90bd
000002c0: c398 903d 57f9 ad3d a1ce febb 07f3 f33c
000002d0: 9761 a33d 40c2 9d3d 0b79 a0bd a8a7 1c3c
000002e0: 03eb b4bd 9760 42bc 5c48 f93a b6dc c63d
000002f0: bd03 81bd 8495 793c 9ddc 21bd a2cb a63b
00000300: 258d 4b3a 55da 9c3d 2562 81bc 7f8d 98bd
00000310: 0f14 0f3b f027 ba3b 791d 093e 911c 91bd
00000320: 4880 ea3d 719c ad3d 2058 7b3d e550 1b3d
00000330: 0128 1a3e 67d8 9dbd 604a 66bb d8ba 573d
00000340: 5bc8 963c 1086 e23d 735c 783d 6b97 d1bd
00000350: 3911 edbd 2c49 923d 006c 373d d6d5 7f3c
00000360: 4919 69bd ee37 9e3c 8b60 48bd 1814 21bd
00000370: 72d3 64bd a379 683d 4185 70bd 791d da3b
00000380: eb3f 3b3d e740 b7bd 7a8b 2dbd 89cb b63d
00000390: de42 d1bd 864c 293c d018 313d 43d1 243b
000003a0: 6a94 af3c 72b9 c03c 287e 973d a41f bdbd
000003b0: 9eaf eab9 5fc8 f73d eace 3a3d fde9 bdb9
000003c0: 85a0 d33c 46a4 f53c 3b4f cdb9 07e8 a7bd
000003d0: 8070 733d d938 fd3d 1afd 0339 3c50 31bd
000003e0: 9735 143c 58c7 aabd 0868 963c 23b0 5bbc
000003f0: e2c1 b7bd c9a3 243d 9dd5 5e3a f478 e63d
-0.0020184 0.07157122 -0.12212473 0.03866636 0.077425055 -0.0497061 -0.13008888 0.07038629
-0.11197753 -0.027272934 -0.09180547 -0.09735524 -0.045908883 0.025301302 0.06060075 0.10371563
0.06941218 0.12200586 0.02195105 -0.014706125 0.03031435 0.07416668 0.08573472 0.08764974
-0.021058317 -0.047616087 -0.004866769 0.010295125 -0.10447401 0.047898863 -0.093199626 -0.003257086
0.076641314 -0.011273874 -0.002929855 0.08084716 -0.10151669 0.09078583 0.13370723 -0.008979209
0.002367781 0.050846577 0.0671623 0.022455482 -0.10577654 -0.018123476 -0.042322382 0.07640769
-0.07567805 -0.0955943 0.0014836717 -0.028307784 -0.08237507 -0.08496386 0.078339435 0.00018763747
0.084250264 0.000971075 -0.00094852335 -0.10454395 0.053356763 -0.029216317 0.020424355 -0.0010103938
-0.0006753847 -0.05776003 0.00941763 0.07621489 -0.0039945072 -0.0033061276 -0.13604586 0.052893065
-0.121493965 -0.08494411 -0.066553414 -0.021076266 -0.13537133 0.0733439 -0.009638997 -0.043437798
-0.018211143 -0.116958775 -0.04989145 0.08404106 0.10281342 -0.058264274 -0.04424012 -0.02508575
0.05441864 -0.0023718001 0.06880106 0.020953659 0.058396652 -0.043804597 0.041731272 -0.0008015963
-0.039493967 0.10427494 0.034431554 -0.09401502 0.10285221 0.01030699 -0.051636044 -0.009584255
0.004638567 -0.032723166 -0.07872301 0.07265641 -0.0019464619 -0.12069388 -0.057155915 -0.011292932
-0.041184075 -0.035576567 0.008158723 0.0826169 -0.06878161 -0.14048184 -0.005997233 0.055809367
-0.01063766 0.09579089 -0.00910302 -0.0140886605 0.1065956 -0.04176598 -0.010724172 -0.11338942
0.013237199 -0.05707935 0.13286811 -0.03735494 -0.067793466 0.041457355 0.11719543 -0.05927525
0.105572514 0.050068617 0.09766667 0.10178993 0.019289348 -0.018672757 -0.04704392 -0.112636454
-0.06593258 -0.11584202 0.0027690618 0.010010315 -0.020508764 -0.06737008 -0.07977527 -0.07466882
-0.0024720007 0.03963025 -0.008501847 0.011692972 0.07124007 -0.046521228 0.082168125 0.000453722
-0.07552396 0.007119628 -0.003010594 -0.08319069 0.118069656 -0.07319032 -0.1230582 -0.007459897
-0.005620063 -0.05064884 -0.061167862 -0.025702914 0.106848404 -0.003743637 0.05205613 -0.07078621
0.07060387 0.084948234 -0.007776097 0.02977897 0.07977598 0.07703066 -0.07835587 0.009561457
-0.088338874 -0.011863849 0.0019018757 0.09710066 -0.06299541 0.015233401 -0.039517034 0.005090193
0.00077648676 0.07658831 -0.01579387 -0.07448863 0.0021832024 0.0056810305 0.13390149 -0.07085527
0.11450249 0.084771045 0.06136334 0.037918944 0.15054323 -0.07707291 -0.0035139546 0.052668422
0.018406084 0.11060727 0.06063504 -0.10233959 -0.115755506 0.07142863 0.04478073 0.015614947
-0.05690888 0.019313779 -0.048920196 -0.039325804 -0.055865712 0.056756627 -0.05872083 0.0066563454
0.045715254 -0.08947926 -0.042369343 0.0892554 -0.10217832 0.010333186 0.043236554 0.0025149144
0.021433074 0.023525927 0.07397109 -0.092345506 -0.00044762803 0.12098765 0.045607485 -0.00036223224
0.025833378 0.029985558 -0.00039159678 -0.081985526 0.05943346 0.123643585 0.00012587421 -0.043289408
0.00904598 -0.08338803 0.018360153 -0.0134086935 -0.08972527 0.04019526 0.0008500459 0.11253539

action_model._discrete_distribution.branches.0.bias f4 [2]
00000000: edc3 9f3c 9ec2 9fbc
0.019502604 -0.01950198
