results/ManAgent/ManAgent/ManAgent-3884.pt (torch, 594387 bytes, 33 tensors)

network_body._body_endoder.seq_layers.0.weight f4 [128, 56]
0	0x3e515af6	0.20444855
1	0x3d822f5c	0.06356689
2	0x3c1152be	0.008869825
3	0x3c0bb2ca	0.008526513
4	0xbe2df142	-0.16986564
5	0x3c8abb00	0.016934872
6	0x3ca01c57	0.019544763
7	0x3c372dd1	0.011180357
8	0x3ce844d6	0.028353136
9	0x3d400ba9	0.04688612
10	0x3d15cd34	0.03657265
11	0x3daf8453	0.08570161
12	0xbd89172a	-0.06693871
13	0x3e86e761	0.26348403
14	0x3e75419d	0.2395081
15	0x3c9c9025	0.019111702
16	0xbd7b5663	-0.06136168
17	0xbc726d19	-0.014796519
18	0x3ca12b33	0.01967392
19	0x3d987e15	0.07445923
20	0xbd312e96	-0.04325732
21	0x3e002e53	0.12517671
22	0x3d3dbdc1	0.04632354
23	0xbda56f90	-0.080779195
24	0xbd054b1b	-0.03254233
25	0x3c9b5486	0.018961202
26	0xbd99458d	-0.07483969
27	0x3de2264c	0.11042461
28	0xbe4cacc1	-0.19987775
29	0x3dfda116	0.1238424
30	0x3e8058eb	0.2506784
31	0xbcdb3e34	-0.02676306
32	0x3e207400	0.1566925
33	0xbcbeaf16	-0.023276847
34	0xbd41f5df	-0.04735362
35	0xbdd72582	-0.10505201
36	0x3e5c2bf4	0.21501142
37	0xbd46e810	-0.048561156
38	0x3d0da7bd	0.034583796
39	0x3e256ed1	0.16155554
40	0x3e388dc2	0.18022826
41	0x3d9744c9	0.073861666
42	0xbd701612	-0.058614798
43	0xbd59c381	-0.053164963
44	0x3d1cb237	0.038255896
45	0xbe23bdd6	-0.15990385
46	0xbe33b67e	-0.17550084
47	0x3e16fd5a	0.14745083
48	0xbc64ccf2	-0.013964878
49	0xbdd932fd	-0.10605428
50	0xbc790aba	-0.015200311
51	0xbcc37930	-0.023861498
52	0x3dfbae6f	0.1228913
53	0xbd9cb8a0	-0.07652402
54	0xbe1b85c9	-0.15187754
55	0xbdc33fea	-0.09533675
56	0x3e0877c6	0.1332694
57	0xbdf053f7	-0.11734765
58	0x3e6fd93f	0.23422717
59	0x3dad9608	0.08475882
60	0x3dc22bd7	0.09481018
61	0xbe4bd175	-0.1990412
62	0x3e29879d	0.16555639
63	0xbe953f9b	-0.2915009
64	0x3d9aaf43	0.0755296
65	0xbd9e5f53	-0.077330254
66	0xbe0a387c	-0.1349811
67	0xbce642e1	-0.028108062
68	0x3dc6f4e9	0.09714682
69	0xbc0a100b	-0.0084266765
70	0xbcb9c1cb	-0.022675416
71	0xbda310d7	-0.07962196
72	0x3da17b40	0.07884836
73	0xbe6fef8c	-0.23431224
74	0xbe11ca51	-0.14237334
75	0xbe53f30e	-0.20698187
76	0x3e94cccb	0.29062495
77	0x3e35ee42	0.1776667
78	0xbea0334d	-0.3128914
79	0x3eeb8c7d	0.46005622
80	0xbe67a466	-0.22621307
81	0x3d5a7dcf	0.053342637
82	0xbc1936da	-0.009351457
83	0x3d811d08	0.063043654
84	0xbdb17a3b	-0.08665892
85	0xbd931d2e	-0.071833
86	0xbe124dcf	-0.14287494
87	0x3d9a4299	0.07532234
88	0xbd38a863	-0.04508246
89	0x3d0bba24	0.034113064
90	0xbd8775ae	-0.066142425
91	0xbc3fb093	-0.011699813
92	0x3e89f06c	0.2694124
93	0x3d49059f	0.049077626
94	0xbcd34929	-0.025791721
95	0x3d5cfe1a	0.053953268
96	0x3e3e81bb	0.18604176
97	0xbe7123a7	-0.23548757
98	0x3e23baa8	0.15989172
99	0xbd09aacf	-0.03361016
100	0xbcdb257c	-0.026751272
101	0xbe264e09	-0.16240706
102	0xbe6d04a4	-0.23146302
103	0xbbf9e89e	-0.007626607
104	0x3e443d44	0.19163996
105	0x3dd4303c	0.103607625
106	0xbe2a649a	-0.16639939
107	0xbe1dfd45	-0.15428646
108	0x3d3bfd12	0.045895644
109	0xbc90fcc1	-0.017698647
110	0x3e4dbc34	0.20091325
111	0xbd2582f6	-0.040408097
112	0x3e42559d	0.18977971
113	0xbd745792	-0.059653826
114	0xbe799c1a	-0.24375954
115	0xbe20d02c	-0.15704411
116	0x3d1fb621	0.03899205
117	0xbe6ea1ae	-0.23303863
118	0x3c86a312	0.01643518
119	0x3d66acfd	0.05631732
120	0xbc892230	-0.016739935
121	0x3e54b45f	0.20771931
122	0xbe07491f	-0.13211487
123	0xbd2ec744	-0.042670503
124	0x3dd9ce49	0.10635049
125	0x3e60a3c0	0.21937466
126	0x3e1c4080	0.1525898
127	0x3d800bba	0.06252237
128	0x3cffb8a0	0.031215966
129	0xbdb2b0e3	-0.08725145
130	0x3e30bf26	0.17260417
131	0x3d76b4ae	0.060230903
132	0x3ea187df	0.31548974
133	0x3cfa2088	0.03053309
134	0x3de54804	0.111953765
135	0x3ce89e49	0.028395789
136	0xbd9d923e	-0.07693909
137	0x3c51ac50	0.01279743
138	0xbe1cc4cb	-0.15309446
139	0xbe1654a7	-0.1468073
140	0x3ddc5bc4	0.107596904
141	0xbe051cf8	-0.12999332
142	0xbdfd76bc	-0.123761624
143	0xbe17d094	-0.1482566
144	0xbe4ef348	-0.20209992
145	0x3e0e40c3	0.13891892
146	0x3bda18b1	0.0066557755
147	0xbdfe1ad9	-0.124074645
148	0x3e54f3c6	0.20796117
149	0xbd1f1d00	-0.038846016
150	0xbd8605d2	-0.06544079
151	0x3d501d8e	0.050809436
152	0x3dd80872	0.10548486
153	0xbe273054	-0.1632703
154	0x3d16087e	0.036629193
155	0xbd6424be	-0.055699103
156	0x3e5812db	0.21100943
157	0x3d96c21c	0.07361242
158	0x3cc7f922	0.024410788
159	0xbc47520e	-0.012165559
160	0xbdaf0941	-0.08546687
161	0x3dfacb84	0.12245849
162	0xbe648ac8	-0.22318566
163	0xbdbb284f	-0.09138548
164	0x3d054705	0.032538433
165	0xbccf7f99	-0.025329398
166	0xbe11f3c1	-0.14253141
167	0x3e01311a	0.12616387
168	0x3e0ecefb	0.13946144
169	0xbe0bcaef	-0.13651632
170	0x3da4e819	0.080520816
171	0xbe18712a	-0.14886919
172	0x3d7ead7f	0.062177178
173	0x3d5416ab	0.05177943
174	0x3d8c64d8	0.06855172
175	0xbe3b032e	-0.18262932
176	0xbe41a922	-0.18912175
177	0x3e3d1148	0.18463624
178	0xbe36f8ac	-0.17868298
179	0x3d1bf59c	0.03807603
180	0xbd18203a	-0.03714011
181	0x3d8e58d4	0.06950536
182	0x3df7ab63	0.12093236
183	0xbd327c05	-0.043575305
184	0xbe6c5ced	-0.23082323
185	0xbe2014a2	-0.15632871
186	0x3d3fcb8c	0.046824977
187	0xbda3b1b7	-0.07992881
188	0xbe340c8b	-0.1758291
189	0xbe506065	-0.20349272
190	0x3c7899fe	0.015173433
191	0xbdbbf005	-0.091766395
192	0x3e4e9c49	0.20176806
193	0x3ea61078	0.3243444
194	0xba6ee49f	-0.00091130467
195	0x3d9411bf	0.07229947
196	0xbe28a881	-0.16470529
197	0xbced67f6	-0.028980237
198	0x3e2f9ed9	0.1715044
199	0x3dee066c	0.116223186
200	0xbd3f83be	-0.0467565
201	0x3d207554	0.039174393
202	0xbde51e87	-0.11187463
203	0x3eb08c4c	0.34482038
204	0xbdfccd21	-0.12343813
205	0xbd8fc780	-0.070204735
206	0x3d2ead84	0.042645946
207	0xbc94aea8	-0.018149689
208	0x3e0a5219	0.1350788
209	0x3e258c99	0.16166915
210	0x3c19be6d	0.00938378
211	0x3bd8ec80	0.00661999
212	0xbdf94735	-0.12171785
213	0x3e085228	0.1331259
214	0x3d80d381	0.06290341
215	0xb9ccfdb2	-0.0003909893
216	0x3d8a4215	0.067508854
217	0xbe868a96	-0.26277608
218	0x3da458fb	0.08024784
219	0xbda4e7ba	-0.08052011
220	0xbe080246	-0.13282117
221	0xbc30c18d	-0.010788334
222	0xbddb5ee1	-0.10711456
223	0x3c347f5b	0.011016692
224	0x3c14ceb1	0.009082482
225	0xbdbb7d88	-0.091548026
226	0xbe82498e	-0.25446743
227	0xbb6c9ce8	-0.0036104266
228	0x3e79dd79	0.24400891
229	0xbe0438cb	-0.1291229
230	0x3e02ae18	0.12761724
231	0x3e36404c	0.17797965
232	0x3e13f4f9	0.14448918
233	0xbd03493f	-0.032052275
234	0xbafd5d6e	-0.0019330212
235	0xbd086282	-0.03329707
236	0xbde10ee5	-0.10989169
237	0xbcca5858	-0.024700329
238	0x3e0ca9d4	0.1373666
239	0xbe0804f6	-0.13283142
240	0xbe3fd105	-0.18732078
241	0x3d9f08bc	0.07765338
242	0xbcf7afd0	-0.030235201
243	0xbe24ae69	-0.16082157
244	0x3d9b9561	0.07596851
245	0x3c0884c0	0.008332431
246	0x3cb67674	0.02227328
247	0x3ccd4975	0.025059441
248	0xbe3fdaa8	-0.18735754
249	0xbe6bf176	-0.23041329
250	0xbe31048b	-0.1728689
251	0xbc31a1d5	-0.010841806
252	0xbc4605a5	-0.012086307
253	0xbdaccb98	-0.0843727
254	0xbd98cc26	-0.07460813
255	0xbd70d9b2	-0.05880136

network_body._body_endoder.seq_layers.0.bias f4 [128]
0	0x3c5fabea	0.013651827
1	0x3c0df5f8	0.008664601
2	0xbced5197	-0.02896957
3	0x3ad74357	0.0016423267
4	0xbc75d71a	-0.0150048975
5	0x3c859ef1	0.01631114
6	0xbbb782b9	-0.0056003
7	0x3bb9853b	0.0056616343
8	0x3ba43276	0.005010898
9	0xbb7ecc4f	-0.0038879102
10	0x3b7a26fd	0.0038170211
11	0x3c632d40	0.013865769
12	0xbbf5aaad	-0.007497153
13	0xbc51de96	-0.012809416
14	0xbc3c646d	-0.011498553
15	0x3c35a22a	0.011086026
16	0x3c35c9ec	0.011095505
17	0x3c4c1013	0.012455004
18	0x3c3f8e32	0.011691617
19	0xbb3eb736	-0.0029100901
20	0xbbfc4eff	-0.0076998468
21	0xbb24b9c4	-0.002513514
22	0x3c8676fe	0.016414162
23	0xbb861420	-0.0040917546
24	0x3a229576	0.0006202081
25	0x3c283e14	0.010268707
26	0xbbd62f12	-0.006536373
27	0x3c500436	0.0126963165
28	0x3b943701	0.0045231585
29	0xbb9385ae	-0.00450202
30	0xbb8fa48b	-0.0043836287
31	0xbc2e8a51	-0.010653094
32	0x3a75df21	0.0009379257
33	0xbc0ef6da	-0.008725846
34	0x3bfa5ec2	0.0076406905
35	0xbc6a81b2	-0.014313148
36	0x3a2adfd9	0.0006518341
37	0x3c5601af	0.013061925
38	0x3c3b3aa7	0.011427558
39	0xbb62d747	-0.0034613179
40	0x3b51cb7d	0.0032012158
41	0x3c91cbe8	0.017797425
42	0xbba2407a	-0.004951534
43	0x3c33e8d5	0.010980804
44	0xba5d613c	-0.000844497
45	0x3c883df0	0.016631097
46	0x3c87950d	0.016550565
47	0x3c39faf0	0.011351332
48	0xbbc5ca66	-0.0060360907
49	0xbc14d3af	-0.009083672
50	0x3cad834e	0.021180775
51	0x3bc91b40	0.0061372817
52	0xbbc7b5c1	-0.006094665
53	0xbb79d956	-0.0038123927
54	0x3c7c3567	0.0153935915
55	0x3c517492	0.01278414
56	0xbc10fd8f	-0.008849516
57	0x3b6c97e0	0.0036101267
58	0x3c4e6acc	0.012598705
59	0x3c2173b6	0.009854248
60	0x3c3d9625	0.011571442
61	0x3c3354e5	0.010945533
62	0x3bed0f23	0.0072344705
63	0xbc2da188	-0.010597594
64	0xbb5c7e5d	-0.0033644654
65	0x3bd761bd	0.0065729306
66	0x3c1a3cf5	0.009413947
67	0x3c0b23c4	0.008492414
68	0xbb489f55	-0.0030612547
69	0xbbdb4a70	-0.0066922233
70	0xbba2b8d3	-0.0049658804
71	0xbb81c844	-0.003960641
72	0x3b3edce9	0.0029123372
73	0xbb4dc8a6	-0.0031400113
74	0x3b14799a	0.0022655488
75	0x3c9ed335	0.01938782
76	0x3c3dcc07	0.011584288
77	0x3c719242	0.014744343
78	0x38b87798	8.79608e-05
79	0x3abfe6aa	0.0014640887
80	0xbbee26ec	-0.0072678234
81	0x3c88a08d	0.01667812
82	0x3b227e5d	0.0024794557
83	0xbba724f7	-0.005100842
84	0xbc3435c4	-0.010999147
85	0x3c2ee409	0.010674485
86	0x3c48eba8	0.012263216
87	0xba52bc06	-0.0008038882
88	0xbc5dc2ce	-0.013535215
89	0xba2f85c2	-0.00066956517
90	0x3bf6aa55	0.0075276294
91	0xbbcecac3	-0.006310792
92	0xbba0c23a	-0.004905966
93	0xbb8065cf	-0.0039183865
94	0xbbddb897	-0.0067663896
95	0x3c49af4b	0.0123098595
96	0x3c816d71	0.015799256
97	0x3b190d21	0.0023353773
98	0x3b5b297a	0.003344147
99	0xbb7b322f	-0.0038329472
100	0x3c4296c0	0.011876762
101	0x3c9da189	0.019242065
102	0x38e368f5	0.00010843753
103	0xba1b1a71	-0.0005916721
104	0xbc459ea9	-0.012061753
105	0x3bd91498	0.0066247694
106	0xbc3bc9f2	-0.011461722
107	0xbbc9b3d7	-0.006155472
108	0x3c2980bd	0.010345635
109	0x3a9e4432	0.0012074767
110	0xba39b77e	-0.00070845324
111	0x3c1bb79d	0.009504226
112	0x3bac09a2	0.0052501718
113	0x3bdb95ef	0.006701223
114	0x3b444e58	0.0029953923
115	0xbc17b57d	-0.009259579
116	0x3a3a7db7	0.000711407
117	0x3c5c11a9	0.013431945
118	0xba8987e3	-0.0010492768
119	0x3c052bfa	0.008128161
120	0xbb91c0cd	-0.0044480325
121	0x3bd9c3f0	0.006645672
122	0x3c0489f3	0.00808953
123	0xbc981b1c	-0.018567614
124	0x3bf2e680	0.0074127316
125	0x3c40f7a5	0.011777793
126	0xbc17ec70	-0.00927268
127	0x3c193cef	0.009352907

network_body._body_endoder.seq_layers.2.weight f4 [128, 128]
0	0xbe05494c	-0.13016242
1	0x3d773852	0.060356446
2	0xbd8343c5	-0.064094104
3	0x3e2fa322	0.17152074
4	0xbd8bc734	-0.06825104
5	0x3cc90aa9	0.024541216
6	0xbe1a491c	-0.15066952
7	0x3e1fef45	0.15618618
8	0x3dc4f99d	0.096179225
9	0x3c779f69	0.01511369
10	0x3c5dccc5	0.01353759
11	0xbdb38670	-0.08765876
12	0x3c98cea9	0.01865323
13	0xbdc48249	-0.095951624
14	0xbccbc9f8	-0.02487658
15	0xbe3dc6b8	-0.18532836
16	0x3e04a23c	0.12952513
17	0x3d8890c0	0.06668234
18	0xbce20225	-0.027588913
19	0x3d10f0e3	0.035385977
20	0xbd32b74e	-0.043631844
21	0x3d9572b6	0.0729727
22	0x3e71547b	0.23567383
23	0xbd3c3b69	-0.045955095
24	0xbda37e33	-0.07983055
25	0xbd176d36	-0.036969386
26	0x3dcb4dee	0.09926973
27	0x3de45b05	0.11150173
28	0xbdf8db2e	-0.1215118
29	0x3a567625	0.0008181057
30	0x3d8bb099	0.06820793
31	0x3e3656d8	0.17806566
32	0xbc6cb22e	-0.014446778
33	0xbd2d9f59	-0.042388294
34	0x3d46b7cb	0.048515122
35	0xbddefe3e	-0.108883366
36	0xbc896642	-0.016772393
37	0xbcba2b0b	-0.022725603
38	0x3e2a6758	0.16640985
39	0x3dcceefe	0.10006522
40	0x3d68000f	0.05664068
41	0xbc92e3f8	-0.01793097
42	0xbd53bc2a	-0.05169312
43	0x3d41637e	0.047214024
44	0xbd9a6bdd	-0.075401045
45	0xbd908a6c	-0.07057652
46	0x3df703cf	0.12061273
47	0xbcc6f10f	-0.024284868
48	0x3b2e6456	0.0026610098
49	0x3bf1e946	0.0073825447
50	0x3d9bc174	0.07605258
51	0x3d01c6b9	0.031683657
52	0xbb87f743	-0.004149349
53	0xbca41437	-0.02002917
54	0x3e1a6ec8	0.15081322
55	0x3d5b8fb2	0.053603835
56	0xbc619d2d	-0.013770384
57	0x3dc16b5d	0.09444306
58	0x3d81168d	0.06303129
59	0xbd4a8934	-0.049447253
60	0xbc0958f8	-0.008383028
61	0x3bf980d8	0.0076142363
62	0x3d10c1d1	0.035341088
63	0xbc57cc13	-0.013171214
64	0x3d99e35d	0.07514069
65	0xbde0a44f	-0.109688394
66	0xbd413d7e	-0.047177784
67	0xbd3b43fb	-0.045719128
68	0xbe1d5f66	-0.15368423
69	0xbddb4d02	-0.107080474
70	0xbdd1b22c	-0.10239062
71	0xbd19b7b0	-0.037528694
72	0x3ce64183	0.02810741
73	0xbe1b597a	-0.15170851
74	0x3da5f6e1	0.08103729
75	0xbc4ac852	-0.012376862
76	0x3e1a5cec	0.1507451
77	0x3de33072	0.110932246
78	0xbd00d6a2	-0.03145469
79	0xbe4fd1ae	-0.2029483
80	0xbdd6c27c	-0.10486314
81	0xbe10a1e3	-0.14124255
82	0xbcfc758d	-0.030817771
83	0x3d68ec90	0.05686623
84	0xbe206417	-0.15663181
85	0x3c90e5f1	0.01768777
86	0x3da932e9	0.082616635
87	0xbd070eaf	-0.032972988
88	0x3c11665e	0.008874504
89	0xbd1dff29	-0.038573418
90	0x3ce11d0a	0.027479667
91	0x3da202a3	0.07910659
92	0x3c144243	0.009049001
93	0xbccdd5dd	-0.025126392
94	0xbdd5d2ab	-0.10440572
95	0xbcf7b685	-0.0302384
96	0xbd4598f8	-0.048241585
97	0x3daafef5	0.083494104
98	0x3bdd2506	0.0067487983
99	0x3d6a289b	0.05716763
100	0x3c8f7fae	0.017516937
101	0x3ddfe9d4	0.10933271
102	0x3b3511a5	0.0027628925
103	0xbddcacfc	-0.10775182
104	0xbdb86d2f	-0.090052
105	0x3d853985	0.065051116
106	0xbbfa628a	-0.0076411413
107	0x3d4ee777	0.05051371
108	0x3d366e1f	0.044538613
109	0xbd25026c	-0.040285513
110	0x3e6d2287	0.23157702
111	0x3ce09e9b	0.027419379
112	0x3e56c1e1	0.20972396
113	0xbdb6eca7	-0.089318566
114	0x3b322ca6	0.0027187257
115	0x3d5cc2d7	0.05389675
116	0x3df28e8f	0.11843597
117	0x3dbd808a	0.092530325
118	0x3d87512a	0.06607278
119	0xbd19f01e	-0.03758251
120	0xbdb0a106	-0.08624463
121	0xbd4d9465	-0.05019035
122	0xbd5f7c80	-0.05456209
123	0x3df388e6	0.11891346
124	0x3da10622	0.07862498
125	0xbd819fc6	-0.063293025
126	0xbc935e63	-0.017989343
127	0x3e1b5b7d	0.15171619
128	0xbe39d797	-0.18148647
129	0xbd99fb2e	-0.07518612
130	0x3c37399f	0.0111831715
131	0x3d8f74c9	0.07004697
132	0x3d5f755b	0.05455528
133	0xbddf4a06	-0.10902791
134	0xbda0a1fe	-0.078433976
135	0x3c90428c	0.017609857
136	0xbca22665	-0.019793699
137	0x3d4e0c61	0.050304774
138	0xbe0f422e	-0.1399009
139	0xbd259322	-0.04042352
140	0x3dadbd06	0.08483319
141	0x3bcfe860	0.00634484
142	0xbde3ba3b	-0.11119505
143	0x3c86e77c	0.016467802
144	0x3cafd3ff	0.021463392
145	0x3d4230f7	0.047409978
146	0xbcc29b37	-0.023755653
147	0xbb7cf1b5	-0.0038596217
148	0xbc62c707	-0.013841397
149	0x3d473bfe	0.048641197
150	0x3d9404fd	0.07227514
151	0xbe0f075d	-0.13967653
152	0x3cffb430	0.03121385
153	0xbd11feaa	-0.035643257
154	0x3d2e93b0	0.042621315
155	0x3cb7e59d	0.022448355
156	0x3d2fcc4f	0.042919453
157	0xbdd590f9	-0.10428042
158	0xbe8b9458	-0.27261615
159	0xbda31db6	-0.07964651
160	0xbdcaec52	-0.09908356
161	0xbe259338	-0.16169441
162	0xbdce4b31	-0.100729354
163	0xbc087750	-0.008329228
164	0xbd2520ef	-0.04031461
165	0x3e0d0399	0.13770904
166	0xbdfbaf87	-0.122893386
167	0x3d4455e0	0.04793346
168	0x3d3de626	0.046362065
169	0xbc3ac5bc	-0.011399683
170	0xbdb9cbda	-0.09072085
171	0xbdc811b1	-0.09768999
172	0xbd37b590	-0.044850886
173	0xbd8e8183	-0.06958296
174	0xbcbcdfc2	-0.023055915
175	0x3e155c3b	0.14585964
176	0x3dbc28db	0.0918748
177	0xbda38962	-0.07985188
178	0x3dc3e830	0.095657706
179	0xbe0186dc	-0.12649101
180	0xbd17beb9	-0.03704712
181	0xbda54f5d	-0.08071778
182	0xbdb50be8	-0.088401616
183	0x3c2727c7	0.010202355
184	0xbdcab5ff	-0.09897994
185	0xbd2bc9b1	-0.041940395
186	0xbde04941	-0.10951472
187	0xbce22d3b	-0.027609458
188	0xbd4ee2ee	-0.050509386
189	0xbd517cca	-0.0511444
190	0xbdb63c63	-0.088982366
191	0x3e4acd47	0.1980487
192	0x3df51886	0.11967568
193	0xba33f911	-0.0006865422
194	0xbdbea63c	-0.093090504
195	0xbd856d60	-0.06515002
196	0x3e009698	0.12557447
197	0x3d7d771b	0.061881166
198	0xbd9ac1c8	-0.07556492
199	0x3dc36a8a	0.09541805
200	0xbd104647	-0.03522327
201	0x3ded2259	0.11578817
202	0x3cd01b50	0.025403649
203	0x3d9c65b1	0.076365836
204	0x3cb13249	0.021630423
205	0x3d8a2424	0.067451745
206	0x3de7d3f4	0.11319724
207	0xbd92b0f5	-0.07162658
208	0xbc9f9984	-0.019482382
209	0xbdbddfc1	-0.09271193
210	0xbd06f828	-0.032951504
211	0xbccf935f	-0.025338827
212	0x3d9716ea	0.073774174
213	0x3d49e288	0.049288303
214	0x3d2ba716	0.041907392
215	0x3d2ee5b9	0.04269955
216	0xbc0958d1	-0.008382992
217	0x3e17e4c3	0.1483336
218	0x3d56f17b	0.052476387
219	0x3d44cb11	0.04804522
220	0x3b2a8d92	0.0026024324
221	0x3d955dc1	0.07293273
222	0xbdc8ab58	-0.09798306
223	0xbdc06a38	-0.093952596
224	0xbc11de99	-0.008903169
225	0x3cc7ea5e	0.024403747
226	0xbd348b71	-0.044078294
227	0xbd076a3c	-0.033060297
228	0xbe06b012	-0.13153103
229	0x3cf2a91d	0.029621655
230	0x3bc6a537	0.0060621756
231	0x3d686706	0.056738876
232	0xbd55a4f7	-0.052159276
233	0x3c71470b	0.014726411
234	0x3db68a47	0.08913093
235	0x3d84c0e6	0.06482105
236	0x3d1b0947	0.037850644
237	0x3de7c986	0.113177344
238	0x3d135378	0.035968274
239	0x3b7c4805	0.0038495075
240	0x3d6b439a	0.057437517
241	0xbe083b22	-0.13303807
242	0x3e4aef43	0.19817834
243	0xbdd9ca45	-0.10634283
244	0xbb9a8e2b	-0.004716655
245	0xbdf1c1f3	-0.11804571
246	0xbcafa6cc	-0.02144184
247	0xbe166bb5	-0.14689524
248	0x3c2e986f	0.01065646
249	0x3df6dfbc	0.12054393
250	0x3dc7db99	0.09758682
251	0xbd73de40	-0.059538126
252	0xbb97cedd	-0.0046328143
253	0xbd870c27	-0.06594115
254	0x3deca2ec	0.115545124
255	0xbd16e6b0	-0.036841094

network_body._body_endoder.seq_layers.2.bias f4 [128]
0	0x3c438d55	0.011935552
1	0xbb1c2934	-0.002382827
2	0xbc28fa7e	-0.010313628
3	0xbc0a915a	-0.008457506
4	0xbb9d9b00	-0.004809737
5	0xbacb4ae6	-0.0015509992
6	0x3c5f2e0c	0.013621818
7	0xbbd18c7b	-0.0063949204
8	0x3bd159d2	0.0063888812
9	0x3c30029e	0.0107428115
10	0x3aa295ba	0.0012404241
11	0x3b857cf4	0.0040737335
12	0x3bc3001c	0.005950941
13	0x3c0f7de9	0.008758047
14	0xbb85cbb7	-0.0040831226
15	0xba574432	-0.0008211761
16	0x3c197393	0.009365934
17	0x3bd583ac	0.0065159407
18	0xbb8aef1e	-0.004239931
19	0xbc89e5f2	-0.01683328
20	0x3bbfcc0a	0.005853181
21	0xbace73c9	-0.0015751059
22	0x3c416fcd	0.011806441
23	0xbc5b71a5	-0.013393794
24	0xbb09aeeb	-0.00210088
25	0xbc4e1e51	-0.01258047
26	0x3ae1c64c	0.0017225235
27	0x3a37a62e	0.00070056587
28	0x3c30f436	0.010800412
29	0x3c3c8910	0.011507288
30	0xbc196bd2	-0.009364085
31	0x3c0621dd	0.008186785
32	0xbb1c3d68	-0.0023840312
33	0xbc1012c0	-0.008793533
34	0x3c85001e	0.016235407
35	0x3c54b88a	0.012983451
36	0x3c144896	0.009050509
37	0xbb8d5be7	-0.004313934
38	0x3c774af2	0.015093552
39	0x3c29f3f6	0.010373106
40	0xbb5a668d	-0.0033325285
41	0x3b8693b2	0.004106962
42	0xbbb8e16b	-0.0056421063
43	0xbb7fa6cb	-0.0039009328
44	0x3c3453dd	0.011006323
45	0xbc2b7a23	-0.010466131
46	0xba50126d	-0.0007937316
47	0xbc0f34ed	-0.008740646
48	0x3c80f324	0.015740938
49	0xbb01766c	-0.0019754423
50	0x3c416649	0.011804172
51	0x3c4152dd	0.011799541
52	0x3b998ac8	0.0046857335
53	0xbc95eda6	-0.018301796
54	0xbc81edbf	-0.015860436
55	0xb98b475a	-0.00026565307
56	0xbbbfdd11	-0.0058552106
57	0xbc87aacb	-0.016560933
58	0xbbd6a037	-0.006549861
59	0x3c79817d	0.015228626
60	0xbc05444f	-0.008133962
61	0xbb271cac	-0.0025499268
62	0xb91cfb5b	-0.00014970957
63	0xbc2ae33e	-0.010430155
64	0xbc19e0a6	-0.009391939
65	0x3c569873	0.01309787
66	0x3c3d105e	0.011539547
67	0x3c8de1aa	0.01731952
68	0x3ac5c5cc	0.0015088855
69	0x3c34e5cc	0.011041116
70	0xbc1eb53e	-0.009686766
71	0xbb9b43d2	-0.0047383094
72	0x3c2e70a7	0.010646976
73	0x3b99b1ab	0.004690369
74	0x371ffb34	9.535626e-06
75	0x39693025	0.00022238547
76	0xbc56f131	-0.013119028
77	0x3b1d6264	0.0024014944
78	0x3c21f156	0.009884199
79	0x3c464b21	0.012102873
80	0xba7c7f12	-0.0009631972
81	0x3b7202a5	0.0036927846
82	0x3c562dd9	0.013072454
83	0x3c345b67	0.01100812
84	0xbc401135	-0.0117228525
85	0xbc0c3461	-0.00855741
86	0x3cbe6383	0.02324081
87	0xbbdd8c14	-0.0067610834
88	0xbaa4e593	-0.0012580625
89	0xbbd044c2	-0.006355853
90	0xbb98acc7	-0.0046592685
91	0x3c1b7e54	0.009490568
92	0xbbb11df5	-0.0054051825
93	0xbc1cffcd	-0.009582472
94	0xba851fb8	-0.0010156548
95	0x3bc77f6b	0.0060881875
96	0xbb8b1884	-0.004244866
97	0x3c4f726a	0.012661556
98	0xbc114d4f	-0.008868529
99	0xbb8938fe	-0.004187702
100	0x3b90e08f	0.0044213007
101	0xbc620a8a	-0.013796458
102	0x3b25a316	0.0025274209
103	0x3c111675	0.008855452
104	0x3b03eb89	0.0020129404
105	0x3b7fecf8	0.0039051156
106	0x3ae4d021	0.0017457047
107	0xbbe801b8	-0.007080283
108	0xbb08335c	-0.0020782566
109	0x3c43e013	0.011955279
110	0x3a91ca33	0.0011122882
111	0xbb8024cd	-0.003910637
112	0xba3571b3	-0.00069215446
113	0x3c0f91dc	0.008762803
114	0x3ae869a1	0.0017731675
115	0xbc938e29	-0.018012123
116	0xbbc19441	-0.005907566
117	0x3c29031a	0.010315681
118	0x3c3b3caa	0.011428038
119	0x3bce2618	0.006291162
120	0x3c24c72e	0.010057254
121	0xbc57ec57	-0.013178906
122	0x3c24f782	0.010068776
123	0xbca0f0a2	-0.019645993
124	0x3b006894	0.0019593583
125	0x3c3d8474	0.011567224
126	0xbb9153d1	-0.0044350405
127	0x3c222582	0.009896638

action_model._discrete_distribution.branches.0.weight f4 [2, 128]
0	0xbcc930bb	-0.02455937
1	0x3b5e63c6	0.0033933981
2	0x3cc9db8b	0.024640819
3	0x3c3479bf	0.011015355
4	0x3bdfe723	0.0068329736
5	0x3c0f4487	0.008744366
6	0xbce34af9	-0.02774571
7	0x3c51ae7d	0.012797949
8	0x3b704c82	0.0036666696
9	0xbd03ea7f	-0.032206055
10	0xba8a0fe1	-0.0010533297
11	0x3c6a1041	0.014286102
12	0xbb91a9dc	-0.0044452976
13	0xbb368c17	-0.0027854496
14	0x3c51743d	0.012784061
15	0x3c3090b7	0.01077669
16	0xbb59bd67	-0.0033224465
17	0xbbedbbb8	-0.007255044
18	0x3bb51a33	0.005526805
19	0x3aec660c	0.0018035783
20	0xbca04074	-0.019561984
21	0x39eb49e3	0.00044877743
22	0xbbc2fa89	-0.0059502763
23	0x3c47a483	0.012185219
24	0x3b2a49eb	0.0025984
25	0x3c24bdca	0.010055015
26	0x3bb00629	0.005371828
27	0xba91bcca	-0.0011118886
28	0xbccbea4e	-0.024891999
29	0xbb967d12	-0.0045925463
30	0xbba4d5ad	-0.005030355
31	0xbc7bfcd8	-0.015380107
32	0xbbcaa506	-0.006184223
33	0x3c81cd00	0.015844822
34	0xbbbb0993	-0.0057079284
35	0xbcd6df0e	-0.026229408
36	0xbca03372	-0.019555781
37	0x3ba30cbb	0.004975883
38	0xbcbac453	-0.022798693
39	0xbd089c9b	-0.033352476
40	0x3b964ca2	0.004586772
41	0xbc0b2afd	-0.008494136
42	0x3c381968	0.011236526
43	0x3c03f28e	0.008053435
44	0xbc734bda	-0.014849627
45	0x3c07abc0	0.0082806945
46	0xbbc5477c	-0.0060204845
47	0x3b101167	0.002198303
48	0x3b406075	0.0029354368
49	0xbc20cd33	-0.009814548
50	0xbc9973ba	-0.01873194
51	0xbc8e18ae	-0.017345753
52	0xbb69b598	-0.0035661217
53	0x3c2fe4a0	0.010735661
54	0x3c835d05	0.016035566
55	0x3a47a1a5	0.00076153345
56	0x3c671c22	0.0141058285
57	0x3bbb28e8	0.0057116635
58	0x3bdc5083	0.006723465
59	0xbc1f9cfb	-0.009742017
60	0x3c0ffa47	0.008787698
61	0x3b7f28e3	0.0038934282
62	0xba67ea8d	-0.00088469015
63	0x3c9e0f3e	0.019294377
64	0x3b9827fe	0.0046434393
65	0x3bb568e0	0.0055361837
66	0xbbbee055	-0.0058250823
67	0xbc98c199	-0.018647002
68	0x3c504c22	0.012713464
69	0xbceb9ff1	-0.02876279
70	0x3bf89e22	0.0075872103
71	0xbb0d439f	-0.0021555198
72	0xbc24439d	-0.010025886
73	0xbc4d4f0c	-0.012531053
74	0x3b2475b9	0.0025094582
75	0x3b1a2b6e	0.0023524421
76	0x3c11a4ab	0.008889358
77	0xbb4c5b21	-0.0031182247
78	0xbcb14aef	-0.021642176
79	0xbc8604b9	-0.016359674
80	0x3c339678	0.0109611675
81	0x3b465baf	0.003026705
82	0xbc1d1d31	-0.009589479
83	0xbc622282	-0.013802173
84	0x3c46edc6	0.012141651
85	0xbb0ab19a	-0.0021162988
86	0xbb6c5132	-0.0036059138
87	0x3bed83d2	0.00724838
88	0x3be904df	0.0071111764
89	0xbaf75d1c	-0.0018872353
90	0x3bb4d7f2	0.0055189067
91	0xbc36f50e	-0.011166824
92	0x3b38d38d	0.0028202266
93	0x3c8ef291	0.017449649
94	0x3c40bea7	0.011764205
95	0xbc5e410c	-0.013565313
96	0x3bb73b5c	0.005591793
97	0xbb5391db	-0.0032282982
98	0xba9a1a2e	-0.001175707
99	0x3bbd48c8	0.0057764985
100	0x3c1597db	0.009130443
101	0x3c8b5997	0.017010493
102	0x3ca6dcff	0.020369051
103	0xbc205457	-0.009785733
104	0x3a1f6e29	0.0006081784
105	0x3a26b1f5	0.0006358915
106	0x3bc5f4f7	0.006041165
107	0x3c659cb4	0.014014412
108	0x3bc9ee6f	0.0061624567
109	0xbc156087	-0.009117252
110	0x3a3c0dd2	0.000717369
111	0x3cc8127a	0.024422873
112	0xbb885551	-0.004160561
113	0xbca3ed86	-0.020010721
114	0x3bbd37d0	0.0057744756
115	0x3ac15dc9	0.0014752682
116	0x3c8fdf81	0.01756263
117	0xbc811ed7	-0.015761776
118	0xbbe048c6	-0.006844613
119	0xbc9c9e91	-0.01911858
120	0xbccecc9d	-0.025244052
121	0x3c6d3627	0.014478243
122	0xbc95b856	-0.018276375
123	0x3c07f1db	0.008297409
124	0xbb635b5e	-0.003469191
125	0xbc063b95	-0.008192916
126	0x3c059f21	0.008155615
127	0xbccaecf9	-0.0247712
128	0x3cbc8fb4	0.023017742
129	0xbc3ff8a6	-0.011716997
130	0xbb39afeb	-0.0028333615
131	0xbc6aaf1c	-0.014323976
132	0xbbde38a3	-0.006781654
133	0xbc6d912c	-0.014499944
134	0x3c186895	0.009302278
135	0x3c047ad5	0.008085926
136	0x3c71ef09	0.014766463
137	0x3ca6d694	0.02036599
138	0xbb768cf0	-0.0037620626
139	0x3bc595e2	0.0060298303
140	0x3c4b9147	0.012424774
141	0x3cc04566	0.023470592
142	0xbba491c8	-0.0050222613
143	0xbc1be2b0	-0.009514496
144	0x3ce2f8ff	0.027706621
145	0x3aafb8f3	0.001340656
146	0x3c488015	0.012237568
147	0xbc6e8f53	-0.014560538
148	0xbb7b26aa	-0.0038322606
149	0x3bb11e79	0.005405244
150	0x3ca35c6b	0.01994153
151	0xbaa9f9d7	-0.0012968135
152	0xbca0bf5d	-0.0196225
153	0xba390ad0	-0.0007058801
154	0x3bf25fe5	0.0073966854
155	0xbbffb6ea	-0.0078037875
156	0x3cba75ee	0.022761311
157	0x3ca7f79e	0.020503815
158	0xbc556042	-0.013023438
159	0x3c08c9e7	0.0083489185
160	0x3a4b6ece	0.00077603466
161	0xbc578679	-0.013154619
162	0x3c116814	0.008874912
163	0x3cba0753	0.02270857
164	0x3c1d2f19	0.0095937485
165	0xbb9c9174	-0.0047780816
166	0x3ca117c6	0.019664656
167	0x3ba3cd09	0.0049988073
168	0xb965cc53	-0.00021915259
169	0x3c032185	0.008003597
170	0xbaa29232	-0.0012403189
171	0xbb9e5b87	-0.0048326883
172	0x3c792253	0.015205937
173	0xbc3924a1	-0.011300237
174	0xbb586fbd	-0.0033025586
175	0xbc35e11f	-0.011101036
176	0x3c44d324	0.0120132305
177	0xbbb0414c	-0.0053788777
178	0x3c5164ad	0.012780351
179	0x3d08c8cc	0.03339462
180	0x3ab752ae	0.0013986432
181	0xbcd8ae60	-0.026450336
182	0x3bb35a31	0.005473398
183	0xbc31516f	-0.010822638
184	0xbbd441fe	-0.0064775934
185	0xbbd07f19	-0.0063628075
186	0xbcbe1b0c	-0.023206256
187	0x3c833932	0.016018484
188	0xbc43b383	-0.011944654
189	0xbc6812e4	-0.01416466
190	0xba6c7253	-0.0009019721
191	0x3b71baed	0.0036885098
192	0xbc6c2d68	-0.014415123
193	0x3bdc9f8d	0.006732887
194	0x3ca2efe5	0.019889781
195	0x3bd4828a	0.006485288
196	0x3b0e5dab	0.002172331
197	0x3cd7ca33	0.026341533
198	0xbca7e90a	-0.020496864
199	0xbabc216b	-0.0014353221
200	0x3ceda311	0.02900842
201	0x3bf95040	0.0076084435
202	0xbae98a25	-0.001781766
203	0x3c15005a	0.009094322
204	0xbbba83be	-0.0056919744
205	0x3c1ace03	0.009448531
206	0x3c990c3d	0.018682593
207	0x3c432421	0.011910469
208	0x3c235caf	0.009970828
209	0x3c48c3d1	0.0122537175
210	0x3c95518f	0.018227367
211	0x3c384bb9	0.011248522
212	0xbc67e30d	-0.014153254
213	0xbc5e1294	-0.013554234
214	0x3c2f64ae	0.010705156
215	0xbc4f7008	-0.012660988
216	0xbbb01784	-0.005373897
217	0x3a3a76d2	0.00071130425
218	0x39ee3adb	0.00045438748
219	0x3bb24469	0.005440284
220	0xbc9a877e	-0.018863436
221	0xbb4eab30	-0.0031535141
222	0xbc9dc3a0	-0.01925832
223	0xbc2fbdd2	-0.010726409
224	0x3bb431cc	0.0054991003
225	0x3bab3e64	0.0052259434
226	0xbbaf5e81	-0.005351842
227	0xba4279e3	-0.0007418675
228	0x3c2a4b1c	0.010393884
229	0x3b45a33d	0.0030157112
230	0x3c3ac2de	0.011398999
231	0x3c730ba5	0.014834319
232	0xbbfc2951	-0.007695355
233	0x3b35e54a	0.0027755075
234	0x38bc2e54	8.973168e-05
235	0xbc575ae7	-0.013144231
236	0x3943c920	0.00018671574
237	0x3c8b17dd	0.016979152
238	0x3b91fb1a	0.0044549825
239	0xbcb066cd	-0.021533394
240	0x3b6c2a6f	0.0036036035
241	0x3beac940	0.007165104
242	0xbc12fd7f	-0.008971571
243	0xbc019ba4	-0.007910643
244	0xbc799d45	-0.01523525
245	0x3be4112f	0.0069600563
246	0x3cc8354d	0.024439478
247	0xbba1480c	-0.0049219187
248	0x3c8a73dd	0.016900951
249	0x3b8d141a	0.004305375
250	0x3d0db1e0	0.034593463
251	0xbb8dbfba	-0.004325834
252	0x3b4d8b73	0.0031363636
253	0x3cf0b054	0.029380955
254	0x3bfba211	0.007679232
255	0x3cca70fe	0.024712082

action_model._discrete_distribution.branches.0.bias f4 [2]
0	0xbc0313b9	-0.008000308
1	0x3c0313bd	0.008000311

exp_avg f4 [128, 56]
0	0x00000000	0.0
1	0x3a0830dd	0.00051952695
2	0x3a03bac1	0.0005025082
3	0x00000000	0.0
4	0x80000004	-6e-45
5	0x36aa5245	5.0759722e-06
6	0x00000000	0.0
7	0x38f87467	0.00011847243
8	0x38fbf6cc	0.00012014582
9	0x00000000	0.0
10	0x00000004	6e-45
11	0x3642c028	2.9020102e-06
12	0x00000000	0.0
13	0x3950d5e3	0.00019916105
14	0x3950d5e3	0.00019916105
15	0x00000000	0.0
16	0x00000000	0.0
17	0x36050995	1.9824122e-06
18	0x00000000	0.0
19	0x3950d5e3	0.00019916105
20	0x3950d5e3	0.00019916105
21	0x00000000	0.0
22	0x00000000	0.0
23	0x35ce91a2	1.5390581e-06
24	0x00000000	0.0
25	0x3950d5e3	0.00019916105
26	0x3950d5e3	0.00019916105
27	0x00000000	0.0
28	0x00000000	0.0
29	0x35ace2c0	1.2880992e-06
30	0x00000000	0.0
31	0x3950d5e3	0.00019916105
32	0x3950d5e3	0.00019916105
33	0x00000000	0.0
34	0x00000000	0.0
35	0x35986c5a	1.1356417e-06
36	0x00000000	0.0
37	0x3950d5e3	0.00019916105
38	0x3950d5e3	0.00019916105
39	0x00000000	0.0
40	0x00000000	0.0
41	0x358be584	1.0423105e-06
42	0x00000000	0.0
43	0x3950d5e3	0.00019916105
44	0x3950d5e3	0.00019916105
45	0x00000000	0.0
46	0x00000000	0.0
47	0x3584cef8	9.895002e-07
48	0x00000000	0.0
49	0x3950d5e3	0.00019916105
50	0x3950d5e3	0.00019916105
51	0xba9ca063	-0.0011949654
52	0x3953f4d4	0.00020213734
53	0x00000000	0.0
54	0x00000000	0.0
55	0x80000004	-6e-45
56	0x00000000	0.0
57	0x3a034092	0.0005006875
58	0x39fe4a1a	0.00048501865
59	0x00000000	0.0
60	0x80000004	-6e-45
61	0x36af1fbf	5.219102e-06
62	0x00000000	0.0
63	0x38ffd04b	0.00012198145
64	0x3901b4b0	0.0001236971
65	0x00000000	0.0
66	0x80000004	-6e-45
67	0x36482da6	2.9828893e-06
68	0x00000000	0.0
69	0x3956a775	0.00020471013
70	0x3956a775	0.00020471013
71	0x00000000	0.0
72	0x00000000	0.0
73	0x3608becd	2.037664e-06
74	0x00000000	0.0
75	0x3956a775	0.00020471013
76	0x3956a775	0.00020471013
77	0x00000000	0.0
78	0x00000000	0.0
79	0x35d45379	1.5819525e-06
80	0x00000000	0.0
81	0x3956a775	0.00020471013
82	0x3956a775	0.00020471013
83	0x00000000	0.0
84	0x00000000	0.0
85	0x35b1b439	1.3239979e-06
86	0x00000000	0.0
87	0x3956a775	0.00020471013
88	0x3956a775	0.00020471013
89	0x00000000	0.0
90	0x00000000	0.0
91	0x359cabe4	1.1672932e-06
92	0x00000000	0.0
93	0x3956a775	0.00020471013
94	0x3956a775	0.00020471013
95	0x00000000	0.0
96	0x00000000	0.0
97	0x358fcbaa	1.0713604e-06
98	0x00000000	0.0
99	0x3956a775	0.00020471013
100	0x3956a775	0.00020471013
101	0x00000000	0.0
102	0x00000000	0.0
103	0x3588828f	1.0170787e-06
104	0x00000000	0.0
105	0x3956a775	0.00020471013
106	0x3956a775	0.00020471013
107	0xbaa0fd99	-0.0012282609
108	0x3959dce9	0.00020777028
109	0x00000000	0.0
110	0x00000000	0.0
111	0x80000004	-6e-45
112	0x00000000	0.0
113	0xb8898c75	-6.558831e-05
114	0xb880307a	-6.112545e-05
115	0x00000000	0.0
116	0x80000004	-6e-45
117	0x3477648f	2.304025e-07
118	0x00000000	0.0
119	0x37939de4	1.759729e-05
120	0x37914ef4	1.7322112e-05
121	0x00000000	0.0
122	0x80000004	-6e-45
123	0x338790aa	6.3127416e-08
124	0x00000000	0.0
125	0x36914265	4.329066e-06
126	0x36914265	4.329066e-06
127	0x00000000	0.0
128	0x00000000	0.0
129	0x333936b1	4.312341e-08
130	0x00000000	0.0
131	0x36914265	4.329066e-06
132	0x36914265	4.329066e-06
133	0x00000000	0.0
134	0x00000000	0.0
135	0x330fcab7	3.347915e-08
136	0x00000000	0.0
137	0x36914265	4.329066e-06
138	0x36914265	4.329066e-06
139	0x00000000	0.0
140	0x00000000	0.0
141	0x32f0b0f1	2.802014e-08
142	0x00000000	0.0
143	0x36914265	4.329066e-06
144	0x36914265	4.329066e-06
145	0x00000000	0.0
146	0x00000000	0.0
147	0x32d433a8	2.4703539e-08
148	0x00000000	0.0
149	0x36914265	4.329066e-06
150	0x36914265	4.329066e-06
151	0x00000000	0.0
152	0x00000000	0.0
153	0x32c2c31e	2.2673301e-08
154	0x00000000	0.0
155	0x36914265	4.329066e-06
156	0x36914265	4.329066e-06
157	0x00000000	0.0
158	0x00000000	0.0
159	0x32b8e536	2.1524652e-08
160	0x00000000	0.0
161	0x36914265	4.329066e-06
162	0x36914265	4.329066e-06
163	0xb7d9e411	-2.5974618e-05
164	0x36937cbd	4.395463e-06
165	0x00000000	0.0
166	0x00000000	0.0
167	0x80000004	-6e-45
168	0x00000000	0.0
169	0x37cd4c5e	2.4473466e-05
170	0x37c5e834	2.3592358e-05
171	0x00000000	0.0
172	0x80000004	-6e-45
173	0x344efda9	1.9277526e-07
174	0x00000000	0.0
175	0x36049c66	1.9760569e-06
176	0x360dbda1	2.1121016e-06
177	0x00000000	0.0
178	0x80000004	-6e-45
179	0x34058bad	1.2437404e-07
180	0x00000000	0.0
181	0x370f3498	8.53571e-06
182	0x370f3498	8.53571e-06
183	0x00000000	0.0
184	0x00000000	0.0
185	0x33b67468	8.4962096e-08
186	0x00000000	0.0
187	0x370f3498	8.53571e-06
188	0x370f3498	8.53571e-06
189	0x00000000	0.0
190	0x00000000	0.0
191	0x338da65c	6.596085e-08
192	0x00000000	0.0
193	0x370f3498	8.53571e-06
194	0x370f3498	8.53571e-06
195	0x00000000	0.0
196	0x00000000	0.0
197	0x336d1ac4	5.5205206e-08
198	0x00000000	0.0
199	0x370f3498	8.53571e-06
200	0x370f3498	8.53571e-06
201	0x00000000	0.0
202	0x00000000	0.0
203	0x33510a9d	4.8671257e-08
204	0x00000000	0.0
205	0x370f3498	8.53571e-06
206	0x370f3498	8.53571e-06
207	0x00000000	0.0
208	0x00000000	0.0
209	0x333fdc89	4.467123e-08
210	0x00000000	0.0
211	0x370f3498	8.53571e-06
212	0x370f3498	8.53571e-06
213	0x00000000	0.0
214	0x00000000	0.0
215	0x333623fe	4.2407912e-08
216	0x00000000	0.0
217	0x370f3498	8.53571e-06
218	0x370f3498	8.53571e-06
219	0xb856ceee	-5.1214294e-05
220	0x3711583f	8.66322e-06
221	0x00000000	0.0
222	0x00000000	0.0
223	0x80000004	-6e-45
224	0x00000000	0.0
225	0xb82f0c1f	-4.173454e-05
226	0xb8248dc0	-3.9232662e-05
227	0x00000000	0.0
228	0x00000004	6e-45
229	0x34831163	2.4413302e-07
230	0x00000000	0.0
231	0x375ea51f	1.3270676e-05
232	0x375c5832	1.3133556e-05
233	0x00000000	0.0
234	0x80000004	-6e-45
235	0x33d0706f	9.706206e-08
236	0x00000000	0.0
237	0x36df6e68	6.658771e-06
238	0x36df6e68	6.658771e-06
239	0x00000000	0.0
240	0x00000000	0.0
241	0x338e6361	6.630467e-08
242	0x00000000	0.0
243	0x36df6e68	6.658771e-06
244	0x36df6e68	6.658771e-06
245	0x00000000	0.0
246	0x00000000	0.0
247	0x335d1678	5.1476007e-08
248	0x00000000	0.0
249	0x36df6e68	6.658771e-06
250	0x36df6e68	6.658771e-06
251	0x00000000	0.0
252	0x00000000	0.0
253	0x33390985	4.3082327e-08
254	0x00000000	0.0
255	0x36df6e68	6.658771e-06

exp_avg_sq f4 [128, 56]
0	0x00000000	0.0
1	0x354bfcaa	7.599107e-07
2	0x355c8510	8.215002e-07
3	0x00000000	0.0
4	0x31418f09	2.8166502e-09
5	0x3284d277	1.546253e-08
6	0x00000000	0.0
7	0x36a23096	4.8336324e-06
8	0x36a22dd0	4.8333095e-06
9	0x00000000	0.0
10	0x3098b554	1.1110992e-09
11	0x319fa953	4.646759e-09
12	0x00000000	0.0
13	0x36a62d83	4.952484e-06
14	0x36a62d83	4.952484e-06
15	0x00000000	0.0
16	0x00000000	0.0
17	0x30ec8a08	1.7210491e-09
18	0x00000000	0.0
19	0x36a62d83	4.952484e-06
20	0x36a62d83	4.952484e-06
21	0x00000000	0.0
22	0x00000000	0.0
23	0x308f96ef	1.0447517e-09
24	0x00000000	0.0
25	0x36a62d83	4.952484e-06
26	0x36a62d83	4.952484e-06
27	0x00000000	0.0
28	0x00000000	0.0
29	0x304a8546	7.3676565e-10
30	0x00000000	0.0
31	0x36a62d83	4.952484e-06
32	0x36a62d83	4.952484e-06
33	0x00000000	0.0
34	0x00000000	0.0
35	0x301ba258	5.6619376e-10
36	0x00000000	0.0
37	0x36a62d83	4.952484e-06
38	0x36a62d83	4.952484e-06
39	0x00000000	0.0
40	0x00000000	0.0
41	0x2ffbd9b6	4.5811327e-10
42	0x00000000	0.0
43	0x36a62d83	4.952484e-06
44	0x36a62d83	4.952484e-06
45	0x00000000	0.0
46	0x00000000	0.0
47	0x2fe3e172	4.1451248e-10
48	0x00000000	0.0
49	0x36a62d83	4.952484e-06
50	0x36a62d83	4.952484e-06
51	0x393af332	0.0001782894
52	0x371e9dd5	9.454282e-06
53	0x00000000	0.0
54	0x00000000	0.0
55	0x37600982	1.3353654e-05
56	0x00000000	0.0
57	0x3511f713	5.437625e-07
58	0x35213e1b	6.006755e-07
59	0x00000000	0.0
60	0x30a04854	1.1662089e-09
61	0x3227924c	9.753943e-09
62	0x00000000	0.0
63	0x368d8ee3	4.2187617e-06
64	0x368d8d08	4.2185457e-06
65	0x00000000	0.0
66	0x2ff8f0d3	4.5282053e-10
67	0x31424cdf	2.8274412e-09
68	0x00000000	0.0
69	0x369287df	4.3669565e-06
70	0x369287df	4.3669565e-06
71	0x00000000	0.0
72	0x00000000	0.0
73	0x309ac68d	1.1261406e-09
74	0x00000000	0.0
75	0x369287df	4.3669565e-06
76	0x369287df	4.3669565e-06
77	0x00000000	0.0
78	0x00000000	0.0
79	0x3039e4a4	6.7627526e-10
80	0x00000000	0.0
81	0x369287df	4.3669565e-06
82	0x369287df	4.3669565e-06
83	0x00000000	0.0
84	0x00000000	0.0
85	0x3003b851	4.791945e-10
86	0x00000000	0.0
87	0x369287df	4.3669565e-06
88	0x369287df	4.3669565e-06
89	0x00000000	0.0
90	0x00000000	0.0
91	0x2fcaf8fc	3.69205e-10
92	0x00000000	0.0
93	0x369287df	4.3669565e-06
94	0x369287df	4.3669565e-06
95	0x00000000	0.0
96	0x00000000	0.0
97	0x2fa464de	2.9903097e-10
98	0x00000000	0.0
99	0x369287df	4.3669565e-06
100	0x369287df	4.3669565e-06
101	0x00000000	0.0
102	0x00000000	0.0
103	0x2f947e67	2.7010857e-10
104	0x00000000	0.0
105	0x369287df	4.3669565e-06
106	0x369287df	4.3669565e-06
107	0x3924d8d9	0.00015721041
108	0x36e91a99	6.9470375e-06
109	0x00000000	0.0
110	0x00000000	0.0
111	0x36c8511e	5.9699078e-06
112	0x00000000	0.0
113	0x338ad7f6	6.465409e-08
114	0x339565f1	6.956896e-08
115	0x00000000	0.0
116	0x2fb22b61	3.2408834e-10
117	0x30a715a7	1.2157003e-09
118	0x00000000	0.0
119	0x34f91371	4.639401e-07
120	0x34f9122f	4.6393095e-07
121	0x00000000	0.0
122	0x2ed538a6	9.6961814e-11
123	0x2fc872c2	3.6461328e-10
124	0x00000000	0.0
125	0x34fcb07b	4.7067064e-07
126	0x34fcb07b	4.7067064e-07
127	0x00000000	0.0
128	0x00000000	0.0
129	0x2f06230a	1.2199677e-10
130	0x00000000	0.0
131	0x34fcb07b	4.7067064e-07
132	0x34fcb07b	4.7067064e-07
133	0x00000000	0.0
134	0x00000000	0.0
135	0x2ea409fc	7.45963e-11
136	0x00000000	0.0
137	0x34fcb07b	4.7067064e-07
138	0x34fcb07b	4.7067064e-07
139	0x00000000	0.0
140	0x00000000	0.0
141	0x2e66d98e	5.2489173e-11
142	0x00000000	0.0
143	0x34fcb07b	4.7067064e-07
144	0x34fcb07b	4.7067064e-07
145	0x00000000	0.0
146	0x00000000	0.0
147	0x2e328758	4.0592724e-11
148	0x00000000	0.0
149	0x34fcb07b	4.7067064e-07
150	0x34fcb07b	4.7067064e-07
151	0x00000000	0.0
152	0x00000000	0.0
153	0x2e11b79e	3.3132268e-11
154	0x00000000	0.0
155	0x34fcb07b	4.7067064e-07
156	0x34fcb07b	4.7067064e-07
157	0x00000000	0.0
158	0x00000000	0.0
159	0x2e041c80	3.0038638e-11
160	0x00000000	0.0
161	0x34fcb07b	4.7067064e-07
162	0x34fcb07b	4.7067064e-07
163	0x378e2350	1.6944163e-05
164	0x3549e5fe	7.521302e-07
165	0x00000000	0.0
166	0x00000000	0.0
167	0x3527529c	6.233256e-07
168	0x00000000	0.0
169	0x324055d6	1.1195388e-08
170	0x32473ca5	1.15971135e-08
171	0x00000000	0.0
172	0x2ee7792c	1.0526188e-10
173	0x2f8e9ddf	2.5941824e-10
174	0x00000000	0.0
175	0x33108266	3.364621e-08
176	0x33109270	3.3660797e-08
177	0x00000000	0.0
178	0x2c9969be	4.3602613e-12
179	0x2e7b47e5	5.7134648e-11
180	0x00000000	0.0
181	0x331cc35d	3.6499262e-08
182	0x331cc35d	3.6499262e-08
183	0x00000000	0.0
184	0x00000000	0.0
185	0x2dcfb149	2.3611906e-11
186	0x00000000	0.0
187	0x331cc35d	3.6499262e-08
188	0x331cc35d	3.6499262e-08
189	0x00000000	0.0
190	0x00000000	0.0
191	0x2d77537e	1.40588634e-11
192	0x00000000	0.0
193	0x331cc35d	3.6499262e-08
194	0x331cc35d	3.6499262e-08
195	0x00000000	0.0
196	0x00000000	0.0
197	0x2d2eb9ac	9.931982e-12
198	0x00000000	0.0
199	0x331cc35d	3.6499262e-08
200	0x331cc35d	3.6499262e-08
201	0x00000000	0.0
202	0x00000000	0.0
203	0x2d06fb7c	7.672859e-12
204	0x00000000	0.0
205	0x331cc35d	3.6499262e-08
206	0x331cc35d	3.6499262e-08
207	0x00000000	0.0
208	0x00000000	0.0
209	0x2cdef53a	6.336845e-12
210	0x00000000	0.0
211	0x331cc35d	3.6499262e-08
212	0x331cc35d	3.6499262e-08
213	0x00000000	0.0
214	0x00000000	0.0
215	0x2ccacedb	5.764151e-12
216	0x00000000	0.0
217	0x331cc35d	3.6499262e-08
218	0x331cc35d	3.6499262e-08
219	0x35b05bd2	1.3139745e-06
220	0x33eb968e	1.0970426e-07
221	0x00000000	0.0
222	0x00000000	0.0
223	0x357b5bf8	9.363862e-07
224	0x00000000	0.0
225	0x33388de9	4.2969905e-08
226	0x3340bed8	4.4877055e-08
227	0x00000000	0.0
228	0x31b11765	5.1540376e-09
229	0x31c472b0	5.7173892e-09
230	0x00000000	0.0
231	0x34555858	1.986931e-07
232	0x34555503	1.9868098e-07
233	0x00000000	0.0
234	0x30daf6a9	1.5931693e-09
235	0x31058a61	1.9432707e-09
236	0x00000000	0.0
237	0x345a5592	2.0333962e-07
238	0x345a5592	2.0333962e-07
239	0x00000000	0.0
240	0x00000000	0.0
241	0x2fa9741b	3.082342e-10
242	0x00000000	0.0
243	0x345a5592	2.0333962e-07
244	0x345a5592	2.0333962e-07
245	0x00000000	0.0
246	0x00000000	0.0
247	0x2f57688c	1.9591279e-10
248	0x00000000	0.0
249	0x345a5592	2.0333962e-07
250	0x345a5592	2.0333962e-07
251	0x00000000	0.0
252	0x00000000	0.0
253	0x2f17d214	1.3808005e-10
254	0x00000000	0.0
255	0x345a5592	2.0333962e-07

exp_avg f4 [128]
0	0x3950d5e3	0.00019916105
1	0x3956a775	0.00020471013
2	0x36914265	4.329066e-06
3	0x370f3498	8.53571e-06
4	0x36df6e68	6.658771e-06
5	0x38dcd4a6	0.00010530026
6	0xb837ea3a	-4.384874e-05
7	0x38426ca0	4.635437e-05
8	0x39502b2a	0.00019852506
9	0x369379fa	4.3951413e-06
10	0x380a3f92	3.296097e-05
11	0x36f055bc	7.162538e-06
12	0x36d34455	6.296245e-06
13	0xb6896f28	-4.0958585e-06
14	0xb8476608	-4.754032e-05
15	0x390a2322	0.00013173794
16	0x380a928f	3.3038257e-05
17	0x395839d7	0.00020620912
18	0x38ff7d70	0.00012182712
19	0xb5daf3a6	-1.6313177e-06
20	0x387d79df	6.04334e-05
21	0xb644d740	-2.9331568e-06
22	0x389c176d	7.443023e-05
23	0x389fda04	7.6223194e-05
24	0xb80bd696	-3.334003e-05
25	0x391ab926	0.00014755558
26	0xb786fdaf	-1.6092175e-05
27	0x3820985b	3.8288865e-05
28	0xb7061739	-7.992429e-06
29	0x3849117d	4.793842e-05
30	0xb72a4bbf	-1.0150426e-05
31	0x373fadb8	1.1424934e-05
32	0xb71c3876	-9.31147e-06
33	0xb852d8d1	-5.0269828e-05
34	0x3894cf8e	7.09585e-05
35	0xb60c71e6	-2.0927923e-06
36	0x38cb0bb4	9.681974e-05
37	0x37ed2291	2.8268698e-05
38	0x39b99e0d	0.00035403707
39	0xb5966070	-1.1203938e-06
40	0x38c06a64	9.17509e-05
41	0x37d28db1	2.5099931e-05
42	0xb67a79d6	-3.732382e-06
43	0x3995e589	0.00028590512
44	0xb73a9b09	-1.1122561e-05
45	0xb6aee8a6	-5.212688e-06
46	0x38f71949	0.000117825875
47	0x39a78318	0.00031950395
48	0xb6e4c32e	-6.8176514e-06
49	0xb62ea946	-2.602655e-06
50	0x3934a36d	0.00017227019
51	0x39523e87	0.00020050454
52	0x37e12a66	2.6841833e-05
53	0xb834794e	-4.3028318e-05
54	0x39306c60	0.00016825041
55	0x3854dccd	5.0750376e-05
56	0xb89d6a4f	-7.506145e-05
57	0x390c3320	0.00013370486
58	0x391257bc	0.00013956329
59	0x38a89572	8.0387006e-05
60	0x39963def	0.00028656374
61	0xb7a08ba5	-1.9138513e-05
62	0x3382f67d	6.098433e-08
63	0x3906b33a	0.00012846003
64	0x385bc7ae	5.2399635e-05
65	0xb83a4728	-4.4412125e-05
66	0x39218fc8	0.00015407719
67	0x390a57df	0.0001319344
68	0xb807b5d1	-3.2355838e-05
69	0x3847740b	4.755337e-05
70	0x3607f7f4	2.0260895e-06
71	0xb816e867	-3.597923e-05
72	0x3498579b	2.8375948e-07
73	0xb83bbe39	-4.4761433e-05
74	0xb5387479	-6.871483e-07
75	0x372785ef	9.9851595e-06
76	0x395fe922	0.00021353786
77	0x38a34ce9	7.786771e-05
78	0xb49cd2e1	-2.92107e-07
79	0xb7ab155c	-2.0394735e-05
80	0x36ecc4df	7.056267e-06
81	0xb6c083e9	-5.7374023e-06
82	0xb82526d4	-3.9375227e-05
83	0xb82ac043	-4.0710216e-05
84	0xb69fe43b	-4.765139e-06
85	0x39400117	0.00018310953
86	0x398f3cab	0.00027320287
87	0xb7247a69	-9.803663e-06
88	0x3749b0f1	1.2021731e-05
89	0xb724cd2e	-9.822934e-06
90	0x384d51f8	4.8952148e-05
91	0x38cf6a40	9.89032e-05
92	0xb86642c1	-5.4898443e-05
93	0x3759020e	1.2934686e-05
94	0xb7793dca	-1.4855943e-05
95	0x36802584	3.8190647e-06
96	0x37949b25	1.771522e-05
97	0xb7cfb9d4	-2.4762856e-05
98	0xb69c5d07	-4.659992e-06
99	0xb89ce58a	-7.481415e-05
100	0x3968a9b8	0.0002218847
101	0x389be581	7.4337244e-05
102	0x384df2d0	4.9101945e-05
103	0x36411b58	2.8775157e-06
104	0xb732a22c	-1.0647385e-05
105	0x38cc3c2e	9.7386874e-05
106	0x362b305e	2.550914e-06
107	0xb8631421	-5.4139764e-05
108	0x39adc635	0.00033144807
109	0xb480d740	-2.3998473e-07
110	0x389c254e	7.445608e-05
111	0x39420bc2	0.00018505662
112	0x38b0558f	8.4082705e-05
113	0x3720982a	9.572172e-06
114	0xb647f9ee	-2.979879e-06
115	0xb6fea2f2	-7.588759e-06
116	0x35957772	1.1136128e-06
117	0x381dc984	3.7619393e-05
118	0x38de486b	0.00010599274
119	0x392340c5	0.0001556902
120	0x394615e9	0.00018890914
121	0xb39522ec	-6.9447054e-08
122	0x3815b3d2	3.569184e-05
123	0x37b6214e	2.17116e-05
124	0x3976871c	0.0002351072
125	0xb706c848	-8.033654e-06
126	0xb8150c0a	-3.553558e-05
127	0x38818952	6.176777e-05

exp_avg_sq f4 [128]
0	0x36a62d83	4.952484e-06
1	0x369287df	4.3669565e-06
2	0x34fcb07b	4.7067064e-07
3	0x331cc35d	3.6499262e-08
4	0x345a5592	2.0333962e-07
5	0x3641308e	2.8787504e-06
6	0x348f02fa	2.663799e-07
7	0x3436c0d0	1.7020216e-07
8	0x3692cd16	4.375014e-06
9	0x30dcba3c	1.6060038e-09
10	0x3530cb7f	6.5861235e-07
11	0x34359d40	1.6914146e-07
12	0x3409bd48	1.282798e-07
13	0x339b78f0	7.2397484e-08
14	0x34e582ac	4.274965e-07
15	0x3647fbfe	2.979999e-06
16	0x35a9a0f7	1.2638328e-06
17	0x36ccd552	6.1045075e-06
18	0x360a4ec1	2.0609443e-06
19	0x313b821e	2.7286045e-09
20	0x351fada5	5.94848e-07
21	0x35205212	5.972407e-07
22	0x3482c2d6	2.435615e-07
23	0x35df57a2	1.6640299e-06
24	0x32fd1def	2.9466689e-08
25	0x368d6d3f	4.2148454e-06
26	0x335493ff	4.9494698e-08
27	0x335b32fb	5.1036277e-08
28	0x3396798f	7.007031e-08
29	0x358dcf34	1.0565623e-06
30	0x33894468	6.392003e-08
31	0x3354a05d	4.9505946e-08
32	0x3145556a	2.8715825e-09
33	0x35612c86	8.388382e-07
34	0x35347753	6.7228865e-07
35	0x315e8190	3.23789e-09
36	0x35bbf4d4	1.400384e-06
37	0x342f6f61	1.6338664e-07
38	0x37971abc	1.8013052e-05
39	0x354a065d	7.5260124e-07
40	0x3557fce2	8.0461734e-07
41	0x34fc9986	4.705036e-07
42	0x33e967f1	1.0868815e-07
43	0x37a544dd	1.97016e-05
44	0x3230791b	1.02720845e-08
45	0x317fcf52	3.7225232e-09
46	0x367259f9	3.611318e-06
47	0x3748957f	1.1955736e-05
48	0x357ac42d	9.341773e-07
49	0x3233644e	1.0441978e-08
50	0x361523e4	2.2223621e-06
51	0x36c44025	5.8487226e-06
52	0x342fd002	1.6373818e-07
53	0x33a4f7fb	7.6819525e-08
54	0x3648553b	2.9851933e-06
55	0x3594ed3a	1.1095901e-06
56	0x35936c28	1.0983831e-06
57	0x363469b9	2.6883629e-06
58	0x3635f06a	2.7111041e-06
59	0x35dd218d	1.6475548e-06
60	0x36c47986	5.8554024e-06
61	0x3307791e	3.1542292e-08
62	0x3403b134	1.2264792e-07
63	0x358668d0	1.0014282e-06
64	0x350d74db	5.269664e-07
65	0x32229493	9.463423e-09
66	0x360a36b1	2.0595437e-06
67	0x36075813	2.0167834e-06
68	0x351cce21	5.8414486e-07
69	0x352e0c49	6.483793e-07
70	0x335abb64	5.092751e-08
71	0x348f2ca1	2.6668297e-07
72	0x33308a80	4.110416e-08
73	0x3455dab3	1.9916733e-07
74	0x3139ecc5	2.705563e-09
75	0x33e9810e	1.0873383e-07
76	0x36b718d7	5.4567167e-06
77	0x35609607	8.366482e-07
78	0x31af7f34	5.1076317e-09
79	0x3444ba3e	1.8321677e-07
80	0x34999621	2.8607704e-07
81	0x344d0862	1.9095162e-07
82	0x341737e0	1.4083298e-07
83	0x344753d7	1.856382e-07
84	0x353937b1	6.899891e-07
85	0x368a6d6a	4.125458e-06
86	0x37272d77	9.964561e-06
87	0x33c08e30	8.9665605e-08
88	0x32816990	1.506558e-08
89	0x33c68b57	9.245439e-08
90	0x34b3afa9	3.3469158e-07
91	0x35b11a64	1.3195208e-06
92	0x35045014	4.929036e-07
93	0x324e8713	1.20214905e-08
94	0x343cc6f5	1.7581245e-07
95	0x30c71ac3	1.4486762e-09
96	0x349d1b3e	2.926335e-07
97	0x33a4df7e	7.677498e-08
98	0x34192dca	1.4265893e-07
99	0x35318a28	6.613868e-07
100	0x3702f906	7.806584e-06
101	0x34846a50	2.4664268e-07
102	0x35114ce9	5.412863e-07
103	0x32a25959	1.8899913e-08
104	0x32ede537	2.7694666e-08
105	0x35ec3b4d	1.7600629e-06
106	0x36003061	1.9101647e-06
107	0x34d31c18	3.9322254e-07
108	0x3799ae60	1.8320221e-05
109	0x32a5c0c3	1.9296186e-08
110	0x35ab3271	1.2755173e-06
111	0x3649165a	2.9964344e-06
112	0x354ca82c	7.6240644e-07
113	0x343adbe5	1.7402597e-07
114	0x31d58996	6.2147576e-09
115	0x347212ee	2.2544893e-07
116	0x319f07d3	4.6283986e-09
117	0x359f55a7	1.1871351e-06
118	0x3594b8e3	1.1080668e-06
119	0x36179207	2.2585753e-06
120	0x36ba2732	5.547795e-06
121	0x33c5fe8b	9.2198285e-08
122	0x333c5edb	4.385843e-08
123	0x3311353a	3.3808853e-08
124	0x37701d01	1.4311868e-05
125	0x33daa913	1.01821705e-07
126	0x36f6f084	7.359371e-06
127	0x3522b7b8	6.061705e-07
