results/ManAgent/ManAgent/ManAgent-530326.onnx (onnx, 86389 bytes, 6 tensors)

network_body._body_endoder.seq_layers.0.weight f4 [128, 27]
0.29773805 0.0024290993 -0.31452674 0.19651291 -0.24238782 0.0018339049 -0.22421674 0.0326426
-0.25970674 0.09029373 -0.21669234 -0.03276397 -0.21120201 0.32051224 0.018074324 0.39482933
-0.27427882 -0.16585048 0.25227278 0.08022137 -0.1684983 -0.14491849 -0.29246032 0.25080818
-0.22870566 0.24879487 -0.39908582 -0.046040554 -0.3545762 -0.49043983 -0.06377678 0.16504498
-0.10500854 0.13691792 -0.12330236 0.1648373 -0.24380127 0.17451473 0.414999 -0.34509754
-0.0053322846 -0.032754853 -0.110981815 0.17432345 0.18354571 -0.25691888 -0.013465882 0.23828015
0.008553056 0.051288377 0.15645783 -0.4486499 -0.28277662 -0.57166594 -0.00093579263 0.09481917
-0.026727853 -0.07270488 0.1408115 -0.10863353 0.0024065382 -0.5237686 -0.04495711 -0.2677045
-0.07776847 -0.3150625 -0.02582512 0.10096915 0.052470207 -0.22772156 -0.11321593 -0.12971886
0.07270726 -0.017960202 -0.4299117 -0.3133424 -0.15125461 -0.11316521 0.026903493 -0.081153765
0.29407394 -0.2864813 -0.18008582 0.6983279 0.08830031 0.3505275 0.16466683 -0.3779352
-0.17860706 0.15859781 0.31140783 -0.13075842 -0.08022221 -0.42086875 0.15533547 -0.06648714
-0.07804597 -0.009503701 -0.11570392 0.032841288 -0.19123374 -0.159692 -0.21636371 0.27237397
0.07744063 0.12103266 -0.20432359 0.21668766 0.08812328 -0.1262318 0.2978985 0.27254498
-0.013784863 -0.25301433 -0.14321463 -0.5872791 -0.32740396 -0.40196672 0.14534587 0.08440494
0.18710104 -0.10150434 0.11178094 -0.2570241 0.33776212 -0.14566389 0.15071648 0.067358464
-0.0060225874 -0.20444958 0.11577548 0.4715856 -0.1324085 0.001485562 0.32241106 -0.5442393
-0.14701472 -0.15112333 -0.07341045 -0.5571619 -0.50652736 0.33284792 -0.51485115 -0.28875554
-0.03587474 -0.21823467 -0.6991076 -0.17158873 -0.033797946 -0.11116294 -0.3621004 -0.43094057
-0.1109237 0.021604056 -0.86970645 -0.11652089 0.61349434 -0.10589466 -0.0031497339 -0.100740835
0.06416431 0.13302921 -0.051269837 -0.37138903 -0.5441839 0.31705934 -0.27944002 -0.09077853
-0.4195038 0.069823354 0.031937473 -0.131101 0.036485676 -0.12922426 0.12605715 0.13409448
-0.11897646 -0.15370375 -0.017796662 0.052881524 -0.08822225 0.27026567 -0.055100456 -0.21183556
-0.1757124 -0.307682 -0.28841156 0.18286128 -0.4457921 -0.21850616 -0.16985317 -0.15113607
0.2833219 0.038159516 -0.0077472506 -0.0008428446 0.018813262 -0.10808542 -0.3178353 -0.1793107
-0.06421143 -0.015485452 -0.10588132 -0.10558836 0.12573709 -0.022064159 -0.076395676 -0.2560314
-0.08997502 0.05898911 0.15760374 -0.10705918 0.03762879 0.1996362 -0.25748128 -0.05714956
-0.29418847 0.07777101 0.43896386 -0.35268265 -0.2779736 -0.16244347 -0.09721122 0.065953225
-0.14285515 0.2300764 0.08188708 0.3682455 0.027071726 -0.11069678 0.16850956 -0.17581408
0.20990506 0.14104617 0.11598032 0.13709144 0.021349838 -0.013466793 0.10186039 0.25033677
-0.17647606 -0.09980252 -0.16723396 -0.059087873 -0.41967937 -0.6950688 0.097482696 0.016387684
0.061900306 0.08237761 0.04569284 -0.169688 -0.11082249 -0.27467838 0.10669634 0.14644668
00000000: 1f71 983e 8631 1f3b a609 a1be ae3a 493e
00000010: 8334 78be a35f f03a 1399 65be 3fb4 053d
00000020: 48f8 84be ebeb b83d 99e4 5dbe 8333 06bd
00000030: 5745 58be 2e1a a43e 9b10 943c 1227 ca3e
00000040: 466e 8cbe b5d4 29be e629 813e 1a4b a43d
00000050: d18a 2cbe 8365 14be 5cbd 95be ee69 803e
00000060: d131 6abe 15c4 7e3e fa54 ccbe 0595 3cbd
00000070: 038b b5be ee1a fbbe 679d 82bd 8d01 293e
00000080: b80e d7bd 3634 0c3e f385 fcbd 1ccb 283e
00000090: 0aa7 79be fdb3 323e c07a d43e a0b0 b0be
000000a0: 72ba aebb f429 06bd 6f4a e3bd d981 323e
000000b0: 68f3 3b3e df8a 83be 01a0 5cbc b6ff 733e
000000c0: 1e22 0c3c c313 523d 7b36 203e 71b5 e5be
000000d0: 19c8 90be b358 12bf fb4f 75ba 8e30 c23d
000000e0: 5ff4 dabc 4ce6 94bd e430 103e 427b debd
000000f0: 03b7 1d3b b315 06bf f224 38bd 9010 89be
00000100: 1345 9fbd df4f a1be 348f d3bc eac8 ce3d
00000110: 00eb 563d d72f 69be c1dd e7bd 05d5 04be
00000120: 8be7 943d 4621 93bc 631d dcbe 6a6e a0be
00000130: 7de2 1abe 29c3 e7bd b764 dc3c f233 a6bd
00000140: dc90 963e adad 92be 6b68 38be 9ec5 323f
00000150: cbd6 b43d 5778 b33e 6c9e 283e b980 c1be
00000160: c5e4 36be 7767 223e d970 9f3e 89e5 05be
00000170: 8b4b a4bd 1c7c d7be 4310 1f3e 692a 88bd
00000180: 91d6 9fbd 69b5 1bbc 2df6 ecbd 9684 063d
00000190: c7d2 43be 4d86 23be 738e 5dbe 9a74 8b3e
000001a0: 3199 9e3d f9df f73d 343a 51be 5fe3 5d3e
000001b0: fa79 b43d e942 01be 2786 983e 048b 8b3e
000001c0: e8d9 61bc 188b 81be dba6 12be ec57 16bf
000001d0: 7ea1 a7be 95ce cdbe 8cd5 143e 7fdc ac3d
000001e0: 6a97 3f3e 82e1 cfbd 68ed e43d aa98 83be
000001f0: 28ef ac3e ea28 15be 6c55 1a3e 3cf3 893d
00000200: 2059 c5bb 3b5b 51be b21b ed3d ab73 f13e
00000210: 1896 07be 30b7 c23a 1013 a53e 4453 0bbf
00000220: 078b 16be 13c0 1abe 3858 96bd 2aa2 0ebf
00000230: c7ab 01bf 0b6b aa3e 49cd 03bf c4d7 93be
00000240: 64f1 12bd e978 5fbe b7f8 32bf f5b4 2fbe
00000250: b76f 0abd 65a9 e3bd 3965 b9be 3ea4 dcbe
00000260: f72b e3bd fdfa b03c 15a5 5ebf 81a2 eebd
00000270: f70d 1d3f 4ddf d8bd c46b 4ebb 3651 cebd
00000280: 9468 833d cf38 083e 5200 52bd b426 bebe
00000290: a34f 0bbf 9a55 a23e c312 8fbe 18ea b9bd
000002a0: 34c9 d6be 8cff 8e3d ded0 023d 573f 06be
000002b0: 0172 153d 5d53 04be 2015 013e 1050 093e
000002c0: eea9 f3bd 8464 1dbe 4eca 91bc 4c9a 583d
000002d0: dead b4bd 4360 8a3e 04b1 61bd 6ceb 58be
000002e0: f4ed 33be 7f88 9dbe aeaa 93be fd3f 3b3e
000002f0: dd3e e4be 14c0 5fbe fded 2dbe 6ac3 1abe
00000300: 910f 913e 274d 1c3d a6dc fdbb 58f2 5cba
00000310: 451e 9a3c e45b ddbd 4fbb a2be 399d 37be
00000320: 4881 83bd b1b6 7dbc 4ed8 d8bd b63e d8bd
00000330: 39c1 003e e5bf b4bc 5675 9cbd 8c16 83be
00000340: d344 b8bd 919e 713d e062 213e d841 dbbd
00000350: a520 1a3d 6f6d 4c3e 96d4 83be a815 6abd
00000360: df9f 96be 6846 9f3d dfbf e03e d292 b4be
00000370: 8e52 8ebe 9557 26be ad16 c7bd 7c12 873d
00000380: 9f48 12be 2699 6b3e 6ab4 a73d ad8a bc3e
00000390: 86c5 dd3c feb4 e2bd c58d 2c3e 9b08 34be
000003a0: 5af1 563e 686e 103e 1787 ed3d b361 0c3e
000003b0: dbe5 ae3c d3a3 5cbc 2e9c d03d 242c 803e
000003c0: 24b6 34be 4365 ccbd 613f 2bbe 2006 72bd
000003d0: 37e0 d6be 07f0 31bf 02a5 c73d 773f 863c
000003e0: 2d8b 7d3d 98b5 a83d 6a28 3b3d b1c2 2dbe
000003f0: e7f6 e2bd a5a2 8cbe 9c83 da3d 1ef6 153e

network_body._body_endoder.seq_layers.0.bias f4 [128]
-0.00873247 0.020960614 -0.07801075 0.016430076 -0.011673747 -0.2853971 -0.05395609 -0.028056806
-0.015974369 -0.029408673 0.0053402893 -0.08458829 -0.058799393 -0.09354472 0.069656 -0.10358109
0.04440728 -0.0072742705 -0.032293867 -0.040818095 -0.054322097 -0.027725307 -0.117166415 -0.020256482
-0.00014010177 -0.074031405 0.072528094 -0.0016456757 0.009682071 -0.093169704 0.023920208 -0.020921892
-0.022038447 -0.010546566 0.058994684 0.04752265 -0.049741108 0.0057654637 0.021475188 -0.10189739
0.050441477 -0.18026751 -0.03767036 0.11958137 -0.0059058485 0.033514194 -0.050073862 0.014343395
0.07770584 -0.045048304 0.057110745 -0.09363255 0.04597512 0.008211428 0.011632899 -0.009761453
-0.028674811 0.05761013 -0.35856 0.02338217 -0.10100128 0.06723044 -0.006781898 -0.014589151
-0.116438 0.0012395662 -0.0031861004 0.023558818 -0.080359004 0.01740518 -0.008964644 0.00816842
0.02427646 0.037267193 -0.21329829 0.067911 -0.08879652 0.054331817 -0.021651564 -0.040053874
0.03557724 0.021526335 -0.009716912 -0.035134908 -0.28412005 -0.051473 -0.002228563 -0.027496258
0.10866022 -0.016528837 0.0040418454 -0.011031462 -0.016466008 0.0056619407 0.026469743 -0.041274883
0.04210137 0.060139365 -0.40962476 -0.014259897 -0.084630646 0.048927296 -0.07673604 0.09225326
0.0076380167 -0.1501472 -0.0025894793 -0.044115406 -0.042171605 -0.056047235 -0.07753185 0.05841544
-0.053788513 -0.00080306677 -0.022296133 -0.011954344 0.04541358 -0.06678024 -0.02111343 -0.046280537
0.031596765 0.006162617 0.014655435 0.0090697305 0.011534821 0.037725203 -0.021497732 -0.073693864
00000000: a212 0fbc 98b5 ab3c 1ac4 9fbd 5e98 863c
00000010: 3e43 3fbc 921f 92be 1001 5dbd 63d7 e5bc
00000020: aedc 82bc 75ea f0bc 98fd ae3b a03c adbd
00000030: a2d7 70bd 6094 bfbd cea7 8e3d 5322 d4bd
00000040: 68e4 353d 015d eebb 9346 04bd e030 27bd
00000050: d980 5ebd 2f20 e3bc f2f4 efbd ecf0 a5bc
00000060: 48e8 12b9 c79d 97bd 9c89 943d b7b3 d7ba
00000070: 8da1 1e3c c2cf bebd 50f4 c33c 6364 abbc
00000080: f989 b4bc 81cb 2cbc 69a4 713d 1ca7 423d
00000090: 55bd 4bbd 37ec bc3b bcec af3c 94af d0bd
000000a0: b99b 4e3d 0c98 38be 3c4c 1abd 14e7 f43d
000000b0: d985 c1bb 2e46 093d 401a 4dbd 8f00 6b3c
000000c0: 3d24 9f3d 9284 38bd f5ec 693d 6cc2 bfbd
000000d0: 6850 3c3d 3a89 063c ea97 3e3c 80ee 1fbc
000000e0: 70e7 eabc 9af8 6b3d 2d95 b7be f78b bf3c
000000f0: c2d9 cebd 1db0 893d af3a debb 5607 6fbc
00000100: 0c77 eebd f178 a23a e5cd 50bb 6cfe c03c
00000110: 4393 a4bd 4f95 8e3c 71e0 12bc d6d4 053c
00000120: 6ddf c63c 7ca5 183d de6a 5abe ec14 8b3d
00000130: f3da b5bd 0a8b 5e3d 9f5e b1bc 880f 24bd
00000140: 71b9 113d ff57 b03c af33 1fbc 9fe9 0fbd
00000150: 2f78 91be 5ad5 52bd 150d 12bb d53f e1bc
00000160: 4089 de3d 7c67 87bc 7571 843b 4ebd 34bc
00000170: b9e3 86bc cd87 b93b 13d7 d83c da0f 29bd
00000180: 7c72 2c3d b254 763d 56ba d1be 58a2 69bc
00000190: d552 adbd fd67 483d c927 9dbd 47ef bc3d
000001a0: 5448 fa3b 30c0 19be 41b4 29bb 5bb2 34bd
000001b0: 22bc 2cbd c991 65bd 05c9 9ebd 0745 6f3d
000001c0: 5851 5cbd e684 52ba 61a6 b6bc 27dc 43bc
000001d0: 9703 3a3d 14c4 88bd 12f6 acbc a990 3dbd
000001e0: 9c6b 013d c7ef c93b 5a1d 703c 3599 143c
000001f0: 8cfc 3c3c be85 1a3d 031c b0bc cfec 96bd

network_body._body_endoder.seq_layers.2.weight f4 [128, 128]
-0.13199915 -0.1465812 -0.019277548 -0.16597924 -0.12519978 0.16796134 -0.14143844 0.07595287
-0.14777057 0.13350944 -0.12888274 0.25647506 0.21389477 -0.054485098 -0.09262458 0.14559847
-0.08422241 -0.118129134 -0.16081817 -0.15071858 0.0059821364 0.13748722 0.13627307 0.036155973
-0.05364896 -0.08742762 -0.0037900687 -0.22139864 0.01909395 -0.20285608 0.09383297 0.10287496
-0.04294748 -0.08101621 0.07527098 -0.2698048 -0.21906485 0.05299555 -0.19253232 -0.100648426
0.18711708 0.14415954 0.13284594 -0.28395244 -0.022021912 0.0011267391 0.040400974 -0.0112854885
0.1738774 -0.18769921 0.03727977 -0.019417848 -0.17427106 -0.015488248 0.0531749 -0.0142583
0.08291005 0.005513644 0.03635007 0.19828568 -0.13786727 -0.04421518 -0.2041938 0.1379285
0.0075809676 0.07668423 -0.15563747 -0.124061964 0.057643857 -0.12048081 -0.1397321 0.028325198
0.11599311 -0.1571941 0.08039926 -0.11347647 0.07922548 0.052257955 -0.054700483 -0.038733486
0.037765745 -0.047964506 0.32837006 -0.09409909 0.08403971 0.11433379 -0.06514279 0.07806109
0.08832217 -0.075070426 -0.038275786 0.1503566 -0.23700425 -0.24363649 -0.046622362 -0.09492015
0.14907451 0.03781912 0.048004664 0.28207275 0.2542207 0.14117047 -0.05531839 -0.017562764
-0.023398325 -0.0013586786 -0.14528319 -0.12603845 0.09100091 -0.039624803 -0.039700132 0.014011481
-0.021428684 -0.10126662 0.06377083 -0.32045534 0.20369355 -0.11050118 -0.057200875 0.1777199
0.13881381 -0.0048930715 -0.07744354 -0.24704504 -0.10722899 -0.021296034 -0.10584224 -0.3186405
-0.26625225 -0.027964935 -0.017329479 0.14622943 0.12198834 -0.007713874 -0.032748185 -0.011904982
0.1794019 -0.35371223 -0.034994803 0.011880562 0.04902616 0.013913699 -0.11274857 0.022285327
0.19904968 -0.03464883 0.09830838 0.060349602 -0.1175241 -0.13267928 -0.005323377 -0.14774032
0.04093673 -0.12798026 0.30100542 0.1667117 -0.09783332 0.084758356 -0.181937 -0.043890182
-0.056654286 -0.039159436 -0.02391366 0.08389416 0.08479588 -0.18340892 -0.047309697 -0.16578667
-0.04425788 -0.21479607 0.06758971 0.23303261 0.023602167 0.2317258 0.013965855 -0.098795086
-0.08891304 -0.04043039 0.1988297 -0.12213867 0.12605716 0.05231015 0.25679445 -0.06824002
-0.2494917 -0.045319237 -0.087764636 -0.27258042 -0.121085 -0.12470055 0.15167713 -0.11237337
-0.034589853 -0.06841495 0.14527445 -0.18838777 -0.0050543076 0.17867985 0.14384569 -0.102092646
-0.0448399 0.3374036 0.13869777 0.39121956 -0.14646165 -0.19328742 -0.03394707 -0.39221337
-0.2981145 0.13884284 -0.37615168 -0.11926478 -0.06540139 0.10494878 0.009615907 -0.22930275
-0.0062418645 0.10132491 0.011924577 -0.022549095 -0.11798578 -0.04712643 -0.3537899 0.0049827755
-0.08524753 -0.18748984 -0.069883406 -0.37164104 -0.09062855 0.11119808 0.006706666 0.4263225
0.039361145 -0.04651905 0.026333878 -0.13421583 -0.1452723 0.15179801 0.037147164 0.17596605
0.15792088 0.1543134 -0.18000609 0.0774051 -0.057981215 0.02842437 -0.032168675 -0.05005115
-0.20678061 -0.00062309986 -0.06711329 -0.088845454 0.19801213 0.025501862 -0.19116196 0.022330787
00000000: c92a 07be 6219 16be f3eb 9dbc 76f6 29be
00000010: 5f34 00be 0ffe 2b3e 3dd5 10be 2e8d 9b3d
00000020: 2b51 17be b3b6 083e d6f9 03be b350 833e
00000030: 3b07 5b3e c42b 5fbd f5b1 bdbd c417 153e
00000040: cd7c acbd b0ed f1bd 85ad 24be f955 1abe
00000050: cc05 c43b 73c9 0c3e 2b8b 0b3e 4918 143d
00000060: 03bf 5bbd 410d b3bd cd62 78bb 53b6 62be
00000070: ea6a 9c3c 81b9 4fbe 802b c03d 1bb0 d23d
00000080: b2e9 2fbd d4eb a5bd ac27 9a3d db23 8abe
00000090: 8952 60be dd11 593d 3127 45be c320 cebd
000000a0: 9f9b 3f3e 8f9e 133e c408 083e 3762 91be
000000b0: 4c67 b4bc 17af 933a 7e7b 253d c5e6 38bc
000000c0: eb0c 323e 3934 40be acb2 183d 2e12 9fbc
000000d0: 1d74 32be 6cc2 7dbc edcd 593d a59b 69bc
000000e0: bfcc a93d ccab b43b d0e3 143d 670b 4b3e
000000f0: 142d 0dbe fa1a 35bd 2e18 51be 213d 0d3e
00000100: c469 f83b 9f0c 9d3d 6e5f 1fbe 3314 febd
00000110: f71b 6c3d a5be f6bd ee15 0fbe 3f0a e83c
00000120: cc8d ed3d 7df7 20be 5ea8 a43d 5a66 e8bd
00000130: f840 a23d 700c 563d 9d0d 60bd 01a7 1ebd
00000140: 41b0 1a3d 6e76 44bd 1f20 a83e 06b7 c0bd
00000150: 031d ac3d d627 ea3d 9569 85bd 7ede 9f3d
00000160: 41e2 b43d 86be 99bd 12c7 1cbd 15f7 193e
00000170: 3eb1 72be d87b 79be 17f7 3ebd 7f65 c2bd
00000180: fda6 183e 39e8 1a3d 8aa0 443d d76b 903e
00000190: 3729 823e fe8e 103e 8995 62bd c9df 8fbc
000001a0: d8ad bfbc b015 b2ba 1ec5 14be 3910 01be
000001b0: af5e ba3d 9e4d 22bd 9b9c 22bd 6990 653c
000001c0: 358b afbc e064 cfbd 489a 823d b912 a4be
000001d0: 0b95 503e 714e e2bd 774b 6abd 35fc 353e
000001e0: 3525 0e3e 0f56 a0bb b89a 9ebd 60f9 7cbe
000001f0: df9a dbbd 0575 aebc d1c3 d8bd d924 a3be
00000200: 3752 88be b816 e5bc 8df6 8dbc 2bbd 153e
00000210: 06d5 f93d aac4 fcbb f622 06bd 1d0d 43bc
00000220: 22b5 373e c519 b5be b656 0fbd b0a6 423c
00000230: a8cf 483d 49f6 633c b9e8 e6bd b88f b63c
00000240: aed3 4b3e eeeb 0dbd e755 c93d 2531 773d
00000250: 7ab0 f0bd 14dd 07be b96f aebb 3d49 17be
00000260: 46ad 273d 420d 03be 621d 9a3e 79b6 2a3e
00000270: d65c c8bd ca95 ad3d b14d 3abe 31c6 33bd
00000280: 530e 68bd a565 20bd 94e6 c3bc b4d0 ab3d
00000290: 76a9 ad3d 8ccf 3bbe d0c7 41bd fbc3 29be
000002a0: c047 35bd 80f3 5bbe 796c 8a3d 1aa0 6e3e
000002b0: 5559 c13c 8749 6d3e 0bd1 643c 1455 cabd
000002c0: 0a18 b6bd 569a 25bd 039a 4b3e d723 fabd
000002d0: 2115 013e 2b43 563d 907a 833e 6cc1 8bbd
000002e0: c17a 7fbe aaa0 39bd f2bd b3bd a98f 8bbe
000002f0: 6afb f7bd 0163 ffbd 4051 1b3e 0224 e6bd
00000300: 17ae 0dbd 231d 8cbd d3c2 143e b9e8 40be
00000310: 9b9e a5bb daf7 363e 494c 133e f315 d1bd
00000320: 0baa 37bd 2ac0 ac3e ca06 0e3e ee4d c83e
00000330: 0bfa 15be 23ed 45be 150c 0bbd 31d0 c8be
00000340: 77a2 98be d12c 0e3e f496 c0be 1841 f4bd
00000350: 2af1 85bd 63ef d63d 0a8c 1d3c 57ce 6abe
00000360: 8e88 ccbb 6f83 cf3d 4d5f 433c e1b8 b8bc
00000370: 87a2 f1bd a507 41bd f323 b5be 8d46 a33b
00000380: 4296 aebd 56fd 3fbe 081f 8fbd bc47 bebe
00000390: 769b b9bd d2bb e33d 98c3 db3b f146 da3e
000003a0: 2739 213d c28a 3ebd 25ba d73c e06f 09be
000003b0: 43c2 14be f070 1b3e a027 183d 7230 343e
000003c0: 03b6 213e 5504 1e3e 8453 38be 9186 9e3d
000003d0: b67d 6dbd 39da e83c 4dc3 03bd 6f02 4dbd
000003e0: 4cbe 53be 8657 23ba b172 89bd 9bf4 b5bd
000003f0: b1c3 4a3e 48e9 d03c f6bf 43be 0eef b63c

network_body._body_endoder.seq_layers.2.bias f4 [128]
-0.09975742 0.018741814 -0.010351461 -0.017713416 0.024560655 -0.028042775 0.03546227 0.035860498
-0.004131572 0.0279297 0.02360762 -0.0029019555 -0.0038521413 0.023261445 -0.014551435 -0.042710543
0.008033073 -0.07068947 0.022022959 -0.042211 0.0019852445 0.020134322 -0.08868694 -0.07547925
-0.027804922 -0.08325286 -0.01123049 0.01641441 0.0010195558 -0.012104068 -0.056826063 0.013126102
0.022372227 0.05020126 -0.10697823 0.028846836 -0.049673505 -0.008209947 -0.003006124 -0.0062807626
0.03718783 -0.04562227 0.03618859 0.040583827 -0.12109316 -0.019872941 0.009094279 -0.06872229
-0.07531961 -0.045249477 -0.046733353 0.036684163 0.035133645 -0.004749425 0.0026673148 -0.13603693
0.051597435 0.021542218 -0.07769427 -0.009356153 0.019565089 -0.0071647544 0.023356901 0.0050997534
0.020484943 0.013558724 -0.026244642 0.017942013 0.037350655 -0.081957996 -0.060761936 -0.010608112
-0.083232775 -0.018981898 -0.037077703 -0.06165198 -0.029322457 -0.023639634 0.0047597075 -0.09300177
-0.019287445 -0.08437281 0.026736947 -0.031098364 -0.07931097 -0.05259269 0.068584695 0.04902796
-0.10631033 -0.02744713 0.010549115 0.053817645 -0.023597736 -0.04390039 -0.07551155 -0.020766728
-0.0048228153 0.02565829 -0.0034345712 -0.0043741884 -0.037910815 -0.11655106 -0.059328914 0.005760354
0.05406775 -0.037956037 -0.01625249 0.0027902774 -0.025849637 -0.012962389 0.014616371 0.029066812
0.04283675 -0.0041477536 0.013917713 -0.012318817 0.01089505 -0.16927336 0.023343323 -0.0012637483
-0.15732846 0.037919946 -0.022247849 -0.020105839 -0.005681724 -0.035927802 0.038474925 -0.029013943
00000000: 9e4d ccbd 6f88 993c 2d99 29bc ba1b 91bc
00000010: 6d33 c93c f6b9 e5bc e340 113d 75e2 123d
00000020: 2362 87bb d4cc e43c c464 c13c bc2e 3ebb
00000030: 3574 7cbb c98e be3c 2469 6ebc 40f1 2ebd
00000040: 269d 033c a4c5 90bd 7e69 b43c 71e5 2cbd
00000050: e01a 023b bcf0 a43c 80a1 b5bd dd94 9abd
00000060: 26c7 e3bc 7a80 aabd 1700 38bc 8377 863c
00000070: 9ea2 853a 2450 46bc 72c2 68bd dd0e 573c
00000080: f645 b73c d69f 4d3d 6717 dbbd 3350 ec3c
00000090: 7276 4bbd 0383 06bc 6402 45bb dbce cdbb
000000a0: 4452 183d 6bde 3abd 7d3a 143d 3a3b 263d
000000b0: b1ff f7bd 94cc a2bc 2c00 153c 46be 8cbd
000000c0: 2b41 9abd 8457 39bd 796b 3fbd 2242 163d
000000d0: 4ce8 0f3d 11a1 9bbb 1ece 2e3b 444d 0bbe
000000e0: d557 533d 4e79 b03c 2c1e 9fbd 8d4a 19bc
000000f0: f746 a03c 51c6 eabb f956 bf3c d51b a73b
00000100: 0ad0 a73c 6925 5e3c 01ff d6bc 21fb 923c
00000110: 00fd 183d 98d9 a7bd 82e1 78bd a6cd 2dbc
00000120: f275 aabd ed7f 9bbc cade 17bd c986 7cbd
00000130: a635 f0bc e8a7 c1bc 52f7 9b3b b677 bebd
00000140: b400 9ebc a7cb acbd 7107 db3c ffc1 febc
00000150: ca6d a2bd 6f6b 57bd 2276 8c3d 8bd1 483d
00000160: 3bb9 d9bd ced8 e0bc 32d6 2c3c e46f 5c3d
00000170: 0a50 c1bc e5d0 33bd cda5 9abd fc1e aabc
00000180: b508 9ebb 5631 d23c 8b16 61bb 5a55 8fbb
00000190: 5f48 1bbd 52b2 eebd e002 73bd 5ac1 bc3b
000001a0: 2576 5d3d ca77 1bbd f123 85bc 16dd 363b
000001b0: 9ec2 d3bc 3360 54bc 8179 6f3c 861d ee3c
000001c0: 9775 2f3d e1e9 87bb 1f07 643c ddd4 49bc
000001d0: 2781 323c ff55 2dbe 7f3a bf3c 5ba4 a5ba
000001e0: b61a 21be f251 1b3d 1f41 b6bc 00b5 a4bc
000001f0: c12d babb 0829 13bd e297 1d3d a6ae edbc

action_model._discrete_distribution.branches.0.weight f4 [2, 128]
0.0016647121 -0.16557498 -0.009910153 0.08376849 -0.16175427 0.0357995 -0.16669445 -0.16882677
0.1269816 -0.19887254 0.14483769 -0.10832324 0.108512186 0.11387848 -0.0436525 0.007610203
0.11852864 0.048592474 -0.16783065 0.019412778 0.12624925 -0.18018435 0.043625116 -0.0067274086
0.07349589 0.055995394 0.11931515 0.12390038 -0.0110255545 -0.030429479 -0.012062236 0.1515977
-0.060466725 -0.21910767 0.041938525 -0.15363081 0.056376744 0.09900799 0.11206187 -0.03562119
-0.17336072 0.06279575 -0.117171995 -0.17683814 0.02984214 -0.032110456 -0.18085904 -0.02096626
-0.0024510496 0.030422734 0.0047144885 -0.13341543 -0.15587923 0.14196989 0.13504237 0.04862236
-0.14761378 -0.12694469 0.03753506 0.12655039 -0.15288828 0.042374924 -0.080900215 -0.18743668
-0.12086713 -0.18205312 -0.05018345 -0.2029664 -0.1805508 0.044758264 0.03474224 0.013449819
0.046831015 0.013055598 0.020350423 -0.010251114 -0.038913336 -0.032909233 0.120438315 0.048396625
-0.017586438 0.0355939 0.19747686 -0.025148334 -0.0013383015 0.02218747 -0.04922987 -0.19128421
0.0277048 0.0009719866 -0.09461872 -0.2036185 0.02624739 0.029242108 0.02514529 0.102860734
-0.13031769 -0.15531766 -0.11165094 -0.08361377 -0.026877483 0.039215066 -0.044511296 0.10142023
-0.1712772 -0.0034944187 0.10571876 0.15631792 0.06288101 -0.026680185 0.12480435 -0.13290015
-0.188056 -0.08167769 0.13820384 0.0964521 -0.12326475 0.042545572 0.20150484 0.13843867
0.046725243 0.12068159 0.08248791 0.10339636 -0.0007260197 0.003920916 -0.1800816 0.06732441
-0.009823674 0.157864 0.015087153 -0.093943074 0.16587384 -0.037570458 0.17140932 0.16327375
-0.106485635 0.17952666 -0.15122774 0.10608276 -0.11734724 -0.10813603 0.036069684 -0.019479735
-0.11613871 -0.049708687 0.18108208 0.0055723214 -0.13318145 0.17679755 -0.027875664 -0.0083043575
-0.0799858 -0.047993843 -0.123434134 -0.1259981 -0.013127822 0.041729107 -0.0021184562 -0.14139205
0.06720323 0.21509193 -0.0493003 0.17443079 -0.05823076 -0.103095666 -0.107558094 0.01678798
0.1730211 -0.04631457 0.111772925 0.19273973 -0.03968664 0.022140041 0.17922972 0.018566407
-0.016594198 -0.041633423 -0.0015547619 0.14002512 0.15487841 -0.1499963 -0.12552471 -0.019519066
0.15274706 0.13243243 -0.033964943 -0.10968941 0.17253931 -0.036741227 0.08242469 0.18370806
0.12755635 0.17534436 0.03183938 0.18816453 0.19164182 -0.054338135 -0.049488045 -0.026434844
-0.048163146 -0.00976131 -0.0014081068 0.0047507565 0.03516162 0.039482187 -0.11683162 -0.039478198
0.04359118 -0.038561255 -0.18003294 0.029456774 0.0018250044 -0.018955585 0.05463257 0.20466554
-0.035354 -0.015031656 0.11287969 0.19414647 -0.043084364 -0.027454732 -0.037797462 -0.12295349
0.12207656 0.14635466 0.104200736 0.09636164 0.023327041 -0.03436101 0.05740989 -0.11760291
0.16880475 -0.0070999316 -0.11145815 -0.17259079 -0.06962847 0.034280203 -0.123906046 0.14696752
0.19172852 0.09133143 -0.12060173 -0.11088706 0.10978326 -0.039643444 -0.17840615 -0.16574526
-0.044626143 -0.12882328 -0.11099761 -0.09175483 0.030516125 -0.0040180953 0.18810907 -0.070472755
00000000: 7832 da3a 7d8c 29be 325e 22bc d08e ab3d
00000010: e9a2 25be 7fa2 123d f3b1 2abe ede0 2cbe
00000020: 7707 023e 3ea5 4bbe 5550 143e 93d8 ddbd
00000030: a33b de3d 1f39 e93d f7cc 32bd 035f f93b
00000040: 25bf f23d e708 473d ccdb 2bbe 8c07 9f3c
00000050: 7c47 013e 3f82 38be 40b0 323d 9871 dcbb
00000060: 0385 963d 6d5b 653d 805b f43d 7cbf fd3d
00000070: 87a4 34bc 3e47 f9bc afa0 45bc 6d3c 1b3e
00000080: f5ab 77bd c35d 60be bbc7 2b3d 6551 1dbe
00000090: 4deb 663d b3c4 ca3d b280 e53d 86e7 11bd
000000a0: 7985 31be 0f9b 803d dff7 efbd 0f15 35be
000000b0: 8177 f43c 4186 03bd 1d33 39be 6fc1 abbc
000000c0: caa1 20bb 1939 f93c ff7b 9a3b 0e9e 08be
000000d0: ce9e 1fbe 8e60 113e 8c48 0a3e 3d28 473d
000000e0: 1128 17be cafd 01be 5dbe 193d 6d96 013e
000000f0: bf8e 1cbe 5491 2d3d 03af a5bd 67ef 3fbe
00000100: 3089 f7bd 226c 3abe 298d 4dbd 6dd6 4fbe
00000110: 4fe2 38be 7154 373d e14d 0e3d a15c 5c3c
00000120: e1d1 3f3d 26e7 553c eeb5 a63c 4af4 27bc
00000130: 9763 1fbd d5cb 06bd 5da8 f63d 8a3b 463d
00000140: 6f11 90bc e9ca 113d 6037 4a3e e103 cebc
00000150: f269 afba 7fc2 b53c 43a5 49bd 02e0 43be
00000160: 2df5 e23c ebcc 7e3a 76c7 c1bd 5e81 50be
00000170: c404 d73c 258d ef3c 7ffd cd3c a6a8 d23d
00000180: 0072 05be 980b 1fbe 3fa9 e4bd b23d abbd
00000190: 2b2e dcbc fa9f 203d 7a51 36bd 69b5 cf3d
000001a0: 4a63 2fbe 9e02 65bb 1483 d83d ce11 203e
000001b0: c2c7 803d 6790 dabc 6c99 ff3d fa16 08be
000001c0: c191 40be a246 a7bd 4f85 0d3e ae88 c53d
000001d0: 3b72 fcbd 4444 2e3d 4957 4e3e dec2 0d3e
000001e0: f862 3f3d e927 f73d 6cef a83d 79c1 d33d
000001f0: 5b52 3eba 077b 803b 5067 38be 61e1 893d
00000200: 7af3 20bc 1aa7 213e 1b30 773c 3a65 c0bd
00000210: d5da 293e 7be3 19bd ed85 2f3e 3c31 273e
00000220: 2415 dabd d6d5 373e 72db 1abe eb41 d93d
00000230: c053 f0bd 6c76 ddbd cebd 133d f793 9fbc
00000240: 22da edbd 569b 4bbd 956d 393e 0598 b63b
00000250: b860 08be 6b0a 353e 815b e4bc 000f 08bc
00000260: 98cf a3bd 3195 44bd 09cb fcbd a505 01be
00000270: 1416 57bc 24ec 2a3d ccd5 0abb 14c9 10be
00000280: d9a1 893d 0f41 5c3e 1def 49bd fc9d 323e
00000290: 6183 6ebd d223 d3bd 6b47 dcbd f286 893c
000002a0: 712c 313e 59b4 3dbd 34e9 e43d 905d 453e
000002b0: 758e 22bd 085f b53c ff87 373e 9418 983c
000002c0: 8ef0 87bc cf87 2abd 27c9 cbba bf62 0f3e
000002d0: 7298 1e3e a198 19be 8d89 00be 73e6 9fbc
000002e0: ba69 1c3e 5e9c 073e d31e 0bbd d7a4 e0bd
000002f0: 25ae 303e f87d 16bd 47ce a83d f71d 3c3e
00000300: 229e 023e 798d 333e 026a 023d 34ae 403e
00000310: c13d 443e aa91 5ebd fab3 4abd e38d d8bc
00000320: b846 45bd e7ed 1fbc 3990 b8ba 3cac 9b3b
00000330: a105 103d 13b8 213d 6b45 efbd e4b3 21bd
00000340: aa8c 323d 68f2 1dbd 8e5a 38be 554f f13c
00000350: fc34 ef3a be48 9bbc 67c6 5f3d d893 513e
00000360: 5bcf 10bd 5647 76bc 782d e73d 55ce 463e
00000370: 3b79 30bd bfe8 e0bc 83d1 1abd 0acf fbbd
00000380: 4703 fa3d ffdd 153e 3267 d53d 4059 c53d
00000390: 5a18 bf3c 21be 0cbd a226 6b3d cbd9 f0bd
000003a0: 27db 2c3e 8ba6 e8bb 2c44 e4bd a4bb 30be
000003b0: 5f99 8ebd 6669 0c3d 74c2 fdbd a77e 163e
000003c0: 7b54 443e f90b bb3d 0afe f6bd c118 e3bd
000003d0: 0cd6 e03d 2a61 22bd 1ab0 36be 20b9 29be
000003e0: e7c9 36bd 40ea 03be b752 e3bd f5e9 bbbd
000003f0: f4fc f93c 3aaa 83bb aa9f 403e 0554 90bd

action_model._discrete_distribution.branches.0.bias f4 [2]
-0.057282582 0.057282906
00000000: 24a1 6abd 7ba1 6a3d
