results/ManAgent/ManAgent/ManAgent-2691.pt (torch, 502227 bytes, 33 tensors)

network_body._body_endoder.seq_layers.0.weight f4 [128, 26]
0.14707896 -0.0015829266 0.26789016 -0.046281893 0.14108194 -0.4672159 -0.13540746 0.09921099
-0.18434633 0.262471 -0.41316032 -0.046395026 0.02019756 0.15024762 0.14411767 0.35675597
-0.20142095 -0.06990604 0.31102794 -0.31309664 0.0291688 -0.08864894 -0.18179142 -0.056744207
-0.19419071 0.14214051 0.12750474 -0.1430198 0.053852964 0.2945156 -0.073153764 -0.35972124
0.066426665 -0.13246194 -0.12199031 -0.19854024 0.08309767 -0.11328331 -0.11008333 -0.013869881
-0.1743792 0.02188679 0.014497299 -0.054515995 -0.26031023 0.12929747 -0.07322968 -0.10857489
-0.2580873 -0.016838849 -0.31908572 0.07392495 0.0686661 -0.3144997 -0.061875936 -0.27255175
0.13073528 -0.11128298 0.3676698 0.06854193 -0.27685264 -0.077056676 0.021498842 0.06983828
0.034094952 0.25725764 -0.09849294 0.12622692 0.014153386 0.054798793 0.09500661 -0.24168499
0.20070699 0.113192335 0.04029138 -0.15151234 0.25908422 0.43446892 0.2239897 0.3265158
0.19543914 0.117787845 -0.07236952 -0.016045352 0.099729024 0.18588883 0.19635698 0.27708527
0.07340125 0.046427432 0.31393698 0.20917316 0.2147172 0.0665048 0.06566642 0.29903063
0.17468563 -0.08883205 0.32422164 -0.21349007 -0.012429792 -0.01882089 0.017826982 0.2970316
0.18173684 0.20998955 -0.46395084 0.02030628 0.06921969 -0.11029484 0.053194515 0.03846076
0.4452953 -0.20507611 -0.3403134 -3.445312e-05 0.18864717 -0.21065691 -0.28266832 -0.05960563
-0.26618814 -0.16919374 -0.14997555 -0.3866692 0.018962136 0.05536704 -0.18214358 0.1274011
-0.1585975 0.26504916 0.13748758 -0.09888427 0.21097578 -0.024863854 -0.098720856 -0.16406181
-0.14876354 0.2987123 -0.16458376 -0.2921784 -0.10883859 -0.36396042 0.38059008 -0.09977393
0.11640516 0.49019593 -0.078565806 0.028086063 0.092142 -0.16452691 -0.13710774 -0.37107447
0.26325482 -0.3591463 -0.053244617 -0.15772782 0.26300493 0.27546623 0.24604769 -0.1982966
-0.17941178 0.055864003 0.03679796 0.26466614 0.052946087 0.21064974 0.2872583 0.47106996
-0.04992126 -0.034876164 -0.01642224 -0.35660994 -0.13458432 -0.2034318 0.054578304 -0.24099065
0.13367924 0.0040448676 0.30164644 0.28438836 -0.16634732 -0.08800826 0.1495373 0.04267427
-0.009744853 -0.0077824583 -0.12594946 0.26537782 -0.15920721 0.30876884 -0.0636885 0.2733566
-0.143417 -0.13983797 -0.0120173795 0.036893595 0.05682142 0.06559254 -0.15148357 -0.047383614
0.2925899 -0.22667116 0.09701331 0.09338545 0.2128894 0.33003026 0.08365972 0.06211156
-0.029108249 -0.3228515 0.020063907 0.1160577 0.25938305 -0.27943784 -0.07630074 0.0531858
0.13145347 0.04211573 -0.15086254 0.03601927 0.03159504 0.22136539 -0.13178672 0.2857219
-0.04844833 -0.09615299 -0.07323111 0.14324296 0.030368833 -0.26441887 -0.04467199 -0.0012077596
0.15197179 -0.13908176 -0.14466724 -0.039736547 -0.05276514 -0.046438873 -0.07528363 -0.065084144
0.19266242 0.065282404 -0.02287823 0.19961314 0.067888916 -0.30182624 -0.19920866 -0.1952865
0.1803519 -0.15173882 -0.18694022 0.058873482 -0.05513093 -0.0012223307 0.1491477 -0.25192907
00000000: de9b 163e 347a cfba e628 893e 1592 3dbd
00000010: c977 103e ec36 efbe 41a8 0abe 222f cb3d
00000020: 49c5 3cbe 9962 863e c089 d3be b608 3ebd
00000030: 5a75 a53c 83da 193e 9593 133e b8a8 b63e
00000040: 4b41 4ebe e62a 8fbd 0e3f 9f3e 344e a0be
00000050: 68f3 ee3c 938d b5bd 8827 3abe 9d6c 68bd
00000060: eed9 46be 488d 113e 9a90 023e c873 12be
00000070: ed94 5c3d c0ca 963e a4d1 95bd 622d b8be
00000080: b40a 883d 1aa4 07be 0ed6 f9bd 224e 4bbe
00000090: 1c2f aa3d 1401 e8bd 5e73 e1bd 7f3e 63bc
000000a0: 7690 32be ed4b b33c 1486 6d3c 2a4c 5fbd
000000b0: 6247 85be 8e66 043e 71f9 95bd 835c debd
000000c0: 0524 84be a0f1 89bc 345f a3be f765 973d
000000d0: d0a0 8c3d 1b06 a1be 9f71 7dbd e78b 8bbe
000000e0: 78df 053e 55e8 e3bd 373f bc3e b65f 8c3d
000000f0: a1bf 8dbe e4cf 9dbd 571e b03c 5f07 8f3d
00000100: 26a7 0b3d 46b7 833e abb6 c9bd a141 013e
00000110: 9ae3 673c b374 603d d392 c23d 457c 77be
00000120: 2286 4d3e 62d1 e73d 9308 253d 0d26 1bbe
00000130: b0a6 843e b672 de3e 8e5d 653e 142d a73e
00000140: 3321 483e c13a f13d 7936 94bd 8b71 83bc
00000150: bb3e cc3d a459 3e3e ce11 493e 1fde 8d3e
00000160: 6553 963d b12a 3e3d 59bc a03e 7d31 563e
00000170: d3de 5b3e ab33 883d 1e7c 863d 8b1a 993e
00000180: cae0 323e 94ed b5bd 6100 a63e 249d 5abe
00000190: 54a6 4bbc 442e 9abc e409 923c 8714 983e
000001a0: 3919 3a3e 8007 573e f78a edbe 5b59 a63c
000001b0: 0ec3 8d3d 43e2 e1bd 7ee2 593d 0889 1d3d
000001c0: bffd e33e 79ff 51be 8f3d aebe c281 10b8
000001d0: b92c 413e 72b6 57be e7b9 90be 0825 74bd
000001e0: d049 88be 2041 2dbe 3193 19be 81f9 c5be
000001f0: 7b56 9b3c 8dc8 623d d983 3abe 6f75 023e
00000200: 6267 22be 86b4 873e 8bc9 0c3e d683 cabd
00000210: 090a 583e 48af cbbc 292e cabd d2ff 27be
00000220: 7855 18be d2f0 983e a588 28be 6898 95be
00000230: c4e6 debd 0559 babe b4dc c23e 4656 ccbd
00000240: d465 ee3d f6fa fa3e 1ce7 a0bd be14 e63c
00000250: f2b4 bc3d be79 28be f965 0cbe 79fd bdbe
00000260: 56c9 863e 06e2 b7be 0717 5abd 6783 21be
00000270: 95a8 863e e909 8d3e edf3 7b3e 440e 4bbe
00000280: b9b7 37be a7d1 643d 75b9 163d 5282 873e
00000290: ffdd 583d 91b4 573e 8513 933e 1530 f13e
000002a0: 3c7a 4cbd 4fda 0ebd ef87 86bc 9495 b6be
000002b0: 79d0 09be 6d50 50be 808d 5f3d 41c6 76be
000002c0: 36e3 083e cf8a 843b 6771 9a3e 5a9b 913e
000002d0: f456 2abe ad3d b4bd 4e20 193e 37cb 2e3d
000002e0: e0a8 1fbc fe03 ffbb e5f8 00be 9adf 873e
000002f0: 3707 23be f316 9e3e 1e6f 82bd 65f5 8b3e
00000300: e8db 12be af31 0fbe 8be4 44bc bd1d 173d
00000310: 94bd 683d 6255 863d 821e 1bbe 5215 42bd
00000320: 58ce 953e 7c1c 68be eaae c63d df40 bf3d
00000330: aeff 593e baf9 a83e ca55 ab3d b168 7e3d
00000340: 6c74 eebc cb4c a5be 105d a43c a9af ed3d
00000350: dbcd 843e 7a12 8fbe 9043 9cbd 5ad9 593d
00000360: bd9b 063e 8b81 2c3d b67b 1abe f188 133d
00000370: cd69 013d 9cad 623e 19f3 06be 244a 923e
00000380: c271 46bd dceb c4bd 31fa 95bd 48ae 123e
00000390: 0fc8 f83c e961 87be faf9 36bd b04d 9eba
000003a0: 7e9e 1b3e 736b 0ebe a623 14be cac2 22bd
000003b0: 4220 58bd b036 3ebd 4e2e 9abd d64a 85bd
000003c0: 4c49 453e c8b2 853d 206b bbbc 6367 4c3e
000003d0: 5809 8b3d f888 9abe 5bfd 4bbe 2ff9 47be
000003e0: 2bae 383e 6c61 1bbe 426d 3fbe 5225 713d
000003f0: f8d0 61bd 9d36 a0ba 2dba 183e d9fc 80be

network_body._body_endoder.seq_layers.0.bias f4 [128]
0.002215382 0.01742884 -0.00094776176 0.009235237 -0.008645355 -0.014462356 0.011883696 0.00690989
-0.011042773 0.0031435508 0.0105297025 0.012429881 -0.008053258 0.00019475268 -0.0058842706 0.0077632456
-0.0069663036 0.0053450833 0.013567649 -0.003570002 -0.012018584 0.0090275565 0.0009708608 -0.00908082
-0.0055940575 0.001999136 0.018382741 0.0021410356 0.0021624444 0.0028435853 -0.008742613 0.005109074
0.00070658466 -0.0056347083 0.007435518 0.0041676713 0.014648623 -0.007818145 0.011325907 -0.0012335278
0.0057166493 0.011488776 -0.0024876446 -0.009287763 -0.008224881 0.0005156317 0.00022470432 -0.013729941
0.013026584 -0.00090399187 0.001410753 -0.014840256 -0.0023393824 0.008601113 -0.017441878 -0.00025605047
0.0067383866 -0.016482638 -0.0025722925 -0.0026770427 0.011281584 0.0032724745 0.009150961 0.014047268
-0.018153988 -0.0014114332 -0.0083875405 0.0017329527 0.003254719 0.015278259 -0.00719529 0.012778005
0.0031032653 0.008738518 0.0013186883 -0.009923644 -0.0010337442 -0.00092598994 -0.01110257 0.003858525
0.015741287 0.011796162 0.0035086384 0.016599303 0.008729065 0.016542995 0.019452285 0.011776027
-0.015154178 0.00720506 0.008093665 -0.008427388 0.004253068 0.018018756 -0.0070719803 -0.0072268154
-0.011649146 -0.002930922 -0.0017161609 -0.0074518 0.012712416 0.000121571364 -0.0023866212 -0.0050881477
0.0060462886 -0.007185501 0.0030523469 0.015738096 0.017797986 0.0055752858 -0.010308813 -0.0076765493
-0.005705601 -0.015122758 0.0017255306 -0.0019543588 0.014582975 -0.013221596 0.009088298 0.017481515
0.010694586 -0.0007213907 -0.002798647 0.0038908713 -0.002515813 -0.008538913 -0.014958058 0.013334856
00000000: f12f 113b edc6 8e3c 3773 78ba 644f 173c
00000010: 3fa5 0dbc 85f3 6cbc d5b3 423c 5c6c e23b
00000020: bfec 34bc 0804 4e3b c684 2c3c b3a6 4b3c
00000030: d0f1 03bc 8636 4c39 d7d0 c0bb d362 fe3b
00000040: 9745 e4bb cf25 af3b d84a 5e3c b2f6 69bb
00000050: 98e9 44bc 51e8 133c 5e81 7e3a b8c7 14bc
00000060: 5b4e b7bb f003 033b 6797 963c 9e50 0c3b
00000070: ccb7 0d3b 725b 3a3b 2d3d 0fbc 056a a73b
00000080: 183a 393a 5ca3 b8bb a5a5 f33b f690 883b
00000090: c700 703c ad17 00bc 4c90 393c 53ae a1ba
000000a0: bb52 bb3b 6b3b 3c3c c007 23bb b42b 18bc
000000b0: a7c1 06bc 752b 073a 9b9e 6b39 8cf3 60bc
000000c0: 746d 553c def9 6cba 04e9 b83a 8c24 73bc
000000d0: 5350 19bb afeb 0c3c 45e2 8ebc 833e 86b9
000000e0: afcd dc3b 9906 87bc e893 28bb 5371 2fbb
000000f0: 65d6 383c 0377 563b eaed 153c 8326 663c
00000100: acb7 94bc d7ff b8ba e56b 09bc 3e24 e33a
00000110: 204d 553b aa51 7a3c 78c6 ebbb d65a 513c
00000120: 2760 4b3b 002c 0f3c d6d7 ac3a c896 22bc
00000130: b37e 87ba 22be 72ba 8ee7 35bc 4fdf 7c3b
00000140: dff3 803c b144 413c 2ff1 653b 43fb 873c
00000150: 5a04 0f3c 2d85 873c 665a 9f3c 3df0 403c
00000160: 3b49 78bc 6d18 ec3b 4b9b 043c 0713 0abc
00000170: 525d 8b3b 129c 933c 12bc e7bb ecce ecbb
00000180: 0fdc 3ebc b614 40bb cef0 e0ba 3b2e f4bb
00000190: bd47 503c 21f4 fe38 dc68 1cbb 7aba a6bb
000001a0: f21f c63b 5a74 ebbb e209 483b 2eed 803c
000001b0: 15cd 913c e3b0 b63b 4ce6 28bc 908b fbbb
000001c0: 0df6 babb 72c5 77bc 332b e23a b314 00bb
000001d0: 6eed 6e3c 659f 58bc 16e7 143c 6535 8f3c
000001e0: 5838 2f3c b61b 3dba 8169 37bb fdfd 7e3b
000001f0: 57e0 24bb cce6 0bbc a412 75bc 717a 5a3c

network_body._body_endoder.seq_layers.2.weight f4 [128, 128]
0.025712619 -0.009171691 -0.04139496 0.0090153 0.13413487 0.046997543 -0.023946146 -0.021568703
-0.026090043 -0.27927956 -0.050442405 -0.15163347 0.027802063 -0.034690116 0.0001378771 0.105015494
-0.020624056 0.014354148 0.07264705 -0.009149649 0.025181277 0.042459343 0.01013028 0.0055799247
-0.030833239 0.0064255027 -0.0132054975 0.05140427 0.0018957682 -0.041258056 -0.020435177 0.11089857
-0.112461984 -0.13051452 0.007339408 -0.006954848 -0.038701743 -0.12712407 0.09846045 0.07428632
0.009476388 0.03630843 -0.0145403985 -0.14372912 0.026977925 -0.12538883 -0.0578608 0.012984758
-0.054610375 -0.09213727 -0.013963724 0.12507042 -0.05878634 0.0149492 0.054265525 -0.054235917
-0.06526049 -0.08870615 0.085098736 0.116836436 -0.028040662 -0.110563144 -0.17514221 -0.0079694595
-0.0031692765 0.014885065 0.021727132 0.025111396 0.028690036 0.026203942 0.11033363 -0.1051006
-0.01733086 0.1318402 0.018045934 -0.07828962 -0.07018766 -0.014406875 0.030099612 -0.11206539
0.07844316 -0.07633964 -0.005260935 0.009403582 0.1396409 0.017152475 0.032376375 0.12672167
-0.048208684 -0.0065748803 0.08891157 0.10651523 0.12423271 0.04855249 -0.008240945 0.02553497
0.0077867485 0.009052315 0.036150746 -0.014202807 0.07397844 -0.009301103 0.18763408 0.12227633
0.1484578 -0.03381401 0.077832095 0.02885119 -0.00016211507 0.08572252 0.006248619 -0.06610761
0.11233155 -0.09612789 -0.017249204 0.07440578 -0.10983004 -0.03004367 0.032933835 -0.021570534
0.13060482 0.20057385 0.11516107 0.064015254 0.023659877 0.12605275 -0.032718554 0.013120174
-0.08679037 -0.05951905 -0.07625537 -0.053672105 -0.04856942 -0.15009221 -0.10277731 0.10672353
0.18592413 -0.20596915 0.0010624926 0.0276293 -0.11963518 0.011366283 0.016069423 -0.12048022
-0.038985215 0.066689156 0.08099656 0.011684258 -0.08516801 0.1202143 0.14445777 0.09038074
0.07949739 0.08190944 0.078418985 0.091395944 -0.020761658 0.08679503 -0.009682797 -0.046535023
0.099733345 0.1562986 -0.13065353 -0.08573664 0.06878415 -0.0037185044 0.055103183 0.18875316
0.059388235 0.20154227 0.06639792 -0.03744266 0.0103378715 0.01321185 0.102140956 -0.15305388
0.06598146 -0.02991998 -0.11092466 0.03342899 0.1295371 0.010153801 -0.011001878 -0.07150207
-0.022731388 -0.032294255 0.02141739 -0.106737055 0.030203708 -0.085829005 0.015833018 -0.02478814
-0.068719156 0.015618275 -0.12562999 0.10324455 0.09673878 0.005519127 0.028069342 0.11872835
0.1455281 0.10834643 0.060994517 -0.0316598 0.089104325 0.036298808 0.07850056 -0.051126435
-0.04579811 -0.016946884 0.00035301724 0.045649588 0.028610786 0.019542666 -0.12338239 -0.1923861
-0.056661304 -0.23253301 0.05805399 0.118798465 0.059556205 0.026525237 -0.015505551 0.049376074
-0.042497326 0.0870705 -0.23978505 0.03389906 0.01680125 -0.032814175 -0.18181567 0.17414965
-0.03968203 -0.030197425 -0.0016638018 0.116557434 -0.11535582 -0.13449453 -0.053384967 -0.026646767
0.026277063 -0.052341834 0.024403105 -0.030943263 0.2096502 0.11817125 -0.03182642 0.030653818
-0.048232175 -0.17717047 0.12677158 -0.10275305 0.057771984 -0.025147103 0.14446342 -0.10630953
00000000: 45a3 d23c dc44 16bc c38d 29bd e9b4 133c
00000010: a75a 093e 7f80 403d b52a c4bc d9b0 b0bc
00000020: c9ba d5bc bbfd 8ebe b29c 4ebd ce45 1bbe
00000030: 27c1 e33c 3917 0ebd 1a93 1039 5d12 d73d
00000040: c8f3 a8bc a92d 6b3c fac7 943d 69e8 15bc
00000050: f748 ce3c d9e9 2d3d 79f9 253c cdd7 b63b
00000060: fd95 fcbc 068d d23b df5b 58bc 498d 523d
00000070: 6d7b f83a 35fe 28bd ac67 a7bc ca1e e33d
00000080: 7852 e6bd 99a5 05be 6b7f f03b 7ee5 e3bb
00000090: b885 1ebd d02c 02be a2a5 c93d 6d23 983d
000000a0: da42 1b3c 26b8 143d da3a 6ebc ba2d 13be
000000b0: cf00 dd3c ee65 00be 72ff 6cbd 06be 543c
000000c0: 21af 5fbd 77b2 bcbd 1ac8 64bc 7612 003e
000000d0: f2c9 70bd 7ded 743c 8745 5e3d 7b26 5ebd
000000e0: 4ba7 85bd 92ab b5bd 3f48 ae3d f147 ef3d
000000f0: 88b5 e5bc ee6e e2bd 7b58 33be 5692 02bc
00000100: a3b3 4fbb 7de0 733c 19fd b13c 6ab6 cd3c
00000110: 5e07 eb3c a6a9 d63c 99f6 e13d fc3e d7bd
00000120: 73f9 8dbc 1e01 073e 11d5 933c 4f56 a0bd
00000130: 8cbe 8fbd d00a 6cbc 7693 f63c 8a82 e5bd
00000140: cfa6 a03d f557 9cbd ec63 acbb 7b11 1a3c
00000150: 06fe 0e3e 5983 8c3c 179d 043d 53c3 013e
00000160: 7876 45bd 1872 d7bb 4517 b63d a824 da3d
00000170: b86d fe3d fade 463d 0705 07bc b72e d13c
00000180: fb27 ff3b 2950 143c ce12 143d e4b2 68bc
00000190: 0282 973d a763 18bc 2623 403e 036c fa3d
000001a0: 5205 183e 8f80 0abd 6f66 9f3d 5559 ec3c
000001b0: 6ffd 29b9 4a8f af3d 37c1 cc3b 6d63 87bd
000001c0: 150e e63d b3de c4bd 344e 8dbc 0f62 983d
000001d0: 92ee e0bd 251e f6bc a1e5 063d b0b4 b0bc
000001e0: 45bd 053e 3b63 4d3e 91d9 eb3d 6e1a 833d
000001f0: 5cd2 c13c f913 013e e403 06bd 00f6 563c
00000200: 26bf b1bd 3fca 73bd c72b 9cbd 48d7 5bbd
00000210: baf0 46bd c6b1 19be e97c d2bd de91 da3d
00000220: e562 3e3e 94e9 52be 5643 8b3a d756 e23c
00000230: 4a03 f5bd a539 3a3c 06a4 833c 55be f6bd
00000240: f6ae 1fbd 5394 883d 86e1 a53d 546f 3f3c
00000250: 916c aebd ea32 f63d bdec 133e 8a19 b93d
00000260: 87cf a23d 23c0 a73d 229a a03d cc2d bb3d
00000270: 5a14 aabc 98c1 b13d 98a4 1ebc 829b 3ebd
00000280: ff40 cc3d bd0c 203e 0aca 05be b196 afbd
00000290: b4de 8c3d 27b2 73bb e0b3 613d 8248 413e
000002a0: 1441 733d 1961 4e3e a2fb 873d 7a5d 19bd
000002b0: 2d60 293c 8476 583c 472f d13d 28ba 1cbe
000002c0: 4a21 873d bf1a f5bc 782c e3bd d6ec 083d
000002d0: 60a5 043e 215c 263c 3941 34bc ad6f 92bd
000002e0: 2d37 babc fb46 04bd 8673 af3c f598 dabd
000002f0: c46d f73c 1ec7 afbd 3fb4 813c 7f10 cbbc
00000300: a1bc 8cbd cbe3 7f3c 26a5 00be e171 d33d
00000310: fb1e c63d cbd9 b43b adf1 e53c d927 f33d
00000320: 5105 153e bce4 dd3d 63d5 793d b5ad 01bd
00000330: 547c b63d 0fae 143d e7c4 a03d f469 51bd
00000340: cd96 3bbd 31d4 8abc 2c15 b939 10fb 3a3d
00000350: 2b61 ea3c f117 a03c e8af fcbd dd00 45be
00000360: af15 68bd 221d 6ebe 05ca 6d3d 9c4c f33d
00000370: 35f1 733d 744b d93c ff0a 7ebc 913e 4a3d
00000380: ad11 2ebd 0552 b23d 368a 75be bed9 0a3d
00000390: c6a2 893c 2868 06bd e32d 3abe 4954 323e
000003a0: a089 22bd 9760 f7bc ed13 daba aab5 ee3d
000003b0: ac3f ecbd efb8 09be 32aa 5abd 524a dabc
000003c0: ff42 d73c 6464 56bd 05e9 c73c ba7c fdbc
000003d0: 8bae 563e c503 f23d 6c5c 02bd b71d fb3c
000003e0: 1a8f 45bd 2d6c 35be 69d0 013e 3170 d2bd
000003f0: 51a2 6c3d 4c01 cebc 38ee 133e d0b8 d9bd

network_body._body_endoder.seq_layers.2.bias f4 [128]
-0.008477528 -0.00040498908 -0.012376944 0.00025478785 -0.012687381 0.00802017 0.015433616 -0.0112836845
0.013162263 -0.0049373633 -0.010707519 -0.010911184 -0.007106076 0.0014916199 0.008199527 0.017042778
-0.00081483606 0.007066027 -0.0032663816 -0.011109222 0.012506291 0.005633196 -0.00431938 0.004251362
0.007818948 0.0052350755 -0.013261292 0.0095633 0.009109103 -0.009542812 0.004217271 0.0057237125
0.018077897 0.009641726 0.014842809 0.00060805015 -0.009047684 0.007436415 -0.014468355 -0.007991788
0.0034059063 -0.0064210184 -6.973477e-05 -0.0148879355 0.0061301966 -0.003668947 -0.0026948 -0.0062423702
0.015555582 0.008479841 0.00016718733 0.009866832 0.016193958 -0.01193244 -0.010306983 0.0021484762
0.008790492 0.013310567 -0.0068645366 0.011618417 0.00985251 -0.0033628016 -0.009892604 -0.008823539
-0.0017974534 0.009838987 -0.008915066 -0.010019081 0.002806356 -0.014786526 -0.009894845 0.011734451
0.009237951 -0.010356358 0.00946221 0.011892994 0.00034037314 -0.013614155 -0.0010760518 0.0012335106
-0.011565767 0.0031096553 -0.008063124 0.008013462 0.008811091 0.009734728 0.0023431703 -0.004164684
0.0022496113 -0.0020273156 -7.669973e-05 0.0119090285 -0.008187579 -0.0013482877 0.010045317 -0.0022008454
0.014124127 -0.009140856 -0.0011712917 0.0017822736 -0.008827865 0.011389002 0.010985011 0.016886618
-0.010033127 -0.008114641 0.012293307 -0.007144366 0.013598393 -0.012484026 0.008407568 0.0025745365
-0.014852271 -0.005281418 -0.002561741 -0.01120877 -0.0056715 0.0013040609 -0.008944649 0.016424716
0.014267904 -0.010366208 -0.0024409404 -0.012922402 -0.006972505 -0.008096236 -0.010292525 -0.0019023387
00000000: 54e5 0abc b754 d4b9 aac8 4abc 0c95 8539
00000010: bcde 4fbc 0867 033c 47dd 7c3c 34df 38bc
00000020: 88a6 573c 9bc9 a1bb 976e 2fbc d3c4 32bc
00000030: 16da e8bb 7582 c33a 4f57 063c 4c9d 8b3c
00000040: b99a 55ba 218a e73b ca10 56bb 7403 36bc
00000050: 30e7 4c3c ac96 b83b 9689 8dbb 024f 8b3b
00000060: 0b1b 003c ff8a ab3b e445 59bc 63af 1c3c
00000070: 593e 153c 7459 1cbc 0931 8a3b fb8d bb3b
00000080: 1918 943c 54f8 1d3c 412f 733c 8e65 1f3a
00000090: bd3c 14bc 2cad f33b ae0c 6dbc fdef 02bc
000000a0: a035 5f3b 6867 d2bb 923e 92b8 87ec 73bc
000000b0: d1df c83b b772 70bb 3e9b 30bb cc8c ccbb
000000c0: d7dc 7e3c 08ef 0a3c 024f 2f39 7ea8 213c
000000d0: 31a9 843c 4880 43bc 9fde 28bc 73cd 0c3b
000000e0: ff05 103c 9014 5a3c e8ef e0bb 2c5b 3e3c
000000f0: 6c6c 213c 7362 5cbb 9714 22bc 9b90 10bc
00000100: 8798 ebba b433 213c 7f10 12bc 1227 24bc
00000110: d7ea 373b 2f43 72bc fd1d 22bc db41 403c
00000120: c65a 173c b7ad 29bc 6307 1b3c d5da 423c
00000130: 1c74 b239 e80d 5fbc 4f0a 8dba bfad a13a
00000140: 587e 3dbc 5ccb 4b3b 311b 04bc e54a 033c
00000150: 655c 103c 697e 1f3c e08f 193b e777 88bb
00000160: 376e 133b b6dc 04bb dbd9 a0b8 161e 433c
00000170: 3225 06bc 07b9 b0ba 1d95 243c 0f3c 10bb
00000180: e268 673c 87c3 15bc 0786 99ba 2e9b e93a
00000190: c0a2 10bc f098 3a3c 7afa 333c ce55 8a3c
000001a0: fc61 24bc 45f3 04bc de69 493c 491b eabb
000001b0: cbcb 5e3c cd89 4cbc e5bf 093c 8eb9 283b
000001c0: f156 73bc bf0f adbb e2e2 27bb fda4 37bc
000001d0: fed7 b9bb 06ed aa3a 948c 12bc 208d 863c
000001e0: edc3 693c 07d7 29bc 2ff8 1fbb 7bb8 53bc
000001f0: 9c79 e4bb 13a6 04bc fba1 28bc e557 f9ba

action_model._discrete_distribution.branches.0.weight f4 [2, 128]
-0.0048465217 0.008726875 0.005264334 0.0012867003 0.016518997 0.018032111 -0.013776016 0.028961318
-0.025520675 0.015343793 0.0015243551 0.0048488965 0.0011480212 -0.0029835848 0.003394155 -0.015113944
-0.004163104 -0.012779023 0.021201143 0.021135256 -0.010387488 -0.0032336616 -0.0064671985 -0.0017339129
-0.016958931 0.001362304 -0.0046319943 -0.008621595 -0.014039155 0.007364798 0.008291781 -0.013283211
-0.02440808 -0.014123258 -0.009341054 0.014943052 0.0041723778 -0.014333702 0.006828034 0.00726195
0.01102049 0.029074902 -0.007078973 0.007377272 0.0004584044 -0.0018917677 0.017056352 0.018895524
-0.025306085 -0.0092897415 -0.00014777976 -0.010412 -0.020672591 -0.000112817186 0.0044157193 0.008207516
-0.011237602 -0.007301848 0.0020580865 -0.013420198 -0.007043477 0.002078724 0.00042847398 -0.0054301126
0.0012893314 -0.012020443 0.008723919 0.024126982 0.0073163155 0.011609275 0.0058018314 -0.006268249
-0.009209214 0.01121539 -0.020433506 -0.02268103 -0.0039952314 -0.0009467161 0.005219232 0.0055138078
0.018380877 -0.011231915 -0.00071962806 -0.0076690065 -0.010886134 -0.0150297675 -0.011597779 0.01664321
0.0012105139 0.01706549 0.019974979 -0.023507163 0.0012451655 -0.008872346 -0.008779399 0.007694198
-0.01782638 0.017996129 -7.23933e-05 0.0048213517 0.010100947 -0.0070708557 -0.0064119534 -0.010269278
0.0010732975 -0.00510712 0.00034468662 0.019893067 -0.021156432 0.027467502 0.0028988565 0.012917415
0.0049749697 0.014426834 -0.0062744734 0.010754947 0.011824932 0.0036928118 0.014123554 -0.021311486
-0.023530401 0.01795399 0.008041097 0.004987199 0.008514098 0.00039654426 0.0058214925 -0.0017873645
-0.009663601 -0.035676934 -0.013111742 0.0015660705 -0.007143129 -0.005575213 0.011618125 -0.021977698
0.032635022 -0.023552742 -0.0091288 -0.008992163 -0.020944461 0.0046401457 -0.02267659 0.020097367
0.0004282804 0.0100629795 -0.0058015753 -0.0072253956 0.0059000985 0.020463713 -0.0050286967 -0.012914911
0.0061410884 0.011018072 0.0019651938 0.013184078 0.018461335 -0.0022291052 -0.0028438878 -0.0020488326
0.0043226816 0.010559518 0.011549531 -0.0061621354 0.0043743816 0.0004200355 0.01114823 -0.008767301
-0.016726503 -0.017135808 0.011667616 -0.0027601575 0.005411744 -0.00045381644 -0.014667898 -0.00992652
0.023996292 0.025159398 -0.010143534 0.004827769 0.017317818 -0.004432492 -0.0057339864 -0.0036309226
0.004258704 -0.0040602544 -0.006392617 0.04395755 0.01431929 0.002542156 -0.0064046592 -0.011851556
-0.0033377174 0.0066902293 -0.007810128 -0.014466702 0.013454371 0.005987543 -0.007342415 0.021759678
0.004632533 -0.0039488953 0.013202804 0.006254513 -0.003857485 0.00902264 0.006478593 0.013030926
-0.013545379 -0.016097946 0.0050411313 0.013171408 0.008310855 0.016529087 -0.0037514484 0.0014961445
-0.009935252 -0.02415328 -0.0146732 0.0045969053 -0.0059107593 -0.0007948777 0.0077830167 -0.009894829
0.009656809 -0.015402765 -0.0025383285 0.0020004972 0.0023166884 -0.0028257035 0.007896751 0.014583367
-0.008242875 -0.015966885 0.018010901 0.0023939854 0.0009375957 -0.00040832188 0.016516546 -0.0062716994
-0.01253108 -0.015773673 -0.013018024 -0.0064603416 -0.0038670737 0.005830649 -0.007964229 0.017976457
0.017765613 -0.009904507 0.020075846 0.00033135753 -0.0050698062 -0.023548804 -0.0064228736 -0.004456352
00000000: 92cf 9ebb 2bfb 0e3c 6f80 ac3b 7fa6 a83a
00000010: d952 873c 14b8 933c cdb4 61bc 4940 ed3c
00000020: bc10 d1bc 8864 7b3c dfcc c73a 7ee3 9e3b
00000030: 3379 963a 3f88 43bb 7970 5e3b 7aa0 77bc
00000040: a66a 88bb 1b5f 51bc 05ae ad3c d823 ad3c
00000050: 4830 2abc d7eb 53bb cbea d3bb 7644 e3ba
00000060: 75ed 8abc 568f b23a fcc7 97bb 9741 0dbc
00000070: 7c04 66bc 6754 f13b 40da 073c d3a1 59bc
00000080: 74f3 c7bc 3d65 67bc 380b 19bc b4d3 743c
00000090: 71b8 883b e7d7 6abc b3bd df3b a7f5 ed3b
000000a0: 498f 343c 7d2e ee3c bbf6 e7bb 0bbd f13b
000000b0: ff55 f039 31f5 f7ba c3b9 8b3c c9ca 9a3c
000000c0: b54e cfbc 0034 18bc 54f5 1ab9 1897 2abc
000000d0: 9159 a9bc 4498 ecb8 bdb1 903b d178 063c
000000e0: eb1d 38bc 5744 efbb f6e0 063b 64e0 5bbc
000000f0: f8cc e6bb 343b 083b cea4 e039 16ef b1bb
00000100: c8fe a83a 64f1 44bc c5ee 0e3c f3a5 c53c
00000110: b4bd ef3b d434 3e3c 4a1d be3b e265 cdbb
00000120: 3ee2 16bc c1c0 373c 2b64 a7bc 91cd b9bc
00000130: 6eea 82bb 0b2d 78ba 1706 ab3b 2cad b43b
00000140: 7e93 963c 1106 38bc 6ca5 3cba 4a4c fbbb
00000150: c15b 32bc 6a3f 76bc 9c04 3ebc 5757 883c
00000160: 1baa 9e3a edcc 8b3c 91a2 a33c 1892 c0bc
00000170: d234 a33a 515d 11bc 78d7 0fbc 9c1f fc3b
00000180: a108 92bc 9e6c 933c dbd1 97b8 6efc 9d3b
00000190: 717e 253c a3b2 e7bb 5d1b d2bb 7940 28bc
000001a0: e3ad 8c3a a159 a7bb 0eb7 b439 c9f6 a23c
000001b0: 4150 adbc 8703 e13c befa 3d3b 91a3 533c
000001c0: 1205 a33b 875e 6c3c 199a cdbb 8435 303c
000001d0: 5cbd 413c 1a03 723b 7b66 673c 6d95 aebc
000001e0: d4c2 c0bc 3f14 933c cebe 033c a86b a33b
000001f0: b77e 0b3c 45e7 cf39 38c2 be3b 0046 eaba
00000200: 1554 1ebc fa21 12bd a2d2 56bc 9b44 cd3a
00000210: e910 eabb 47b0 b6bb f359 3e3c 930a b4bc
00000220: 4dac 053d aef1 c0bc f690 15bc de53 13bc
00000230: b893 abbc 5d0c 983b 42c4 b9bc 3ca3 a43c
00000240: d28a e039 32df 243c 241b bebb 03c3 ecbb
00000250: 9d55 c13b 84a3 a73c c4c7 a4bb 1099 53bc
00000260: 2f3b c93b 2585 343c 7bca 003b 0802 583c
00000270: 3a3c 973c 2e16 12bb 8560 3abb b545 06bb
00000280: 48a5 8d3b d401 2d3c 3e3a 3d3c bdeb c9bb
00000290: f956 8f3b 3638 dc39 11a7 363c baa4 0fbc
000002a0: 0506 89bc 6560 8cbc 8729 3f3c c2e3 34bb
000002b0: 0055 b13b 36ee edb9 a051 70bc d8a2 22bc
000002c0: df93 c43c 151b ce3c 1131 26bc 4332 9e3b
000002d0: 19de 8d3c 703e 91bb 2ae4 bbbb c6f4 6dbb
000002e0: 998c 8b3b e20b 85bb 2879 d1bb d50c 343d
000002f0: 759b 6a3c 4d9a 263b 2dde d1bb 072d 42bc
00000300: 9bbd 5abb b639 db3b 1aec ffbb bf05 6dbc
00000310: b96f 5c3c 2733 c43b a498 f0bb 5a41 b23c
00000320: 81cc 973b bc65 81bb 9350 583c a8f2 cc3b
00000330: dccd 7cbb b2d3 133c 614a d43b aa7f 553c
00000340: 70ed 5dbc d7df 83bc 1330 a53b e4cc 573c
00000350: 412a 083c 0268 873c dcda 75bb 471a c43a
00000360: 78c7 22bc 19dd c5bc dd67 70bc a3a1 963b
00000370: 0baf c1bb 575f 50ba ad08 ff3b ec1d 22bc
00000380: 9837 1e3c e15b 7cbc 165a 26bb c61a 033b
00000390: 95d3 173b 702f 39bb 6061 013c 13ef 6e3c
000003a0: 200d 07bc fccc 82bc 998b 933c 69e4 1c3b
000003b0: fbc8 753a 0914 d6b9 b54d 873c d482 cdbb
000003c0: 294f 4dbc ca37 81bc 8d49 55bc 46b1 d3bb
000003d0: bb6e 7dbb 070f bf3b 667c 02bc 5d43 933c
000003e0: 3189 913c 8346 22bc 1a76 a43c 0eba ad39
000003f0: 9e20 a6bb 6ce9 c0bc f876 d2bb 9706 92bb

action_model._discrete_distribution.branches.0.bias f4 [2]
-0.010744539 0.010744536
00000000: dd09 30bc da09 303c

exp_avg f4 [128, 26]
-0.00015387082 -4.6012257e-05 -0.00012692974 2.239358e-19 -0.00019988306 -0.00019988306 0.0 -0.00019988306
-0.00019988306 2.8628095e-19 -0.00019988306 -0.00019988306 0.0 -0.00019988306 -0.00019988306 7.402473e-20
-0.00019988306 -0.00019988306 0.0 -0.00019988306 -0.00019988306 0.0011992984 -0.00020316246 0.0
0.0 4.393142e-18 9.402915e-06 -1.6315051e-06 3.2631885e-06 -8.6240506e-20 7.771411e-06 7.771411e-06
0.0 7.771411e-06 7.771411e-06 2.3700984e-21 7.771411e-06 7.771411e-06 0.0 7.771411e-06
7.771411e-06 2.365766e-22 7.771411e-06 7.771411e-06 0.0 7.771411e-06 7.771411e-06 -4.6628476e-05
7.9058755e-06 0.0 0.0 -1.2313263e-18 -0.0001440073 -1.7899702e-05 -8.848834e-05 1.1065971e-18
-0.00016190701 -0.00016190701 0.0 -0.00016190701 -0.00016190701 3.114617e-19 -0.00016190701 -0.00016190701
0.0 -0.00016190701 -0.00016190701 -1.5399584e-20 -0.00016190701 -0.00016190701 0.0 -0.00016190701
-0.00016190701 0.00097144203 -0.00016444309 0.0 0.0 2.3533381e-17 0.00059028267 0.00018252975
0.0004742613 -1.2283348e-18 0.00077281235 0.00077281235 0.0 0.00077281235 0.00077281235 -6.0042585e-19
0.00077281235 0.00077281235 0.0 0.00077281235 0.00077281235 -1.6129597e-19 0.00077281235 0.00077281235
0.0 0.00077281235 0.00077281235 -0.0046368754 0.0007855545 0.0 0.0 -1.7924362e-17
-3.7026246e-06 -2.2917276e-07 -2.2582012e-06 -7.785154e-20 -3.9317956e-06 -3.9317956e-06 0.0 -3.9317956e-06
-3.9317956e-06 5.833353e-21 -3.9317956e-06 -3.9317956e-06 0.0 -3.9317956e-06 -3.9317956e-06 2.7298037e-21
-3.9317956e-06 -3.9317956e-06 0.0 -3.9317956e-06 -3.9317956e-06 2.359078e-05 -3.998168e-06 0.0
0.0 -1.5855156e-18 0.00019708143 6.339675e-05 0.00015904859 -5.835685e-19 0.0002604782 0.0002604782
0.0 0.0002604782 0.0002604782 -1.5417604e-19 0.0002604782 0.0002604782 0.0 0.0002604782
0.0002604782 -2.1897196e-20 0.0002604782 0.0002604782 0.0 0.0002604782 0.0002604782 -0.0015628693
0.00026470426 0.0 0.0 -1.0845664e-17 0.0007584858 0.00024427284 0.0006224849 -1.686123e-18
0.0010027585 0.0010027585 0.0 0.0010027585 0.0010027585 -8.5890273e-19 0.0010027585 0.0010027585
0.0 0.0010027585 0.0010027585 -2.6713265e-19 0.0010027585 0.0010027585 0.0 0.0010027585
0.0010027585 -0.006016552 0.001019266 0.0 0.0 -2.4770584e-17 6.9436566e-05 1.4835248e-05
4.964123e-05 -1.9328019e-19 8.4271815e-05 8.4271815e-05 0.0 8.4271815e-05 8.4271815e-05 -1.8716486e-19
8.4271815e-05 8.4271815e-05 0.0 8.4271815e-05 8.4271815e-05 -5.7067236e-20 8.4271815e-05 8.4271815e-05
0.0 8.4271815e-05 8.4271815e-05 -0.0005056309 8.564193e-05 0.0 0.0 -2.181676e-18
0.00021501006 7.8775614e-05 0.00018490686 2.3123948e-19 0.0002937857 0.0002937857 0.0 0.0002937857
0.0002937857 -9.7601496e-20 0.0002937857 0.0002937857 0.0 0.0002937857 0.0002937857 -7.574966e-20
0.0002937857 0.0002937857 0.0 0.0002937857 0.0002937857 -0.0017627142 0.00029855047 0.0
0.0 8.290087e-18 0.00024842183 8.612428e-05 0.00020838082 -1.9259449e-19 0.00033454614 0.00033454614
0.0 0.00033454614 0.00033454614 -1.9727155e-19 0.00033454614 0.00033454614 0.0 0.00033454614
0.00033454614 -5.913536e-20 0.00033454614 0.00033454614 0.0 0.00033454614 0.00033454614 -0.002007277
00000000: 6258 21b9 49fd 40b8 7118 05b9 3930 8420
00000010: b397 51b9 b397 51b9 0000 0000 b397 51b9
00000020: b397 51b9 8efd a820 b397 51b9 b397 51b9
00000030: 0000 0000 b397 51b9 b397 51b9 34c9 ae1f
00000040: b397 51b9 b397 51b9 0000 0000 b397 51b9
00000050: b397 51b9 c731 9d3a 0208 55b9 0000 0000
00000060: 0000 0000 0e14 a222 36c1 1d37 17fa dab5
00000070: 27fd 5a36 30a1 cb9f f561 0237 f561 0237
00000080: 0000 0000 f561 0237 f561 0237 5f14 331d
00000090: f561 0237 f561 0237 0000 0000 f561 0237
000000a0: f561 0237 7500 8f1b f561 0237 f561 0237
000000b0: 0000 0000 f561 0237 f561 0237 f292 43b8
000000c0: 7aa3 0437 0000 0000 0000 0000 31b6 b5a1
000000d0: aa00 17b9 5127 96b7 d192 b9b8 0e4e a321
000000e0: 95c5 29b9 95c5 29b9 0000 0000 95c5 29b9
000000f0: 95c5 29b9 c3da b720 95c5 29b9 95c5 29b9
00000100: 0000 0000 95c5 29b9 95c5 29b9 e971 919e
00000110: 95c5 29b9 95c5 29b9 0000 0000 95c5 29b9
00000120: 95c5 29b9 5fa8 7e3a 5b6e 2cb9 0000 0000
00000130: 0000 0000 a00e d923 33bd 1a3a 7565 3f39
00000140: 46a6 f839 2d45 b5a1 8f96 4a3a 8f96 4a3a
00000150: 0000 0000 8f96 4a3a 8f96 4a3a e536 31a1
00000160: 8f96 4a3a 8f96 4a3a 0000 0000 8f96 4a3a
00000170: 8f96 4a3a b76c 3ea0 8f96 4a3a 8f96 4a3a
00000180: 0000 0000 8f96 4a3a 8f96 4a3a eef0 97bb
00000190: aced 4d3a 0000 0000 0000 0000 b452 a5a3
000001a0: 9b7a 78b6 8712 76b4 9a8b 17b6 5ed2 b79f
000001b0: deed 83b6 deed 83b6 0000 0000 deed 83b6
000001c0: deed 83b6 ba60 dc1d deed 83b6 deed 83b6
000001d0: 0000 0000 deed 83b6 deed 83b6 1542 4e1d
000001e0: deed 83b6 deed 83b6 0000 0000 deed 83b6
000001f0: deed 83b6 d0e4 c537 0028 86b6 0000 0000
00000200: 0000 0000 16fb e9a1 a5a7 4e39 dff3 8438
00000210: 48c6 2639 303d 2ca1 cb90 8839 cb90 8839
00000220: 0000 0000 cb90 8839 cb90 8839 d904 36a0
00000230: cb90 8839 cb90 8839 0000 0000 cb90 8839
00000240: cb90 8839 2cd0 ce9e cb90 8839 cb90 8839
00000250: 0000 0000 cb90 8839 cb90 8839 31d9 ccba
00000260: 01c8 8a39 0000 0000 0000 0000 3311 48a3
00000270: 1fd5 463a bf11 8039 412e 233a edd3 f8a1
00000280: fe6e 833a fe6e 833a 0000 0000 fe6e 833a
00000290: fe6e 833a db80 7da1 fe6e 833a fe6e 833a
000002a0: 0000 0000 fe6e 833a fe6e 833a f2af 9da0
000002b0: fe6e 833a fe6e 833a 0000 0000 fe6e 833a
000002c0: fe6e 833a 7f26 c5bb e498 853a 0000 0000
000002d0: 0000 0000 e377 e4a3 799e 9138 e8e4 7837
000002e0: dd35 5038 5a2f 64a0 16bb b038 16bb b038
000002f0: 0000 0000 16bb b038 16bb b038 1cf7 5ca0
00000300: 16bb b038 16bb b038 0000 0000 16bb b038
00000310: 16bb b038 07bf 869f 16bb b038 16bb b038
00000320: 0000 0000 16bb b038 16bb b038 518c 04ba
00000330: a99a b338 0000 0000 0000 0000 b2fa 20a2
00000340: 5374 6139 5634 a538 8fe3 4139 ec7f 8820
00000350: 4007 9a39 4007 9a39 0000 0000 4007 9a39
00000360: 4007 9a39 7c74 e69f 4007 9a39 4007 9a39
00000370: 0000 0000 4007 9a39 4007 9a39 dcdb b29f
00000380: 4007 9a39 4007 9a39 0000 0000 4007 9a39
00000390: 4007 9a39 e00a e7ba c486 9c39 0000 0000
000003a0: 0000 0000 d4ec 1823 9d3e 8239 9f9d b438
000003b0: cd80 5a39 1d60 63a0 0666 af39 0666 af39
000003c0: 0000 0000 0666 af39 0666 af39 abe5 68a0
000003d0: 0666 af39 0666 af39 0000 0000 0666 af39
000003e0: 0666 af39 22a1 8b9f 0666 af39 0666 af39
000003f0: 0000 0000 0666 af39 0666 af39 858c 03bb

exp_avg_sq f4 [128, 26]
9.5479216e-08 1.9226465e-07 2.2078646e-07 3.3631617e-09 2.7897008e-07 2.7939842e-07 0.0 2.8204238e-07
2.8204238e-07 1.5598422e-08 2.64541e-07 2.6632534e-07 0.0 2.8204238e-07 2.8204238e-07 6.864996e-09
2.7414794e-07 2.746296e-07 0.0 2.8204238e-07 2.8204238e-07 1.0153523e-05 8.2310146e-07 0.0
0.0 2.81509e-06 2.6386675e-09 5.651094e-09 7.2056943e-09 1.5731337e-09 6.938121e-09 7.1151334e-09
0.0 8.443879e-09 8.443879e-09 4.4658253e-11 8.4566825e-09 8.446518e-09 0.0 8.443879e-09
8.443879e-09 7.628687e-11 8.3997636e-09 8.402094e-09 0.0 8.443879e-09 8.443879e-09 3.0398024e-07
2.7455865e-08 0.0 0.0 5.8970255e-07 1.4468e-07 9.286009e-07 9.844389e-07 5.5670647e-08
1.04664e-06 1.0454962e-06 0.0 1.0768194e-06 1.0768194e-06 2.9424301e-08 1.0678932e-06 1.064333e-06
0.0 1.0768194e-06 1.0768194e-06 5.0648974e-09 1.0707377e-06 1.0712685e-06 0.0 1.0768194e-06
1.0768194e-06 3.876552e-05 8.132976e-06 0.0 0.0 6.003431e-05 1.4669546e-06 3.9806964e-06
4.281355e-06 1.2131166e-07 5.2094356e-06 5.2580417e-06 0.0 5.358957e-06 5.358957e-06 1.252216e-07
5.3212243e-06 5.3126137e-06 0.0 5.358957e-06 5.358957e-06 2.6976574e-07 5.1768648e-06 5.1754278e-06
0.0 5.358957e-06 5.358957e-06 0.00019292254 2.1937436e-05 0.0 0.0 6.524174e-05
1.538589e-08 3.4286103e-08 4.3816087e-08 4.8473656e-09 4.593384e-08 4.6093596e-08 0.0 5.045182e-08
5.045182e-08 3.1978115e-10 5.0029904e-08 5.007069e-08 0.0 5.045182e-08 5.045182e-08 1.9475775e-10
5.0315784e-08 5.031486e-08 0.0 5.045182e-08 5.045182e-08 1.8162618e-06 2.6263814e-07 0.0
0.0 6.2368867e-06 1.3215066e-07 2.5827552e-07 2.8956362e-07 1.1123943e-08 3.7893236e-07 3.8045377e-07
0.0 3.888935e-07 3.888935e-07 2.962103e-09 3.866976e-07 3.8641588e-07 0.0 3.888935e-07
3.888935e-07 7.887538e-09 3.8160286e-07 3.817098e-07 0.0 3.888935e-07 3.888935e-07 1.4000163e-05
1.2651765e-06 0.0 0.0 1.0418787e-05 2.3495804e-06 6.3329676e-06 6.864859e-06 1.7126402e-07
8.360297e-06 8.436708e-06 0.0 8.578625e-06 8.578625e-06 1.8366147e-07 8.511866e-06 8.500571e-06
0.0 8.578625e-06 8.578625e-06 3.6251566e-07 8.323701e-06 8.321715e-06 0.0 8.578625e-06
8.578625e-06 0.00030883073 3.183572e-05 0.0 0.0 0.000108287284 2.273771e-08 5.252049e-08
5.877434e-08 1.1664064e-09 7.144576e-08 7.228764e-08 0.0 7.390543e-08 7.390543e-08 1.0708117e-09
7.3320756e-08 7.327776e-08 0.0 7.390543e-08 7.390543e-08 2.0050306e-09 7.218094e-08 7.222446e-08
0.0 7.390543e-08 7.390543e-08 2.6605976e-06 5.6429656e-07 0.0 0.0 4.0732743e-06
1.2414363e-07 5.6324564e-07 6.207725e-07 3.501777e-08 6.6298384e-07 6.740505e-07 0.0 7.035741e-07
7.035741e-07 2.437285e-08 7.0701907e-07 7.0262536e-07 0.0 7.035741e-07 7.035741e-07 8.722537e-08
6.4689993e-07 6.46296e-07 0.0 7.035741e-07 7.035741e-07 2.5328729e-05 4.9038736e-06 0.0
0.0 2.9675368e-05 2.4459194e-07 5.9193627e-07 6.422439e-07 1.6651741e-08 8.0223833e-07 8.1123466e-07
0.0 8.2538656e-07 8.2538656e-07 1.9004633e-08 8.103351e-07 8.1170316e-07 0.0 8.2538656e-07
8.2538656e-07 3.731455e-08 7.9663187e-07 7.978681e-07 0.0 8.2538656e-07 8.2538656e-07 2.971392e-05
00000000: 410a cd33 4e71 4e34 5211 6d34 5e1d 6731
00000010: 5bc5 9534 3a00 9634 0000 0000 9c6b 9734
00000020: 9c6b 9734 4bfd 8532 3d06 8e34 7afb 8e34
00000030: 0000 0000 9c6b 9734 9c6b 9734 25e1 eb31
00000040: 9b2e 9334 ce70 9334 0000 0000 9c6b 9734
00000050: 9c6b 9734 0d59 2a37 1af3 5c35 0000 0000
00000060: 0000 0000 e1ea 3c36 ee53 3531 8c2b c231
00000070: f595 f731 b935 d830 5c64 ee31 6079 f431
00000080: 0000 0000 9310 1132 9310 1132 b968 442e
00000090: e248 1132 2e1c 1132 0000 0000 9310 1132
000000a0: 9310 1132 b1c1 a72e 8d4e 1032 cd58 1032
000000b0: 0000 0000 9310 1132 9310 1132 ba32 a334
000000c0: 16d8 eb32 0000 0000 0000 0000 0d4c 1e35
000000d0: 5659 1b34 f844 7935 1021 8435 861a 6f33
000000e0: 477a 8c35 fa52 8c35 0000 0000 3c87 9035
000000f0: 3c87 9035 b9c0 fc32 8854 8f35 34da 8e35
00000100: 0000 0000 3c87 9035 3c87 9035 4f07 ae31
00000110: 44b6 8f35 81c8 8f35 0000 0000 3c87 9035
00000120: 3c87 9035 2998 2238 de72 0837 0000 0000
00000130: 0000 0000 59cd 7b38 2de4 c435 ec91 8536
00000140: 8fa8 8f36 e541 0234 b6cc ae36 3c6e b036
00000150: 0000 0000 17d1 b336 17d1 b336 a774 0634
00000160: f88c b236 0143 b236 0000 0000 17d1 b336
00000170: 17d1 b336 52d4 9034 eeb4 ad36 96a8 ad36
00000180: 0000 0000 17d1 b336 17d1 b336 404b 4a39
00000190: 4906 b837 0000 0000 0000 0000 64d2 8838
000001a0: ee29 8432 f841 1333 4c30 3c33 e18d a631
000001b0: cb48 4533 72f8 4533 0000 0000 5db0 5833
000001c0: 5db0 5833 32cd af2f 76e0 5633 4e0d 5733
000001d0: 0000 0000 5db0 5833 5db0 5833 6f23 562f
000001e0: ca1a 5833 c619 5833 0000 0000 5db0 5833
000001f0: 5db0 5833 48c6 f335 b600 8d34 0000 0000
00000200: 0000 0000 7346 d136 4ce5 0d34 1ea9 8a34
00000210: 5275 9b34 9e1b 3f32 1170 cb34 2b41 cc34
00000220: 0000 0000 1ec9 d034 1ec9 d034 de8d 4b31
00000230: 509b cf34 9874 cf34 0000 0000 1ec9 d034
00000240: 1ec9 d034 c281 0732 19df cc34 cced cc34
00000250: 0000 0000 1ec9 d034 1ec9 d034 3ee2 6a37
00000260: 22cf a935 0000 0000 0000 0000 59cc 2e37
00000270: 7cad 1d36 c77f d436 b158 e636 b2e4 3734
00000280: 3443 0c37 638b 0d37 0000 0000 eaec 0f37
00000290: eaec 0f37 7b34 4534 30ce 0e37 ad9d 0e37
000002a0: 0000 0000 eaec 0f37 eaec 0f37 c69f c234
000002b0: 06a6 0b37 7e9d 0b37 0000 0000 eaec 0f37
000002c0: eaec 0f37 8fea a139 5887 0538 0000 0000
000002d0: 0000 0000 4b18 e338 c150 c332 e492 6133
000002e0: 126f 7c33 474f a030 b96d 9933 8d3c 9b33
000002f0: 0000 0000 f1b5 9e33 f1b5 9e33 d62b 9330
00000300: 8374 9d33 e05c 9d33 0000 0000 f1b5 9e33
00000310: f1b5 9e33 dfc8 0931 e401 9b33 d119 9b33
00000320: 0000 0000 f1b5 9e33 f1b5 9e33 b88c 3236
00000330: 2a7a 1735 0000 0000 0000 0000 29ad 8836
00000340: 574c 0534 f231 1735 29a3 2635 7266 1633
00000350: e7f7 3135 66f0 3435 0000 0000 3edd 3c35
00000360: 3edd 3c35 775c d132 fbc9 3d35 0c9c 3c35
00000370: 0000 0000 3edd 3c35 3edd 3c35 a750 bb33
00000380: a0a6 2d35 1f7d 2d35 0000 0000 3edd 3c35
00000390: 3edd 3c35 0879 d437 f48b a436 0000 0000
000003a0: 0000 0000 5eef f837 7650 8334 8de5 1e35
000003b0: aa66 2c35 9109 8f32 6659 5735 9fc3 5935
000003c0: 0000 0000 2290 5d35 2290 5d35 a13f a332
000003d0: ce85 5935 d1e3 5935 0000 0000 2290 5d35
000003e0: 2290 5d35 c843 2033 20d8 5535 142d 5635
000003f0: 0000 0000 2290 5d35 2290 5d35 2842 f937

exp_avg f4 [128]
-0.00019988306 7.771411e-06 -0.00016190701 0.00077281235 -3.9317956e-06 0.0002604782 0.0010027585 8.4271815e-05
0.0002937857 0.00033454614 0.0007691404 0.0015385082 -0.0005733741 4.5624525e-05 -0.00029671576 0.00051385345
2.8122879e-05 0.00020881806 0.00013736509 -0.00015229636 -0.00011497028 7.7233824e-07 5.263324e-05 -0.00019689229
-8.725857e-05 0.0004919862 0.0004964834 -3.287006e-05 -0.00020096998 2.8834853e-05 -4.8421443e-05 5.740669e-05
0.0003496645 0.00020796349 4.7947728e-05 0.00042727205 -7.678549e-05 -1.1599338e-05 -3.8049224e-05 1.1747029e-05
0.0012601484 0.0011209359 -6.397491e-05 -2.67235e-05 -0.00041674613 0.00025822324 2.93866e-05 -3.665352e-05
0.00092535315 -0.00027106327 0.0009846579 3.7785438e-05 -9.187846e-06 9.711361e-05 -2.8368313e-05 0.00048371463
6.2998966e-05 -0.00015124005 -0.00054754096 4.8811322e-05 0.0005752217 7.0530227e-06 9.87377e-05 0.00080566446
-0.00010906614 0.00013516967 -5.6605837e-05 8.3759674e-05 3.8151934e-06 0.00042910269 -8.058609e-05 0.0013995189
-0.0002805594 0.00026737252 0.00025761995 -2.6773307e-05 2.0169819e-05 2.7915865e-05 3.2958167e-05 -3.708005e-05
0.0002522467 -0.00025762588 -4.274331e-05 0.00015533547 5.2712792e-05 0.0005898478 0.000116286305 0.0012438459
-0.00010627454 0.0010788532 0.00067593815 -1.3164153e-05 -3.3704637e-05 0.0007761294 -3.325793e-05 -2.4592087e-05
9.948522e-05 7.169456e-05 0.0005934631 2.343965e-05 0.0003611603 5.6390245e-06 1.5217618e-05 6.508168e-05
0.00041237142 -0.00022511228 -1.1243604e-05 -0.00014591994 0.0011771228 0.00046381712 -2.9348047e-07 7.1301976e-05
1.1447622e-06 8.021384e-06 0.00033262864 -9.302731e-05 -4.8077578e-05 -0.00012817231 0.00053242664 0.0012743105
4.327937e-05 -0.00013920444 1.6780656e-05 -1.9395811e-05 0.00024617984 -0.00026031476 -2.5938776e-05 1.2474525e-05
00000000: b397 51b9 f561 0237 95c5 29b9 8f96 4a3a
00000010: deed 83b6 cb90 8839 fe6e 833a 16bb b038
00000020: 4007 9a39 0666 af39 23a0 493a c5a7 c93a
00000030: 7c4e 16ba f65c 3f38 8490 9bb9 1fb4 063a
00000040: 6ce9 eb37 2cf6 5a39 a909 1039 beb1 1fb9
00000050: 331c f1b8 ae52 4f35 83c2 5c38 df74 4eb9
00000060: 97fe b6b8 a3f8 003a 7026 023a f5dd 09b8
00000070: 78bb 52b9 60e2 f137 2118 4bb8 f7c7 7038
00000080: 2d53 b739 c610 5a39 7b1b 4938 7c03 e039
00000090: e507 a1b8 c79a 42b7 0b97 1fb8 1b15 4537
000000a0: 902b a53a 5eec 923a 452a 86b8 472c e0b7
000000b0: b87e dab9 2362 8739 3e83 f637 6bbc 19b8
000000c0: 6693 723a 7f1d 8eb9 a30f 813a ce7b 1e38
000000d0: 8025 1ab7 79a9 cb38 7df8 edb7 149b fd39
000000e0: 501e 8438 3196 1eb9 da88 0fba c2ba 4c38
000000f0: 7aca 163a 01a9 ec36 6611 cf38 3a33 533a
00000100: 70ba e4b8 55bc 0d39 0e6c 6db8 22a8 af38
00000110: 4304 8036 30f9 e039 5400 a9b8 1070 b73a
00000120: 0c18 93b9 222e 8c39 2a11 8739 3d97 e0b7
00000130: 5b32 a937 dd2c ea37 903c 0a38 6786 1bb8
00000140: fb3f 8439 f611 87b9 4847 33b8 8ce1 2239
00000150: ee17 5d38 04a0 1a3a bcde f338 8b08 a33a
00000160: b6df deb8 4e68 8d3a 7131 313a 9bdb 5cb7
00000170: 145e 0db8 2a75 4b3a 6e7e 0bb8 1b4b ceb7
00000180: b9a2 d038 b95a 9638 a292 1b3a 44a0 c437
00000190: 1d5a bd39 da36 bd36 2c4f 7f37 767c 8838
000001a0: 8e33 d839 1e0c 6cb9 e9a2 3cb7 1602 19b9
000001b0: b049 9a3a 7b2c f339 a68f 9db4 f587 9538
000001c0: bba5 9935 9593 0637 a964 ae39 a817 c3b8
000001d0: e8a6 49b8 fe65 06b9 8c92 0b3a c406 a73a
000001e0: df86 3538 68f7 11b9 2fc4 8c37 30b4 a2b7
000001f0: b311 8139 db7a 88b9 1997 d9b7 ad49 5137

exp_avg_sq f4 [128]
2.8204238e-07 8.443879e-09 1.0768194e-06 5.358957e-06 5.045182e-08 3.888935e-07 8.578625e-06 7.390543e-08
7.035741e-07 8.2538656e-07 4.1344233e-06 2.1233713e-05 3.8478997e-06 2.8618146e-07 9.915315e-07 2.6286257e-06
5.0801208e-09 3.5020827e-07 5.6510197e-07 2.5128008e-07 1.9943653e-07 9.10425e-09 2.0638529e-08 5.6382504e-07
1.8961528e-07 1.2769929e-06 1.1916328e-06 3.9351477e-07 3.4220056e-07 1.43618495e-08 3.3182694e-08 4.0567066e-08
1.0598561e-06 2.3980323e-07 2.741583e-08 2.1761475e-06 1.18204696e-07 1.6111784e-07 1.8835205e-08 3.03028e-08
1.2592717e-05 8.739432e-06 2.4229593e-07 1.7465668e-08 1.8634186e-06 5.7385535e-07 3.88812e-08 7.2225544e-07
5.84298e-06 1.1970868e-06 6.460138e-06 1.4488368e-08 1.6732713e-08 7.20014e-08 1.6078603e-07 1.7794592e-06
4.6339554e-08 2.0623719e-07 2.9680984e-06 7.088494e-08 2.9210105e-06 1.199462e-09 1.6864294e-07 5.0666813e-06
2.9744342e-07 1.7419833e-07 4.4132176e-07 9.973127e-07 7.6795255e-09 1.1300073e-06 4.5879e-07 1.2798682e-05
1.0628324e-06 5.4476834e-07 5.834274e-07 1.2970663e-08 3.4498265e-07 5.390895e-09 3.6814992e-08 1.421672e-07
4.6749898e-07 5.492194e-07 7.725172e-08 2.9751686e-07 1.8841051e-07 2.6505788e-06 1.8827232e-07 9.94416e-06
1.9155485e-07 1.1730522e-05 3.6857277e-06 2.958183e-09 4.6862544e-07 7.03196e-06 1.15204806e-07 1.04838556e-07
2.2756299e-07 5.560938e-08 2.6101673e-06 5.5600076e-09 7.676657e-07 5.5072856e-08 6.197917e-08 1.408001e-07
1.7373319e-06 3.4605065e-07 2.2775385e-08 3.4966166e-07 1.1768282e-05 1.4943269e-06 1.6450363e-07 5.9990604e-08
7.227095e-08 1.8763375e-09 1.138206e-06 3.983487e-07 6.483154e-07 4.611485e-07 1.7892656e-06 1.0662086e-05
1.8587746e-08 3.895398e-07 7.597659e-08 3.224399e-07 6.6654724e-07 1.7099082e-06 1.3845015e-07 2.2932864e-09
00000000: 9c6b 9734 9310 1132 3c87 9035 17d1 b336
00000010: 5db0 5833 1ec9 d034 eaec 0f37 f1b5 9e33
00000020: 3edd 3c35 2290 5d35 6dba 8a36 0d1f b237
00000030: 351d 8136 7ba4 9934 c314 8535 7267 3036
00000040: 378d ae31 4204 bc34 83b1 1735 ace7 8634
00000050: b224 5634 ea68 1c32 9b48 b132 c359 1735
00000060: 0d99 4b34 2465 ab35 31f0 9f35 4244 d334
00000070: b0b7 b734 15bc 7632 c284 0e33 f63b 2e33
00000080: 6140 8e35 4ebe 8034 0c80 eb32 ee09 1236
00000090: b8d7 fd33 bcff 2c34 0ecb a132 4826 0233
000000a0: 4f45 5337 939f 1237 e614 8234 6907 9632
000000b0: 931a fa35 0a0b 1a35 55fe 2633 04e1 4135
000000c0: d10e c436 97ab a035 2ac4 d836 84e8 7832
000000d0: a0bb 8f32 309f 9a33 87a4 2c34 c1d5 ee35
000000e0: e106 4733 0c72 5d34 8b2f 4736 6839 9833
000000f0: 9406 4436 51da a430 3814 3534 7602 aa36
00000100: 50b0 9f34 460b 3b34 cdee ec34 67db 8535
00000110: e9ee 0332 c1aa 9735 9e4f f634 ecb9 5637
00000120: a5a6 8e35 323c 1235 d39c 1c35 94d5 5e32
00000130: 0e36 b934 d03a b931 831e 1e33 9fa6 1834
00000140: 92fc fa34 126e 1335 95e5 a533 68ba 9f34
00000150: e34d 4a34 99e0 3136 e727 4a34 d8d5 2637
00000160: 32ae 4d34 35ce 4437 5258 7736 e848 4b31
00000170: 6497 fb34 14f4 eb36 8366 f733 9b23 e133
00000180: 0a58 7434 29d7 6e33 552a 2f36 580a bf31
00000190: 9611 4e35 3f89 6c33 6919 8533 d62e 1734
000001a0: 452e e935 d7c8 b934 9aa3 c332 22b9 bb34
000001b0: 6370 4537 ae90 c835 6aa2 3034 2fd4 8033
000001c0: 6033 9b33 e1f0 0031 76c4 9835 a1dc d534
000001d0: e507 2e35 c493 f734 b326 f035 50e1 3237
000001e0: e3aa 9f32 f121 d134 9228 a333 cd1b ad34
000001f0: c7ec 3235 0080 e535 e3a8 1434 ec97 1d31
