results/ManAgent/ManAgent/ManAgent-38527.onnx (onnx, 85877 bytes, 6 tensors)

network_body._body_endoder.seq_layers.0.weight f4 [128, 26]
0	0xbe0a0e2a	-0.13481966
1	0xbde992e4	-0.1140497
2	0x3e18f59f	0.14937447
3	0x3e21ed74	0.15813237
4	0x3e41b8c8	0.18918145
5	0xbcb8fbbf	-0.02258098
6	0xbea44ae0	-0.32088375
7	0xbcbf6f24	-0.023368426
8	0x3ded9a9a	0.116017535
9	0xbebaf753	-0.36516818
10	0x3d8c8706	0.06861691
11	0xbda02c67	-0.07820969
12	0xbe9a6607	-0.30155966
13	0x3d885d91	0.066584714
14	0xbdb76f03	-0.08956721
15	0xbeb51238	-0.35365462
16	0xbe12a23a	-0.14319697
17	0x3e0497d2	0.1294854
18	0x3ea81322	0.32827097
19	0xbe72ee24	-0.23723656
20	0xbd2b19fa	-0.04177282
21	0xbe62f14d	-0.22162361
22	0xbe3d3d0c	-0.18480319
23	0xbc3fdcca	-0.011710355
24	0xbd314763	-0.04328097
25	0xbbc5768e	-0.0060260957
26	0x3e625d31	0.22105862
27	0xbe998237	-0.2998216
28	0xbe12d9c6	-0.14340886
29	0xbd85cabb	-0.065328084
30	0xbe0a6427	-0.13514768
31	0x3e10b9f3	0.14133434
32	0xbce2e3b9	-0.027696477
33	0xbdcf5dc8	-0.10125309
34	0xbe2abd15	-0.16673692
35	0x3e9a739f	0.30166337
36	0xbe829a04	-0.2550813
37	0xbdb41f23	-0.08795001
38	0x3d901a92	0.07036318
39	0x3ec24f02	0.37950903
40	0x3eb0d0e6	0.34534377
41	0x3ecac489	0.3960307
42	0x3ec3679f	0.38164994
43	0xbe3a1516	-0.18172106
44	0xbe63b8be	-0.22238442
45	0x3cc1f972	0.023678515
46	0xbde8be42	-0.11364414
47	0xbd4de872	-0.050270505
48	0x3dc30135	0.095217146
49	0xbd292cea	-0.0413026
50	0xbea19490	-0.31558657
51	0x3eb9f03e	0.36316103
52	0xbe5ac825	-0.21365412
53	0x3e858639	0.26078966
54	0x3ea2f607	0.3182833
55	0x3cf9480e	0.030429866
56	0xbe2fa3a1	-0.17152263
57	0x3e429305	0.19001396
58	0xbdc05488	-0.09391123
59	0x3e8059a5	0.25068393
60	0x3e325db5	0.17418559
61	0xbda1576c	-0.078780025
62	0x3de82c3e	0.113365635
63	0xbd7ca4ee	-0.061680727
64	0x3d02b484	0.031910434
65	0x3e2babd5	0.16764767
66	0x3e6dfcd5	0.23240979
67	0xbe88ef1f	-0.26744935
68	0x3e0d6c66	0.13810882
69	0xbec83368	-0.3910172
70	0xbe59510c	-0.21222323
71	0xb9af26d4	-0.0003340753
72	0xbdcc6185	-0.09979538
73	0xbece9899	-0.40350798
74	0x3e837962	0.25678545
75	0x3df2ca54	0.11854997
76	0x3e861325	0.2618648
77	0xbdef6e72	-0.11690988
78	0xbe725df6	-0.23668656
79	0x3ebdf291	0.37099126
80	0x3d955c97	0.07293051
81	0xbe4c1948	-0.19931519
82	0xbe9fa72c	-0.3118223
83	0xbe770bcb	-0.24125592
84	0x3e9f0371	0.31057313
85	0x3df5b02f	0.11996495
86	0x3d814d64	0.06313589
87	0xbdd01512	-0.10160269
88	0xbdf7299c	-0.12068483
89	0xbe7c40a0	-0.24634027
90	0x3913cd3c	0.00014095468
91	0xbdfee498	-0.124459445
92	0xbe3c9431	-0.18415906
93	0x3d82a5e4	0.063792974
94	0xbdef5876	-0.116867945
95	0xbe243c76	-0.16038689
96	0xbbc6b7d9	-0.006064397
97	0xbd966fa4	-0.073455125
98	0xbdce4692	-0.10072054
99	0x3e57cacf	0.21073459
100	0xbddeb853	-0.10875001
101	0xbe6153a5	-0.22004564
102	0x3db8562e	0.090008125
103	0x3ca029f0	0.019551247
104	0xbe7d24cc	-0.24721068
105	0xbdf0acc0	-0.117516994
106	0x3efd3bdd	0.49459735
107	0xbd2e0e38	-0.04249403
108	0xbcc0a7d2	-0.023517523
109	0xbe26d823	-0.16293387
110	0x3eaa9fe6	0.33325118
111	0xbd5162e1	-0.05111969
112	0x3de71582	0.11283399
113	0x3d2143d5	0.03937133
114	0x3eaf2e60	0.3421507
115	0x3e756203	0.2396317
116	0x3e2d9ede	0.16955134
117	0x3ebf6ef3	0.37389335
118	0xbe84ba77	-0.2592351
119	0x3e453781	0.19259454
120	0xbd7f7a23	-0.062372338
121	0x3a85550e	0.0010172443
122	0xbe4eea43	-0.20206551
123	0x3e4695fa	0.19393149
124	0x3e79af96	0.24383387
125	0x3da8ba47	0.082386546
126	0x3eaf1ca2	0.34201533
127	0xbb90238e	-0.0043987697
128	0xbdcfaeac	-0.10140738
129	0xbd3a1b53	-0.045436215
130	0x3e8980a2	0.26855952
131	0xbf02802a	-0.5097681
132	0x3dd11bf5	0.102104105
133	0xbc818387	-0.015809787
134	0x3dde29e7	0.10847836
135	0x3e3bd93e	0.1834459
136	0xbd44919a	-0.04799042
137	0x3ca047c4	0.01956547
138	0x3d76d526	0.060261868
139	0xbd47cc01	-0.048778538
140	0xbca91eb3	-0.020644521
141	0x3e8112de	0.25209707
142	0x3e4a020b	0.19727342
143	0xbd547c40	-0.051876307
144	0x3e56c111	0.20972086
145	0xbd941ba9	-0.07231838
146	0xbea013a2	-0.3126498
147	0xbe6c8647	-0.23098098
148	0x3d545b8c	0.05184512
149	0x3e810bd0	0.25204325
150	0xbe467d01	-0.19383623
151	0x3dca6c32	0.09883918
152	0x3d814b12	0.06313147
153	0x3d7eedb5	0.062238414
154	0x3e0ce4f4	0.13759214
155	0xbe11bcce	-0.1423218
156	0xbd5d8203	-0.054079067
157	0xbde48d98	-0.11159819
158	0x3eb738c3	0.35785493
159	0x3d9fdbe1	0.078056104
160	0xbe30fbe9	-0.17283596
161	0xbd950b66	-0.07277565
162	0x3e04c8fa	0.12967291
163	0xbd93517d	-0.07193277
164	0xbed88e75	-0.42296186
165	0xbea6aa17	-0.32551643
166	0x3e0f2cbd	0.1398191
167	0x3d0cecc6	0.034405492
168	0x3d4288c5	0.047493715
169	0xbdca6af9	-0.09883685
170	0xbe1923fb	-0.14955132
171	0xbd9e42cc	-0.07727584
172	0x3e41074c	0.1885044
173	0xbe05fd6d	-0.13084956
174	0x3e2db871	0.1696489
175	0xbdeaf569	-0.114725895
176	0x3e5ae769	0.21377338
177	0xbe6fe032	-0.23425367
178	0x3cb76b9d	0.022390181
179	0xbd9be1e9	-0.07611448
180	0xbe0073e9	-0.12544216
181	0xbe7e91c3	-0.24860291
182	0xbd0d9c62	-0.034572966
183	0x3e5e4b0a	0.21708313
184	0xbd78e459	-0.060764644
185	0xbe8312fe	-0.25600427
186	0x3df3c1dd	0.11902211
187	0x3e1a12ca	0.1504623
188	0xbe379caa	-0.17930856
189	0xbe4984a9	-0.19679512
190	0x3e9c7da7	0.30564615
191	0xbbffc925	-0.0078059607
192	0xbefa474f	-0.4888253
193	0xbe544625	-0.20729883
194	0x3cbb1c51	0.02284065
195	0x3d49ee69	0.04929963
196	0xbed331d7	-0.41248962
197	0x3daa18c5	0.08305506
198	0xbdd462b6	-0.1037039
199	0x3e2b390f	0.16720985
200	0xbc267917	-0.010160706
201	0xbd809c19	-0.06279773
202	0x3ddfba4c	0.10924205
203	0x3c0073cc	0.007840108
204	0xbcca6933	-0.024708366
205	0x3ada0314	0.0016632997
206	0x3dd601a0	0.10449529
207	0x3e696aaf	0.22794603
208	0xbe86b02b	-0.2630628
209	0x3e8eca48	0.27888703
210	0x3cf6a5d3	0.030108368
211	0x3e2f28dd	0.17105432
212	0xbe22a132	-0.15881804
213	0x3e2b7481	0.16743661
214	0xbc805dd5	-0.015669743
215	0x3e9d96f8	0.30779243
216	0x3dabd52c	0.08390269
217	0xbe4a77eb	-0.19772308
218	0xbd616970	-0.055032194
219	0xbc87fe87	-0.01660086
220	0xbdd10d69	-0.10207636
221	0xbe54697f	-0.20743369
222	0xbe8a3b1a	-0.26998216
223	0x3dbbb67c	0.091656655
224	0xbe0f4fc4	-0.13995272
225	0xbe7062be	-0.23475167
226	0xbd90c150	-0.070681214
227	0x3e37a302	0.17933276
228	0xbea4e914	-0.32209074
229	0xbe0c6d27	-0.13713513
230	0x3ed8c44c	0.42337263
231	0xbdddba83	-0.1082659
232	0xbe943a46	-0.2895071
233	0xbd876fe8	-0.06613141
234	0x3dd92d53	0.10604348
235	0xbdae7524	-0.085184366
236	0x3e258b12	0.16166332
237	0xbd5e0a07	-0.05420878
238	0x3e1051dd	0.14093728
239	0xbeb6f81a	-0.3573616
240	0xbe92bb0a	-0.28658324
241	0x3e8a6056	0.27026623
242	0xbee4d21a	-0.44691545
243	0x3d378e53	0.044813465
244	0x3c8ae149	0.016953127
245	0x3d22ccf0	0.039746225
246	0x3e87ad9f	0.2649965
247	0x3e48a752	0.19595078
248	0x3d413c26	0.047176503
249	0x3e64286b	0.22281043
250	0xbde0bac1	-0.109731205
251	0xbe1b1cc6	-0.15147695
252	0x3b500a83	0.0031744547
253	0xbba54a1f	-0.0050442363
254	0xbdc624d5	-0.09674994
255	0xbd4c2e8e	-0.049849086

network_body._body_endoder.seq_layers.0.bias f4 [128]
0	0xbd280188	-0.041017085
1	0x3c54aa60	0.012980074
2	0xbd051a6c	-0.0324959
3	0xbd0a3e50	-0.033750832
4	0x3c8373a7	0.016046358
5	0xbc848758	-0.016177818
6	0xbcbc98a9	-0.023022013
7	0x3c978279	0.018494831
8	0x3c118964	0.008882854
9	0x3b413d29	0.0029485917
10	0xbbdb93e3	-0.006700979
11	0x3c220a39	0.009890133
12	0xbccdc723	-0.02511937
13	0x3c99fe00	0.018797874
14	0xbc20ddee	-0.009818537
15	0x3d71b202	0.059007652
16	0xbbb88d0c	-0.0056320485
17	0x3c5aca94	0.013353962
18	0x3cc4ea91	0.024037631
19	0xbcdc4dd8	-0.026892588
20	0x3cd65c5c	0.026167087
21	0xbab20c02	-0.0013583901
22	0x384d8ff3	4.9009872e-05
23	0xbca31c9c	-0.019911103
24	0xbc96d957	-0.018414183
25	0xbc5af10a	-0.013363132
26	0xbc928fb1	-0.017890783
27	0xbc599d40	-0.01328212
28	0x3b6446d0	0.0034832247
29	0xbcd9147d	-0.026499027
30	0xbd785cb2	-0.060635276
31	0xbd344720	-0.044013143
32	0x3b5b4936	0.0033460385
33	0x3c762f90	0.015025988
34	0xbd78b231	-0.06071681
35	0x3d6a2133	0.057160567
36	0xbc8c964b	-0.017161509
37	0xbb24fb1a	-0.0025174082
38	0xbc084ffe	-0.008319853
39	0x3b8b7b69	0.004256655
40	0xbd06aad2	-0.03287775
41	0x3c96bdf0	0.018401116
42	0x3cdae748	0.026721612
43	0xbb02d54e	-0.0019963565
44	0x3cc811a1	0.024422469
45	0x3a296baa	0.00064628816
46	0x3d6d880f	0.057991084
47	0xbab64126	-0.0013904914
48	0xbc11818a	-0.008880982
49	0xbd048181	-0.032350067
50	0xbd3f2694	-0.04666765
51	0x3cd50a81	0.026005985
52	0x3b5e36b6	0.0033907122
53	0xbd315aff	-0.04329967
54	0x39135d6e	0.00014053818
55	0xbc3ab870	-0.011396512
56	0x3d2a7ef4	0.04162498
57	0xbbd8a685	-0.0066116476
58	0x3c886517	0.016649766
59	0x3c10ff98	0.008850001
60	0xbc409cb1	-0.011756108
61	0xbc72356b	-0.014783244
62	0x3ca757db	0.020427635
63	0x3b3fc01a	0.0029258789
64	0xbcde5caa	-0.027143795
65	0xbc99595a	-0.018719364
66	0x3d119f19	0.035552118
67	0x3d284526	0.04108157
68	0xbcd6c45f	-0.026216684
69	0xbd8107d9	-0.06300325
70	0xbb16049e	-0.0022890936
71	0x3c38c236	0.011276772
72	0xbc9c805a	-0.019104172
73	0x3b803664	0.003912734
74	0xbaec2b2b	-0.0018018236
75	0xbd19fc0e	-0.037593894
76	0xbc3d2962	-0.011545511
77	0x3d1d9410	0.03847128
78	0xbd57c0e6	-0.052674197
79	0x3d33709f	0.043808576
80	0xbcf734f3	-0.030176615
81	0x3d4495e2	0.047994502
82	0xbd249e29	-0.040189896
83	0xbc473b65	-0.012160157
84	0x3c4394cc	0.011937331
85	0x3cc2dcf4	0.023787
86	0x3d4276e1	0.047476653
87	0xbc351b38	-0.011053853
88	0xbdafe57f	-0.08588695
89	0xbc6f1673	-0.014592755
90	0xbc9a46b5	-0.018832544
91	0x3ce81d90	0.028334409
92	0xbcf6139f	-0.030038653
93	0xbc6a0a0e	-0.014284624
94	0x3c7ccb67	0.015429354
95	0xbc989581	-0.018625977
96	0x3d32a633	0.04361553
97	0xbb89dd00	-0.0042072535
98	0xbc939fd0	-0.01802054
99	0xbc686d56	-0.014186224
100	0xbb427181	-0.0029669704
101	0xbd1a5817	-0.037681665
102	0xbd9c91c1	-0.07644988
103	0x3c24ecb1	0.010066197
104	0x3c43c1d3	0.011948067
105	0x3d227ca6	0.039669655
106	0x3bd357e0	0.0064496845
107	0x3bf3e219	0.0074427244
108	0xbb4792fd	-0.0030452602
109	0x3c69fe50	0.014281824
110	0x3c531c11	0.0128851095
111	0xbdb3e01d	-0.087829806
112	0xba029491	-0.00049812446
113	0x3ceb0ea8	0.028693512
114	0x3c9ed403	0.019388204
115	0xbca1bd1b	-0.019743493
116	0xbbfd925e	-0.0077383956
117	0x3c7d4808	0.015459068
118	0xbc90fea7	-0.017699553
119	0xbcb10c3e	-0.021612283
120	0xbc0db77f	-0.008649706
121	0xbce95a56	-0.028485458
122	0xbc227e06	-0.009917742
123	0xbd0317fc	-0.032005295
124	0xbbd3e09b	-0.006465984
125	0x3be2411e	0.006904735
126	0x3d7eb26c	0.062181875
127	0xbb02a8ac	-0.0019936962

network_body._body_endoder.seq_layers.2.weight f4 [128, 128]
0	0xbd5aca6d	-0.053415705
1	0xbe4c78bf	-0.19967936
2	0x3d3d0800	0.046150208
3	0x3d99d783	0.07511809
4	0x3c3e4962	0.0116141755
5	0x3cd5e87f	0.02611184
6	0xbdc9e4b6	-0.09858076
7	0xbccf27ea	-0.025287587
8	0xbdbc1fac	-0.091857284
9	0xbdd4fe6f	-0.10400092
10	0xbd820fc4	-0.06350663
11	0xbe080ae1	-0.132854
12	0xbe5e5c19	-0.2171482
13	0xbde0f268	-0.10983735
14	0x3caf50d9	0.021400856
15	0xbda0f7da	-0.07859774
16	0x3d45a1b1	0.048249904
17	0x3b0ae90f	0.0021196043
18	0x3d1aa7bf	0.03775763
19	0x3e0559ae	0.13022491
20	0xbde20744	-0.11036542
21	0xbe21eb56	-0.1581243
22	0x3e2598c3	0.16171555
23	0x3caaa1f4	0.020829178
24	0xbccfaea3	-0.025351828
25	0xbe659e0c	-0.22423571
26	0x3dbfb9fb	0.09361645
27	0xbe0dbfaf	-0.13842653
28	0x3ce047be	0.02737796
29	0x3d37d29e	0.044878595
30	0x3da17212	0.07883085
31	0x3e1c8f74	0.15289098
32	0x3dca7254	0.098850876
33	0xbdf3fcd4	-0.119134575
34	0x3bdf0922	0.0068065086
35	0x3ddc22b1	0.10748804
36	0xbe5329a7	-0.20621358
37	0xbe1025b7	-0.14076887
38	0xbdff26fd	-0.12458608
39	0x3cd43b1c	0.025907092
40	0x3cc67779	0.02422689
41	0x3c83d4b4	0.016092636
42	0xbe168aa1	-0.1470132
43	0x3dfafd5d	0.122553565
44	0xbe3e12f7	-0.18561922
45	0xbc07162c	-0.008245032
46	0xbe5a3ad3	-0.21311502
47	0x3d050fd7	0.03248581
48	0x3da95d73	0.08269777
49	0xbd479b18	-0.048731893
50	0x3d6a0478	0.057133168
51	0x3d085332	0.033282466
52	0x3cebc0b5	0.028778413
53	0xbd8bb3a7	-0.06821375
54	0x3e5a6de1	0.21330978
55	0x3e018951	0.12650038
56	0xbddaa007	-0.10675054
57	0x3cfaa63a	0.030596841
58	0xbd07714f	-0.033067044
59	0x3cd8cd0c	0.026464961
60	0xbde3240f	-0.11090862
61	0x3d907034	0.07052651
62	0xbdb0b9fc	-0.08629224
63	0x3de5be5f	0.11217951
64	0x3cc461a4	0.02397234
65	0x3d676483	0.05649234
66	0xbe12dc4b	-0.14341848
67	0x3e7687b1	0.240752
68	0xbcb7cd42	-0.022436742
69	0xbd522d18	-0.051312536
70	0xbc40bb10	-0.011763349
71	0x3c8a5751	0.016887339
72	0x3dea06a7	0.1142705
73	0x3d3d12e7	0.046160605
74	0x3d88d46d	0.06681142
75	0x3c395af3	0.011313188
76	0x3d451bee	0.04812234
77	0x3d8fc936	0.070208
78	0x3d98d950	0.07463324
79	0xbd2e04d4	-0.042485073
80	0xbddeda4d	-0.10881481
81	0xbdb38141	-0.087648876
82	0xbde1934f	-0.11014425
83	0xbd465e31	-0.04842967
84	0x3dcbba56	0.0994765
85	0xbd8ed4ac	-0.06974158
86	0x3b5af68b	0.0033411111
87	0xbd20567f	-0.03914499
88	0xbcbf783d	-0.023372764
89	0xbd7b75ab	-0.061391514
90	0xbd7a56ec	-0.06111805
91	0xbdf25934	-0.118334204
92	0xbc629a1a	-0.013830686
93	0x3e12fd44	0.14354426
94	0x3e26e4c0	0.16298199
95	0xbdfcef37	-0.12350314
96	0xbdf5ce22	-0.12002207
97	0xbca7077c	-0.020389311
98	0xbb31f81a	-0.0027155937
99	0xbd6d120e	-0.057878546
100	0x3d9a9cc5	0.07549433
101	0x3e026052	0.12732056
102	0x3d317dfa	0.04333303
103	0xbe5bd832	-0.2146919
104	0x3e1951ed	0.14972658
105	0x3e815987	0.25263616
106	0xbdc9e98b	-0.09858998
107	0x3e157813	0.14596586
108	0x3e2f181a	0.17099038
109	0xbc188b58	-0.009310566
110	0xbca47295	-0.020074168
111	0x3c36c5b7	0.011155537
112	0xbdff58e0	-0.124681234
113	0xbdfa6997	-0.12227171
114	0xbd5d70d7	-0.05406269
115	0x3d24f407	0.040271785
116	0x3d54db8f	0.0519672
117	0x3db2e58c	0.08735189
118	0xbd9020b8	-0.070374906
119	0x3da55e23	0.08074596
120	0xbcee457f	-0.029085873
121	0xbd06a76b	-0.032874506
122	0x3e555427	0.20832883
123	0x3d05fca1	0.03271163
124	0xbbe9e29f	-0.007137611
125	0xbd6ce8a6	-0.05783906
126	0xbdda067f	-0.1064577
127	0x3e012627	0.1261221
128	0xbe07eb55	-0.13273366
129	0x3ca5e415	0.02025036
130	0xbdb0162b	-0.08597978
131	0xbe60cdee	-0.21953556
132	0xbd884411	-0.06653608
133	0xbcf06701	-0.029345991
134	0x3c2761d2	0.010216193
135	0x3ce384e7	0.027773334
136	0xbe90abd7	-0.28256103
137	0x3c0a8e89	0.008456835
138	0x3cab9e43	0.020949489
139	0x3e33eebe	0.17571542
140	0xbd9bb730	-0.076032996
141	0xbdca7a37	-0.09886592
142	0x3d858a99	0.06520576
143	0xbc02ed99	-0.007991218
144	0xbd7988cc	-0.060921475
145	0x3dda3f09	0.10656554
146	0xbc08038e	-0.008301629
147	0x3d9bfc83	0.07616522
148	0x3e3a01e5	0.18164785
149	0xbd6cba7b	-0.05779503
150	0xbd0c7030	-0.034286678
151	0xbe0bdbd5	-0.13658078
152	0x3d3c49ff	0.045969006
153	0x3d24e71f	0.040259477
154	0x3d2c8a69	0.042124186
155	0xbe224884	-0.15847975
156	0x3bccb2a0	0.0062468797
157	0xbd15dc7d	-0.036587227
158	0xbdf24d12	-0.11831106
159	0x3e2f2807	0.17105113
160	0x3c73efac	0.014888685
161	0x3cee135f	0.029061971
162	0x3df7261c	0.12067816
163	0xbc88e10d	-0.016708875
164	0x3d9e3a45	0.07725958
165	0x3d21e47b	0.039524537
166	0x3d55b198	0.05217132
167	0x3da989ba	0.082782224
168	0xbd72324f	-0.05913001
169	0xbe0c65ef	-0.1371076
170	0xbdb6a1df	-0.08917593
171	0xbc57669d	-0.0131470235
172	0x3dafc6a7	0.08582812
173	0x3d847ac4	0.06468728
174	0xbd076e6c	-0.03306429
175	0xbcdc00d4	-0.026855864
176	0x3df878c7	0.121324115
177	0xbe2dfa7f	-0.16990088
178	0x3de330ba	0.11093278
179	0x3d866e82	0.065640464
180	0xbc621447	-0.01379878
181	0x3d71f52f	0.059071716
182	0xbc311579	-0.010808342
183	0xbdf554d1	-0.11979068
184	0x3dbbc3a1	0.09168173
185	0xbca00825	-0.019535134
186	0xbd0b0d85	-0.03394844
187	0xbdf76a41	-0.12080813
188	0xbd19eef2	-0.03758139
189	0xbda58a69	-0.0808304
190	0x3d3800b3	0.04492254
191	0xbdbd13f0	-0.092323184
192	0x3e4d682a	0.20059267
193	0x3db2c224	0.08728436
194	0x3d7a4867	0.061104205
195	0xbe3888d2	-0.18020943
196	0xbdf81fc2	-0.12115432
197	0xbd8a9878	-0.06767362
198	0x3c84b1d6	0.01619808
199	0xbc11ddc7	-0.0089029735
200	0x3d368e5e	0.044569366
201	0x3d16eacb	0.03684501
202	0x3d3521e9	0.044221792
203	0xbcd84ef8	-0.026404843
204	0x3d82ac2d	0.06380496
205	0xbdf8a441	-0.12140704
206	0x3d912961	0.070879705
207	0xbe75138a	-0.23933235
208	0xbdf587b4	-0.11988774
209	0xbcee236d	-0.029069627
210	0x3d0cd76e	0.034385137
211	0x3cdc55fd	0.026896471
212	0x3deb372a	0.11485131
213	0x3e08cc56	0.13359198
214	0xbdd6650e	-0.104684934
215	0x3d8f8b17	0.07008951
216	0x3dbe601e	0.09295677
217	0xbe00ba93	-0.12571172
218	0xbd836fbe	-0.064177975
219	0x3d03e2a7	0.032198574
220	0xbd998541	-0.07496119
221	0x3c6f6e1c	0.014613654
222	0xbd7ac2a8	-0.061220795
223	0xbdca6748	-0.098829806
224	0xbcf203c3	-0.02954281
225	0x3b9fd89c	0.004878117
226	0x3c10c5d2	0.008836227
227	0xbd032c3c	-0.032024607
228	0x3d51b37b	0.051196557
229	0xbd9e927e	-0.07742785
230	0xbc4ddcd3	-0.012564856
231	0x3df7d77b	0.121016465
232	0x3e005e1b	0.12535898
233	0x3d731b6a	0.059352316
234	0x3e3a1faa	0.18176141
235	0xbe2998c9	-0.16562189
236	0xbc82507b	-0.015907517
237	0xbc4fd566	-0.0126851555
238	0x3c5d980d	0.013525021
239	0xbba206b0	-0.004944645
240	0xbd0425d3	-0.032262634
241	0x3e118d45	0.14214046
242	0xbd8f5161	-0.06997944
243	0x3dd75abb	0.10515352
244	0xbd9efce4	-0.07763079
245	0x3d033c39	0.032039855
246	0x3d859c02	0.06523897
247	0x3d5a81f1	0.053346578
248	0x3e247d55	0.16063435
249	0xbe18d67b	-0.14925568
250	0xbdb4a46c	-0.088204235
251	0x3e082c9d	0.13298269
252	0xbdacb8a3	-0.08433654
253	0x3dae9ad0	0.08525622
254	0xbc15267e	-0.0091034155
255	0xbd9240f3	-0.07141294

network_body._body_endoder.seq_layers.2.bias f4 [128]
0	0x3cb554a0	0.022135079
1	0x3beaf693	0.007170507
2	0xbcd10867	-0.025516702
3	0x3c8862bd	0.016648645
4	0x3c2abb86	0.010420686
5	0xba695749	-0.0008901251
6	0xbc765ab0	-0.01503627
7	0xbcd8191d	-0.026379162
8	0xbbd016c5	-0.0063503706
9	0x3c15540e	0.0091142785
10	0xbcebdc26	-0.028791498
11	0xbcdb0d16	-0.026739638
12	0x3c849f53	0.016189253
13	0xbd0c23be	-0.034213774
14	0xbd8b4d98	-0.06801909
15	0xbc863074	-0.016380526
16	0xbc89bf30	-0.016814798
17	0xbc8392be	-0.016061183
18	0xbc334660	-0.010942072
19	0xbc9115e1	-0.017710628
20	0xbc8c03de	-0.017091688
21	0xbb16d164	-0.002301299
22	0x3b013315	0.0019714285
23	0x3c94cea2	0.018164936
24	0xbcd8e4aa	-0.026476223
25	0x3c0c2c74	0.00855552
26	0x3c648acd	0.013949108
27	0xbd5afc6c	-0.053463385
28	0x3c8898ab	0.01667436
29	0x3b655320	0.0034992173
30	0xbd1ef7f7	-0.038810696
31	0xba165320	-0.00057344325
32	0x3c46149a	0.012089873
33	0xbb621462	-0.0034497012
34	0x3c6897c6	0.014196342
35	0xbd6c2263	-0.05764998
36	0x3d701acb	0.0586193
37	0x3b0f2278	0.0021840613
38	0x3d504098	0.05084285
39	0xbb85d0da	-0.004083735
40	0xbbc64fb3	-0.0060519814
41	0xbade2b8c	-0.0016950234
42	0xbc9ca08c	-0.019119523
43	0x3d0fa116	0.035065733
44	0x3cac2a2c	0.021016203
45	0xbbc2fc75	-0.0059505054
46	0x3c25b37d	0.010113594
47	0x3ca88efe	0.020575996
48	0xbc981f13	-0.018569505
49	0x3ba53873	0.0050421297
50	0xbc444ec5	-0.011981671
51	0xbd25789c	-0.040398225
52	0xbd6927c7	-0.0569227
53	0xbcb3ec99	-0.021963404
54	0x3be155e7	0.0068766954
55	0xbba1dc7f	-0.0049396153
56	0xbd44aac8	-0.048014432
57	0x3c65df6e	0.014030321
58	0xbc1217d0	-0.00891681
59	0xbc1709a5	-0.009218608
60	0x3c3653cc	0.011128377
61	0xbd192988	-0.037393123
62	0x3bfbd1b1	0.0076849093
63	0xba902a41	-0.0010998921
64	0xbc9ca66f	-0.01912233
65	0x3a0923b3	0.0005231455
66	0x3c83dfe1	0.016097965
67	0x3bff9d9a	0.00780077
68	0x3c1230d5	0.008922775
69	0xbc167809	-0.009183892
70	0xbd4c373e	-0.04985737
71	0xbcb48c01	-0.022039415
72	0xbd5b318e	-0.053514056
73	0xbb31777e	-0.002707928
74	0xbc2eaa31	-0.010660694
75	0x3c8cd714	0.017192401
76	0x3cc9b846	0.024624001
77	0x3c6e3ef8	0.01454138
78	0xbb1fe1d9	-0.002439609
79	0xbcb0b5ff	-0.021571158
80	0xbc81d401	-0.015848162
81	0xbc23636e	-0.009972436
82	0xbd40e6dd	-0.04709517
83	0x3bc24501	0.005928636
84	0xbd82486c	-0.063614696
85	0x3d01726a	0.031603254
86	0x3ccc519f	0.024941264
87	0x3abe4f7d	0.0014519539
88	0xbc504371	-0.012711392
89	0xbc6f4e67	-0.014606095
90	0x3bd2c1cd	0.0064317943
91	0xbd0e56a0	-0.03475058
92	0x3b7a69c8	0.0038210023
93	0x3cc96ff9	0.024589526
94	0xbcd13a97	-0.025540633
95	0xbcf4d59b	-0.029887011
96	0xbc91a552	-0.017779026
97	0xbcdf10f1	-0.027229758
98	0xbc5e782a	-0.013578454
99	0x3c922cd6	0.017843645
100	0xbc8f0335	-0.017457584
101	0xbc8d1d0a	-0.017225761
102	0xbc7ba24c	-0.015358519
103	0x3c6a49ff	0.014299869
104	0x3c82d37e	0.015969988
105	0x3bf1852d	0.007370612
106	0x3bc9cdb1	0.0061585535
107	0xbcbb05e0	-0.02282995
108	0xbc87512f	-0.016518204
109	0xbcddd9c1	-0.027081372
110	0xbc80c84d	-0.01572051
111	0x3c744869	0.014909842
112	0xbcc36f72	-0.023856852
113	0xbc6d3dd0	-0.014480069
114	0x3bfa4c70	0.0076385066
115	0x3b7ee98d	0.0038896531
116	0xbc71ebfc	-0.014765736
117	0xbca293b2	-0.019845817
118	0x3c3a172b	0.011358063
119	0xbd5276ab	-0.0513827
120	0xbb0b6aa2	-0.0021273275
121	0x3c0af113	0.008480328
122	0xbc07d7d0	-0.0082912
123	0x3c2aabc7	0.0104169315
124	0xbca4e82e	-0.020130243
125	0x3a153d0d	0.0005692996
126	0x3bd97f75	0.0066375085
127	0x3be0a009	0.006855015

action_model._discrete_distribution.branches.0.weight f4 [2, 128]
0	0xbd57a95d	-0.05265175
1	0x3ce89e7f	0.02839589
2	0x3af63e76	0.0018786925
3	0x3cf42920	0.029804766
4	0xbb683121	-0.0035429674
5	0x3c71df03	0.014762643
6	0x3b5030c1	0.003176734
7	0x3c8ba6f7	0.017047388
8	0x3c7ced67	0.0154374605
9	0xbcdba04c	-0.026809834
10	0x3b865a19	0.004100096
11	0x3b92152d	0.0044580908
12	0x3ccde536	0.02513371
13	0xbc0620b5	-0.008186509
14	0x3b09cc59	0.0021026342
15	0x3b4ede75	0.00315657
16	0xbbcd1fa5	-0.006259876
17	0xba24cdb0	-0.00062867533
18	0xbcd74b09	-0.026280897
19	0x3bf952b5	0.0076087364
20	0x3be35fd5	0.0069389143
21	0x3cd42afc	0.025899403
22	0x3b0b8072	0.0021286276
23	0xbd86f7f8	-0.06590265
24	0x3cd8fd24	0.026487894
25	0x3cb86091	0.022506984
26	0x3d40e994	0.047097757
27	0xbc6d7bb3	-0.014494824
28	0xbc04067b	-0.008058186
29	0x3b3465a2	0.0027526398
30	0x3a60a1e6	0.00085690466
31	0xbb78a1f8	-0.0037938338
32	0x3d22a5d3	0.039708924
33	0x3b004378	0.0019571465
34	0xbcf5c484	-0.030000933
35	0xbb9e1b1a	-0.004825008
36	0xbd287cec	-0.04113476
37	0xbc8b68bc	-0.017017715
38	0x3d743b03	0.05962659
39	0xbabb0f9c	-0.001427162
40	0x3bafb212	0.005361804
41	0xba864ab4	-0.0010245652
42	0x3adbdfe2	0.0016775096
43	0x3cf98bde	0.030462202
44	0xbd257eb9	-0.040404055
45	0xbc3ae6de	-0.011407582
46	0x3bd51e89	0.006503884
47	0xbd2a1755	-0.041526157
48	0xba7e9ce2	-0.00097127084
49	0xbbf7867b	-0.007553873
50	0xbac6e586	-0.0015174604
51	0xbbe03338	-0.0068420433
52	0xbc901c29	-0.017591553
53	0x3b611fa8	0.0034351144
54	0xbc42008a	-0.011840949
55	0xbd42f415	-0.047596056
56	0x3b405076	0.0029344833
57	0xbd7bb116	-0.06144818
58	0x3c7a9a33	0.015295553
59	0xbc196f24	-0.009364877
60	0xbd698ced	-0.057019163
61	0xbc70250e	-0.014657272
62	0x3be2a063	0.0069160922
63	0x3c0caded	0.008586389
64	0x3b3637ed	0.002780433
65	0x3d0880ed	0.03332608
66	0xbd4ce3eb	-0.050022047
67	0x3caaafbd	0.020835752
68	0xbc71129f	-0.014713912
69	0xbd035811	-0.03206641
70	0xbc879801	-0.016551973
71	0x3c363d8f	0.011123075
72	0xbc8856dc	-0.01664298
73	0xbcbec9fe	-0.023289677
74	0x3c98dede	0.018660959
75	0xbd08a536	-0.033360682
76	0xbd6e516d	-0.058183122
77	0x3d11310a	0.035447158
78	0x3bdd1516	0.0067468984
79	0xba1d9f1c	-0.0006012784
80	0x3c483f61	0.012222142
81	0xbc630334	-0.013855744
82	0x3c30b547	0.010785407
83	0x3cd6e064	0.026230045
84	0xbbe18ee0	-0.006883487
85	0xbd341d0d	-0.043973017
86	0xbd65e567	-0.05612698
87	0x3ca9a8b8	0.020710334
88	0xbb900f0f	-0.0043963264
89	0xbbf49da9	-0.0074650836
90	0xbc531f2c	-0.01288585
91	0x3b656adb	0.0035006318
92	0xbc9584c7	-0.01825179
93	0xbcbe8236	-0.023255449
94	0x3c2846db	0.0102707995
95	0xbc22102b	-0.00989155
96	0x3cf150b9	0.029457437
97	0x3c8cfc0b	0.017210027
98	0x3c854c8c	0.016271852
99	0xbd238c4c	-0.03992872
100	0x3b973357	0.0046142745
101	0x3c26c6ae	0.010179205
102	0x3c49babc	0.012312587
103	0xbced3a41	-0.028958442
104	0xbcd8c06f	-0.026458947
105	0xbd62d81c	-0.05538188
106	0xbd235e3c	-0.03988479
107	0x3b2addc6	0.0026072129
108	0x3d03984a	0.032127656
109	0x3c2bdfad	0.01049034
110	0x3adf622f	0.0017042811
111	0xbcc16ede	-0.023612436
112	0x3c9578d4	0.018246092
113	0xbb1c4da2	-0.0023849984
114	0x3cde7965	0.027157495
115	0xbc79a123	-0.015236172
116	0xbbfde955	-0.0077487626
117	0xbaabc1aa	-0.0013103981
118	0x3c053c28	0.008132018
119	0x3c51f29d	0.012814191
120	0x3cde504b	0.027137896
121	0xbd60e54e	-0.054906182
122	0x3c8a00d2	0.016846094
123	0x3cb30335	0.021852115
124	0x3c04deab	0.008109729
125	0xbcb42708	-0.021991268
126	0xbd4c4c09	-0.0498772
127	0xbce2b696	-0.027674954
128	0x3d653406	0.055957817
129	0xbcf231d5	-0.029564777
130	0x3a639902	0.0008682163
131	0xbc9bea83	-0.019032722
132	0x3be2933a	0.0069145234
133	0xbd13d1c2	-0.036088713
134	0x3c0ceb37	0.008601001
135	0xbbaf7851	-0.005354919
136	0xbbcf14b8	-0.0063196085
137	0x3c86e8ae	0.016468372
138	0x3bf7a429	0.007557411
139	0xba1852ba	-0.0005810667
140	0xbcf0fd1b	-0.029417565
141	0x3c1d6448	0.009606428
142	0x3b4ca7db	0.003122798
143	0x3b8c0b6a	0.0042738216
144	0xbbced5eb	-0.006312122
145	0x3bb03de0	0.00537847
146	0x3ca3b9bf	0.019986032
147	0xbc12e9fc	-0.008966919
148	0x3adf2be9	0.0017026636
149	0xbc87d537	-0.016581161
150	0xbbffee4b	-0.007810389
151	0x3d901319	0.070348926
152	0x3b23f363	0.0025016896
153	0xbc8324aa	-0.016008694
154	0xbd51cb46	-0.051219247
155	0x3b21a1bd	0.0024663054
156	0x3d1041a6	0.035218857
157	0xbba6443d	-0.0050740526
158	0xbc38dbbe	-0.011282859
159	0x3c115b42	0.008871855
160	0xbd323816	-0.04351052
161	0xbbdc6ad5	-0.0067266026
162	0x3cc2fe06	0.023802768
163	0xb9ce62ea	-0.0003936508
164	0x3d28f963	0.04125346
165	0x3ccc640f	0.024950055
166	0xbd0199a1	-0.031640653
167	0xbcadc8b0	-0.02121386
168	0xbb7c42bb	-0.0038491923
169	0x3b956730	0.00455942
170	0xbbeef99f	-0.0072929407
171	0xbd379cba	-0.0448272
172	0x3d50a77b	0.05094097
173	0x3c0ce78b	0.008600126
174	0x3beda549	0.0072523695
175	0x3d586dcd	0.05283909
176	0xbcaba111	-0.020950826
177	0x3a36cbcf	0.0006973119
178	0xbc128a79	-0.008944147
179	0xbc731de2	-0.014838668
180	0x3ac6965c	0.0015151012
181	0x3b8f4d46	0.0043732254
182	0x3c8c8bd2	0.017156515
183	0x3c98b653	0.018641626
184	0xbbe644bd	-0.007027237
185	0x3d6ebfc2	0.058288343
186	0xbbbebad6	-0.0058206124
187	0xbc5db7f8	-0.013532631
188	0x3d5a0694	0.05322893
189	0x3cd04d85	0.02542759
190	0xbbdd8dcb	-0.006761288
191	0xbce3210e	-0.027725723
192	0xbaada08d	-0.00132467
193	0xbc7327ca	-0.014841029
194	0x3d5b191f	0.053490754
195	0xbcec8cbf	-0.028875707
196	0x3acacfd7	0.0015473318
197	0x3d1ded15	0.038556177
198	0x3b3f2037	0.0029163489
199	0xbc7c14b7	-0.015385798
200	0x3bc4903e	0.0059986403
201	0x3cbaf365	0.022821138
202	0xbcd91846	-0.026500832
203	0x3d1cbccf	0.038266
204	0x3d56af86	0.052413486
205	0xbc921d47	-0.017836226
206	0x3bbafdcf	0.005706526
207	0x3b6083b2	0.0034258184
208	0xbbeeaeee	-0.007284037
209	0x3cd945bd	0.026522512
210	0x3a96d9cc	0.0011509
211	0xbc9fa78b	-0.01948907
212	0x3a10f893	0.00055302045
213	0x3d8e17ea	0.06938155
214	0x3d405be5	0.046962637
215	0xbb7c21b5	-0.003847224
216	0xbc13901c	-0.009006526
217	0xbc0bfab4	-0.008543659
218	0x3c883824	0.016628332
219	0xbc48d15e	-0.012256948
220	0x3c240473	0.010010826
221	0x3d2b05e9	0.041753683
222	0xba429ab7	-0.0007423567
223	0xbbaf8dbf	-0.0053574736
224	0xbcf71ab0	-0.030164093
225	0x3bd90c99	0.006623816
226	0xbbb499fd	-0.005511521
227	0x3d11a7d6	0.03556045
228	0x3b97113f	0.00461021
229	0x3b92ef4b	0.0044840924
230	0xbc3e4bd7	-0.011614761
231	0x3cc2fcbb	0.023802152
232	0x3ccf2926	0.025288176
233	0x3d85e67d	0.06538103
234	0x3cf5fe09	0.03002836
235	0xb9047b36	-0.000126344
236	0xbc656ef0	-0.0140035
237	0x3b0b1c01	0.0021226408
238	0x3c22fd5b	0.0099481
239	0x3c94344f	0.018091349
240	0x3c3fcd46	0.011706656
241	0xbb40662f	-0.0029357781
242	0xbcb41392	-0.021981988
243	0x3ca327e6	0.019916486
244	0xbbc29b2c	-0.005938908
245	0xbbe44724	-0.0069664884
246	0xbc92b330	-0.017907709
247	0x3c9c67f9	0.019092547
248	0xbce35e45	-0.027754912
249	0x3d55e3cf	0.05221921
250	0xbce909aa	-0.028446991
251	0x3a11caec	0.0005561549
252	0xbaae7e37	-0.0013312761
253	0x3a8b0080	0.0010605007
254	0x3d6ff041	0.058578733
255	0x3c2b3eb9	0.010451966

action_model._discrete_distribution.branches.0.bias f4 [2]
0	0xbbe146a8	-0.006874878
1	0x3be1468a	0.006874864
