results/ManAgent/ManAgent/ManAgent-4231.onnx (onnx, 85877 bytes, 6 tensors)

network_body._body_endoder.seq_layers.0.weight f4 [128, 26]
00000000: 8fe5 c0bc 7011 763e 85e4 0dbe bbb6 70be
00000010: b7be 94bc 3f6f c53d dc93 01be c325 92bd
00000020: b38f 12bd c2de 083e e00c 7fbe 8faa 653e
00000030: 8034 233c df8e 44be d0db e8be 58cb 0fbf
00000040: ef0f d93d edae 3f3d 636f ab3d ec83 f93d
00000050: dafb df3d 7b4a 9d3c a790 203e f36b 8bbe
00000060: c318 df3c 2796 4cbd 8ab9 b03d 9c24 803d
00000070: 19ba 173e 95fd aa3e d02d b0bd db75 ad3d
00000080: e22f a2be 18a2 743e c846 763e fb08 d9bd
00000090: 105a fc3c e77f b0be 2576 833d 5ca8 153d
000000a0: 32d6 4c3e a6f9 b7bd c2fb b5bb 6060 863c
000000b0: 6b39 c1bb ef64 5f3d 5fe4 3b3e 3815 343e
000000c0: 3748 873d cee8 093e 8dde b8be 7e98 73be
000000d0: 29b2 903e bd8f e4bd bb8e 22be 9fd0 debd
000000e0: bd2e 7bbe 0888 76be 0a47 9ebe 9b2b ad3d
000000f0: adc5 933d 7fe4 d3bd fb4e 083e 7e42 5abe
00000100: 3ee1 46bd d2cb b2bc 6953 69bd 907c 273c
00000110: ec8c c6bd cd56 26be 482f 63bd 3f71 1e3e
00000120: 071b 1b3f 26cd 943e 13c2 c73d 2408 13be
00000130: 41f1 43be c26a 853d 9cce 2f3e 839e d5bd
00000140: 6800 d13e 1815 83be e357 be3c 59f7 ab3e
00000150: 3cd2 85bd 9f8b 8b3e 5a90 5fbd 7847 513e
00000160: e4ad 94bd 6950 a0bd 0890 8b3e 6951 1d3f
00000170: 7c82 223e 7540 703d 9cf2 b93c 8302 2ebe
00000180: b6d1 71be 87f4 833e 8652 c2bc f7ca 1b3c
00000190: 95a6 b7bd 4021 b9bc a663 653d ca23 0cbd
000001a0: ac9d 71be 8edf 2b3e 1333 9c3d 5b59 0abe
000001b0: 2307 cebe 6d0f 45bd 29c7 7dbe d5b1 fdbb
000001c0: b9a4 a9bd dd3e edbd 4867 8e3d e054 033f
000001d0: d2a5 fc3d 5300 3bbe 68a9 293d 6f34 303d
000001e0: 6fd0 92bc 0fc3 6dbd f185 25be 3896 33bd
000001f0: 4f3d 2a3e 82f8 2e3d f48d b2bd b503 3b3e
00000200: b1bf 443b a3a0 34bd 78de de3d 8e4a 8abc
00000210: bb16 f03d 7c70 983e 70b1 773e 6283 e9bd
00000220: 5f96 6bbe 2129 a63d c9ab 163e 0f9d 373e
00000230: e583 b33c d9ee a43d da6b 2abe 3e2a 99bd
00000240: e967 ee3c 4b57 673d e8b4 a53d 2ec8 73be
00000250: b62e 4abe 369d 073e fd81 b7bc 79ad d03e
00000260: 9a3f 013e 1e8f 29bd d523 9e3e 98aa a33d
00000270: d6a3 22be 3cc6 273d 90e1 0fbe 34ac 973d
00000280: 9bd9 8c3d 02d7 40be e0d6 4bbe 29e4 843e
00000290: 8964 c2bc 3f88 4c3e 36fd 45be 0826 01be
000002a0: ce27 dcbd ef38 fbbd 4247 66bd 1d33 803e
000002b0: f2b6 79be 3a7d 943d 53e0 f03d 1954 7b3e
000002c0: 204a 553d 8bac dfbd 6e9b 133e f40e d73e
000002d0: 2e3a 253e 11ff afbd a924 f1bd 8cbb 65be
000002e0: 5ca7 763e 45bd e33d ae9c 9cbc ecf4 bd3d
000002f0: 1071 6e3d ffa2 013e 2e83 99be 2d76 103d
00000300: a21c 42be 9bca ba3d 8b06 9cbe 6e58 653c
00000310: 9717 e73a 0a03 1abe 4021 453e 28ee e73b
00000320: a73e 153e 6350 8a3e a810 ffbd f9c3 c9bd
00000330: 4fcc 20be 00a6 35bd 9dc5 dfbd 33a9 7abd
00000340: 88a5 303e b9d7 ebbd c1d4 87be 85a4 c03c
00000350: 8890 21be bca2 8d3d 1824 17be ddce 573e
00000360: 77f6 083d 8dac 33be da5c 8ebd 8938 6b3e
00000370: 69c0 9b3e c826 a0be b644 e73c a81a e5bc
00000380: ac31 35be 8582 4abe 13ef 6a3e 9da8 6b3e
00000390: ccb4 91be 46ac c9be 9ae6 ba3d 3c14 27be
000003a0: 2c75 883d c24d e3bd 245e 0e3e 5577 bfbd
000003b0: 792f 41bd 4152 fabc 507f cdbd d51b cbbe
000003c0: 2574 afbe 792c 263e eca9 debd e356 4e3d
000003d0: 2ca1 7fbe d3e9 3cbd 78a5 8dbd d486 593e
000003e0: 4280 cf3d a1d5 433d b3a1 23be c066 34be
000003f0: e530 81bd 0ed7 a7bb 889d 5e3e 3795 3ebc
-0.023546962 0.2403009 -0.13856705 -0.23507206 -0.018157346 0.09640359 -0.1265406 -0.07136109
-0.035781574 0.13366225 -0.24907255 0.22428344 0.009961247 -0.19195126 -0.45480204 -0.5616965
0.10598742 0.04679768 0.08370855 0.12183365 0.10936709 0.019200554 0.1568018 -0.27230796
0.027233487 -0.049947884 0.08629139 0.06256983 0.14817084 0.33396593 -0.08602488 0.08469745
-0.31677157 0.23889959 0.24050438 -0.10597416 0.030804664 -0.34472582 0.06419019 0.036537513
0.20003584 -0.089831635 -0.0055536935 0.016403377 -0.0058967373 0.054539617 0.18348835 0.1758622
0.06605571 0.13467714 -0.36107293 -0.2378864 0.28260925 -0.111602284 -0.1587476 -0.10879635
-0.24529548 -0.2407533 -0.30913574 0.08455583 0.07215438 -0.103463165 0.13311379 -0.21314427
-0.04855465 -0.021825705 -0.05696431 0.010222569 -0.096948475 -0.1624405 -0.055465013 0.15472887
0.60588115 0.29062766 0.097538136 -0.14358574 -0.19135 0.06514503 0.17168659 -0.10430624
0.40820622 -0.2560203 0.023235267 0.3358715 -0.0653424 0.2725496 -0.054581024 0.2043742
-0.072597295 -0.07827837 0.27258325 0.6145235 0.15870088 0.05865522 0.022698693 -0.16993146
-0.23615155 0.25772497 -0.02372099 0.00950884 -0.0896732 -0.022598863 0.056003235 -0.03421382
-0.23595303 0.16784498 0.07626929 -0.13510649 -0.4023982 -0.048110414 -0.24783005 -0.0077421465
-0.082833715 -0.11584256 0.06953293 0.51301384 0.12336315 -0.18261842 0.041421324 0.043018755
-0.017921655 -0.05804735 -0.16164376 -0.04384443 0.1662495 0.042717464 -0.08718482 0.18263133
0.0030021484 -0.044098508 0.10882276 -0.016881254 0.117230855 0.2977332 0.24188781 -0.114020124
-0.23006581 0.081133135 0.14713968 0.17931007 0.021913478 0.08053369 -0.16642705 -0.0747876
0.029102283 0.056479733 0.08091146 -0.23806831 -0.19744381 0.13243565 -0.02240085 0.4075735
0.12621918 -0.041396253 0.30886713 0.079915226 -0.15882811 0.040960535 -0.14050889 0.07405892
0.068774424 -0.18832019 -0.19906187 0.25955322 -0.02372958 0.19973849 -0.19334874 -0.12612164
-0.1074978 -0.122667186 -0.0562203 0.25038996 -0.24386194 0.072504476 0.117615364 0.245438
0.052072644 -0.10921582 0.1441476 0.42003596 0.16135475 -0.08593572 -0.117745705 -0.22434825
0.2408728 0.11120085 -0.01911768 0.09275231 0.058213294 0.12659834 -0.29982895 0.03526895
-0.18956235 0.09120675 -0.30473742 0.013998134 0.0017630932 -0.15040222 0.19250965 0.007077951
0.14574681 0.27014455 -0.12454349 -0.09851832 -0.15702938 -0.044347763 -0.109263636 -0.061196517
0.17250645 -0.11515755 -0.26529506 0.023515949 -0.1577779 0.06915805 -0.14759862 0.21075006
0.033438172 -0.17546292 -0.06951304 0.22970785 0.30420235 -0.31279588 0.028231006 -0.027966812
-0.1769473 -0.19776352 0.22942762 0.2301354 -0.2845825 -0.39389247 0.09126015 -0.16316313
0.06662974 -0.110988155 0.139031 -0.09348933 -0.047164414 -0.0305568 -0.100340486 -0.39669672
-0.342683 0.16227902 -0.10872254 0.05037583 -0.24963826 -0.04612143 -0.06916326 0.21242839
0.10131885 0.047811154 -0.15979652 -0.17617321 -0.06308154 -0.005122072 0.21739781 -0.011632255

network_body._body_endoder.seq_layers.0.bias f4 [128]
00000000: 36a5 b93c e8db 663b 6012 4c3b 1f59 48bc
00000010: eefa 343b ad7b 143b 60a8 08bb 4096 3e3b
00000020: 60d2 19bc 4d4c f7bb e97f 4c3c 20b3 b5ba
00000030: 50ea 2abb e550 6bbc ee82 b8bb eba6 babb
00000040: 8c9d 96bb d051 afbb 682f e83a d210 8d3a
00000050: 0e00 7bbb d011 dfbb e4e9 73b9 1c80 f5bb
00000060: c1f0 d7bb 2b00 c43b 7e18 c8ba 6a8a c8ba
00000070: 9054 b3b9 0156 53bc f40b bd3b 3985 b2bb
00000080: 90bf 22bc 0e73 5839 704c cc3a 310b 8b3a
00000090: 1dfd 06bc 8ea0 4bbb 3dd2 28bb 79cb 54bc
000000a0: 6fa0 06bb 0513 33bc ce08 233c 34c6 f83c
000000b0: 114a 6fbc 77f5 b03b 9cd4 c23b 85e8 34bc
000000c0: 2b3f b4bb 7051 6ebb b97b ecbb 995b 3c3b
000000d0: 9424 2dbc 180c 753a 17ed 7a3b c7e9 983b
000000e0: 03e1 5aba 0cac c6ba 8d0c babb be98 c6bb
000000f0: c010 a33b addf 19bc bce3 a8bc e111 8f3c
00000100: c376 f8bb 1c7f 56bb 6eca 06bc 8221 dc3b
00000110: f175 53bc 5550 68bb 7692 b93c e86f 103b
00000120: ba40 8aba 2e1f 703b 9a5f f03b 9961 2dbb
00000130: 6c0c be3a d22b 9cb9 af4b d73b 4829 163d
00000140: b77f ad3b f4e8 71bc f716 c9bb 9bda e8bb
00000150: c6d9 09bb d669 81bb 360d 1a3b d0da 993b
00000160: fecf b6ba a761 39ba 6a43 923b 6229 7b39
00000170: 8e9f 5dbc 2f60 653b 4e11 0a3b 88e6 a238
00000180: e30e a03b 45e4 1dbc 53d0 3fba c2c0 643c
00000190: b1f5 b0bc bece 78b8 7c53 7cbb 4ba2 5bbb
000001a0: 6c43 54bb 07fd b0bb de63 873b 50f4 3b3b
000001b0: 26c1 bb3a 799e 5a3b f101 d8bb 2215 863c
000001c0: 58d4 d9bb 6163 9d3a a9d0 c9bb a061 b43b
000001d0: b714 8abc fdc8 293c 19ec 1bba 2eec c2bb
000001e0: a5cc 823b 018e 373c bdcb 763a 9c5c 69bb
000001f0: e40b d53a 9e2a a93a f93e 003c 733b 2a3c
0.022661787 0.003522629 0.0031138882 -0.012228279 0.0027615386 0.0022656724 -0.0020852312 0.0029081255
-0.009388536 -0.0075469376 0.012481668 -0.0013862588 -0.0026079603 -0.0143625485 -0.0056308424 -0.0056961677
-0.004596418 -0.005350329 0.0017714323 0.0010762459 -0.0038299593 -0.0068075433 -0.00023261417 -0.0074920785
-0.0065899794 0.0059814653 -0.0015266088 -0.001530004 -0.00034204544 -0.012898923 0.005769247 -0.0054480103
-0.009933367 0.00020642226 0.0015586745 0.0010608194 -0.008239058 -0.003107104 -0.0025760077 -0.012987965
-0.0020542403 -0.010929828 0.00995083 0.030367948 -0.014605061 0.0054003554 0.005945755 -0.011041765
-0.0055006943 -0.0036364459 -0.0072168973 0.002874112 -0.010567803 0.00093478104 0.003828829 0.0046665403
-0.00083495694 -0.0015157475 -0.0056777657 -0.0060606888 0.004976362 -0.009391707 -0.020616405 0.01746458
-0.007582517 -0.0032729572 -0.008226974 0.0067178616 -0.012906537 -0.0035448272 0.022652846 0.0022039358
-0.0010547854 0.0036639678 0.0073356153 -0.0026455878 0.0014499552 -0.00029787287 0.0065703015 0.036660463
0.005294766 -0.014765013 -0.006136771 -0.007106138 -0.0021034344 -0.003949384 0.002350641 0.004695274
-0.0013947485 -0.0007071741 0.004463603 0.00023952642 -0.01352681 0.0034999957 0.0021067443 7.767702e-05
0.004884587 -0.009636943 -0.00073171145 0.013961973 -0.02160153 -5.932035e-05 -0.003850191 -0.0033513482
-0.003238882 -0.005401257 0.004131778 0.0028679557 0.001432453 0.0033358617 -0.0065920283 0.016367499
-0.006647628 0.0012007767 -0.0061589074 0.005504802 -0.01685558 0.010362861 -0.0005947962 -0.005948565
0.0039916807 0.01120329 0.00094145146 -0.0035608178 0.0016254154 0.0012906378 0.007827514 0.01039015

network_body._body_endoder.seq_layers.2.weight f4 [128, 128]
00000000: 0563 683d b00b 5abe 3cbc 023e 54d7 f43d
00000010: f75d 10be ddfd 2d3e e85d d3bc 1835 903d
00000020: a4d9 4dbd 26aa b73d f1ba cbbd a637 113d
00000030: 9d9d ab3c 41b1 303e 42a6 b63d 6baf 793d
00000040: ee1a adbd c990 063e dddd 14be 6a4a edbd
00000050: 5306 e7bd 7849 163e fad0 01be c0cc 88bd
00000060: 2886 babd c810 01bd a09f 21bc e073 83bc
00000070: 2780 023e b424 64bd b149 133e 4b25 4cbc
00000080: 62f6 3ebc 016d 2cbe 5e29 a7bd 5b8f bbbd
00000090: 3cde 2fbe 6a49 6a3c eede aabd 39d5 4e3e
000000a0: 4d84 d13c 8427 aebc 72d0 f3bd 6bc3 73be
000000b0: e418 98bd 6167 433d 8b36 b63b a644 5b3a
000000c0: fb0f debd a6bf 063d 4fbf c3bd 0416 543d
000000d0: 5693 d93b 9e2c 0ebd 83b6 1c3d a31d b8bb
000000e0: ad3f 0cbd c2d4 a43d beba b8bc 4e10 c43d
000000f0: 8286 bd3d 5612 7c3c ae1b ed3d 3c5f 373d
00000100: 7a29 e23c fdc3 db3d 0e6c 54bc 4d50 a8bd
00000110: 5513 943d 5869 1c3e e4be 813c 1bde 993c
00000120: f62f 1f3e ffd2 623b b931 623e 812a d13c
00000130: d5be c6bd 1d6a 013c 0e18 2e3d b109 e53d
00000140: 4a21 06be 977e 883d ccc7 493d 23aa 463b
00000150: 6118 283c c7bb 89bd ef6f a13d 647a 183e
00000160: 5971 01bd 418e febd 03b9 503d ad51 da3c
00000170: 3179 463d 1cd0 083d bed5 483c d117 d33b
00000180: 429f 83bd 3124 0abd 8d81 4e3d 9767 92bd
00000190: 1a40 87bd 4758 4c3c f93e ac3c 45cb 903b
000001a0: 4dcd 75bc dcc5 bd3d 3db9 bdbc 393e 89bd
000001b0: 8fba 9dbc 7778 b6bd 032f 13be 3226 3b3d
000001c0: ef8f 853c ac09 473d bebb bfbc ddf3 163d
000001d0: f3ba 90bb f6f7 613c 9df3 debd 1630 853d
000001e0: 55e9 acbd bdf1 41be 6f64 23bd 3690 cfbd
000001f0: a466 33bd 6327 bfbd fc96 b0bd aa9b f4bd
00000200: bea8 553d 84b7 9c3d bff3 a5bc 9728 893c
00000210: 8421 27bd 0f70 543c 6c25 0ebe 34b0 1cbe
00000220: 0db8 9ebb 2418 f03d f333 16bd b43c 1cbb
00000230: c89b e33d d250 563d 591a 5d3e 44b1 5cbd
00000240: e67f 67bd bb32 14bd ffdf a83d 2a5c 18be
00000250: 0675 72bd b37a f03b 0bb5 2e3e d063 eabc
00000260: 806e 973c de4a 15be e440 6c3e 83e2 5ebb
00000270: 1c26 f53d 0d2e c8bd 27ec 873d dd70 873d
00000280: 8d1e a13d cdde aa3d 82b4 1fbc a828 9bbd
00000290: f292 8f3d 107a b13c def6 cebd c234 71bd
000002a0: b403 f1bc fc6b 32bb 50a4 133e 4345 07be
000002b0: 2f30 cebc 3b35 d4bd caf1 59bd f7b5 9abc
000002c0: 4188 02be 1f6e 503e 001d be3d f897 83bc
000002d0: 2970 a7bd 8842 1abe 0a30 adbd 3914 aebd
000002e0: fd11 1ebe cdc7 2dbe 19eb 0c3e 10b1 b33c
000002f0: 38ab efbd 2c9d 6dbd 097d bbbc 12aa f03c
00000300: 3a09 a6bd 655d 34be c822 643d c3a0 3b3d
00000310: 4cd3 adbd dfec 3fbd 582c 5ebd 9308 89bc
00000320: 18c9 ec3c f841 9cbd b569 fe3b 3575 90bd
00000330: 4491 f03d db29 e9bc a4b6 9cbd cc6c bf3c
00000340: 378d 243e 0214 d8bd 16c5 f03d d861 623e
00000350: 29e3 d5bc f8a8 babd 715c 57bd f44c 56bc
00000360: e48b 90bd fc89 25be 9b6f 493d c920 b7bd
00000370: 1c11 1bbe d1f8 013e 7876 5ebd 9587 df3d
00000380: d781 173d bb15 16bc ddb1 9ebd b5a7 72bc
00000390: 8588 8d3d 1b71 133d 1c53 403c ed5e ff3d
000003a0: 79de 79bd 32dc 033e b3dc cfbd 1d2e ca3d
000003b0: ef83 5cbe 4cf7 c33d afb5 f63d c680 b7bc
000003c0: df5d 9b3d ea84 0d3d 8048 86bd 5f5f 8cbd
000003d0: 5f53 2b3d 7a80 023e 5e21 f33d 08ee 143d
000003e0: e10c 86bd b6cd 01be ab0c 363d e5b2 343c
000003f0: 5351 003d 3f06 bfbd 1893 bdbd 6fad cd3d
0.056735057 -0.21293521 0.12767118 0.11955133 -0.14098345 0.16991372 -0.025801614 0.07041377
-0.050256386 0.08968 -0.099477656 0.03545346 0.02094918 0.17255117 0.0891843 0.060958307
-0.08452402 0.13141169 -0.14537759 -0.11586459 -0.11280503 0.14676464 -0.12677374 -0.06679678
-0.091076195 -0.031510144 -0.009864718 -0.016046464 0.12744199 -0.055699065 0.1438358 -0.012460063
-0.011655422 -0.16838457 -0.08162187 -0.09158202 -0.1717462 0.01429973 -0.08343302 0.20198525
0.025575781 -0.021259077 -0.11904992 -0.23805015 -0.074266225 0.04770601 0.0055607012 0.00083644164
-0.10842892 0.032897614 -0.095579736 0.05177881 0.0066398783 -0.03471052 0.038259994 -0.0056187673
-0.034240413 0.08048393 -0.022549983 0.09573422 0.09254171 0.015385231 0.11577545 0.044768557
0.027607668 0.10730741 -0.012965215 -0.08218441 0.0723025 0.1527456 0.015838094 0.018782666
0.1554564 0.0034610627 0.2208928 0.025532963 -0.09704367 0.0078988345 0.04250341 0.11183489
-0.13098636 0.0666477 0.049262807 0.0030313812 0.010259719 -0.06725269 0.07882678 0.14890438
-0.031602237 -0.124294765 0.05095769 0.026650274 0.04845542 0.033401594 0.012257991 0.006442048
-0.064268604 -0.03372592 0.050416518 -0.071486644 -0.06604023 0.012472219 0.021026121 0.004418763
-0.015002561 0.09266254 -0.023159618 -0.06701321 -0.019253997 -0.089096956 -0.14373402 0.045690723
0.016303984 0.04859321 -0.023404952 0.03685366 -0.0044168173 0.013792029 -0.10886309 0.06503312
-0.08442942 -0.18939872 -0.039890703 -0.10134928 -0.043799058 -0.09333684 -0.08622548 -0.11943753
0.05216288 0.0765219 -0.020257829 0.016742988 -0.040803447 0.01296617 -0.13881463 -0.15301591
-0.004843718 0.117233545 -0.036670636 -0.0023839893 0.11113697 0.05232317 0.21592082 -0.05387999
-0.056518458 -0.036181193 0.08245849 -0.14878908 -0.059193633 0.0073388456 0.1706125 -0.028612047
0.018485308 -0.14579341 0.23071629 -0.0034009523 0.119701594 -0.097744085 0.06636839 0.06613324
0.07867155 0.08343277 -0.009747626 -0.07576114 0.070104495 0.02166465 -0.1010568 -0.058888204
-0.029420711 -0.0027225008 0.14418149 -0.13210015 -0.02516946 -0.103617154 -0.053209104 -0.018885596
-0.12747289 0.20354508 0.09282875 -0.016063675 -0.0817569 -0.15064442 -0.08456428 -0.08499951
-0.1543655 -0.16970749 0.13761558 0.021935016 -0.11702579 -0.05801122 -0.02288677 0.02937797
-0.081072286 -0.17613752 0.055697232 0.04580761 -0.08487567 -0.046856757 -0.05424151 -0.016727721
0.028904483 -0.0762977 0.007764066 -0.070536055 0.11746457 -0.028462341 -0.076520234 0.023367308
0.16069494 -0.10550691 0.11756341 0.22107637 -0.026109295 -0.091142595 -0.052578393 -0.0130798705
-0.07057932 -0.16165918 0.0491787 -0.089418 -0.15143245 0.12692572 -0.0543122 0.10914532
0.03698906 -0.009160454 -0.077487685 -0.014810492 0.06910805 0.035996538 0.011738565 0.124692775
-0.061003182 0.12876967 -0.10149517 0.09872077 -0.21534704 0.095686525 0.12046372 -0.022400271
0.07586264 0.034550585 -0.06556797 -0.06854128 0.041827556 0.12744322 0.11871599 0.036359817
-0.06545425 -0.12676129 0.044445675 0.01102898 0.031327557 -0.09327363 -0.092565715 0.100428455

network_body._body_endoder.seq_layers.2.bias f4 [128]
00000000: 6a93 d23b 2094 a6bc 1bdd a63c 483d 6d3b
00000010: 6442 9a3b e0ee 123c 1fc6 ed3a ba0c 0e3c
00000020: a8f4 ddbb 8d0d 9abc 2a81 e3bb 95f5 e7bb
00000030: ac54 ba3b b80f 973c c389 f339 83fe 543a
00000040: ead7 e13a f065 6b3a 104b eabb ce46 dd3c
00000050: a1b6 abbb 99bb 29bc 6a3d 3dba 86e8 b23b
00000060: eaef fe3a e58b 71bb 1e43 e73a be72 b4bb
00000070: b5db e1bc 4d64 e6ba 12bf 8b3b 18d6 8dbc
00000080: 46e8 d63a c63c 38bc 25a1 3bbb d524 16bc
00000090: fde4 8c39 9f32 2bbc ebbc c63c 4853 0e3b
000000a0: eb1a 983c 2aff e83a 5da7 43bc 6b92 6ebb
000000b0: 6e67 f9ba b1a5 6bbb 00e5 82bb af99 2ebc
000000c0: 0e05 9abb 27ea 33bb 3745 91bb e267 1abc
000000d0: 35ee d93b e7ae e3ba 0202 e4bb 0171 e0bb
000000e0: ce17 0cbc 3783 453a a0c9 0abc 67d5 53bc
000000f0: 20b0 4eba 0792 4b3c 6785 e8bb ccc5 b23a
00000100: 7436 f63b e2f3 81bb c649 80bb ad0b 803b
00000110: f2c8 413a 460a fdbb 0399 53bb b098 04bb
00000120: 9e8c abba 2116 cabb 7c69 b5ba b9be 633a
00000130: 070d 05bc 6329 9fbb 2b11 b3bb 64c6 67bb
00000140: 0eb4 c0bb bc3e 6c3c d86e c3bb 1d53 53bc
00000150: bdb1 97bb cc6b 933b 3ea3 cdbb 367e cd3b
00000160: 1772 a23b a028 c33a 41cd 5fbc 1bd4 b9b9
00000170: 88a5 843b 03bb 863a bf58 9c3c 355a e13b
00000180: 50e6 b23b 161e a63b 29b5 263d ee53 4e3c
00000190: 51a1 643c cca8 f2bb de97 9abb 2a41 793b
000001a0: 27b5 7dbb 6bdc 85bc 7b03 13bc 5c9f 76bc
000001b0: 7309 8e3b 9f01 bb3b 6a62 123a 094d 43bb
000001c0: 5bbc 56bb 2dd0 5f3b 717e 15bc ed00 e8bb
000001d0: 7d2d 913b 4850 473b 40b4 a53b 1559 e93a
000001e0: 52be b93b 2211 6d3c 5d23 8f3b a6a8 453c
000001f0: abcf 50bb c2f2 08bc dbeb b0bb d5f2 ccba
0.0064262645 -0.020334303 0.020369103 0.0036199857 0.0047076214 0.008968085 0.001814071 0.008670026
-0.00677355 -0.01880529 -0.006942888 -0.007078836 0.005686363 0.018440112 0.00046451212 0.00081250834
0.0017230485 0.00089797284 -0.0071500614 0.027011301 -0.005240277 -0.010359668 -0.0007218929 0.005459848
0.0019450162 -0.0036857065 0.0017643904 -0.0055068424 -0.027570585 -0.0017577499 0.0042647207 -0.017314002
0.0016396127 -0.011244958 -0.0028629985 -0.009164055 0.0002687349 -0.010449081 0.024260005 0.002171712
0.018567523 0.001777624 -0.011941758 -0.003640319 -0.0019028017 -0.0035956914 -0.003994584 -0.010656758
-0.0047003096 -0.0027452798 -0.0044333 -0.009424182 0.006650711 -0.001737085 -0.006958247 -0.0068494086
-0.008550597 0.0007534506 -0.008470923 -0.012929297 -0.0007884521 0.012424952 -0.007095981 0.001363927
0.0075138155 -0.0039658407 -0.0039150445 0.003907642 0.0007392309 -0.007722172 -0.0032287247 -0.002023261
-0.0013088172 -0.0061671888 -0.0013840641 0.00086877827 -0.008120782 -0.0048572286 -0.005464693 -0.0035366053
-0.005880839 0.014419254 -0.0059641413 -0.012898234 -0.0046293424 0.0044989344 -0.0062755635 0.006271149
0.004957448 0.0014889427 -0.013659776 -0.0003544398 0.004048053 0.0010279123 0.019085286 0.0068772086
0.0054595843 0.0050695045 0.04070011 0.012593253 0.013954476 -0.007405376 -0.004717811 0.0038033226
-0.0038712712 -0.016340455 -0.008972998 -0.015052643 0.0043346225 0.0057069804 0.0005584123 -0.0029800555
-0.0032766077 0.0034151182 -0.009124384 -0.0070801885 0.0044304715 0.0030412842 0.005056888 0.0017803038
0.00566844 0.014469417 0.0043682293 0.012064135 -0.003186206 -0.008358659 -0.00539921 -0.0015636334

action_model._discrete_distribution.branches.0.weight f4 [2, 128]
00000000: d19a 293c c2ef 3ebc 08b7 01bd 6e23 823c
00000010: b320 9cbc d8c4 0ebc 7259 36bc e8d9 32bc
00000020: 495a 223c 1fb2 543c 61fa c1bb 00cc 57bb
00000030: 337d b9bc 52e9 3fbc c21d 10ba 4cac 483b
00000040: 60f2 b33c 0553 d0bb fa8e 683a 94d2 51bc
00000050: 2ab5 4c3b 041f 8eba 165e c33a 7ced 9dbc
00000060: 99d0 37bc b1cb aa3c eeb4 faba 74be e0bb
00000070: 1c53 30bc bc7b ddba a810 a8bb 4807 e6b8
00000080: d373 0f3c 6580 003c 323a a93b 2d30 333c
00000090: a1a4 66bb f262 033b 63c2 acbc a0a3 8bbb
000000a0: 3c5f 56bc 978c c6b9 14fb 403c 3ee8 123c
000000b0: c297 c73a fe87 dd3c d04a 833c dedb 8d3b
000000c0: 8e21 593b 24f1 2dbb 36ab 4f3c 103f c13b
000000d0: 2e41 663a 71e0 d6b9 aa84 403c 4d0c 1a3a
000000e0: 0084 6d3c 880f 543b 529f 823c a435 673c
000000f0: a913 92bb b99a abbc f926 fd3b bd5b 72bc
00000100: e735 1abb 13ff adbb f4c6 413c 9aac 58bb
00000110: 1b03 33bc ae64 5c3b 6222 1e3c b0b9 423b
00000120: 9e02 833c ec1c 753c b9d9 bbb9 d221 93bb
00000130: ad69 55bb 7f47 a73c aa05 04bc dd3b ba3b
00000140: eb7f 423c 0276 cd3c 402a 65ba 3996 0ebc
00000150: acb4 f539 b9f6 2aba 59b1 fcbb 9e68 92bc
00000160: 420f a13b 5a68 e2bb 2f3e 02bc c2f7 063b
00000170: 55f5 1abc f9db 2dba 7c19 efbc 86c7 5bbc
00000180: fb3b 84bc f5f4 83bc 1749 bebc b9d1 6dbc
00000190: b066 8e3c 354a 1a3c e4f9 383c 9df1 3b3a
000001a0: f07b c13b 1475 de3a 11dd 8abb 9cd0 e0bb
000001b0: 6d83 d339 bf3e 4dbc 8ab2 c73b 24b3 e6ba
000001c0: c2f8 53bb d2cb b1ba 043d 983b 23bf a43b
000001d0: 6e55 50bc 0111 7cbc dc80 39bc b785 26bb
000001e0: b0f1 8fbc 83fd 233c dd31 58bc 8457 89bc
000001f0: 067c c73b e908 6bbb 16b6 02bc b2cc 963b
00000200: 7c8b 35bc f96e 12bc 9b60 e93b 4054 46bc
00000210: aca1 593c 20d8 673c cc97 55bc 7c0c 4e3b
00000220: dd76 de39 02d1 3fbc 5322 a8bb c861 c6b8
00000230: 7572 913c c143 16bb 371e a6bb da24 553b
00000240: f5de 94bc 9222 9b3c 48ba 48bc ffa1 5e3c
00000250: 4408 f4ba cac1 fa3a aa49 0fbc f45c f23b
00000260: 49ce c2ba 4d97 6dbc 860a 6aba 9b20 93bb
00000270: 4319 9f38 c684 853a fbf0 3f3c 0567 aabb
00000280: 6e30 83ba f319 d8ba 73e0 90bc 667e d53b
00000290: 1d14 2dbc 003e 45bb 96fb c13c e987 713a
000002a0: efd8 9e3c d5cf 073c ccc2 77bb bfc9 6bbc
000002b0: e5d6 4539 f0cc f03a 5e40 cd3b ac1a 143c
000002c0: 1d0b a9ba eaa2 ffbc f463 053c 27a7 cf3b
000002d0: 7225 95bc e761 f93b d775 363b 3c17 5dbb
000002e0: e86c 30bc dc40 193a 2683 19bb 7c69 2e3c
000002f0: 74ec 913b db11 8c3c 1aef d5bb 52ff 6f3c
00000300: de26 1f3c b874 5cba dc3e c9bb 8c1b 8d3c
00000310: ea6e ec3b 14cb f73b f9c7 8b3c 16c5 173c
00000320: ecdf b3bc 364c bd3a 39ee 043c 54ff 2dbc
00000330: 44a7 07bc 69d6 293c 4c19 c5bc eba1 e7bb
00000340: 82c2 0abc 2700 25bc 5cd9 cf3a bb62 19bc
00000350: 89f8 433b f2a8 0abc 57ed a6bc 9918 083c
00000360: f234 973c 4a6d ab3a 5f9b c6bc 7fd9 04bc
00000370: b6d3 0dba 2150 5dbc d094 bf3c 3c24 3f3c
00000380: 9b8c 01bb 3346 d4ba 2e9b cf3c 445f d33c
00000390: 7149 bbbb 6e3c 37bc 35ce abbb 8112 853c
000003a0: b064 1ebb 5340 88bb 38c3 c63a ec02 a5bb
000003b0: 4b7b 653c a8bb 6f3b b131 8cbc e30f d23a
000003c0: fdfb 82bc 7f51 193b 16f7 28bc a660 5fbc
000003d0: 7c7c 103b c753 8a3a b083 97ba 86d3 45b9
000003e0: 62a3 893b 9de5 f23b cd97 5c3b c69b 953c
000003f0: 8c12 9eb9 8c35 97bb 868c 34bc d2ea 0a3b
0.0103518525 -0.011653842 -0.031668693 0.015886035 -0.019058561 -0.008713923 -0.011129724 -0.010916211
0.009909221 0.0129819205 -0.00591974 -0.003292799 -0.022642707 -0.011713343 -0.00054975983 0.0030620275
0.02196616 -0.006357553 0.0008871403 -0.012806553 0.0031235912 -0.0010842984 0.0014905359 -0.01927828
-0.011219167 0.02084908 -0.0019127408 -0.0068586413 -0.010762002 -0.0016897838 -0.0051289387 -0.00010968611
0.008755642 0.007843112 0.005164408 0.010936779 -0.0035193341 0.002004799 -0.021088785 -0.004261449
-0.013084229 -0.0003787025 0.011778612 0.008966504 0.0015227722 0.027042385 0.016026884 0.0043291887
0.0033131572 -0.0026541436 0.012675097 0.00589741 0.0008783516 -0.00040984483 0.01175038 0.0005876467
0.014496803 0.003235789 0.01594511 0.01411191 -0.00445791 -0.020947801 0.007725593 -0.01479238
-0.0023530663 -0.005309948 0.011827219 -0.0033061863 -0.010926033 0.0033629346 0.009651752 0.002971273
0.015992459 0.014960509 -0.00035829635 -0.0044901157 -0.0032564208 0.020419834 -0.008057991 0.005683406
0.011871318 0.025080685 -0.00087419525 -0.008702808 0.00046864653 -0.000652175 -0.007711571 -0.017872151
0.004915149 -0.0069094123 -0.007949396 0.0020594453 -0.009457906 -0.0006632205 -0.029186957 -0.013414269
-0.016141882 -0.016108016 -0.023228211 -0.014515334 0.01738295 0.009417106 0.011290047 0.0007169487
0.005904667 0.0016972148 -0.004237779 -0.0068608057 0.00040342976 -0.012527167 0.0060942816 -0.0017600995
-0.0032344316 -0.0013564772 0.0046459455 0.005027668 -0.0127156805 -0.015384913 -0.011322226 -0.002540929
-0.0175713 0.010009172 -0.013195482 -0.016765364 0.006087783 -0.0035863465 -0.007977983 0.0046020383
-0.011080619 -0.008937591 0.007122112 -0.012105048 0.0132831745 0.014150649 -0.0130366795 0.0031440547
0.000424317 -0.011707546 -0.005131045 -9.459589e-05 0.017754773 -0.0022928568 -0.00506952 0.0032523186
-0.01817272 0.018937383 -0.012251444 0.013588428 -0.0018618186 0.001913124 -0.00874559 0.007396335
-0.0014862503 -0.014501405 -0.000892796 -0.004489971 7.586416e-05 0.0010186664 0.011715169 -0.005200269
-0.001000894 -0.0016487226 -0.01768515 0.006515312 -0.010563877 -0.003009677 0.023679536 0.00092136726
0.019390551 0.008289297 -0.0037805317 -0.014391362 0.00018867438 0.0018371623 0.0062637767 0.009039562
-0.0012896989 -0.031205613 0.008141506 0.006337065 -0.018206332 0.007610548 0.0027841234 -0.0033735773
-0.010768153 0.00058461516 -0.0023424118 0.010645267 0.0044532362 0.017098358 -0.0065287473 0.014648275
0.0097138565 -0.00084097264 -0.0061415266 0.01722505 0.0072153704 0.0075620506 0.017063128 0.009263298
-0.02195736 0.0014442268 0.008113437 -0.010619957 -0.008279625 0.010366061 -0.024059914 -0.0070688627
-0.008469226 -0.010070837 0.0015857625 -0.009361918 0.0029902777 -0.008463131 -0.020376844 0.008306646
0.018457863 0.0013078835 -0.024244009 -0.008108496 -0.00054102705 -0.013507874 0.023386389 0.011666354
-0.0019767645 -0.0016195237 0.02534255 0.025802262 -0.005715542 -0.011183841 -0.0052430877 0.016244175
-0.00241689 -0.0041580587 0.0015164381 -0.0050357487 0.014006446 0.0036580358 -0.017113538 0.0016026463
-0.015989298 0.0023394523 -0.010312816 -0.013633883 0.0022046855 0.0010553532 -0.0011559632 -0.00018866183
0.004200385 0.007412626 0.0033659816 0.018262755 -0.00030149927 -0.0046145376 -0.0110198315 0.0021197093

action_model._discrete_distribution.branches.0.bias f4 [2]
00000000: ed46 e4bb ec46 e43b
-0.006966463 0.0069664624
