results/ManAgent/ManAgent/ManAgent-97326.pt (torch, 502286 bytes, 33 tensors)

network_body._body_endoder.seq_layers.0.weight f4 [128, 26]
00000000: 6000 84bd d29a a0be bd2d 9b3e 23ea 703d
00000010: f776 82bd 7b80 2bbd c6cf a9be 48b7 debc
00000020: 1b9c 043e 8c5d 82be 8948 783e d747 32bb
00000030: 6a56 ff3d 797c e2bd 7495 edbe ccb2 00bd
00000040: 43c3 e73c 76ca dabd 6126 c8bd df32 b3bd
00000050: bac9 5bbe d9ca 4c3e f9e6 0abe e67a 2dbd
00000060: 82e4 ba3c ab7e e8bd b0d9 d43e 9c32 083e
00000070: 163d 903d c59a 213e 7f36 7bbe e3cd 533e
00000080: fa41 a63c 69c0 e63e 251d d53c 67fc a13d
00000090: 8277 bd3e 9b6a 42be 0e0d 5c3e d2ef 813c
000000a0: 9040 d6bd ff70 4e3e 5e96 b53d e5e6 af3d
000000b0: eb8b df3e c639 3d3c 5856 143e 4b39 8c3e
000000c0: e35a bf3d 3969 c6bd f141 b53d ad32 8dbd
000000d0: 9d5d 7e3e fc96 27be 8392 e73d 17cb a0be
000000e0: 928b 66bc a901 e6bd fbe9 0a3d 7fd0 1ebe
000000f0: ef0e 5b3d 4afe 92be 9a79 5abe 9a33 48be
00000100: 39c5 e5bd ec17 e63d 4873 983c 5f1a ccbe
00000110: 89ee 05be 6c05 41bd e4af 31be 5d4b d4be
00000120: 8334 973e 3e7a a4bd 6cef 873d 740e 50be
00000130: d705 513d d55d a5bd d4b2 683e 1864 d53b
00000140: 6d10 e2bd 1f18 403e c240 58be 8446 f2be
00000150: a0fa 4fbd 2a33 98be ea60 77be 68da 96be
00000160: 5b2b 2e3e ff9c 2a3e 0b75 a5be 219a 373e
00000170: fd5f 71be f6d0 e2be 05be f13e 1656 fbbd
00000180: bad5 933c 8d46 d03d 79e3 04be 3958 82bb
00000190: 8e29 b0ba e918 53be ae9a f6bd 1edc 10be
000001a0: b0fe 07bf 4d73 ff3d d493 1dbd 502a bb3d
000001b0: 2f74 4f3e b819 0bbe 82f5 0f3e cfcf 62be
000001c0: 168f afbc 024c 463d 6c7d bfbd 4639 ce3e
000001d0: 89ab c53d 9fd3 243e b7da 31bd c9ac 15be
000001e0: 9193 5cbd 20cf c4bd a2c6 3fbd ff18 33be
000001f0: 5dc8 d23e ac32 663c 128d e23d 850e 883d
00000200: 03e4 0dbc fad9 2b3c a93b 473e 3012 a7bc
00000210: 8d88 7e3e 2e85 3d3e 2ca6 e63d 8fdb 683b
00000220: 3d56 d33d 1e03 6a3e c6d2 9ebe 0c2b e9bd
00000230: 3161 36be dbd7 bebd 8348 403d 6c04 ad3e
00000240: 753e ea3d 8fb2 adbd 6358 683d f01c 2fbe
00000250: 0390 6d3d 2605 19be f419 8b3e b6ac 603d
00000260: 6d77 bf3e 1921 393e 339b 91be 54bc 06be
00000270: ab80 9cbd 2eee b63d d61c a1be de63 2bbf
00000280: fb43 a4be b958 8b3e 755a b73d 7681 2bbd
00000290: 6df8 f13d d1e8 e23d 7384 a63d daed c7bd
000002a0: 2e38 a1be beee 76be f3b4 6b3d 214c 523e
000002b0: b459 f7bd 3807 e0be 284a 61be 89a9 db3e
000002c0: ada8 893d 7899 1fbe 95cd e6bd be4f f1bd
000002d0: 1304 6b3e f09d 33be 592f 36be 475e 1c3f
000002e0: 2966 313e 2400 9ebe fc77 2b3e 2601 023e
000002f0: 3da2 573e 6a33 f83d f4cd ee3d 9015 3bbe
00000300: 937c d33e c238 7ebd 6900 0c3e 9230 4e3e
00000310: 7b29 29bc 7258 0ebe 00d9 0a3e 5ddc b3bd
00000320: 4456 c0bd 1ea4 f8bc 8226 3c3e 4bec be3d
00000330: f703 a2be 7985 b0be d3d3 23bc e005 8b3e
00000340: 3235 0b3e 05bd da3d 5070 ffbd 9cc2 233d
00000350: b6cd 003e e11f 3bbd 81ad f2bd 2fca 483c
00000360: 98d1 88be 57db 3dbe dc4e ba3e 9314 66be
00000370: 44f4 fdbd 1fa4 e1be 257e 683e f8ff 8cbe
00000380: 7846 2c3d 6122 4eb8 f2de 6b3e 5f13 1ebe
00000390: eb9f 34be 6e77 8abd c15f e53c 74f4 d03d
000003a0: e9c9 b4be 1605 b6bc f069 2d3e c1d0 75be
000003b0: d3fe efbd baba e53d f5a8 0bbe c4f0 aa3e
000003c0: 2a7a 1dbe 1b13 e2bd eab6 913e c793 633e
000003d0: 6f45 c0bd 1467 6bbd 5521 35bd df01 223e
000003e0: 49eb 1f3e f2d1 b33e e6c5 14bc c7ed 5c3d
000003f0: 7010 94bc 2500 6cbe 3b23 71bd 7135 663e
-0.06445384 -0.3136812 0.30308333 0.05881704 -0.06370347 -0.041870575 -0.3316633 -0.027187005
0.12950175 -0.25461996 0.2424642 -0.0027203464 0.12467654 -0.110588975 -0.46403086 -0.031420514
0.02829135 -0.106831476 -0.09772945 -0.08749937 -0.21463671 0.19999255 -0.13564672 -0.042353533
0.02281404 -0.11352285 0.41572332 0.13300556 0.07042901 0.15781696 -0.24532507 0.20684008
0.020295132 0.45068672 0.026014874 0.0790947 0.3700524 -0.1898598 0.21489355 0.015861426
-0.10461533 0.20160292 0.08866571 0.085889615 0.43661436 0.011549419 0.14486063 0.2738746
0.09343507 -0.096880384 0.08850468 -0.06894431 0.24840398 -0.1636619 0.11307242 -0.31404945
-0.014071362 -0.112307854 0.033914547 -0.15509222 0.05348104 -0.28709632 -0.2133545 -0.19550934
-0.11219258 0.112350315 0.018609658 -0.3986387 -0.13079275 -0.04712431 -0.17352253 -0.41463748
0.2953225 -0.08031128 0.06637463 -0.20318013 0.05103096 -0.08074538 0.22724468 0.0065121762
-0.11038289 0.18759201 -0.21118453 -0.47319424 -0.050776124 -0.29726535 -0.24158064 -0.29463506
0.17008726 0.16661452 -0.3231586 0.1792989 -0.23571773 -0.4430005 0.47215286 -0.12272279
0.018046249 0.101697065 -0.12977399 -0.003977802 -0.0013440119 -0.20614971 -0.120412216 -0.14146468
-0.53123 0.12473164 -0.038471058 0.0913893 0.20259164 -0.1358403 0.14058498 -0.22149585
-0.021430533 0.04841233 -0.09350094 0.4027807 0.09651858 0.16096352 -0.043421473 -0.14616694
-0.053851668 -0.096098185 -0.04682029 -0.17490004 0.4116849 0.014050167 0.11062063 0.066433944
-0.008660319 0.010488981 0.19456352 -0.020394415 0.24856777 0.18507835 0.112621635 0.0035531258
0.10319183 0.22852752 -0.31020182 -0.11385164 -0.17810513 -0.09318515 0.046944153 0.33792436
0.11437694 -0.08481323 0.056724917 -0.17100883 0.05799867 -0.1494337 0.27168238 0.05485221
0.37395802 0.18079032 -0.2843872 -0.13157779 -0.07641729 0.08932148 -0.31467313 -0.6694926
-0.32083115 0.27216128 0.089528 -0.04187151 0.118149616 0.110795625 0.081307314 -0.097621635
-0.31488174 -0.2411451 0.057545613 0.20536853 -0.120776564 -0.43755507 -0.22000945 0.42902783
0.067216255 -0.15585887 -0.112696804 -0.11782788 0.22950773 -0.17540717 -0.17791499 0.61081356
0.17324127 -0.30859482 0.16744989 0.1269575 0.21057983 0.121191815 0.11660376 -0.18269944
0.4130598 -0.062065847 0.13672031 0.20135716 -0.010324831 -0.13900927 0.13559341 -0.08782265
-0.09391454 -0.030351695 0.18374065 0.09322413 -0.3164365 -0.34476832 -0.009999233 0.2715292
0.13594511 0.10680584 -0.12472594 0.039980516 0.12578472 -0.0456847 -0.118494995 0.012255236
-0.26722407 -0.18540703 0.3638829 -0.22468786 -0.124001056 -0.44070527 0.2270437 -0.2753904
0.04205939 -4.9146245e-05 0.23034266 -0.15437077 -0.17639129 -0.06761061 0.02799976 0.10202876
-0.35310295 -0.022219222 0.16934943 -0.24005415 -0.11718526 0.11217256 -0.1363867 0.33386815
-0.15378633 -0.110388 0.28459865 0.22224341 -0.093882434 -0.05747135 -0.04422124 0.15821026
0.15617098 0.35121113 -0.009080386 0.0539377 -0.018074244 -0.2304693 -0.05887149 0.22481324

network_body._body_endoder.seq_layers.0.bias f4 [128]
00000000: 39e0 87bd bcd5 0ebc 628a 60bd e286 c4bc
00000010: 176f 3a3d 854e a13a 618c 3ebd d6bb 753d
00000020: 30ab c7bc 9f09 203b 2799 27bd 23e1 aebc
00000030: d22e 98bc 3a4e 2b3d a06d 23bd d9b0 f9bd
00000040: 55b7 57bb 664a 1cbd fa91 8a3c 9fe7 eabc
00000050: 88a7 423d 3fa1 6fbc 2e33 42bd c1ce d7bc
00000060: 2593 f5bc 1aea ecbc 98e9 673d 80d4 4cbd
00000070: a194 cf3c fe40 78bc 6543 283d b738 8dbc
00000080: 4139 bd3d 81ef f23b 68b3 cf3d 3115 8cbc
00000090: 8f1c 93bd 748d 02bd 97cd 87bc 52a2 0c3b
000000a0: a8da ba3d 5317 bd3d 9072 1c3d 77e8 1fbc
000000b0: c32d 22bd 14f0 5fbd ce3a 803c 0541 0a3c
000000c0: b4c8 19bd a7cc 42bd fb00 a63c 1d88 8bbc
000000d0: b7ff cdbd ebe2 c43d 7c61 a73d 30c3 703c
000000e0: d8f4 9b3c e19a 8fbc e414 02be ca54 863c
000000f0: fd32 343d 7011 17bc 67d9 51bd cd7a f53d
00000100: ba6c 103d 9cd4 473d d084 24bb f5ac 2dbb
00000110: 2de0 f4bc 11e5 b43c 72ec 5bbc 52ff 2e3d
00000120: 4b6d 19bd 4e40 723d 289d 1f3d 63c6 9f3b
00000130: 5e52 bebc a05f 903c af73 5b3d c42e 1b3d
00000140: bf77 78bd bc49 f33d e535 02be 09d7 8a3c
00000150: 0018 aabd a9a2 a93c 7845 07bd 2f04 39bd
00000160: ae92 a93d 8251 143c 1fb2 a8bb 627f f03c
00000170: d56d d8bb 5a2c 56bd 46e6 8cbc 96ba ff3c
00000180: 9bc8 893c 579d a73d 3c43 5d3d f799 ef3d
00000190: d006 283d 4281 413d d0c3 3dbc fa7b 23bd
000001a0: 2409 563d 03c4 803d e754 7abc 486c 1ebd
000001b0: 90ec 67bd c15a 16bc 422c 173d 5918 463d
000001c0: b7c2 4abb bebc 6bbd b23f 85bd a2e3 99bc
000001d0: fbf1 f3ba c9cd 2ebd 0b37 973b f590 e0bb
000001e0: b54c 183d c8b4 993b b4b8 323c 6b42 9a3b
000001f0: 144a 9a3d 28ff 553d f4db 4a3c 089a 0f3d
-0.06634564 -0.00871795 -0.054819472 -0.023990098 0.0455161 0.0012306726 -0.046520595 0.059993587
-0.02437362 0.0024419797 -0.04091754 -0.021347588 -0.018577013 0.04182265 -0.03989947 -0.12191934
-0.003291567 -0.03815689 0.01691531 -0.028674899 0.04752305 -0.014625846 -0.04741209 -0.026343705
-0.02997739 -0.028920222 0.056619257 -0.050007343 0.025339426 -0.015152214 0.041079897 -0.017238958
0.09239436 0.007413805 0.10141641 -0.017099949 -0.071831815 -0.03187318 -0.016577525 0.0021459055
0.091237366 0.09232964 0.038195193 -0.009760014 -0.039594423 -0.054672316 0.01565304 0.008438353
-0.03754492 -0.047558453 0.02026414 -0.017032677 -0.10058539 0.09613594 0.081728905 0.014694974
0.019037649 -0.017529907 -0.12703282 0.016397852 0.04399394 -0.009220466 -0.05123272 0.11986313
0.03525994 0.048786744 -0.0025103576 -0.0026500796 -0.029892052 0.022081884 -0.013423072 0.04272396
-0.037457746 0.059143357 0.038968235 0.0048759445 -0.023232635 0.017623723 0.05357712 0.037886396
-0.060661074 0.11879298 -0.12715872 0.01694824 -0.08305359 0.020707445 -0.033025235 -0.045170005
0.0827993 0.009052636 -0.005148187 0.029357616 -0.00660489 -0.05228839 -0.017199647 0.0312169
0.016819289 0.08184307 0.054019198 0.11699288 0.041022122 0.04724241 -0.01158233 -0.039913155
0.05225481 0.06287386 -0.015279031 -0.038677484 -0.056622088 -0.009176911 0.036907442 0.048363063
-0.0030938813 -0.057553045 -0.065062895 -0.018785302 -0.0018611545 -0.04267672 0.004614716 -0.0068532177
0.03718253 0.0046907403 0.0109082945 0.0047076247 0.075336605 0.05224529 0.0123815425 0.035059005

network_body._body_endoder.seq_layers.2.weight f4 [128, 128]
00000000: 8ca9 a83d 9840 083e 5935 35bc 248d 06be
00000010: cb0e 46be 5444 1f3c 3f59 1cbe 1af0 683c
00000020: 356a a03c 399b 4ebe 3d08 573d 6cac e33c
00000030: c997 76bd 2efb 13be 90af 7e3d b555 9e3c
00000040: 0148 35bd 856f a9bd 5a1c e3bd 1c3b 7f3c
00000050: 4be1 42be 1581 5b3d adc7 963d bab7 2b3d
00000060: 1448 383d f3fd e4bd 09e0 293d c094 a8bd
00000070: ce4d 283c 6167 a2bd cbd3 6a3c 268d 1fbe
00000080: 125d 103e e057 283c ce50 d9bd fdef 763a
00000090: 914d 4c3d 06ed 5abe b37d 3abd 8256 263e
000000a0: 0134 d23c fb9a 373e a948 a9bb db5b 5f3c
000000b0: 1879 ecbd 7ca7 44bd c724 0fbd 64e6 93bd
000000c0: 792f 4dbe 1070 843c 67ad 973d 13fc af3c
000000d0: 3ae5 4dbc 907f 28be ca66 003d 9a18 10be
000000e0: 4e43 c63d ec47 16bd 29d1 9b3d 36f4 c8bd
000000f0: f303 073d eca2 073c 5993 913c 5816 0c3e
00000100: 53d9 68bd e3e3 a0bd 425e 86bd 4c8c 343d
00000110: 890c 2e3d 2852 ef3c a34d 9f3d 51a8 8abe
00000120: 9a03 a9ba 1d35 3f3c 55fb 62bd db9c 253b
00000130: d41f 043d 3ec9 d7bd a36a a83d 6ff6 93bd
00000140: eba6 6c3d ccc2 743d a092 463d a90e 10bb
00000150: f2e8 bfbc 5f7a 04bd 7c09 5cbd d206 25be
00000160: 32ef abbd be8a 853d 443b d93c 89ec 113e
00000170: 2376 46bd b509 eabd 0e99 3cbe 1181 e5bb
00000180: c6f6 873d 9e2f 84bc c733 36be 5d49 dd3d
00000190: e340 96bc dddf fdbd ab20 77bd b6e8 11be
000001a0: fcc8 b9bd 2f86 9d3d 60cc a9be 117e 023d
000001b0: 400c 5fbd 8eec a7bb 36e0 c03d 13cb 87bd
000001c0: 0908 c7bd 7c85 78bc 4ed1 1abd 3ba5 6d3e
000001d0: a96f c3bd b6ae 77bd 48c2 043d e66a 5c3d
000001e0: 936f db3d c248 1c3d f4f6 27bd 8f5b cb3a
000001f0: 4c98 7d3a 328b fa3b 6cfd d5bd 59e8 c03b
00000200: a632 86bc e62e 7f3d 9bcc 85bd 6a89 8b3d
00000210: e4d3 0dbc cbd4 c2bc a7d3 403d e393 313d
00000220: feea aa3c 82aa c33d d995 83bd b7ce 3ebd
00000230: 77d6 30bd b30f 843c 8480 483c 2b19 ee3b
00000240: e511 b03c dd0f 433e a7d9 f43c 7439 c6bc
00000250: f21f 553d 8e9f 47bd b439 203d 1f6b bfbd
00000260: 45b3 26bb 2616 84be b704 95bd ca16 cabc
00000270: 4326 c5bd 8fc6 003e 0693 013d 96b6 013b
00000280: 477d dcbc 492c 4fbc 7e7c ad3c d42d b2bc
00000290: bf34 02be a0ac debd 7b68 3f3e 5c70 4b3d
000002a0: 8253 4fbe 1082 eabd 7f56 4c3c 9336 84bc
000002b0: 7976 8f3c 5bf3 fabb c330 72bd 769c 0d3e
000002c0: 24f9 b43d a08c 2c3e 4dba a6bd b74b 083e
000002d0: b778 42bd 304b b8bd b27c be3d f55d 503d
000002e0: e18f dfbd 1477 38bd 53b3 be3c a4f5 69bc
000002f0: d8f3 183e 3728 cabc 8fd8 6cbe a06c 07be
00000300: deb4 02bd 7053 7fbb 92d3 bc3b 8e8f 0e3d
00000310: 60f3 613b 80d2 11bb c5a5 3cbd 4bea e9bc
00000320: d6f7 9ebc 0ca7 593b 0260 84bd c915 87bd
00000330: afb3 eabd 02a0 cbbd 6d52 61be bf07 bebc
00000340: ea17 973d 3b51 823d fd1c 7f3d 206c d8bd
00000350: 8e95 563d e256 c5bd 0990 333c b202 c33d
00000360: 8e45 b5bd 15ab 00be eec1 8b3e e522 443d
00000370: 42ae 5abe 5f54 4c3c 9140 22bd 9ff8 fd3d
00000380: 12fb 403e f321 383d d3f6 0fba e0f6 0bbe
00000390: 246d 04bd cb6c 27be 699b f73c e0c0 853d
000003a0: 10a9 60bd 2bea 46bd 359c 8b3d 577f fcbc
000003b0: dad6 afbc 20eb 22be bb85 fcbd 9252 ccbd
000003c0: b1a0 7a3d 7d17 143e 5f16 42bd 569e 0dbd
000003d0: 49b1 a13d 7a2e 4fbd cc07 2dbe fa85 3fbe
000003e0: 9487 7d3b 7713 0f3d 2772 a63d 7296 e7bd
000003f0: 747b a23d a5b4 173d 9f91 55bd 6bc9 8dbd
0.082354635 0.1330589 -0.011060082 -0.13139778 -0.1934158 0.009720881 -0.1526842 0.014217401
0.019581893 -0.201764 0.05249809 0.027792178 -0.060203347 -0.14451286 0.06217915 0.019327978
-0.04425812 -0.08273224 -0.11089392 0.015578058 -0.19031255 0.0535899 0.07362304 0.041923262
0.044990614 -0.111812495 0.041473422 -0.08231497 0.010272456 -0.07929874 0.014332722 -0.15581188
0.14098004 0.010274857 -0.106111154 0.00094199163 0.04987866 -0.2137948 -0.045530032 0.16243938
0.025659563 0.17930214 -0.0051661325 0.01363274 -0.11546534 -0.048011288 -0.034947183 -0.07221678
-0.2003764 0.016166717 0.07406121 0.021482503 -0.012566859 -0.16454911 0.031348027 -0.14071885
0.09680806 -0.036689684 0.076082535 -0.098122045 0.03296275 0.00827859 0.017770456 0.13680398
-0.05684788 -0.07855966 -0.06560947 0.04407911 0.042492423 0.02921398 0.0777848 -0.2708154
-0.001289475 0.011670378 -0.05541547 0.0025270495 0.032256916 -0.10536431 0.08223464 -0.07224738
0.057776373 0.059756085 0.048479676 -0.0021981394 -0.023426507 -0.032343265 -0.053719983 -0.16115883
-0.08395232 0.065206036 0.026517518 0.14250387 -0.048452508 -0.11427633 -0.1841776 -0.0070039113
0.06638865 -0.016135987 -0.17793189 0.108050086 -0.018341487 -0.12396214 -0.06033389 -0.14248928
-0.09071538 0.07691609 -0.33163738 0.031858508 -0.054455042 -0.005124635 0.09417765 -0.0663053
-0.097183295 -0.015168544 -0.037797265 0.23207562 -0.09542782 -0.06046935 0.032411844 0.053812884
0.107146405 0.038155325 -0.041006997 0.0015514957 0.0009673878 0.007645988 -0.10448727 0.005887073
-0.016381573 0.062300585 -0.06533166 0.06813319 -0.008656476 -0.023783108 0.047076847 0.043353926
0.020864006 0.09554006 -0.064250655 -0.046583857 -0.04317328 0.016120767 0.012237672 0.007266184
0.021492908 0.1904902 0.029888941 -0.024197318 0.05203242 -0.048736148 0.03911753 -0.093466036
-0.0025436443 -0.25798148 -0.0727629 -0.02466907 -0.096264385 0.12575744 0.031634353 0.0019792668
-0.026915206 -0.012644836 0.021177527 -0.021750368 -0.12715434 -0.10872769 0.186922 0.0496677
-0.202467 -0.11450589 0.012471794 -0.016139304 0.017512547 -0.0076584048 -0.059128534 0.13829216
0.08836582 0.16850519 -0.08141003 0.13310133 -0.047478404 -0.08998716 0.093011275 0.050870854
-0.109161146 -0.045035437 0.023278868 -0.014279757 0.14936769 -0.024677379 -0.23129486 -0.13225031
-0.03191077 -0.0038959645 0.005762526 0.034804873 0.0034477338 -0.0022250712 -0.046056528 -0.028554102
-0.019405287 0.003321114 -0.064636245 -0.06595952 -0.11460053 -0.099426284 -0.22004099 -0.023197053
0.07377608 0.0636315 0.062283505 -0.10567498 0.05238872 -0.09635712 0.010959634 0.095219985
-0.08851157 -0.12565263 0.27296394 0.04788484 -0.21355537 0.0124712875 -0.039612357 0.12400936
0.18845776 0.04495425 -0.0005491797 -0.13668394 -0.032330647 -0.16350095 0.030225473 0.065309286
-0.05484873 -0.048563164 0.068169035 -0.03082244 -0.021464754 -0.15910006 -0.123301946 -0.099766865
0.061188404 0.14462085 -0.047384616 -0.03457483 0.078951426 -0.050581433 -0.16897506 -0.18703452
0.0038685547 0.034930672 0.081272416 -0.11307992 0.07933703 0.03703751 -0.05214083 -0.06923183

network_body._body_endoder.seq_layers.2.bias f4 [128]
00000000: 4133 87bc abe7 84b9 122f 3d3d a40b 153d
00000010: 3239 16be bd6c 863a c583 b93c 3fb0 01bc
00000020: 1e32 7ebb eaf7 4bbd 175f 403c b6e9 5ebc
00000030: 441d 31bd 42f7 54bb 1a98 a7bc ea63 02bd
00000040: f7f2 69bd 227f 17bd 2a75 7c3d 1bec cabb
00000050: 70ee b33b ab96 05bd c81e 8abc ab93 623b
00000060: 5466 27bd 974e 5dbd 5df2 c4bc 43ae d0bc
00000070: 7325 813d b027 13bd 86f9 b1bb 450a a4bd
00000080: 3cce 0abd 1af7 12bd 870d 22bc 207f c5bb
00000090: 091e 51bc 9be3 41bd 561d 8bbb 2ab6 ba3c
000000a0: 7e86 efbd 4966 623b 6c6e 9f3b 13f8 50bd
000000b0: 7fb8 a4bc 5700 0d3d b1e2 26bd 0b4f e43b
000000c0: d117 1f3c 7d35 c33c d32e c4bd 166e a5ba
000000d0: 987b cfbc 521e dcba 7d6d 223c f205 653c
000000e0: fe88 6ebd 3425 253d 32d0 86bd 4050 463d
000000f0: e308 93bc 50fd 2dbc f1ee 21bc cdbc a6bc
00000100: ec42 8dbc 234d 913c eb66 243c d9c4 5a3d
00000110: edf0 95bd a32a 8f3c 1f82 d13c 3a7b c8bc
00000120: c661 833d 5819 63bd a514 d63c 888a 493b
00000130: c44a 97bc 3a1b 8c3b 106a 03bd 3dbb 4f3d
00000140: 9a5c 1f3d 9fc0 c4bb f1b0 5d3c 7774 433d
00000150: 5c73 193c 5c2e d8ba 91dc 20bb 9d35 2d3d
00000160: fe13 fabc 109e 21bd 70a4 2d3c b398 1fbc
00000170: 941e 1bbd ec43 eebc 8515 a4bc eff0 543b
00000180: a837 abbb f130 523d a44d b83c d39f 4f3d
00000190: 2d85 9a3c 86f4 7abc c397 92bc 8108 85bd
000001a0: c2dd eb3a 54e4 53bd 27ea 1fbc 1986 9abc
000001b0: e1e0 27bd 7f97 9cbd 9745 a93a 552e 993c
000001c0: f5e0 06bd e812 3cbd 615a f73a ae7e 0ebd
000001d0: 73ae 923c 22eb b9bb 5ef5 043d eb40 d0bc
000001e0: 8b93 053c 8f47 e13b e550 19bd 588d 54bd
000001f0: 927e f73c 0849 1ebc c718 d83b 48c9 6abd
-0.016503932 -0.00025349608 0.046187468 0.036388054 -0.14670256 0.0010255795 0.02264584 -0.0079155555
-0.0038787196 -0.049796976 0.011741421 -0.013605526 -0.0432408 -0.003249601 -0.02045827 -0.031833567
-0.057116475 -0.036986478 0.061635174 -0.0061926967 0.0054910704 -0.03261439 -0.01686038 0.003457288
-0.040869072 -0.054030027 -0.024041349 -0.02547372 0.06305971 -0.03592652 -0.005431357 -0.08009771
-0.033888087 -0.035880186 -0.0098909205 -0.0060271174 -0.012763509 -0.047336202 -0.0042454405 0.02279194
-0.11695574 0.003454583 0.0048654582 -0.051017832 -0.020107506 0.034424152 -0.040743534 0.0069674305
0.009710268 0.023829216 -0.095792435 -0.0012621309 -0.025327489 -0.0016793704 0.009913799 0.013978468
-0.058236115 0.040318683 -0.06582679 0.048416376 -0.017948573 -0.010619476 -0.009883628 -0.0203537
-0.017243825 0.017736977 0.010034303 0.053410385 -0.073213436 0.017476385 0.025574742 -0.024472822
0.06415133 -0.05544409 0.026132891 0.0030752737 -0.018468268 0.0042757066 -0.03208357 0.050715674
0.03890667 -0.0060044075 0.013530956 0.04771849 0.009365883 -0.0016493308 -0.002454553 0.042287458
-0.030527111 -0.03945738 0.010598287 -0.009740996 -0.03787096 -0.029085122 -0.020029793 0.003249224
-0.0052251406 0.051316205 0.02249796 0.05068953 0.018862331 -0.015317088 -0.017894631 -0.064957626
0.0017995166 -0.051731423 -0.009760416 -0.01886277 -0.040985946 -0.07646083 0.0012914416 0.01869885
-0.03292938 -0.045916468 0.001887154 -0.03478878 0.01790545 -0.005673782 0.032460563 -0.02542158
0.008152853 0.0068749855 -0.037430663 -0.05189261 0.03021172 -0.009660967 0.0065947506 -0.057320863

action_model._discrete_distribution.branches.0.weight f4 [2, 128]
00000000: adc2 263d 2c3d 653d 46f0 61bd 0bfd 77bd
00000010: 2bed f8bb 6bbe 383d d700 1dbd 802a 7f3d
00000020: aea8 9b3c 7723 0d3d d301 4b3d 3bba baba
00000030: 938e 6e3c 15b3 5c3d 2520 2a3d 55ff 0e3d
00000040: cf36 da3c 6c39 e73c fa4e b4bd 539d 723d
00000050: 6179 d73c 61c2 313d a579 e03b 4c1c 943d
00000060: 2f71 743c 0c52 bd3b 9074 713b 2b76 523d
00000070: 4f16 aabd b999 383d db3b 123d d339 4a3c
00000080: eee1 ef3c ecb2 9e3c 6e6d 2a3d d939 113d
00000090: 7fb5 253b ceed 093d 3538 513d 3f50 943d
000000a0: 7099 dbbb de4e 0c3d 94b9 5a3d b287 e63c
000000b0: d46a 663c b962 2fbd cd3c 0e3d 2813 843d
000000c0: 5476 a73c 851d a53d 67ac 39bc 7855 fb3c
000000d0: bef0 163d 4227 9a3d 21f2 343d 0097 8abd
000000e0: 183f c43c 07df bebd af8f 6a3d ed8e 6ebd
000000f0: 636e 333d 759c 603d 9c17 823d 6522 e13c
00000100: c871 be3c b729 47bd fcd0 4d3c d1d0 a7bd
00000110: 2cf5 ab3c 4e7b 363d 53ac 953d 8391 c13c
00000120: 9761 40bd 7974 c43c 8d0b 19bd 033b 13bd
00000130: b616 9e3b 6866 c63c eec4 dd3c a46e 36bd
00000140: d44a 22bd 67a8 23bc d8e9 33bd 98ee 46bd
00000150: af4c 9d3d ebdb 6a3d f3b6 153d c63f 3dbd
00000160: a353 d83c 43ab d03c c136 37bd fbf7 243d
00000170: 03fa b63c f1b7 db3c d1d3 423d 3bd6 bbbb
00000180: ac2f 8b3d 82e2 89bd 9349 bfbc bf00 e4bc
00000190: 6309 1b3d 5119 073d c2f0 9b3c d607 0c3d
000001a0: 4502 593d d396 6639 c152 d93c 148a 813b
000001b0: d6f8 7f3c 2af7 9c3b 74e1 243d 5a24 713d
000001c0: 3cc8 393c a3fb 1c3d 5ee2 343d bb03 393d
000001d0: 7ac6 6c3d e3d2 1d3d 7179 8bbd 65f6 1a3d
000001e0: 790d 0ebc 4ffb 313d c402 b73c 434d 793d
000001f0: 8d51 58bd 9560 0c3d 7d6d fe3c edb4 853c
00000200: 9d8a 0abd eb1f 08bd 0851 0b3d cda2 843d
00000210: 5bb7 f8bb 68c7 40bd 12c9 583d acd4 88bd
00000220: 859f 0cbc 1fad 55bc bf5c e5bc 7a72 d2bb
00000230: 4088 c6bc 3235 46bd 8ba2 c1bc 6176 6bbd
00000240: 8d13 85bc cd23 72bc d492 d63d c30a 5ebd
00000250: 58f8 fabc b9e7 2cbd 50ae a7bc 4c08 78bd
00000260: 4b2f 9abc e4b5 0fbd ef30 bdbc 8bb3 d1bc
00000270: 7823 a73d e0a2 fabc c179 c7bb 5445 3f3c
00000280: 425f b8bc 5d61 9bbc a33d 0cbd 53e2 2fbd
00000290: b45d 2ebc 2708 94bc 8640 34bd 72d2 a8bd
000002a0: 9493 d839 602d b4bc f25a 0bbd ba82 fabc
000002b0: 56de 833b fa81 663d 076d b7bc 84ca 7ebd
000002c0: 0147 f0bc 3f84 b4bd 9b22 6ebc c696 5abd
000002d0: 0715 f9bc d115 99bd 4790 4fbd 68a6 843d
000002e0: 33cd a6bc 9d72 b83d 1c5e 84bd 1a95 143d
000002f0: 9252 1dbd b10c 18bd 7b70 7fbd d24f d5bc
00000300: d775 bcbc a9a7 7c3d ed3c 02bd 1958 983d
00000310: e5b8 42bc 912b 59bd d8de 79bd 7a19 1ebd
00000320: b7be 213d 95a0 a7bc d8d2 1d3d f688 433d
00000330: adb2 49bc 1ac4 51bd a783 74bc 4c47 2a3d
00000340: d2ad 673d 21a2 473c 379c 753d 2141 3f3d
00000350: 2b05 9fbd 55d2 81bd a848 fcbc 8619 463d
00000360: 0cd4 96bc b51e 39bd 530a 5f3d 0609 58bd
00000370: 5d3b 2abd 676d 76bc b02e 08bd cf5f d7bb
00000380: 969d 5dbd 780f 943d adee ad3c 59c0 153d
00000390: 014b 04bc 0e1c d2bc 5521 84bc df56 f7bc
000003a0: 425c 13bd 6b1c f2bb d1fe 89bc b9f5 50bc
000003b0: 9e44 26bd 0d73 78bc 2f80 22bd 8d02 6bbd
000003c0: af29 40bc da5f 45bd 2c72 eebc 3841 cdbc
000003d0: cb27 83bd d74a eebc 457d 6e3d b83c 0ebd
000003e0: e03a fb3c dbc1 5abd 97f5 eabc 53ab 29bd
000003f0: e9ff 643d 7ab4 4fbd 0afa b3bc 9cde debc
0.040713 0.05596654 -0.055160783 -0.060544055 -0.007596632 0.04510347 -0.03833088 0.06229639
0.019001331 0.03445765 0.049562287 -0.0014246175 0.0145603595 0.053881723 0.04153456 0.034911472
0.026637463 0.028225623 -0.08804126 0.059232067 0.026302995 0.043398265 0.0068504387 0.0723196
0.014919563 0.005777603 0.0036843158 0.051382225 -0.08305036 0.045068476 0.035701614 0.012342888
0.029282536 0.019372426 0.041608267 0.03545556 0.0025285182 0.033674054 0.051078994 0.07241868
-0.006701641 0.0342549 0.053399637 0.028140876 0.014063556 -0.04281876 0.034725953 0.06448966
0.020442165 0.08062271 -0.011332608 0.030680403 0.036850683 0.07527019 0.044176225 -0.06767082
0.023955867 -0.09319883 0.057265934 -0.058241773 0.043806445 0.05483671 0.063521594 0.02748222
0.023247615 -0.048623767 0.012562033 -0.081941254 0.02099093 0.044551186 0.07308259 0.023628956
-0.04696807 0.02398132 -0.03736453 -0.03594495 0.0048244847 0.024218753 0.027071442 -0.04453911
-0.039622143 -0.009988881 -0.043924183 -0.048567384 0.07680642 0.057338636 0.036551427 -0.046203397
0.026407069 0.025472289 -0.04472995 0.040275555 0.022336012 0.026821109 0.047565285 -0.0057323254
0.06796202 -0.06732656 -0.023350513 -0.027832387 0.03785075 0.032983128 0.0190357 0.03418716
0.05298068 0.00021990696 0.026528718 0.003953228 0.015623292 0.0047902064 0.04025407 0.05887256
0.0113392435 0.038325917 0.044161193 0.045169573 0.05780647 0.038531195 -0.068102725 0.037832636
-0.008670204 0.043452557 0.022340186 0.0608647 -0.052812148 0.034271795 0.031058067 0.016321624
-0.0338236 -0.033233564 0.034012824 0.06476364 -0.007590217 -0.04706517 0.05292613 -0.06681189
-0.008582954 -0.013041764 -0.027998326 -0.006422338 -0.024234891 -0.048390575 -0.023637077 -0.05748594
-0.016244674 -0.014779043 0.10477224 -0.054209482 -0.030635998 -0.042213175 -0.02046886 -0.060554788
-0.01882138 -0.035085574 -0.023094622 -0.025598308 0.08161062 -0.030595243 -0.0060875122 0.011674244
-0.02250636 -0.018967325 -0.03423847 -0.04294045 -0.010642458 -0.018070294 -0.044006847 -0.08243264
0.00041308685 -0.021994293 -0.03402228 -0.030579913 0.0040243072 0.0562763 -0.022390855 -0.062204853
-0.029330732 -0.088142864 -0.014534618 -0.053366445 -0.030405534 -0.07474864 -0.050674703 0.06477052
-0.020361518 0.09006236 -0.064632624 0.036275007 -0.038408823 -0.03712148 -0.06236313 -0.026039038
-0.02300541 0.06168333 -0.031796385 0.07438678 -0.011884903 -0.053020064 -0.061003536 -0.038598515
0.03948852 -0.020462314 0.038531154 0.047738038 -0.012310666 -0.051212408 -0.0149239665 0.0415719
0.056562252 0.012184651 0.05996343 0.04669297 -0.077646576 -0.06338946 -0.030796364 0.048364185
-0.018411659 -0.0451953 0.054453205 -0.05274298 -0.04156052 -0.015040732 -0.03324765 -0.0065727006
-0.054105364 0.07229513 0.021231974 0.03656039 -0.008074523 -0.025648143 -0.016129175 -0.03019279
-0.035976656 -0.0073886416 -0.016845139 -0.012753897 -0.040592782 -0.015164149 -0.039673027 -0.05737548
-0.011728688 -0.048187114 -0.029107176 -0.025055513 -0.06404074 -0.02908842 0.058224935 -0.034725875
0.030667722 -0.05340753 -0.02868156 -0.041423153 0.055908117 -0.050709225 -0.021969814 -0.027205758

action_model._discrete_distribution.branches.0.bias f4 [2]
00000000: 2e33 f2bc 4a33 f23c
-0.02956542 0.029565472

exp_avg f4 [128, 26]
00000000: c439 a6b4 c332 9f35 0c6b 11b7 007e 2031
00000010: 6aa8 6a35 88bd 6a35 0400 0080 0149 6b35
00000020: 0149 6b35 1a02 3532 8b74 6835 cbf1 6835
00000030: 0000 0000 0149 6b35 0149 6b35 10a0 c632
00000040: 9a13 6535 d845 6635 0000 0000 0149 6b35
00000050: 0149 6b35 9d76 b0b6 8e3d 7336 0000 0000
00000060: 0000 0000 60aa e0b6 e64a 9ab6 c3b5 0036
00000070: c76c 05b7 097b b5b1 4785 33b6 bc8b 33b6
00000080: 0400 0000 03e0 33b6 03e0 33b6 9c58 f0b2
00000090: 41ff 31b6 4c51 32b6 0000 0000 03e0 33b6
000000a0: 03e0 33b6 7239 1db3 1b6b 31b6 2be4 31b6
000000b0: 0000 0000 03e0 33b6 03e0 33b6 01e8 8637
000000c0: 7382 c5b5 0000 0000 0000 0000 07f6 a5b7
000000d0: 490b a3b6 8ee4 3837 f570 93b6 e27e abb0
000000e0: 83c8 ce36 51c7 ce36 0400 0000 c2bd ce36
000000f0: c2bd ce36 381d 6ab2 ca32 cf36 681e cf36
00000100: 0000 0000 c2bd ce36 c2bd ce36 88d1 c2b2
00000110: 9480 cf36 105b cf36 0000 0000 c2bd ce36
00000120: c2bd ce36 570e 1bb8 da36 8437 0000 0000
00000130: 0000 0000 fbaf e1b8 4a8a 0037 3ef0 5838
00000140: f00e 8838 dfed 9430 a611 7938 e411 7938
00000150: 0400 0000 ce12 7938 ce12 7938 a5b0 8d31
00000160: 630e 7938 230f 7938 0000 0000 ce12 7938
00000170: ce12 7938 d4b7 8932 9901 7938 e904 7938
00000180: 0000 0000 ce12 7938 ce12 7938 1fce bab9
00000190: a265 ea38 0000 0000 0000 0000 6214 02ba
000001a0: 5849 6337 7196 6ab8 f308 5ab9 f89e a233
000001b0: 6715 32b8 7b0b 32b8 0400 0080 26c4 31b8
000001c0: 26c4 31b8 c005 d334 366a 33b8 3421 33b8
000001d0: 0000 0000 26c4 31b8 26c4 31b8 d914 4e35
000001e0: 6dfc 34b8 cc5d 34b8 0000 0000 26c4 31b8
000001f0: 26c4 31b8 1b53 8539 89bd d3b8 0000 0000
00000200: 0000 0000 82dc 103a 68f2 e4b7 0a6b cab8
00000210: e12f 95b9 0da9 7c32 bbd7 01b9 1ad7 01b9
00000220: 0400 0080 c5d3 01b9 c5d3 01b9 82d6 9233
00000230: 23e6 01b9 ede2 01b9 0000 0000 c5d3 01b9
00000240: c5d3 01b9 a9f8 7534 4c11 02b9 7505 02b9
00000250: 0000 0000 c5d3 01b9 c5d3 01b9 a7bd 423a
00000260: 91c7 6cb9 0000 0000 0000 0000 fec4 733a
00000270: e1ac b5b7 4cc5 8538 d46e 5c39 a500 d531
00000280: 4dad 3038 29ae 3038 0400 0000 fdb3 3038
00000290: fdb3 3038 dd6c 50b3 1be8 3038 a1de 3038
000002a0: 0000 0000 fdb3 3038 fdb3 3038 5340 fdb3
000002b0: a632 3138 221a 3138 0000 0000 fdb3 3038
000002c0: fdb3 3038 0687 84b9 10aa dd38 0000 0000
000002d0: 0000 0000 64e8 22ba b36b 0735 ef0a 9d36
000002e0: 5dce 9bb9 5fd0 1634 0f42 a936 9ed3 a936
000002f0: 0400 0080 09f8 ad36 09f8 ad36 7959 4135
00000300: 3ccd 9536 2ff6 9936 0000 0000 09f8 ad36
00000310: 09f8 ad36 eb3e ae35 ab68 8236 7eca 8a36
00000320: 0000 0000 09f8 ad36 09f8 ad36 b878 02b8
00000330: c14d ee36 0000 0000 0000 0000 9425 50b7
00000340: 25da 8bb6 58c4 0137 f2bf 6a38 9656 01b2
00000350: 0cde 6f36 34d1 6f36 0400 0080 345d 6f36
00000360: 345d 6f36 7102 e9b2 3f2f 7136 49df 7036
00000370: 0000 0000 345d 6f36 345d 6f36 da70 cdb3
00000380: a3c8 7536 1b8c 7436 0000 0000 345d 6f36
00000390: 345d 6f36 1886 b3b7 7946 3737 0000 0000
000003a0: 0000 0000 cca6 a4b8 0a0e f035 451e 0239
000003b0: 0703 0239 ad0c 8730 1ffe 0339 33fe 0339
000003c0: 0400 0000 61fe 0339 61fe 0339 c2aa 4732
000003d0: 43fb 0339 cefb 0339 0000 0000 61fe 0339
000003e0: 61fe 0339 9311 ce32 f1f7 0339 2ef9 0339
000003f0: 0000 0000 61fe 0339 61fe 0339 92fd 45ba
-3.096194e-07 1.1861197e-06 -8.667597e-06 2.3354687e-09 8.741687e-07 8.74476e-07 -6e-45 8.7650557e-07
8.7650557e-07 1.05360645e-08 8.659633e-07 8.677859e-07 0.0 8.7650557e-07 8.7650557e-07 2.3123022e-08
8.533767e-07 8.5783313e-07 0.0 8.7650557e-07 8.7650557e-07 -5.259017e-06 3.6245651e-06 0.0
0.0 -6.6955545e-06 -4.598277e-06 1.9179286e-06 -7.952744e-06 -5.281781e-09 -2.6750656e-06 -2.6754415e-06
6e-45 -2.680347e-06 -2.680347e-06 -2.7979972e-08 -2.6523633e-06 -2.6571388e-06 0.0 -2.680347e-06
-2.680347e-06 -3.6606657e-08 -2.64374e-06 -2.6507867e-06 0.0 -2.680347e-06 -2.680347e-06 1.608208e-05
-1.471561e-06 0.0 0.0 -1.9784098e-05 -4.8590923e-06 1.1020469e-05 -4.3940913e-06 -1.247795e-09
6.162621e-06 6.162482e-06 6e-45 6.161369e-06 6.161369e-06 -1.3627236e-08 6.1749934e-06 6.1726205e-06
0.0 6.161369e-06 6.161369e-06 -2.2679856e-08 6.184049e-06 6.179682e-06 0.0 6.161369e-06
6.161369e-06 -3.6968235e-05 1.5761168e-05 0.0 0.0 -0.00010761615 7.6615925e-06 5.1722156e-05
6.487768e-05 1.0836024e-09 5.9382663e-05 5.9382888e-05 6e-45 5.938374e-05 5.938374e-05 4.1237223e-09
5.9379625e-05 5.9380323e-05 0.0 5.938374e-05 5.938374e-05 1.6032494e-08 5.9367714e-05 5.93708e-05
0.0 5.938374e-05 5.938374e-05 -0.00035630257 0.0001117692 0.0 0.0 -0.0004962144
1.3547331e-05 -5.5930057e-05 -0.00020793434 7.572629e-08 -4.245844e-05 -4.24492e-05 -6e-45 -4.2382766e-05
-4.2382766e-05 3.9305996e-07 -4.2775842e-05 -4.270785e-05 0.0 -4.2382766e-05 -4.2382766e-05 7.677132e-07
-4.3150434e-05 -4.30027e-05 0.0 -4.2382766e-05 -4.2382766e-05 0.00025429655 -0.00010096568 0.0
0.0 0.0005526022 -2.7292597e-05 -9.652048e-05 -0.00028455167 1.4706768e-08 -0.00012382765 -0.0001238253
-6e-45 -0.00012381289 -0.00012381289 6.8376735e-08 -0.00012388131 -0.00012386935 0.0 -0.00012381289
-0.00012381289 2.2907865e-07 -0.0001240421 -0.00012399799 0.0 -0.00012381289 -0.00012381289 0.0007428773
-0.00022581058 0.0 0.0 0.00092990685 -2.1657384e-05 6.3786836e-05 0.00021022122 6.199189e-09
4.212307e-05 4.212387e-05 6e-45 4.2129297e-05 4.2129297e-05 -4.8527784e-08 4.2177835e-05 4.216901e-05
0.0 4.2129297e-05 4.2129297e-05 -1.1792931e-07 4.224726e-05 4.2224427e-05 0.0 4.2129297e-05
4.2129297e-05 -0.00025277602 0.00010569778 0.0 0.0 -0.00062144385 5.044814e-07 4.6802375e-06
-0.00029717656 1.4045644e-07 5.0442827e-06 5.061228e-06 -6e-45 5.184677e-06 5.184677e-06 7.20283e-07
4.4644385e-06 4.588415e-06 0.0 5.184677e-06 5.184677e-06 1.2982322e-06 3.886487e-06 4.1362937e-06
0.0 5.184677e-06 5.184677e-06 -3.1106843e-05 7.1020045e-06 0.0 0.0 -1.2406515e-05
-4.167918e-06 7.734714e-06 5.596871e-05 -7.528476e-09 3.5743024e-06 3.5735547e-06 -6e-45 3.5668027e-06
3.5668027e-06 -2.712588e-08 3.59393e-06 3.5892756e-06 0.0 3.5668027e-06 3.5668027e-06 -9.566584e-08
3.662463e-06 3.6440385e-06 0.0 3.5668027e-06 3.5668027e-06 -2.1400905e-05 1.0924058e-05 0.0
0.0 -7.851198e-05 1.7885479e-06 0.00012409042 0.00012398894 9.826145e-10 0.00012587801 0.0001258783
6e-45 0.00012587897 0.00012587897 1.162215e-08 0.00012586736 0.00012586938 0.0 0.00012587897
0.00012587897 2.3989548e-08 0.00012585499 0.0001258596 0.0 0.00012587897 0.00012587897 -0.00075527385

exp_avg_sq f4 [128, 26]
00000000: 1ae8 5133 3aec 1832 854c 9132 2a86 382e
00000010: b3e2 7833 1625 7933 439d 4e28 5e4e 7933
00000020: 634e 7933 a146 8d2e 91dd 7833 0eef 7833
00000030: 0000 0000 814e 7933 814e 7933 a38a 762e
00000040: fa5e 7933 b44e 7933 0000 0000 814e 7933
00000050: 814e 7933 303c 0c36 d5ec 9a33 0000 0000
00000060: 0000 0000 aee8 5a35 0c61 8c33 29e1 4733
00000070: 5fde 7933 7838 5131 6e3c e533 b461 ea33
00000080: ee7d ef2a 4193 ed33 4093 ed33 095a eb2f
00000090: dfb1 ec33 7ac2 ec33 0000 0000 5e93 ed33
000000a0: 5e93 ed33 4bee 8b31 7c55 e533 1594 e533
000000b0: 0000 0000 5e93 ed33 5e93 ed33 f1a2 8536
000000c0: 1238 0835 0000 0000 0000 0000 704d 2a36
000000d0: 7d21 8d33 88b6 0033 3b98 3033 2c44 0a30
000000e0: f3de ca33 910a cb33 6e3f d329 53fd cb33
000000f0: 4ffd cb33 cff7 1830 5903 cb33 1a06 cb33
00000100: 0000 0000 2ffd cb33 2ffd cb33 f434 0930
00000110: 6fb1 ca33 5dc5 ca33 0000 0000 2ffd cb33
00000120: 2ffd cb33 d57c 6536 e27c 2d34 0000 0000
00000130: 0000 0000 1670 5a36 f3fd 2534 4fc6 a835
00000140: 6d24 ad35 72ef 3332 9a30 bd35 2a4e bd35
00000150: 5ba7 a92d 8076 be35 2a76 be35 9075 2830
00000160: 4470 be35 8a6d be35 0000 0000 3074 be35
00000170: 3074 be35 b1e2 a42f f55a be35 ce5d be35
00000180: 0000 0000 3074 be35 3074 be35 b942 5638
00000190: b19b 2036 0000 0000 0000 0000 3b17 2639
000001a0: b7a0 8e37 f1ee 7c36 462d cf36 f7df aa32
000001b0: 8d17 ac37 6a55 ac37 7b40 642d c777 ac37
000001c0: c277 ac37 f1bb 8133 36c0 ab37 6bda ab37
000001d0: 0000 0000 b377 ac37 b377 ac37 beb8 0d33
000001e0: 7198 ac37 9c82 ac37 0000 0000 b377 ac37
000001f0: b377 ac37 ab06 423a dc60 ed37 0000 0000
00000200: 0000 0000 77db 9c39 7adb a537 9437 0b37
00000210: cf59 4237 c649 2133 d452 e737 2298 e737
00000220: 4bac 382e 0ae3 e737 e9e2 e737 359b 0c33
00000230: ce78 e737 8783 e737 0000 0000 31e2 e737
00000240: 31e2 e737 b28f 6f33 f3cd e737 14b9 e737
00000250: 0000 0000 31e2 e737 31e2 e737 3d6f 823a
00000260: 2930 2638 0000 0000 0000 0000 cd20 743a
00000270: 549e 3037 c4c4 2536 9a09 8236 82e8 a432
00000280: 22ba 5737 f9c0 5737 e3df 2b2e 3a0f 5837
00000290: 130f 5837 77b5 b432 eb96 5737 789e 5737
000002a0: 0000 0000 3c0e 5837 3c0e 5837 b444 aa32
000002b0: 89bb 5737 01b9 5737 0000 0000 3c0e 5837
000002c0: 3c0e 5837 1610 f339 ed5c 8537 0000 0000
000002d0: 0000 0000 dc51 9339 9852 6b38 a299 3236
000002e0: dfd8 3c37 f066 be31 3de7 7538 10f5 7538
000002f0: 6771 8928 a2fa 7538 a2fa 7538 e549 0834
00000300: 0412 7538 b639 7538 0000 0000 a3fa 7538
00000310: a3fa 7538 80bf a632 4739 7638 f226 7638
00000320: 0000 0000 a3fa 7538 a3fa 7538 fa5c 0a3b
00000330: dba9 8b38 0000 0000 0000 0000 5b62 9136
00000340: 9583 0635 98d0 c032 7aef ae33 4ab5 b52f
00000350: 1a54 0c35 e45b 0c35 f4dd b929 fc6a 0c35
00000360: f96a 0c35 2ff9 4230 bb2e 0c35 2036 0c35
00000370: 0000 0000 df6a 0c35 df6a 0c35 eaea 262f
00000380: 705c 0c35 5f5d 0c35 0000 0000 df6a 0c35
00000390: df6a 0c35 3af8 9d37 9f12 2d35 0000 0000
000003a0: 0000 0000 a2f3 aa35 1b2d 7634 c937 0f37
000003b0: 2f41 1037 bdaa 3033 ab8e 1237 768e 1237
000003c0: 3aa7 b62e ec1a 1337 811a 1337 24df 0033
000003d0: c187 1237 ee8a 1237 0000 0000 9718 1337
000003e0: 9718 1337 ec65 f632 567b 1237 eb80 1237
000003f0: 0000 0000 9718 1337 9718 1337 9c7b a539
4.88727e-08 8.901276e-09 1.6915019e-08 4.1955918e-11 5.794818e-08 5.800856e-08 1.1469398e-14 5.8046105e-08
5.8046123e-08 6.424484e-11 5.7943513e-08 5.795942e-08 0.0 5.804623e-08 5.804623e-08 5.605706e-11
5.806121e-08 5.804641e-08 0.0 5.804623e-08 5.804623e-08 2.089666e-06 7.214263e-08 0.0
0.0 8.154992e-07 6.536911e-08 4.653808e-08 5.8177076e-08 3.0445602e-09 1.06746356e-07 1.0914246e-07
4.254231e-13 1.1062958e-07 1.1062957e-07 4.2810225e-10 1.1021961e-07 1.10249815e-07 0.0 1.10629784e-07
1.10629784e-07 4.072523e-09 1.0679193e-07 1.06905794e-07 0.0 1.10629784e-07 1.10629784e-07 3.9826778e-06
5.074554e-07 0.0 0.0 2.5377049e-06 6.5719156e-08 2.9968334e-08 4.1116646e-08 5.0300986e-10
9.446912e-08 9.454846e-08 9.3812856e-14 9.4990035e-08 9.499001e-08 5.5649435e-10 9.453533e-08 9.454034e-08
0.0 9.498978e-08 9.498978e-08 4.991556e-10 9.438633e-08 9.442258e-08 0.0 9.498978e-08
9.498978e-08 3.419632e-06 1.6157313e-07 0.0 0.0 3.2549774e-06 1.5459209e-07 1.2574691e-06
1.2900106e-06 1.0473615e-08 1.4095742e-06 1.4104346e-06 1.9287396e-11 1.4190591e-06 1.4190493e-06 6.128511e-10
1.4188777e-06 1.4187983e-06 0.0 1.4189918e-06 1.4189918e-06 2.99925e-10 1.4182575e-06 1.4183404e-06
0.0 1.4189918e-06 1.4189918e-06 5.1083716e-05 2.3932482e-06 0.0 0.0 0.00015839648
1.7002558e-05 3.7690008e-06 6.1743513e-06 1.9892452e-08 2.0514964e-05 2.0543772e-05 1.2974617e-11 2.0559773e-05
2.0559764e-05 6.041217e-08 2.0474294e-05 2.0486497e-05 0.0 2.0559737e-05 2.0559737e-05 3.2997143e-08
2.0574984e-05 2.0564818e-05 0.0 2.0559737e-05 2.0559737e-05 0.00074015063 2.8297705e-05 0.0
0.0 0.00029918153 1.9771735e-05 8.297986e-06 1.1584211e-05 3.755283e-08 2.7575916e-05 2.7608188e-05
4.1989783e-11 2.764307e-05 2.764301e-05 3.273745e-08 2.75936e-05 2.7598593e-05 0.0 2.7642674e-05
2.7642674e-05 5.5777214e-08 2.7633248e-05 2.762353e-05 0.0 2.7642674e-05 2.7642674e-05 0.0009951364
3.9622337e-05 0.0 0.0 0.0009312749 1.0527281e-05 2.4701449e-06 3.8754197e-06 1.9197845e-08
1.2858336e-05 1.2859929e-05 3.907975e-11 1.28781485e-05 1.2878113e-05 2.1037279e-08 1.2850137e-05 1.2851895e-05
0.0 1.28779175e-05 1.28779175e-05 1.9821847e-08 1.2858663e-05 1.2858073e-05 0.0 1.28779175e-05
1.28779175e-05 0.00046360557 1.5898107e-05 0.0 0.0 0.00028099015 5.6105288e-05 2.6613493e-06
1.1256167e-05 5.5414304e-09 5.862791e-05 5.8640784e-05 1.5259236e-14 5.8645972e-05 5.8645972e-05 1.269287e-07
5.842933e-05 5.84663e-05 0.0 5.8645976e-05 5.8645976e-05 1.9412028e-08 5.8704314e-05 5.868724e-05
0.0 5.8645976e-05 5.8645976e-05 0.0021112547 6.6596745e-05 0.0 0.0 4.332787e-06
5.0110367e-07 2.24466e-08 8.146067e-08 3.3052522e-10 5.227645e-07 5.228778e-07 8.254153e-14 5.2309747e-07
5.230973e-07 7.09309e-10 5.2222066e-07 5.2232826e-07 0.0 5.230958e-07 5.230958e-07 1.518107e-10
5.228858e-07 5.2289937e-07 0.0 5.230958e-07 5.230958e-07 1.8831448e-05 6.447462e-07 0.0
0.0 1.2736893e-06 2.2926945e-07 8.536453e-06 8.598246e-06 4.113348e-08 8.735496e-06 8.735447e-06
8.306107e-11 8.768151e-06 8.768054e-06 3.0005268e-08 8.733886e-06 8.734625e-06 0.0 8.767608e-06
8.767608e-06 2.8684518e-08 8.7309945e-06 8.732294e-06 0.0 8.767608e-06 8.767608e-06 0.0003156335

exp_avg f4 [128]
00000000: 0149 6b35 03e0 33b6 c2bd ce36 ce12 7938
00000010: 26c4 31b8 c5d3 01b9 fdb3 3038 09f8 ad36
00000020: 345d 6f36 61fe 0339 64fe 7ab6 62c4 99b6
00000030: 42f8 da38 590b d1b6 cdaf b7b8 269d ff36
00000040: 6835 1fb9 bdcf d738 5f39 6837 1cf5 41b8
00000050: 51d1 96b6 49fb 5937 b31b a5b6 ef64 dcb6
00000060: 4e77 ac38 baf4 01b9 a766 2cb9 1d6d 68b6
00000070: f83f 19b7 1329 1439 b377 f6b8 5f7d 10b8
00000080: 6444 40b8 cd57 1d37 05f3 d0b7 7215 2738
00000090: 4465 54b8 e93c 3ab7 cbaa 9036 08bc 6837
000000a0: cfbc 3cb9 77ac 67b7 9d8d cbb3 f628 9038
000000b0: d9c0 6137 51b0 f037 9043 35b9 c79a 0739
000000c0: 21dd 4938 695d 78b8 8ab6 dcb7 e2e1 9638
000000d0: 75eb 8937 f543 a8b8 6642 77b9 20ef 2439
000000e0: 9cd6 1db7 1e17 eb35 dfd8 8835 ed58 0139
000000f0: 144a 21b8 8d98 8fb7 077e 45b8 b1bb b7b9
00000100: 0114 01b9 2c4e 60b8 cc3f ba37 26c9 5038
00000110: 7afd 2137 66fa 04b9 d076 99b6 75b7 3b39
00000120: 8f54 a1b3 b8b5 0236 a9cd 03b7 53ea 08b8
00000130: ce9e c5b4 f0a9 1bb9 3140 44b9 5465 2437
00000140: 3ced 9e38 f110 48b9 8b9c da34 5ff6 61b8
00000150: 8512 f131 4683 f7b3 1050 4db8 45e6 f838
00000160: e757 8337 12f3 74b8 1ce6 9f38 9349 0cb4
00000170: ec41 16b8 cad6 7b38 2184 8538 7218 0cb9
00000180: c9af 0339 cf02 a4b7 26a5 05b8 4e56 3db7
00000190: f85e b3b8 d1c2 5739 a82f b3b5 f8f4 f237
000001a0: 148b 7d35 67f5 94b8 da39 b9b6 9f02 f535
000001b0: bffb b938 e9ae b9b7 cb76 f8b8 313f 43b6
000001c0: 2cba c038 3040 2c38 0b5e dfb7 6d22 20b7
000001d0: ddc8 3639 becf 3d39 f9de 8d37 b370 82b8
000001e0: ff6f 38b7 b013 29b9 ecbe 12b8 7035 51b8
000001f0: 3753 0337 b73a 65b7 8329 2fb8 d481 e8b8
8.7650557e-07 -2.680347e-06 6.161369e-06 5.938374e-05 -4.2382766e-05 -0.00012381289 4.2129297e-05 5.184677e-06
3.5668027e-06 0.00012587897 -3.7400978e-06 -4.5826173e-06 0.00010441292 -6.2300064e-06 -8.7588654e-05 7.6178867e-06
-0.00015183317 0.00010290693 1.3841635e-05 -4.624306e-05 -4.494716e-06 1.2992715e-05 -4.920608e-06 -6.568261e-06
8.223821e-05 -0.00012393566 -0.00016441439 -3.4634206e-06 -9.1344045e-06 0.00014129681 -0.0001175249 -3.4449036e-05
-4.584006e-05 9.378372e-06 -2.4908697e-05 3.9835875e-05 -5.063905e-05 -1.1100646e-05 4.3114173e-06 1.3872057e-05
-0.00017999414 -1.3808828e-05 -9.4786834e-08 6.874085e-05 1.3455946e-05 2.8692333e-05 -0.00017286674 0.00012932262
4.8128077e-05 -5.9214803e-05 -2.6311045e-05 7.194631e-05 1.6441316e-05 -8.023522e-05 -0.00023580491 0.0001572934
-9.407897e-06 1.7515592e-06 1.0195907e-06 0.00012335526 -3.8454382e-05 -1.7117965e-05 -4.7085832e-05 -0.0003504432
-0.0001230985 -5.3478565e-05 2.2202636e-05 4.97784e-05 9.655365e-06 -0.00012681782 -4.573587e-06 0.00017902053
-7.512528e-08 1.9477284e-06 -7.856092e-06 -3.264316e-05 -3.6809655e-07 -0.00014845259 -0.0001871593 9.798754e-06
7.5782154e-05 -0.00019079797 4.0719564e-07 -5.387363e-05 7.0161286e-09 -1.1525712e-07 -4.8950373e-05 0.000118684526
1.565735e-05 -5.840051e-05 7.624572e-05 -1.3065282e-07 -3.582418e-05 6.00431e-05 6.366545e-05 -0.00013360547
0.00012558619 -1.9551631e-05 -3.1863477e-05 -1.1285372e-05 -8.5530744e-05 0.00020576573 -1.3350409e-06 2.896272e-05
9.445223e-07 -7.1029e-05 -5.5201644e-06 1.8254685e-06 8.868379e-05 -2.2135167e-05 -0.000118476884 -2.9094047e-06
9.189951e-05 4.1067775e-05 -2.6627464e-05 -9.5447585e-06 0.000174317 0.00018101835 1.691234e-05 -6.219875e-05
-1.0993331e-05 -0.0001612443 -3.4986922e-05 -4.987925e-05 7.827583e-06 -1.3663134e-05 -4.1761912e-05 -0.000110868044

exp_avg_sq f4 [128]
00000000: 814e 7933 5e93 ed33 2ffd cb33 3074 be35
00000010: b377 ac37 31e2 e737 3c0e 5837 a3fa 7538
00000020: df6a 0c35 9718 1337 7688 1b36 daf9 1233
00000030: 6dcf d236 2b6b 3e35 45f3 2f38 b155 1b35
00000040: d309 2738 4137 2c37 7f14 4136 affc ed37
00000050: bb43 2137 206f d234 f68c 8032 d85a 3033
00000060: 2e2e a836 7eba c336 a04b b637 f413 cf31
00000070: da86 f533 e615 7937 e139 0f38 9167 c437
00000080: 54d6 7638 f08a 0a37 a815 be37 4402 2236
00000090: 9bc0 e137 f14e ad36 20b7 9337 9492 d137
000000a0: c8c8 d137 1656 6435 be3d c333 45f4 5137
000000b0: 0ef7 e335 cd8f c137 d493 3039 7715 2f37
000000c0: f042 0736 9d48 ae38 5e2b b638 716b 3236
000000d0: 2c36 4d38 38b0 dc38 c1ff a839 e2f3 6a37
000000e0: e21e 8b37 f727 4732 0818 8330 7b47 2c39
000000f0: a973 b137 4d3b f638 134e 5f37 6de8 6f39
00000100: b16e b637 5341 6b38 5a16 8337 9fd7 b037
00000110: f24b 3537 df40 d338 8e74 ba33 43f0 8438
00000120: 07e9 2234 f7dd 7334 14c6 3534 3d0b 0c36
00000130: 26ad 4235 9815 3537 9482 d438 192d e735
00000140: 2f79 a436 b0dd 8539 636f 0f30 42f5 9136
00000150: f425 b733 9b5d 2335 7586 6237 fcdf 1837
00000160: f24d d636 93e8 3738 f707 5c36 4129 9b34
00000170: 1b34 9737 4aab b235 e275 0636 c5e0 4e38
00000180: 8ac5 6d37 c95d 1a38 3a0a b438 a2d9 c136
00000190: fef7 4938 da04 3338 9114 6d34 6315 4a37
000001a0: 25d8 8238 f3f9 0e37 4601 b537 d6f1 2b39
000001b0: 8229 9637 23b0 1c37 10f7 6c37 7eb5 1733
000001c0: f9b7 e938 6b99 2c37 cb9f 0738 9066 4436
000001d0: 6985 a537 5632 8a37 aaab a638 7b5f 1339
000001e0: 7f09 8036 1ef8 cf38 75f7 9438 7b02 d337
000001f0: 2f63 ce37 eae8 d336 5c88 e638 574c c138
5.804623e-08 1.10629784e-07 9.498978e-08 1.4189918e-06 2.0559737e-05 2.7642674e-05 1.28779175e-05 5.8645976e-05
5.230958e-07 8.767608e-06 2.317623e-06 3.4220513e-08 6.2826352e-06 7.0936466e-07 4.1949814e-05 5.7866697e-07
3.9825052e-05 1.0264864e-05 2.8771171e-06 2.8370267e-05 9.6121175e-06 3.9196402e-07 1.4965263e-08 4.1060815e-08
5.012166e-06 5.8331634e-06 2.1731306e-05 6.0267613e-09 1.1433231e-07 1.4846655e-05 3.414776e-05 2.3413248e-05
5.885058e-05 8.25779e-06 2.265985e-05 2.41412e-06 2.6911779e-05 5.1649918e-06 1.760904e-05 2.4982997e-05
2.5008238e-05 8.506189e-07 9.091626e-08 1.2514244e-05 1.698472e-06 2.3074355e-05 0.00016839738 1.04358105e-05
2.015553e-06 8.310492e-05 8.686514e-05 2.6586606e-06 4.892626e-05 0.00010523241 0.00032234009 1.400427e-05
1.6584472e-05 1.15924115e-08 9.538335e-10 0.00016429827 2.1153903e-05 0.0001174124 1.3310014e-05 0.00022879402
2.1747635e-05 5.6089204e-05 1.5626825e-05 2.1081241e-05 1.0806123e-05 0.00010073347 8.682501e-08 6.339003e-05
1.51722e-07 2.2711889e-07 1.6928999e-07 2.0868167e-06 7.2522596e-07 1.0793468e-05 0.0001013327 1.7223966e-06
4.9016885e-06 0.00025532907 5.2181387e-10 4.3498885e-06 8.528505e-08 6.0858446e-07 1.3501955e-05 9.112056e-06
6.386771e-06 4.38472e-05 3.278719e-06 2.8901016e-07 1.8024866e-05 1.3311885e-06 2.0036173e-06 4.932356e-05
1.4172294e-05 3.6803805e-05 8.584974e-05 5.777184e-06 4.8153095e-05 4.2681444e-05 2.2079827e-07 1.2045118e-05
6.239143e-05 8.522055e-06 2.1577474e-05 0.00016397922 1.7900722e-05 9.339335e-06 1.412422e-05 3.5322493e-08
0.00011144573 1.0287719e-05 3.2335327e-05 2.9265975e-06 1.9731657e-05 1.6474321e-05 7.947472e-05 0.00014054582
3.8158028e-06 9.9167446e-05 7.1032824e-05 2.5154315e-05 2.46033e-05 6.315405e-06 0.000109926536 9.2171766e-05
