results/ManAgent/ManAgent/ManAgent-499991.onnx (onnx, 86389 bytes, 6 tensors)

network_body._body_endoder.seq_layers.0.weight f4 [128, 27]
-0.42164308 -0.060964704 -0.676616 -0.10956836 -0.31312194 0.12839471 0.096806884 -0.12186973
-0.2058809 0.25427514 -0.2760105 0.05067288 0.11644692 0.18058895 -0.13256176 0.5587315
-0.2276537 -0.29522842 0.059012283 0.15961297 0.16374753 -0.3558059 -0.051097948 0.24238844
-0.17037046 -0.15719338 -0.5241337 0.0062996666 -0.09945813 0.59446573 0.3922822 0.19068184
0.2746776 -0.14856799 0.09568537 -0.07058632 0.059746627 0.30627325 0.16330254 -0.048015233
0.21727121 0.33177698 -0.10097363 0.25653028 0.1740995 -0.40492928 -0.29090083 -0.051090993
0.115567684 -0.2489215 -0.10468135 0.16284719 0.23881291 0.11479572 0.31414703 -0.22703516
0.5436891 -0.04877594 -0.23363349 0.15155372 -0.04275982 0.331563 -0.36052412 -0.46596134
-0.07525445 0.2793663 0.05485882 -0.25190896 -0.38929963 -0.4210222 0.1284239 0.24583219
-0.04930031 -0.10052009 0.03174216 -0.0564549 0.119802766 -0.061437245 0.36692822 0.100834556
0.55021465 -0.32471868 -0.14961562 0.13454594 -0.25310746 -0.041181263 -0.09234471 -0.2209766
-0.07301135 -0.16926938 -0.42639783 0.101139635 -0.2266778 -0.12507191 0.12267119 -0.13187423
-0.505136 0.06116331 0.04285959 -0.13366166 -0.11440828 -0.0684495 -0.18613821 -0.17877124
0.081072256 -0.10713858 0.18862742 -0.07390557 -0.09708128 0.23989688 -0.31323698 0.028929455
0.072810054 -0.16521962 -0.07349863 0.19214013 -0.048849057 1.0028563 0.2534154 0.00190662
-0.008617638 0.20448482 0.16617131 0.53888494 -0.17848265 -0.3534811 0.25860012 0.0051442483
-0.18085787 -0.12537813 -0.19526507 -0.22012563 -0.29480574 -0.1176239 -0.44843492 0.17468262
0.04442168 0.53252953 0.4228031 -0.03561441 0.2240591 -0.21355288 0.12942152 -0.102495596
-0.49424613 0.0043758475 0.22503336 0.14429116 -0.18894495 -0.03991955 -0.25181714 0.19861208
0.0894241 0.029148435 -0.05280673 -0.19053046 -0.026856326 0.14573765 -0.2332341 0.09776651
-0.1464927 -0.07374359 0.18448742 -0.09020228 -0.61819947 0.5985984 0.015346523 -0.14019881
-0.09820708 -0.18443957 0.059734516 -0.048049863 0.09688743 -0.121151045 0.21834639 0.030912792
-0.19031298 -0.029015778 0.032793093 0.08178389 -0.20683862 0.24087977 -0.20186129 -0.0820066
-0.089319885 -0.034579124 0.24554698 -0.1995744 0.18719329 0.0465544 -0.08875713 0.41693562
0.10586252 -0.29933822 -0.37952486 0.2105351 0.03581459 0.08813607 -0.626309 -0.19046092
-0.13220814 -0.00908372 -0.27185988 -0.118441544 -0.90257674 -0.07308466 0.0949217 0.038190287
0.08234731 0.08941134 -0.1992782 -0.1422916 0.17550859 -0.17425317 0.17631581 -0.17064163
0.14454578 -0.29566357 0.25700372 -0.13955571 0.15258044 0.24239156 0.026643187 0.11998233
-0.013827465 -0.6834372 -0.121884175 0.013852625 -0.11420148 0.05729387 -0.19113658 -0.020867592
0.09629144 0.26446968 0.0016277591 -0.6374469 -0.40767133 0.13461357 -0.14508018 0.06267137
-0.14729856 -0.5795684 0.13238141 0.084774755 -0.28849792 -0.40911776 0.4895044 -0.28362563
-0.035986997 -0.3963685 -0.028075788 -0.121486485 0.20561875 -0.100305974 0.01901545 -0.05099143
00000000: 9ae1 d7be 20b6 79bd b536 2dbf 6065 e0bd
00000010: 8551 a0be e779 033e b042 c63d d696 f9bd
00000020: 71d2 52be 5a30 823e 4051 8dbe 5e8e 4f3d
00000030: b97b ee3d 4fec 383e 45be 07be 0709 0f3f
00000040: 0d1e 69be 2e28 97be ddb6 713d 9571 233e
00000050: 6fad 273e 312c b6be 154c 51bd ad34 783e
00000060: 9875 2ebe 4df7 20be a02d 06bf 6f6d ce3b
00000070: b4b0 cbbd e82e 183f 36d9 c83e 1a42 433e
00000080: 8ba2 8c3e 3522 18be b1f6 c33d 8f8f 90bd
00000090: e1b8 743d d9cf 9c3e c838 273e 9fab 44bd
000000a0: 587c 5e3e acde a93e 43cb cebd f057 833e
000000b0: 2447 323e e452 cfbe f4f0 94be ca44 51bd
000000c0: c0ae ec3d 47e5 7ebe 2d63 d6bd 6ac1 263e
000000d0: 5f8b 743e 051a eb3d e1d7 a03e e87b 68be
000000e0: 352f 0b3f 48c9 47bd 9e3d 6fbe e630 1b3e
000000f0: ec24 2fbd a0c2 a93e 9e96 b8be 7c92 eebe
00000100: 011f 9abd 1a09 8f3e a4b3 603d 36fa 80be
00000110: 4852 c7be 3990 d7be 8e81 033e 6fbb 7b3e
00000120: 1fef 49bd 7add cdbd 1104 023d 413d 67bd
00000130: 275b f53d 9fa5 7bbd 04de bb3e 5982 ce3d
00000140: deda 0c3f 8741 a6be d634 19be 69c6 093e
00000150: 4d97 81be afad 28bd 391f bdbd b147 62be
00000160: fa86 95bd f454 2dbe d150 dabe 4c22 cf3d
00000170: 3a1e 68be da12 00be 083b fb3d 0a0a 07be
00000180: 9850 01bf 6186 7a3d 8a8d 2f3d 9ade 08be
00000190: e34e eabd 402f 8cbd 049b 3ebe cf0f 37be
000001a0: 3609 a63d 796b dbbd 8c27 413e ce5b 97bd
000001b0: 8dd2 c6bd 87a7 753e 9960 a0be 77fd ec3c
000001c0: 701d 953d 552f 29be 7386 96bd 62c0 443e
000001d0: f315 48bd 985d 803f aabf 813e 8de7 f93a
000001e0: fe30 0dbc 7864 513e d028 2a3e 5df4 093f
000001f0: 28c4 36be 7afb b4be 3c67 843e 1591 a83b
00000200: ce32 39be 2063 00be 91f3 47be 9d68 61be
00000210: c7f0 96be cde4 f0bd 4399 e5be 00e0 323e
00000220: 82f3 353d db53 083f a679 d83e 6ae0 11bd
00000230: c06f 653e 9bad 5abe 1387 043e 36e9 d1bd
00000240: d40d fdbe 4563 8f3b 256f 663e 10c1 133e
00000250: c97a 41be af82 23bd 2dee 80be f760 4b3e
00000260: fc23 b73d b3c8 ee3c df4b 58bd 6b1a 43be
00000270: cc01 dcbc 403c 153e ebd4 6ebe cf39 c83d
00000280: 2f02 16be e106 97bd 45ea 3c3e f9bb b8bd
00000290: 5242 1ebf bf3d 193f fc6f 7b3c 4790 0fbe
000002a0: cb20 c9bd badd 3cbe 2eac 743d efcf 44bd
000002b0: eb6c c63d 0a1e f8bd 3296 5f3e d33c fd3c
000002c0: 68e1 42be 7fb2 edbc 0d52 063d 507e a73d
000002d0: 81cd 53be 30a9 763e bab4 4ebe 14f3 a7bd
000002e0: 58ed b6bd d7a2 0dbd ab70 7b3e 3b5d 4cbe
000002f0: 99af 3f3e d4af 3e3d 4cc6 b5bd 9678 d53e
00000300: 73ce d83d dc42 99be 1551 c2be 8396 573e
00000310: 52b2 123d af80 b43d c955 20bf 3008 43be
00000320: 9261 07be e2d3 14bc 3831 8bbe 7b91 f2bd
00000330: 450f 67bf 69ad 95bd 4f66 c23d 6b6d 1c3d
00000340: b5a5 a83d 4b1d b73d 960f 4cbe e4b4 11be
00000350: 86b8 333e 6c6f 32be 228c 343e aebc 2ebe
00000360: cf03 143e 3761 97be fe95 833e b1e7 0ebe
00000370: 0c3e 1c3e 7e35 783e d042 da3c 4cb9 f53d
00000380: 978c 62bc bef5 2ebf 699e f9bd 1ff6 623c
00000390: 77e2 e9bd faac 6a3d 4fb9 43be 83f2 aabc
000003a0: 7234 c53d 9268 873e 885a d53a b82f 23bf
000003b0: 4cba d0be 24d8 093e e68f 14be d959 803d
000003c0: 6fd5 16be 985e 14bf fe8e 073e 639e ad3d
000003d0: 00b6 93be e277 d1be 52a0 fa3e 6137 91be
000003e0: 1a67 13bd d0f0 cabe 32ff e5bc e8cd f8bd
000003f0: b98d 523e 386d cdbd 4ac6 9b3c 64dc 50bd

network_body._body_endoder.seq_layers.0.bias f4 [128]
-0.04241669 0.10631218 0.037097927 -0.15347299 0.06996818 -0.009068932 -0.045135397 -0.100101806
0.032478187 -0.039280012 0.057115667 -0.14088078 -0.07616691 -0.050086085 -0.1460663 0.024945874
0.021091294 -0.17488487 -0.007252439 -0.16870305 -0.009970654 -0.18092638 -0.042177867 -0.13522096
-0.29653963 -0.07213001 -0.008393173 -0.25768656 0.008017864 -0.24089178 -0.023489332 -0.1656965
0.08988497 -0.29413426 -0.1522889 -0.07831974 -0.049966026 -0.030693276 -0.0032417614 -0.18775988
0.028665591 -0.030025354 0.016313309 0.0061025857 0.026464472 -0.009746753 -0.029354597 0.0117709525
-0.012462816 -0.0049341647 -0.08127291 -0.13470596 -0.018346908 -0.08358967 0.027068611 0.028996877
-0.04111261 -0.04661153 -0.012269559 -0.0645439 0.00788182 0.10014295 -0.04290886 -0.08183983
-0.060802713 -0.13787244 -0.06435344 0.030633215 -0.082368724 -0.12513004 -0.17683434 -0.026989754
-0.018510845 0.059794776 -0.047711685 -0.084096864 -0.17384407 0.009449758 0.025848964 0.0058754073
-0.010872365 -0.20742185 -0.031130606 -0.0031023123 -0.056302786 -0.07640916 -0.005832368 -0.011515182
0.1191017 -0.024214882 -0.22775002 -0.018187847 -0.098353736 -0.0012152565 -0.16368721 -0.034281462
0.028465426 -0.127554 -0.060560815 -0.026769608 -0.5602825 -0.023288328 -0.08996672 -0.015420304
-0.021387083 0.11332305 -0.11288698 -0.015985081 0.038568724 -0.07770141 -0.21126917 0.0047177756
0.031424817 -0.003716 -0.11786322 -0.31479064 0.07505735 0.05597785 0.009650474 -0.15022813
-0.077603266 0.048070353 -0.03351855 -0.06999262 -0.04648521 0.013697582 -0.063126385 0.006202327
00000000: 20bd 2dbd 33ba d93d fff3 173d 0628 1dbe
00000010: 7a4b 8f3d dc95 14bc e5df 38bd 2d02 cdbd
00000020: d907 053d 14e4 20bd 1ef2 693d 0d43 10be
00000030: 66fd 9bbd 1127 4dbd 6792 15be 4a5b cc3c
00000040: a6c7 ac3c 0515 33be dea5 edbb 7ec0 2cbe
00000050: f45b 23bc c444 39be b3c2 2cbd 5d77 0abe
00000060: 0bd4 97be e6b8 93bd 8583 09bc 7eef 83be
00000070: 5c5d 033c 56ac 76be b36c c0bc 58ac 29be
00000080: 9c15 b83d c498 96be 9ff1 1bbe 1a66 a0bd
00000090: 2da9 4cbd 7770 fbbc bb73 54bb 2044 40be
000000a0: 1ad4 ea3c bbf7 f5bc 7da3 853c 33f8 c73b
000000b0: 05cc d83c d8b0 1fbc 0d79 f0bc f4da 403c
000000c0: d730 4cbc c6ae a1bb 6972 a6bd 5cf0 09be
000000d0: 414c 96bc 1031 abbd febe dd3c dc8a ed3c
000000e0: b265 28bd bbeb 3ebd 4306 49bc 982f 84bd
000000f0: c022 013c bf17 cd3d 33c1 2fbd a49b a7bd
00000100: 440c 79bd 6f2e 0dbe bdcb 83bd 82f2 fa3c
00000110: efb0 a8bd 1722 00be 1014 35be 9e19 ddbc
00000120: 0ea4 97bc 5eeb 743d 546d 43bd fa3a acbd
00000130: 2e04 32be 28d3 1a3c 35c1 d33c 7d86 c03b
00000140: 0122 32bc 6566 54be 9d05 ffbc 2a50 4bbb
00000150: c09d 66bd 687c 9cbd 731d bfbb 2daa 3cbc
00000160: 98eb f33d 4a5e c6bc 4d37 69be aefe 94bc
00000170: af6d c9bd 3e49 9fba 9f9d 27be b86a 0cbd
00000180: 5330 e93c 849d 02be 9e0e 78bd f04b dbbc
00000190: ad6e 0fbf 2ac7 bebc 7940 b8bd 71a5 7cbc
000001a0: f733 afbc ea15 e83d 4a31 e7bd 25f3 82bc
000001b0: 3dfa 1d3d eb21 9fbd f256 58be 9297 9a3b
000001c0: 4fb7 003d 2288 73bb 4662 f1bd 3d2c a1be
000001d0: abb7 993d 0849 653d 061d 1e3c 67d5 19be
000001e0: 76ee 9ebd 6be5 443d bf4a 09bd 4a58 8fbd
000001f0: 4767 3ebd d36b 603c 6848 81bd e43c cb3b

network_body._body_endoder.seq_layers.2.weight f4 [128, 128]
0.008673951 -0.022332324 -0.12018837 -0.064359896 0.095033094 0.18017925 0.003771442 -0.13622326
0.4155169 0.03185893 0.048166238 -0.01671653 0.25112635 0.018641062 0.09677195 -0.19530967
-0.19152924 -0.0868785 0.17841946 -0.015009604 -0.38120985 -0.0014885272 -0.086404026 -0.0881263
-0.12615839 -0.1063956 -0.0961734 0.08645109 -0.15156434 -0.05458354 0.22166252 0.22190408
0.31209478 -0.026147963 -0.06839225 0.08447623 -0.020788448 0.017242571 0.037935123 -0.014339284
0.15881799 0.026691074 -0.01902421 -0.14741051 0.16762654 0.3885662 -0.21156017 0.071096964
0.09423328 -0.031369936 -0.2769678 0.029544635 0.043934606 -0.11631644 -0.025397588 0.009190212
0.078002326 0.075806476 -0.00088465033 -0.020802638 0.1375306 -0.3174395 -0.0591689 0.058545165
-0.07037425 -0.053694468 0.08781194 0.076270305 0.095921375 0.036641072 -0.081633605 -0.052581914
-0.07460612 0.34654054 -0.06601809 0.0616014 0.16102783 0.24806245 -0.026483258 0.18099618
0.06942839 -0.05932149 -0.023944596 -0.15874793 0.11085346 0.17405623 -0.3143492 -0.010092484
0.038451474 -0.101935506 0.03322431 0.13728125 0.12841895 -0.0065350123 0.029000921 -0.035776667
0.13262811 0.049284697 -0.13852 0.16787638 -0.116826594 0.016325833 -0.073382296 0.20859657
0.025886705 0.04134648 0.22273839 -0.14014325 -0.023417575 -0.15070416 -0.061534084 -0.06716086
0.07911008 0.0801149 0.019515935 -0.11338793 0.31609505 0.14642191 0.14361405 -0.026500806
-0.048289567 0.29861516 -0.027944904 -0.16129027 -0.050627284 -0.06646422 0.028346742 0.026692206
-0.3316993 0.45175916 -0.13988335 0.08357666 0.108888224 -0.12811211 -0.32168224 -0.11468487
-0.08521274 -0.2482655 -0.25618228 -0.17164654 -0.27426553 -0.3002951 -0.070695795 0.04987262
-0.0673892 -0.17037614 -0.34724292 0.10899734 -0.019616157 0.052089326 0.35791424 -0.16400702
0.17758827 -0.049968403 0.10762116 0.107384615 -0.025962839 0.080273464 -0.13561387 -0.027439345
-0.11146472 0.012497107 -0.044650815 -0.27135625 -0.072199054 -0.15337439 -0.07702646 0.005281184
-0.08663848 -0.017348513 0.13788044 -0.024088448 -0.21139257 -0.007008738 -0.20212421 0.058456454
-0.1441436 0.1441933 -0.113815814 -0.010827978 0.047635213 -0.24744602 -0.29689768 -0.11331321
-0.11418267 -0.24456853 -0.008038331 0.20564204 -0.08938344 0.017862603 -0.323068 0.030962324
-0.14079498 -0.24974053 -0.21004288 -0.006340218 -0.17118776 -0.21335346 0.12211891 -0.13444763
-0.3339446 -0.10262093 -0.08578919 -0.0009536118 0.011640527 -0.23738715 -0.049214046 -0.09352618
-0.17330724 0.08423869 -0.39045137 -0.12883005 -0.14438114 0.17330751 -0.0026856656 -0.24130917
0.15401416 -0.0506094 0.005403307 -0.07365195 -0.184128 -0.17723754 -0.18226326 -0.22283557
-0.14438723 -0.05333164 -0.18956666 0.19530834 0.13413072 -0.06578583 -0.074459545 -0.08690438
-0.15603878 0.041236486 0.026673952 0.05630773 -0.018615734 -0.19159508 -0.19379114 -0.0031614103
-0.1378954 0.105430365 -0.18639143 0.10575514 -0.012460373 -0.048536517 -0.06737055 0.061126072
-0.28922316 -0.1834756 -0.070358925 0.02083059 -0.35623747 -0.038290106 -0.08228365 -0.05716181
00000000: 301d 0e3c 47f2 b6bc 5225 f6bd 1fcf 83bd
00000010: b6a0 c23d e980 383e 4c2a 773b 1c7e 0bbe
00000020: a2be d43e 827e 023d f649 453d 1bf1 88bc
00000030: a293 803e 24b5 983c 5f30 c63d 42ff 47be
00000040: 3e20 44be 5bed b1bd 97b3 363e d8ea 75bc
00000050: f02d c3be af1a c3ba 98f4 b0bd 907b b4bd
00000060: aa2f 01be f0e5 d9bd 8ff6 c4bd 450d b13d
00000070: af33 1bbe fd92 5fbd 80fb 623e d33a 633e
00000080: e3ca 9f3e 4134 d6bc 3c11 8cbd e001 ad3d
00000090: 894c aabc 4b40 8d3c dc61 1b3d 51ef 6abc
000000a0: 2fa1 223e 3da7 da3c a9d8 9bbc c8f2 16be
000000b0: 4ba6 2b3e 26f2 c63e 3ba3 58be 499b 913d
000000c0: 61fd c03d c37d 00bd b9ce 8dbe 9707 f23c
000000d0: c6f4 333d 5037 eebd 9a0e d0bc 8b92 163c
000000e0: afbf 9f3d 6d40 9b3d e1e7 67ba 4b6a aabc
000000f0: d2d4 0c3e 6e87 a2be 175b 72bd 0ecd 6f3d
00000100: 6020 90bd bbee 5bbd bfd6 b33d 9b33 9c3d
00000110: 6d72 c43d f314 163d 852f a7bd 2260 57bd
00000120: 18cb 98bd c36d b13e 7e34 87bd c051 7c3d
00000130: 7be4 243e 1504 7e3e 6bf3 d8bc 1057 393e
00000140: 7930 8e3d 17fb 72bd 7527 c4bc d18e 22be
00000150: 2407 e33d cc3b 323e 61f2 a0be f25a 25bc
00000160: 4b7f 1d3d 90c3 d0bd 3716 083d 7593 0c3e
00000170: 4280 033e a823 d6bb 5793 ed3c 8e8a 12bd
00000180: aacf 073e c0de 493d 30d8 0dbe c9e7 2b3e
00000190: c842 efbd c1bd 853c 7549 96bd 579a 553e
000001a0: 5b10 d43c ed5a 293d 8815 643e b681 0fbe
000001b0: 37d6 bfbc 3152 1abe 2a0b 7cbd a28b 89bd
000001c0: 7704 a23d 4813 a43d e2df 9f3c ee37 e8bd
000001d0: 36d7 a13e a0ef 153e 900f 133e 3818 d9bc
000001e0: 48cb 45bd 16e4 983e b6ec e4bc 4729 25be
000001f0: 8e5e 4fbd 651e 88bd 6d37 e83c 9da9 da3c
00000200: 7ed4 a9be fa4c e73e 953d 0fbe 3d2a ab3d
00000210: ca00 df3d d22f 03be 89b3 a4be e7df eabd
00000220: 0484 aebd 5039 7ebe 532a 83be 1cc4 2fbe
00000230: 886c 8cbe 48c0 99be f5c8 90bd 3b47 4c3d
00000240: 5903 8abd 1577 2ebe d3c9 b1be ff39 df3d
00000250: 10b2 a0bc 9e5b 553d 8940 b73e 75f1 27be
00000260: b3d9 353e abab 4cbd 7c68 dc3d 77ec db3d
00000270: 05b0 d4bc 6a66 a43d 5dde 0abe 7ac8 e0bc
00000280: 9d47 e4bd aac0 4c3c c6e3 36bd 35ef 8abe
00000290: 19dd 93bd 2d0e 1dbe 0cc0 9dbd c80d ad3b
000002a0: 846f b1bd 781e 8ebc 8830 0d3e 2355 c5bc
000002b0: 4b77 58be 8ea9 e5bb a6f9 4ebe 0970 6f3d
000002c0: 619a 13be 69a7 133e 4418 e9bd d567 31bc
000002d0: 241d 433d 7d62 7dbe f902 98be c210 e8bd
000002e0: 9bd8 e9bd 2c70 7abe 34b3 03bc d493 523e
000002f0: aa0e b7bd 9854 923c 2b69 a5be b3a4 fd3c
00000300: 8f2c 10be fbbb 7fbe 7b15 57be 9ac1 cfbb
00000310: d84b 2fbe 5479 5abe 7b19 fa3d a4ac 09be
00000320: c9fa aabe ec2a d2bd 3eb2 afbd cefb 79ba
00000330: e9b7 3e3c 9e15 73be ab94 49bd a78a bfbd
00000340: 7477 31be 5685 ac3d 3ee9 c7be 06ec 03be
00000350: a6d8 13be 8677 313e fe01 30bb c019 77be
00000360: e3b5 1d3e cd4b 4fbd 390e b13b d5d6 96bd
00000370: 0d8c 3cbe c27d 35be 38a3 3abe 022f 64be
00000380: 3fda 13be 4772 5abd c31d 42be e9fe 473e
00000390: 9059 093e b9ba 86bd 3f7e 98bd ecfa b1bd
000003a0: a1c8 1fbe 97e7 283d 5583 da3c efa2 663d
000003b0: 0680 98bc 8031 44be 2f71 46be aa2f 4fbb
000003c0: 7434 0dbe e0eb d73d 65dd 3ebe 2796 d83d
000003d0: 9826 4cbc 3ace 46bd 92f9 89bd 555f 7a3d
000003e0: 0f15 94be 07e1 3bbe 5718 90bd eaa4 aa3c
000003f0: c264 b6be 16d6 1cbd 5584 a8bd 8122 6abd

network_body._body_endoder.seq_layers.2.bias f4 [128]
-0.0012345873 -0.13265286 -0.026458193 0.045668367 -0.03221773 -0.02615235 -0.044449497 0.013971629
-0.029258542 -0.13099867 -0.12112256 -0.11764241 -0.05298243 -0.012577159 -0.0015003704 0.035399802
-0.06748612 0.011947185 -0.14604016 -0.06638645 -0.18039668 -0.10055337 0.057791043 0.044264644
0.012699538 0.068717174 -0.07302845 -0.15855749 -0.112459615 0.020106964 0.01759211 -0.012134203
-0.054965127 -0.14600241 -0.12697014 -0.025109615 -0.0011420295 0.017452667 -0.09514281 -0.062871985
0.0050308704 0.011316709 -0.20305577 -0.010214729 -0.09269743 0.121806934 -0.1477722 -0.0021314996
0.024536071 -0.29005155 -0.044070438 -0.042421084 0.009068967 -0.09001859 0.05353686 0.0014997206
0.020061351 -0.08079092 -0.034800254 -0.021893498 0.003473168 -0.02855289 -0.057141293 0.046789296
-0.01844021 0.053373124 -0.12463377 -0.061263464 -0.16622965 -0.13311428 0.010434489 -0.16922936
-0.032033168 0.047235098 0.041614924 -0.055350497 -0.033227034 -0.08970302 0.025552273 -0.112113476
-0.06819379 -0.0031917146 0.03001031 -0.07739336 0.054765455 -0.1678409 -0.20607974 -0.1729698
-0.10041747 -0.014060873 0.043238413 -0.066554375 -0.04968424 -0.0382405 -0.14395942 0.010885317
0.03344421 -0.1084064 -0.017820999 -0.026608214 -0.0990926 0.038759097 -0.043645624 -0.042453054
-0.13562882 -0.008429075 0.033140432 -0.19082347 -0.032421228 0.07282026 -0.10937372 -0.012897273
0.055084065 0.021052146 -0.039862312 -0.0995746 -0.0730944 -0.15514994 -0.13004787 -0.1258988
-0.062269293 -0.12627211 0.011013572 -0.07138603 -0.07129966 0.0040435847 -0.0027672467 -0.004273412
00000000: e0d1 a1ba 27d6 07be dabe d8bc c10e 3b3d
00000010: bdf6 03bd 743d d6bc ad10 36bd 42e9 643c
00000020: 9caf efbc 8424 06be 1b0f f8bd 81ee f0bd
00000030: 1b04 59bd 6e10 4ebc 14a8 c4ba 62ff 103d
00000040: 2a36 8abd 20be 433c 8d8b 15be 9ef5 87bd
00000050: e8b9 38be edee cdbd 4db6 6c3d d84e 353d
00000060: b911 503c 97bb 8c3d f18f 95bd e55c 22be
00000070: 3a51 e6bd 5cb7 a43c 541d 903c 89ce 46bc
00000080: 1d23 61bd a881 15be 7604 02be aeb2 cdbc
00000090: 27b0 95ba e5f8 8e3c 3cda c2bd 07c3 80bd
000000a0: 00da a43b b869 393c daed 4fbe ae5b 27bc
000000b0: 26d8 bdbd ea75 f93d 9851 17be a1b0 0bbb
000000c0: dfff c83c a381 94be 3483 34bd bbc1 2dbd
000000d0: 0196 143c ab5b b8bd 7749 5b3d 4692 c43a
000000e0: b457 a43c b675 a5bd b68a 0ebd fe59 b3bc
000000f0: 179e 633b c0e7 e9bc fd0c 6abd 22a6 3f3d
00000100: ec0f 97bc c79d 5a3d fd3f ffbd 66ef 7abd
00000110: 1b38 2abe 1c4f 08be 6bf5 2a3c 764a 2dbe
00000120: 3635 03bd 9779 413d 6974 2a3d 34b7 62bd
00000130: 1219 08bd 38b6 b7bd 0053 d13c c09b e5bd
00000140: 30a9 8bbd 162c 51bb 2ed8 f53c 6980 9ebd
00000150: be51 603d 7cde 2bbe 9106 53be ff1e 31be
00000160: ada7 cdbd 935f 66bc c31a 313d a94d 88bd
00000170: b481 4bbd 12a2 1cbd 196a 13be 5458 323c
00000180: ccfc 083d 2d04 debd 58fd 91bc 78f9 d9bc
00000190: 10f1 cabd dcc1 1e3d c1c5 32bd 41e3 2dbd
000001a0: 48e2 0abe 1a1a 0abc 43be 073d 3a67 43be
000001b0: 1fcc 04bd ca22 953d 54ff dfbd 154f 53bc
000001c0: d49f 613d 8d75 ac3c aa46 23bd c5ed cbbd
000001d0: 84b2 95bd a0df 1ebe 452b 05be 9deb 00be
000001e0: 160e 7fbd 7a4d 01be 4572 343c d732 92bd
000001f0: 8e05 92bd 0c80 843b b25a 35bb fa07 8cbb

action_model._discrete_distribution.branches.0.weight f4 [2, 128]
0.058495324 0.100592576 0.16679808 0.102443926 0.06448541 0.18545517 0.07044706 -0.12334004
0.08502085 0.07041779 0.049364362 0.08238615 0.108770706 0.12583633 0.20315166 0.12696353
0.12145989 0.08148493 0.06700063 0.16507433 0.012295892 0.082188286 -0.095076256 -0.16319315
-0.108856216 -0.09068769 0.07159384 0.050943896 0.052411772 -0.045191545 -0.19290854 0.028657993
0.18255983 -0.008721825 0.09186359 -0.033854507 0.14458267 0.11723919 0.07101429 0.15419492
0.12215389 0.091049254 0.009697063 0.17512105 0.087527 -0.20533386 0.021597253 0.08561504
-0.15871558 0.014590975 0.03430142 0.05053729 0.17606385 0.07008248 -0.19455834 -0.059413116
0.1528614 0.20408818 0.21831258 0.12675372 0.2276241 0.14302278 0.077188425 0.0325866
0.17425941 0.17607068 0.11486113 0.15493658 0.08542535 0.07854527 0.040966816 0.021178769
0.0917208 -0.1594581 0.15024264 0.10301513 0.05095163 0.040445216 -0.1053338 0.12383302
0.0699126 0.015547033 0.1783211 -0.012832046 -0.07874565 0.014293343 0.0117720505 0.076025955
0.058650356 0.20125635 0.1354608 0.18061279 0.0061062854 0.103612974 0.12470875 0.16944395
0.12752083 0.07836197 0.082030855 0.15132198 0.09529121 0.10159353 0.16556343 0.19184023
0.09438071 0.103574924 0.09332232 0.053268455 0.10336116 -0.108921856 0.07039189 0.102802366
0.026876898 -0.0737265 0.14443465 0.08320724 0.088675156 0.06583093 0.021122081 0.008270856
0.14899516 0.06494581 0.19431719 0.13842891 0.17991734 0.04843527 0.099818386 0.1770944
-0.07044455 -0.11626426 -0.17981172 -0.10227114 -0.068923995 -0.19928214 -0.046898942 0.1251839
-0.079764135 -0.08903472 -0.019615304 -0.04995615 -0.10243873 -0.12455229 -0.20585284 -0.117219545
-0.12350408 -0.08572803 -0.05732409 -0.17094615 -0.0073204865 -0.062226728 0.11485478 0.15826906
0.106976375 0.096786745 -0.05751077 -0.07984901 -0.058042802 0.05051716 0.16698119 -0.025754511
-0.18705723 -0.016365614 -0.08835674 0.030008903 -0.14998084 -0.12853763 -0.07800021 -0.15381381
-0.1074627 -0.0711057 -0.028604152 -0.163027 -0.10046892 0.20839341 -0.018519899 -0.08832296
0.15346782 -0.016489414 -0.043555096 -0.046233777 -0.18535222 -0.07103414 0.17999431 0.08474352
-0.17188703 -0.1954993 -0.21337274 -0.13833775 -0.21564147 -0.15774295 -0.051472697 -0.041962616
-0.17126925 -0.18480137 -0.10918449 -0.17896762 -0.08497757 -0.072476454 -0.03854907 -0.014586498
-0.081328295 0.16076037 -0.15947446 -0.08236928 -0.0664187 -0.04308732 0.0922688 -0.11986707
-0.07427155 -0.013922572 -0.15886043 0.013927369 0.0755108 -0.010131175 0.00096243504 -0.07637421
-0.07386026 -0.20907022 -0.12334784 -0.18288068 -0.020989949 -0.122619405 -0.10439058 -0.16582063
-0.1199522 -0.058401346 -0.086650304 -0.16054316 -0.113920234 -0.100472435 -0.1449343 -0.1556688
-0.109510206 -0.11170238 -0.08357292 -0.063230686 -0.09376582 0.09426653 -0.05778597 -0.09538018
-0.032131694 0.0689834 -0.14999025 -0.08448728 -0.08271978 -0.056773063 -0.0018023929 -0.0102204
-0.15011223 -0.059951384 -0.18748625 -0.1719937 -0.1775696 -0.035437528 -0.0971943 -0.18156195
00000000: cb98 6f3d 7b03 ce3d 1ecd 2a3e 1fce d13d
00000010: ed10 843d f6e7 3d3e 8c46 903d b499 fcbd
00000020: 691f ae3d 3437 903d 4932 4a3d 12ba a83d
00000030: 2dc3 de3d 3ddb 003e fd06 503e ba02 023e
00000040: f6bf f83d 92e1 a63d a037 893d 3f09 293e
00000050: b674 493c 5552 a83d 57b7 c2bd 1b1c 27be
00000060: 02f0 debd 78ba b9bd cb9f 923d 8caa 503d
00000070: baad 563d c51a 39bd d189 45be 2bc4 ea3c
00000080: f7f0 3a3e fce5 0ebc fa22 bc3d 06ab 0abd
00000090: 7b0d 143e 1a1b f03d f16f 913d 46e5 1d3e
000000a0: d22b fa3d 0878 ba3d 6ee0 1e3c ef52 333e
000000b0: 5b41 b33d 0a43 52be b9ec b03c f056 af3d
000000c0: 5686 22be fc0e 6f3c a57f 0c3d 3000 4f3d
000000d0: 154a 343e 6787 8f3d 4d3a 47be 2b5b 73bd
000000e0: b387 1c3e 7efc 503e 558d 5f3e bacb 013e
000000f0: 4b16 693e 9074 123e f714 9e3d 8779 053d
00000100: 0f71 323e df4b 343e 503c eb3d b2a7 1e3e
00000110: 7cf3 ae3d 58dc a03d d2cc 273d 197f ad3c
00000120: 1dd8 bb3d fc48 23be 35d9 193e 99f9 d23d
00000130: a8b2 503d e2a9 253d 3fb9 d7bd 2b9c fd3d
00000140: 562e 8f3d fcb8 7e3c ce99 363e 803d 52bc
00000150: 6645 a1bd a02e 6a3c 8fdf 403c 7fb3 9b3d
00000160: 5b3b 703d 2516 4e3e 3cb6 0a3e 8ff2 383e
00000170: 3c17 c83b 0a33 d43d 4d67 ff3d b782 2d3e
00000180: d294 023e 3e7c a03d cbff a73d 26f4 1a3e
00000190: 0a28 c33d 4510 d03d 7689 293e c471 443e
000001a0: ac4a c13d 171f d43d c61f bf3d 0630 5a3d
000001b0: 04af d33d 6c12 dfbd a029 903d 0c8a d23d
000001c0: f12c dc3c ebfd 96bd ade6 133e 8f68 aa3d
000001d0: 529b b53d 5ed2 863d 3708 ad3c 7c82 073c
000001e0: 3092 183e 4f02 853d 16fb 463e 4fc0 0d3e
000001f0: 403c 383e 1064 463d 956d cc3d 3c58 353e
00000200: 3b45 90bd f51b eebd 9020 38be 8873 d1bd
00000210: 0628 8dbd 9e10 4cbe 1b19 40bd 3530 003e
00000220: 615b a3bd d657 b6bd 46b0 a0bc d29e 4cbd
00000230: 66cb d1bd 4515 ffbd 16cb 52be cd10 f0bd
00000240: b5ef fcbd 2d92 afbd aacc 6abd 820c 2fbe
00000250: b1e0 efbb 74e1 7ebd fc38 eb3d 4911 223e
00000260: 6e16 db3d 2138 c63d 6a90 6bbd e187 a3bd
00000270: 4abe 6dbd 15eb 4e3d 1efd 2a3e 20fb d2bc
00000280: ee8b 3fbe 2e11 86bc 61f4 b4bd 3bd5 f53c
00000290: 9494 19be 5e9f 03be 93be 9fbd 5e81 1dbe
000002a0: 6715 dcbd de9f 91bd 4153 eabc 8df0 26be
000002b0: a6c2 cdbd 1565 553e 0bb7 97bc abe2 b4bd
000002c0: ab26 1d3e cf14 87bc d466 32bd a15f 3dbd
000002d0: f9cc 3dbe 597a 91bd 6e50 383e 038e ad3d
000002e0: 2703 30be f830 48be 627e 5abe 69a8 0dbe
000002f0: 1ed1 5cbe 5e87 21be 09d5 52bd fee0 2bbd
00000300: 3561 2fbe 923c 3dbe 1e9c dfbd 4a43 37be
00000310: b808 aebd 896e 94bd a1e5 1dbd 35fc 6ebc
00000320: 738f a6bd 5e9e 243e 464d 23be 3ab1 a8bd
00000330: 8706 88bd 547c 30bd 6df7 bc3d de7c f5bd
00000340: af1b 98bd 801b 64bc 4fac 22be 9f2f 643c
00000350: 68a5 9a3d 3afd 25bc ec4b 7c3a 156a 9cbd
00000360: 0c44 97bd 8116 56be cb9d fcbd 1345 3bbe
00000370: 1df3 abbc e21f fbbd baca d5bd e2cc 29be
00000380: 80a9 f5bd 4036 6fbd b775 b1bd 6d65 24be
00000390: 034f e9bd 7ec4 cdbd a869 14be a467 1fbe
000003a0: e346 e0bd 38c4 e4bd 4728 abbd 177f 81bd
000003b0: 4b08 c0bd cf0e c13d fbb0 6cbd af56 c3bd
000003c0: 869c 03bd 2b47 8d3d 0b97 19be ab07 adbd
000003d0: fd68 a9bd df8a 68bd 453e ecba 7773 27bc
000003e0: 05b7 19be 958f 75bd 65fc 3fbe 1e1f 30be
000003f0: ced4 35be f126 11bd ce0d c7bd 60eb 39be

action_model._discrete_distribution.branches.0.bias f4 [2]
-0.06966949 0.069699205
00000000: e1ae 8ebd 75be 8e3d
