results/ManAgent/ManAgent/ManAgent-533543.pt (torch, 505417 bytes, 33 tensors)

network_body._body_endoder.seq_layers.0.weight f4 [128, 27]
000000 e6 8e 98 3e 66 95 1f 3b 4a ec a0 be ae 3a 49 3e
       0.29796523 0.0024350523 -0.31430274 0.19651291
000010 9f 02 78 be 22 a6 04 3b 13 99 65 be 4e 7b 06 3d
       -0.2421975 0.0020240624 -0.22421674 0.032832436
000020 65 df 84 be eb eb b8 3d 98 b2 5d be c1 6b 05 bd
       -0.25951687 0.09029373 -0.2165016 -0.032573465
000030 57 45 58 be 11 33 a4 3e a6 9e 95 3c 12 27 ca 3e
       -0.21120201 0.3207021 0.018264126 0.39482933
000040 60 55 8c be cd a2 29 be e6 29 81 3e a1 ae a4 3d
       -0.27408886 -0.1656601 0.25227278 0.0804112
000050 0b 59 2c be 46 97 14 be 9b a5 95 be ee 69 80 3e
       -0.16830842 -0.14510831 -0.2922791 0.25080818
000060 d1 31 6a be 2b 08 7f 3e d0 34 cc be 26 b3 3c bd
       -0.22870566 0.2490546 -0.39884043 -0.046069287
000070 91 8b b5 be 56 2c fb be 67 9d 82 bd f9 f9 28 3e
       -0.35458043 -0.49057263 -0.06377678 0.16501607
000080 ed 1d d7 bd 36 34 0c 3e 28 95 fc bd 87 c3 28 3e
       -0.10503755 0.13691792 -0.12333137 0.16480838
000090 0a a7 79 be 68 ac 32 3e f1 76 d4 3e a0 b0 b0 be
       -0.24380127 0.1744858 0.41496995 -0.34509754
0000a0 59 ae af bb 74 48 06 bd 6f 4a e3 bd 44 7a 32 3e
       -0.00536136 -0.03278394 -0.110981815 0.17429453
0000b0 d3 eb 3b 3e df 8a 83 be fc 19 5d bc 21 f8 73 3e
       0.18351679 -0.25691888 -0.013494965 0.23825122
0000c0 0c 9c 0c 3c 4a e8 51 3d 7b 36 20 3e 71 b5 e5 be
       0.008582126 0.05124692 0.15645783 -0.4486499
0000d0 f2 e8 90 be 39 68 12 bf 1e d3 68 ba f5 36 c2 3d
       -0.28302723 -0.5719028 -0.00088815566 0.094831385
0000e0 5d 85 da bc 4c e6 94 bd c8 3c 10 3e 8f 63 de bd
       -0.02667492 -0.07270488 0.14085686 -0.10858833
0000f0 03 b7 1d 3b c2 12 06 bf 95 f5 37 bd 90 10 89 be
       0.0024065382 -0.5237237 -0.04491194 -0.2677045
000100 a5 2c 9f bd b2 49 a1 be 34 8f d3 bc 8a e0 ce 3d
       -0.07772187 -0.31501538 -0.02582512 0.10101421
000110 5d 1a 57 3d d7 2f 69 be 65 c5 e7 bd d8 c8 04 be
       0.052515376 -0.22772156 -0.11316947 -0.12967241
000120 8b e7 94 3d 8c c2 92 bc 6e 17 dc be 60 74 a0 be
       0.07270726 -0.017915033 -0.42986625 -0.31338787
000130 25 d7 1a be 29 c3 e7 bd b7 64 dc 3c 86 14 a6 bd
       -0.15121134 -0.11316521 0.026903493 -0.08109383
000140 65 98 96 3e 87 ba 92 be 0f 6a 38 be e6 b9 32 3f
       0.29413143 -0.28657934 -0.18009208 0.6981491
000150 cb d6 b4 3d 26 6c b3 3e ec 85 28 3e b9 80 c1 be
       0.08830031 0.35043448 0.16457337 -0.3779352
000160 36 fd 36 be 06 4f 22 3e d9 70 9f 3e 17 fe 05 be
       -0.1787003 0.15850458 0.31140783 -0.13085209
000170 9e 7c a4 bd 1c 7c d7 be d2 f7 1e 3e 40 5b 88 bd
       -0.08031581 -0.42086875 0.15524223 -0.066580296
000180 91 d6 9f bd f6 3c 1d bc 27 27 ed bd 96 84 06 3d
       -0.07804597 -0.009597054 -0.11579733 0.032841288
000190 38 eb 43 be be 9e 23 be 03 76 5d be a3 66 8b 3e
       -0.19132698 -0.15978524 -0.21627049 0.27226743
0001a0 31 99 9e 3d f9 df f7 3d 17 77 51 be ad ac 5d 3e
       0.07744063 0.12103266 -0.20455585 0.21647902
0001b0 b0 06 b3 3d 2b 47 01 be 40 2d 98 3e 04 8b 8b 3e
       0.0874151 -0.12624805 0.29722023 0.27254498
0001c0 2d 3a 6b bc 16 d6 81 be db a6 12 be 64 7d 16 bf
       -0.014357132 -0.25358647 -0.14321463 -0.5878508
0001d0 71 ec a7 be 95 ce cd be 6b 3f 14 3e 48 b0 ab 3d
       -0.32797578 -0.40196672 0.14477317 0.08383232
0001e0 6a 97 3f 3e 4a 0d d1 bd a0 c1 e3 3d aa 98 83 be
       0.18710104 -0.10207613 0.111209154 -0.2570241
0001f0 14 a4 ac 3e 13 bf 15 be 6c 55 1a 3e 74 c7 88 3d
       0.33718932 -0.1462367 0.15071648 0.06678668
000200 4b 16 d8 bb 5a c5 50 be 73 00 ec 3d ab 73 f1 3e
       -0.0065944544 -0.20387784 0.11523523 0.4715856
000210 18 96 07 be f0 19 32 3a 58 b0 a4 3e 53 51 0b bf
       -0.1324085 0.0006794026 0.3216579 -0.54420966
000220 7a 8a 16 be 5f b9 1a be 38 58 96 bd 6d a0 0e bf
       -0.14701262 -0.15109776 -0.07341045 -0.5571354
000230 0a aa 01 bf 0b 6b aa 3e 9d cb 03 bf 81 d4 93 be
       -0.50650084 0.33284792 -0.51482564 -0.28873065
000240 64 f1 12 bd 15 72 5f be fa f6 32 bf f5 b4 2f be
       -0.03587474 -0.21820863 -0.69908106 -0.17158873
000250 1c 55 0a bd 25 9c e3 bd 39 65 b9 be f9 a0 dc be
       -0.033772573 -0.111137666 -0.3621004 -0.43091562
000260 ab 1e e3 bd fd fa b0 3c 69 a3 5e bf 41 95 ee bd
       -0.11089834 0.021604056 -0.86968094 -0.11649562
000270 3c 0c 1d 3f 7d d2 d8 bd c4 6b 4e bb 36 51 ce bd
       0.61346793 -0.105870225 -0.0031497339 -0.100740835
000280 9e 77 83 3d f7 3f 08 3e 90 c4 51 bd 6c 26 be be
       0.064192995 0.1330565 -0.051212847 -0.3713869
000290 f7 4a 0b bf 9a 55 a2 3e 0c 0c 8f be f8 ce b9 bd
       -0.5441126 0.31705934 -0.2793888 -0.09072679
0002a0 34 c9 d6 be a7 1a 8f 3d 0b 07 03 3d 57 3f 06 be
       -0.4195038 0.069875054 0.03198914 -0.131101
0002b0 42 a8 15 3d d6 45 04 be 20 15 01 3e 91 5d 09 3e
       0.036537416 -0.12917265 0.12605715 0.13414599
0002c0 d3 8e f3 bd 84 64 1d be f3 5d 91 bc 7c d0 58 3d
       -0.11892476 -0.15370375 -0.017744994 0.0529332
0002d0 de ad b4 bd f8 66 8a 3e d7 7a 61 bd ed f8 58 be
       -0.08822225 0.27031684 -0.05504879 -0.21188708
0002e0 96 df 33 be 7f 88 9d be ae aa 93 be d2 55 3b 3e
       -0.1756576 -0.307682 -0.28841156 0.18294457
0002f0 7d 34 e4 be 8f a2 5f be 4e ec 2d be e6 99 1a be
       -0.44571295 -0.21839355 -0.16984674 -0.1509777
000300 91 0f 91 3e c1 b5 1c 3d bc 97 fa bb 58 f2 5c ba
       0.2833219 0.03825927 -0.0076474827 -0.0008428446
000310 03 ef 9a 3c bd 27 dd bd 4f bb a2 be e9 82 37 be
       0.018912798 -0.10798595 -0.3178353 -0.17921032
000320 7b 4c 83 bd b1 b6 7d bc 27 a4 d8 bd 8f 0a d8 bd
       -0.06411072 -0.015485452 -0.105781846 -0.10548889
000330 39 c1 00 3e 51 ed b3 bc ab 40 9c bd 8c 16 83 be
       0.12573709 -0.021963747 -0.07629522 -0.2560314
000340 ac 10 b8 bd 02 07 72 3d d1 48 21 3e b8 0b db bd
       -0.08987555 0.059088714 0.15750434 -0.106955945
000350 a5 20 1a 3d 6f 6d 4c 3e d5 b8 83 be 76 52 69 bd
       0.03762879 0.1996362 -0.25726953 -0.056963407
000360 6a bd 96 be 69 3f 9f 3d 6c 95 e0 3e d2 92 b4 be
       -0.29441386 0.077757664 0.43864 -0.35268265
000370 d3 6c 8e be 27 8c 26 be ad 16 c7 bd 6d a9 86 3d
       -0.278174 -0.16264401 -0.09721122 0.06575284
000380 27 7d 12 be 26 99 6b 3e 4e 4b a7 3d 69 70 bc 3e
       -0.14305554 0.2300764 0.0816866 0.36804512
000390 86 c5 dd 3c 0d 1e e3 bd 3d 59 2c 3e 9b 08 34 be
       0.027071726 -0.11089716 0.16830917 -0.17581408
0003a0 c8 bc 56 3e d6 39 10 3e 17 87 ed 3d 2b 2d 0c 3e
       0.20970452 0.14084563 0.11598032 0.13689105
0003b0 b1 41 ad 3c e0 5b 59 bc c5 2f d0 3d 24 2c 80 3e
       0.021149488 -0.013266534 0.10165361 0.25033677
0003c0 24 b6 34 be 75 4a cd bd 06 a3 2b be af 2a 71 bd
       -0.17647606 -0.10023967 -0.16761407 -0.058878597
0003d0 a8 df d6 be f8 e0 31 bf 02 a5 c7 3d d9 c0 87 3c
       -0.4196751 -0.694839 0.097482696 0.01657145
0003e0 ea 4b 7e 3d 98 b5 a8 3d e9 e8 3b 3d 93 92 2d be
       0.062084116 0.08237761 0.045876417 -0.16950445
0003f0 e7 f6 e2 bd 84 8a 8c be 12 e4 da 3d 1e f6 15 3e
       -0.11082249 -0.2744943 0.10688032 0.14644668

network_body._body_endoder.seq_layers.0.bias f4 [128]
000000 88 f6 0b bc a9 78 ab 3c 7a ac 9f bd 03 d5 85 3c
       -0.008542664 0.020931559 -0.07796569 0.016336923
000010 d3 a1 48 bc 4f 1c 92 be e3 ca 5c bd a5 06 e5 bc
       -0.012245613 -0.28537223 -0.053904425 -0.02795727
000020 d8 80 84 bc 93 69 ef bc 11 b4 b1 3b 02 67 ad bd
       -0.016174719 -0.029225146 0.005423077 -0.08466913
000030 10 52 71 bd aa 12 c0 bd b2 89 90 3d be eb d4 bd
       -0.05891615 -0.0937856 0.07057513 -0.10396527
000040 d6 a7 34 3d bb 8f ef bb f5 d9 05 bd 25 9c 27 bd
       0.044105373 -0.007310835 -0.032678563 -0.040920395
000050 b2 5f 5e bd e7 67 e3 bc 53 3e f0 bd ca ce ad bc
       -0.05429048 -0.027759505 -0.117306374 -0.021216769
000060 37 7f 80 38 50 6a 97 bd 6b 56 94 3d ec 20 f6 ba
       6.127211e-05 -0.073933244 0.072430454 -0.0018778122
000070 52 4f 1e 3c df 3d be bd 86 aa c3 3c 49 91 ab bc
       0.009662466 -0.09289145 0.023885023 -0.0209433
000080 8e cf b3 bc f9 4f 21 bc 2f 6f 6f 3d 33 ab 41 3d
       -0.021949556 -0.009845727 0.058455642 0.04728241
000090 09 65 4d bd ac 2d cb 3b da 9e b3 3c d9 76 d0 bd
       -0.050145183 0.006200513 0.021926332 -0.101789184
0000a0 e5 4a 4f 3d 26 8e 38 be 64 7a 19 bd 3f f6 f4 3d
       0.050608534 -0.18022975 -0.037470236 0.1196103
0000b0 72 3d b1 bb 42 13 0b 3d c8 17 4d bd 16 bb 73 3c
       -0.005408936 0.033953913 -0.050071508 0.014876148
0000c0 22 29 9e 3d 85 4d 3a bd 93 16 6a 3d 17 f5 bf bd
       0.07722689 -0.045484085 0.057150435 -0.09372919
0000d0 f8 f7 3b 3d ad 34 08 3c 94 40 39 3c 33 85 20 bc
       0.04589078 0.00831334 0.0113069005 -0.009797382
0000e0 0a aa e9 bc 61 ac 6c 3d 27 a8 b7 be ac 9f c0 3c
       -0.028523464 0.05778158 -0.35870478 0.023513637
0000f0 2e 05 cf bd ec b3 8b 3d 49 d5 e1 bb 30 2e 6b bc
       -0.1010841 0.06821427 -0.0068918807 -0.014354274
000100 5d da ee bd 5c 2b 59 3a 73 f2 60 bb 81 71 bb 3c
       -0.11662743 0.0008284354 -0.0034324198 0.022881271
000110 f5 37 a4 bd c1 e2 8d 3c f8 17 13 bc 8d 32 11 3c
       -0.080184855 0.017320039 -0.008977883 0.00886215
000120 ab b1 c7 3c 4d 92 17 3d 3d 67 5a be 37 06 8b 3d
       0.02437671 0.037004758 -0.21328445 0.06788295
000130 4d a9 b5 bd 29 3f 60 3d ff 7a b1 bc a2 5a 23 bd
       -0.08870182 0.054747734 -0.021665094 -0.039881356
000140 13 aa 12 3d 09 e3 af 3c 1a 37 1c bc ec a8 0d bd
       0.035806727 0.021470563 -0.009534622 -0.034584925
000150 87 df 91 be de b3 52 bd fa 12 36 bb ce 8f e5 bc
       -0.2849085 -0.051441066 -0.0027782307 -0.028022673
000160 2e 99 de 3d 61 7b 87 bc d7 90 6d 3b 14 07 45 bc
       0.108690605 -0.016538324 0.0036249661 -0.012025613
000170 57 3e 86 bc 62 c0 b2 3b 93 aa d9 3c 98 12 2b bd
       -0.016387148 0.0054550627 0.026570594 -0.04176578
000180 d9 5b 2c 3d 8f 11 77 3d d3 c2 d1 be 85 be 66 bc
       0.04207978 0.06031948 -0.40968952 -0.014083509
000190 33 92 ad bd 1e 80 48 3d 00 95 9c bd 8e c8 bc 3d
       -0.08475151 0.048950307 -0.07645607 0.0921794
0001a0 2c 3b f3 3b 03 bf 19 be bd b5 35 bb 05 6a 36 bd
       0.0074228253 -0.15014271 -0.0027726733 -0.0445347
0001b0 ca 34 29 bd 3a 69 69 bd cc 9d 9e bd ea 1d 72 3d
       -0.04131011 -0.056985117 -0.07744941 0.05911056
0001c0 8d 2a 5c bd 77 18 42 ba 0b 87 b4 bc 7e 30 46 bc
       -0.053751517 -0.0007404158 -0.02203705 -0.012096522
0001d0 4c 61 3a 3d fe b7 87 bd cc 46 af bc 0f af 3e bd
       0.045502946 -0.066268906 -0.021396063 -0.046553668
0001e0 3e 08 05 3d af 43 dc 3b 16 51 6c 3c b7 d3 11 3c
       0.032478563 0.0067219357 0.014423629 0.008900574
0001f0 93 93 3a 3c 4d ea 1a 3d ce d1 af bc 8b c3 96 bd
       0.0113877235 0.037821103 -0.021462347 -0.073615156

network_body._body_endoder.seq_layers.2.weight f4 [128, 128]
000000 da 3b 07 be 38 17 16 be c7 34 9d bc 12 f6 29 be
       -0.13206425 -0.14657295 -0.019190205 -0.16597775
000010 5c 55 00 be 85 00 2c 3e f0 e8 10 be 63 90 9b 3d
       -0.12532562 0.16797073 -0.14151359 0.07595899
000020 41 45 17 be 7b 9c 08 3e ff 04 04 be c7 51 83 3e
       -0.14772512 0.13340943 -0.12892531 0.2564833
000030 4f 0b 5b 3e 2b 1b 5f bd cc c1 bd bd 27 1a 15 3e
       0.21391033 -0.05446927 -0.092654794 0.14560758
000040 92 9b ac bd a9 ea f1 bd 38 b9 24 be 34 78 1a be
       -0.0842811 -0.11812336 -0.1608628 -0.15084916
000050 e2 7b c4 3b 65 df 0c 3e c2 8c 0b 3e 11 f8 12 3d
       0.0059962133 0.13757093 0.13627914 0.035881106
000060 52 d5 5b bd 70 20 b3 bd a7 8d 77 bb 9a be 62 be
       -0.053670235 -0.08746421 -0.003777364 -0.22143021
000070 04 9a 9c 3c 91 b6 4f be 6d 3b c0 3d 9c ba d2 3d
       0.01911641 -0.20284487 0.093863346 0.10289499
000080 ca fe 2f bd 9b fe a5 bd 2d 2b 9a 3d 93 26 8a be
       -0.042967595 -0.08105203 0.075277664 -0.26982555
000090 14 55 60 be e9 d9 58 3d c6 27 45 be 76 0e ce bd
       -0.21907455 0.05294219 -0.19253454 -0.10061352
0000a0 46 94 3f 3e 76 a2 13 3e ce 10 08 3e ef 5d 91 be
       0.18708906 0.14417443 0.1328766 -0.28391978
0000b0 b6 50 b4 bc ba 83 93 3a a2 7b 25 3d 07 d2 39 bc
       -0.022011142 0.0011254468 0.04040111 -0.011341578
0000c0 3e 07 32 3e ca 4d 40 be 66 c9 18 3d 0e a8 9f bc
       0.17385575 -0.18779674 0.037301444 -0.019489314
0000d0 1a 70 32 be 32 9f 7d bc 64 b3 59 3d 95 96 69 bc
       -0.17425576 -0.01547985 0.053149596 -0.014257093
0000e0 11 b4 a9 3d c9 47 b3 3b 27 e4 14 3d 66 ef 4a 3e
       0.08286298 0.005471204 0.036350396 0.19817886
0000f0 2b 3f 0d be 69 34 35 bd 03 11 51 be 82 44 0d 3e
       -0.13793628 -0.044239435 -0.20416646 0.13795665
000100 4b 54 f9 3b ad 38 9d 3d 50 78 1f be 96 a3 fe bd
       0.0076089255 0.07676826 -0.1557324 -0.12433545
000110 32 40 6c 3d 23 b3 f6 bd 98 08 0f be a8 dc e7 3c
       0.05767841 -0.12045886 -0.13968122 0.02830346
000120 b5 98 ed 3d 4b 00 21 be e5 b2 a4 3d c2 6c e8 bd
       0.11601392 -0.15722768 0.08041934 -0.11348869
000130 85 4c a2 3d 2b ef 55 3d 3d 08 60 bd f0 e0 1e bd
       0.07924751 0.05223004 -0.054695357 -0.038788736
000140 75 78 1a 3d dd 6c 44 bd 76 1e a8 3e 2c c6 c0 bd
       0.037712533 -0.047955383 0.3283574 -0.09412798
000150 4e 23 ac 3d 59 11 ea 3d da 95 85 bd 85 93 9f 3d
       0.08405171 0.1142909 -0.065227225 0.07791809
000160 23 f0 b4 3d 58 b8 99 bd eb 35 1d bd 1c c7 19 3e
       0.08834865 -0.07505864 -0.0383815 0.1501736
000170 2e c5 72 be e1 81 79 be 79 5d 3f bd 47 c0 c2 bd
       -0.2370803 -0.24365951 -0.04672 -0.0950933
000180 c6 ab 18 3e 2e ca 1a 3d 8c a0 44 3d 95 69 90 3e
       0.14909276 0.03779047 0.048004672 0.28205553
000190 b0 2a 82 3e b5 95 10 3e 38 36 62 bd ce b2 8f bc
       0.25423193 0.14119609 -0.05522749 -0.017541315
0001a0 56 d3 bf bc ca 4f ab ba e2 db 14 be bd 1f 01 be
       -0.023416203 -0.0013070044 -0.14537004 -0.12609763
0001b0 f7 81 ba 3d db 15 23 bd 9f f1 22 bd 2a 75 65 3c
       0.0910682 -0.039815765 -0.03978121 0.014004985
0001c0 f0 58 af bc d3 61 cf bd 25 85 82 3d 33 16 a4 be
       -0.021404713 -0.1012608 0.063730516 -0.32048187
0001d0 97 a2 50 3e 5c 64 e2 bd 67 5a 6a bd 17 05 36 3e
       0.20374523 -0.11054298 -0.05721512 0.17775379
0001e0 8a 22 0e 3e ed 21 a1 bb 0c ea 9e bd 25 14 7d be
       0.13880363 -0.0049173743 -0.07759485 -0.24714716
0001f0 71 98 db bd 47 7b ae bc 0b e6 d8 bd b8 2b a3 be
       -0.10722435 -0.021299018 -0.10590752 -0.31869292
000200 ad 3b 88 be ee 1e e5 bc 95 b9 8e bc ea bc 15 3e
       -0.2660803 -0.02796885 -0.017422477 0.14622846
000210 90 01 fa 3d 4c 0d fe bb 6d ef 05 bd 80 1a 43 bc
       0.12207329 -0.00775305 -0.032699037 -0.011908174
000220 b4 a5 37 3e 2e 0b b5 be 33 41 0f bd ee 94 42 3c
       0.17934304 -0.35360092 -0.03497429 0.011876328
000230 27 c7 48 3d 60 d1 63 3c 8e a5 e6 bd f7 85 b6 3c
       0.04901805 0.013904899 -0.11262046 0.022280676
000240 fc da 4b 3e d1 ee 0d bd 0a 6b c9 3d 91 15 78 3d
       0.19907755 -0.03465158 0.09834869 0.060567442
000250 9f b4 f0 bd db ec 07 be 37 89 ae bb 45 ff 16 be
       -0.11753201 -0.13273947 -0.005326416 -0.14745815
000260 e8 fa 27 3d ee 05 03 be b6 1c 9a 3e 0d be 2a 3e
       0.041010767 -0.12795231 0.3010003 0.16674061
000270 bd 62 c8 bd 9e 78 ad 3d 58 52 3a be 5d d5 33 bd
       -0.09784458 0.084702715 -0.18195474 -0.04390465
000280 e1 d1 67 bd 6a ca 1f bd 2d 0c c4 bc a7 d5 ab 3d
       -0.05659664 -0.039011396 -0.023931587 0.0839036
000290 cb ab ad 3d ec a1 3b be f7 c1 41 bd e6 c9 29 be
       0.084800325 -0.18323487 -0.04730412 -0.16580924
0002a0 36 3a 35 bd 7e fb 5b be 61 61 8a 3d a3 9b 6e 3e
       -0.044244967 -0.21482655 0.06756855 0.23301558
0002b0 7b 2c c1 3c 6c 4a 6d 3e a4 d0 64 3c f5 fe c9 bd
       0.02358078 0.23172921 0.013965759 -0.09863082
0002c0 69 00 b6 bd d5 58 25 bd 1c 97 4b 3e 8e 12 fa bd
       -0.08886797 -0.04036792 0.19881862 -0.1221057
0002d0 fd 12 01 3e a5 3e 56 3d 12 7c 83 3e ef c1 8b bd
       0.126049 0.052305836 0.25680596 -0.06824099
0002e0 e5 70 7f be 52 8b 39 bd 3d c0 b3 bd 25 84 8b be
       -0.2494541 -0.04529888 -0.08776901 -0.27249256
0002f0 64 ea f7 bd 20 40 ff bd bd 4d 1b 3e 85 2f e6 bd
       -0.12105253 -0.12463403 0.15166374 -0.112395324
000300 8a bd 0d bd e1 58 8c bd a5 e0 14 3e da b9 40 be
       -0.034604587 -0.0685289 0.1453882 -0.18820897
000310 5b 49 ab bb 23 f5 36 3e cf 28 13 3e b2 f6 d0 bd
       -0.0052272505 0.1786695 0.14371036 -0.102033034
000320 a6 b6 37 bd 63 c3 ac 3e da f5 0d 3e b2 55 c8 3e
       -0.04485192 0.33742818 0.13863316 0.3912788
000330 fa fc 15 be 59 d6 45 be c6 0e 0b bd 33 bf c8 be
       -0.14647284 -0.19320048 -0.033949636 -0.39208373
000340 e8 9c 98 be ce 2b 0e 3e cf 94 c0 be a2 08 f4 bd
       -0.2980721 0.13883898 -0.37613532 -0.11915709
000350 b7 fa 85 bd 28 fb d6 3d bb 30 1e 3c 32 b1 6a be
       -0.06541961 0.10497123 0.009655173 -0.22919157
000360 17 f7 cd bb 9c 80 cf 3d fd 97 45 3c 73 d2 b6 bc
       -0.006285559 0.10131952 0.012060163 -0.022317147
000370 e7 3c f1 bd 33 fc 40 bd 78 14 b5 be b5 21 a9 3b
       -0.11779194 -0.047115516 -0.3536718 0.005161489
000380 f3 9a ae bd 3b f9 3f be 4e 1f 8f bd ea 45 be be
       -0.08525648 -0.18747418 -0.06988393 -0.37162715
000390 91 9e b9 bd b5 97 e3 3d d9 e6 d9 3b a5 45 da 3e
       -0.09063447 0.1111292 0.0066498336 0.4263126
0003a0 9b 42 21 3d 44 f5 3e bd 05 38 d9 3c 5c 64 09 be
       0.03937016 -0.046620622 0.02651597 -0.1341719
0003b0 8b da 14 be 31 90 1b 3e b2 66 18 3d b7 38 34 3e
       -0.14536493 0.15191723 0.037207313 0.1759976
0003c0 3d b2 21 3e ca 03 1e 3e e8 40 38 be 97 8e 9e 3d
       0.15790649 0.15431133 -0.1799351 0.077420406
0003d0 5c f0 6d bd 9d 8e e9 3c aa bc 03 bd 16 15 4d bd
       -0.058090553 0.028510386 -0.032162346 -0.050068937
0003e0 e5 b6 53 be f6 91 08 ba 8b ff 88 bd 25 81 b5 bd
       -0.20675237 -0.0005209738 -0.06689366 -0.08862523
0003f0 64 c3 4a 3e 22 ec d0 3c 2c b5 43 be b4 e8 b7 3c
       0.19801098 0.025503222 -0.1911208 0.022449829

network_body._body_endoder.seq_layers.2.bias f4 [128]
000000 59 62 cc bd 28 be 99 3c 27 bb 35 bc 4d b9 94 bc
       -0.09979696 0.018767431 -0.011091984 -0.018154765
000010 c5 9a c9 3c bd 56 e8 bc 73 22 0f 3d 43 d0 10 3d
       0.024609933 -0.028361673 0.034944963 0.035354864
000020 8f 20 8a bb 3c 13 e5 3c 93 28 c1 3c 7d ee 3a bb
       -0.004215307 0.027963273 0.023578918 -0.0028523498
000030 eb ef 81 bb b1 ad bd 3c 12 55 77 bc 6d b9 30 bd
       -0.003965368 0.023154112 -0.015095966 -0.043145586
000040 3d c0 01 3c 8d 5c 91 bd 0a ab b4 3c 37 72 2c bd
       0.007919368 -0.07097731 0.022054214 -0.04210111
000050 74 0f f7 3a 97 6f a5 3c 4a c9 b6 bd c0 8e 9a bd
       0.001884921 0.020194812 -0.089251116 -0.07546759
000060 88 ef e4 bc aa 07 ab bd 78 99 39 bc 36 d3 85 3c
       -0.027946249 -0.08351071 -0.011328094 0.016336065
000070 8f 00 8b 3a b1 92 4c bc 96 78 69 bd bd fb 55 3c
       0.0010605025 -0.012486146 -0.056999765 0.013060507
000080 39 07 b3 3c fa b7 4d 3d 36 af db bd 6b a9 ec 3c
       0.02185403 0.05022428 -0.10726778 0.028889379
000090 84 56 4b bd a1 1c 06 bc e9 ed 3d bb 01 c1 db bb
       -0.049643055 -0.008185537 -0.0028980917 -0.0067063575
0000a0 9d dc 15 3d ff bf 3c bd b1 09 12 3d ef d0 23 3d
       0.036587346 -0.04608154 0.035653774 0.039994176
0000b0 57 7a f8 bd 01 03 a7 bc b6 9e 15 3c 6c 96 8d bd
       -0.121327095 -0.020387175 0.009132078 -0.06913456
0000c0 b6 18 9a bd 52 14 3b bd bf 4c 3f bd 46 00 14 3d
       -0.075242445 -0.045673676 -0.04670405 0.036133073
0000d0 40 96 0d 3d e7 1a 9b bb 7e 9a 2c 3b 90 a3 0b be
       0.034567118 -0.0047334316 0.0026337202 -0.13636613
0000e0 13 c6 50 3d 11 21 ab 3c e8 b0 9f bd 7a 20 1b bc
       0.05097015 0.02088979 -0.07797414 -0.009468192
0000f0 45 da 9c 3c 8c 80 f2 bb d0 ef bf 3c a6 c1 a7 3b
       0.019147048 -0.007400578 0.023429781 0.0051195202
000100 e2 a7 a3 3c 83 f3 5e 3c fa 1d da bc 05 75 93 3c
       0.019977514 0.013607862 -0.026625622 0.018000135
000110 7a 27 19 3d 7d 7c a8 bd ab ba 7a bd ba 0e 2c bc
       0.037391163 -0.08226869 -0.061213177 -0.010501558
000120 c0 0e ab bd 84 78 9b bc e7 57 17 bd 54 c4 7d bd
       -0.08352423 -0.018978365 -0.036949065 -0.06195481
000130 65 2d f5 bc f8 f5 c4 bc ac c5 97 3b 16 f4 be bd
       -0.029928872 -0.024043068 0.0046317186 -0.093238994
000140 bc f6 9f bc f1 a4 ad bd 3f b1 da 3c 6d e7 00 bd
       -0.019526832 -0.08478726 0.026695846 -0.031470705
000150 25 80 a2 bd 3e 04 57 bd f0 bb 8b 3d d8 df 46 3d
       -0.07934598 -0.05249428 0.068229556 0.048553318
000160 3e 04 db bd 65 c5 df bc ce da 2d 3c cd 1e 5a 3d
       -0.106941685 -0.027315805 0.010611249 0.05325203
000170 f1 c6 c1 bc 23 fa 32 bd 80 89 9b bd 8b 5a ab bc
       -0.023654433 -0.04369558 -0.075945854 -0.020917198
000180 64 ca ab bb c6 e5 cf 3c 08 07 5a bb e9 bd 8c bb
       -0.0052426327 0.02537812 -0.003326835 -0.0042951
000190 2b 08 1d bd 4a 2a ef bd 99 32 73 bd e0 c6 bb 3b
       -0.038337868 -0.11677988 -0.059374426 0.005730495
0001a0 c3 dc 5b 3d dc 25 1b bd b7 7d 85 bc a5 c5 39 3b
       0.05367733 -0.037877902 -0.016295297 0.0028346565
0001b0 9a 8f d5 bc d7 85 5c bc 82 34 6f 3c bf 4b ee 3c
       -0.026069451 -0.013459644 0.014599921 0.029088853
0001c0 d0 16 2d 3d 3f 47 96 bb fb 69 62 3c 1c 3d 4a bc
       0.042258084 -0.00458613 0.013819213 -0.012343671
0001d0 ab 21 2a 3c 41 8d 2d be 49 f7 be 3c b4 e4 af ba
       0.010384004 -0.16948415 0.023311274 -0.0013419599
0001e0 3b 62 21 be 62 8d 1b 3d bb e2 b5 bc c3 9e a5 bc
       -0.15760128 0.03797663 -0.02220284 -0.020217305
0001f0 7a a2 cb bb 9d 11 13 bd 06 ed 1d 3d 47 29 ef bc
       -0.006214437 -0.03590547 0.03855612 -0.029194487

action_model._discrete_distribution.branches.0.weight f4 [2, 128]
000000 85 92 d0 3a 4e 94 29 be 0c af 1b bc 34 ce aa 3d
       0.0015912807 -0.1656048 -0.009502184 0.083401114
000010 29 b6 25 be ee a4 11 3d aa 64 29 be bc 2c 2c be
       -0.1618277 0.03555768 -0.16542307 -0.1681394
000020 64 de 01 3e 85 af 4b be 1b 1e 14 3e e5 4c de bd
       0.12682492 -0.19891174 0.1446461 -0.1085451
000030 b5 d4 dd 3d 34 da e8 3d 71 19 32 bd 69 04 ed 3b
       0.10831586 0.11369744 -0.043481294 0.0072331917
000040 bd 54 f2 3d 2f 57 46 3d 46 e6 2b be f9 8d a0 3c
       0.11832569 0.04842299 -0.16787061 0.019598948
000050 fc 1a 01 3e d3 95 38 be 3a fa 30 3d 26 dd e1 bb
       0.1260795 -0.18025903 0.043207385 -0.006892818
000060 94 10 96 3d 7a 9b 64 3d 8b 0b f4 3d 57 5f fd 3d
       0.07327381 0.055812337 0.11916264 0.123717
000070 a3 27 2f bc 79 f7 f5 bc 49 5b 42 bc 8d 09 1b 3e
       -0.0106906025 -0.03002523 -0.011862584 0.15140362
000080 45 a2 77 bd 54 64 60 be a9 20 2b 3d ef 62 1d be
       -0.060457487 -0.21913272 0.041779194 -0.15369771
000090 76 fa 64 3d e6 75 ca 3d c4 67 e5 3d 15 ac 10 bd
       0.05590292 0.098857686 0.11201432 -0.03532036
0000a0 d0 d3 30 be 0c 59 7f 3d 46 73 ee bd f0 d0 33 be
       -0.172683 0.06234078 -0.116430804 -0.17560172
0000b0 79 90 f3 3c d7 a9 fb bc a9 3f 39 be 25 0b a8 bc
       0.029731976 -0.030720634 -0.1809069 -0.020513127
0000c0 e0 b2 20 bb 1f ca f6 3c 3f 38 97 3b 95 ff 07 be
       -0.002452068 0.030125676 0.0046148594 -0.1328109
0000d0 cd c7 1e be 2c 40 11 3e 37 0b 0a 3e 79 38 46 3d
       -0.15505905 0.14184636 0.1348084 0.0483937
0000e0 5a e4 15 be 29 bc 01 be a0 33 19 3d c4 65 01 3e
       -0.1463789 -0.12669434 0.03740275 0.12636477
0000f0 fa 4c 1b be 99 a3 2c 3d 47 f3 a5 bd 3e f5 3f be
       -0.15166083 0.042148206 -0.08103042 -0.18745896
000100 6f 95 f5 bd 0a 7c 3a be f3 e2 4b bd a2 ea 4f be
       -0.11991393 -0.1821138 -0.049776983 -0.20304349
000110 4f ef 38 be 2e 9f 36 3d bd 91 0c 3d d0 b2 59 3c
       -0.18060039 0.0445854 0.034318674 0.013287261
000120 ec 27 3f 3d 9e 57 53 3c 07 09 a7 3c e8 87 24 bc
       0.04666893 0.0128993075 0.020390047 -0.010042168
000130 18 2a 1e bd e6 cb 05 bd 68 3b f6 3d e5 d0 45 3d
       -0.038614362 -0.032665156 0.120230496 0.04829492
000140 65 f2 90 bc d0 ca 10 3d 42 12 4a 3e 4c ee cd bc
       -0.017693708 0.035349667 0.19733527 -0.025138043
000150 ee a8 a8 ba 8a b4 b4 3c 71 3f 48 bd 0b fb 42 be
       -0.0012867728 0.022058744 -0.048888627 -0.19041078
000160 d9 35 df 3c 3c 03 9b 3a e7 fd c1 bd a8 2f 50 be
       0.027247356 0.0011826525 -0.09472256 -0.2033068
000170 b5 86 d5 3c 7e 05 ed 3c ee d5 cb 3c 05 1d d2 3d
       0.02606521 0.028933283 0.024882283 0.10259441
000180 41 75 05 be ff 1f 1f be 8b 19 e5 bd 8d ac ab bd
       -0.1303301 -0.1553955 -0.111865126 -0.08382521
000190 6f 25 d8 bc 32 09 20 3d bc 0d 37 bd c4 42 cf 3d
       -0.026385037 0.03907127 -0.044690832 0.101201564
0001a0 0b 54 2f be e0 0c 71 bb 24 db d7 3d 67 fa 1f 3e
       -0.17121904 -0.0036781356 0.10539845 0.15622865
0001b0 51 fc 7f 3d 98 bf d8 bc 08 31 ff 3d 20 1d 08 be
       0.062496487 -0.026458547 0.12460524 -0.1329236
0001c0 23 1b 40 be d8 bd a4 bd 2e 5d 0d 3e f5 e0 c4 3d
       -0.18760352 -0.08044022 0.13805076 0.0961322
0001d0 c7 ae fb bd be a1 2d 3d eb 37 4e 3e a9 a4 0d 3e
       -0.122891955 0.042390577 0.20138519 0.13832344
0001e0 01 98 3e 3d 4c ee f6 3d b3 bc a8 3d 60 5f d3 3d
       0.04653168 0.1205717 0.082391165 0.10320926
0001f0 fc e6 c2 36 91 f1 79 3b 6b 85 38 be 6f 58 89 3d
       5.8085407e-06 0.003813837 -0.18019645 0.067063205
000200 7c bf 1f bc eb ae 21 3e e7 80 70 3c 96 a4 bf bd
       -0.009750243 0.15789382 0.01467917 -0.09357564
000210 18 ee 29 3e e6 e5 18 bd 99 38 2e 3e 02 7d 26 3e
       0.16594732 -0.037328623 0.17013778 0.16258624
000220 fa c2 d9 bd 1e e0 37 3e 36 a9 1a be 3d b6 d9 3d
       -0.10632892 0.17956588 -0.15103611 0.10630462
000230 d0 ec ef bd 82 17 dd bd 42 0a 13 3d 3c 7d 9c bc
       -0.1171509 -0.107954994 0.035898454 -0.019102685
000240 ba 6f ed bd 9d e9 4a bd 11 78 39 3e 21 7e b0 3b
       -0.11593576 -0.049539197 0.18112208 0.0053861295
000250 38 34 08 be ff 1d 35 3e 7b ef e0 bc 2d 59 05 bc
       -0.1330117 0.17687224 -0.027457943 -0.008138937
000260 2a 5b a3 bd 34 d5 43 bd 14 7b fc bd a5 d5 00 be
       -0.079763725 -0.04781075 -0.12328163 -0.12581499
000270 07 93 5c bc 37 44 29 3d 94 eb 17 bb 33 96 10 be
       -0.013462788 0.04132482 -0.0023181187 -0.14119796
000280 fb 9c 89 3d a1 47 5c 3e 0a 48 49 bd 86 af 32 3e
       0.06719395 0.215117 -0.049140967 0.1744977
000290 84 92 6c bd 05 d5 d2 bd 7d 2e dc bd ed 0f 87 3c
       -0.057756916 -0.102945365 -0.107510544 0.016487086
0002a0 c1 7a 30 3e 4c d7 3b bd 8e 64 e3 3d 6a 19 44 3e
       0.17234327 -0.04585962 0.11103164 0.1915032
0002b0 e9 1a 22 bd 2c fc a9 3c 8d 94 37 3e 3d 62 94 3c
       -0.039576445 0.020750128 0.17927761 0.01811325
0002c0 73 ee 87 bc 54 50 29 bd d6 b9 be ba 40 c4 0e 3e
       -0.016593194 -0.041336372 -0.0014551233 0.13942051
0002d0 6a c1 1d 3e 3f 78 19 be 39 4c 00 be c5 06 9e bc
       0.15405813 -0.14987276 -0.12529077 -0.019290337
0002e0 fc 25 1b 3e ba 5a 07 3e 12 94 0a bd 93 43 e0 bd
       0.15151209 0.13218203 -0.033832617 -0.10950389
0002f0 5a 6c 2f 3e 3c 90 15 bd 8d 12 a9 3d cf 23 3c 3e
       0.17131177 -0.036514506 0.082554914 0.18373035
000300 35 a4 01 3e 61 9d 33 3e c9 bf 00 3d 69 c2 40 3e
       0.12660296 0.17540504 0.0314329 0.18824162
000310 c0 4a 44 3e 65 dc 5d bd cb f7 48 bd fe 38 d7 bc
       0.1916914 -0.054165263 -0.04906444 -0.026272293
000320 c0 9c 44 bd 56 5e 1d bc b6 c1 bd ba 64 d3 94 3b
       -0.04800105 -0.009605011 -0.0014477286 0.0045418013
000330 18 cc 0e 3d 0d b8 20 3d 70 d8 ee bd 3c 49 21 bd
       0.034862608 0.039238025 -0.11662376 -0.039376482
000340 1a fd 32 3d 4d f2 1c bd 70 35 38 be b2 39 f1 3c
       0.043698408 -0.038317014 -0.17989135 0.029446457
000350 28 74 e8 3a ce 3a 9a bc 8b 60 5e 3d d5 ae 50 3e
       0.0017734813 -0.018826868 0.05429129 0.20379193
000360 b1 ef 0e bd 08 bb 79 bc ed 63 e7 3d 92 7c 46 3e
       -0.034896556 -0.015242346 0.11298356 0.19383457
000370 3e ba 2f bd 12 61 de bc a8 bd 19 bd 6a 43 fb bd
       -0.042902224 -0.027145896 -0.037534386 -0.122687176
000380 b5 09 fa 3d 5f f2 15 3e 84 d7 d5 3d 18 c8 c5 3d
       0.12208883 0.14643238 0.10441497 0.096573055
000390 9d 0f bb 3c 54 27 0c bd e5 e2 6b 3d 27 67 f0 bd
       0.022834593 -0.034217194 0.05758943 -0.11738425
0003a0 e3 cb 2c 3e 2a a1 e2 bb 3a 9c e3 bd 3c a4 30 be
       0.16874652 -0.006916185 -0.11113782 -0.1725015
0003b0 bf cf 8d bd fd 80 0b 3d 10 5a fd bd ce 84 16 3e
       -0.0692439 0.03405856 -0.12370694 0.14699098
0003c0 d7 dd 43 3e 25 83 b8 3d be ad f6 bd 0a 71 e2 bd
       0.19127594 0.09009389 -0.120448574 -0.11056717
0003d0 87 12 e0 3d 9d be 21 bd bc 90 36 be eb 9a 29 be
       0.10941034 -0.039488424 -0.1782865 -0.16563003
0003e0 eb fe 35 bd 77 cd 03 be fe 1f e3 bd da 87 bb bd
       -0.04443256 -0.12871347 -0.110900864 -0.09156771
0003f0 16 fe f3 3c ef 27 80 bb c6 bd 40 3e 0e cb 8f bd
       0.029784244 -0.0039110105 0.18822393 -0.070211515

action_model._discrete_distribution.branches.0.bias f4 [2]
000000 77 85 69 bd cd 85 69 3d
       -0.057012048 0.057012368

exp_avg f4 [128, 27]
000000 56 d1 bb b4 22 89 d0 b3 ac b1 d6 b4 92 3a 2f 88
       -3.4983776e-07 -9.710699e-08 -3.998988e-07 -5.2730996e-34
000010 9c f3 ef b4 9c f3 ef b4 04 00 00 00 9c f3 ef b4
       -4.4694468e-07 -4.4694468e-07 6e-45 -4.4694468e-07
000020 9c f3 ef b4 04 00 00 80 9c f3 ef b4 9c f3 ef b4
       -4.4694468e-07 -6e-45 -4.4694468e-07 -4.4694468e-07
000030 00 00 00 00 9c f3 ef b4 9c f3 ef b4 04 00 00 80
       0.0 -4.4694468e-07 -4.4694468e-07 -6e-45
000040 9c f3 ef b4 9c f3 ef b4 00 00 00 00 9c f3 ef b4
       -4.4694468e-07 -4.4694468e-07 0.0 -4.4694468e-07
000050 9c f3 ef b4 e5 69 34 36 9d aa 35 b5 00 00 00 00
       -4.4694468e-07 2.688373e-06 -6.767603e-07 0.0
000060 00 00 00 00 42 f5 a4 b6 9c f3 ef b4 cb cc 00 33
       0.0 -4.9161326e-06 -4.4694468e-07 2.998858e-08
000070 eb f4 f3 31 40 f9 0d 33 03 08 1b 04 6a 4b 1f 33
       7.1000748e-09 3.3055812e-08 1.8223841e-36 3.708866e-08
000080 6a 4b 1f 33 04 00 00 80 6a 4b 1f 33 6a 4b 1f 33
       3.708866e-08 -6e-45 3.708866e-08 3.708866e-08
000090 04 00 00 80 6a 4b 1f 33 6a 4b 1f 33 00 00 00 00
       -6e-45 3.708866e-08 3.708866e-08 0.0
0000a0 6a 4b 1f 33 6a 4b 1f 33 04 00 00 80 6a 4b 1f 33
       3.708866e-08 3.708866e-08 -6e-45 3.708866e-08
0000b0 6a 4b 1f 33 00 00 00 00 6a 4b 1f 33 6a 4b 1f 33
       3.708866e-08 0.0 3.708866e-08 3.708866e-08
0000c0 0e 8a 6f b4 63 53 70 33 00 00 00 00 00 00 00 00
       -2.2308834e-07 5.5955194e-08 0.0 0.0
0000d0 37 40 db 34 6a 4b 1f 33 37 93 9a ae 43 d3 a0 b1
       4.083865e-07 3.708866e-08 -7.02926e-11 -4.6806305e-09
0000e0 6a ea a2 b1 04 40 74 06 92 3d a3 b1 92 3d a3 b1
       -4.7414703e-09 4.593833e-35 -4.750924e-09 -4.750924e-09
0000f0 04 00 00 00 92 3d a3 b1 92 3d a3 b1 04 00 00 00
       6e-45 -4.750924e-09 -4.750924e-09 6e-45
000100 92 3d a3 b1 92 3d a3 b1 00 00 00 00 92 3d a3 b1
       -4.750924e-09 -4.750924e-09 0.0 -4.750924e-09
000110 92 3d a3 b1 04 00 00 00 92 3d a3 b1 92 3d a3 b1
       -4.750924e-09 6e-45 -4.750924e-09 -4.750924e-09
000120 00 00 00 00 92 3d a3 b1 92 3d a3 b1 14 79 f5 32
       0.0 -4.750924e-09 -4.750924e-09 2.8576814e-08
000130 f8 ee 08 b2 00 00 00 00 00 00 00 00 98 5f 59 b3
       -7.970577e-09 0.0 0.0 -5.061119e-08
000140 92 3d a3 b1 96 1f 28 34 52 88 83 33 d0 47 53 34
       -4.750924e-09 1.565771e-07 6.1249594e-08 1.9677032e-07
000150 6d 30 0d 09 be e3 69 34 be e3 69 34 04 00 00 00
       1.6995027e-33 2.1782668e-07 2.1782668e-07 6e-45
000160 be e3 69 34 be e3 69 34 04 00 00 00 be e3 69 34
       2.1782668e-07 2.1782668e-07 6e-45 2.1782668e-07
000170 be e3 69 34 00 00 00 00 be e3 69 34 be e3 69 34
       2.1782668e-07 0.0 2.1782668e-07 2.1782668e-07
000180 04 00 00 00 be e3 69 34 be e3 69 34 00 00 00 00
       6e-45 2.1782668e-07 2.1782668e-07 0.0
000190 be e3 69 34 be e3 69 34 16 db af b5 68 ab b2 34
       2.1782668e-07 2.1782668e-07 -1.3102278e-06 3.3279798e-07
0001a0 00 00 00 00 00 00 00 00 64 5e 20 36 be e3 69 34
       0.0 0.0 2.38968e-06 2.1782668e-07
0001b0 38 03 08 35 df 67 12 34 b8 52 1a 35 1a d4 a2 08
       5.066863e-07 1.3635098e-07 5.748984e-07 9.799885e-34
0001c0 31 9d 2c 35 31 9d 2c 35 04 00 00 00 31 9d 2c 35
       6.4303737e-07 6.4303737e-07 6e-45 6.4303737e-07
0001d0 31 9d 2c 35 04 00 00 00 31 9d 2c 35 31 9d 2c 35
       6.4303737e-07 6e-45 6.4303737e-07 6.4303737e-07
0001e0 00 00 00 00 31 9d 2c 35 31 9d 2c 35 04 00 00 00
       0.0 6.4303737e-07 6.4303737e-07 6e-45
0001f0 31 9d 2c 35 31 9d 2c 35 00 00 00 00 31 9d 2c 35
       6.4303737e-07 6.4303737e-07 0.0 6.4303737e-07
000200 31 9d 2c 35 c0 c8 81 b6 d0 96 82 35 00 00 00 00
       6.4303737e-07 -3.86787e-06 9.729647e-07 0.0
000210 00 00 00 00 ff 61 ed 36 31 9d 2c 35 6e ca ec ac
       0.0 7.0745587e-06 6.4303737e-07 -6.7299976e-12
000220 fc 95 1e ad 9e 87 82 ad c8 a0 21 83 9a 7d 8a ad
       -9.014563e-12 -1.4839515e-11 -4.7498215e-37 -1.5744562e-11
000230 9a 7d 8a ad 04 00 00 80 9a 7d 8a ad 9a 7d 8a ad
       -1.5744562e-11 -6e-45 -1.5744562e-11 -1.5744562e-11
000240 04 00 00 80 9a 7d 8a ad 9a 7d 8a ad 00 00 00 00
       -6e-45 -1.5744562e-11 -1.5744562e-11 0.0
000250 9a 7d 8a ad 9a 7d 8a ad 04 00 00 80 9a 7d 8a ad
       -1.5744562e-11 -1.5744562e-11 -6e-45 -1.5744562e-11
000260 9a 7d 8a ad 00 00 00 00 9a 7d 8a ad 9a 7d 8a ad
       -1.5744562e-11 0.0 -1.5744562e-11 -1.5744562e-11
000270 5c 41 d0 2e ca 2f dc ad 00 00 00 00 00 00 00 00
       9.470355e-11 -2.5032327e-11 0.0 0.0
000280 ef a2 3b af 9a 7d 8a ad 82 d7 3d b3 3c 96 82 b2
       -1.7065437e-10 -1.5744562e-11 -4.4200995e-08 -1.520231e-08
000290 01 9b 65 b3 e8 21 e1 87 a0 22 7f b3 a0 22 7f b3
       -5.3459193e-08 -3.3874166e-34 -5.9403305e-08 -5.9403305e-08
0002a0 04 00 00 00 a0 22 7f b3 a0 22 7f b3 04 00 00 00
       6e-45 -5.9403305e-08 -5.9403305e-08 6e-45
0002b0 a0 22 7f b3 a0 22 7f b3 00 00 00 00 a0 22 7f b3
       -5.9403305e-08 -5.9403305e-08 0.0 -5.9403305e-08
0002c0 a0 22 7f b3 04 00 00 00 a0 22 7f b3 a0 22 7f b3
       -5.9403305e-08 6e-45 -5.9403305e-08 -5.9403305e-08
0002d0 00 00 00 00 a0 22 7f b3 a0 22 7f b3 72 d4 bf 34
       0.0 -5.9403305e-08 -5.9403305e-08 3.5731097e-07
0002e0 86 36 c2 b3 00 00 00 00 00 00 00 00 24 1e 2f b5
       -9.043747e-08 0.0 0.0 -6.523644e-07
0002f0 a0 22 7f b3 af 65 9d b0 cb 00 2d b0 69 bb de b0
       -5.9403305e-08 -1.1452154e-09 -6.293816e-10 -1.6205891e-09
000300 99 56 ed 04 14 e6 f3 b0 14 e6 f3 b0 04 00 00 00
       5.579796e-36 -1.7745969e-09 -1.7745969e-09 6e-45
000310 14 e6 f3 b0 14 e6 f3 b0 04 00 00 00 14 e6 f3 b0
       -1.7745969e-09 -1.7745969e-09 6e-45 -1.7745969e-09
000320 14 e6 f3 b0 00 00 00 00 14 e6 f3 b0 14 e6 f3 b0
       -1.7745969e-09 0.0 -1.7745969e-09 -1.7745969e-09
000330 04 00 00 00 14 e6 f3 b0 14 e6 f3 b0 00 00 00 00
       6e-45 -1.7745969e-09 -1.7745969e-09 0.0
000340 14 e6 f3 b0 14 e6 f3 b0 a4 61 37 32 be 38 3c b1
       -1.7745969e-09 -1.7745969e-09 1.0674203e-08 -2.7389855e-09
000350 00 00 00 00 00 00 00 00 07 ba a6 b2 14 e6 f3 b0
       0.0 0.0 -1.9409539e-08 -1.7745969e-09
000360 53 80 81 33 4a bd 0b 33 aa f4 b5 33 f0 30 91 08
       6.030373e-08 3.2535617e-08 8.4729734e-08 8.738375e-34
000370 fa 5e c7 33 fa 5e c7 33 04 00 00 00 fa 5e c7 33
       9.283936e-08 9.283936e-08 6e-45 9.283936e-08
000380 fa 5e c7 33 04 00 00 00 fa 5e c7 33 fa 5e c7 33
       9.283936e-08 6e-45 9.283936e-08 9.283936e-08
000390 00 00 00 00 fa 5e c7 33 fa 5e c7 33 04 00 00 00
       0.0 9.283936e-08 9.283936e-08 6e-45
0003a0 fa 5e c7 33 fa 5e c7 33 00 00 00 00 fa 5e c7 33
       9.283936e-08 9.283936e-08 0.0 9.283936e-08
0003b0 fa 5e c7 33 ef e6 15 b5 5d c5 19 34 00 00 00 00
       9.283936e-08 -5.584288e-07 1.4321036e-07 0.0
0003c0 00 00 00 00 a5 4f 88 35 fa 5e c7 33 99 eb 2e b5
       0.0 1.0155969e-06 9.283936e-08 -6.516289e-07
0003d0 57 a0 1f b4 c2 4d 3f b5 48 48 07 89 af d3 56 b5
       -1.486636e-07 -7.12662e-07 -1.628402e-33 -8.002925e-07
0003e0 af d3 56 b5 04 00 00 00 af d3 56 b5 af d3 56 b5
       -8.002925e-07 6e-45 -8.002925e-07 -8.002925e-07
0003f0 04 00 00 80 af d3 56 b5 af d3 56 b5 00 00 00 00
       -6e-45 -8.002925e-07 -8.002925e-07 0.0

exp_avg_sq f4 [128, 27]
000000 2d 8c 9e 35 e5 49 1a 35 4b f4 7e 35 2f 6b c0 31
       1.1812714e-06 5.7477e-07 9.4977867e-07 5.600121e-09
000010 ec cc ea 35 cc d5 ea 35 f4 01 00 00 40 b0 eb 35
       1.7493999e-06 1.7496582e-06 7e-43 1.756016e-06
000020 40 b0 eb 35 79 be 67 32 a0 ea e9 35 fb f6 e9 35
       1.756016e-06 1.3489278e-08 1.7428138e-06 1.7431734e-06
000030 00 00 00 00 40 b0 eb 35 40 b0 eb 35 3e 1e 2a 32
       0.0 1.756016e-06 1.756016e-06 9.902179e-09
000040 b8 a8 ea 35 7d a4 ea 35 00 00 00 00 40 b0 eb 35
       1.7483462e-06 1.7482231e-06 0.0 1.756016e-06
000050 40 b0 eb 35 3b 3b 85 38 01 f8 8b 36 00 00 00 00
       1.756016e-06 6.352967e-05 4.1713943e-06 0.0
000060 00 00 00 00 39 da f1 38 8d 5c 8d 35 01 8a 0f 35
       0.0 0.00011532423 1.0532254e-06 5.3472473e-07
000070 83 39 86 31 45 4d a7 32 01 b6 f2 2b b1 97 10 35
       3.9064516e-09 1.9476497e-08 1.724565e-12 5.386492e-07
000080 78 97 10 35 f4 01 00 00 41 96 10 35 41 96 10 35
       5.3864596e-07 7e-43 5.386283e-07 5.386283e-07
000090 df b6 56 2d 35 96 10 35 fa 95 10 35 00 00 00 00
       1.2205097e-11 5.386276e-07 5.3862425e-07 0.0
0000a0 41 96 10 35 41 96 10 35 0d e4 58 2d 8a 93 10 35
       5.386283e-07 5.386283e-07 1.2328816e-11 5.385888e-07
0000b0 fd 93 10 35 00 00 00 00 41 96 10 35 41 96 10 35
       5.385953e-07 0.0 5.386283e-07 5.386283e-07
0000c0 40 73 a3 37 bc 8b 19 35 00 00 00 00 00 00 00 00
       1.9484782e-05 5.720028e-07 0.0 0.0
0000d0 5e 26 70 35 89 72 0a 32 b7 55 0e 30 6b 43 af 2f
       8.94628e-07 8.0586995e-09 5.1781107e-10 3.1880218e-10
0000e0 9a 39 03 30 61 8a 72 2c 39 6c 63 30 de 7c 63 30
       4.773938e-10 3.4467084e-12 8.273591e-10 8.2759566e-10
0000f0 f4 01 00 00 54 b1 64 30 54 b1 64 30 55 46 5e 2e
       7e-43 8.3197915e-10 8.3197915e-10 5.0539423e-11
000100 bc 4e 56 30 9d d1 56 30 00 00 00 00 54 b1 64 30
       7.7964635e-10 7.8150625e-10 0.0 8.3197915e-10
000110 54 b1 64 30 63 8b 4d 2e 14 2a 57 30 c5 c6 57 30
       8.3197915e-10 4.6735404e-11 7.827634e-10 7.8499013e-10
000120 00 00 00 00 54 b1 64 30 54 b1 64 30 ab 44 01 33
       0.0 8.3197915e-10 8.3197915e-10 3.0097606e-08
000130 c5 19 0c 31 00 00 00 00 00 00 00 00 0d 2d 76 33
       2.038733e-09 0.0 0.0 5.7317312e-08
000140 6d 9c 0f 30 d0 a2 ab 35 4e d4 67 34 55 24 a4 34
       5.224539e-10 1.2787877e-06 2.1590787e-07 3.0573815e-07
000150 a0 57 93 31 19 f1 c7 35 5d f9 c7 35 f4 01 00 00
       4.288225e-09 1.4896824e-06 1.489923e-06 7e-43
000160 11 aa c8 35 11 aa c8 35 03 47 4f 32 69 02 c7 35
       1.4950657e-06 1.4950657e-06 1.2065132e-08 1.4827357e-06
000170 1f 13 c7 35 00 00 00 00 11 aa c8 35 11 aa c8 35
       1.483222e-06 0.0 1.4950657e-06 1.4950657e-06
000180 4a bd 16 32 11 d2 c7 35 a0 cb c7 35 00 00 00 00
       8.7741885e-09 1.4887793e-06 1.4885918e-06 0.0
000190 11 aa c8 35 11 aa c8 35 50 da 62 38 d2 87 26 36
       1.4950657e-06 1.4950657e-06 5.408592e-05 2.4814985e-06
0001a0 00 00 00 00 00 00 00 00 0f b0 f7 37 2c fb 9f 34
       0.0 0.0 2.9526678e-05 2.979881e-07
0001b0 8c 67 8a 34 5a 1d 23 34 c8 5d 6b 34 92 82 ea 2f
       2.5779843e-07 1.5191236e-07 2.1920198e-07 4.2657128e-10
0001c0 96 87 db 34 6d 8b db 34 f4 01 00 00 c9 d6 db 34
       4.089058e-07 4.0893374e-07 7e-43 4.0948206e-07
0001d0 c9 d6 db 34 59 5e b1 30 10 34 db 34 38 36 db 34
       4.0948206e-07 1.290526e-09 4.082981e-07 4.0831378e-07
0001e0 00 00 00 00 c9 d6 db 34 c9 d6 db 34 cb 18 e5 30
       0.0 4.0948206e-07 4.0948206e-07 1.666899e-09
0001f0 7b 0d db 34 8a 0d db 34 00 00 00 00 c9 d6 db 34
       4.0801737e-07 4.080178e-07 0.0 4.0948206e-07
000200 c9 d6 db 34 e8 8a 78 37 7c 60 85 35 00 00 00 00
       4.0948206e-07 1.48142935e-05 9.937353e-07 0.0
000210 00 00 00 00 86 99 d4 37 57 cb 7d 34 81 63 27 29
       0.0 2.534386e-05 2.3636436e-07 3.7167755e-14
000220 bd 9f cb 28 6e bc 47 29 82 8a 75 27 83 fc 7c 29
       2.2606803e-14 4.4350313e-14 3.4075665e-15 5.617426e-14
000230 5e 39 7d 29 f4 01 00 00 54 ec 85 29 54 ec 85 29
       5.6227043e-14 7e-43 5.947383e-14 5.947383e-14
000240 50 a7 83 27 9b 27 7c 29 ef 72 7c 29 00 00 00 00
       3.6541205e-15 5.5989593e-14 5.605493e-14 0.0
000250 54 ec 85 29 54 ec 85 29 c5 b5 d0 25 2c 29 85 29
       5.947383e-14 5.947383e-14 3.620542e-16 5.913529e-14
000260 35 2c 85 29 00 00 00 00 54 ec 85 29 54 ec 85 29
       5.914055e-14 0.0 5.947383e-14 5.947383e-14
000270 d0 69 17 2c 07 cf 21 2a 00 00 00 00 00 00 00 00
       2.1517128e-12 1.43715e-13 0.0 0.0
000280 85 13 d3 2c c6 8f 67 29 88 46 91 34 33 6f a0 33
       5.999148e-12 5.1417007e-14 2.7059673e-07 7.4708076e-08
000290 ac b1 0f 34 e3 d8 45 30 02 e1 b8 34 b2 e6 b8 34
       1.338255e-07 7.1976397e-10 3.4436385e-07 3.4440524e-07
0002a0 f4 01 00 00 ff 5e b9 34 ff 5e b9 34 c4 c0 71 30
       7e-43 3.4528054e-07 3.4528054e-07 8.7949226e-10
0002b0 98 d1 b8 34 62 d8 b8 34 00 00 00 00 ff 5e b9 34
       3.442517e-07 3.443011e-07 0.0 3.4528054e-07
0002c0 ff 5e b9 34 9c e9 b6 2f d8 48 b9 34 df 45 b9 34
       3.4528054e-07 3.3271597e-10 3.4511936e-07 3.4509773e-07
0002d0 00 00 00 00 ff 5e b9 34 ff 5e b9 34 b8 91 51 37
       0.0 3.4528054e-07 3.4528054e-07 1.2491299e-05
0002e0 23 21 32 35 00 00 00 00 00 00 00 00 a4 8f 89 37
       6.635839e-07 0.0 0.0 1.639856e-05
0002f0 8c 35 1e 34 69 14 77 2e 4a 82 b6 2d 61 8a ca 2d
       1.4734377e-07 5.6179426e-11 2.0748864e-11 2.3026194e-11
000300 7b 32 c8 2a ad ce a8 2e cc d3 a8 2e f4 01 00 00
       3.5562165e-13 7.6764685e-11 7.677378e-11 7e-43
000310 a2 9f a9 2e a2 9f a9 2e 6d e2 c5 2b a9 c9 a5 2e
       7.713587e-11 7.713587e-11 1.4060538e-12 7.539153e-11
000320 49 02 a6 2e 00 00 00 00 a2 9f a9 2e a2 9f a9 2e
       7.549212e-11 0.0 7.713587e-11 7.713587e-11
000330 48 d2 96 2b 2f ab a6 2e e9 e1 a6 2e 00 00 00 00
       1.0716506e-12 7.579214e-11 7.588936e-11 0.0
000340 a2 9f a9 2e a2 9f a9 2e 38 c4 3f 31 75 9f 2b 2f
       7.713587e-11 7.713587e-11 2.7905696e-09 1.560901e-10
000350 00 00 00 00 00 00 00 00 ef 5c 10 31 3f cc c1 2d
       0.0 0.0 2.1007585e-09 2.2032263e-11
000360 5f 14 1a 33 0f a8 59 32 9b 2d 71 32 29 1c 36 2e
       3.5874447e-08 1.26692745e-08 1.4038416e-08 4.140702e-11
000370 5c 3b 50 33 00 3f 50 33 f4 01 00 00 ba 7c 50 33
       4.848276e-08 4.8486072e-08 7e-43 4.8542212e-08
000380 ba 7c 50 33 0b 24 92 2e 9b 36 50 33 c4 37 50 33
       4.8542212e-08 6.645714e-11 4.8478437e-08 4.8479492e-08
000390 00 00 00 00 ba 7c 50 33 ba 7c 50 33 40 50 8a 2e
       0.0 4.8542212e-08 4.8542212e-08 6.289769e-11
0003a0 a4 4a 50 33 fd 47 50 33 00 00 00 00 ba 7c 50 33
       4.849666e-08 4.8494247e-08 0.0 4.8542212e-08
0003b0 ba 7c 50 33 ff b6 eb 35 3f f6 d4 33 00 00 00 00
       4.8542212e-08 1.7562123e-06 9.916811e-08 0.0
0003c0 00 00 00 00 b2 1c a8 35 85 a4 67 32 73 1b a3 36
       0.0 1.2525327e-06 1.3483377e-08 4.860974e-06
0003d0 65 66 dd 35 52 f7 51 36 85 ca 5d 32 3a ec d9 36
       1.6495584e-06 3.1287386e-06 1.2909941e-08 6.4946043e-06
0003e0 d9 f2 d9 36 f4 01 00 00 16 7a da 36 16 7a da 36
       6.495375e-06 7e-43 6.511119e-06 6.511119e-06
0003f0 92 90 00 33 4c 77 d9 36 18 80 d9 36 00 00 00 00
       2.993381e-08 6.480992e-06 6.482016e-06 0.0

exp_avg f4 [128]
000000 9c f3 ef b4 6a 4b 1f 33 92 3d a3 b1 be e3 69 34
       -4.4694468e-07 3.708866e-08 -4.750924e-09 2.1782668e-07
000010 31 9d 2c 35 9a 7d 8a ad a0 22 7f b3 14 e6 f3 b0
       6.4303737e-07 -1.5744562e-11 -5.9403305e-08 -1.7745969e-09
000020 fa 5e c7 33 af d3 56 b5 b0 be 26 b4 42 26 f2 30
       9.283936e-08 -8.002925e-07 -1.5529326e-07 1.7618691e-09
000030 46 ce 28 32 5c 67 0f 32 9e c8 c8 b4 0a b5 b1 31
       9.825788e-09 8.347197e-09 -3.739887e-07 5.1719597e-09
000040 8e 56 87 35 f9 fe 15 33 6f 96 f3 34 88 c1 8c 33
       1.0083475e-06 3.4923662e-08 4.5371732e-07 6.554461e-08
000050 50 b4 f5 b0 1c 32 91 32 09 07 0f 31 7b 98 19 35
       -1.7877344e-09 1.6903009e-08 2.0813238e-09 5.721883e-07
000060 14 2d 5e b4 1e 00 32 b4 9b 21 cb 34 f4 1c 37 35
       -2.069176e-07 -1.6577584e-07 3.7836148e-07 6.8214945e-07
000070 bb b9 e9 32 df 09 ca b3 9c 77 91 33 98 e6 d2 32
       2.720923e-08 -9.4081535e-08 6.7738455e-08 2.455208e-08
000080 4c 9d 0c b3 21 89 27 b5 b4 81 fa 32 0c 1e 22 35
       -3.273935e-08 -6.2411897e-07 2.9162813e-08 6.0393427e-07
000090 05 26 b7 34 18 a1 a4 b4 89 b1 bb b3 78 b6 e0 b1
       3.411407e-07 -3.0664592e-07 -8.7401595e-08 -6.5400023e-09
0000a0 f4 27 07 b5 81 1c fc b0 50 76 87 b2 1a d0 ca b3
       -5.034956e-07 -1.8343514e-09 -1.576987e-08 -9.4442115e-08
0000b0 dc 8c d3 b3 24 12 e3 b4 6d d9 8d af 87 ac 64 b4
       -9.851075e-08 -4.2295244e-07 -2.580224e-10 -2.129692e-07
0000c0 39 3b 57 33 e8 ef e4 34 cc 25 a5 b3 4f f3 eb 33
       5.011245e-08 4.2642864e-07 -7.6902865e-08 1.0987298e-07
0000d0 5d 25 98 34 1b fa 0d b4 59 3e ac 34 06 4d a1 32
       2.8339392e-07 -1.3222636e-07 3.208286e-07 1.8777893e-08
0000e0 aa 0e af b4 91 87 54 b5 89 32 c5 2c d9 86 c7 b4
       -3.260696e-07 -7.917343e-07 5.6046873e-12 -3.7164753e-07
0000f0 e3 d1 8a 33 2d fb c0 b4 e4 1f 29 34 94 71 d7 b3
       6.464304e-08 -3.594554e-07 1.5750953e-07 -1.00323774e-07
000100 75 55 55 31 8f c2 f0 32 b0 b3 11 35 48 0a a4 35
       3.1044156e-09 2.8028152e-08 5.427819e-07 1.2221944e-06
000110 a1 8c 05 b4 b0 c9 22 34 9c 76 5e 30 64 e4 18 b5
       -1.2437751e-07 1.5160799e-07 8.0931684e-10 -5.6956765e-07
000120 ca 63 81 b4 cb b4 6f 35 ba 00 3a 2e 2d 31 31 33
       -2.4100729e-07 8.9297527e-07 4.229215e-11 4.125575e-08
000130 3e 08 2a b1 91 e8 95 b4 f5 62 46 30 41 24 1d b5
       -2.474294e-09 -2.7922627e-07 7.2172607e-10 -5.8539814e-07
000140 c0 d5 86 b5 ce 27 0f 34 0b a2 69 b5 8f bb 99 b3
       -1.0045987e-06 1.3332394e-07 -8.703507e-07 -7.1587344e-08
000150 93 b5 8f 2f 59 68 d3 b2 1e 07 f6 34 cb ae 0b 33
       2.6140565e-10 -2.4611085e-08 4.582625e-07 3.2522433e-08
000160 a4 78 31 b2 5d 97 0f 32 8c 09 0d 35 1a 2d 09 35
       -1.03301865e-08 8.3581115e-09 5.2540486e-07 5.110211e-07
000170 0a 2a 89 b3 29 4b d7 34 9c 27 c5 b4 01 ee 1c 35
       -6.3872065e-08 4.0101557e-07 -3.672293e-07 5.846087e-07
000180 14 12 94 33 03 e3 69 b5 7b 87 f7 2b 42 60 56 b5
       6.8950754e-08 -8.712961e-07 1.7588009e-12 -7.9861286e-07
000190 c9 16 81 31 36 28 58 b2 dd 5b cc b2 d4 d2 92 34
       3.7569845e-09 -1.2581998e-08 -2.37905e-08 2.7348017e-07
0001a0 83 a9 ca 34 61 a4 80 2f 33 a2 a1 34 d9 e5 13 35
       3.7748768e-07 2.3399863e-10 3.0106602e-07 5.509624e-07
0001b0 17 a5 b4 b3 15 92 46 35 81 8b e4 b3 0b 7b 87 b4
       -8.411933e-08 7.3973325e-07 -1.0642453e-07 -2.5235235e-07
0001c0 f7 e8 16 b1 eb c1 f5 b3 e3 35 37 b5 df 06 5a 34
       -2.1960298e-09 -1.1443975e-07 -6.825123e-07 2.0305332e-07
0001d0 fe 20 10 b2 d2 6a fe b3 02 b2 81 34 9e 74 0e 33
       -8.389405e-09 -1.1847227e-07 2.415764e-07 3.3168014e-08
0001e0 ed f3 04 b5 bf c9 53 b5 50 f6 14 35 38 43 a0 34
       -4.952879e-07 -7.8897205e-07 5.549273e-07 2.985123e-07
0001f0 a1 d9 64 34 f4 2c 9c b4 45 fb dc b2 e4 aa 89 b3
       2.1313328e-07 -2.9089972e-07 -2.5725635e-08 -6.4106445e-08

exp_avg_sq f4 [128]
000000 40 b0 eb 35 41 96 10 35 54 b1 64 30 11 aa c8 35
       1.756016e-06 5.386283e-07 8.3197915e-10 1.4950657e-06
000010 c9 d6 db 34 54 ec 85 29 ff 5e b9 34 a2 9f a9 2e
       4.0948206e-07 5.947383e-14 3.4528054e-07 7.713587e-11
000020 ba 7c 50 33 16 7a da 36 a8 2d 9a 35 ba a1 3e 2f
       4.8542212e-08 6.511119e-06 1.1487182e-06 1.7337856e-10
000030 6d bd 1b 31 c7 31 c6 2f 3a 51 55 33 24 6d 76 2e
       2.2663145e-09 3.605136e-10 4.9666802e-08 5.603086e-11
000040 a4 dd 67 36 d5 c4 9c 34 f7 84 e6 34 cb 09 0f 34
       3.4550694e-06 2.9200478e-07 4.2937583e-07 1.3321475e-07
000050 6e dc 82 30 24 6a 29 34 5b 19 8f 2e b6 c8 e6 33
       9.521395e-10 1.5777965e-07 6.507391e-11 1.0746719e-07
000060 0b 1b bc 34 91 df 83 35 48 ba bb 36 d1 b9 36 36
       3.5037405e-07 9.825327e-07 5.5947203e-06 2.7228273e-06
000070 79 2e 24 35 a4 6d 26 33 95 46 a0 35 1c 4c de 34
       6.116239e-07 3.8749604e-08 1.1941471e-06 4.14061e-07
000080 2a 40 70 33 6f 67 84 34 87 ad b0 30 78 fc 09 36
       5.593771e-08 2.4662174e-07 1.2855005e-09 2.0561547e-06
000090 dc 74 68 34 56 5d 1e 34 a4 72 3c 32 0e cc 79 30
       2.1649197e-07 1.4748852e-07 1.09691065e-08 9.087565e-10
0000a0 2d 70 65 36 e9 67 51 30 63 ec 0d 31 8b 22 83 36
       3.4188954e-06 7.618142e-10 2.065257e-09 3.9081256e-06
0000b0 2b 4f 20 32 98 48 82 34 8a 65 3a 31 c2 e9 50 33
       9.3312265e-09 2.4267206e-07 2.712428e-09 4.8641375e-08
0000c0 52 87 64 31 a5 69 9e 34 8a 7c 99 35 8a 5f cd 34
       3.3255287e-09 2.950666e-07 1.1435634e-06 3.825374e-07
0000d0 16 0c 36 36 b9 36 2c 35 25 b8 98 34 09 fa d3 33
       2.7127148e-06 6.4154625e-07 2.844619e-07 9.870934e-08
0000e0 10 fb cb 35 3c c4 fa 36 0c 8f 1d 25 cf aa 31 36
       1.5197747e-06 7.4734253e-06 1.3666045e-16 2.647448e-06
0000f0 ee a3 40 34 3a c2 29 33 81 21 20 35 cf 24 40 33
       1.794103e-07 3.9525027e-08 5.96534e-07 4.473696e-08
000100 28 4e e0 2e 84 b7 b9 30 ce 92 d5 35 a9 b5 86 35
       1.0200224e-10 1.351268e-09 1.5912462e-06 1.0036648e-06
000110 a5 8d 2e 34 07 5f aa 35 01 56 e4 30 85 33 54 34
       1.6256543e-07 1.2693644e-06 1.6613627e-09 1.9762781e-07
000120 15 fe 10 36 0b 6e 6f 36 3a 1e 9b 2f f4 89 85 35
       2.1605567e-06 3.5677829e-06 2.8215813e-10 9.949422e-07
000130 b0 e8 64 2f 5b 68 0b 34 0c e1 69 30 e9 46 7d 36
       2.0819146e-10 1.2983348e-07 8.5084717e-10 3.7741213e-06
000140 7e 56 e4 36 74 06 91 35 5d 95 e7 36 ec 15 c7 31
       6.8049985e-06 1.080522e-06 6.9017246e-06 5.7941545e-09
000150 94 da 36 29 6a 18 3e 34 93 0f 6c 34 d9 07 ca 30
       4.0601704e-14 1.770401e-07 2.1984879e-07 1.4699665e-09
000160 9b 19 19 33 c3 50 b0 34 d0 6a 02 35 0e 87 af 33
       3.5646377e-08 3.2841317e-07 4.8584207e-07 8.173639e-08
000170 db e5 40 34 7c ae 95 35 39 94 91 36 fa 71 f2 34
       1.7965014e-07 1.1152147e-06 4.338592e-06 4.5158941e-07
000180 ec 45 3f 36 1f e3 fb 36 4d 56 94 24 0a 78 de 36
       2.8501918e-06 7.5068233e-06 6.433097e-17 6.63009e-06
000190 2e 04 8c 2f e3 15 1c 32 5c b1 84 30 5f 33 88 36
       2.5468821e-10 9.085372e-09 9.654673e-10 4.059096e-06
0001a0 42 52 7a 35 13 89 15 31 98 cb 5e 35 b8 4c 0e 35
       9.325196e-07 2.1760271e-09 8.299771e-07 5.301076e-07
0001b0 5d 81 d8 30 c0 1e 4a 34 10 ce 12 35 b6 d2 24 33
       1.5752836e-09 1.8823903e-07 5.46891e-07 3.8375866e-08
0001c0 e5 00 a3 30 e7 a8 a2 35 1d be 0b 36 7c 96 29 35
       1.1860065e-09 1.2119098e-06 2.0823275e-06 6.317639e-07
0001d0 35 7e 5d 31 71 78 81 32 61 6c 75 34 47 94 a9 31
       3.2231473e-09 1.5072347e-08 2.2856831e-07 4.9354045e-09
0001e0 7d c2 b8 33 bd 08 26 35 f6 d2 fb 35 4c e3 89 35
       8.603545e-08 6.1852535e-07 1.8762355e-06 1.0273448e-06
0001f0 6e 06 15 35 05 89 4a 36 84 f4 6d 34 ed da 1e 34
       5.551618e-07 3.0180101e-06 2.2161299e-07 1.4794541e-07
