Project/Assets/ML-Agents/Examples/3DBall/TFModels/3DBallHard.onnx (onnx, 97163 bytes, 11 tensors)

network_body.observation_encoder.processors.0.normalizer.running_mean f4 [27]
00000000: 6dd9 a7be 2c1c 3b40 d6a7 8a3e e3f1 a7be
00000010: bb5b 3c40 c56c 8a3e b800 a8be ad97 3d40
00000020: 711f 8a3e 0b05 a8be a3ce 3e40 5bbf 893e
00000030: 63fe a7be 86fe 3f40 824b 893e 71ec a7be
00000040: bb24 4140 e4c2 883e 9fce a7be f33d 4240
00000050: 6025 883e 7ca4 a7be 4446 4340 1772 873e
00000060: 926d a7be da38 4440 03a8 863e
-0.3278307 2.9235945 0.27081174 -0.32801732 2.9430988 0.2703611 -0.32813048 2.9623826
0.26977113 -0.32816347 2.981362 0.26903805 -0.3281127 2.9999099 0.2681542 -0.32797578
3.0178668 0.2671119 -0.32774827 3.035031 0.26591015 -0.3274268 3.0511637 0.2645423
-0.32700783 3.06597 0.26300058

network_body.observation_encoder.processors.1.normalizer.running_mean f4 [18]
00000000: ba16 2fbb fd32 02bb 3f47 33bb 77ac 08bb
00000010: 91a2 37bb 6341 0fbb c7c8 3cbb 5c10 16bb
00000020: fb3b 42bb b3b5 1cbb a49f 47bb 6a31 23bb
00000030: 2a78 4dbb 10a4 29bb dfd7 53bb a2e2 2fbb
00000040: a5b3 5abb 5f03 36bb
-0.0026716427 -0.0019866817 -0.0027355698 -0.002085475 -0.002802048 -0.0021859042 -0.0028806196 -0.0022897935
-0.0029637802 -0.0023912012 -0.0030460143 -0.002490128 -0.003135214 -0.0025885142 -0.0032324714 -0.0026837965
-0.0033371237 -0.0027773005

network_body._body_endoder.seq_layers.0.weight f4 [128, 45]
00000000: 9e9d 3dbc e268 9a3d e27d e53c eaa5 bb3d
00000010: db0a 60be e3c0 b7be d031 74bd 82f2 b7bd
00000020: 5667 ec3d 15ab ffbd 91ba 123d 1ac3 ed3c
00000030: 091f 23be 389e 26be 9a94 8d3a a74e be3d
00000040: d97d a13d 5e4b 173e 2457 00be 6693 323b
00000050: f7c2 ef3c a9db 743e 5d07 23bd 0aa5 87bc
00000060: d03a 8f3e 86f0 243e 3b03 043e 67f2 9dbd
00000070: 40aa 80bc 5a94 683d d4da f63d e55d 9fbd
00000080: 14b7 143e c38e 16bc 7f06 f4bd ad1a abbd
00000090: 32d6 34be 5f97 c0bd dbbf a2bd 8afb 80be
000000a0: 9451 45bd 1d32 6bbc 4355 a33d f567 93be
000000b0: c1f2 ae3d 90f0 cd3c 0c21 8abc dc36 223e
000000c0: 6694 eebd 42fd 2abd 862b 7f3d 66c1 d3bc
000000d0: fa4b c23d 04a5 87bc a4f0 17be e056 5d3c
000000e0: b36f 803e 2cf1 ae3d 09b3 0fbe 6fef 17be
000000f0: a054 3bbd fc08 8b3d f627 b9bb 0842 03be
00000100: 6b92 273d 4ae5 bcbc e523 97bd ef2a 883c
00000110: db97 0b3d ced8 bb3e 95fe af3d 742e 1cbd
00000120: 8c82 a6bd 7f49 6b3e c6d6 763d 1f9d 97bd
00000130: 98ca cebd 99a2 223e 30ff d43d 7ad5 ce3d
00000140: 4681 5d3d a501 353e 1146 523e edfc bbbe
00000150: c6c2 10be cde3 1b3e c8c3 47bd f8f6 003e
00000160: 127b f1be 03a3 d0bc bca8 ae3e 2e3b 5ebd
00000170: 143c 433d 940e 0ebe 3769 143e e02c 833e
00000180: a41c 2a3e c355 a53d 77a9 8dbd 4545 113e
00000190: 4c11 353e 8c03 6ebd 8a49 a4be 1b90 113e
000001a0: cf8e b1bc de1a f2be 3932 49bc 8650 fd3d
000001b0: d024 9c3d 04b1 d3bd 5ced 2ebd a668 1fbd
000001c0: 58e7 573c 019c c6bd 99aa a3be 945f 4b3e
000001d0: ce17 a5b9 0278 6d3e 5b68 dcbc d719 02be
000001e0: 6bde 4cbe 0632 213d cd3e f2bd 9f81 dc3e
000001f0: 29ad e6ba 217f 7bbd 6c63 dd3d f198 44bd
00000200: d5ac 073d 702f 27be 3e76 28be c6e8 edbc
00000210: f426 083d 9181 0b3f 89cc b13b 5d56 8dbd
00000220: 7e23 7d3e af47 77bd 4df4 c53d ef91 17be
00000230: f680 b8bd 63d3 0fbc 6721 79be cb96 71be
00000240: c7b9 9d3d 6ec6 3cbe 126a 4ebd d5bd cc3c
00000250: d90d d03c 7c15 98be 801c 1e3d 0437 183e
00000260: 47d4 2a3d 78aa 02bd 10a2 45be 56ed ccbd
00000270: 6d2c 10bd 3d79 cc3d 1ad0 3bbd c1c1 443e
00000280: c264 cabd d393 5ebe 6a79 3cbe 364f 6e3d
00000290: 2a71 68be c83c f4bd de8d 9a3c a0f9 8fbe
000002a0: db44 cfbd 2351 e4bd 96fe a9bc 25df fa3d
000002b0: a27b 8d3d b9c5 0cbe 6080 b13d 979e 3b3d
000002c0: c604 963d 18c3 b23c 5d7a d8bc a6ae 9c3c
000002d0: f6a1 683e a7cc 133c 9ee2 1bbd 29fb cd3d
000002e0: 4c1b fbbd 291a 18be f4ea a7bd 50ad 313e
000002f0: 1990 b8bd 1e85 68be f699 7f3e 312b 15bd
00000300: 22a1 1dbe f61e 403e c848 833d 1a86 a3bd
00000310: d5e6 77bd e560 9bbd 6f17 22bc 355f 3bbe
00000320: 6348 71bc c482 553e de18 543e d168 673e
00000330: 99e2 e7bd 2641 343d 92a2 df3d b7f5 a4be
00000340: dd95 3ebd e2e0 de3c 8b38 81bb 0daa 723d
00000350: fced 0e3e cc92 f73b c2ad 6c3b ecc7 933d
00000360: d79b 26be 6c78 9a3c 2c1b 14bd 4a84 b93d
00000370: 061f 593e 19e3 513d a4c5 9abc 4d7d 74bc
00000380: e8fe 71bd 5cad 873e 597b bf3d 8fde 24bd
00000390: 4f67 7f3e bc29 56be db95 afbe da29 1a3e
000003a0: 3ffd 36bb 7110 c5bd 6803 243d 156a 983e
000003b0: 2194 8b3e 961a 263e 1931 c63e af34 03bd
000003c0: 24d3 d8bd 676d 7abd 7ef7 b3bd 7c71 97be
000003d0: 1fee 843e dda5 73bb a66b b53c 36b5 0bbc
000003e0: ee9a 7e3d 5144 8fbd 5512 443e bb40 a43e
000003f0: 9730 e7bc 9a45 f13d 9c0c 8cbe 0043 bf3d
-0.011573223 0.07539536 0.028014127 0.09162505 -0.21879141 -0.35889348 -0.059617817 -0.089818016
0.11543147 -0.12483803 0.035822455 0.029023696 -0.15929808 -0.16271293 0.0010801733 0.092923455
0.07885332 0.14774844 -0.12533242 0.00272485 0.029267771 0.23911919 -0.039801944 -0.016558189
0.27974558 0.16107377 0.12891857 -0.0771225 -0.015706182 0.056782104 0.12053457 -0.07781581
0.14522964 -0.0091893105 -0.119153015 -0.083546974 -0.17659834 -0.09403872 -0.0794675 -0.2519191
-0.048173502 -0.01435521 0.07975247 -0.2879025 0.085423954 0.025139123 -0.016861461 0.1584124
-0.116493985 -0.04174543 0.062297367 -0.025849055 0.09487148 -0.016558178 -0.14837891 0.013509482
0.2508522 0.08542094 -0.1403314 -0.1483743 -0.045735 0.06788823 -0.0056505157 -0.12818158
0.04091112 -0.023058552 -0.07379893 0.016622035 0.034080368 0.36688846 0.085934795 -0.03813024
-0.081303686 0.22977255 0.060263418 -0.07403015 -0.100972354 0.15882339 0.10400236 0.10099311
0.054078363 0.17676409 0.2053454 -0.36716405 -0.141368 0.15223618 -0.048770696 0.12594211
-0.47164208 -0.025468355 0.3411311 -0.054255657 0.047664717 -0.13872749 0.14493261 0.25620174
0.16612488 0.080729984 -0.069170885 0.1418658 0.1768238 -0.05810885 -0.32087356 0.14215128
-0.021674542 -0.47286123 -0.01228004 0.12368874 0.07624209 -0.103364974 -0.042706832 -0.03891816
0.013177715 -0.09697724 -0.31966093 0.19860679 -0.00031488988 0.2319031 -0.02690523 -0.1270517
-0.2000672 0.039354347 -0.118283845 0.43067643 -0.0017599213 -0.061400536 0.10809979 -0.04799742
0.03312381 -0.1632669 -0.16451356 -0.02904166 0.033240274 0.5449458 0.005425994 -0.06901238
0.2472057 -0.060371097 0.09665737 -0.14801763 -0.09008972 -0.008778426 -0.24329148 -0.23592679
0.0770145 -0.1843507 -0.050394125 0.024992863 0.025397228 -0.2970389 0.0386014 0.14864737
0.04170635 -0.031900853 -0.19300103 -0.10006206 -0.035198618 0.09984062 -0.045852758 0.19214536
-0.09882499 -0.21736078 -0.18405691 0.05818101 -0.22699419 -0.119256556 0.018866476 -0.28120136
-0.10120555 -0.11148288 -0.020751279 0.12249593 0.06908347 -0.137473 0.08667064 0.04580554
0.07325129 0.021821544 -0.026425535 0.019126248 0.22718033 0.009020961 -0.038057916 0.100576706
-0.12261066 -0.1485373 -0.081991106 0.1735127 -0.090118594 -0.2270703 0.24961075 -0.036418144
-0.15393499 0.1876181 0.06410366 -0.07984562 -0.060522873 -0.075868405 -0.009893282 -0.18298037
-0.014726731 0.20850664 0.20712611 0.22598578 -0.11322517 0.044007443 0.1091968 -0.32218716
-0.04652964 0.027206842 -0.003943508 0.059244204 0.13957971 0.0075553413 0.003611431 0.072158664
-0.16270386 0.01885625 -0.036158726 0.09058435 0.21203241 0.051241968 -0.01889307 -0.014922452
-0.05908099 0.2649945 0.093496986 -0.04025131 0.24941753 -0.20914358 -0.34294018 0.15055028
-0.0027921943 -0.096222766 0.04004231 0.29768434 0.2726145 0.16221079 0.38709334 -0.032032665
-0.10587147 -0.06113949 -0.0878744 -0.2957877 0.25962922 -0.003717772 0.022146057 -0.008527091
0.06215947 -0.06995452 0.19147618 0.32080635 -0.028221412 0.117808536 -0.2735337 0.09338951

network_body._body_endoder.seq_layers.0.bias f4 [128]
00000000: a0b8 5d3d 3585 8a3d 1930 1d3d 094d 74bd
00000010: 6fd4 113d 6104 953b b146 1dbc 4470 353d
00000020: 4c75 9a3d 1a04 bbbb 84c6 903d bca1 7cbd
00000030: 91d6 123d 027c c93d c64d 47bd 861d 88bd
00000040: 9f53 513b c06d 19bd a393 94bd 2e34 c6bc
00000050: 64cd 36bc 842e 5a3c c20f debd 9361 173c
00000060: 2c73 803d 1051 783d c7f1 503d 6e42 1d3d
00000070: 1cf7 19bd e070 033d 4579 c9bc 237e bc3c
00000080: 49e3 09bb 41cd a8bc f5ad fdbb 78a0 583d
00000090: fa66 a13c df16 8f3d 738a 823c 1a00 c53d
000000a0: a895 90bd 468f 01bd cf0a 223d 15c7 233c
000000b0: 6cd1 5cbd b3a5 953d d4f5 893c 80c2 1cbe
000000c0: 8435 783d 8f8f 2c3d 68b4 9d3c 0152 2b3d
000000d0: e0a3 c4bd 547c aabb 78f8 3abb 7671 dbbd
000000e0: 27bd 473c 40ef 823d f074 91bd 2e50 7b3c
000000f0: 40a3 123d 0ef4 0fbd 069d 893d b1e9 97bc
00000100: d340 09bd 0333 343c 691c 12bd c3df d43c
00000110: ed0d 90bc 4d0e 26bc 1318 10bd 1778 35bd
00000120: 8db9 3f3d 7e7e 15bd a594 bfbc 14e0 e0ba
00000130: 8598 b63c 7001 50bd be1a 453d 7c0b c83d
00000140: f478 d63c 756b d13c e9c8 62bd 2df6 d33b
00000150: bf7a b03d 011b 763d 3443 25bd 07b8 c6bd
00000160: 29f8 42bc 2f04 72bd cfd2 c5bc 873a f6bb
00000170: 1b7c 283d 44bd b03d 00e3 e0bc 8c53 95bc
00000180: a760 98bc 2ab3 b8bc 4419 203d 9bb8 bbbd
00000190: 6712 adbc 4e74 e9bc 30a3 44bc 3af7 d7bd
000001a0: 100d 023e 8b05 ea3c fcd8 a0bc f418 8f3c
000001b0: 558f 85bd 13fd 62bd 4e08 073d 4c45 333c
000001c0: 2e47 b2bb 8734 303d 5e8e 363d 1206 a6bb
000001d0: 182e c5bc 2c37 91bd 6f83 a2bc 78cc 48bc
000001e0: 58dd 67bd 3d2a 9a3c f297 ab3d 4dc9 cfbc
000001f0: 4fd5 3a3d b67a 8e3d 33df 133d 2cb1 8d3d
0.05413115 0.067636885 0.038375948 -0.05964378 0.035602983 0.004547641 -0.009599374 0.044296518
0.07541904 -0.005707276 0.07069114 -0.06167768 0.035849158 0.09838106 -0.048658155 -0.06646256
0.0031940711 -0.03745818 -0.07254722 -0.024194803 -0.011157367 0.013316754 -0.10842849 0.009239572
0.06271967 0.060624182 0.051011827 0.03839343 -0.037589177 0.032090068 -0.024593959 0.023009365
-0.0021040014 -0.020605685 -0.0077416846 0.05288741 0.019702423 0.06986784 0.015935158 0.0961916
-0.07059795 -0.031630777 0.03956109 0.009996195 -0.053910658 0.07306995 0.016840853 -0.15308571
0.06059791 0.042129096 0.019251063 0.041826252 -0.09601569 -0.0052028093 -0.0028529447 -0.10715
0.0121910935 0.063932896 -0.07102382 0.015338941 0.03580022 -0.035144858 0.06719403 -0.01854405
-0.033509087 0.01099849 -0.035671625 0.025985604 -0.017584765 -0.0101352455 -0.03517921 -0.04430398
0.046807814 -0.036497585 -0.023386309 -0.0017156624 0.022289524 -0.05078262 0.048121206 0.097678155
0.026180722 0.025563935 -0.055367384 0.0064685554 0.08617162 0.060084347 -0.040347293 -0.09703069
-0.011899986 -0.05908602 -0.024148373 -0.007514301 0.04113398 0.086298496 -0.027451992 -0.018228315
-0.018600775 -0.02254637 0.039086595 -0.0916607 -0.021126939 -0.028497841 -0.012001798 -0.105452016
0.12700295 0.028567096 -0.019634716 0.017467953 -0.06521479 -0.05541713 0.032966904 0.010941815
-0.005440614 0.043018844 0.044569366 -0.0050666416 -0.02406983 -0.07090601 -0.019838063 -0.01225578
-0.056607574 0.018818969 0.08378591 -0.025364542 0.045613583 0.06956999 0.03610153 0.069185585

network_body._body_endoder.seq_layers.2.weight f4 [128, 128]
00000000: ab8b 59be d0d1 96be a350 0f3e b600 a93c
00000010: 4198 c2bd aff3 0f3e c423 8a3e b62d d0bd
00000020: a77e e8bd c4d4 013e d9b2 46be 0cde 813c
00000030: 6a6c 4dbd ce20 82bc 7a57 0f3c 8452 97bd
00000040: 4110 c93d 1dbe fdbd 164f 13be 3357 0b3e
00000050: 8cee 7e3d 65ff 083e 656f 9abd 0a05 2bbd
00000060: 3735 3dbe eda6 86bd f1fe f1bd 0278 09be
00000070: df17 16bd fc8c 193e d2c0 51bd bbe2 803d
00000080: c3aa 8fbd 1acc e03d e919 87bc ab31 84bd
00000090: 97fc 72bd 1b99 21be 9b69 30bc 79a3 67be
000000a0: 29a6 863d 58fb 903e c2c2 c93d f9de 5bbd
000000b0: d866 57bc 1d5b c0bd a003 b2bd bdcf 913d
000000c0: 2f35 813d 1b68 dabc 58e3 9bbd f446 e5bb
000000d0: f674 21bc 5261 bf3c b4d2 2cbd 84d9 8bbc
000000e0: a97b 85bd 76c4 02bd c35d 37be 7ee0 72be
000000f0: 32bd 223e f8ab 043b 5bb7 97bd 9d24 d7bd
00000100: 7dc2 a7bd 0ba8 98bd 9d3f 873b c8b2 cfbd
00000110: 9059 4a3b 1e94 6fbd a318 193d bebc aabd
00000120: 6256 a6bd 6c0f dc3c 7edb 0c3d 6a4d 0bbd
00000130: dabd 1f3e ba23 2abd 23e3 c7bd 7ca9 a5bd
00000140: 63cb 01bd 0854 0bbe 930c 4abc 631a ab3c
00000150: 266a f4bd 0f3d 273c 5e06 1b3e 5ec3 be3d
00000160: 47ef 863d f2d6 e7bd 6ac3 523e 78f5 9abd
00000170: 3543 993c 7483 51be 25a8 993d a853 ff3d
00000180: 7582 6ebd bafd 243d bca0 03bd 9133 83bd
00000190: 0545 de3d 93f1 6cbe c6f4 173d b8a5 85be
000001a0: d6fe b0bd 3b31 01bd 0da9 823d 211c 5fbe
000001b0: 9d51 4ebc 88c7 173c 7690 89bd 8c31 853d
000001c0: 9661 7dbb 73b3 64be ab87 f3bc b4f2 bdbc
000001d0: 01b1 acbd 041c e8bd 576a 86bd c39b 4c3d
000001e0: 5108 ddbd d83c 953d 1d3a 08be 9e5f 003e
000001f0: 7b7a 2dbe f60e d0bd 3e7c debb 8f32 db3d
00000200: 6e05 7fbb 8d5d 123d bb51 fbbd f521 04bd
00000210: ca03 043e ea93 f1bd 28b3 8d3d 3868 e6bd
00000220: 7a55 9a3d c385 9b3d 9825 c73d 57a1 a03d
00000230: e114 2d3d 579b f83d 24e9 c3bd 69f2 06be
00000240: 9e4a 81bd fcbe b2bd 6266 0dbe 88d7 4ebd
00000250: 3997 febd 0195 953c b330 1c3d 262a fb3d
00000260: 2918 8e3d e5a9 ba3d e59c e83d bfe1 e8bd
00000270: 09f5 af3d add2 1d3e 115e ccbd 84b9 133e
00000280: 9367 82bd 8418 f83c bf33 3c3d b00f 65bd
00000290: ebc3 af3d 901f dc3d 47bd 133d 0c12 42be
000002a0: 6432 b8bc e132 46bd 7172 c23d 0cf0 a83c
000002b0: 161d 603c c20d 873e 57d6 48bd 9362 b83c
000002c0: 3d83 873d f0ee 7f3c 8969 c4bd 21de 68bc
000002d0: 28c3 ea3d 854e 5ebc 49a9 bd3d 153d d13d
000002e0: 08ce 7dbd 3b84 5abe f061 4bbe cd8d 123d
000002f0: a900 24bd 222c a7bd eda3 1f3d 2e64 70be
00000300: 88b2 9dbb 7262 353e d487 123d 9f5c 263e
00000310: 5a18 57bd 7c72 143d 9c72 92bc 8ded c1bd
00000320: d1f0 523e 69a6 f1bd f3de 43be 5ae3 83bd
00000330: ca49 e1bc 4657 583d def7 3c3d 8e2d c83b
00000340: 2367 60bd 813c 0f3e 3133 90bc cf3d 633c
00000350: e37d 623d 1123 923d a1ae e13b 1e18 27bd
00000360: 31f5 393d 2c2f ce3c b08a c43d 3e4f ad3d
00000370: b78f 05bd a2c5 a6bb 7186 e9bd e409 0b3e
00000380: 250f bebd cb42 903d e071 00be 6d35 48bc
00000390: 3e12 d7bc b8fd 0bbe fcd7 31be b7b4 033e
000003a0: 57c5 5fbe ae35 113d d735 753d 600a c0bd
000003b0: 3e4f 533d 7a7d cebc e560 45bd 8ea5 103c
000003c0: 3c08 503d f1ea 783d 1599 33bc 32e1 af3d
000003d0: 4f1d 353e 8569 1bbe 9f0a 0f3e bc6e b1bc
000003e0: bf63 cbbc 2d6f 99bd ead1 103d e589 80be
000003f0: d574 ba3d 31d0 023c de43 033e fda6 e4bd
-0.21244685 -0.2945695 0.13995604 0.020630222 -0.095016964 0.14057802 0.26980412 -0.10164969
-0.11352282 0.1267882 -0.19404162 0.01585295 -0.05015222 -0.015884783 0.008748883 -0.073887855
0.09817553 -0.12389777 -0.14385638 0.13607483 0.062239215 0.13378675 -0.07540778 -0.041752852
-0.18477331 -0.06574807 -0.11816204 -0.13424686 -0.03664386 0.14995188 -0.05120928 0.062932454
-0.07014992 0.10976429 -0.016491847 -0.06454786 -0.05932292 -0.15781061 -0.010767366 -0.22620954
0.06574661 0.2831676 0.098516 -0.05367944 -0.013147078 -0.093923785 -0.08692098 0.07119701
0.06308972 -0.02666097 -0.07611722 -0.0069969837 -0.009854546 0.023361836 -0.04219313 -0.017071493
-0.06517727 -0.03192564 -0.17906861 -0.2371845 0.15892485 0.0020244103 -0.07408019 -0.1050503
-0.081913926 -0.07453927 0.0041274563 -0.10141522 0.0030876137 -0.058490865 0.03737701 -0.08336781
-0.08121945 0.026862822 0.03438901 -0.034009375 0.15599766 -0.041537978 -0.0976012 -0.08088967
-0.031688105 -0.13606274 -0.0123320995 0.020886606 -0.11934309 0.010207429 0.15139148 0.09314607
0.06588607 -0.113202944 0.20582357 -0.07566351 0.018708805 -0.20460302 0.07502774 0.12467128
-0.058229882 0.040281035 -0.03213571 -0.0640632 0.10853008 -0.23139028 0.03709867 -0.26102996
-0.08642356 -0.03154109 0.063799 -0.21788074 -0.0125927 0.009263881 -0.06717007 0.06503591
-0.0038662902 -0.2233408 -0.029727777 -0.023187019 -0.08432198 -0.113334686 -0.065632515 0.049953233
-0.10792602 0.07286996 -0.13303418 0.12536475 -0.16941254 -0.101591036 -0.006789713 0.10703003
-0.0038913148 0.03573375 -0.12271448 -0.032258946 0.1289207 -0.117957905 0.06918937 -0.11250347
0.075358346 0.075938724 0.09723967 0.07843273 0.04225624 0.12139004 -0.095659524 -0.1317841
-0.0631306 -0.08727834 -0.13808587 -0.050498515 -0.12431187 0.018259527 0.03813238 0.122638986
0.06938202 0.09114436 0.1135805 -0.11371183 0.085916586 0.15412398 -0.09978879 0.14426237
-0.063674115 0.030285127 0.045947786 -0.055923164 0.0858229 0.107482076 0.03606918 -0.18952197
-0.022484966 -0.048388366 0.09494484 0.020622276 0.01367881 0.26377684 -0.049032535 0.022507941
0.066168286 0.015620932 -0.09590442 -0.014213116 0.11463004 -0.013568525 0.09260804 0.102167286
-0.061964065 -0.21339504 -0.19861579 0.035779763 -0.040039692 -0.081627145 0.03897469 -0.23475716
-0.0048125423 0.17713335 0.035774067 0.1624627 -0.052513458 0.036241993 -0.017876916 -0.09469137
0.20599677 -0.11799318 -0.19128017 -0.06439848 -0.027501006 0.052817605 0.046134822 0.006108946
-0.05478586 0.13987924 -0.017602535 0.013869717 0.055295836 0.07135595 0.0068872725 -0.040794484
0.04539985 0.025168978 0.09596765 0.0846238 -0.03260776 -0.0050894776 -0.11402596 0.13577992
-0.09280232 0.0704399 -0.1254344 -0.012219769 -0.026253816 -0.13671005 -0.17367548 0.12861906
-0.21852623 0.035451584 0.0598658 -0.09376979 0.051589243 -0.025206316 -0.04818811 0.008828534
0.050789103 0.060770933 -0.010961791 0.085878745 0.17686962 -0.15176971 0.13968895 -0.021659248
-0.024827836 -0.07491908 0.03535644 -0.25105205 0.09104315 0.007984207 0.12818858 -0.11164663

network_body._body_endoder.seq_layers.2.bias f4 [128]
00000000: 14b6 9d3b 9e29 793d 0bfe df3c f5b8 6dba
00000010: 73db ab3d d281 3e3d 104b e1bc 3ae3 e53d
00000020: 82b5 b13c 1283 12bc 3e2d 2b3c 2e16 c83c
00000030: eab5 0ebc cc34 6ebc 696b e7bc 07fa b23c
00000040: c4d2 bdbb 3932 e33c 92a8 37bc 9ac9 4ebb
00000050: 0bcc 793d f419 e33d 68a4 7a3b 4f0e 85bc
00000060: 76e3 653c d714 28bd 61bd 2dbc e08c 283d
00000070: 47b3 aa3b f76b 55bd aca6 7a3d 3112 3c3d
00000080: 58e4 bc3d c316 2a3c a679 c33d 75be 0a3e
00000090: 2ab2 eb3b 68da 13bd e945 643d 9a0e 193d
000000a0: 68fb ac3d 6c90 a8bc 8a0f 173d e6fe 623d
000000b0: f6c2 5cbd 2a09 f93d 30dc 1cbd f4ea 27bc
000000c0: 7004 ae3d 8102 0f3d 06a6 073d bbc3 813d
000000d0: 1f64 993d a829 77bc aa2a 663c 07cc bc3c
000000e0: aab4 593d c22f 843c 6d3b d23d 6939 843d
000000f0: 3ee9 57bd dc42 e6bb 8bd1 523c 500d dbbc
00000100: f09a a43d ddd5 b53c 0c1d aa3d 9b4e 1ebc
00000110: ee01 a93d 08f5 d3bc 575e b03c 669c 97bc
00000120: 4e1b ac3c 4c19 123c 1b32 c63d 2da3 32bd
00000130: 6a97 bbbb 260b fe3d dfb7 5439 61a9 33bc
00000140: 11d8 5a3c 209c 113d b1c0 9dbb 1197 103b
00000150: a37f 33bd e7cb 2dbd 6b4d e13d 2e5b e4bc
00000160: ab1a 00bd 9453 b53d de01 663d fdf2 b6bc
00000170: afcc f1bb f12c 433d cf4d 1cbb 884a 2dbc
00000180: a86b 8bbc f239 0e3e 07b1 a53d 48bc e43d
00000190: 4bed 0cbc d3ff 57bc 7bb7 34bc 4160 833d
000001a0: bc8d 0b3d 6ee6 ae3d 9479 8a3d ea7d f93c
000001b0: 1e96 443d 9d17 753d d5eb af3c 4765 603d
000001c0: be08 683d 097b 1f3d b5ac 943d 5d95 833b
000001d0: f398 81bc 8e30 023c 0bbf b0bc 0306 82bc
000001e0: 957b 5abc a1d8 643c bb2b b6ba bf46 a43d
000001f0: f0de 1bbc e25b 073d a6ea d73c 882e 763d
0.004812965 0.060830705 0.027342817 -0.0009068393 0.08391466 0.046510525 -0.027501613 0.11224981
0.021692995 -0.008942382 0.010447798 0.024424639 -0.008710364 -0.014538955 -0.02824946 0.021847738
-0.0057929475 0.027733909 -0.011209624 -0.003155327 0.060985606 0.110889345 0.0038244966 -0.016242174
0.014031282 -0.0410355 -0.0106042335 0.041149974 0.00520936 -0.052104916 0.061194107 0.045915786
0.092232406 0.010381403 0.09544687 0.13549216 0.0071928697 -0.03609696 0.055730734 0.03736744
0.084463894 -0.020576678 0.036880054 0.05541887 -0.053896867 0.12159951 -0.038295925 -0.010248888
0.0849694 0.034914497 0.033117317 0.06336161 0.074898 -0.015085615 0.014048258 0.023046507
0.05315081 0.016136054 0.10265241 0.064562626 -0.05271267 -0.007027013 0.012867342 -0.026739746
0.080373645 0.022196705 0.083063215 -0.009662296 0.08252321 -0.025873676 0.02152936 -0.018507194
0.021009114 0.008917164 0.096775256 -0.043612648 -0.005724837 0.1240447 0.00020286393 -0.010965676
0.013357178 0.035549283 -0.0048142304 0.00220627 -0.043822896 -0.042430785 0.110010944 -0.02787551
-0.031275433 0.08853832 0.056154124 -0.022332663 -0.0073791365 0.04765028 -0.0023850088 -0.010576852
-0.017019108 0.13889292 0.08090406 0.11168724 -0.008601497 -0.013183552 -0.011030073 0.06414843
0.034070715 0.08540045 0.067614704 0.030455548 0.047994725 0.059836973 0.021474758 0.054784086
0.056648962 0.038935695 0.07259504 0.004015608 -0.015820002 0.007946147 -0.021575471 -0.015872007
-0.013335128 0.013967664 -0.0013898531 0.08021306 -0.009513602 0.03304661 0.026357006 0.06010297

action_model._continuous_distribution.log_sigma f4 [1, 2]
00000000: 962a 16be 7951 6fbe
-0.14664683 -0.23370923

action_model._continuous_distribution.mu.weight f4 [2, 128]
00000000: 31ed fcbd 86af 323d dfe4 1b3d 4ee0 4dbc
00000010: 39fd e43c ac54 60bd a6b4 37bd 2bcb 66bb
00000020: e547 93ba 90c3 043d 2b19 45bc 65ff 853d
00000030: a77d 123d 186b b03c 8d24 163c 38c0 803b
00000040: 77e9 e5bd 3cb7 ae3d fc22 a6bd d11a 0cbd
00000050: 3c56 243d d36a 593d f9c0 f5bd 3e33 c2bd
00000060: 97a5 bbbb 768d ccbb 57d5 c63c 7e7a a43d
00000070: 4d2b 2abd d6ff 29bd d5bf bcbd 4db9 b43d
00000080: 1ed6 5cbc 57b8 86bc 1775 343d b977 0b3e
00000090: 884d febd 2bca 29bb a8cc 8fb9 9fe3 edbc
000000a0: d5b4 b13d a4df 63bd 0a5e 883c b3a3 f6bd
000000b0: c0f9 e1bb be6a d03d 792e 8339 197f abbd
000000c0: 8f4d b43a 9c18 84bd e5bc 163d c090 e2bd
000000d0: a4c4 4a3d ea29 9f3a 8f2d 01be b126 523d
000000e0: 7880 863c c21f 523d de13 323d 0d50 eb3d
000000f0: 6285 7dbd a44e 91bb dba1 ef3c feed 00bd
00000100: f3f3 ff3d f947 2a3c 32cc e43d caeb eabc
00000110: 770d c73b 0836 b9bc 0bb0 33bd 036d a73b
00000120: c141 c0bd 8d1a 03be 2d11 46bd 0476 d4bc
00000130: d483 343c 4f98 c03d c399 aabc 370e 76bd
00000140: 1bf5 80bd 046a 5dbd 1359 113d 1260 1fbc
00000150: edc3 5fb8 502f 6abd 0309 763d 846e 49bd
00000160: 5802 34bc de39 f63c d5e4 673d eb2d 83bd
00000170: 5c44 933c a10a a43d 6e6a 143c 4c0d f0bc
00000180: aad9 7cbd e7c7 e33d 25ab e53c 820a 8c3d
00000190: 4724 5fbd 7409 a6bd d430 c8bd afc6 ab3d
000001a0: 8831 cabc 8e6d 253c ec8b bd3d c525 8f3d
000001b0: fb1c 913d 5cda 9d3d d446 acbd b42e 03be
000001c0: 22e7 c03d d3f8 a1b9 1976 e13d 0f62 c3bc
000001d0: af2b 86bc 2bd7 adbc 4a69 84bc 6d10 9dbd
000001e0: 7187 8dbc 0068 67bc 358b d4bd 7207 fb3d
000001f0: bc58 2cbd 4494 ccbd 5029 8bbd 8c5d 5c3d
00000200: 78b0 febd bfba 703c c4a2 99b9 76a1 f4bd
00000210: 7521 8c3d 0d25 943d cf4d 65bc 6ab5 0c3e
00000220: 723e f6bd 968f 54bd 1997 af3a 03bb a2bd
00000230: d010 40bc 933d 24bc 2429 53bd 737e 563d
00000240: 25d9 41bc 4b74 e2bd 1e46 6d3c ad3c c23c
00000250: edc1 3c3d 53a1 2a3d c641 9cbd fd5b 07bc
00000260: 8d5b 30be e75c 88bd 99fe 7dbc 3f48 4dbd
00000270: 2917 0b3d 0745 20bd bba6 953d a9f4 6f3c
00000280: 2125 db3d 24f8 6b3c fac8 eb3d 5c79 e73c
00000290: dfa0 f93c 963f 00bd f798 2a3d af09 4f3d
000002a0: 09aa 6b3c 7511 cfbc 4223 b8bd f10e 033d
000002b0: e049 5cbd f28f 953d d4ab 09bd 44aa cdbd
000002c0: ac56 fa3d c23f 633c d312 b73c e4b9 163b
000002d0: 6724 f83b 2c47 5d3b 0eb9 6abd d3ed edbb
000002e0: f43d 9b3d 76a4 8fbc 0a33 9c3d 763c 813c
000002f0: f9fc cdbc c9eb 03be 2ff7 0e3d 7e96 44bd
00000300: 5ae3 b03c fcac bdbd 3b18 d4bd 9b89 b43c
00000310: 499d 903d dd0a 87bd 30b1 9b3d b783 21bc
00000320: 6b85 2c3c b9a0 22bd e313 a23d 9496 04bd
00000330: 642b b1bc f75c ad3d fb12 13be d8f8 fdbd
00000340: fe3f afbc f7e8 2e3d 2348 4cbc a72c 0cbe
00000350: 5623 0bbd 9fcb d5bb 5c02 413d 3a6d 76bd
00000360: c174 f2bb b6ca 893d ab08 aa3c 5d69 b6bc
00000370: f590 a9bc 0981 c2bc 118e d2bd 44b9 4ebd
00000380: 3bf7 9bbd 03c4 b93d 56e4 543d 51a8 c13d
00000390: af11 77bc d4d6 acbd fd6c 21bd 214c d6bd
000003a0: a03b 633d 9254 e13d cded 42ba 4b51 b2bd
000003b0: 2d5b 8dbd 8dab 3e3d dc5f 893b 4c53 583d
000003c0: d55a 51bd 1469 313d 5b29 55bd b8ee ca3c
000003d0: c2aa 49bd c1ac fbbd 6a40 56bd 1adb 75b9
000003e0: 46e9 6fba 158c 4b3d 17a8 aa3b 1306 34bd
000003f0: e5ed d73b d22b 1c3d 4364 fa3c e843 b53c
-0.12349928 0.043624423 0.038060065 -0.012565685 0.027952777 -0.05476825 -0.044850014 -0.0035216312
-0.0011236636 0.032413065 -0.012029926 0.06542853 0.035764363 0.021535441 0.009163988 0.0039291643
-0.112261705 0.08531043 -0.081121415 -0.03420526 0.040121302 0.05308039 -0.11999697 -0.0948243
-0.005726527 -0.0062424494 0.02427165 0.08031176 -0.0415452 -0.04150375 -0.092162766 0.08824406
-0.013478784 -0.016445322 0.044056978 0.1361989 -0.12417132 -0.0025907855 -0.00027427566 -0.029039202
0.08677069 -0.055633202 0.016646404 -0.12042942 -0.0068962276 0.101766095 0.00025020892 -0.08373851
0.0013756024 -0.06450006 0.036801238 -0.11062765 0.049503937 0.0012143229 -0.12615035 0.05130643
0.01641868 0.051299818 0.043475978 0.11489878 -0.061894782 -0.0044344235 0.029251983 -0.031476967
0.124977015 0.010393136 0.1117176 -0.028676886 0.006074603 -0.022608772 -0.04386906 0.0051094308
-0.093875416 -0.12803097 -0.048356224 -0.02593518 0.011017758 0.094040506 -0.020825272 -0.06007215
-0.0629675 -0.054056183 0.03548534 -0.009727495 -5.3349813e-05 -0.057174027 0.060067188 -0.04917766
-0.010986887 0.03005689 0.056614716 -0.064052425 0.017976932 0.0800984 0.009058578 -0.029303215
-0.061731018 0.11122113 0.02803571 0.06837942 -0.054477956 -0.08107272 -0.09774938 0.08387505
-0.024681821 0.010096921 0.092552036 0.06989626 0.07085606 0.07707664 -0.08411947 -0.12810785
0.09419085 -0.00030893701 0.110088535 -0.023850469 -0.016378252 -0.021220764 -0.016163487 -0.076691486
-0.017276498 -0.014123917 -0.10378114 0.122572795 -0.04207681 -0.09989217 -0.06794989 0.05380015
-0.124360025 0.014692961 -0.00029303704 -0.11944859 0.06842319 0.072336294 -0.013995602 0.13741079
-0.12023629 -0.051894747 0.0013396471 -0.07945826 -0.011722758 -0.010024446 -0.051552907 0.052366685
-0.011831556 -0.110573374 0.014482049 0.023710573 0.04608338 0.041657757 -0.07629733 -0.008261678
-0.17222424 -0.06658345 -0.015502595 -0.050117727 0.033957634 -0.03912833 0.07307192 0.014645734
0.10700441 0.014402423 0.115129426 0.02825611 0.030472217 -0.03131064 0.041649785 0.050546344
0.014383801 -0.025276879 -0.089911 0.03199667 -0.05378139 0.07302846 -0.033611134 -0.10042241
0.122235626 0.0138701815 0.022347843 0.0022998983 0.007572699 0.0033764346 -0.05730539 -0.007261017
0.07580176 -0.017534476 0.076269224 0.0157759 -0.02514504 -0.12882914 0.0349037 -0.047995083
0.021592785 -0.0926151 -0.10356184 0.022038272 0.0706125 -0.06593869 0.07602155 -0.009858063
0.010529856 -0.03970406 0.07913949 -0.032370165 -0.021627136 0.08464997 -0.14362709 -0.12400979
-0.021392819 0.04270264 -0.012468371 -0.13688909 -0.033969246 -0.0065245177 0.04712139 -0.06016276
-0.007399172 0.06728117 0.020756086 -0.022267038 -0.020699004 -0.02374317 -0.10281003 -0.05046965
-0.07615515 0.090705894 0.05197557 0.09455932 -0.0150799 -0.08439413 -0.03941058 -0.10463739
0.055476785 0.11002459 -0.0007435948 -0.08706912 -0.06902156 0.046550322 0.0041923355 0.052813813
-0.051112015 0.0433131 -0.052041393 0.024772033 -0.049235113 -0.122888096 -0.052307524 -0.00023446642
-0.0009151887 0.04969414 0.005208026 -0.043951105 0.0065896385 0.038127728 0.030565387 0.022127107

action_model._continuous_distribution.mu.bias f4 [2]
00000000: e6a9 0b3d e16f 3d3d
0.034097575 0.046249274

onnx::Div_61 f4 [27]
00000000: 0e44 033f 6ead 323f 2ee0 f53e d8e3 053f
00000010: c951 283f 5958 fb3e 82e4 083f cb20 1d3f
00000020: 95c6 003f ea55 0c3f a5eb 103f a44d 043f
00000030: 8e47 103f ca72 033f 504f 083f 42c8 143f
00000040: 11b4 e83e b1d9 0c3f 4de5 193f c51b c63e
00000050: a5f7 113f 03aa 1f3f 44ea 9c3e 88b2 173f
00000060: 961e 263f 8006 4e3e 6e12 1e3f
0.5127572 0.6979588 0.48022598 0.52300787 0.65749794 0.4909084 0.53473675 0.61378163
0.5030301 0.54818594 0.56609565 0.5168097 0.56359184 0.5134703 0.5324602 0.5811807
0.4544988 0.5501967 0.6011551 0.3869306 0.570185 0.6236879 0.3064748 0.5925679
0.6489042 0.20119667 0.6174687

onnx::Div_64 f4 [18]
00000000: 53fd 513d 77c8 3e3d bd54 543d e22b 413d
00000010: a5c9 563d f0a9 433d 3851 593d 7c34 463d
00000020: 77e3 5b3d 2fce 483d 4c87 5e3d 0470 4b3d
00000030: 4a3a 613d cd22 4e3d 2804 643d 6ee9 503d
00000040: 70e7 663d acbe 533d
0.05126698 0.046577897 0.051838625 0.04716099 0.052438397 0.047769487 0.05305597 0.048389897
0.053683724 0.049024757 0.054328248 0.049667373 0.05498723 0.050326157 0.055668026 0.051003866
0.05637306 0.05169551
