results/ManAgent/RollerBall/RollerBall-80454.pt (torch, 447900 bytes, 36 tensors)

network_body._body_endoder.seq_layers.0.weight f4 [128, 8]
00000000: ce2f c2bd b48e e63e 67a2 dabe 92fb 8ebe
00000010: e9bb 4bbe 6c32 ba3e df32 263d b747 40bf
00000020: 2667 36bf 0e43 c23e 6310 f8bd 1a4e 293e
00000030: 605f d4be 12ae 86be 6561 0c3f dbc9 82be
00000040: 93b5 303f 8cd9 90be 658a 0b3f 08b1 4abd
00000050: aebd 8cbe 4782 26bf d484 443f 0f84 24bf
00000060: c61d 95be e80d e33e ca46 c0be 8135 d3bd
00000070: dbe9 4c3f cdf8 e93d d1ba c23e ee61 a63d
00000080: 04ee 233e 535d 17be 655b 1a3f 387a e83d
00000090: 85cf 9d3e 283d 24be d377 76bc 6ee5 f73d
000000a0: d639 98bb 04f7 0bbf 1b54 183e 1f69 1abe
000000b0: be13 903d 3a25 39be 3158 09be 66a8 bfbe
000000c0: 8be8 d4bd 4cd3 88bd 61ce d73d 2ef4 593e
000000d0: 14b7 71bf 1fe9 bcbe d1d2 0e3e 0bad 053d
000000e0: ea09 0d3e 563d 083f ee34 d03e 1cfd 3cbe
000000f0: 9135 973e d19e 4cbe fd91 02be d624 f33d
00000100: 7a05 dc3b ffcf 7dbe 1ed4 fd3e 14e4 aa3e
00000110: 9b32 a23e cae0 6cbe aa11 b6be 2021 aebe
00000120: 2d13 1b3d 99a0 2ebf b1c7 bbbe 5039 693d
00000130: ed26 ba3d e16b 35be d19a 8abe d340 b6bc
00000140: 1e9a b03e 4397 c23e 3573 b53e 4567 193e
00000150: 9ea9 9c3d a3fe c2bd 52c5 fc3d 724f bb3e
00000160: 5121 223f 9add 72be c885 d5be fc5d 06bf
00000170: bfcd c23e a36c 09bf ed17 66be 717d 7a3e
00000180: 7cb4 f13e a15b 433e a398 2d3f cd43 a1be
00000190: 2fd3 cb3e 56be b93e cc13 b33b c1b1 db3e
000001a0: 87d1 043f 4479 8b3e be49 f93d c180 9d3d
000001b0: e235 353e 8280 82be 2d52 78bf 8e0d aebd
000001c0: b8f6 1d3d 9589 06be 3d46 843e 60d0 a5bc
000001d0: 95dd 3abd e011 a3be 60ab 08be 63f5 053d
000001e0: 17a8 2cbe 01ea 40bd 4532 f5bd 103b f9bd
000001f0: 088e 97be f75c 773e 7025 503d 09d3 b73e
00000200: 545a 38be 72a4 2d3f b4db bcbe 7784 f93e
00000210: 3f84 833e a333 a83c f9c3 803e 5967 92bd
00000220: ba71 073e 51f7 dcbd 1fed 1bbe b3be 8b3d
00000230: f573 3fbe da3a ae3e ed52 9bbc 8032 b83e
00000240: ecca 8bbe 9bfd 88be a961 a73e f054 8cbc
00000250: 07ff a1be 3a93 f2bd ed31 2d3e 8c33 f3be
00000260: 2caf cbbe 71c2 3fbc d892 03bf 15b6 bb3d
00000270: ef85 33be f833 debe 41c1 d0be 9e34 5e3e
00000280: 7fe5 39bf 3df6 13be 97e7 30bf db91 c2bc
00000290: b951 ac3e 1835 9cbe ce0c 063e a8cb 51bd
000002a0: 7443 02bf 34aa 153f dcce 00be ceba 51bd
000002b0: 0aa7 803e 2c50 933e e34e 283f e23d 48bc
000002c0: f4a0 0cbf 86b8 8bbd 94e5 bfbe bb89 133b
000002d0: 9d55 d13e 0206 2b3f 8d58 c3be 7892 1dbf
000002e0: aa8c a73e 05d8 0dbf c7a8 093e 1b50 143f
000002f0: 55c2 92be 0ba9 da3d ae3d 37bf 7522 0b3f
00000300: e5a2 3abe 6c22 debe bd03 0ebe 10b5 903e
00000310: 7e23 e63e e4da 1e3f f584 de3e 726a fcbe
00000320: 96a0 6bbe e39a 88bd 17b4 02bf e9f2 afbe
00000330: 7df6 973e 85ce 5c3e 1dca 36be 6ed7 5c3e
00000340: 31e9 8c3d 1324 47bd 1a6f 6a3e 455a 3cbf
00000350: 1fdf 2fbf ec25 dc3e 09aa debd bab7 993d
00000360: 2c1f 963e 063f 9a3d 3e97 82be f97b 43be
00000370: 37ee 283e fc88 e6bd a900 363e ade2 243e
00000380: 0cc5 c2be 8a48 153e 32ee 49bd 85a2 033f
00000390: 65bf 1b3f b8e6 e9bd 8b55 923d 536c 283e
000003a0: 92a6 3f3d 8158 433f 54d3 66be 8b5e 4c3e
000003b0: a600 c2bd 546c 083e a405 b73d a778 b1be
000003c0: 3f9b dbbe 8651 96be 6dc8 b9be 3d5d e9be
000003d0: 19d6 353f 84cb 73bf 281e 88be 3d4a 9b3e
000003e0: a99f 04bf 7af8 2abe 5595 4bbe 1955 ee3e
000003f0: f406 ee3d c95d 77be 6eed 4fbe d3ee 983e
-0.09481774 0.4503075 -0.42702028 -0.27926308 -0.19895901 0.36366594 0.04057586 -0.7510943
-0.7125114 0.37941784 -0.121125005 0.165337 -0.41479015 -0.2630468 0.5483611 -0.25544629
0.6902706 -0.28290975 0.5450805 -0.049485236 -0.27488464 -0.6504254 0.7676518 -0.64264005
-0.29124278 0.44346547 -0.37554008 -0.103129394 0.80044335 0.11424408 0.38033155 0.08124147
0.16008765 -0.14781694 0.60295707 0.113514364 0.30822387 -0.16038954 -0.015043217 0.12104307
-0.0046455665 -0.5467379 0.14875834 -0.15079163 0.070350155 -0.18080607 -0.13412549 -0.37433165
-0.103959166 -0.06680927 0.105374105 0.21284553 -0.9441998 -0.36896607 0.13947608 0.03263573
0.13773313 0.5321859 0.40665382 -0.18455929 0.29533055 -0.19982459 -0.12751003 0.1187226
0.00671452 -0.24786375 0.49575895 0.33377135 0.31679234 -0.23132625 -0.35560352 -0.34009647
0.037860084 -0.682138 -0.3667579 0.056939423 0.09089456 -0.17716934 -0.2707124 -0.022247707
0.34492582 0.3800603 0.35439458 0.149808 0.076495394 -0.09521224 0.12342323 0.3658405
0.63332087 -0.23717347 -0.4170363 -0.5248716 0.38047597 -0.5368139 -0.22470064 0.24461915
0.4720801 0.19077922 0.6781103 -0.3149704 0.39809558 0.36278027 0.0054650065 0.42909053
0.51882213 0.27240956 0.12172268 0.076905735 0.17696336 -0.2548867 -0.9700039 -0.08498679
0.038565367 -0.13138421 0.25834838 -0.020240963 -0.045621473 -0.31849575 -0.13346624 0.032704722
-0.16860996 -0.047098164 -0.11972479 -0.121694684 -0.2960055 0.24156557 0.050816953 0.35903195
-0.18003207 0.6782905 -0.3688637 0.48733875 0.25686833 0.020532435 0.25149515 -0.07148618
0.13226977 -0.10789359 -0.15227173 0.06823482 -0.18696578 0.34029275 -0.01896044 0.35976028
-0.27303255 -0.26755986 0.32691696 -0.017130345 -0.31639883 -0.118444875 0.16913576 -0.47500265
-0.39782083 -0.011704073 -0.5139594 0.09165589 -0.1753156 -0.43399024 -0.4077244 0.2169976
-0.7261581 -0.14449401 -0.6910338 -0.02375119 0.336561 -0.30509257 0.13090822 -0.051219612
-0.50884175 0.58462834 -0.1257891 -0.05120354 0.2512744 0.28772104 0.6574537 -0.012221785
-0.54933095 -0.068223044 -0.37479842 0.0022512514 0.4088563 0.6680604 -0.38153496 -0.6155162
0.32724506 -0.55407745 0.1344329 0.5793473 -0.2866389 0.10676774 -0.7157849 0.5434945
-0.18226202 -0.43385637 -0.13868614 0.2826314 0.44948953 0.6205275 0.43460813 -0.4929996
-0.23010477 -0.06670167 -0.51056045 -0.34365013 0.29680243 0.21563156 -0.17850538 0.21566555
0.06880415 -0.048618387 0.22893944 -0.7357524 -0.6869983 0.42997682 -0.108722754 0.07505746
0.29320657 0.07531552 -0.25506014 -0.1909026 0.16497122 -0.112565964 0.1777369 0.16102095
-0.3804096 0.14578453 -0.049299426 0.5141986 0.6083892 -0.11420959 0.07145222 0.16447572
0.046789713 0.7630692 -0.22541553 0.1995794 -0.0947278 0.13322574 0.08936623 -0.34662363
-0.4289188 -0.29359072 -0.36285725 -0.45578948 0.7102981 -0.95232415 -0.26585507 0.30330077
-0.5180612 -0.16696349 -0.19881184 0.465493 0.1162242 -0.2415687 -0.20305416 0.29869708

network_body._body_endoder.seq_layers.0.bias f4 [128]
00000000: 82e4 393d 89ad 80bd d508 0f3d 1ef6 323d
00000010: 8c4a 993d de40 a53d fc9f 57bd 6f36 eb3d
00000020: 79b2 003d c570 cabc 641c 983c 1237 bc3c
00000030: 481f 9a3c 744b 503d 816e 823d 4691 673d
00000040: 4938 88bd 460b 563c fcda d23d fd73 16bd
00000050: 9f9a 8bbd c2ef 2b3d 4267 45bd 13f4 9f3c
00000060: 71d1 bbbd 5a1b 80bc 4338 753d c294 bfbd
00000070: c8c1 f33d d974 f63b 923f 12bd c51e 063c
00000080: 6f91 283d f809 b03c 0f48 8a3d e7d5 193d
00000090: b190 a53d 8445 37bd 89df 463d 68d4 bebd
000000a0: 3ff0 8cbd da7f 6fbd f264 2a3c 7ae0 b43d
000000b0: 10b1 1b3d 4d41 133e 1b1d 0d3d ba35 403d
000000c0: 3828 113d ff19 ae3b 2a23 6b3d b9e4 913c
000000d0: 38fe 6d3d 9f25 8b3d f59f b33d cac7 b23d
000000e0: 56ee a33c 4644 473d 5c70 2a3d 4379 e43d
000000f0: 9724 fabc 1bd9 973d f066 36bb c259 8a3d
00000100: 5e11 b1bc 3c42 b33d fa8e 633c ef3f 263c
00000110: 47a7 c73d e040 293d 126a 8b3d 80d9 8e3d
00000120: a4f0 493d 6392 903d cff8 b73c 3515 0c3d
00000130: e0a5 313d 94dd dc3d dd6d b8bd 1298 babd
00000140: bb2c 003d fafe 3cbd 1307 e03c f365 a93d
00000150: a3f2 123d be43 123d 245c ff3d 22b7 c7bd
00000160: 9dae a6bd 3941 c73d 2de6 8cbd a501 093d
00000170: 32ee 3bbd 37be 8d3c 4226 2a3d 24cd f8bd
00000180: 4b62 823d aaaf 9c3d ea77 b33d 9fcd f73b
00000190: eaee 7f3d 824f dbbc 21a6 183d ebba 27bd
000001a0: 1ac4 243d 6094 fb3d a6c1 553d f526 023d
000001b0: 6aaf 4abc 003e 013d 7f25 723d 23f0 a5bd
000001c0: c4cf 073e c39b e73c bf56 c13c 1b30 aebd
000001d0: 9cc3 c03b 22b6 a43d 45bc 7b3d 16f7 823d
000001e0: dcd0 5e3d a9d0 f33d 620f 89bd 3eae ba3d
000001f0: 10d3 64bd 7cdd 553d 949d cbbc f638 583d
0.045383938 -0.06283099 0.034920532 0.043691747 0.07484922 0.08069013 -0.052642807 0.11484992
0.031420205 -0.024711976 0.018568225 0.022975478 0.018813744 0.050853208 0.06368733 0.056535028
-0.066513605 0.013064211 0.10295674 -0.03673171 -0.06816601 0.041976698 -0.048194177 0.019525563
-0.09170807 -0.015638042 0.05986811 -0.09354545 0.11902195 0.0075212535 -0.035705157 0.008186047
0.04115432 0.021489128 0.06752025 0.03755751 0.08084238 -0.04474403 0.048553023 -0.09317857
-0.06881761 -0.058471538 0.010400044 0.08831878 0.038010657 0.14380379 0.034451585 0.046926238
0.035438746 0.0053131576 0.057406582 0.017809259 0.05810377 0.06794285 0.08770744 0.08729513
0.020011108 0.048649095 0.04161106 0.11155941 -0.030535026 0.074144565 -0.0027832352 0.06755401
-0.021614727 0.087528676 0.013889069 0.010147079 0.097487025 0.041321635 0.06807341 0.069750786
0.04930176 0.07059171 0.022457508 0.034199912 0.04337108 0.1078445 -0.0900533 -0.09111036
0.03129266 -0.046141602 0.027347123 0.082713984 0.035875928 0.035709135 0.12468746 -0.09751727
-0.081387736 0.09729237 -0.0687984 0.033448834 -0.045881458 0.017302616 0.04154039 -0.121485025
0.06366404 0.07650693 0.08763106 0.0075623537 0.062483706 -0.02677131 0.037267808 -0.040949743
0.04022608 0.1228416 0.05218663 0.031775434 -0.0123709235 0.03155327 0.05911779 -0.08102443
0.1326285 0.028272515 0.023600934 -0.08505269 0.0058826935 0.080425516 0.061458845 0.06394784
0.054398403 0.11905033 -0.06692387 0.09115265 -0.055865347 0.052213177 -0.024855413 0.052788697

network_body._body_endoder.seq_layers.2.weight f4 [128, 128]
00000000: becf aebd 70e5 32bd 920e 0e3d b6b2 10bd
00000010: 321f 3b3e 54b1 033e 6cc0 a1bd aa7a 323e
00000020: 92b8 c73c 7352 1cbd c482 023d 3a1b c63d
00000030: 165b 6d3e cc2f c33d e578 ce3d 46fb 14be
00000040: 1dff 10be 0480 463c de0d 903e c871 dcbc
00000050: 4917 513d c480 d43d 69f7 c8bd 8f1c a5bc
00000060: 1b90 253d d9bb 16be ab81 b7ba 6bf0 153e
00000070: dba4 bfbd 7cf7 00be 17bd aabb 8790 34be
00000080: 927f 25be 6b3d 9f3c 1208 373e e04f 16bd
00000090: 90cf f63c 9fe5 6cbd a2a2 cdbd 4697 4b3d
000000a0: adc9 d13d 6a4e f9bc c6b2 8d3d ad08 4fbd
000000b0: c7c4 69bb 088a 5b3e 8b9f 123e 8eaa 1b3d
000000c0: 864f 9bbc 4979 b4bd 9de1 fa3c 93f3 84bd
000000d0: 696f bd3d 12cd a33d fab4 db3d 269e df3c
000000e0: f2f3 90bd c0db afbd f866 143e 9b10 9f3d
000000f0: 35b8 3fbc 0303 313e 0d26 c83d 49b0 acbc
00000100: e40e fbbd 44cc ca3b 7fc9 203e a496 78bb
00000110: 4441 2c3e c808 d43d 0ce0 4dbe 69ff fd3d
00000120: 16db 56bd 9552 433e 7711 02be 6b60 8c3d
00000130: 4046 2a3d ce64 713c 31a6 f5bd d9dd a5bc
00000140: 45d1 37be 2073 093d f6a9 9ebd 6956 c5bd
00000150: bf2a c0bc 507d 46bc cddd e33d c153 27be
00000160: 7e8b 0a3e 7789 1f3e dd61 d1bd 0f23 523e
00000170: f921 efbd 5c7e ae3d e81e bdba 17c8 3ebe
00000180: 03ce 093d 6235 72bd c2bd 463d 502c 63be
00000190: 4482 de3b 69f7 87bd 1a2c b13c e67b 09be
000001a0: f326 463e 2b5a dabc 0d5f 903b 2e6d 0e3e
000001b0: 31b9 433d 3233 653d 4c6b 0cbb d12c a8bc
000001c0: d0a9 303e 4689 8c3d 5f3d 04be baf2 f03c
000001d0: 2081 7fbb 33de 373c 6f1c 1c3d d948 48bd
000001e0: fdf8 933d 8aef 083e 6239 e3bc a725 30be
000001f0: 0ccf 243d 4d79 553e 2a1b a3bd e734 163d
00000200: 9b75 1f3a 3c86 40be bfb9 9cbd 15d4 c73c
00000210: 56b5 b83c a41e ebbc 3ea0 c7bd 2c5f c6ba
00000220: 054e 96bd d3f3 103e 8c85 a9ba 5b4e 013e
00000230: 4e62 77bd 2a1f 29bd d565 f8bc 5267 043d
00000240: b440 35be e79c d6bc b7f8 5bbc 347a 3b3c
00000250: f466 99bd e53a 203d 1030 cbbd 2a64 c8bd
00000260: 638c b2bd 68bc 5ebb ece5 983c 56ba cd3d
00000270: fd01 023c b46c 703b 5c74 43bc 05f9 06be
00000280: 11f3 b43c 6ac2 023d 1620 883d 3dd3 033e
00000290: a0f3 e83d ce1d dbbc 572a d3bd d8c7 32bc
000002a0: 39c6 9e3b 81ae 9f3d 2c14 e13d 0a9e 86bc
000002b0: aa39 b83d 9aef d03c baa7 a3bc 4a4b 563e
000002c0: 7357 c73c f72e 7c3d 2431 6bbc bf64 80bd
000002d0: 3fd3 88bd 64ac 88bd e7fe 5abd 14b0 abbd
000002e0: 96b3 48bc 54c8 493e 3a4d c7bd c91e cf3d
000002f0: 74e0 6e3d 9c08 a73d e064 1abe dc70 01be
00000300: 902b 283d 5497 d4bc 11af cf3d e726 213e
00000310: 8495 303d 2d14 85bd cd85 d13d c59d 7a3c
00000320: cf0b 013e 5d67 89be ffc9 18be 3863 cebc
00000330: ae93 6c3c fd28 8b3d 6a30 013e 9457 34be
00000340: 3e79 69be 2df3 de3d 67be 4a3e 2912 9c3d
00000350: 7834 943d 7709 24bd 7ffe 903e e91e 60bd
00000360: 4df2 27be 4528 b13d 31de 2abd 5af6 963d
00000370: 3747 ff3d 56f0 afbb e24c 2abc 4820 ba3b
00000380: a769 903d 4421 2f3e 4e3d b4bc 6b42 b83d
00000390: 893e 633d 1928 8ebd ab4f c33d e3f4 b0bd
000003a0: c93c 36be a6d2 a33c ef83 f1bc 36b4 f23d
000003b0: cbd6 5dbd c5f8 46be 599c 6b3d 3fd0 24bd
000003c0: 9d74 5e3d 9d3b 1f3e d50c b13c 04c6 9ebd
000003d0: f6e7 dd3c 1129 e03c 4cf2 03be 861a af3d
000003e0: 802c 1d3e d33e 50bd 5a3e 42bd 7e41 b43d
000003f0: bdf5 573d b33c 243e 3b2a 263d 4bcb ac3c
-0.085357174 -0.04367584 0.034681864 -0.035326682 0.18273619 0.12860614 -0.0789803 0.17429605
0.024380002 -0.038164567 0.03186299 0.09673162 0.23179278 0.09530601 0.100816526 -0.14548978
-0.14159818 0.012115482 0.2813558 -0.026909724 0.051047597 0.103761226 -0.09812815 -0.02015522
0.040420633 -0.14720096 -0.0014000436 0.14642493 -0.093576156 -0.12594408 -0.0052105295 -0.17633258
-0.16161945 0.019438466 0.17874172 -0.03669727 0.03012827 -0.05783617 -0.10040785 0.049704812
0.10243545 -0.030432899 0.06918864 -0.050545383 -0.0035670267 0.21439373 0.14318673 0.03800445
-0.018958818 -0.08812196 0.030625159 -0.064917706 0.092497654 0.079980984 0.10727878 0.02729709
-0.07077779 -0.08586836 0.14492404 0.07766839 -0.011701633 0.17286305 0.097728826 -0.021080153
-0.122586995 0.006188901 0.15701865 -0.0037931586 0.16821772 0.103532374 -0.20104998 0.12402231
-0.05245503 0.19074471 -0.12701975 0.06854328 0.041570902 0.014733506 -0.11994589 -0.020247387
-0.17950924 0.033557057 -0.07747261 -0.09635622 -0.023457883 -0.012114838 0.111262895 -0.16340543
0.13529775 0.15579782 -0.10223744 0.20521186 -0.11676402 0.08520195 -0.0014428766 -0.18631016
0.033643734 -0.05913294 0.04852081 -0.22184873 0.006790431 -0.066389866 0.021627475 -0.1342617
0.19350795 -0.026654324 0.004405862 0.13908836 0.047784034 0.055957027 -0.0021426259 -0.020529183
0.17252278 0.0686212 -0.12914036 0.029412616 -0.0038986877 0.01122241 0.038113054 -0.048897598
0.07225225 0.13372627 -0.027737323 -0.17201863 0.040236518 0.20847054 -0.079641655 0.036671545
0.0006082893 -0.18801206 -0.07652616 0.02439312 0.022547405 -0.028701134 -0.09747361 -0.0015134565
-0.073391 0.14155512 -0.0012933477 0.12627546 -0.060396485 -0.041289486 -0.030321995 0.032325096
-0.17700464 -0.026197864 -0.013425997 0.01144271 -0.0749034 0.039118666 -0.099212766 -0.0978473
-0.08718183 -0.003398681 0.018664323 0.100453064 0.007935044 0.0036685886 -0.011929598 -0.13180931
0.02208856 0.03192369 0.06646745 0.1287355 0.11374593 -0.02674761 -0.1031081 -0.010911904
0.0048454073 0.07796956 0.109901756 -0.01643278 0.089953735 0.025504876 -0.01997744 0.20927158
0.024333691 0.061568227 -0.014354978 -0.06269216 -0.06680917 -0.06673506 -0.05346575 -0.083831936
-0.012249848 0.19705325 -0.09731527 0.10113294 0.058319524 0.08155939 -0.15077543 -0.12640709
0.04105717 -0.025951065 0.10140813 0.15737496 0.04311134 -0.06497989 0.102305986 0.015296404
0.12602161 -0.26836672 -0.14920805 -0.025193796 0.014439506 0.06794927 0.12616125 -0.17611533
-0.22800156 0.10886226 0.19799195 0.07620651 0.0723657 -0.04004809 0.28319165 -0.05471698
-0.16401024 0.08650259 -0.041715804 0.073712066 0.12464755 -0.0053692264 -0.010394307 0.0056801178
0.070514016 0.17102534 -0.022001889 0.08997043 0.05547956 -0.06941242 0.0953668 -0.086404584
-0.17796625 0.019997906 -0.029481856 0.11850779 -0.05415992 -0.19430836 0.05752215 -0.04023766
0.05431043 0.15550084 0.021612564 -0.07752612 0.027088147 0.027363332 -0.12885398 0.08549981
0.15349007 -0.050841164 -0.047422744 0.08801554 0.05272459 0.1603878 0.040567618 0.021093031

network_body._body_endoder.seq_layers.2.bias f4 [128]
00000000: e239 7b3d adfb 573d e3f8 73bb d6a2 edbc
00000010: 30d0 65bb 7b94 043c 4cf2 b23d 85e3 bbbb
00000020: 0715 8dbc 101e d33d 2a63 b3bb f0b4 fc3c
00000030: c708 a73c 256a 8e3d d7bb 423d 9202 b43d
00000040: e54c 49b8 8e17 c3bc 814b dc3b e829 5bbc
00000050: b78c 843d daa8 83bc 0f14 9e3c c8f1 983d
00000060: ebc5 7e3d 0714 693d 899e 81bb 8fc6 a5bc
00000070: 8c7b 823c 5ee4 5bbd 103b b13a 266f a13d
00000080: 4b15 c73d e432 2f3d 5b88 793d 556b 9d3d
00000090: e864 963c 245d d0ba fcdf 0a3e 213a dc3d
000000a0: a40d 053d 884c 5c3b b628 8cbc 6f31 933d
000000b0: 9e24 273d a4f7 1bbd a75a dd3d 7a3b b73c
000000c0: 3343 bd3c c683 223d 4985 9c3c 2c6d 53bb
000000d0: 8408 2d3d 2300 aebd e289 e7bc d4ef 193c
000000e0: c9b2 463d 29e6 243d 48b8 463d 1142 353c
000000f0: 0e7d 3dbd 48c1 f23c 33d9 f93c 0855 acbd
00000100: 000e fdbc e4c1 183b 2e78 8c3d 49b6 cf3c
00000110: af11 8a3d 0d58 393b bb97 fb3d c5d5 49bc
00000120: d359 203d 6efd 4d3d 229c 7d3c e4c1 24bd
00000130: c2c9 dd3c 1a4f b8bc fba9 d33c 860d 8e3d
00000140: 3189 0d3d aaee 443d fc8d 273b 8399 5f3d
00000150: e1d8 6ebb 5e7f 28bc 9d42 73bb fe6d eb3a
00000160: 2b25 993c e01c 79bd 581a b6bc b2dc 813d
00000170: 159a e0bc 5023 283d 2d24 05bd 2c9c fa3c
00000180: a387 4cbd 19b8 9e3d e341 213d 4ebb a7bc
00000190: 6d38 72bc 7231 393d d8ef 7a3d 80b1 933d
000001a0: 0a1b 61bd 68bb 27bc e13d 5e3d 38cd 523c
000001b0: 3262 27bd 5b2f fd3b 2aaf fb3c 9183 9a3d
000001c0: b6a0 dfbc 83a1 cebb 3de0 b73c bc60 a2bb
000001d0: 8e37 c73c de5f 90bc 5243 0c3d 429a 3cbc
000001e0: 5429 72bd fad2 c53d 11ce f23c be2b 733d
000001f0: adca d93d dcea d03d 10ef 013d 214a f43d
0.0613345 0.05273025 -0.0037227205 -0.02900831 -0.0035066716 0.008092041 0.08737621 -0.0057339096
-0.01722194 0.10308468 -0.0054744678 0.030847996 0.020389928 0.06953839 0.04754242 0.08789553
-4.7993748e-05 -0.023814943 0.006722868 -0.01337669 0.06472152 -0.016071726 0.019296674 0.07467991
0.062200468 0.056903865 -0.0039556664 -0.020236282 0.015928052 -0.053684585 0.001352163 0.07882528
0.09720858 0.042773142 0.060921054 0.076864876 0.018358663 -0.0015896899 0.13562006 0.10753275
0.03248371 0.0033614952 -0.017109256 0.07187163 0.040806405 -0.038077965 0.10808306 0.022367228
0.023103332 0.03967645 0.019106524 -0.0032261116 0.04224445 -0.0849612 -0.02826399 0.009395558
0.048510347 0.04025856 0.048515588 0.011063115 -0.04626184 0.02963318 0.030499076 -0.08414656
-0.030890465 0.0023308927 0.0685886 0.025355475 0.06741654 0.0028281242 0.122848 -0.012319033
0.039148163 0.050290518 0.0154791195 -0.04022397 0.027073745 -0.022498656 0.025837889 0.06936173
0.034554664 0.04807917 0.0025566807 0.05458976 -0.0036445188 -0.010284273 -0.0037118562 0.0017961857
0.01869448 -0.060818553 -0.022229359 0.063409224 -0.027417222 0.0410493 -0.032505203 0.030592047
-0.04993404 0.077499576 0.039369475 -0.020475056 -0.014783961 0.04521317 0.06126389 0.0721159
-0.054957427 -0.010237552 0.05425823 0.012866311 -0.04086513 0.0077265925 0.030723173 0.075446256
-0.027298313 -0.006305875 0.022445792 -0.0049553793 0.024318483 -0.017623838 0.03424389 -0.011511387
-0.059121445 0.09659381 0.029639276 0.059367888 0.106343605 0.10201046 0.03172213 0.119282015

action_model._continuous_distribution.log_sigma f4 [1, 2]
00000000: 691f 70be 37bf febd
-0.23449482 -0.12438815

action_model._continuous_distribution.mu.weight f4 [2, 128]
00000000: fb72 443d 675f cb3d 953c 383d 1bd8 10bb
00000010: 8197 973b d877 383d cfc6 26bd 84d8 30bb
00000020: 10d8 863c 652d f4bc 07c9 903c d467 80bd
00000030: e750 b6bd a685 9dbd d82e d83d b5fc 66bd
00000040: a5c1 c13c 7c4a 313d 34cd 45bd e34a 003d
00000050: 63a8 8d3d 1978 9cbc 8ad7 8d3d b46f cfbd
00000060: 8312 94bd 24b5 a83d cf56 4f3d b414 143d
00000070: 7f15 6abc d774 a13b 19d7 90bb 1402 04be
00000080: fe77 d93d 9376 563d e475 323c e016 f5bd
00000090: 5657 40bd da03 683d 1d07 1bbe a207 563d
000000a0: 91a3 893d 1b58 bdbc d56f 263d 1fc1 ec3c
000000b0: f65f cdbd ecb4 233d f94f de3d baed ab3c
000000c0: 9714 a33d 712a 943d 9a2e 0cbc 82e3 4dbd
000000d0: ab42 863d 2a86 9b3c 18ac 0bbb 28c8 6abc
000000e0: d5fb a23d ec9a 83bc fe85 91bd 5422 043d
000000f0: b7e3 fa3b c6be 643d 46b8 783d e17d cabb
00000100: 68d8 7d3b 597e 253d dbfd b33d 75aa 113d
00000110: c270 e43d a4cf d8ba b612 b9bd 4cd9 03bc
00000120: 3ea4 ac3d b96a 0d3c 8ad0 3ebc 296c 213c
00000130: 92e2 9c3c 2ef2 3ebb 78a1 2a3d 2bfa 4ebd
00000140: 7a44 4e3d b66b 203d 03ac 7f3a 2e92 a03d
00000150: 5bbf 8d3d 55d9 2c3c 3e47 813d 83b5 c13d
00000160: 4c63 823c f3ed 843d e3da 5f3d c4a4 16bd
00000170: a42d 333c b5a5 d4bd 8b56 3c3c 84fc 593d
00000180: 56b7 d53b fc3c 223d 8f4e 6c3d 5071 ccbc
00000190: ba44 5f3d c121 bebc f94b e03c f06b 1b3c
000001a0: f0dc fb38 9964 0a3c cd86 9d3c 418b 313c
000001b0: 403f 0fbd b50a a53d 647b b3bd 40e4 08be
000001c0: 65e9 0dbd 6abb 4bbd 70b0 8f3d 9cad a13d
000001d0: fe73 e9bc 76d5 fa3b 9b5d 90bd c650 0b3d
000001e0: ffb6 fb3c b1f1 73bd f41f 4b3b b140 c13d
000001f0: e402 e63d 76ca 913d 80e0 6abb 1b4d 1fbe
00000200: 0be9 da3d 14f4 15bd 421f 4cbc a54d 8fbb
00000210: 521f 15bd 7013 90bc abcb f1bd eac2 1abd
00000220: 44fc 09bd f997 1c3e 1a4b 5abc 5945 30bd
00000230: 71c0 f2bd c469 a33d e5d1 c4bc 7a8f e23d
00000240: d38b dbbd 0926 e7bc 33bd 753d 2a30 d03c
00000250: 4997 4cbd 4c7c d3bc 35f2 a6bd dcda a93d
00000260: 52a2 44bd 3d43 883d db7e dbbc a9d8 87bc
00000270: 4e0d 88bd 4b79 07bd cacd 59bd 29b5 23bc
00000280: 7c8a 263e a34e 33bd c616 213e 49f7 9abc
00000290: 3826 8ebd 7fea e53c 0229 903d 2652 093e
000002a0: 67e4 1e3d 63ee 123d 39e2 be3c 01a6 ccbd
000002b0: dc70 1dbd ef9a 30bc 0bfd 3e3d 6ff9 763d
000002c0: e638 763b d03c dd3c 975d 62bd 8455 f53c
000002d0: 9466 313d fe23 033d baf1 d2bc 4d56 cabd
000002e0: 466e 9abd 2491 c73d 43df 5dbd fcc6 54bd
000002f0: 877b 4b3d 85e8 8cbd 787b 8cbd 7858 84bc
00000300: c964 c4bc f354 96bc 7048 8d3d 2ee6 a73d
00000310: 27cd af3c ea1a 31bd 8c6f 1f3e 41f1 91bd
00000320: 712e 1dbc 0b4a d3bd dcbe a2bd 7182 913c
00000330: 5d67 3e3d 544b 33bd 7d08 a1bc f5bc f03d
00000340: cadd c9bb 9408 aabd 13db 3d3d 518d 11bd
00000350: d43b 8bbc 4b31 74bd d98f 293d 4d8d 883c
00000360: 0ec8 ebbd 1299 d63c 5022 ec3c c079 e33d
00000370: 819c 58bd c684 e83c 3547 95bc e386 2cbd
00000380: 996b b1bc f374 f5bd 4799 45bc 8fbf c0bc
00000390: b4a3 613d c0eb b53d 2733 e23d b1ee f73d
000003a0: fe9c 3f3d 7bba 4e3d 5d04 c6bd f5d6 b0bd
000003b0: 735e 52bb 5b84 603c c4d2 fd3b 90bb 313d
000003c0: 62e8 4fbc b431 16bd 3627 f93b 0a7c efbb
000003d0: 658a c6bd 59f5 3bbc 0403 5fbc 112c ec39
000003e0: 2701 0cbc cc2e 0f3e 602e ea3d d01f 52bc
000003f0: f680 2e3d 12ee c6bd a440 a9bd ec27 ce3d
0.047961216 0.09930306 0.04497965 -0.0022101465 0.004626215 0.045036167 -0.040716942 -0.0026984522
0.016460449 -0.029806802 0.017673982 -0.06269804 -0.0890215 -0.07691507 0.1055581 -0.056393344
0.023651907 0.043283924 -0.0482914 0.031321418 0.06916883 -0.019100236 0.069258764 -0.101287276
-0.07230093 0.08237675 0.050619897 0.036152557 -0.014287352 0.0049272585 -0.004420173 -0.12891418
0.1061859 0.052359175 0.010892365 -0.11967254 -0.04695829 0.056644298 -0.15139432 0.052253373
0.06720651 -0.023113301 0.040633995 0.028900681 -0.10028069 0.039967462 0.10855097 0.02098738
0.079629116 0.072346576 -0.008556033 -0.050265796 0.06555685 0.018984873 -0.0021312293 -0.0143299475
0.079581894 -0.016065083 -0.07105635 0.0322593 0.0076565403 0.055846 0.06072261 -0.0061795567
0.0038733725 0.040403698 0.087886535 0.03556295 0.11154319 -0.0016541374 -0.09036772 -0.008047413
0.08429764 0.008631402 -0.011646399 0.009852448 0.019151006 -0.002913605 0.041657895 -0.050531548
0.050358273 0.03916522 0.000975311 0.078403816 0.06921264 0.010549863 0.063124165 0.09458449
0.015916489 0.06490698 0.054652106 -0.036778226 0.010936175 -0.103831686 0.011495243 0.053219333
0.0065220995 0.03960894 0.057692107 -0.024956375 0.054508902 -0.023209454 0.027379977 0.0094861835
0.000120097655 0.008446836 0.019229317 0.010836423 -0.03497243 0.08058683 -0.08763769 -0.1336832
-0.03464641 -0.04973928 0.07016075 0.078944415 -0.028497692 0.007654841 -0.07049104 0.03401258
0.030726908 -0.059556667 0.0030994387 0.09436167 0.1123102 0.071186945 -0.0035839379 -0.15556757
0.10688981 -0.036609724 -0.012458624 -0.0043732696 -0.036406823 -0.017587394 -0.11806425 -0.03778354
-0.033687845 0.15292348 -0.01332357 -0.043034885 -0.118531115 0.079791576 -0.024025867 0.11062522
-0.10720029 -0.028216379 0.059994888 0.025413591 -0.049948964 -0.025816105 -0.08151666 0.08293697
-0.048006363 0.0665345 -0.026793888 -0.016582804 -0.06643163 -0.03307466 -0.05317477 -0.009991922
0.16263765 -0.043776166 0.15731344 -0.018916743 -0.069408834 0.028065918 0.070390716 0.13410243
0.03879204 0.035871875 0.02330123 -0.099926 -0.03843771 -0.010779127 0.04662804 0.060296472
0.0037570535 0.027006537 -0.055265035 0.029948004 0.043310717 0.032016747 -0.02575003 -0.09879742
-0.07540564 0.0974448 -0.054167997 -0.05194758 0.04967835 -0.06880287 -0.06859487 -0.016155466
-0.02397384 -0.018351054 0.06898582 0.081982 0.021460129 -0.043238558 0.15569896 -0.07126094
-0.009593592 -0.10316857 -0.0794656 0.017762395 0.046485294 -0.04377301 -0.019657368 0.11754791
-0.0061604725 -0.083024174 0.046351504 -0.03553516 -0.016996302 -0.059617322 0.04139695 0.01666894
-0.11512767 0.026196036 0.028824955 0.11107206 -0.05288363 0.028383624 -0.01822243 -0.042120825
-0.021657752 -0.11985197 -0.01206047 -0.023528842 0.05508776 0.08882856 0.11044913 0.12106074
0.04678058 0.05047081 -0.09668801 -0.0863475 -0.0032099753 0.013703431 0.0077460725 0.043391764
-0.012689682 -0.036668494 0.0076035513 -0.007308488 -0.096943654 -0.01147207 -0.013611559 0.0004504626
-0.008545197 0.13982695 0.114346266 -0.0128249675 0.042603455 -0.09713377 -0.08264282 0.10066208

action_model._continuous_distribution.mu.bias f4 [2]
00000000: f154 573c eee6 493c
0.01314281 0.012323124

exp_avg f4 [128, 8]
00000000: 9e07 303b 3bbc 5c38 c4bf e3ba 6eba 62bb
00000010: afc4 5c38 f8aa 3c39 fdf8 ca3b e835 a03b
00000020: 2e1d 30bb 22f5 ffba bdee ffbb f66b 89bb
00000030: eef4 ffba ec6c 33bb c578 2ebc 1bd4 083b
00000040: 5555 a03b 7b6a 0dbb 3508 203c 8e97 693c
00000050: e469 0dbb a0a0 0ebc 78b6 70bd dabf d4bc
00000060: 6ca5 cbbb dff7 b1b8 193b 69bb e7f0 c3bc
00000070: 2df3 b1b8 59e7 f1bb 92ec f1bb dcf5 2c3b
00000080: f548 db3c b3a9 82ba aa6d 173b ab65 9b3b
00000090: 7ea9 82ba f31b 183b 6e0e febb b700 73bc
000000a0: afaf 883c 36e7 31ba 26f8 5c39 f9bd 3e3c
000000b0: 63e8 31ba efe1 31ba 9bbd a1ba dd92 583a
000000c0: 89c9 6839 a81b e0ba 21ff 2cbc dd90 8abb
000000d0: e819 e0ba 5574 a33a 95ee 44bb c2ff 04bb
000000e0: 3eeb 053d 8ff7 34bb 1419 4dbb e49a 503c
000000f0: bcf7 34bb c887 753a bf1e 5d39 494e 27bc
00000100: 799d be3c a227 21b9 02a4 8f3a a305 c83b
00000110: 5120 21b9 93d3 4a3c 68e0 fa3b 17f2 47bc
00000120: 5eba cbbb 4801 c9b8 a4d7 c83b c6d7 afbb
00000130: a1fe c8b8 90dd c8bb f9b3 e6bb 7ee0 cc3a
00000140: 0f13 5a3c 3a05 9eb7 2040 803b 90a7 aa3a
00000150: c4fb 9db7 cd5b 71ba 15e1 0fbc 670e d6bb
00000160: b04c 4b3b a275 5a3a d79c 0b3b 5c99 39ba
00000170: 7073 5a3a b7f6 45bb 75b2 80b9 059a f139
00000180: 04a0 d93c 1500 5439 300e 0f3b 684a b03c
00000190: 80f5 5339 4390 4d3c 9031 8b3c 92b1 0d3b
000001a0: eceb f63b cf80 f6ba 8961 0a3b a0ce 8b39
000001b0: 7081 f6ba 8eec c73a 0103 103c c8f8 17bb
000001c0: 89cd fa3c 4d91 8dba 353f 23bb a036 173c
000001d0: 7491 8dba 3088 f23b 328a 9e3b 0e33 42bc
000001e0: 68c5 78bb 23a1 683b 1a68 6a3c c916 07bc
000001f0: 24a1 683b 1d1c 213c 805d f63b 272a 8f3c
00000200: f552 a2bb 4db6 08ba cd79 f5ba 81b1 43bc
00000210: fbb4 08ba 7fa5 d6bb 83dd 09bc d129 2a3a
00000220: 76ce bb3b 1174 293b 6f1a 0a3c 4f9b 07ba
00000230: 2374 293b 76d6 ac3c ba4e 183d e903 033d
00000240: 0b86 dd3c 89df 45bb 38b3 94bb 2a5f b63c
00000250: 82df 45bb a8f5 093c 6d2c 95bb 7762 8b3a
00000260: f517 efba 72ab 043a e134 303b 5557 d8ba
00000270: 20ac 043a ad36 58b8 2a1f c3b9 9ea9 403b
00000280: f96b 2bbb 6a5a 1539 a6de 58ba d7bb a6ba
00000290: 545a 1539 9062 09bb 8a37 16bb ad56 8e3a
000002a0: fce5 f0bc aa05 77bb b0ab 8cbc 5dc6 1bbd
000002b0: c405 77bb 3d00 02bd 18e7 30bd 126d d3bb
000002c0: fc99 91bb f62a 9f3a 94f6 623b ae32 83bb
000002d0: da2a 9f3a bb1c fe3a 9bf9 25ba 3d0d e13a
000002e0: fab2 e6bc b517 f33a 0797 3b3c 745f 08bc
000002f0: c716 f33a 0b47 b1bb 318b 1e3b 46b6 d63c
00000300: b8da 42bb fc37 0739 bf1d 55bb 683f 34bc
00000310: 6637 0739 c159 e2ba 37bd 25b9 d84e 21bb
00000320: 5870 93bb 9f32 0c3b d2bb 783c 6738 21bc
00000330: ab32 0c3b 1e91 763b 8ec3 a5bb 6787 b73b
00000340: 98f9 e0bb fab0 b73a f7d5 c7bb 94cd 11bc
00000350: 0cb1 b73a c76e 3d3b 0de5 6b3c 3d03 333c
00000360: 3e06 293c 9b64 913a 2701 c83a 6258 f53a
00000370: 2764 913a c64b f43b 0f3a 6c3c 4667 b83b
00000380: cbb7 47bc 5b37 62bb d910 b5bc 90dc bfbc
00000390: 1336 62bb aec9 99bc c935 e9bc 2fd6 2ebc
000003a0: ffcb afbb 79f2 1cba 03b3 d7bb bcee 5bbc
000003b0: fff1 1cba 8dbd 89bb 9cfe b0bb 3726 01bb
000003c0: 6685 803b 00c8 a9ba 2b80 c9bb 1da1 693b
000003d0: 06c9 a9ba ec86 00bb b8ff 8fb9 39f0 81bb
000003e0: aa63 2e3a e2a3 a13a 4ad2 00bb 48bf bebb
000003f0: d6a4 a13a 0bfa 893b cfaa e63b fd95 f13b
0.002686001 5.262739e-05 -0.0017375876 -0.0034595984 5.2635263e-05 0.00017992768 0.0061942325 0.0048892386
-0.0026872861 -0.0019528011 -0.0078104422 -0.004193778 -0.0019527951 -0.0027378155 -0.010648911 0.0020878378
0.004892985 -0.002157836 0.009767582 0.014257325 -0.0021578008 -0.008705288 -0.058767766 -0.025970388
-0.006214788 -8.486187e-05 -0.0035588203 -0.023918582 -8.485313e-05 -0.007382315 -0.0073829377 0.002639166
0.026768187 -0.0009968787 0.0023106136 0.0047423444 -0.0009968725 0.0023210018 -0.007753185 -0.014831713
0.016685335 -0.0006786467 0.00021073277 0.011641973 -0.00067866425 -0.0006785681 -0.0012339832 0.00082616304
0.00022200322 -0.0017098086 -0.010558874 -0.004228695 -0.0017097564 0.0012470583 -0.0030049433 -0.0020294045
0.032695048 -0.0027613377 -0.0031295465 0.012732241 -0.0027613482 0.0009366241 0.00021087656 -0.010211536
0.023268448 -0.00015368921 0.0010958912 0.0061041876 -0.00015366195 0.012379545 0.007656146 -0.012203715
-0.006217285 -9.5846655e-05 0.006129222 -0.0053662984 -9.5841715e-05 -0.006129928 -0.0070404974 0.0015630869
0.013310208 -1.8837502e-05 0.0039138943 0.0013019908 -1.8833096e-05 -0.00092071 -0.008781691 -0.0065324786
0.003102105 0.00083335687 0.00213032 -0.0007080042 0.00083332416 -0.0030206868 -0.00024547023 0.00046081856
0.02656556 0.00020217926 0.0021828525 0.021519855 0.00020213984 0.012546602 0.016991407 0.0021620733
0.0075354483 -0.0018806698 0.0021115264 0.00026666094 -0.0018806886 0.0015252994 0.008789779 -0.0023189057
0.030615585 -0.0010800749 -0.00249095 0.009229332 -0.0010800795 0.0074014887 0.0048382515 -0.011852993
-0.003795946 0.0035496436 0.014307046 -0.0082451785 0.0035496438 0.009833363 0.0075184703 0.017476154
-0.004953737 -0.0005215153 -0.0018728316 -0.011944176 -0.00052149565 -0.0065504904 -0.008414629 0.00064912165
0.005731399 0.0025856534 0.008429154 -0.0005172984 0.0025856576 0.021098357 0.037184455 0.03198615
0.027041456 -0.0030193052 -0.004537966 0.022262175 -0.0030193035 0.008420385 -0.004552415 0.0010634203
-0.0018241393 0.0005060948 0.0026886987 -0.0016505519 0.0005061049 -5.1549334e-05 -0.00037216517 0.0029397975
-0.0026156886 0.00014243429 -0.00082729233 -0.0012720776 0.00014243397 -0.002096329 -0.0022921287 0.0010859572
-0.02940654 -0.0037692585 -0.01717171 -0.03803097 -0.0037692646 -0.03173851 -0.04318914 -0.006452211
-0.004443405 0.0012143541 0.0034631835 -0.004003844 0.0012143508 0.0019387224 -0.00063314446 0.0017170083
-0.028161515 0.0018546494 0.011449582 -0.008323539 0.0018546217 -0.0054100803 0.0024191851 0.026209962
-0.0029732417 0.00012895459 -0.003251895 -0.011001445 0.00012895241 -0.001726918 -0.00015806114 -0.0024613645
-0.0044994764 0.0021392477 0.015181499 -0.0098401075 0.0021392505 0.0037623118 -0.0050587123 0.005600858
-0.0068656914 0.0014014535 -0.0060985046 -0.008899111 0.0014014556 0.002890514 0.014397872 0.010926065
0.01031643 0.0011092605 0.0015259132 0.0018718357 0.001109247 0.007455322 0.014418139 0.0056275455
-0.012189816 -0.0034517858 -0.02210276 -0.023420602 -0.0034517094 -0.018772926 -0.02846803 -0.010671183
-0.0053648944 -0.0005987059 -0.006582619 -0.013423618 -0.0005986988 -0.0042035044 -0.0054014456 -0.0019706616
0.0039221523 -0.0012953281 -0.006149312 0.003564901 -0.0012953586 -0.001961167 -0.0002746561 -0.0039654044
0.00066524243 0.0012332166 -0.0019656592 -0.0058211423 0.001233245 0.0042107156 0.007039405 0.0073726163

exp_avg_sq f4 [128, 8]
00000000: ad72 5f3a aaa7 1838 7eb1 643a 57f3 473a
00000010: edae 1838 7128 503a 357b 793a 367c 8a3a
00000020: e746 ed3a f617 9738 b52f cd3a fed1 ac3a
00000030: 5a1f 9738 b4cd e13a 48c9 993b 1e50 243b
00000040: 6e6c 983c 527f 0f3a ec06 8e3c d830 5e3c
00000050: 488a 0f3a 6594 393c 6cbe 253d 74b1 093d
00000060: 07fa 9a3b 063f 1939 f244 813b 01f6 963b
00000070: 5443 1939 6687 823b ca38 2f3c 47d3 073c
00000080: 3635 b53b b329 4239 bb18 cc3b 065c 9d3b
00000090: bb38 4239 5066 683b d6ab 4d3c 7892 4e3c
000000a0: 8f2a 123b 9aee a638 cbfe fc3a 89af fd3a
000000b0: f005 a738 c39d ea3a 0efd 063b e13c 213b
000000c0: 2016 433b 8a25 c338 d238 333b a872 fc3a
000000d0: c62e c338 22e7 1a3b f612 cf3b a337 9b3b
000000e0: 9ca7 163c 371a a539 ba13 283c adef df3b
000000f0: 5433 a539 b679 b33b d178 9d3c b7a0 a83c
00000100: 8e7a 243b e8ed cb38 3a5b 143b 8882 163b
00000110: 4f00 cc38 4082 1c3b b311 383b 1cf9 1f3b
00000120: a895 be3a 3abf 4d38 bbaa b43a bebc cc3a
00000130: a9c8 4d38 dc8e 943a 32e9 ce3a f979 c13a
00000140: c9f5 003b dca6 8838 c6b0 ef3a bb15 f83a
00000150: f0c1 8838 c6d3 b53a 745f 793b 4edf 583b
00000160: 8dc7 103b 8f46 9c38 f87f ea3a 638b 863a
00000170: b174 9c38 ccf4 c13a 14a9 663b f473 1f3b
00000180: 8d60 843b e857 0939 6c06 623b 5302 2e3b
00000190: 5b71 0939 f173 263b 6a88 f43b 8fbe e13b
000001a0: 7c31 053b c1f5 a638 73b5 ee3a 123c f23a
000001b0: 8823 a738 f6a7 053b 52c0 063b 8989 ea3a
000001c0: b1e8 973b 8e90 2b39 1569 a03b 408f 6c3b
000001d0: 3699 2b39 a6fa 4e3b 1f2b 023c 6e4f 093c
000001e0: 48c8 9c3b 2b84 1e39 4027 ad3b 9518 8a3b
000001f0: e484 1e39 aea3 433b cc49 563c fd3f 573c
00000200: 2483 8f3b 55aa 0339 d3d5 843b 1714 493b
00000210: 92b2 0339 c3be 2d3b d483 293c ee96 1a3c
00000220: 7674 1d3c dd97 9f39 4b6f 163c 6282 143c
00000230: 1899 9f39 9942 f13b 9591 bb3c c9b6 b23c
00000240: dd19 403b 43a3 0e39 f49d 4e3b 0472 643b
00000250: b8a6 0e39 c62d 673b 1268 883b 7e66 873b
00000260: 923f 3639 159a db36 28ea 1d39 02d8 1d39
00000270: 8f9b db36 696d f538 1f3c 8a39 e4f2 5639
00000280: 03bc c039 7dfb 7337 3404 d439 1e1e ac39
00000290: b20a 7437 69f3 c739 f14a 2c3a 5f4b 1f3a
000002a0: 53f6 253c 660e ac39 bc0e 143c fc90 0b3c
000002b0: e410 ac39 2814 153c 2539 af3c 9ced 853c
000002c0: 9a82 e839 a31e 8937 c623 c339 36e4 063a
000002d0: 8920 8937 fdcd d239 d5fd 1f3a cae3 c639
000002e0: b4fb 893b 7bad 0d39 bc5a 8a3b 66f8 9d3b
000002f0: 21ad 0d39 1f6d 2e3b a529 103c da68 1a3c
00000300: a0e9 903a 8bd2 1538 d3c8 843a f7d9 943a
00000310: 8dd6 1538 403f 703a d47d 2c3b c282 f23a
00000320: 644f 063b b901 a738 6b3b e23a d9de f03a
00000330: fc03 a738 c9e1 fe3a fbe5 1d3b 9e37 353b
00000340: a5c7 5e3b 291a 0739 891a 4f3b 6ed6 5a3b
00000350: 741f 0739 8e6e 463b 44c9 893b 48d6 893b
00000360: 86bd 8a3a 8b4c 0f38 038b 563a 0e3f 443a
00000370: 1d63 0f38 92bd 4f3a 6055 0c3b c32a ba3a
00000380: 2799 293c c4b8 bc39 52ea 113c 54db 2f3c
00000390: 38bb bc39 96fe 2f3c 598a b03c 2b6d 893c
000003a0: 1fe8 6a3a dc7c dc37 22e0 1c3a 1052 6e3a
000003b0: 5289 dc37 4ac0 453a ea44 953a b1fd 253a
000003c0: a6b1 873a 203d 4238 c9d0 733a 9858 533a
000003d0: bb59 4238 3f5e b03a 2fb8 ae3a 7fdb bc3a
000003e0: aa9b b73a de31 7938 684b c73a 3d62 db3a
000003f0: 2435 7938 6763 cc3a e759 293b 1f08 3a3b
0.0008523863 3.6395773e-05 0.0008723958 0.0007627508 3.6402536e-05 0.00079405966 0.00095169555 0.0010565582
0.0018102796 7.204704e-05 0.0015654477 0.0013185141 7.206081e-05 0.0017227442 0.004693184 0.0025072168
0.01860639 0.00054739893 0.017337285 0.01356145 0.00054756226 0.011326884 0.040464804 0.033616498
0.0047295126 0.00014614695 0.0039449865 0.0046069627 0.00014616299 0.003983426 0.010694692 0.008290119
0.005530025 0.00018516816 0.006228534 0.00480223 0.00018522415 0.0035461374 0.012553176 0.012608163
0.00223032 7.95994e-05 0.0019302008 0.0019354682 7.9642865e-05 0.00178998 0.002059761 0.0024602937
0.0029767826 9.305317e-05 0.00273471 0.0019260244 9.307037e-05 0.00236363 0.006319399 0.004736857
0.009195235 0.00031490784 0.010258609 0.0068339915 0.00031509495 0.0054771556 0.019222649 0.020584447
0.0025097462 9.724108e-05 0.0022637383 0.0022965986 9.7275355e-05 0.0023881346 0.0028086721 0.0024409955
0.0014540451 4.9053902e-05 0.0013783792 0.0015620214 4.9062688e-05 0.0011334079 0.001578605 0.0014761082
0.001967775 6.516065e-05 0.0018286936 0.0018927375 6.521109e-05 0.0013872318 0.003805128 0.0033092084
0.0022091598 7.451802e-05 0.0017890921 0.0010264929 7.460395e-05 0.0014797687 0.0035195993 0.0024330588
0.00403983 0.00013098086 0.003448869 0.0026551678 0.00013107566 0.0025398696 0.007462551 0.0068891714
0.0020323684 7.961272e-05 0.0018212035 0.0018481037 7.969799e-05 0.0020394302 0.002056141 0.0017893772
0.0046358933 0.00016361682 0.0048953393 0.0036096126 0.00016364906 0.0031582504 0.007944851 0.008380754
0.0047846176 0.0001511729 0.00528422 0.004214356 0.0001511756 0.00298522 0.013079118 0.013137815
0.004379647 0.00012556587 0.00405381 0.003068214 0.00012559656 0.0026511408 0.010346372 0.0094353985
0.009610286 0.0003043999 0.009181808 0.009064289 0.00030440907 0.0073626754 0.022896567 0.021815674
0.002931229 0.00013602995 0.0031527253 0.0034857998 0.00013604283 0.0035275086 0.004162797 0.004132091
0.00017380554 6.544646e-06 0.00015059917 0.00015053156 6.544818e-06 0.000117028896 0.00026366205 0.00020499114
0.00036761173 1.4542483e-05 0.00040438923 0.00032828836 1.45460235e-05 0.00038137592 0.00065724464 0.00060766
0.010129529 0.00032817124 0.009036716 0.008518454 0.0003281898 0.009099044 0.021389553 0.016348653
0.00044347794 1.6345939e-05 0.00037219952 0.00051457004 1.6346823e-05 0.00040207795 0.00061031926 0.0003793522
0.0042109136 0.00013511434 0.004222242 0.004820871 0.00013511303 0.0026615334 0.008798991 0.009424413
0.0011055954 3.572045e-05 0.0010130651 0.0011356462 3.5724184e-05 0.00091646984 0.0026320117 0.0018502104
0.0020494098 7.9635014e-05 0.001726014 0.0018376961 7.963923e-05 0.0019445951 0.0024093378 0.0027651559
0.003399351 0.00012884349 0.003160151 0.003339197 0.0001288632 0.0030278298 0.004204901 0.0042064525
0.0010585047 3.4165143e-05 0.00081841665 0.00074862025 3.4186163e-05 0.00079246715 0.0021413192 0.0014203418
0.010351456 0.00035995815 0.008905964 0.010733444 0.00035997643 0.01074185 0.021550344 0.016775688
0.00089609803 2.6284186e-05 0.0005984326 0.0009091208 2.6289988e-05 0.0007543607 0.0011388336 0.00063320535
0.0010352626 4.631013e-05 0.0009300826 0.0008062213 4.6336772e-05 0.0013455822 0.0013330037 0.0014408677
0.0014008183 5.941267e-05 0.0015204968 0.0016737651 5.9415717e-05 0.0015593589 0.002584094 0.0028386188

exp_avg f4 [128]
00000000: 3bbc dc38 22f5 7fbb 7b6a 8dbb dff7 31b9
00000010: b3a9 02bb 36e7 b1ba a81b 60bb 8ff7 b4bb
00000020: a227 a1b9 4801 49b9 3a05 1eb8 a275 da3a
00000030: 1500 d439 cf80 76bb 4d91 0dbb 23a1 e83b
00000040: 4db6 88ba 1174 a93b 89df c5bb 72ab 843a
00000050: 6a5a 9539 aa05 f7bb f62a 1f3b b517 733b
00000060: fc37 8739 9f32 8c3b fab0 373b 9b64 113b
00000070: 5b37 e2bb 79f2 9cba 00c8 29bb e2a3 213b
00000080: 1b70 2cbb e91e 3e3a fc47 8d3b 0369 1f3c
00000090: 4759 223b fcb0 793b 72a6 27bb d091 d0ba
000000a0: 6b49 f5b9 9cda 1aba 2ddc dc3b 6601 cdbb
000000b0: 1f8f 1d38 58ca f9bb 9267 67bb 2135 0e3c
000000c0: 5939 45bb a9a7 2c39 4540 373b 0657 12bb
000000d0: 19af ccbb bc94 0c3a 7432 a5bb 7550 6eb9
000000e0: f560 5a3a c6dd 123c bcdd c4ba 5fec 7abb
000000f0: 157e b2bb 7302 4a3a 139b c0bb c6de cdba
00000100: b537 87bb b079 d1bb 37ea 783a 6632 563b
00000110: 9400 2bbb 7a0c bf3b 79ed cf3b 39e3 a3bb
00000120: ba33 8b3b 24e0 92bb 5172 86ba e03f 023b
00000130: 1c04 773b c0ce 8eba a1d1 81bb 5103 22b9
00000140: 4026 12bb 54d9 9538 7c58 893b 08aa 993b
00000150: 7f97 08bb 4aa7 4abb 627e 343b 0d7c 2fbb
00000160: 394a 05ba 9cce b63b a1af 7e3a a17a 51bb
00000170: 5b94 bb38 4f20 c739 e709 ab37 22dc a4ba
00000180: e32d 7339 be6d 0aba 0c4b 26bc 41fc ad3b
00000190: 49cc 813b 0ea7 b1ba 5734 9eba 2baf d63a
000001a0: f7e4 bdbb 7ac5 efbb 1bc6 a5bc 016a c3ba
000001b0: 41c7 d23a e2de fe39 d189 9cbb b186 1f3b
000001c0: 67f1 beba 058f 90bb e020 8f3b c4bc 2f3b
000001d0: 6968 10bb 119e a83b a695 04bb 6a38 473c
000001e0: 7509 123c 448b 73bc 0dfa 9f36 ce4d 0a3c
000001f0: dfe1 233b a8d5 aaba 0129 6a3a 0bb8 643b
0.00010525478 -0.0039056023 -0.004315672 -0.00016972375 -0.0019937574 -0.0013572935 -0.0034196172 -0.0055226753
-0.00030737842 -0.00019169331 -3.7675003e-05 0.0016667137 0.00040435852 -0.0037613397 -0.0021601499 0.007099287
-0.0010430306 0.005171307 -0.0060386104 0.0010121895 0.00028486858 -0.007538517 0.0024287081 0.0037092988
0.00025790918 0.0042784954 0.002802907 0.002218521 -0.0069035715 -0.0011974118 -0.0025906563 0.0024664332
-0.0026311937 0.0007252531 0.0043115597 0.009729627 0.0024772452 0.0038099876 -0.0025581387 -0.0015912596
-0.00046784742 -0.0005907209 0.006740114 -0.00625627 3.756501e-05 -0.007622998 -0.0035309535 0.008679659
-0.0030093996 0.00016465657 0.0027961892 -0.0022329702 -0.006246459 0.00053627393 -0.005041415 -0.00022727421
0.0008330488 0.008964008 -0.0015019695 -0.003828786 -0.005447159 0.00077060534 -0.0058778613 -0.001570665
-0.004126514 -0.00639268 0.000949535 0.0032683848 -0.0026092874 0.0058303447 0.0063454476 -0.0050014523
0.0042481096 -0.004482286 -0.0010257458 0.0019874498 0.0037691658 -0.0010895357 -0.0039617573 -0.0001545076
-0.002230063 7.145354e-05 0.0041914564 0.0046894588 -0.0020842252 -0.0030922466 0.002754115 -0.002677682
-0.00050846074 0.005578829 0.0009715502 -0.0031963962 8.944488e-05 0.0003798031 2.03894e-05 -0.0012577812
0.0002319138 -0.0005280635 -0.0101497285 0.005309612 0.0039611203 -0.0013553814 -0.0012070042 0.0016379108
-0.005795117 -0.007317242 -0.020236066 -0.0014908911 0.0016081111 0.00048612716 -0.004777171 0.0024341757
-0.0014567793 -0.0044115805 0.0043679327 0.0026815394 -0.002203489 0.005145796 -0.00202308 0.012159446
0.008913388 -0.0148647465 4.767679e-06 0.008441402 0.0025006456 -0.0013033645 0.00089325017 0.0034899737

exp_avg_sq f4 [128]
00000000: aaa7 1839 f617 9739 527f 0f3b 063f 193a
00000010: b329 423a 9aee a639 8a25 c339 371a a53a
00000020: e8ed cb39 3abf 4d39 dca6 8839 8f46 9c39
00000030: e857 093a c1f5 a639 8e90 2b3a 2b84 1e3a
00000040: 55aa 033a dd97 9f3a 43a3 0e3a 159a db37
00000050: 7dfb 7338 660e ac3a a31e 8938 7bad 0d3a
00000060: 8bd2 1539 b901 a739 291a 073a 8b4c 0f39
00000070: c4b8 bc3a dc7c dc38 203d 4239 de31 7939
00000080: 3a82 993a ef9c a23a 2676 0b3a 6718 d03a
00000090: 1bce 3e3b 09fe 273a 94e9 0c3a 1921 6f39
000000a0: 905f 8e38 1676 e638 abf3 cc3a 4e10 3f3a
000000b0: f068 5d38 27b1 a43a 2bf4 8b39 454b 203b
000000c0: 3ec0 bb39 6b74 ba39 11cc 8e3a 2954 9d39
000000d0: 254a a739 6c31 0a3a f9f1 093a 3e41 c03a
000000e0: 9ba6 1f39 0061 013b 110c ff39 f7e7 453a
000000f0: ae8b 233a e7d5 9d39 a40d 813a 7645 8e39
00000100: 7218 7539 dfcc 873a 0465 f839 469a 4b39
00000110: 285e 193a 53f5 093b 05ba 0a3a 7c2a cd3a
00000120: 030a 9c3a cde2 163a e8bc 673a 003e 8a3a
00000130: 9c5c 9d39 264c 9e3a 0dac 8f39 97ac a739
00000140: 4fe2 033a 0cbd b438 e930 b03a ed0c bb3a
00000150: a14f 5d3a 41e5 9739 69ea 7e3a 834e 083a
00000160: 8d15 d439 555f 953a 0407 9638 f6ee 6f39
00000170: db9e 2639 5e23 9438 a531 6f3a 2c83 1a39
00000180: cc9e 483a b8af dd39 033f 033b 5aca aa3a
00000190: 2e55 483a 53cc 6639 43b5 833a 4891 da39
000001a0: 9391 103b b5ef 783a beac 5d3b c6b0 5739
000001b0: 1c61 b539 2fba 0a3a 52a4 443b 1901 9538
000001c0: 7f3e ea3a 47ab b939 33b0 033a df66 3a39
000001d0: 393d 9438 27de b23a aed2 263a a7a2 293b
000001e0: be26 6e3a 8511 ee3a 91e0 aa38 21ab 993a
000001f0: a1e7 9339 a3b8 d039 8fac 3039 d2b1 f139
0.0001455831 0.00028818817 0.0021895957 0.0005845878 0.00074067264 0.0003183976 0.00037221267 0.0012596314
0.0003889643 0.00019621561 0.0002606426 0.0002980721 0.00052392343 0.00031845088 0.00065446727 0.0006046916
0.0005022635 0.0012175996 0.0005441198 2.6178584e-05 5.816993e-05 0.001312685 6.5383756e-05 0.0005404574
0.0001428818 0.00031854006 0.00051537395 0.00013666057 0.0014398326 0.00010513674 0.00018524053 0.00023765067
0.0011711784 0.0012406389 0.00053200347 0.0015876413 0.0029114548 0.00064083986 0.0005375382 0.00022805146
6.7888875e-05 0.0001098925 0.0015636584 0.00072885014 5.2788237e-05 0.0012565003 0.00026694065 0.0024458927
0.0003581065 0.00035563423 0.0010894557 0.00030008078 0.00031907964 0.00052716467 0.0005262192 0.0014667881
0.00015225487 0.0019741654 0.0004864638 0.0007549519 0.00062387704 0.00030104743 0.0009845984 0.00027136103
0.00023374127 0.0010360739 0.0004737751 0.0001941706 0.0005850517 0.0021050766 0.00052920013 0.001565292
0.0011904839 0.0005755842 0.00088401 0.0010547042 0.00030014373 0.0012077137 0.00027403273 0.00031981312
0.0005030976 8.6182816e-05 0.0013442311 0.001427082 0.00084423466 0.00028971772 0.0009724261 0.00051996874
0.00040451848 0.0011396209 7.153864e-05 0.00022881836 0.00015890172 7.0637776e-05 0.0009124524 0.0001473545
0.0007653057 0.00042283325 0.0020026572 0.0013030276 0.00076420873 0.00022010626 0.0010048527 0.00041688443
0.0022059425 0.00094961683 0.0033824886 0.00020569851 0.00034595362 0.0005292026 0.003000517 7.105078e-05
0.0017871408 0.0003541356 0.0005023509 0.00017776665 7.0685935e-05 0.0013646529 0.0006363791 0.0025884302
0.00090847525 0.001816318 8.1480604e-05 0.0011723974 0.00028210602 0.00039810417 0.00016848951 0.00046099589
