results/SnakeAgent/SnakeAgent/SnakeAgent-293291.pt (torch, 448511 bytes, 33 tensors)

network_body._body_endoder.seq_layers.0.weight f4 [128, 7]
000000 69 3a d2 be 56 26 0c 3f b2 83 19 3f 28 66 0e 3e
       -0.41060188 0.54745996 0.59966576 0.13906157
000010 b1 b0 56 be ba e5 bb be d7 bc a7 bd 12 8d d9 3e
       -0.2096584 -0.36698705 -0.08190315 0.4249044
000020 37 3a d9 3d ef 33 25 3e 7a 43 17 be 8f d5 e2 3e
       0.10606807 0.16133092 -0.14771834 0.44303557
000030 98 0c 3f bf 10 b5 14 bf e6 2e a9 3e 6d 66 3a be
       -0.7462859 -0.5808878 0.33043593 -0.18203135
000040 e9 e9 f8 be 3d b1 02 bf ca b6 f8 bd cd 96 92 be
       -0.4861596 -0.51051694 -0.12144239 -0.28630677
000050 62 0b 4f 3c ef 9d c7 3e b5 11 0f be 6f 10 f6 3e
       0.012636991 0.3898768 -0.13971598 0.48059413
000060 f8 6d 78 3e 8d d3 f9 bc 0f db 4a bf 3b 17 5e 3e
       0.242607 -0.030496383 -0.79240507 0.21688549
000070 6c fe 4b be 26 d3 9c bd 55 5a 85 3f 76 78 12 be
       -0.19921273 -0.07657461 1.0418192 -0.14303765
000080 63 4c 55 3f cd 35 cc 3e 25 86 4f be 76 2a c8 3d
       0.8331968 0.39884797 -0.20266016 0.09773724
000090 e0 29 bd bd 81 ba 83 3f b4 78 bb 3e 63 e1 67 bc
       -0.09236503 1.0291291 0.36615527 -0.0141528575
0000a0 c7 ed 09 bd 6d a7 95 be 2b fd 6f be 18 ac 7f be
       -0.033674028 -0.29229298 -0.2343642 -0.24967992
0000b0 2b a6 4c 3e 9f 87 35 be 64 8d 2f 3e 38 9e 51 be
       0.19985263 -0.17727517 0.1714378 -0.20470512
0000c0 f9 07 95 3e 4f 77 6d 3e 3a 3d 2c be d0 70 0c bf
       0.29107645 0.23190044 -0.16820231 -0.5485964
0000d0 8c d4 0f 3f 2a dd 9e 3e 4d 74 b2 3e c0 c1 80 3e
       0.56183696 0.3102811 0.34854355 0.2514782
0000e0 c1 46 ac 3e 8b 83 3d 3e ea 13 30 3f ce ef 06 bf
       0.3364773 0.18507211 0.68780386 -0.5270966
0000f0 8c 3b e8 3e a8 1c 96 be 78 6c 99 3d b4 11 4b 3e
       0.4535793 -0.29318738 0.07491392 0.19830972
000100 fa bd f0 3e 91 cf 17 bf eb 71 1a bd 9d 35 d4 be
       0.4701994 -0.59301096 -0.037706297 -0.41447154
000110 60 6a f9 3e c8 99 91 3e 5b 98 52 be e4 3a 49 3f
       0.4871397 0.28437638 -0.20565931 0.78605485
000120 e4 ce 63 3e 25 7c d6 bd e2 73 96 3e 04 b9 04 bf
       0.22246891 -0.104728974 0.29385287 -0.5184481
000130 fd 10 4c be d5 81 e5 be d8 da 1b bf 84 39 50 bf
       -0.19928356 -0.44825616 -0.60880804 -0.8133776
000140 aa 45 cf 3e 65 45 61 3b dc 51 e2 bd e0 da 0c 3e
       0.40482837 0.0034373638 -0.1105077 0.13755369
000150 6e 22 5d be af 84 8b 3e db a2 22 bf 64 b8 b9 3d
       -0.21595165 0.27249667 -0.6352975 0.09068373
000160 c9 47 58 be f6 7f 01 3d 86 b2 84 bf 46 08 00 bf
       -0.21121134 0.031616174 -1.0366981 -0.50012624
000170 e5 fd 39 bf 1b 51 eb bc b8 98 06 be c3 15 5a be
       -0.7265304 -0.028725198 -0.13144195 -0.21297364
000180 c9 92 ba be b5 8c 61 3e bc 39 4f 3e 09 e8 a6 3e
       -0.36440113 0.22026332 0.20236868 0.32598904
000190 0a 0d 96 3e 65 e0 e3 3e 00 79 03 3f a0 dc 81 3d
       0.29306823 0.44507137 0.51356506 0.06340909
0001a0 cb 7d 0e bd 28 97 96 3e cd 0c 38 3e 1b d0 97 bd
       -0.034787934 0.29412198 0.17973633 -0.0741274
0001b0 6e d3 b5 3e 6c d9 0f be 48 d1 0b 3e 02 97 db 3d
       0.3551287 -0.14047784 0.13654053 0.10722162
0001c0 e6 3b 4c be a8 5d 18 bf 32 b0 dc 3c 0b ee 05 3d
       -0.19944724 -0.5951791 0.026939485 0.03269772
0001d0 5f d7 63 3e 66 d5 b2 bc fa 4b 31 bd 4c 6b 2e bf
       0.22250126 -0.021830272 -0.043285348 -0.6813247
0001e0 0e 91 c6 3e fd 9c a0 be d5 2d aa 3e 69 5a 5f 3f
       0.38782543 -0.31369773 0.33238092 0.8724733
0001f0 1c be 3f bf 1c 10 19 bb 1c d7 ae be 87 f7 e4 be
       -0.7489946 -0.002335555 -0.3414849 -0.44720098
000200 a4 7f 3d 3f 73 db 66 3d e0 58 10 be f8 3f 36 3e
       0.7402289 0.056361627 -0.14096403 0.1779784
000210 95 0d 5e be 2f d6 9d be 2a 6d 62 be df 2f e4 bc
       -0.21684869 -0.30827472 -0.22111955 -0.027854858
000220 8f 04 97 3e a8 f1 cb be 8d 00 1e 3f af 63 fb bd
       0.29495665 -0.39832807 0.6171959 -0.122748725
000230 73 78 05 be 47 14 9b be a8 41 7e 3e f7 42 bc be
       -0.13034229 -0.30288908 0.24829733 -0.3676984
000240 83 6b 4d be 7d 9f 90 bd b6 90 4d bf f5 bd 6b 3e
       -0.20060544 -0.0706167 -0.80298936 0.23021682
000250 da 79 85 3c 12 a0 37 3f f3 2b b0 bd 9d d9 34 3e
       0.016293455 0.7172862 -0.08602133 0.17661138
000260 f4 7c 9a bc 53 74 c3 be f7 57 a2 3e 6d 4f a9 3d
       -0.01885841 -0.38174686 0.31707737 0.082671024
000270 72 8b f6 3e ce b2 03 be 65 2b 0d bf 97 37 87 3e
       0.48153263 -0.12861177 -0.5514434 0.264096
000280 4a cd b0 be dc 13 83 3e 7e 97 2a bf 6c d9 f4 3c
       -0.34531623 0.2560109 -0.6663741 0.029888831
000290 45 89 dd be 62 07 bd 3e 55 6d 68 be b3 01 4c 3e
       -0.4326879 0.36919695 -0.22697957 0.19922523
0002a0 44 12 bf bd 4d b1 a0 3e af ac 07 be 97 4e 06 3e
       -0.09329656 0.3138527 -0.13249467 0.13115917
0002b0 1e 2f 46 3e 82 69 2c 3f f8 27 b1 be b6 83 78 bd
       0.19353911 0.6734849 -0.34600806 -0.060672484
0002c0 0f 5f 3d be 01 f6 c0 3e 70 a7 6b 3e e7 1a 5f be
       -0.18493293 0.37687686 0.23013091 -0.21787606
0002d0 79 f8 08 3f 53 57 0b bf 03 ca ee bb 24 89 44 3e
       0.5350414 -0.5443012 -0.0072872653 0.1919294
0002e0 15 bf fb bd 06 2e 44 bd 39 01 e4 bd b0 a8 58 3e
       -0.122923054 -0.047895454 -0.11133046 0.21158099
0002f0 29 4c 27 3e 2f 86 a1 be 20 de 89 be c1 a2 8b bd
       0.16337647 -0.31547686 -0.2692728 -0.06818152
000300 39 b4 41 bd ae eb 93 bd 2e 9d 25 bf 42 9a 7d 3f
       -0.047291014 -0.07222687 -0.6469296 0.99063504
000310 72 80 a0 be d1 a5 d8 bd d0 24 97 bf f3 84 4b 3e
       -0.31347996 -0.10578502 -1.1808109 0.19874935
000320 d6 bb 8b 3e e1 5c 15 3e f7 4e 1c be aa 6c 27 3f
       0.27291745 0.14586212 -0.15264498 0.65400183
000330 5b b3 9a 3e 3c 4b c4 3e 9f 09 8d 3a c9 9c 27 3e
       0.30214962 0.3833865 0.0010760314 0.16368403
000340 88 d1 03 3e 98 be 8e bc ba 0a 07 bf 62 9e c1 3e
       0.12872899 -0.017424867 -0.5275074 0.3781615
000350 a3 40 e1 bd 5c b3 a7 be 58 1d c3 3e bb 9b f0 3e
       -0.109986566 -0.32754028 0.38108325 0.46993813
000360 4f 04 b6 bd 1e 83 0b 3e d0 1d de 3e e7 1f 11 be
       -0.088875405 0.13624236 0.4338212 -0.14172326
000370 55 0a c3 3d e0 af 79 be 25 11 25 3e f9 f5 99 3c
       0.09523455 -0.24383497 0.16119821 0.018794047
000380 96 92 d7 be 10 72 e6 be ba bc bf be c1 01 d0 3e
       -0.42104024 -0.45008898 -0.37448674 0.40626338
000390 04 fe e8 3e f7 58 a3 3e 0f 6b 3a 3e ec 88 6f 3f
       0.455063 0.31903812 0.18204902 0.935683
0003a0 6f a3 10 3e 98 f4 ca be 42 9f e7 3e 4a 77 03 3d
       0.14124845 -0.39639735 0.45238692 0.032096185
0003b0 c2 73 39 3f c5 51 b4 be b5 f1 ab 3e 8d 1f d8 be
       0.7244226 -0.35218635 0.33582845 -0.4221157
0003c0 26 b9 b7 3e d4 8e 4d be 3f 01 85 be 2b 61 3a be
       0.35883445 -0.20074016 -0.25977513 -0.18201129
0003d0 2f ad 40 bf e8 21 06 bd 21 cf 19 3e 87 1b 6b bd
       -0.7526426 -0.03274718 0.1502042 -0.0573993
0003e0 16 16 89 be c3 43 17 3f 8f ce bb 3d 7d 54 44 bf
       -0.26774663 0.5908777 0.09170257 -0.7669142
0003f0 85 01 74 3e c7 eb 44 be 9f 20 4c 3e a4 15 14 be
       0.23828705 -0.19230567 0.19934319 -0.1446138

network_body._body_endoder.seq_layers.0.bias f4 [128]
000000 21 99 06 3e 8f 35 49 3c e3 db 2d 3d 7b f6 3e 3d
       0.13144352 0.012280836 0.04244603 0.04662178
000010 0e ab db 3c a7 ba 79 3c bf 4b 46 be 5a 08 be 3d
       0.026814964 0.015242255 -0.19364832 0.09278937
000020 9d 7c 8e 3c 10 46 e9 3d 98 be e9 3d 8e 05 67 ba
       0.017393405 0.113903165 0.11413306 -0.00088127784
000030 c2 78 f4 bc af 61 8e 3a 3f b8 b0 bd 17 1c 4b be
       -0.029842738 0.0010862852 -0.08628892 -0.19834934
000040 61 b8 5d 3c bf ff a9 3c e8 f3 75 3d 9d 25 05 3e
       0.013532729 0.020751832 0.06004706 0.1300263
000050 fd e4 1f bc e2 43 9e 3b 55 ac 8f bd 7e 76 fa ba
       -0.009759185 0.0048298696 -0.070152916 -0.00191088
000060 db 50 02 3e a2 6b 1f bd 66 c9 8b 3d e6 6f a8 bd
       0.12726156 -0.038921006 0.06825523 -0.08224468
000070 ee 73 a6 3c 57 09 9d bd c0 96 56 3c b5 dd b8 bd
       0.020318951 -0.07667797 0.013097465 -0.09026662
000080 1f d4 4c 3e 5d 6e 8b 3c 6a 6c ed 3d 68 51 4c bd
       0.20002793 0.017020399 0.11592944 -0.049882323
000090 0d 6c b4 bd ea 96 48 ba 58 57 f8 ba ce 3a de bd
       -0.088096716 -0.00076518825 -0.0018946929 -0.1085106
0000a0 ec d3 0f bd 22 62 b8 bb 12 13 25 3d 27 46 5c 3e
       -0.035114214 -0.0056269327 0.04030139 0.21511136
0000b0 ae ad 8c bd 68 26 07 3d a1 d3 19 3d fb fc 25 bd
       -0.06869064 0.03299561 0.03755534 -0.040524464
0000c0 78 98 26 3e 6b 47 b9 3e 63 5e 0e be 29 a3 77 bb
       0.162691 0.361873 -0.13903193 -0.003778646
0000d0 17 7b a4 3d 0f 38 97 3a 06 13 66 3d 1e 9d ec 3d
       0.0803129 0.0011537093 0.056170486 0.11553405
0000e0 f6 7c 94 bd c1 bc a3 3c a4 f4 ba bd c4 ba f6 3d
       -0.07250397 0.019987466 -0.09128693 0.120473415
0000f0 08 51 c2 3d 1b a9 c2 bd e9 05 5c bb 8e 3a 13 3d
       0.09488112 -0.095049106 -0.0033572859 0.035944514
000100 64 d9 c8 3b 6b 8a 69 3d 98 0d b5 3c 05 76 01 3d
       0.0061294306 0.05701677 0.022101209 0.031606693
000110 ff d7 a5 bd 3d 97 c0 3d c3 c1 e0 bd df eb 1d 3e
       -0.080978386 0.094038464 -0.10974457 0.15422009
000120 e3 61 03 bd 25 bd 23 3e 57 f8 dd 3c 74 8f bc 3d
       -0.032075774 0.15990122 0.027095957 0.09207049
000130 7e 10 69 bd 2d 44 6d 3d 26 04 48 bd 7e d2 05 3d
       -0.056900494 0.057926346 -0.04883208 0.032671444
000140 8c a1 f8 3d 17 9f bf 3d a7 e8 ae 3c dd d9 1b 3d
       0.121401876 0.09356516 0.021351172 0.038049567
000150 ca b8 11 be a7 e1 30 3e 1e 88 98 bd 6a d1 af bd
       -0.14230648 0.1727358 -0.07447837 -0.085848644
000160 23 52 b4 bd b9 0c 9c 3c 7e 06 7b bc 04 e7 1d 3b
       -0.08804729 0.019049035 -0.015321372 0.0024093995
000170 b0 12 39 bd a8 2f 3f bc 03 36 8b bd 40 f6 b3 bc
       -0.045183837 -0.011669077 -0.06797411 -0.021968007
000180 30 ab 90 3d 43 4e 06 3e 93 1c e5 3c e3 00 4d 3d
       0.070639014 0.13115792 0.027967727 0.050049674
000190 df d4 fb 3d 68 ea 02 3d 1a 7b 0c 3d e3 99 c1 3c
       0.12296461 0.03196183 0.034297086 0.02363295
0001a0 e4 bf 17 bd 91 da 17 bd 6c 11 0e bd 16 b2 f1 3b
       -0.037048236 -0.037073676 -0.034684584 0.007375966
0001b0 c8 4d 2a 3d 3b 14 a0 3d df d2 44 bd 61 60 0e 3e
       0.041578084 0.07816359 -0.048052665 0.13903953
0001c0 4b ae 7d bc 5b 5f de 3c 35 2b d6 3d 00 5d 00 3d
       -0.015483449 0.027145078 0.1045746 0.03133869
0001d0 59 ad c2 bd ad db 10 3d 6c 24 14 3d 69 46 0f be
       -0.0950572 0.03536575 0.036167547 -0.13991703
0001e0 29 d2 d4 bd 04 78 01 3e f1 c0 dd bd 4b f8 c4 3d
       -0.10391647 0.12643439 -0.10827816 0.096176706
0001f0 a4 49 98 3d 7d ea 94 3d 4c 4b 84 bd c8 44 35 bc
       0.07435921 0.072712876 -0.06459674 -0.011063762

network_body._body_endoder.seq_layers.2.weight f4 [128, 128]
000000 0f 50 64 3d 51 31 df bc e2 a8 93 bc 1f 94 cd 3d
       0.055740412 -0.027245196 -0.018024866 0.100380175
000010 cb 85 3a be 0c a8 bf bd 81 19 cf bc 43 eb 6f 3c
       -0.182151 -0.09358224 -0.025280716 0.014643493
000020 3d 2f 4c be 36 ff 35 be c3 4e 98 3d 40 e8 95 3d
       -0.19939895 -0.17773136 0.074368976 0.07319689
000030 aa 2a 93 3d bd 9e 82 3d f2 55 5d bd af 2f f7 bd
       0.07185872 0.06377933 -0.054037042 -0.12069642
000040 38 72 bc bc f4 80 6b bc 91 90 56 3e 2f 15 c3 3d
       -0.023003682 -0.014374007 0.20953585 0.09525525
000050 c9 da 64 be 92 a8 f4 bb 6e e5 09 be fd 58 02 bd
       -0.22349085 -0.007466384 -0.13466427 -0.031823147
000060 bb fd c5 bb 01 95 cb 3d 76 00 a9 bd 37 d2 45 3d
       -0.00604221 0.099405296 -0.08252041 0.04829618
000070 b6 fd 1c be d8 84 05 bd 0e 77 01 3d 80 7e 1d 3d
       -0.15331158 -0.032597393 0.03160768 0.038450718
000080 1d f1 3b 3e e2 7e 77 be b4 3f 67 bc 35 50 08 3e
       0.18353696 -0.24169496 -0.014114309 0.13311847
000090 9c b8 cb bd 45 23 f6 bc 37 c5 a2 bd 54 fa 9c bb
       -0.09947321 -0.030046115 -0.07947772 -0.0047905836
0000a0 90 14 5d 3e 8e 8f 04 be 4a 27 e6 bc 00 7a da 3d
       0.21589875 -0.12945387 -0.028094906 0.10667801
0000b0 02 8a 3c be a1 3b e2 3c 8a 1e 14 3d 0f cf f6 bd
       -0.18412021 0.027616324 0.036161937 -0.12051212
0000c0 34 64 8f 3d b7 f7 99 3a 09 28 06 3d cc 28 c7 bd
       0.07001534 0.0011746798 0.032753024 -0.09724578
0000d0 66 63 80 bd 62 25 d1 3b 3c 62 f4 3c a1 19 14 3d
       -0.06268959 0.00638263 0.029831998 0.036157254
0000e0 de 4b a0 bd e6 27 41 3d d9 cf 26 3d 55 e2 e1 bd
       -0.078269705 0.04715719 0.040725563 -0.110294975
0000f0 aa 5e 11 3e ef 15 a3 bd df fd e3 bd bc 06 2a bd
       0.14196268 -0.07963168 -0.111324064 -0.04151033
000100 ca 62 ec 3d e0 be be bb 0f b2 66 3e 87 26 36 3d
       0.1154228 -0.005821094 0.22528861 0.044470336
000110 bd 7a 53 be ca 5c 41 be 6c 4a 20 3e dd bd 60 be
       -0.2065229 -0.18883052 0.1565339 -0.21947427
000120 71 4a a5 b9 e5 c0 26 3d 98 66 04 3e 5b 6b 02 bd
       -0.00031526716 0.040711302 0.12929761 -0.031840663
000130 7c 5f 0c 3e 00 24 24 bd 44 eb 3e bd f3 c9 0c be
       0.137083 -0.040073395 -0.046611086 -0.13748913
000140 10 aa 6c bd 21 32 8e bd b5 4a 3e 3e 1e 5d f4 bd
       -0.05777937 -0.06943155 0.18583186 -0.11931823
000150 e0 3b 82 3d be 34 af bd 0e b7 d2 bd 68 34 e6 bd
       0.063590765 -0.08554982 -0.10288821 -0.112404644
000160 52 ea 74 bd ae 75 3e 3c 6f cb 45 be ac 7d 38 ba
       -0.059793778 0.011624737 -0.19315885 -0.00070377695
000170 c4 db 01 be e5 a9 f1 bc 30 bd 63 3d 18 fc 9e 3c
       -0.1268149 -0.029499957 0.055600345 0.019407317
000180 7d 14 89 bd f9 02 b3 bd 29 d2 a7 bd 2c 59 5b 3c
       -0.06693361 -0.08740801 -0.08194382 0.013387959
000190 5d 06 89 bd e8 d5 a6 3d 50 ae 0d be 33 98 62 bc
       -0.06690667 0.08146268 -0.13836026 -0.013830232
0001a0 3d ef 12 be ed e8 34 bc 09 17 2a be dd a6 92 3d
       -0.14349075 -0.011041862 -0.1661035 0.07160733
0001b0 b3 7d d1 3d 1e 95 5f 3d 15 e3 a5 3d 18 2f 35 be
       0.10229053 0.05458557 0.08099953 -0.17693746
0001c0 1c 7a fc 3c b4 9f 0b be 09 1c a0 bb 51 8d cd bd
       0.030819945 -0.1363514 -0.0048861546 -0.100367196
0001d0 56 41 a1 3d 8d e4 51 3d 1a 07 12 3e dc 9d bb b9
       0.0787379 0.051243354 0.14260522 -0.00035785034
0001e0 3b 14 f0 3d 0f 65 1e bd d8 19 66 bd d9 9b 2c be
       0.11722609 -0.038670596 -0.05617699 -0.16856326
0001f0 be e5 8b bd 12 0c 42 be 66 c1 96 3d f8 51 7d bc
       -0.06830929 -0.18949917 0.073611066 -0.015461437
000200 b5 ae f3 bb b0 9b 22 bd ed 3d 7e 3e 62 2d e2 3d
       -0.007436598 -0.039699256 0.2482831 0.11043812
000210 ee 7a 92 3c 30 02 56 be 69 30 03 3a 41 68 4b 3d
       0.017880883 -0.20899272 0.0005004467 0.04965997
000220 bf 55 f4 3d ad dc b2 3d 83 38 d9 3d 4d c5 df bd
       0.11930417 0.08733497 0.10606482 -0.10926304
000230 01 a1 2b be a2 a5 47 3d d2 b1 ca 3d 31 02 43 bd
       -0.16760637 0.048741944 0.09897198 -0.04760951
000240 9c a6 b2 bd 63 02 aa 3c 8a 0b 7b 3d 04 48 ac 3d
       -0.087231845 0.020753091 0.0612903 0.084121734
000250 95 64 b6 3d 08 60 74 bd ea b3 00 3e be 0c 0c bd
       0.08905903 -0.059661895 0.12568632 -0.03419184
000260 6e bd 0d 3e af 8b 83 3d 9a 53 1d 3d bf e6 1a 3d
       0.13841793 0.06423127 0.038409807 0.037817713
000270 d4 5e 33 be 8e 53 a4 3d 7e d2 5a be c2 b5 0a 3d
       -0.17516643 0.08023749 -0.21369359 0.033864744
000280 50 55 9c be fb ed b0 3d bf a3 ce be 0f b3 a0 bc
       -0.30533838 0.08639141 -0.40359303 -0.019616632
000290 af ff 4b bd 48 f6 02 3e ef 9f ed bc 26 e7 fc 3c
       -0.049804386 0.12789261 -0.029006926 0.030871939
0002a0 f7 b2 12 3d ee 94 e0 bd de df 97 bd cf 55 85 be
       0.035815205 -0.10965906 -0.07415746 -0.2604203
0002b0 4c ea b2 3d ab 4c cf 3d fa 5b 1d 3e 06 a8 d3 bd
       0.08736095 0.10122045 0.15367118 -0.10334782
0002c0 2b 68 b5 be dc 08 5d be 2c 5d f3 3c 7e 96 64 3c
       -0.35431036 -0.21585411 0.029707514 0.013951896
0002d0 49 69 37 be 6b 40 1d 3d ac 01 d0 ba e5 ad 76 be
       -0.17911257 0.038391512 -0.0015869639 -0.24089773
0002e0 80 b0 8c bc a8 2b 22 3e 0e 76 04 3e dc 43 61 be
       -0.017174006 0.15836966 0.1293566 -0.21998543
0002f0 b5 8f 30 be 58 74 5f bd 32 9e 99 3d d6 e4 11 be
       -0.1724232 -0.054554313 0.075008765 -0.1424745
000300 1d 9c 9b bd b6 db 72 bd 32 09 20 3e b8 66 56 bd
       -0.075981356 -0.059291564 0.15628508 -0.052344054
000310 ac 31 31 bc 01 4b 6e 3d c3 ba 13 3e b8 4f a7 3d
       -0.010815065 0.058176998 0.14426713 0.08169502
000320 d1 b8 b9 3d 18 14 f0 bd 34 10 02 3e dd cc 01 bd
       0.09068454 -0.117225826 0.12701494 -0.031689513
000330 4e 63 fd 3d f1 60 f4 3d dd 49 9b bd 6c fe 47 3c
       0.123724565 0.119325526 -0.07582448 0.012206655
000340 32 a7 5c bc fb c0 ef 3d 98 9a 9d 3d 3f 44 0f 3c
       -0.013467597 0.1170673 0.07695502 0.0087442985
000350 6c 21 30 3c 24 21 57 bd e8 62 86 3e 1c 6d 06 3d
       0.010750156 -0.05252184 0.26247334 0.0328189
000360 64 f2 18 3c ca 57 4b 3e 3f 92 7d 3e 7b 3f ef 3b
       0.009335134 0.19857708 0.2476282 0.0073012686
000370 f2 0a 85 3d 55 8e 20 be ed f1 89 3d 15 ff a4 3c
       0.06496228 -0.15679295 0.06735597 0.020141164
000380 0f 33 26 be d3 1d bc bd be 4d b8 bd 9e 84 0c bd
       -0.16230415 -0.09185376 -0.08999203 -0.03430616
000390 72 c4 b8 3c 64 56 03 3e 03 cf 4e 3d a6 f7 2c 3c
       0.02255461 0.12825924 0.05049039 0.010557091
0003a0 86 95 ae 3d b1 b2 50 3d d5 3c ce bd 9a 08 9c 3e
       0.08524613 0.050951663 -0.100701965 0.30475312
0003b0 2b b0 4d 3d 7c c6 21 be 47 a4 38 3b 66 2e 4b 3c
       0.050216835 -0.15798372 0.0028174089 0.012401199
0003c0 79 59 a6 3d df 07 a0 3e 9f f2 ad be eb b1 ce 3d
       0.08122534 0.31256005 -0.33974168 0.10092529
0003d0 e3 9f 46 3e b4 28 1f 3e 94 1b 0e 3c 59 50 c0 bc
       0.1939693 0.15542871 0.008673567 -0.023475813
0003e0 2b d9 01 3e 10 77 32 bd 4c e9 04 bc 14 b8 60 bd
       0.126805 -0.043570578 -0.008112263 -0.05486305
0003f0 35 1a f3 3c 8e 44 fd bd b3 40 22 3c 38 75 3d be
       0.029675582 -0.123665914 0.009903121 -0.18501747

network_body._body_endoder.seq_layers.2.bias f4 [128]
000000 fd 69 00 3c fe b7 e6 3c 06 df d3 3c a1 34 a6 3c
       0.00783777 0.028163906 0.025863182 0.020288767
000010 16 cd 94 3d 9e fe e0 bc 43 85 92 3b 22 30 b2 bc
       0.072656795 -0.027465161 0.0044714524 -0.021751467
000020 05 71 57 3d 0f 39 e4 3c f4 62 6c 3d 98 61 42 3c
       0.05259802 0.027859239 0.057711557 0.0118640885
000030 d5 1a a5 3d f7 9b dd bb d8 e8 aa 3d c5 8b 3e 3d
       0.080617584 -0.006762977 0.08345193 0.046520013
000040 83 0f 3c 3c 46 3e 14 bd 28 86 56 3d 64 95 95 3c
       0.011478308 -0.0361922 0.052374035 0.018259712
000050 d4 15 0a bc f4 a7 b3 3d 35 30 69 3d 95 e0 05 3d
       -0.008428056 0.08772269 0.05693074 0.03268488
000060 ec 30 43 3d 89 69 c3 bc 1c d7 cd 3d 53 19 09 3d
       0.047654077 -0.023854034 0.100507945 0.033471417
000070 a5 86 84 bb ec bc b3 3c 81 a3 fb 39 54 15 80 3d
       -0.004044371 0.02194067 0.0004799627 0.06254068
000080 77 39 39 3d c3 22 61 3d 96 82 39 3c eb 2e 03 3c
       0.04522082 0.054964792 0.011322638 0.008006792
000090 d0 76 90 3a 67 4d 9d 3d af c1 8d bb a5 24 cb bb
       0.0011021737 0.07680779 -0.0043260674 -0.0061994367
0000a0 cf 23 70 3d 5d dd 9f 3d 84 db c7 3d 56 fe a5 3c
       0.0586279 0.078058936 0.09758666 0.020262878
0000b0 1f 8d 84 b9 4e 89 f0 3c 8d e8 de 3c 4f 75 6e 3c
       -0.00025282145 0.029362347 0.027210498 0.014554336
0000c0 06 8b c2 3c f4 f8 0a 3d dc 51 2a bc f4 d7 85 3d
       0.023747932 0.033928826 -0.010395493 0.065353304
0000d0 fc fe 8a 3d d8 cc 8b 3d a9 99 a2 bc 9a 31 be 3d
       0.06786916 0.0682618 -0.019848661 0.092868045
0000e0 98 5a bc bc a0 36 41 3d 17 df c2 3d 05 ab 9d 3d
       -0.022992417 0.047171235 0.09515207 0.07698635
0000f0 d7 6e 96 3c ff 02 7d 3d 86 be 7a bd 0a 4b 55 3d
       0.0183634 0.061770435 -0.061216854 0.052073516
000100 02 1b e5 3d c9 db 0d bc fd c1 c6 3d 0e f6 54 3d
       0.11186792 -0.008658358 0.09704969 0.05199247
000110 8a c2 6b 3d ef f4 8b 3c 19 ed 9e 3d d5 55 27 3d
       0.057558574 0.017084567 0.077600665 0.04085334
000120 cf 7f bf bc fb bd 34 bd ca 17 cc 3c d2 ee 0f bc
       -0.023376374 -0.044126492 0.024913687 -0.008784967
000130 17 45 d3 3d 04 8e 72 3c 0b 5b 52 3d e7 ae 2e 3d
       0.10315912 0.014804367 0.051356357 0.04264727
000140 cc a8 2f 3d 00 65 c8 bc 8a bb 94 3d 02 4a a4 3c
       0.042885587 -0.024462223 0.07262333 0.02005482
000150 c6 97 8f 3d ff 2b 82 3d 7d 0d 25 3c f3 bd 87 3d
       0.0701137 0.06356048 0.010074017 0.06628027
000160 0f fa 80 3d 72 3e 4f 3d d5 29 0a 3c 48 b7 03 bd
       0.06297695 0.050596662 0.008432825 -0.032157212
000170 ce 11 b2 3d 00 67 98 bd c9 17 b6 bc f6 e6 90 3c
       0.08694802 -0.07441521 -0.022228139 0.017688256
000180 aa 2e ec 3c b4 90 12 3d 56 30 cd 3d c0 9e 6b bd
       0.028830845 0.03578253 0.10018985 -0.057524443
000190 68 ca 26 3d be d2 3c bc 5a e1 29 3d 0b 30 b4 3d
       0.040720373 -0.011524854 0.041474678 0.08798226
0001a0 80 81 67 3c 11 46 a7 bb 1d b4 7a 3c de 90 d8 3d
       0.014129996 -0.005104788 0.015301731 0.10574506
0001b0 75 99 09 bd f6 c6 44 bd b9 44 b1 3d 94 9d 8a 3d
       -0.033593614 -0.048041306 0.08655686 0.06768337
0001c0 00 7b 7c 3d 53 b5 ee bb aa a0 8e bc de 84 88 3d
       0.06164074 -0.007284799 -0.017410595 0.066659674
0001d0 98 2d d6 3c 40 d7 9c 3d 3b 6a fc 3d 72 45 06 3d
       0.026144788 0.07658243 0.12324949 0.032781072
0001e0 93 27 83 3c 7f 07 b3 3d 12 62 d0 3b d9 3c 48 3d
       0.016010081 0.08741664 0.006359347 0.048886154
0001f0 ab 11 30 3d 1e 1b d8 3d 5e 16 52 3d b1 03 30 3c
       0.0429856 0.10552047 0.051290862 0.010743068

action_model._discrete_distribution.branches.0.weight f4 [5, 128]
000000 51 18 76 3d dd c0 49 bd 36 ab ce bd df 31 5a bc
       0.060081784 -0.049256194 -0.1009125 -0.013317554
000010 0a 5b b3 3b 2b 0b 0a 3d af ce 07 be 39 6e 83 bd
       0.005473499 0.033702057 -0.13262437 -0.06417508
000020 0b dd 47 be b7 2e c4 bc 56 d1 be bc 61 f7 1d 3b
       -0.19517915 -0.023948057 -0.023293179 0.0024103748
000030 d8 e3 1a be b5 2c 02 bb f1 79 c8 bd 51 c8 cd 3d
       -0.15125978 -0.0019863073 -0.097888835 0.10047973
000040 d5 cc 7c bb d9 a9 27 bd 87 f1 83 bd 63 59 1d bd
       -0.0038574238 -0.040933464 -0.06442552 -0.038415324
000050 e7 91 36 bd 6b c2 f4 bd 2a 09 7c bd 0c 51 ac 3c
       -0.044572737 -0.11951145 -0.061532177 0.02103474
000060 cc 05 ef 3c af be 9f bc 88 79 ee bc e3 97 a4 3d
       0.029177569 -0.019500105 -0.029110685 0.080367826
000070 8b 88 3a be 7c 42 08 3d bc 26 86 3c 3f 24 6a 3c
       -0.1821615 0.03326653 0.016375892 0.014290868
000080 05 7a 17 bd 7d 14 9a bd 15 77 ee bc 0a 54 e1 bd
       -0.0369816 -0.07523439 -0.029109517 -0.11002357
000090 81 49 cd 3c d6 b9 5c be f2 bd 3a 3d 17 0f 71 3d
       0.025059463 -0.21555266 0.045591302 0.05885228
0000a0 23 36 2e be 76 31 6c be 73 9f c9 bc 7b 6c 5a 3d
       -0.17012839 -0.23065743 -0.024612164 0.05332611
0000b0 06 03 9b bb ed b5 a7 3b cd d2 67 bd 57 46 dd bd
       -0.004730585 0.005118123 -0.05659752 -0.10804432
0000c0 7a 06 17 bd a1 89 63 bc 59 f2 b3 3c 12 7a 93 bc
       -0.03687141 -0.013887794 0.021966146 -0.018002544
0000d0 79 4d 9d bd e5 7f 53 bd 38 1f 0e be 9d 0e 89 3d
       -0.07680792 -0.05163564 -0.13879097 0.066922404
0000e0 f9 65 dd bb e0 43 b2 3d de 20 aa bd a6 a9 d1 bc
       -0.006756541 0.087043524 -0.0830705 -0.02559359
0000f0 52 3f 28 bd e8 4e 3c bd 49 6a 61 3d c6 54 ea bd
       -0.041076012 -0.04597369 0.055033002 -0.114419505
000100 af a0 f6 bd 46 72 e8 bb 23 ae 0e bd d7 05 7b bd
       -0.12042367 -0.0070937006 -0.03483404 -0.061284866
000110 20 ca c5 bb 66 00 3c 3d fc ce 42 bd 77 45 74 bc
       -0.006036058 0.045898817 -0.047560677 -0.01490914
000120 f7 e0 0f 3d d1 34 bf 3d ee 0c c9 bb 71 f8 29 bc
       0.035126653 0.09336246 -0.0061355745 -0.010374174
000130 66 40 ce bd e1 8b 24 be 1d d2 4e 3e 3f 7a b9 3c
       -0.10070877 -0.16068985 0.2019734 0.0226413
000140 2a 9b 02 bd 50 1d 31 be fe 38 a3 bd 33 4e 5b bc
       -0.031886257 -0.17296338 -0.07969855 -0.013385343
000150 29 98 eb 3d 72 bc 92 bc 9f ae 1c 3d d7 c1 c2 bd
       0.115036316 -0.017912123 0.03825247 -0.09509628
000160 a6 e6 28 be 9a 93 49 bc 07 ea 03 bd da 49 08 3d
       -0.16494235 -0.012303257 -0.032205608 0.033273555
000170 1c ec d5 bd ae 7c 20 3e 98 a3 64 3d 18 cb 31 bd
       -0.10445425 0.15672562 0.055820078 -0.043406576
000180 b7 b0 80 3c 3e e1 9c bc 73 92 b2 bd 03 b4 1f 3d
       0.015709264 -0.019150373 -0.08719339 0.038990032
000190 d7 f4 a3 bc 98 d4 41 bb fe 0a 46 be 63 75 3f bd
       -0.02001421 -0.0029576179 -0.1934013 -0.046742808
0001a0 e8 de 86 bc 98 76 c0 bc ca 87 6f 3d f0 a2 25 3d
       -0.016463712 -0.02349405 0.058479108 0.040438592
0001b0 05 4a 1a 3c cd 77 9c bc 7c c5 18 bb 80 b5 71 bc
       0.009417062 -0.019100094 -0.002331107 -0.014752746
0001c0 b8 a4 02 bd 95 e7 23 3b 5a 61 6d 3b 0b 56 29 3e
       -0.03189537 0.002500986 0.0036221356 0.16536729
0001d0 ac bf 57 be 86 f7 5f 3e 6f 6a a5 bd cf f9 bb 3c
       -0.21069211 0.21871766 -0.08076941 0.022946266
0001e0 f5 21 50 be a7 35 d7 bd 05 87 ee 3c a5 74 27 3d
       -0.20325454 -0.1050828 0.029117117 0.040882725
0001f0 2c 17 2d bd 82 74 82 be 9b c4 d4 3c 81 af c6 bc
       -0.042258427 -0.25479513 0.025972655 -0.024253609
000200 0a 69 12 bc 74 3c 7c bd 52 23 3a 3d 52 e3 6b 3d
       -0.008936176 -0.06158109 0.04544384 0.057589836
000210 9d a1 96 3d 65 16 4b bb c3 ae d4 bd d3 e3 68 3c
       0.07355044 -0.003098869 -0.10384896 0.014214474
000220 74 90 94 bd c3 2b 6e 3d 53 5c 41 3d a7 a8 77 3d
       -0.07254115 0.058147203 0.047207188 0.060463574
000230 5d 6e 6e bd ec 09 8f bd 7c 38 07 be 87 72 fe 3d
       -0.05821072 -0.06984314 -0.13205141 0.12424188
000240 f0 40 90 bd d5 c0 20 3d 70 8e 65 3d 57 4a 93 3d
       -0.07043636 0.0392464 0.056044042 0.071919136
000250 3c 7c 7b 3d a7 f6 90 bc b5 20 37 be 84 5d b3 3d
       0.061397776 -0.017695738 -0.1788357 0.08758071
000260 46 92 0b 3d 7d 4b cd 3b d1 87 88 3c 69 0a 5a bd
       0.034075044 0.0062651024 0.016666325 -0.053232584
000270 64 25 dc bd ef 43 e5 bd d3 97 5c 3d 45 4d ff bd
       -0.10749319 -0.11194598 0.05385573 -0.1246591
000280 11 54 5c 3d c4 2c 23 be e3 3a b3 3d c7 d7 e4 bd
       0.05379111 -0.15935045 0.08751466 -0.11173969
000290 ba 62 4d 3d 98 0d 36 3c eb 07 fa bd 80 a7 77 3d
       0.05014298 0.011111639 -0.122085415 0.060462475
0002a0 ae 5a 2a 3c 3d 0c 56 bd 74 8c 96 bd 54 3c b2 3d
       0.010397596 -0.052257765 -0.07351008 0.08702913
0002b0 c3 c2 0d 3d 4a 17 98 3d 74 1b eb bc ca 90 9a 3b
       0.034609567 0.07426317 -0.028699614 0.004716967
0002c0 0b f7 9d 3d 51 8e 8f 3d 84 db 47 3c 06 88 59 3d
       0.07713135 0.070095666 0.012198333 0.053108238
0002d0 87 69 a4 bd 86 c8 00 be d6 d5 d6 3c 19 df 23 3d
       -0.0802794 -0.12576494 0.026225012 0.040007684
0002e0 0c b2 70 3d 11 e8 3f 3d 1d f0 c0 bc c3 e5 bd 3d
       0.05876355 0.046852175 -0.023551995 0.09272339
0002f0 60 39 ce bd 8c 5e df bd 18 d6 44 bd 41 77 b5 bd
       -0.10069537 -0.10906705 -0.04805574 -0.088606365
000300 a0 72 19 be 6c 60 40 bd 75 1d 60 3d 94 8c a8 bc
       -0.14985132 -0.046966955 0.054715592 -0.020574845
000310 2c 7b f3 bd 36 64 dd 3d ef 16 bf bd a2 14 15 bb
       -0.118887275 0.10810129 -0.09330546 -0.0022747894
000320 d7 6b e1 3b 85 15 7c 3d 4c dd a5 bd e5 5f b7 bc
       0.0068793106 0.06154396 -0.0809885 -0.022384593
000330 83 64 37 bc 53 3c 8b bc 51 c6 f9 3d 2e 5b a6 3d
       -0.011193397 -0.016996538 0.12196029 0.0812286
000340 da 11 98 3d 62 6c 89 bc ea 7e fe 3b 8d 4d 8a 3d
       0.0742528 -0.016775314 0.007766594 0.06753073
000350 24 4b 14 3e 48 de 46 be 2b dd 16 be 4b 07 81 bd
       0.14481789 -0.19420731 -0.14732806 -0.06300219
000360 20 77 fb 3c d5 16 86 bd 57 91 4d bd 5a a3 b6 bd
       0.030696452 -0.065473236 -0.050187435 -0.089178756
000370 f2 a9 35 bd a0 cb 0c bd 90 7d c6 bd 00 cd 71 3d
       -0.044351526 -0.03437388 -0.09691918 0.059033394
000380 85 f0 c4 3d 8a 21 89 3d 03 ce 58 be ff 2a 07 3d
       0.09616188 0.0669585 -0.21172337 0.03299999
000390 5b e1 b3 3c 81 de 2c 3d d7 9a d4 3c fa f6 82 bd
       0.021958044 0.042204384 0.02595274 -0.06394763
0003a0 ea 62 95 3d 25 b7 7f 3d eb 45 cc 3d fc 14 03 3e
       0.07294257 0.06243052 0.09974273 0.12800974
0003b0 e9 c9 53 bd 99 e2 76 bd 40 75 d0 3c 2b 55 ac 3c
       -0.05170623 -0.060274694 0.025446534 0.021036705
0003c0 6f c5 90 3d b8 31 85 b9 23 64 81 bc 67 5c f9 3d
       0.070689075 -0.0002540478 -0.01579482 0.121758275
0003d0 1f 75 24 3d e7 b9 50 3e bd c3 1a be 59 e4 c2 3d
       0.040150758 0.20383416 -0.1511373 0.0951621
0003e0 9c 69 77 3c a8 e7 12 3d b6 db af bd 04 d6 34 3d
       0.015100863 0.035865456 -0.085868284 0.044149414
0003f0 81 fa 62 bc 18 06 f3 3b 34 2d 56 be 2f 1f 79 bd
       -0.01385367 0.007416498 -0.20915681 -0.060820755

action_model._discrete_distribution.branches.0.bias f4 [5]
000000 7e fa a5 bd 6a 26 3e 3c ab 5b 33 ba 66 d6 eb 3c
       -0.08104418 0.011605838 -0.00068419677 0.028788757
000010 90 48 b8 3c
       0.022495538

exp_avg f4 [128, 7]
000000 ce 93 0f 3b 00 00 00 00 63 23 4e bb 57 d5 06 3b
       0.0021908167 0.0 -0.0031454198 0.0020573938
000010 00 00 00 00 f2 c2 1a bb 20 7b 41 39 18 24 ca ba
       0.0 -0.0023614732 0.00018451782 -0.0015422134
000020 00 00 00 00 33 f1 1f 3b fe d1 a3 ba 00 00 00 00
       0.0 0.002440524 -0.0012498496 0.0
000030 ad 93 09 3b 61 cb 05 ba e2 fc d0 3b 00 00 00 00
       0.0020992563 -0.0005103853 0.006377802 0.0
000040 76 c6 96 3b b2 e3 d4 bb 00 00 00 00 e5 ca 39 3b
       0.004601295 -0.00649687 0.0 0.0028349694
000050 31 cf 86 3b 88 9c d4 bb 00 00 00 00 f5 7d 34 3b
       0.0041140546 -0.0064883865 0.0 0.0027540897
000060 86 2b 9a 3b 00 00 00 00 c0 36 53 3b 7d f9 03 3b
       0.0047048954 0.0 0.0032228678 0.002013772
000070 19 59 f2 b9 00 00 00 00 2c 2b 59 b9 7f 9f 16 3b
       -0.0004622422 0.0 -0.00020710815 0.002298325
000080 00 00 00 00 53 63 23 3a e1 b3 3f 3a 92 3e ce ba
       0.0 0.0006232757 0.0007312876 -0.00157352
000090 00 00 00 00 fd 51 6b bb 94 7b ba 3b 00 00 00 00
       0.0 -0.0035907023 0.005691001 0.0
0000a0 0c 86 0e bb 36 c2 a6 ba 52 b5 20 b9 00 00 00 00
       -0.0021747379 -0.0012722674 -0.00015326336 0.0
0000b0 a8 71 3c ba b4 5e 1e 39 00 00 00 00 0c e3 28 ba
       -0.0007188567 0.00015103334 0.0 -0.0006442524
0000c0 15 92 36 b8 86 75 13 3b 00 00 00 00 fb 7c b7 ba
       -4.352823e-05 0.002250047 0.0 -0.0013999039
0000d0 fd 94 79 3a 00 00 00 00 4a e6 34 ba d5 a1 3f b9
       0.0009520797 0.0 -0.0006900771 -0.00018275467
0000e0 20 80 77 ba 00 00 00 00 90 e6 ac bb fe 46 ac 3b
       -0.00094413944 0.0 -0.0052765086 0.0052574864
0000f0 00 00 00 00 28 da 92 bb 9e a2 c6 ba c8 87 fe 3b
       0.0 -0.0044815727 -0.0015154665 0.007767651
000100 00 00 00 00 9d d6 a0 ba ec de be bb 00 00 00 00
       0.0 -0.0012270991 -0.005824914 0.0
000110 40 c3 0d bb 48 ac 1a bb b7 90 44 ba 00 00 00 00
       -0.002163127 -0.0023601223 -0.0007498371 0.0
000120 69 a6 9b ba 1a c3 f2 b9 00 00 00 00 80 3a 12 ba
       -0.0011875156 -0.000463032 0.0 -0.0005578175
000130 25 86 1a 3a 1f 77 12 3a 00 00 00 00 42 dd 29 ba
       0.0005894623 0.00055872084 0.0 -0.00064798084
000140 5b 50 d6 39 00 00 00 00 28 81 30 ba 52 7e 24 ba
       0.0004087713 0.0 -0.0006733113 -0.0006274927
000150 13 62 79 39 00 00 00 00 20 ed 3f b9 a0 a1 69 38
       0.00023783026 0.0 -0.00018303515 5.5702054e-05
000160 00 00 00 00 5b c3 42 b9 9d 21 5a 39 4d 85 79 3a
       0.0 -0.00018574057 0.00020802622 0.00095184596
000170 00 00 00 00 e8 da 17 bb 33 4b fa 39 00 00 00 00
       0.0 -0.002317125 0.00047739744 0.0
000180 ff 37 f4 ba 86 17 19 3a 02 93 9e b9 00 00 00 00
       -0.0018632411 0.0005839992 -0.00030245638 0.0
000190 78 6b a9 b9 66 0e 97 3a 00 00 00 00 1b 3b 68 b8
       -0.00032314262 0.0011524677 0.0 -5.5368157e-05
0001a0 b2 dd a6 b9 33 86 c1 38 00 00 00 00 9b 2a 0d 39
       -0.00031827163 9.227954e-05 0.0 0.0001346268
0001b0 8c 63 04 3a 00 00 00 00 de 70 e4 38 53 c0 09 39
       0.0005050234 0.0 0.0001089291 0.00013136984
0001c0 e7 04 a5 39 00 00 00 00 99 d0 bf b9 89 c5 31 b8
       0.00031474905 0.0 -0.00036585776 -4.2384057e-05
0001d0 00 00 00 00 47 5e b5 b9 bd e6 81 b8 89 cc 3e bb
       0.0 -0.00034593252 -6.194178e-05 -0.0029113612
0001e0 00 00 00 00 ab 71 03 3b 8a c1 76 ba 00 00 00 00
       0.0 0.0020056765 -0.0009412995 0.0
0001f0 a0 8f fd 3a dd 8c 11 3a af d0 0c ba 00 00 00 00
       0.0019345172 0.00055523013 -0.00053716725 0.0
000200 e2 ca 4a 39 b9 bb cf 3a 00 00 00 00 3a 01 60 3a
       0.00019339801 0.0015848792 0.0 0.00085451046
000210 e2 4c 6b 3a 38 3d 36 bb 00 00 00 00 3f 64 a6 3b
       0.0008975995 -0.0027807485 0.0 0.0050778682
000220 0e 64 a1 bb 00 00 00 00 05 38 a6 3b 3b 7f 8f 3a
       -0.0049252575 0.0 0.005072596 0.0010947952
000230 41 0e 53 b9 00 00 00 00 35 df 34 ba 31 39 33 3a
       -0.00020127838 0.0 -0.00068997155 0.000683683
000240 00 00 00 00 5c 69 09 ba f0 58 b8 b9 f8 f9 d7 ba
       0.0 -0.0005241835 -0.00035161478 -0.0016477695
000250 00 00 00 00 f1 98 cb bb 85 89 11 3c 00 00 00 00
       0.0 -0.0062133004 0.008882885 0.0
000260 92 c2 8c bb 21 43 34 bb 31 b4 06 bb 00 00 00 00
       -0.0042956555 -0.0027505832 -0.002055418 0.0
000270 8e 9f e2 ba 39 4f 16 3b 00 00 00 00 8a fa b8 ba
       -0.0017289983 0.0022935404 0.0 -0.0014112752
000280 9a ba fc ba aa 62 cd b9 00 00 00 00 e2 de 12 ba
       -0.0019281686 -0.00039174157 0.0 -0.000560267
000290 14 1f 5c bb 00 00 00 00 2a af dc ba 4b 1f 80 ba
       -0.003358786 0.0 -0.0016836871 -0.0009774951
0002a0 47 49 ce bb 00 00 00 00 fe a9 ce 3b 99 10 15 bc
       -0.0062953564 0.0 0.0063068857 -0.0090981955
0002b0 00 00 00 00 f7 c1 9f 3b 64 5a 06 ba ec 7d a6 ba
       0.0 0.0048754173 -0.00051251636 -0.0012702323
0002c0 00 00 00 00 23 a3 70 3a 86 9d f5 ba 00 00 00 00
       0.0 0.00091795827 -0.0018738962 0.0
0002d0 91 c9 49 3a e3 6d 3f b9 88 1d 8f 3a 00 00 00 00
       0.0007697577 -0.00018256115 0.0010918835 0.0
0002e0 31 af ab 3b 98 48 01 bc 00 00 00 00 ff 89 6e 3b
       0.0052393903 -0.007890843 0.0 0.003639817
0002f0 24 92 87 ba 77 21 b4 ba 00 00 00 00 63 2a 70 b9
       -0.0010343236 -0.0013742883 0.0 -0.00022903974
000300 ad 13 69 ba 00 00 00 00 41 a7 8f b9 10 ca c0 39
       -0.00088911765 0.0 -0.000273997 0.00036771642
000310 d8 59 02 3b 00 00 00 00 07 c9 d4 ba 05 9d 67 3a
       0.0019889977 0.0 -0.0016234227 0.00088353484
000320 00 00 00 00 94 75 d6 ba be 40 85 39 35 f1 07 ba
       0.0 -0.0016361945 0.00025415974 -0.0005185784
000330 00 00 00 00 fc 5f 6e ba e4 06 13 3b 00 00 00 00
       0.0 -0.0009093282 0.0022434527 0.0
000340 be 86 58 ba 60 49 55 ba 03 28 47 b9 00 00 00 00
       -0.0008259824 -0.0008136239 -0.00018993024 0.0
000350 3c 14 84 3b 3b c2 3c bb 00 00 00 00 af 41 4a 3b
       0.0040307324 -0.0028802294 0.0 0.0030861904
000360 c0 67 17 3a a3 84 b0 3a 00 00 00 00 25 63 c5 38
       0.0005775653 0.0013467263 0.0 9.412159e-05
000370 88 48 f8 b9 00 00 00 00 14 eb 47 39 de d8 13 3a
       -0.00047356286 0.0 0.00019065692 0.0005639921
000380 50 b1 5e 3b 00 00 00 00 14 07 80 3b 64 5c 07 39
       0.0033980198 0.0 0.003907094 0.00012909021
000390 00 00 00 00 48 a8 a5 3b 55 7b 2d 3b 9f f6 39 3b
       0.0 0.005055461 0.0026471217 0.0028375757
0003a0 00 00 00 00 93 97 b0 ba 3c c6 e9 ba 00 00 00 00
       0.0 -0.0013472907 -0.0017835568 0.0
0003b0 1d 97 bb ba 50 2f 59 3a 67 8a 62 bb 00 00 00 00
       -0.0014312003 0.0008284943 -0.0034567358 0.0
0003c0 22 8b 4d bb ec c9 4f 3b 00 00 00 00 0b 05 0a bb
       -0.0031363447 0.0031706048 0.0 -0.0021060135
0003d0 55 8f 39 bb 44 f7 08 b9 00 00 00 00 8d f4 66 39
       -0.0028314192 -0.00013062084 0.0 0.00022025612
0003e0 0f e1 19 b9 00 00 00 00 4f eb 41 39 18 e2 ce 38
       -0.00014675058 0.0 0.00018493574 9.864959e-05
0003f0 bd e1 9e ba 00 00 00 00 d7 c9 9d ba d4 49 71 39
       -0.0012121719 0.0 -0.0012038302 0.00023011054

exp_avg_sq f4 [128, 7]
000000 f0 47 5e 3b 00 00 00 00 d1 8c 34 3b 35 ee 01 3b
       0.003391739 0.0 0.0027549753 0.001982582
000010 00 00 00 00 ca c3 ad 3a b7 b4 5b 3b 33 06 06 3b
       0.0 0.0013257202 0.0033524462 0.0020450472
000020 00 00 00 00 66 ba 3d 3b 23 8d 87 3a 00 00 00 00
       0.0 0.0028950213 0.0010341745 0.0
000030 11 d3 30 3b ef 95 99 3a e2 f9 1f 3b 00 00 00 00
       0.0026981274 0.0011717657 0.0024410416 0.0
000040 72 40 18 3b ad 77 e8 3a 00 00 00 00 99 6e 09 3b
       0.0023231772 0.0017735861 0.0 0.0020970462
000050 ba 9b 36 3b 1a 52 c8 3b 00 00 00 00 71 f9 ed 3b
       0.0027863816 0.006113303 0.0 0.0072624017
000060 bf b6 6d 3b 00 00 00 00 ae 8e b5 3b df fb 7b 3c
       0.0036272255 0.0 0.0055406904 0.015379875
000070 b7 18 2d 3a 00 00 00 00 12 a9 bf 39 ad 45 00 3a
       0.0006603109 0.0 0.00036556326 0.0004893195
000080 00 00 00 00 32 fa 3c 39 fa f4 2f 3a e4 b1 8f 3a
       0.0 0.00018022282 0.00067122246 0.001096305
000090 00 00 00 00 01 8a 92 3a 53 0c f3 39 00 00 00 00
       0.0 0.0011180044 0.00046357754 0.0
0000a0 32 08 2a 3a be f6 6f 3a 99 7b eb 38 00 00 00 00
       0.00064862065 0.0009153894 0.00011228695 0.0
0000b0 2b ef a8 38 bb 41 85 38 00 00 00 00 b7 9c 69 38
       8.055413e-05 6.3541775e-05 0.0 5.569748e-05
0000c0 2c 5d ad 39 e4 32 c7 3a 00 00 00 00 14 b9 08 3b
       0.0003306655 0.0015197662 0.0 0.0020862268
0000d0 86 00 54 3a 00 00 00 00 b4 b1 bf 3a f4 cc 79 3b
       0.0008087236 0.0 0.0014625103 0.0038116546
0000e0 51 e9 6c 3b 00 00 00 00 6f 12 1c 3b fc 23 e1 3a
       0.003614981 0.0 0.0023814698 0.0017176862
0000f0 00 00 00 00 e0 50 db 3a 54 e8 8e 3b 86 fa 55 3c
       0.0 0.0016732477 0.0043611918 0.013060218
000100 00 00 00 00 f2 ac 44 3c 6b 91 f6 3b 00 00 00 00
       0.0 0.012004124 0.0075246594 0.0
000110 67 d2 1d 3c bb dc f2 3c 3f a1 0f 3c 00 00 00 00
       0.009632683 0.029646268 0.008766471 0.0
000120 7f 59 9a 3b 3e 39 a0 3b 00 00 00 00 d0 4a 70 3b
       0.004710376 0.0048896363 0.0 0.0036665685
000130 ff 11 af 3b c7 05 47 3a 00 00 00 00 bc b9 74 3a
       0.0053427215 0.00075921084 0.0 0.0009335538
000140 dc 45 11 3a 00 00 00 00 99 77 29 3a 7d 99 a4 3a
       0.0005541721 0.0 0.000646466 0.001255795
000150 60 cd f2 38 00 00 00 00 33 f5 1c 39 48 b4 cc 38
       0.00011577713 0.0 0.00014968663 9.761058e-05
000160 00 00 00 00 e8 24 e8 38 aa 89 d4 37 a7 21 1f 3b
       0.0 0.000110694964 2.5336474e-05 0.0024281533
000170 00 00 00 00 05 cc c2 3a c1 ee 74 3a 00 00 00 00
       0.0 0.0014861828 0.00093434384 0.0
000180 05 eb 88 3a b1 a1 66 3b 9d 0f 7c 39 00 00 00 00
       0.0010446018 0.003519159 0.00024038409 0.0
000190 29 50 7f 39 94 57 1d 39 00 00 00 00 1f bd 48 39
       0.00024348557 0.00015005312 0.0 0.0001914394
0001a0 36 7a 8a 39 c7 8e 90 38 00 00 00 00 3e a0 95 38
       0.00026412465 6.8930494e-05 0.0 7.134721e-05
0001b0 e0 6f 26 38 00 00 00 00 69 49 3c 38 24 e8 fa 38
       3.9681676e-05 0.0 4.489106e-05 0.000119641685
0001c0 13 f8 b2 39 00 00 00 00 01 46 28 39 e6 66 56 39
       0.00034135635 0.0 0.00016047807 0.00020446963
0001d0 00 00 00 00 1d a1 c5 38 ef d7 b4 39 b7 05 98 3b
       0.0 9.423702e-05 0.00034493158 0.004639353
0001e0 00 00 00 00 0a 9a 31 3b 38 61 07 3b 00 00 00 00
       0.0 0.002709987 0.0020657312 0.0
0001f0 b5 82 08 3b 9c 28 cf 3b 0a d4 25 3a 00 00 00 00
       0.002082986 0.0063219797 0.0006325847 0.0
000200 b6 01 b2 39 02 03 f6 39 00 00 00 00 82 29 4a 39
       0.0003395208 0.00046923017 0.0 0.00019279684
000210 82 61 0c 3a 0c 1d 5c 3c 00 00 00 00 1d 28 ec 3b
       0.0005355106 0.01343466 0.0 0.0072069303
000220 d8 a6 9d 3b 00 00 00 00 f5 07 9a 3b 35 e3 82 3c
       0.004811149 0.0 0.0047006556 0.015977481
000230 42 b7 d0 39 00 00 00 00 a1 61 1f 39 81 1a 89 39
       0.0003980939 0.0 0.00015199791 0.00026150423
000240 00 00 00 00 f5 d3 ca 38 fe 78 9e 38 b3 50 b4 3a
       0.0 9.671591e-05 7.556564e-05 0.001375696
000250 00 00 00 00 62 3f d6 3a 8a 9c 31 3a 00 00 00 00
       0.0 0.0016345794 0.00067753403 0.0
000260 4e f7 85 3a 4f 21 81 3a ad ec 38 39 00 00 00 00
       0.0010220797 0.0009851846 0.00017635776 0.0
000270 99 7e 73 39 99 34 f8 38 00 00 00 00 40 d7 fb 38
       0.00023221447 0.000118353586 0.0 0.00012008706
000280 4e 03 0e 39 be 00 0e 3c 00 00 00 00 f7 d6 fd 3b
       0.00013543406 0.008667169 0.0 0.007746573
000290 8f 8c ca 3b 00 00 00 00 2e cc be 3b a4 a6 3f 3c
       0.0061813067 0.0 0.00582268 0.011697445
0002a0 32 97 c4 3b 00 00 00 00 61 e4 ef 3b 64 51 22 3b
       0.005999469 0.0 0.007320926 0.002476775
0002b0 00 00 00 00 71 b0 95 3b f9 12 41 3b 05 a4 bb 39
       0.0 0.0045681526 0.0029460771 0.00035789624
0002c0 00 00 00 00 5c 10 e9 39 e8 69 19 39 00 00 00 00
       0.0 0.00044453412 0.0001463067 0.0
0002d0 6d 9b 86 39 20 1d 4b 39 bb 0a 45 3c 00 00 00 00
       0.00025674273 0.00019370439 0.012026484 0.0
0002e0 36 5f 03 3c bc 88 cd 3b 00 00 00 00 97 a8 bc 3b
       0.0080183055 0.0062724035 0.0 0.005757402
0002f0 b5 39 c5 3c c3 90 7d 3a 00 00 00 00 65 63 27 3a
       0.024075368 0.0009672755 0.0 0.00063853554
000300 fd a9 e1 39 00 00 00 00 13 15 f9 39 e5 c0 af 3a
       0.00043041995 0.0 0.00047508682 0.0013408927
000310 fa 5f b6 3a 00 00 00 00 2d 12 04 3b e7 02 7a 3a
       0.0013914101 0.0 0.0020152435 0.00095371756
000320 00 00 00 00 e6 99 eb 3a 6a d2 05 3b 1c 7a b0 39
       0.0 0.0017974942 0.0020419606 0.00033660315
000330 00 00 00 00 41 cc c9 39 3f 2c 6e 39 00 00 00 00
       0.0 0.00038489889 0.00022713932 0.0
000340 3b be 92 39 78 c9 e5 39 2d 8b 17 3b 00 00 00 00
       0.00027989023 0.0004382839 0.0023123727 0.0
000350 f0 b2 9a 3a ed eb 91 3a 00 00 00 00 8a 56 44 3a
       0.0011802595 0.0011132933 0.0 0.0007489702
000360 49 16 38 3b c5 d8 87 39 00 00 00 00 5e 03 bb 39
       0.0028089455 0.00025910712 0.0 0.00035669928
000370 37 9e 21 39 00 00 00 00 2d b3 74 39 a1 46 8a 39
       0.00015413096 0.0 0.00023336402 0.00026374034
000380 69 b1 c2 3c 00 00 00 00 27 f2 86 3c ee 55 6d 3c
       0.023766236 0.0 0.01647289 0.014485819
000390 00 00 00 00 93 cf 42 3c d1 1a 14 3d e3 ea 7b 3a
       0.0 0.01189031 0.036158387 0.0009609891
0003a0 00 00 00 00 d9 61 8b 3a 0a 0d ea 39 00 00 00 00
       0.0 0.0010634019 0.00044641673 0.0
0003b0 46 2a 67 3a 34 23 3f 3a 37 25 c6 3a 00 00 00 00
       0.000881825 0.00072913175 0.0015117292 0.0
0003c0 9b 75 f2 3a 04 4d f8 39 00 00 00 00 b6 67 ed 39
       0.0018498184 0.00047359627 0.0 0.00045281433
0003d0 99 0a d9 39 dc 2d dd 38 00 00 00 00 30 d9 4e 38
       0.0004139736 0.00010546643 0.0 4.93165e-05
0003e0 95 04 ba 38 00 00 00 00 dc ed 3f 37 d2 36 81 37
       8.8700246e-05 0.0 1.1439868e-05 1.5403526e-05
0003f0 e3 45 44 3a 00 00 00 00 ea 5e 55 3a c8 40 ef 39
       0.00074872206 0.0 0.00081394485 0.00045633898

exp_avg f4 [128]
000000 00 5b 75 b9 47 ff b6 b9 8c bb a7 3a 25 7c 90 39
       -0.00023398921 -0.00034903942 0.0012796982 0.00027558315
000010 09 32 05 b9 ae 8e 33 ba 34 d8 af 37 da 55 8d b9
       -0.00012702508 -0.0006849569 2.0962303e-05 -0.0002695758
000020 16 22 ec b9 e5 f9 86 b9 3a b7 d6 37 76 d0 04 b9
       -0.00045038824 -0.00025744658 2.559611e-05 -0.00012666159
000030 62 d5 ab 38 3b 92 c4 38 00 fa f2 b8 51 41 97 38
       8.193661e-05 9.373246e-05 -0.00011586025 7.212407e-05
000040 09 7f 6d b8 44 2f 0d 39 fa fb 04 37 9f 06 8d 39
       -5.6623514e-05 0.00013464416 7.926481e-06 0.0002689855
000050 d9 6e 0e b9 59 e5 a0 ba fe 82 ee b9 55 2f 18 39
       -0.00013583469 -0.0012275382 -0.00045492494 0.00014513482
000060 3f 49 34 3a 99 45 f2 38 6d f8 6a 39 cb 66 63 39
       0.00068773696 0.00011552423 0.00022408525 0.000216867
000070 78 8e 63 39 77 92 90 b9 39 bb ac 39 9b 3d d1 38
       0.00021701481 -0.00027574945 0.00032945888 9.9773715e-05
000080 8b a9 50 b9 66 47 ec 39 7b a4 74 ba 25 9c 18 38
       -0.00019899585 0.00045066624 -0.0009332371 3.6385045e-05
000090 66 81 97 b9 d8 ec cb 38 fc 00 2b 3a 59 60 06 ba
       -0.00028897374 9.72391e-05 0.0006523279 -0.0005126051
0000a0 6c 20 14 3a 13 f8 e5 b8 48 07 51 3a e2 fd 0a b9
       0.0005650583 -0.00010965778 0.0007973802 -0.00013255284
0000b0 24 8b 2f 39 32 e7 28 3a a1 e5 d2 38 1f 83 22 b9
       0.00016741134 0.0006443142 0.00010056352 -0.0001549837
0000c0 47 a3 08 b9 a9 22 a1 b9 fe 01 88 b9 06 c9 b1 39
       -0.00013030796 -0.00030734137 -0.00025941426 0.00033909845
0000d0 8a 96 1a 3a 39 c8 96 39 55 9b b4 ba a2 36 0c 3a
       0.0005897066 0.00028759407 -0.0013779203 0.0005348717
0000e0 f8 2f f9 36 0d f2 b2 38 cb 48 f2 b6 15 b9 5d 39
       7.4263626e-06 8.532787e-05 -7.2206362e-06 0.00021145151
0000f0 c4 bf b5 39 54 03 2e 3a eb ac 5f 39 e9 f4 d1 b8
       0.00034665887 0.0006638069 0.00021331354 -0.00010011515
000100 bc ab 4a ba e7 7a fa b9 cf 22 e8 39 ed 06 10 ba
       -0.0007731279 -0.00047775285 0.00044276423 -0.0005494196
000110 09 b2 5f b9 2d b2 8e 39 ed 0d 00 ba 0b 96 aa 39
       -0.0002133326 0.00027217102 -0.00048848876 0.00032536717
000120 81 7c 69 b8 85 66 0f ba 84 e2 56 38 71 34 2b 39
       -5.5667482e-05 -0.00054702937 5.1232535e-05 0.00016327367
000130 c1 74 16 38 c9 81 c4 b9 86 49 6b 39 59 93 f0 b9
       3.5871522e-05 -0.0003748073 0.00022438736 -0.0004588615
000140 1c 25 b7 39 b2 a8 d0 b9 d4 fe ad 3a fa 7c 4d 3a
       0.0003493213 -0.0003979854 0.0013274797 0.00078387524
000150 02 10 0b 39 bc 42 ab 38 fc 75 d7 37 ee ed 0b ba
       0.00013262036 8.166346e-05 2.5684938e-05 -0.00053378835
000160 2a c2 06 38 5c b9 3d b9 21 94 68 ba f8 ef 01 38
       3.212892e-05 -0.00018093496 -0.00088721706 3.0979485e-05
000170 4f 09 06 39 34 81 19 b5 87 9f 97 b9 17 20 ab b9
       0.00012782704 -5.7184957e-07 -0.00028919821 -0.0003263957
000180 e7 23 a0 ba 50 ff 50 3a 67 0e 56 38 f5 e2 97 39
       -0.0012217731 0.0007972615 5.103499e-05 0.0002897006
000190 1d 7b 49 3a 17 70 1d ba f4 91 62 3a 10 ca 49 ba
       0.0007685887 -0.00060057774 0.00086429645 -0.0007697651
0001a0 97 de 13 3a c1 de 03 39 02 5d fd b9 8d 39 2e b6
       0.00056407735 0.00012576116 -0.00048325217 -2.596152e-06
0001b0 b5 65 22 39 e9 c8 a3 b8 d6 b6 0c 39 4e 3e fe 3a
       0.00015487413 -7.809868e-05 0.00013419552 0.001939723
0001c0 b2 b6 06 ba 75 30 6f ba d5 9e 35 b9 1b 80 89 39
       -0.0005138918 -0.0009124347 -0.00017320675 0.00026226122
0001d0 d3 bd 08 3a 6e 2d 85 39 da 9c 8f 39 d6 aa 38 38
       0.00052162743 0.00025401585 0.0002739195 4.4028122e-05
0001e0 e5 8a 98 b9 64 45 91 ba 89 9c 92 b9 a0 8c 0b 3b
       -0.00029095184 -0.0011083302 -0.00027963918 0.0021293536
0001f0 7b e3 4f b9 23 2b ee ba 0e 64 8c b8 2a 47 a8 36
       -0.00019825801 -0.0018170815 -6.694357e-05 5.0150747e-06

exp_avg_sq f4 [128]
000000 2f 6e 1c 39 e5 b5 cf 38 e2 f7 04 39 3c 27 c5 39
       0.00014918366 9.90441e-05 0.00012680845 0.00037604
000010 3d b0 15 38 fc 7b 75 38 33 7e 1b 37 6a b8 db 38
       3.5688503e-05 5.852802e-05 9.268103e-06 0.000104770836
000020 95 f8 3d 39 a7 60 3c 3a e9 3e b1 39 2d 9b 4e 38
       0.00018117049 0.0007186033 0.00033806943 4.9258746e-05
000030 ae 81 9f 36 7d 9a e3 38 e2 6e 4c 37 51 21 78 36
       4.753666e-06 0.00010852979 1.2185164e-05 3.6974272e-06
000040 9e 83 5d 37 b6 53 42 39 1c a5 eb 37 32 53 0c 3a
       1.3203271e-05 0.00018532466 2.8091068e-05 0.0005352973
000050 ca b9 1d 37 fa 17 9a 38 92 18 27 37 a6 8d ee 39
       9.401187e-06 7.347758e-05 9.959696e-06 0.00045500434
000060 63 42 9f 39 62 8c 9f 37 ac f7 1c 3a 91 bf 4b 38
       0.00030376305 1.9019648e-05 0.0005987834 4.857738e-05
000070 de 6b b6 38 33 a6 a6 37 5a d4 d3 38 e8 0c 47 37
       8.698528e-05 1.9866135e-05 0.000101008176 1.1864329e-05
000080 46 85 9d 3a 26 0e 21 38 b5 0e 99 38 3f a5 32 36
       0.0012017868 3.8398568e-05 7.298348e-05 2.6620253e-06
000090 12 12 22 38 eb 6d a7 37 6f 7a 35 39 54 38 63 36
       3.864064e-05 1.9959136e-05 0.00017307115 3.3858423e-06
0000a0 84 28 3b 39 42 43 f1 37 f6 99 bf 39 b2 4e 89 39
       0.00017848803 2.8760758e-05 0.0003654507 0.0002618931
0000b0 b9 55 33 38 ce 66 81 39 d9 00 d7 37 c9 88 23 39
       4.275676e-05 0.00024681393 2.5630392e-05 0.00015595848
0000c0 64 9e 92 3a 83 c4 d3 39 f1 5f c5 37 e7 d9 a9 39
       0.001118612 0.0004039147 2.3528906e-05 0.00032396542
0000d0 fc fe 33 3a 76 52 f4 38 de 2b 24 3a 4d f9 31 3a
       0.0006866304 0.00011650186 0.000626264 0.0006789163
0000e0 6f a3 b3 37 81 54 d3 37 5c 46 81 36 46 d8 1f 39
       2.1414568e-05 2.519251e-05 3.8526905e-06 0.0001524399
0000f0 50 a6 dd 39 a5 b3 1d 38 a5 e3 05 39 24 68 5f 39
       0.00042276317 3.7599024e-05 0.00012768673 0.00021305733
000100 57 c4 c9 39 14 2e 68 38 6d 2b 0f 38 89 cb 17 39
       0.00038483992 5.5356024e-05 3.41343e-05 0.00014476305
000110 f3 ea 9b 38 63 61 33 3a 45 49 e4 36 a1 ff 6a 3a
       7.434739e-05 0.000684282 6.803459e-06 0.0008964483
000120 49 8e 8d 37 97 68 e1 38 9e b3 67 39 83 69 dc 38
       1.6874767e-05 0.000107483174 0.0002209679 0.000105100706
000130 62 3e 85 37 23 0f 01 38 02 8e 43 37 fb 08 96 38
       1.5883885e-05 3.0770094e-05 1.16559695e-05 7.15423e-05
000140 06 88 62 39 25 2d 85 39 93 18 07 3a 85 93 b4 38
       0.00021603712 0.00025401372 0.0005153503 8.6105465e-05
000150 c4 8e 4b 36 07 03 05 39 9e d2 be 36 cb 15 0a 38
       3.0332458e-06 0.00012684996 5.6869603e-06 3.292206e-05
000160 93 bc 1f 37 e7 03 7a 38 51 1a ed 37 58 27 a5 37
       9.521044e-06 5.960828e-05 2.8264856e-05 1.9687854e-05
000170 11 da 1d 36 84 91 9d 35 ab ac 3a 38 4b 73 e5 38
       2.3521754e-06 1.1739762e-06 4.4506665e-05 0.00010941046
000180 1a f0 fd 37 3e ee 5a 39 17 9b 5a 38 7f e7 85 38
       3.0271756e-05 0.00020878852 5.211969e-05 6.385054e-05
000190 fe 6e 05 3a 8a 49 ad 3a 96 f8 50 38 72 d4 40 39
       0.00050900865 0.0013220769 4.9822578e-05 0.00018389689
0001a0 ed 53 d3 38 66 7d 4f 37 b8 6f 7a 37 9a f3 6e 39
       0.000100768964 1.2367358e-05 1.4927173e-05 0.00022788197
0001b0 f6 3f 18 39 46 d3 b3 39 0c cf dd 37 ae 68 75 3a
       0.00014519677 0.00034298952 2.6441667e-05 0.0009361607
0001c0 eb c8 01 3a 97 29 33 3a b2 96 f4 39 40 8f 37 39
       0.00049508986 0.00068345055 0.00046651583 0.00017505605
0001d0 a7 b9 55 38 9e 6c a9 39 9f d8 22 38 0a e6 26 36
       5.095606e-05 0.00032315118 3.8825554e-05 2.4869828e-06
0001e0 8e 37 6e 37 ca 11 f6 39 0a 94 95 37 d0 5d 42 39
       1.419884e-05 0.0004693403 1.783112e-05 0.0001853623
0001f0 f3 13 87 39 94 4e d5 39 78 0c d5 37 e5 73 7f 37
       0.0002576407 0.0004068507 2.5397385e-05 1.5226168e-05
