results/SnakeAgent/SnakeAgent/SnakeAgent-44124.onnx (onnx, 77659 bytes, 6 tensors)

network_body._body_endoder.seq_layers.0.weight f4 [128, 7]
-0.62098104 -0.0041922387 -0.32761684 -0.57733375 -0.20617747 0.32072842 -0.021929404 -0.021796554
-0.6325316 -0.28085646 0.5724561 -0.45303416 0.081869535 -0.1682733 0.13885604 -0.9229718
-0.15767793 0.40134636 -0.25803104 0.01256873 -0.3726156 0.35464078 -0.21469824 -0.11348355
-0.1447672 -0.47831047 0.0302409 0.3549356 0.29415256 -0.4040112 0.4250308 -0.29670036
0.10568135 -0.25769833 -0.02091631 -0.19218475 0.15101278 -0.8385821 0.17423159 -0.37534493
-0.6111154 -0.2851143 0.15694264 -0.27663323 0.16461873 0.15069589 -0.11449884 -0.05849806
-0.5702776 -0.111013144 -0.4932932 0.90305275 0.5242518 0.5213591 -0.4148183 0.011436824
0.014329714 0.07718883 0.0243944 0.122651294 -0.115680255 -0.11836003 -0.14631084 -0.43387982
0.06406976 -0.78077555 -0.23738907 0.043293193 -0.15086101 -0.10540776 -0.05875131 0.15044992
-0.30050674 0.159877 0.034435827 -0.1837724 0.47995928 0.025566762 0.050389316 -0.5761702
-0.008521258 -0.3205132 -0.10804526 -0.054594327 0.30741528 -0.17772506 0.076682776 0.028921263
0.07064014 -0.8218614 -0.010865735 0.5155598 0.011008661 0.20301366 0.38905028 0.41101784
-0.9569267 -0.7806941 -0.3293895 -0.24751452 0.29195273 0.6238087 0.043733105 -0.6888735
0.10692219 -0.17450996 -0.10850021 -0.29232654 -0.28133205 0.0021289357 0.05817661 -0.20615588
-0.2918827 -0.3658086 -0.17363033 0.053414535 -0.07798635 -0.6219942 -0.083325714 0.3927331
0.45695466 -0.23213203 0.3831723 0.45796084 0.050568044 0.62927884 0.43251044 0.032072835
0.40914202 -0.32171252 -0.11028647 0.13924457 0.39351216 0.21750854 0.27257314 -0.4372294
-0.33768913 0.07230303 0.24747129 -0.56723017 -0.12980615 0.38838145 -0.27990285 0.4495479
0.51767397 -0.31347793 0.2510538 -0.61399955 0.09498334 -0.5932503 -0.43013886 -0.57832223
0.38049605 0.035740193 0.39999104 0.43391988 0.14641047 -0.7915046 -0.15976273 0.5996551
0.6006317 0.0018781291 -0.5803659 0.076432526 -0.0799127 -0.169894 0.114842996 -0.019438406
-0.015695522 -0.03827209 -0.33064544 0.12050999 -0.39514604 -0.14737691 -0.25421906 -0.18244725
0.46190462 0.72315055 -0.1577696 0.0042867064 -0.7567777 1.0427066 0.3529067 -0.26174888
0.19212678 -0.23348719 -0.4192007 0.089963704 -0.175252 -0.21062289 -0.32018563 -0.18431824
0.26399022 0.24941531 0.033096064 -0.68426317 0.13245675 0.046321686 0.36584672 -0.097057045
0.44706094 -0.20896861 0.412827 -0.37256148 -0.009125415 0.509288 0.23064095 0.0106777605
-0.010516334 0.23407306 0.0038660378 0.21621302 0.2261948 -0.48915818 0.13676941 0.24874623
0.68869746 -0.0022402413 -0.18992704 0.4922628 -0.85509056 0.12970611 0.10910781 -0.6544851
0.064918034 -0.2867868 0.43638426 -0.0068885484 0.040240742 -0.08932644 0.115493625 0.5694556
0.7420162 -0.6240163 -0.09250017 -0.4129735 0.21005486 -0.23852976 0.5050944 -0.71282214
-0.15629327 0.25561962 0.28356645 -0.21041134 0.52839017 -0.10633801 0.2316763 -0.039061025
-0.4158424 0.21476851 0.053789247 -0.55271566 0.7017181 0.018037543 0.40427157 -0.16601264
00000000: 9df8 1ebf 0c5f 89bb 65bd a7be 25cc 13bf
00000010: 3020 53be 8436 a43e 4ba5 b3bc b08e b2bc
00000020: 97ed 21bf 6bcc 8fbe 7c8c 123f 18f4 e7be
00000030: 37ab a73d d64f 2cbe 4730 0e3e e147 6cbf
00000040: 5376 21be 457d cd3e a51c 84be 13ed 4d3c
00000050: 79c7 bebe 7a93 b53e dbd9 5bbe 106a e8bd
00000060: da3d 14be 1ce5 f4be c4bb f73c 1eba b53e
00000070: 2a9b 963e 8eda cebe a39d d93e 1ce9 97be
00000080: 776f d83d 09f1 83be ae58 abbc 14cc 44be
00000090: 18a3 1a3e 51ad 56bf c469 323e 362d c0be
000000a0: 0f72 1cbf 80fa 91be 92b5 203e dfa2 8dbe
000000b0: d091 283e 0650 1a3e 5e7e eabd a99b 6fbd
000000c0: b6fd 11bf dc5a e3bd ed90 fcbe 772e 673f
000000d0: 5e35 063f ca77 053f 1063 d4be 8461 3b3c
000000e0: 2dc7 6a3c 2d15 9e3d c4d6 c73c 9a30 fb3d
000000f0: c5e9 ecbd be66 f2bd 82d2 15be 7f25 debe
00000100: 0237 833d e8e0 47bf 1f16 73be 3454 313d
00000110: 4f7b 1abe 06e0 d7bd 37a5 70bd 8b0f 1a3e
00000120: 05dc 99be ccb6 233e 950c 0d3d d52e 3cbe
00000130: 39bd f53e 6371 d13c 0765 4e3d e47f 13bf
00000140: bf9c 0bbc 4e1a a4be d546 ddbd 4d9e 5fbd
00000150: 8965 9d3e 8ffd 35be dc0b 9d3d 49ec ec3c
00000160: c7ab 903d 8265 52bf 3206 32bc bafb 033f
00000170: ac5d 343c d0e2 4f3e 9931 c73e ee70 d23e
00000180: 26f9 74bf 92db 47bf bea5 a8be 7274 7dbe
00000190: d47a 953e edb1 1f3f 7c21 333d 045a 30bf
000001a0: 05fa da3d bdb2 32be 5c35 debd d3ab 95be
000001b0: c10a 90be 9d85 0b3b 994a 6e3d 871a 53be
000001c0: a671 95be 444b bbbe 26cc 31be 33c9 5a3d
000001d0: 4fb7 9fbd 033b 1fbf aca6 aabd 5014 c93e
000001e0: f6f5 e93e 05b4 6dbe 292f c43e d879 ea3e
000001f0: 7020 4f3d 6b18 213f 0272 dd3e ce5e 033d
00000200: 107b d13e 81b7 a4be dfdd e1bd 2196 0e3e
00000210: 6d7a c93e 8fba 5e3e b58e 8b3e 88dc dfbe
00000220: 97e5 acbe 9c13 943d 1d69 7d3e ff35 11bf
00000230: e7eb 04be efd9 c63e 6d4f 8fbe 242b e63e
00000240: 4886 043f 2e80 a0be 208a 803e 132f 1dbf
00000250: a086 c23d 40df 17bf 293b dcbe ed0c 14bf
00000260: 61d0 c23e 4f64 123d a0cb cc3e bf2a de3e
00000270: a0ec 153e 0ca0 4abf d798 23be ff82 193f
00000280: 00c3 193f 8e2b f63a dc92 14bf a888 9c3d
00000290: 45a9 a3bd b1f8 2dbe ce32 eb3d 4b3d 9fbc
000002a0: e593 80bc 32c3 1cbd 5c4a a9be f1cd f63d
000002b0: 9550 cabe f9e9 16be 0029 82be 74d3 3abe
000002c0: c37e ec3e 6520 393f 5b8e 21be 8077 8c3b
000002d0: 2fbc 41bf 6977 853f 30b0 b43e f303 86be
000002e0: e2bc 443e 4417 6fbe 79a1 d6be e43e b83d
000002f0: 4375 33be 87ad 57be 5fef a3be ecbd 3cbe
00000300: ba29 873e ba66 7f3e bd8f 073d df2b 2fbf
00000310: bea2 073e cfbb 3d3d 4350 bb3e d8c5 c6bd
00000320: 2ce5 e43e defb 55be 0f5e d33e 61c0 bebe
00000330: c482 15bc b360 023f 242d 6c3e c6f1 2e3c
00000340: b44c 2cbc d9b0 6f3e 5a5d 7d3b f266 5d3e
00000350: 9c9f 673e f172 fabe 480d 0c3e 55b7 7e3e
00000360: 7a4e 303f 03d1 12bb 3c7c 42be df09 fc3e
00000370: 37e7 5abf aed1 043e ea73 df3d 568c 27bf
00000380: bff3 843d b8d5 92be c26d df3e 55b9 e1bb
00000390: 7ad3 243d c8f0 b6bd ec87 ec3d d8c7 113f
000003a0: c6f4 3d3f 88bf 1fbf bb70 bdbd 4371 d3be
000003b0: 9f18 573e 2541 74be de4d 013f 837b 36bf
000003c0: 580b 20be 93e0 823e 9f2f 913e 1276 57be
000003d0: 9444 073f bec7 d9bd 8d3c 6d3e 74fe 1fbd
000003e0: 4ce9 d4be 47ec 5b3e 1d52 5c3d c67e 0dbf
000003f0: cca3 333f 78c3 933c affc ce3e 38ff 29be

network_body._body_endoder.seq_layers.0.bias f4 [128]
-0.03914263 0.054951206 -0.03087857 -0.014017892 -0.042643085 0.022637835 -0.03219236 -0.03564407
-0.036307804 0.012317846 0.009982594 0.031921513 -0.02339335 -0.042395324 0.025177132 0.001197817
-0.021913353 0.023230253 -0.048427045 0.0034896177 0.014630628 0.0017263878 -0.016048234 -0.023444388
-0.029409459 0.036763944 -0.0554556 -0.027864844 -0.032903932 -0.030636122 -0.014889686 -0.045895535
-0.011773327 0.012637475 -0.013438202 -0.028350675 -0.012776025 -0.015418023 -0.020355796 -0.07290331
0.031430595 0.035977826 0.037589576 -0.069542624 -0.03339896 0.031130543 -0.0153709985 -0.005896808
-0.007940595 -0.012690104 -0.041627504 -0.00602641 -0.04335611 0.018229214 -0.055427197 -0.046716377
-0.04189299 -0.037645057 -0.013137715 0.0033901713 0.007767126 0.0046541216 -0.0101818815 0.04394421
0.03251912 0.02234266 -0.09864942 -0.003103541 0.024699908 -0.053683396 0.021552974 0.021126376
0.025473043 -0.046509508 0.060845114 0.04007511 0.0015502721 0.05330489 -0.0008379331 -0.047614
-0.046433564 -0.051219564 -0.012476159 -0.01203319 -0.03651853 -0.079930834 -0.039397657 -0.005724293
-0.035931624 -0.04920215 -0.056313578 -0.013699838 -0.08536608 8.332518e-05 -0.073307075 -0.029198295
0.04684913 -0.019929534 0.0090551665 -0.03527255 -0.07606448 0.0072214296 -0.022302262 0.037189547
-0.0011393889 0.02829487 -0.062027168 -0.0164978 -0.056648456 -0.0518901 -0.018807154 0.019355524
0.042028897 -0.005565547 0.059545968 -0.048953258 -0.010291616 0.061578922 -0.017141452 -0.026962906
0.015221628 -0.05331405 -0.013524079 -0.049995374 -0.043935914 -0.06632837 0.0021938474 -0.08166016
00000000: 0654 20bd 8414 613d 0ef5 fcbc 4dab 65bc
00000010: 84aa 2ebd fb72 b93c 23dc 03bd 84ff 11bd
00000020: 7eb7 14bd cad0 493c 098e 233c 22c0 023d
00000030: 69a3 bfbc b8a6 2dbd 4640 ce3c 1200 9d3a
00000040: a283 b3bc 5f4d be3c 705b 46bd 12b2 643b
00000050: 4db5 6f3c f647 e23a 9677 83bc 720e c0bc
00000060: 1bec f0bc ca95 163d 6925 63bd d044 e4bc
00000070: 46c6 06bd 9bf8 fabc dff3 73bc f5fc 3bbd
00000080: eae4 40bc 690d 4f3c e82b 5cbc ad3f e8bc
00000090: 8852 51bc e09b 7cbc 33c1 a6bc 554e 95bd
000000a0: 5ebd 003d 7c5d 133d 87f7 193d 5d6c 8ebd
000000b0: 59cd 08bd 7b05 ff3c a4d6 7bbc 033a c1bb
000000c0: 4519 02bc 27ea 4fbc 9a81 2abd 3179 c5bb
000000d0: 2d96 31bd 6f55 953c a107 63bd ac59 3fbd
000000e0: fc97 2bbd b431 1abd 923f 57bc a32d 5e3b
000000f0: 6083 fe3b 9a81 983b e8d1 26bc d8fe 333d
00000100: c532 053d f407 b73c b508 cabd c764 4bbb
00000110: 7657 ca3c 1fe3 5bbd dd8f b03c 3911 ad3c
00000120: d8ac d03c c180 3ebd ba38 793d cc25 243d
00000130: 8032 cb3a 3a56 5a3d bda8 5bba e606 43bd
00000140: 1f31 3ebd 9bcb 51bd ce68 4cbc db26 45bc
00000150: 7494 15bd c7b2 a3bd 705f 21bd da92 bbbb
00000160: 0a2d 13bd 3288 49bd 11a9 66bd 4975 60bc
00000170: 69d4 aebd debe ae38 0522 96bd 4331 efbc
00000180: e0e4 3f3d 4343 a3bc 1f5c 143c f379 10bd
00000190: b2c7 9bbd bea1 ec3b 3cb3 b6bc 1154 183d
000001a0: 8c57 95ba a5ca e73c 3310 7ebd 6526 87bc
000001b0: 3608 68bd b78a 54bd 7611 9abc 7a8f 9e3c
000001c0: 7e26 2c3d 315f b6bb 79e6 733d 3683 48bd
000001d0: 2b9e 28bc 2e3a 7c3d 3b6c 8cbc 50e1 dcbc
000001e0: 2364 793c d55f 5abd 1994 5dbc f3c7 4cbd
000001f0: 25f6 33bd 2bd7 87bd a7c6 0f3b 713d a7bd

network_body._body_endoder.seq_layers.2.weight f4 [128, 128]
0.011821407 -0.086466394 0.090863705 0.030567432 0.043130025 0.0841697 0.030760134 -0.06863813
-0.076304756 0.07085864 -0.012250095 0.061958864 -0.17985977 -0.061937448 0.032478686 -0.14767885
-0.07721246 -0.039269574 -0.15603302 -0.093394406 -0.019368958 0.049484856 -0.14554612 -0.044744644
0.013390635 -0.06077401 0.029650921 -0.044491645 0.11414366 -0.1756752 0.06758886 0.0012478511
0.08946595 0.02287928 -0.011461382 -0.122769356 0.034517694 -0.0515386 -0.2391403 -0.16489291
0.053879824 -0.13418464 0.1331082 -0.056274068 -0.1255595 0.1426291 -0.0749615 -0.15643802
0.045436922 -0.025869412 0.0457463 -0.050754547 -0.008541443 -0.076202124 0.036191866 0.15485679
0.003666735 0.057100594 -0.045602433 0.13638818 0.09110654 0.042432226 -0.11049799 -0.091390096
0.04090568 -0.029112201 -0.06370599 0.19004902 -0.114483476 0.06734579 0.15586524 -0.05895862
-0.09691788 -0.056568254 -0.14345069 0.014410648 0.003481588 0.045988675 0.1679339 0.031095289
-0.0043588285 -0.013446856 -0.028046696 -0.108364284 0.05031583 -0.13054064 -0.08222773 0.07106771
0.009288724 0.0068787322 -0.054567374 -0.0027644243 -0.08565293 0.094192415 0.049140885 -0.042819597
0.045004796 -0.109331846 -0.10673051 -0.19208634 -0.17163055 -0.049867775 -0.051075485 0.025367694
-0.04468437 -0.17059927 -0.10967671 -0.042064544 -0.14532948 -0.11933417 -0.10119758 0.029406337
0.10664138 0.0042519714 0.010218911 0.15095079 -0.058787815 0.02130586 0.0015610775 -0.20919906
-0.034541897 -0.031532224 0.053859532 -0.16444142 0.017691417 -0.05577157 -0.06991822 -0.13370296
0.018941047 -0.13026944 0.11979835 0.01238183 0.032486867 -0.0035164955 -0.10417582 -0.07395972
0.115531825 -0.13379508 -0.008770911 0.083254345 0.021639314 -0.17447671 -0.085160285 -0.06322891
0.03849625 -0.018653823 0.010754751 0.25462785 -0.031326957 -0.06820875 0.08116054 -0.12700737
0.21863106 0.022552641 -0.07929998 -0.067771584 0.019745823 -0.020837272 -0.012364943 -0.11135859
-0.026063906 0.10777029 0.116292216 -0.004277999 -0.0014493439 -0.115259886 0.04583641 -0.0701187
-0.01447473 0.041987434 0.0005807794 0.003917233 0.007983742 -0.037305657 -0.012636564 -0.06599938
-0.13343947 0.046168193 0.17477936 -0.10850059 0.039691217 -0.046739977 0.07204615 0.061164133
0.059245758 -0.052006453 0.0908078 -0.051188618 -0.05381481 0.041440714 0.105483435 -0.025485167
-0.0013643163 -0.004582659 -0.06647954 -0.081200585 -0.039853428 0.04664395 -0.07606013 -0.17501564
-0.010759528 0.07908776 0.04893065 -0.10675548 -0.06102794 0.05992363 0.031155791 -0.025481068
0.171145 0.108506165 0.06440987 -0.08007615 -0.13688506 0.0339786 -0.07521541 -0.05172838
-0.14530817 0.15028633 0.13313474 -0.08842269 0.031271875 0.12123058 -0.055011284 -0.10002478
-0.05843245 0.009179483 0.12115451 0.21057284 0.090163626 0.014783805 0.045122493 -0.0042117983
-0.016669698 -0.05207535 0.10537863 0.008068379 0.19775762 -0.19288447 0.0036660992 0.0050751446
-0.05882419 0.09917517 0.045900844 -0.0033901804 -0.113755025 0.0072378055 -0.05365618 -0.06461184
-0.010520012 0.1175716 -0.10114437 0.15221739 0.08321631 0.0937849 -0.027180964 -0.06690661
00000000: 93ae 413c 4b15 b1bd c016 ba3d 8d68 fa3c
00000010: 1ca9 303d 2a61 ac3d adfc fb3c 2692 8cbd
00000020: ab45 9cbd 561e 913d 9fb4 48bc 94c8 7d3d
00000030: 292d 38be 1fb2 7dbd 5f08 053d 2039 17be
00000040: 9121 9ebd 22d9 20bd 1fc7 1fbe 9145 bfbd
00000050: a6ab 9ebc a2b0 4a3d 0b0a 15be 2946 37bd
00000060: 6564 5b3c 2bee 78bd 7de6 f23c df3c 36bd
00000070: 27c4 e93d 33e4 33be 076c 8a3d ef8e a33a
00000080: ed39 b73d 546d bb3c 85c8 3bbc 806e fbbd
00000090: 6d62 0d3d 241a 53bd 32e1 74be b0d9 28be
000000a0: 17b1 5c3d b367 09be 844d 083e a37f 66bd
000000b0: ab92 00be 5d0d 123e 6a85 99bd 4a31 20be
000000c0: 111c 3a3d 17ec d3bc 7960 3b3d 00e4 4fbd
000000d0: 69f1 0bbc dc0f 9cbd ec3d 143d c792 1e3e
000000e0: 9b4d 703b 50e2 693d 9ec9 3abd 58a9 0b3e
000000f0: 1196 ba3d 6acd 2d3d c54c e2bd bb2a bbbd
00000100: b78c 273d b67c eebc 4978 82bd 369c 423e
00000110: 5076 eabd 97ec 893d 239b 1f3e 987e 71bd
00000120: e27c c6bd 1db4 67bd bde4 12be a31a 6c3c
00000130: 5b2b 643b 9f5e 3c3d ddf6 2b3e 8cbb fe3c
00000140: 81d4 8ebb 3450 5cbc 2fc2 e5bc 18ee ddbd
00000150: f917 4e3d 72ac 05be 0367 a8bd f38b 913d
00000160: bb2f 183c fd66 e13b 0a82 5fbd 582b 35bb
00000170: ce6a afbd f4e7 c03d f447 493d 9a63 2fbd
00000180: f356 383d 60e9 dfbd 8795 dabd 48b2 44be
00000190: ebbf 2fbe 2742 4cbd 8734 51bd e9cf cf3c
000001a0: f506 37bd 93b1 2ebe 2f9e e0bd df4b 2cbd
000001b0: 40d1 14be 7965 f4bd ad40 cfbd 8fe5 f03c
000001c0: cc66 da3d 1f54 8b3b 386d 273c d892 1a3e
000001d0: 7ecb 70bd a089 ae3c 129d cc3a 4738 56be
000001e0: ce7b 0dbd ef27 01bd d09b 5c3d 5563 28be
000001f0: 97ed 903c bb70 64bd 4931 8fbd 6ee9 08be
00000200: 412a 9b3c 5a65 05be d658 f53d 29dd 4a3c
00000210: f310 053d 0175 66bb 225a d5bd 3278 97bd
00000220: f39b ec3d 9401 09be deb3 0fbc 4181 aa3d
00000230: ee44 b13c 06aa 32be 8468 aebd 297e 81bd
00000240: 3eae 1d3d e7cf 98bc b234 303c 955e 823e
00000250: b250 00bd 07b1 8bbd 7f37 a63d 380e 02be
00000260: d2e0 5f3e 51c0 b83c 0768 a2bd d4cb 8abd
00000270: fec1 a13c edb2 aabc 5496 4abc f90f e4bd
00000280: f983 d5bc abb6 dc3d 9d2a ee3d 752e 8cbb
00000290: e9f7 bdba 600d ecbd f6be 3b3d 659a 8fbd
000002a0: 6b27 6dbc 04fb 2b3d 723f 183a 225c 803b
000002b0: 3ece 023c d1cd 18bd 9709 4fbc af2a 87bd
000002c0: 5ba4 08be dc1a 3d3d 5cf9 323e 8f35 debd
000002d0: 4293 223d 6b72 3fbd ef8c 933d 3e87 7a3d
000002e0: aeab 723d b804 55bd 71f9 b93d 28ab 51bd
000002f0: eb6c 5cbd bdbd 293d b307 d83d 45c6 d0bc
00000300: dcd2 b2ba 212a 96bb 6d26 88bd 7e4c a6bd
00000310: 593d 23bd ba0d 3f3d 6ac5 9bbd 4d37 33be
00000320: bb48 30bc c3f8 a13d 816b 483d 9ea2 dabd
00000330: 6ff8 79bd 7b72 753d 6e3a ff3c acbd d0bc
00000340: a340 2f3e 7b38 de3d 52e9 833d f7fe a3bd
00000350: 992b 0cbe 252d 0b3d 890a 9abd 23e1 53bd
00000360: aacb 14be a9e4 193e 7954 083e f516 b5bd
00000370: f016 003d bd47 f83d 8353 61bd cbd9 ccbd
00000380: dd56 6fbd 8b65 163c db1f f83d 68a0 573e
00000390: b5a7 b83d c637 723c 5dd2 383d 2003 8abb
000003a0: e48e 88bc f64c 55bd c0d0 d73d 3c31 043c
000003b0: f980 4a3e 8283 45be f042 703b 664d a63b
000003c0: a2f1 70bd 5a1c cb3d 8602 3c3d ca2d 5ebb
000003d0: 65f8 e8bd 1d2b ed3b 95c6 5bbd 3653 84bd
000003e0: 215c 2cbc 61c9 f03d c824 cfbd e0de 1b3e
000003f0: 506d aa3d 4c12 c03d 9daa debc 5506 89bd

network_body._body_endoder.seq_layers.2.bias f4 [128]
0.009095689 -0.00062493846 0.0108305495 -0.015395844 -0.02314087 -0.0397342 -0.006376057 0.0341417
0.03139931 0.0033234358 -0.016610863 -0.009031037 -0.020949405 -0.008889787 0.034631588 0.016691595
-0.018512815 -0.0006435447 -0.01988067 -0.006901729 0.03430402 0.009798805 -0.046816222 0.018177547
-0.045162424 -0.026438143 -0.004444162 0.030293755 -0.039549854 -0.009542901 0.0040899934 -0.022237398
-0.033340003 0.028608352 -0.0042217034 0.005377771 -0.018115256 -0.0029065388 0.037372183 -0.013035647
-0.018371362 -0.008148695 -0.0060325717 -0.023449792 -0.0008744218 -0.0231113 0.005290239 -0.02760089
-0.03167073 0.025034603 0.0064745904 0.02451767 0.013049852 0.0012984464 0.010849001 -0.044541378
-0.025808012 0.017018152 0.02826546 -0.055785235 0.021871643 0.007328412 -0.0017611296 -0.024094166
-0.026318857 -0.02906328 -0.011638716 0.02555213 -0.046112873 0.031362977 -0.013292611 -0.0022606407
0.0032885065 0.004733663 -0.0123746395 -0.0009658149 -0.01760112 -0.06774171 -0.024167813 0.008200176
-0.03972687 0.021979453 0.03364323 -0.0046050837 -0.01312566 -0.018887538 -0.035856716 -0.040368814
0.019782268 -0.015442509 -0.054980494 0.005638192 -0.0065475246 0.016910696 -0.012182793 0.0021691916
-0.022381583 -0.014235269 0.028352942 0.015373977 -0.0023971146 -0.010952303 -0.0014409489 -0.0145856105
-3.7177982e-05 0.0040473416 0.0013989939 0.02431965 0.05159559 0.01075973 -0.016055843 0.0010426347
0.016813109 0.031390484 -0.012741701 0.016759958 0.06282453 -0.013394224 0.03561786 -0.0029924656
0.006060233 0.016697608 -5.990763e-05 0.031708196 -0.0030932329 0.0062021203 0.006300282 -0.011312015
00000000: 1606 153c e9d2 23ba 9e72 313c da3e 7cbc
00000010: ec91 bdbc 54c0 22bd 3eee d0bb 2bd8 0b3d
00000020: 909c 003d 00ce 593b 8113 88bc eaf6 13bc
00000030: 169e abbc 78a6 11bc dad9 0d3d d0bc 883c
00000040: 30a8 97bc 8eb3 28ba c9dc a2bc e627 e2bb
00000050: 5f82 0c3d 2b8b 203c 5ec2 3fbd 14e9 943c
00000060: 3cfc 38bd ce94 d8bc 55a0 91bb 9c2a f83c
00000070: 07ff 21bd d459 1cbc 5a05 863b 342b b6bc
00000080: 878f 08bd 105c ea3c 3756 8abb 0338 b03b
00000090: 7266 94bc a17b 3ebb 9313 193d 7793 55bc
000000a0: 8a7f 96bc 1b82 05bc e1ac c5bb c719 c0bc
000000b0: 7439 65ba e953 bdbc be59 ad3b 431b e2bc
000000c0: 2bb9 01bd 5e15 cd3c cd28 d43b 48d9 c83c
000000d0: 0ccf 553c a230 aa3a 02c0 313c 0571 36bd
000000e0: 536b d3bc a769 8b3c f78c e73c 0f7f 64bd
000000f0: 292c b33c 2d23 f03b b4d5 e6ba 2161 c5bc
00000100: a59a d7bc 1e16 eebc 50b0 3ebc b352 d13c
00000110: dae0 3cbd 7776 003d 40c9 59bc 4227 14bb
00000120: fc83 573b d81c 9b3b 00bf 4abc be2e 7dba
00000130: 3930 90bc 2abc 8abd 94fb c5bc 085a 063c
00000140: a4b8 22bd 410e b43c 7ccd 093d 3ee6 96bb
00000150: 020d 57bc 0aba 9abc 7ede 12bd c559 25bd
00000160: 6c0e a23c 9402 7dbc 3a33 61bd 95c0 b83b
00000170: 9e8c d6bb 4d88 8a3c 569a 47bc ff28 0e3b
00000180: 9559 b7bc 0c3b 69bc 6e44 e83c 22e3 7b3c
00000190: e918 1dbb 4a71 33bc 39de bcba 7cf8 6ebc
000001a0: 8eef 1bb8 909f 843b 725e b73a 013a c73c
000001b0: e655 533d 9449 303c 8b87 83bc 04a9 883a
000001c0: a5bb 893c 4f93 003d 91c2 50bc 2e4c 893c
000001d0: 26aa 803d 7373 5bbc 08e4 113d 3e1d 44bb
000001e0: eb94 c63b 6cc9 883c 5445 7bb8 74e0 013d
000001f0: d6b7 4abb 283b cb3b 9972 ce3b 0856 39bc

action_model._discrete_distribution.branches.0.weight f4 [5, 128]
-0.0060843304 0.03053032 -0.03282724 0.07271145 -0.00045790838 0.0017001472 0.03814721 -0.053826425
-0.02223698 0.037857223 0.016024698 0.0037749205 0.008098528 0.0006651894 -0.010323055 0.0027734183
0.020596908 0.020555846 0.013013106 0.033171643 0.016070861 -0.008935412 0.011150532 0.024967445
0.01771166 0.022985892 -0.00039470335 -0.0409735 -0.013079163 -0.029033655 0.0014517314 0.03455962
0.034129206 -0.07463527 -0.009908424 -0.049586162 0.020466162 0.0073730773 -0.10504367 -0.020076716
0.015398025 0.0039944076 0.00951741 -0.0033541205 -0.035013508 -0.049198985 -0.04997007 0.017670866
-0.005679664 -0.01583776 0.013978654 -0.040991466 -0.001801005 -0.053680703 -0.013854336 -0.01899938
-0.0015083955 -0.018776642 -0.04915729 0.013664264 -0.02899345 -0.061870802 -0.041788314 -0.0154853
0.034440026 -0.007810392 0.04219042 -0.046470944 -0.0018836743 -0.007719938 0.0001759491 -0.027460178
-0.021393303 -0.0399892 0.024035485 0.033171084 -0.029874451 0.0048311683 0.01744661 -0.016418751
0.0071304236 -0.04691502 -0.0050999266 0.06434585 -0.03272514 0.044513002 0.010385121 0.024301643
-0.0009367713 0.010059634 0.0072928346 0.0034510584 -0.027454276 0.024908254 -0.006104178 0.027443739
0.03593915 -0.010064108 0.071401745 -0.044341043 -0.019788425 0.028058631 0.0019164653 -0.00047905455
0.009073916 0.0102885105 -0.04707385 -0.046563707 -0.03308914 0.045923144 0.0011318477 0.0158753
-0.03812575 -0.042204045 -0.04317788 -0.06008388 -0.015685104 -0.049251974 -0.050333284 -0.04982223
0.023267575 0.03040365 0.021412527 -0.032844737 -0.038290843 -0.00957464 0.037248597 0.0019987926
-0.034367256 0.014683019 -0.018295553 0.014792863 0.00045992478 -0.004317735 0.024173852 -0.069230884
-0.004637086 0.013370286 -0.0006646918 0.03635431 0.009684523 0.029364772 -0.015132641 -0.020735046
0.0038719254 0.018255427 -0.012516715 -0.015881091 -0.012197006 -0.02775171 -0.002436969 -0.003829067
0.014743775 0.012841443 0.022160267 -0.054068916 0.015440482 0.03395323 0.06035032 0.0053112037
0.033620942 -0.033248723 -0.020426359 -0.016119359 -0.0020043987 0.015647981 0.020467723 -0.010944946
0.0010946587 0.04868393 -0.008388444 0.023720663 -0.029735062 0.027207708 0.03019004 -0.019643242
-0.0048007914 -0.020701388 0.045807943 0.013793497 0.033128127 -0.0029890027 0.013019586 -0.017671274
0.003952776 -0.019536098 -0.029274972 0.012565907 -0.011323025 0.018613223 0.0030283162 0.038620144
-0.006229731 0.013053901 0.020966196 -0.050387528 -0.027451726 -0.00086141634 0.04970369 0.038731907
0.013315486 0.013993949 -0.017300311 0.007828066 0.006209468 -0.0054161823 0.0073669967 -0.011670355
-0.030368663 -0.049977485 -0.03311377 0.006821581 0.0065458375 0.020149367 0.002470167 -0.0019470152
-0.016127542 -0.010176141 0.011076195 -0.007971989 0.058268588 0.0011157606 0.018129056 0.01510049
0.054793496 0.029729206 -0.017133202 -0.052749977 -0.03485397 0.028638963 -0.0087032905 0.03117941
-0.01618593 0.022069661 0.036639433 -0.0598533 -0.0382734 0.06335207 0.004344381 -0.013868125
-0.05595828 0.018054835 0.049223322 -0.03328086 0.048289698 -0.037281595 0.040147696 0.007978606
-0.05045039 -0.018404555 -0.008977432 -0.027298512 0.04616819 -0.04276367 0.011745701 0.04462285
00000000: 105f c7bb b91a fa3c db75 06bd bee9 943d
00000010: 6c13 f0b9 79d7 de3a 4040 1c3d 1979 5cbd
00000020: 542a b6bc 2d10 1b3d 3a46 833c a864 773b
00000030: b0af 043c 1b60 2e3a 0822 29bc 3dc2 353b
00000040: d9ba a83c bc64 a83c ec34 553c fdde 073d
00000050: 0aa7 833c d665 12bc b9b0 363c 8788 cc3c
00000060: 0b18 913c e94c bc3c 30f0 ceb9 d4d3 27bd
00000070: fc49 56bc fdd7 edbc 0648 be3a 638e 0d3d
00000080: 11cb 0b3d 60da 98bd f156 22bc dc1a 4bbd
00000090: a7a8 a73c db99 f13b 2321 d7bd ed77 a4bc
000000a0: ff47 7c3c 85e3 823b e9ee 1b3c ced0 5bbb
000000b0: 536a 0fbd e084 49bd 6bad 4cbd 7ec2 903c
000000c0: 7a1c babb 31be 81bc b906 653c abe6 27bd
000000d0: b30f ecba 4ce0 5bbd 4cfd 62bc 96a4 9bbc
000000e0: 5bb5 c5ba 79d1 99bc 2859 49bd 14e0 5f3c
000000f0: ac83 edbc 3d6c 7dbd 392a 2bbd 0eb6 7dbc
00000100: fc10 0d3d 51ee ffbb ddcf 2c3d 5158 3ebd
00000110: 9fe5 f6ba 89f7 fcbb fa7e 3839 2bf4 e0bc
00000120: 0241 afbc b7cb 23bd 11e6 c43c 67de 073d
00000130: 44bb f4bc c74e 9e3b 31ec 8e3c 9e80 86bc
00000140: 54a6 e93b f729 40bd 491d a7bb c2c7 833d
00000150: cc0a 06bd 4453 363d 5b26 2a3c 3d14 c73c
00000160: a891 75ba 2ad1 243c bbf8 ee3b 272b 623b
00000170: cae7 e0bc 650c cc3c 8e05 c8bb b1d1 e03c
00000180: ee34 133d eee3 24bc 143b 923d f49e 35bd
00000190: 561b a2bc 37db e53c e831 fb3a 9d29 fbb9
000001a0: c3aa 143c 2491 283c 82d0 40bd 96b9 3ebd
000001b0: 7a88 07bd e819 3c3d 825a 943a eb0c 823c
000001c0: bf29 1cbd 26de 2cbd 4adb 30bd 841a 76bd
000001d0: 0c7e 80bc 70bc 49bd 462a 4ebd 6512 4cbd
000001e0: a49b be3c 1311 f93c 5369 af3c 3488 06bd
000001f0: dcd6 1cbd f3de 1cbc fc91 183d 2dfe 023b
00000200: aec4 0cbd 0c91 703c 8ee0 95bc c45d 723c
00000210: 0f22 f139 c97b 8dbb 3e08 c63c ecc8 8dbd
00000220: b2f2 97bb 0b0f 5b3c b63e 2eba 42e8 143d
00000230: d5ab 1e3c 648e f03c e6ee 77bc 8bdc a9bc
00000240: 21c0 7d3b 688c 953c e812 4dbc 1019 82bc
00000250: f3d5 47bc 8e57 e3bc 8eb5 1fbb 16f1 7abb
00000260: e08f 713c ea64 523c 7389 b53c 5e77 5dbd
00000270: 13fa 7c3c 8b12 0b3d e631 773d 9b09 ae3b
00000280: 1db6 093d d02f 08bd 2e55 a7bc bf0c 84bc
00000290: 3b5c 03bb 3230 803c edab a73c 6e52 33bc
000002a0: a77a 8f3a cd68 473d af6f 09bc d651 c23c
000002b0: f296 f3bc b3e2 de3c 1a51 f73c ddea a0bc
000002c0: f54f 9dbb f595 a9bc 1ca1 3b3d 1ffe 613c
000002d0: 5cb1 073d 25e3 43bb 1a50 553c 59c3 90bc
000002e0: 4a86 813b 2b0a a0bc 11d2 efbc 3ce1 4d3c
000002f0: 3684 39bc c27a 983c b776 463b 2830 1e3d
00000300: c522 ccbb 07e0 553c 4dc1 ab3c 2763 4ebd
00000310: 71e2 e0bc acd0 61ba 1996 4b3d 59a5 1e3d
00000320: 3229 5a3c e046 653c 62b9 8dbc 4a41 003c
00000330: cb78 cb3b 3b7a b1bb d966 f13b 0435 3fbc
00000340: b4c7 f8bc 31b5 4cbd 4ea2 07bd 9287 df3b
00000350: 777e d63b 4910 a53c 86e2 213b fd32 ffba
00000360: e81d 84bc d4b9 26bc ee78 353c f29c 02bc
00000370: 0bab 6e3d b73e 923a 6383 943c 0c68 773c
00000380: 256f 603d aa8a f33c ee5a 8cbc 5c10 58bd
00000390: 09c3 0ebd 429c ea3c 3f98 0ebc f66b ff3c
000003a0: 5b98 84bc 6fcb b43c 3b13 163d bc28 75bd
000003b0: 92c4 1cbd bbbe 813d 4f5b 8e3b 2237 63bc
000003c0: 8234 65bd bce7 933c 659e 493d 8351 08bd
000003d0: 6bcb 453d 96b4 18bd e971 243d b3b8 023c
000003e0: 11a5 4ebd 26c5 96bc 1416 13bc 21a1 dfbc
000003f0: db1a 3d3d f528 2fbd 0a71 403c 73c6 363d

action_model._discrete_distribution.branches.0.bias f4 [5]
-0.033368517 0.0006458413 0.017633934 0.011138875 -0.014092366
00000000: 6dad 08bd ad4d 293a 0a75 903c d47f 363c
00000010: abe3 66bc
