results/SnakeAgent/SnakeAgent/SnakeAgent-33124.onnx (onnx, 77659 bytes, 6 tensors)

network_body._body_endoder.seq_layers.0.weight f4 [128, 7]
00000000: 1f52 19be 19be a23d f38e 0c3f 6de9 bf3e
00000010: e698 633d 31ec 4b3d ac89 1f3d a107 22bf
00000020: 0f1f 55be f883 ab3d 3f33 8cbd 323a b8be
00000030: a309 75be 901d 74be e8d4 223f c3ad d3bd
00000040: f2c0 053f 0f38 3abf f2f0 613e 8692 30bf
00000050: 4cb0 e4be d264 b03e bda8 823e a525 5fbd
00000060: 4603 043e 58fd bcbe f186 1a3f 3ff5 e0be
00000070: 2646 b83e 14bd 353e dec6 d4be ef30 783e
00000080: dacc 09be 6f72 a73e fbca ca3e 164f 8dbe
00000090: 7cde 1e3f 2151 c2be 4743 113d fc29 7c3e
000000a0: 43cb 973c 6a1e 1cbf 4b3d febe c0d7 953d
000000b0: b538 fb3c c5da bb3e 05c0 14be 0e8f 1fbf
000000c0: b9ed 033f 352c b53d 4079 dc3e eb96 e1be
000000d0: a2e5 d1bd 608c 43bf 1836 a93d 2975 843e
000000e0: f9c6 3cbf 2476 30be 3595 103f e470 d9be
000000f0: 3c42 1e3e 9ed2 42bf a002 4abe e2ef 113f
00000100: ddc2 a13d 08ef 693e 979d 453e 7b95 3dbe
00000110: b177 d03e fe10 2d3f a1df 75be fdb4 48bf
00000120: a5cb 563e f3d7 4a3f 8a10 993e 2bb0 463b
00000130: 95b3 bfbf 3904 b6be 3edb 283e 979b 5f3e
00000140: e7d0 a63e 443a f1be 0c1d f93e 6802 c5bd
00000150: 110d 8abf 0063 1ebf 2e4d 313f d512 31be
00000160: 692f dbbd cd53 40ba 678f 243d bbf7 eebe
00000170: 91a5 ecbe 07ec e33e ba6b 1e3e e752 443f
00000180: 8261 4bbe f76a a23d df88 e3be b9e4 9a3e
00000190: 1496 843e e343 e63d f261 da3d ad59 90be
000001a0: 2a8a cebe 0d48 363e 902d 86be 4864 0c3f
000001b0: 3dd7 80be b31d 10be f431 02be e4c8 bfbe
000001c0: 7fcb 263e 2ce3 80be b69c 2bbd 014f 4b3f
000001d0: 2f32 cfbe 0c37 883d cd75 df3e 4ad9 b1bd
000001e0: a05e 103f 2f60 f2be 47de 85be 9acd e3bd
000001f0: b7e3 cfbe 9026 8fbe 14b0 06bf 8178 c43e
00000200: 3772 eb3d 57b4 efbe 8f3f ff3e 87af acbd
00000210: a8ae 5cbf 4b6b 103f 29f8 36bf de8d a5be
00000220: c96f a4be 1f9c 343e f5dd 823d ca9c b53e
00000230: 4570 0fbd ab39 0c3e 361f febe 28f2 5bbe
00000240: 2541 0cbe 3d77 a8be 9142 e1be cfdb bcbd
00000250: ac54 8ebe 8b5f 13bf 617f 893e 121a 7c3d
00000260: e746 38be ba44 bf3d e1a0 123d 0b5a a93f
00000270: 080a a9be ef03 ba3e b985 703d ba67 f23d
00000280: 96b7 d8bd 8b75 74bc 48cf e93e b251 f43e
00000290: 8dce 213d a401 c73e 661f 66bd 4581 be3d
000002a0: 4e43 893d 440f 0abe 75bc 5d3f e2aa aebe
000002b0: 10b4 7abe fb18 92bc 5e4c f0bd a339 9bbe
000002c0: fe9e 64be 2ba3 e5be 3364 bb3e 4394 01bc
000002d0: 2bc7 8f3e 65b6 233d 63ac 69bd 111e 21bf
000002e0: 4b47 a5be 1298 14be 5a04 f93e 5ef3 e4be
000002f0: bd83 3b3e 6d3c 4a3e 7c2e adba 2375 293f
00000300: 307b d0be 9fa6 c7be d9b8 9abd f009 dcbe
00000310: 5c91 3c3f ac8a 8f3e b156 883e 999a ee3d
00000320: fc3e 4dbc a2e7 063f cb76 06bf faac f43d
00000330: aa46 d63e 55b7 6cbd eb08 403e 53ca 00bf
00000340: a73f 013f e66b 3a3f da8a b4bd d086 08bf
00000350: 1e12 adbe a32e 3cbe 4c85 aa3a dea9 143f
00000360: 7541 a4be d21e 803e 0cc1 e7be cb6e e93d
00000370: ac94 08bf 4366 babd 6ee3 82bd 8ff3 013e
00000380: c418 c1be f470 c63d 9a3a 63be cd75 28be
00000390: 9e90 073e f763 4c3e f6ae f8be 10f6 50be
000003a0: 6275 043d e24a 17bf 0544 86be 9427 d93e
000003b0: 8141 b3bd 0aa7 0ebf e78e 6dbc 9e4f 2bbf
000003c0: 08eb d1be d991 943e 927a a33e a84f 82be
000003d0: 8138 76be b2b7 19bf e57f b33d 89d7 c53e
000003e0: 9243 dcbe 0a95 6fbf 75f1 ce3e 55d5 3f3f
000003f0: ffda 093e aef7 15be b544 1cbf 29d0 2d3e
-0.14972733 0.079464145 0.54905623 0.37482777 0.055565737 0.049785797 0.038949654 -0.6329289
-0.20812629 0.083747804 -0.06845712 -0.359819 -0.23929457 -0.23839402 0.6360612 -0.10335877
0.52247536 -0.7274179 0.2206457 -0.6897358 -0.44665754 0.3445192 0.25519362 -0.05447926
0.12891874 -0.36912036 0.60362154 -0.43937108 0.3599102 0.17747909 -0.41557974 0.24237417
-0.13457051 0.32704493 0.39607987 -0.275994 0.62058234 -0.3795252 0.03546455 0.24625391
0.01852954 -0.6098391 -0.49656138 0.07316542 0.030666688 0.36690345 -0.14526375 -0.6232766
0.5153461 0.088463224 0.43061256 -0.44060454 -0.10248877 -0.7638607 0.08262271 0.25870636
-0.7374111 -0.17232567 0.5647767 -0.4246894 0.15454954 -0.76102626 -0.19727564 0.5700666
0.07898495 0.2284509 0.19298397 -0.18514054 0.40716317 0.67604053 -0.24011089 -0.78401166
0.20976122 0.7923576 0.2989543 0.0030317407 -1.4976679 -0.35550097 0.16489884 0.21836697
0.32581255 -0.47114766 0.48654974 -0.096195996 -1.0785238 -0.6186981 0.6925839 -0.1729234
-0.10702402 -0.0007336706 0.04017582 -0.46673378 -0.46220067 0.44516012 0.15470782 0.76689
-0.19861415 0.07930558 -0.44440362 0.30252627 0.2589575 0.11243417 0.10663213 -0.28193417
-0.40339786 0.17800923 -0.26206636 0.5484052 -0.25164214 -0.1407383 -0.12714368 -0.37457955
0.16288565 -0.25173318 -0.041897498 0.79417425 -0.40467975 0.06651124 0.43644562 -0.08684023
0.56394386 -0.47339007 -0.26146147 -0.111232 -0.4060342 -0.27959108 -0.52612424 0.38373187
0.11496394 -0.46817276 0.4985318 -0.08431917 -0.86204004 0.56413716 -0.7147241 -0.323348
-0.32116535 0.1763768 0.06389991 0.35471183 -0.035019178 0.13693874 -0.49633187 -0.21479094
-0.13696726 -0.32903472 -0.439961 -0.09221613 -0.27798975 -0.5756766 0.26854995 0.0615483
-0.17995797 0.093392804 0.035797957 1.3230604 -0.33015466 0.36331126 0.058721278 0.118361905
-0.10581891 -0.014920603 0.45665956 0.4771858 0.039503623 0.3886844 -0.056182288 0.09302
0.067022905 -0.13482386 0.8661569 -0.34114748 -0.24482751 -0.017834177 -0.11733316 -0.3031741
-0.22326276 -0.4485105 0.36599883 -0.0079088835 0.2808164 0.039968867 -0.057049166 -0.629365
-0.32280955 -0.14511135 0.48636132 -0.44716924 0.18311973 0.19749613 -0.0013212706 0.6619436
-0.40718985 -0.3899431 -0.07554788 -0.42976332 0.736593 0.28035486 0.2662864 0.11650581
-0.012527224 0.52697194 -0.52525014 0.11947055 0.41850787 -0.057792027 0.18753402 -0.5030872
0.5048775 0.7282089 -0.08815546 -0.5333071 -0.33802885 -0.18377165 0.0013009696 0.58071697
-0.3208119 0.25023514 -0.4526447 0.11398085 -0.53351855 -0.09101536 -0.06391035 0.12690566
-0.37714207 0.09689513 -0.22190323 -0.16451187 0.13238761 0.19960009 -0.48570985 -0.20406365
0.032338507 -0.5909864 -0.2622377 0.42413008 -0.08752728 -0.5572363 -0.014499403 -0.6691836
-0.40999627 0.29017523 0.3192945 -0.25451398 -0.24044992 -0.6004592 0.08764628 0.38641003
-0.43020302 -0.9358679 0.40418592 0.74934894 0.13462447 -0.14645264 -0.6104234 0.16973938

network_body._body_endoder.seq_layers.0.bias f4 [128]
00000000: 43c6 44bc 16ba 9b3c 195d 273b 44cc 283b
00000010: c848 2d3b ccfd 163c 2f69 0b3d b24f fa3c
00000020: af07 cdbc 570f 183c aebc 60b9 78c0 c5bc
00000030: 48de bebc 6967 d5bc 2fce 28bc 0e6a 30bb
00000040: 57a3 b6bc 4957 383c a3ac 283c de64 6c3c
00000050: 7e34 903c 3e38 a6bc 84f1 2b3c c7de 0abd
00000060: 94a7 953b 4ab5 0dbd 6748 773d 50c9 4bbc
00000070: 88ed 403c a077 adbb ef09 923b a489 01bd
00000080: 0a57 33bd f084 113d ad0b 3f3a bc72 edba
00000090: 161a 8f3d 5a5f 1f3c c30d a93c ee27 643b
000000a0: 7424 553b 191b 93bc e823 11bd 0df5 1cbc
000000b0: 8deb e43c fd75 43bc d26b 2a3d f29a 513c
000000c0: 62cb 9cbc 1e98 ef3c 57f8 0e3d 5fb6 cf3a
000000d0: 5baf 543c 97f2 773d ab95 013c ee54 d6bc
000000e0: 8b1f 383b f980 c93c 0e34 28bc f5cd f0bc
000000f0: 50cc 5bbc 51aa 7bbc ec86 a2bc b206 213c
00000100: 9ff5 87bc f8dc 91bb 3522 aa3b cc7a 96bc
00000110: 5385 a93b e0e4 be3b 3a15 babb ce61 f53c
00000120: efb5 8cbb f571 4ebd 65c0 3e3c 7758 53bd
00000130: f780 d23c 5e1d 1ebc 4725 02bb 09ff 5dbd
00000140: fcbb a9bc 26a5 92bb 6d36 01bc b831 2b3d
00000150: 368a 4a3b d74b b13c 735e 31bd 60a9 2fbc
00000160: af88 c83b d9f6 3c3b 1779 983b d7ec 36bc
00000170: 5937 b0ba cc95 8abc 284e d53b 8283 dfbc
00000180: b6b9 1f3c aaca 05bd 2f9a 1a3b 4eb5 f1bc
00000190: 3312 9e3a 857a 513b 93aa 0fbc f884 283c
000001a0: 357b 783b 1c87 2bbd 2b50 67bc 0a5c 303b
000001b0: bc81 0a3c 0b48 a93c a141 bfbc 7767 b8bc
000001c0: 1b39 c73c 46e2 543d b016 cdbb 6cf0 b7bb
000001d0: 8662 65bd 05e7 8b3a e79e 9dbb 0b3f 0c3d
000001e0: 99b1 d5bc d117 a83c fcd8 46bd 69a5 933c
000001f0: 2af3 c03c 7b3b 32bc b408 52bd 2eb5 343d
-0.01201016 0.019009631 0.0025537668 0.0025756517 0.0026441086 0.009215783 0.034035858 0.03055558
-0.025028078 0.009281001 -0.00021432593 -0.024139628 -0.023299351 -0.026050286 -0.010303064 -0.0026918682
-0.022294683 0.011251279 0.010295066 0.0144283455 0.017603155 -0.02029049 0.0104945935 -0.033903863
0.004567096 -0.03459672 0.060371783 -0.012438133 0.011775382 -0.0052938014 0.0044567506 -0.031625405
-0.04378418 0.03552717 0.00072878116 -0.0018115859 0.069873974 0.009727323 0.020636445 0.003481384
0.0032522948 -0.017957257 -0.035434633 -0.009579909 0.02794435 -0.011929986 0.04160673 0.0127932895
-0.01913995 0.02924734 0.034904804 0.0015847198 0.012981261 0.060534086 0.007909219 -0.026163545
0.0028094973 0.024597632 -0.010266317 -0.029395083 -0.013415411 -0.015360431 -0.019839726 0.009828256
-0.016596613 -0.0044513904 0.005192066 -0.018369101 0.005173364 0.005825624 -0.0056788 0.029953863
-0.004294149 -0.050401647 0.01164255 -0.05159804 0.02569626 -0.009650556 -0.0019858645 -0.0541983
-0.02071952 -0.0044752536 -0.007886511 0.041795462 0.0030905134 0.021642609 -0.043302964 -0.0107215345
0.0061198096 0.0028833656 0.004653107 -0.011164865 -0.0013444229 -0.016917132 0.006509561 -0.027284387
0.009748867 -0.03266398 0.0023590436 -0.029505398 0.0012059867 0.0031963896 -0.008768695 0.0102856085
0.0037915234 -0.041876897 -0.014118235 0.0026910328 0.008453783 0.020664236 -0.023346724 -0.022510273
0.024319222 0.051973604 -0.006258808 -0.0056133773 -0.056002162 0.0010673708 -0.0048102024 0.03423981
-0.026085662 0.020519169 -0.048546776 0.01802321 0.02355345 -0.010878439 -0.05127783 0.0441181

network_body._body_endoder.seq_layers.2.weight f4 [128, 128]
00000000: a808 11bd 5b24 d8bd 974a 993d 54d1 f13c
00000010: 3d29 63bd 2c93 febc 67c9 48bb 8f73 1abd
00000020: ebc8 503d 211d 063e ac34 493e d730 61bc
00000030: b92c 1abd e495 02be d7b7 8ebe 5a82 ddbb
00000040: ed4a 613e 9b57 c53d b8d1 223e b410 b6bd
00000050: d77c 63bb ae43 25be a15b 013d 2e5b 4d3c
00000060: f643 1e3d 655b cebc 0f40 1b3e df14 bf3c
00000070: f53a a73d 9f75 f6bd 5a4b 553c b567 553d
00000080: 5c0e 6abd 0c99 8b3d 58b5 9ebd 08ff eb3b
00000090: 2cd4 b9bd 62e9 53bc 9892 07bd 613f fd3a
000000a0: 2586 fcbc b7ff e93d 2b44 3abd 5143 34be
000000b0: 0d60 c0bd 6cee 7f3e 423b 8c3d 2245 b8bd
000000c0: 1ca7 fe3d db1d 813b b978 453c 2d51 b23c
000000d0: e740 86be 789d 1ebd b4f0 013e 1e60 9abd
000000e0: 3703 f63d e6e8 a8bd 3f87 b23b ba6a 373d
000000f0: 5cde 51be 6a87 a23c c0cc 023d 05d5 193e
00000100: b611 243d efb3 fbbd c477 d6bb 29c6 88bd
00000110: 0aa8 1ebe a255 c8bd 725c 55bc faa4 4c3e
00000120: 7840 cc3d aa29 e0bc 16bb 17bd 011d 0b3d
00000130: 1c2c 1bbc 3a8a 36be fee7 1abd 6b33 323c
00000140: fc40 223d 2bf1 043e 694f f3bd 9db2 adbd
00000150: 9762 eabd f6ba 9ebd a653 e33d 57ed c4ba
00000160: faf5 debd e7e0 633d 974c c8bd 642f afbd
00000170: 2da2 f53d c604 80bd b131 133c 56aa 983d
00000180: 35a0 763d d3db ff3c 1f56 2dbe ad3d 803c
00000190: 197f 36bd c68c a9bd 3be7 8bbc b09b 92bd
000001a0: 6e5c 093e c3d8 8ebd 1284 223e f438 81bd
000001b0: 414a d1bd 035e 193e ccbe 8dbd bb37 383e
000001c0: be7b a2bc a27d 07be 4ed8 2a3e 4609 64bd
000001d0: 1e1a a93d 4b02 f53d d4af 673c 5a11 263e
000001e0: bedd f73c ae42 82be db2e a03d f427 203d
000001f0: 1764 04be 2c88 3f3e 516b e6bd 93f1 893c
00000200: 2738 0cbd 41a9 ccbc cb63 6e3c d83e b93b
00000210: e76d 8ebd d06a 813e bd4f c43d 794f 943c
00000220: e22e a5bc 4237 5ebc 5f26 223e 6dd5 d9bd
00000230: 1925 97bd 0119 dd3c 2b2f 5b3c 6668 263e
00000240: 1dbb b93c 74e3 55bd d837 2fbc aa8f c1bc
00000250: 32d7 c93c 9fee 47bd 7c0a ce3d 3653 783d
00000260: 33eb c33c 4e99 1ebe 7723 64bb 2eed f83d
00000270: 9b83 313d f0db ccbd 6a21 d1bd 830b 483e
00000280: 706c 033a 660d 7d3d c3e9 eb3d 851b 81bd
00000290: 151b a9bd c487 06bd 92b2 1dbd 4786 313e
000002a0: 9d86 dc3d a0bb dbbb 8d7f b23d 6b2e b9bd
000002b0: 98f8 fd3d 6ced 9c3d 1f39 f63d acfb 853d
000002c0: 971d 513d 2e46 acbc 303c 0e3e f086 613c
000002d0: 8ae4 e23d a746 99bd 573e af3c 90e2 2cbd
000002e0: 73d7 11be eaa5 163c 1b63 bcbd b193 bbbc
000002f0: b849 803d 2e0e c3bc bcf8 0e3d 6475 a8bd
00000300: 48d7 f1bc 9e2c be3d 6b13 b2bc f068 0fbd
00000310: 9f8f bbbc 953b 733d 91e3 7ebd d224 1abd
00000320: 163d 6c3d 2a13 bd3d 7902 ca3d 5d0e 093e
00000330: 83e2 a13d 2ed5 debd 6137 fdbd f251 66bb
00000340: 23b3 b9bc ab90 ca3a 098d 92bc 2f4b 7bbc
00000350: fb79 053c b10b 573d f681 1abe b148 a0bd
00000360: 59fc 8dbc 0c6e 053e c5e7 39bc 5501 df3d
00000370: c6ca 6abd 910f 323e 2a5f 43bd f695 25bd
00000380: 5b1a 08be 1d0d 4dbe 2b0f 803a f5aa 723c
00000390: 0db8 0a3e 5cf2 883d 5a69 c33d fea2 a03d
000003a0: f4c4 973b 78c2 573d 6492 9cbd f1d3 9b3d
000003b0: cee6 aa3d 944c 553d 3e72 c53c 07af c7bd
000003c0: 6bdf cfbc 65a7 a03d 9ff2 4a3d b56b 573e
000003d0: 24ee 1c3e 01b9 ccbd b211 6a3c 716a c93d
000003e0: ec49 afbd e181 05bd 939c e93d a801 403c
000003f0: 47b2 553d 3e64 e93d 482f 173d 8f02 00bd
-0.035408646 -0.10553809 0.0748493 0.02951876 -0.05545925 -0.031076036 -0.0030637623 -0.03770786
0.05097286 0.1309705 0.19648999 -0.0137445545 -0.037640307 -0.12752491 -0.27874634 -0.006759924
0.22001238 0.0963585 0.15900314 -0.088899046 -0.0034711862 -0.16139099 0.031581525 0.012533946
0.03863903 -0.025190065 0.15161155 0.023325382 0.08165542 -0.12034153 0.0130184535 0.052100856
-0.0571426 0.06816301 -0.07749432 0.007202033 -0.09073672 -0.012934061 -0.033098787 0.0019321257
-0.030825684 0.11425727 -0.045475166 -0.17603804 -0.0939332 0.24993294 0.0684724 -0.08997561
0.12434217 0.0039403266 0.012052708 0.021767223 -0.26221392 -0.038724393 0.12689477 -0.07537864
0.12012332 -0.08247547 0.0054482515 0.044779517 -0.2049498 0.019839961 0.031933546 0.15022667
0.040055953 -0.12290179 -0.006545039 -0.06678421 -0.1549379 -0.09781958 -0.013022529 0.19984809
0.09973234 -0.027363617 -0.037043653 0.033963207 -0.009470966 -0.17826167 -0.0378189 0.010876517
0.039612755 0.12982623 -0.11880381 -0.084813334 -0.11444586 -0.07750504 0.11099939 -0.0015024346
-0.1088676 0.055634405 -0.09780233 -0.08553961 0.11993823 -0.062509105 0.008984015 0.07454364
0.06021138 0.03123275 -0.16927384 0.01565441 -0.044554804 -0.082788035 -0.017078033 -0.07158601
0.13414165 -0.06974938 0.15870693 -0.06309691 -0.10219241 0.14977269 -0.06921157 0.1799001
-0.019834395 -0.13231519 0.16684076 -0.055672906 0.082569346 0.11963328 0.014141042 0.16217557
0.030257102 -0.25441498 0.07821437 0.039100602 -0.12928806 0.18704289 -0.11250938 0.016838824
-0.03423324 -0.02498305 0.01455016 0.0056532435 -0.06954556 0.25276804 0.09585521 0.018104302
-0.020163957 -0.013562979 0.1583495 -0.10636411 -0.07380123 0.026989462 0.013377945 0.16250762
0.02267223 -0.05221887 -0.0106944665 -0.023628075 0.024638746 -0.04881155 0.100605935 0.06062623
0.023915863 -0.15488169 -0.0034811178 0.121546134 0.0433384 -0.10002887 -0.10211451 0.19535641
0.0005013412 0.061780356 0.11519196 -0.06304077 -0.082571186 -0.03284432 -0.038500376 0.17336379
0.10767863 -0.0067057163 0.08715735 -0.09042057 0.12400931 0.07662472 0.12022614 0.06542143
0.05105361 -0.021029558 0.13890147 0.013765082 0.110787466 -0.07484179 0.02139203 -0.042208254
-0.14242344 0.00919483 -0.0919859 -0.022897573 0.06264061 -0.023810472 0.03490518 -0.082255155
-0.0295216 0.09285854 -0.021737775 -0.035012186 -0.022895632 0.059382994 -0.062228743 -0.03763277
0.057675444 0.09232171 0.09863753 0.13384385 0.07904532 -0.108805045 -0.12364078 -0.0035144058
-0.022668427 0.0015454491 -0.017889516 -0.015337749 0.008146758 0.052501384 -0.15088639 -0.07826365
-0.017332243 0.13030261 -0.011346762 0.10888926 -0.057322286 0.1738875 -0.047698177 -0.040426217
-0.13291304 -0.20024534 0.0009770145 0.014811267 0.13546772 0.066868514 0.095415786 0.07843588
0.004631633 0.052675694 -0.07645109 0.07608784 0.08344804 0.052074984 0.024102326 -0.09750181
-0.025375089 0.07844428 0.049547788 0.2103718 0.15325218 -0.09996224 0.014286445 0.09834755
-0.08559021 -0.032594565 0.11406817 0.011719145 0.05217197 0.11396073 0.036910325 -0.03125244

network_body._body_endoder.seq_layers.2.bias f4 [128]
00000000: ceb3 73bc 9c42 2f3c 8160 223c 99d5 293a
00000010: 9e81 e8bc 5fe1 e7bc e03f fb3c 402a 17bd
00000020: 0088 78bc 87d0 993b c62f f43c 6076 053c
00000030: 5a73 b4bc 3b28 c53c e444 353c b763 9a3a
00000040: 33e6 b8bc 1b31 ffbc 583c 77b9 2452 a5bb
00000050: d785 1d3d 21d2 fbbb 9494 c7bc 3ee5 de3b
00000060: 92a7 4dbc 9549 7aba ca6f 81bc 6acb 9d3b
00000070: c9b8 41bb dd8d 163d db4d 40bc 8cec b539
00000080: e424 93bc 57ed b3bc e604 4cbc 10d9 c7ba
00000090: c971 3ebb e50a 07bd 673e f8bc d351 eabc
000000a0: c113 2cb9 de07 1c3d 7b95 3fbc fada 973c
000000b0: 872c eb3c 5b75 2d3d f635 0d3d c204 2a3d
000000c0: d2f9 993b a3a6 1fbc 73c6 b43c a81f c5bc
000000d0: 2c0c 19bd 83e6 39bc fe64 783c 0d57 d5bc
000000e0: 727c c03c fa86 0e3c 24bd e43b 6d9c b9bc
000000f0: 0bc8 9a3b 8b9d 40bd b59a e33c 441f cabc
00000100: c0f2 9e3c ae6f 97bb 5b73 04ba bf3f 90bc
00000110: 8923 25bc 686b 433c 0fef 7abc 71c9 adbc
00000120: 976b a0bc 22d5 cbbc a428 f2bb 8564 293d
00000130: a114 efbb 51d6 a3bc b7e2 3fbc a8a7 5fbc
00000140: 8556 5f3c 467d 46bc 0013 003d 502b 1d3d
00000150: 9498 0a3c 5a49 693c 81ac 583d b639 c53c
00000160: 6850 98bb f6cd 713c 47a7 183c 8223 f03c
00000170: 963f 52bc 4095 c83d f280 253d 0260 ab3c
00000180: 4cfc 2b3a c665 333d b342 d73c cc00 26bc
00000190: 83be 05bd 90e7 84bc bb26 233d 3ea0 93bb
000001a0: 4de2 afbb 491d 4d3b 54da 23bc f84c 07bd
000001b0: 7186 4a3c d6e7 063d b4dc 1f3c c635 eabb
000001c0: d74d 5bbc 5238 0fbd 57d1 58bc 726e 073b
000001d0: 2253 9e3c 2891 88bc 182a 253c 5263 033d
000001e0: 32f5 9d3b 6a65 bb3a cc90 c0bc 55d7 adbc
000001f0: 34d0 16bc c3fe 433d 05d5 8f38 dc56 54bc
-0.014874412 0.010697033 0.009910704 0.0006478667 -0.028382119 -0.028305707 0.030670106 -0.036905527
-0.015169144 0.004694048 0.029807936 0.008145899 -0.02202766 0.024067035 0.011063788 0.0011778985
-0.022570705 -0.031151345 -0.00023578235 -0.0050451923 0.038457718 -0.0076849614 -0.02436284 0.00680223
-0.012552159 -0.0009547708 -0.015800375 0.0048155086 -0.0029559603 0.036756385 -0.011737312 0.0003469925
-0.017961927 -0.021963758 -0.01245234 -0.0015247185 -0.002905952 -0.032969374 -0.030303193 -0.02860347
-0.00016410557 0.03809344 -0.011693354 0.018537033 0.028707756 0.042348247 0.03447529 0.041508444
0.0046989704 -0.009744319 0.022067284 -0.024062946 -0.037365124 -0.011346462 0.015160797 -0.026042486
0.02349684 0.008699173 0.006980555 -0.022657597 0.004723554 -0.047025245 0.027783731 -0.024673112
0.019402862 -0.0046214676 -0.00050525897 -0.017608522 -0.010079273 0.011927463 -0.015315785 -0.021214219
-0.019582553 -0.024881903 -0.0073900986 0.04135563 -0.0072961603 -0.019999655 -0.011711768 -0.013650812
0.013631468 -0.012114828 0.03126812 0.038371384 0.008459229 0.01423868 0.052898888 0.02407537
-0.004648257 0.014758578 0.009317226 0.029313806 -0.012832543 0.09794092 0.040406175 0.020919804
0.00065607275 0.04379823 0.026276922 -0.010132026 -0.03265239 -0.016223699 0.039831858 -0.0045051863
-0.0053675533 0.0031297973 -0.010000784 -0.033032387 0.012361155 0.03293594 0.00975721 -0.0071475236
-0.013385258 -0.03496582 -0.013233504 0.0020665196 0.01932675 -0.016670778 0.010080837 0.03207714
0.0048204893 0.0014297192 -0.023506545 -0.021220842 -0.009204913 0.04785038 6.858449e-05 -0.012960162

action_model._discrete_distribution.branches.0.weight f4 [5, 128]
00000000: 7287 273c f365 1e3b 5848 703c e062 573c
00000010: 9220 e83b 8e9b 36bc 10eb 47bd 5bc0 08bc
00000020: 4956 c33a 03c7 b0bc 484b c9bc 7d3e 4cbc
00000030: 33f5 46bb 1580 59bb 769d fcbc 2a16 15bc
00000040: 58c0 c7bc 9b61 12bb 0fbb 9d3c 2114 febb
00000050: ff68 3bbc 0f45 42bc d418 fe3b 3c93 d63c
00000060: 25cf 37bb 5978 53bc 09b2 5cbb 2fa4 e539
00000070: 377b 83bc 3b3b f7bc 4c43 323c 27fb 8ebc
00000080: d287 58bc d469 f3ba 7b01 99bb eff6 25bc
00000090: 2a8d 093c 6257 a43b 2340 033a 5c25 813a
000000a0: 0fa2 97bc 64be abbc 5f6d 9dbb c531 163d
000000b0: 27ab 02bc 3da1 ccbc d847 043c ab5c 2bbd
000000c0: 751a d33b 1e0b 99bc 6007 2dbc ba05 5dbc
000000d0: 0006 4dbc a8e4 00bc 2101 bdbc 9a36 40bc
000000e0: 2022 ca3b a169 e6bc 7a8b 88bb dde3 9bbc
000000f0: 00d5 0cbd 34cf 073b afb7 5dbd 0b4e c4bb
00000100: 0784 06bb fd11 1c3d 43f6 cebc ac2d 973b
00000110: 6bd7 b9bc c25c 3f3c dd91 98bc dca1 fe3b
00000120: 1e46 7ebb fa31 2cbc 631c cbbc da21 1bbd
00000130: b08e 463c a6b8 77bc 43dc 97bc f9f7 efbb
00000140: f016 81bc b549 20bb 08ca dfb9 60b9 3ebd
00000150: 446a 5bbd ae8d 02bd 3b0f 17bd 5991 5ebc
00000160: 95f9 3bbb 70c3 8bbd 963a bfbc 377f ffbc
00000170: 2b0f e03c c5e2 68bb 640b 1cbd bc3b adbc
00000180: 1136 e73a 8295 0abd 71d5 05bd 17b8 b5bc
00000190: cd9b 113c 4063 3e3c 958d 75bc 3c35 f9bc
000001a0: 6634 273d fafb 84bc ecbb 5abc 3b03 b7bb
000001b0: a1ef afbb bb1a eabc b6a9 3cbc 2fb4 29bc
000001c0: 5be5 95bb 1bf7 11bc db36 d8bb 2a77 47bc
000001d0: 772b 8bbc 3c8c 45bc 1d65 ccbb 85dc b6bc
000001e0: 2344 9c3c 246b f73b 1f6d 16ba 6106 12bc
000001f0: c9d3 013b 0d89 24bd 4583 94bc c34c aebb
00000200: d830 12bd b683 333d f093 483b 1290 b73b
00000210: 2d8a 0abc d561 68bb b40e ec3c 12ce a1ba
00000220: c382 a4bb ee0d c83c 6876 593d c956 9f3c
00000230: a82d d63b c471 073d 97da 973b f955 a03b
00000240: aa19 383b 8238 123c f9f1 d6b9 d41c 7abc
00000250: 6821 043d 9577 4bbb 3f86 05bc 0488 efbb
00000260: c734 1fbb 3ca6 cf3a 3c38 20bc e35f 5c3c
00000270: 7b9f 623c a485 2e3d 8503 f3bb ca5a c3bb
00000280: e46c af3c f70d 5a3c 204a 30bc 5c01 433d
00000290: d22f 2dbc dca1 8d3a 4572 65bc 73ca 2fbc
000002a0: 29b0 3bbc a9d2 973d e00c 2eba ea8e 273d
000002b0: 0bd4 063d 6572 0b3d 38f8 063d 46f6 523d
000002c0: 1bd6 80bc 515f 003b 87ad 0e3d 4ebf b23b
000002d0: b0b6 54ba 1052 523b f991 ae3c 903c e7b8
000002e0: 3b56 23bd e357 083d 090a 683c 166e f5bb
000002f0: 8690 9fb9 3d0a 1abc 5a1f d23c e06a f33b
00000300: c3c9 753c a2da b0bc c90d 2e3c 910c 823c
00000310: 6e6b 0a3d 4df0 713c ade6 d9bc 5639 7eba
00000320: 32e5 afbc df8e 0a3c 96e6 433d 9c6f 1a3d
00000330: 168c ee3b 71aa e63b 6725 953b eb74 da3b
00000340: 85ca b93c c5a6 9e3c e373 473d 354f 233d
00000350: b8e6 173d 5bb3 eb3c a671 363d 8d57 ec3c
00000360: 2c3e 14bd 6716 213d f280 113d b342 ff3c
00000370: db9c d2bc 56bb 2f3d c106 243d e5e2 133d
00000380: 4dc3 0fbc cdb7 803d 99f2 4d3d 24ed c03c
00000390: 0923 92bb a810 6b3c 10e4 ce3c 5582 05bd
000003a0: 5b8f e7bc 7e87 d43c a406 af3c ea22 253b
000003b0: eff0 f73c a8b1 0d3d 1c10 de3c 1458 913c
000003c0: c1cb 80bc 6ac8 a437 18b3 91bb e70b e93c
000003d0: 3cea ae3c c938 dd3b fb76 383d a05c fd3c
000003e0: 33f2 d3ba b23f 6ebc 92fb dab9 2764 953b
000003f0: 960b 643a 820b 483d 0f44 123c 8e08 803c
0.010225164 0.0024169653 0.014665686 0.013146132 0.007083961 -0.011145486 -0.048808157 -0.008346642
0.0014903034 -0.021579271 -0.02457203 -0.01246607 -0.0030358552 -0.0033187915 -0.030836802 -0.009099523
-0.024383709 -0.002233601 0.019254236 -0.0077538644 -0.011438607 -0.011857285 0.0077544246 0.026193254
-0.0028047052 -0.012907111 -0.0033675453 0.0004380061 -0.016049964 -0.03017961 0.010880303 -0.017453743
-0.013215976 -0.0018570968 -0.004669366 -0.010129674 0.008395473 0.0050152997 0.00050068105 0.0009853053
-0.018509893 -0.020964809 -0.004804298 0.036668558 -0.007975376 -0.024979228 0.0080737695 -0.041836422
0.006442363 -0.018682059 -0.01056084 -0.013490135 -0.012513638 -0.007867016 -0.023071827 -0.011731768
0.006168619 -0.02812654 -0.0041670175 -0.019029552 -0.03438282 0.0020722868 -0.054130252 -0.0059907488
-0.0020525472 0.038103092 -0.025263911 0.004613599 -0.022685727 0.01167983 -0.01862424 0.00777076
-0.0038799117 -0.010509962 -0.02479381 -0.03787408 0.01211898 -0.015119707 -0.018537646 -0.007323262
-0.015758008 -0.0024457995 -0.000426844 -0.046563506 -0.05356814 -0.031873398 -0.03687976 -0.013584458
-0.0028682698 -0.06824386 -0.023343366 -0.03118859 0.027350983 -0.0035535556 -0.0380968 -0.021146648
0.0017640014 -0.033833988 -0.032674257 -0.022182507 0.008887243 0.011620343 -0.014987369 -0.030420892
0.040821455 -0.016233433 -0.013350468 -0.005585102 -0.005369142 -0.0285772 -0.011515072 -0.0103579005
-0.0045744604 -0.008909012 -0.006598336 -0.012174407 -0.0169885 -0.01205736 -0.0062376396 -0.022321949
0.019075459 0.007550614 -0.0005738306 -0.008912654 0.0019810072 -0.040169764 -0.018129 -0.0053192093
-0.035691112 0.04382678 0.0030605756 0.0056018913 -0.008455795 -0.0035458703 0.028815605 -0.0012344739
-0.005020471 0.024420705 0.053091437 0.019450562 0.0065362044 0.03306748 0.0046342122 0.0048930612
0.002809147 0.008924605 -0.00040997544 -0.015265662 0.03225842 -0.0031046618 -0.008149683 -0.0073099155
-0.0024292932 0.0015842388 -0.009779032 0.013450596 0.013831968 0.04260792 -0.007416191 -0.0059617506
0.021414228 0.013308994 -0.01075986 0.04760872 -0.010570483 0.0010805684 -0.014004295 -0.01072942
-0.011455574 0.07413227 -0.0006639492 0.040907778 0.032917064 0.034044642 0.032951564 0.051504396
-0.015727093 0.0019588063 0.034833457 0.005454934 -0.0008114381 0.003209237 0.02130984 -0.00011026219
-0.039877158 0.03328694 0.014162549 -0.00748993 -0.00030434522 -0.009401855 0.025649715 0.007428512
0.015001717 -0.021588627 0.010623404 0.015875133 0.03379386 0.014766765 -0.026599253 -0.0009697875
-0.021471594 0.008456915 0.047827326 0.037704095 0.007279883 0.007039361 0.004551578 0.0066667697
0.022679577 0.019366631 0.048694503 0.03987046 0.037085265 0.028772047 0.044541977 0.028850341
-0.036192104 0.039328005 0.035523362 0.031159734 -0.02570956 0.042903267 0.040045504 0.036105055
-0.008774591 0.06285057 0.050280187 0.023550577 -0.004459743 0.014347233 0.025255233 -0.032594997
-0.0282666 0.025943514 0.021365471 0.0025197812 0.030266253 0.034593254 0.02710729 0.017742194
-0.015722157 1.9643649e-05 -0.0044463985 0.028448058 0.021351926 0.006751154 0.045035344 0.030927956
-0.0016170203 -0.014541553 -0.00041767635 0.004559058 0.0008699236 0.0488391 0.008927359 0.01562908

action_model._discrete_distribution.branches.0.bias f4 [5]
00000000: a2e9 cfbc 56eb 1f3d 4d1e 38bc 69e8 80ba
00000010: d413 64bc
-0.02537996 0.039042793 -0.011237693 -0.0009834889 -0.013920743
