results/SnakeAgent/SnakeAgent/SnakeAgent-1344.pt (torch, 446857 bytes, 33 tensors)

network_body._body_endoder.seq_layers.0.weight f4 [128, 7]
0	0xbda39d7e	-0.079890236
1	0x3ebadd44	0.36496937
2	0xbdbf00e4	-0.09326342
3	0x3ea6ec7a	0.32602292
4	0xbef67e50	-0.48143244
5	0x3f34fae6	0.7069534
6	0x3f34b14b	0.7058303
7	0x3f0626fc	0.52403235
8	0xbede25dd	-0.43388262
9	0xbe0a8311	-0.1352656
10	0x3ed72cf7	0.42026493
11	0xbf2046d6	-0.6260809
12	0x3eac8b9e	0.3370027
13	0xbe9c1722	-0.304864
14	0xbf0e72d2	-0.5564395
15	0x3eb9e414	0.36306822
16	0xbedbaae0	-0.42903805
17	0xbe435506	-0.19075403
18	0xbcecaf8f	-0.028892307
19	0xbf070804	-0.52746606
20	0x3e7b5085	0.24542435
21	0xbf9966fa	-1.1984551
22	0xbed7c83d	-0.42144957
23	0x3f10f5d0	0.5662508
24	0x3e78df78	0.24303997
25	0xbd8ffeef	-0.070310466
26	0xbe95e080	-0.29272842
27	0x3dcb26ce	0.09919511
28	0x3e63ccef	0.22246145
29	0xbefa5b45	-0.48897758
30	0xbf2e5fdf	-0.6811504
31	0xbc1b8105	-0.00949121
32	0xbf06fbd3	-0.52728003
33	0xbe33092d	-0.17483969
34	0x3dcf752a	0.10129769
35	0x3e475725	0.19466837
36	0x3e37ea98	0.17960584
37	0x3dbcad7c	0.09212777
38	0xbcfe32d3	-0.031030094
39	0x3c4a0cea	0.0123321805
40	0x3dd0ad0a	0.101892546
41	0x3ea05c93	0.3132063
42	0x3e8184e9	0.25296715
43	0x3daec233	0.08533134
44	0xbe3a2f90	-0.18182206
45	0x3dbab97c	0.091174096
46	0x3e6a5105	0.22882469
47	0x3bba743d	0.005690126
48	0xbeac0af3	-0.33602104
49	0xbf24c0f2	-0.6435691
50	0xbf14f84a	-0.5819136
51	0xbf17b29b	-0.59256905
52	0xbe5f6515	-0.21815903
53	0x3ec9ad1d	0.39389887
54	0xbe406f5f	-0.18792485
55	0x3c7c992b	0.015417377
56	0xbe44c911	-0.19217326
57	0x3d9b6679	0.075879045
58	0xbf0d62df	-0.5522899
59	0xbf878b55	-1.0589396
60	0xbf3c1e9e	-0.7348422
61	0x3f0dc67f	0.55381006
62	0x3d0d49ae	0.034494095
63	0x3e113c15	0.14183076
64	0x3dcb2247	0.09918647
65	0x3f6f5e9b	0.9350373
66	0x3df7d36f	0.12100875
67	0x3ea80d59	0.32822683
68	0xbf571ae1	-0.8402539
69	0x3eb8a6d8	0.36064792
70	0xbf0e2c41	-0.55536276
71	0x3e4e548f	0.20149444
72	0xbe93a121	-0.2883387
73	0xbf040e02	-0.51583874
74	0xbf2fcb54	-0.6866963
75	0xbb40021b	-0.002929813
76	0x3d80eaf3	0.06294813
77	0x3cfb359c	0.030665211
78	0x3c47e0eb	0.012199621
79	0x3d8c20a2	0.06842162
80	0xb9c7c165	-0.00038100328
81	0xbe39b94d	-0.18137093
82	0xbf081a23	-0.5316488
83	0xbec486a6	-0.3838398
84	0xbdb0f78d	-0.086409666
85	0x3dd15c82	0.102227226
86	0x3e85bfa8	0.26122785
87	0x3e0117c9	0.1260673
88	0x3e0d99ee	0.13828251
89	0xbe813389	-0.2523463
90	0xbe0306f3	-0.1279562
91	0x3f0860ec	0.5327289
92	0x3e9c2da8	0.30503583
93	0x3cdcad29	0.026938038
94	0x3e0f365f	0.13985585
95	0x3dc76594	0.09736171
96	0xbe83dc16	-0.2575385
97	0xbea74fe1	-0.3267813
98	0x3f3168a0	0.6930027
99	0xbf715238	-0.9426608
100	0x3ecf5d67	0.40500948
101	0xbf359463	-0.70929545
102	0x3d8e144b	0.06937464
103	0x3bb0f1d1	0.0053999205
104	0xbf48c074	-0.7841866
105	0xbe0307ae	-0.12795898
106	0xbe634015	-0.22192414
107	0xbe95f41a	-0.29287797
108	0xbe0744ef	-0.1320989
109	0xbf080111	-0.5312663
110	0xbed59cd1	-0.41721204
111	0xbe43b858	-0.1911329
112	0x3e6ac14a	0.22925296
113	0x3daf05e0	0.085460424
114	0x3eb0830d	0.34474984
115	0xbdcddd9c	-0.10052034
116	0x3e928ad0	0.2862153
117	0xbe91e807	-0.28497335
118	0xbe9cfe45	-0.30662742
119	0x3ea13a72	0.31489903
120	0xbc158192	-0.00912513
121	0x3ef9de38	0.48802352
122	0xbe4aa30e	-0.19788763
123	0x3e367e12	0.1782153
124	0x3e61df1f	0.2205777
125	0xbe7e6b26	-0.24845561
126	0xbe5aa0ea	-0.21350446
127	0x3e7bdf48	0.24596894
128	0x3ed722ae	0.42018646
129	0x3f08e87a	0.5347973
130	0x3ed67461	0.41885665
131	0x3e8d9401	0.2765198
132	0xbf1d932b	-0.61552685
133	0xbf03b39b	-0.5144593
134	0xbd76f063	-0.060287844
135	0xbd378ef2	-0.044814058
136	0xbf05688f	-0.5211267
137	0xbe13fdbb	-0.14452259
138	0x3e673111	0.22577311
139	0xbead8ba6	-0.33895606
140	0x3eae679c	0.34063423
141	0xbe2b2284	-0.16712385
142	0x3ccab3d6	0.024743956
143	0x3e1c6cec	0.15275925
144	0xbea5a69e	-0.3235368
145	0xbeb89343	-0.36049852
146	0x3e70ed1f	0.23527955
147	0x3ca9e351	0.020738276
148	0x3dabd100	0.08389473
149	0xbebed842	-0.37274367
150	0x3d842bb6	0.0645365
151	0xbe8f7224	-0.2801677
152	0x3db146b6	0.08656065
153	0x3d2e7e55	0.04260095
154	0xbe2dade6	-0.16960868
155	0xbeca806b	-0.395511
156	0xbc836ee1	-0.016044082
157	0x3f0403d2	0.5156833
158	0x3e9ce27b	0.3064154
159	0x3e93d9a3	0.2887698
160	0x3dc60526	0.09668951
161	0xbf1d70bd	-0.6150015
162	0x3f2aa78e	0.6666192
163	0xbed1f6d0	-0.41008615
164	0xb9847403	-0.00025263437
165	0x3edcd4b4	0.4313103
166	0xbed4a8f9	-0.41535166
167	0xbe676951	-0.22598769
168	0xbe5c8e75	-0.21538718
169	0xbe8f6eae	-0.2801413
170	0x3ea80d0f	0.32822463
171	0x3e1258c8	0.1429168
172	0xbe46d9b1	-0.1941898
173	0xbe4c39ed	-0.19943972
174	0xbd7c9f20	-0.06167519
175	0xbe1b6fc0	-0.15179348
176	0xbe3c36df	-0.18380307
177	0xbe4e6928	-0.20157301
178	0xbe0951f3	-0.13410167
179	0xbdabe292	-0.08392824
180	0x3f5dc61b	0.8663041
181	0xbf9de4e9	-1.2335483
182	0x3dd0d194	0.10196224
183	0xbf074759	-0.5284324
184	0xbf17d1d1	-0.5930453
185	0x3eca71bb	0.39539894
186	0xbe522fdf	-0.20526074
187	0x3e3aee5d	0.18254991
188	0xbe20608b	-0.15661828
189	0xbd9cd06c	-0.07656941
190	0x3e04a549	0.12953676
191	0x3e98eb38	0.29866958
192	0xbd47b0e9	-0.0487527
193	0x3de98748	0.11402756
194	0xbec0e70d	-0.37676278
195	0xbea6c798	-0.32574153
196	0x3e9b0ccd	0.30283204
197	0xbf0a792d	-0.5409115
198	0xbdd5c127	-0.104372315
199	0xbf0d7876	-0.55261934
200	0x3e6cfde0	0.2314372
201	0x3f25cd96	0.64766824
202	0x3f41f257	0.75760406
203	0xbe268d67	-0.16264878
204	0xbe89d7e9	-0.2692254
205	0xbf3d8799	-0.7403503
206	0x3ef3e25e	0.47633642
207	0xbe397ad1	-0.18113257
208	0x3e6b94c9	0.23005976
209	0x3e8a4c5d	0.27011386
210	0xbed61c37	-0.418184
211	0x3e00ecda	0.12590352
212	0xbf30463d	-0.68857175
213	0xbc7dc7e2	-0.01548955
214	0x3e7b13d2	0.2451928
215	0x3e93907e	0.28821176
216	0xbe7a8ed4	-0.24468547
217	0xbe76db76	-0.24107155
218	0xbd2f2cb2	-0.042767234
219	0xbc8f18f7	-0.017467959
220	0xbe902347	-0.28151914
221	0x3d2071dc	0.039171085
222	0x3e2732ca	0.16327968
223	0x3f1b5421	0.60675246
224	0x3f184a81	0.59488684
225	0xbef40118	-0.47657084
226	0xbe16333c	-0.14667982
227	0x3e0438ac	0.12912244
228	0xbeb9a212	-0.36256462
229	0xbc94c2a6	-0.018159222
230	0xbed8745c	-0.42276275
231	0xbedc024b	-0.429705
232	0x3cd9e531	0.026598545
233	0x3f512f3a	0.81712687
234	0xbe03ee28	-0.12883818
235	0x3e975c87	0.2956278
236	0xbee69a55	-0.4503962
237	0xbe9def68	-0.30846715
238	0x3e367e16	0.17821535
239	0x3d969141	0.07351924
240	0x3d8c68d9	0.068559356
241	0xbf3ef3e8	-0.7459092
242	0x3ed84f3e	0.42247957
243	0x3e0755f6	0.13216385
244	0x3dfb5a97	0.12273138
245	0xbcebd3ac	-0.028787456
246	0x3dc714fb	0.097207986
247	0xbe4aca15	-0.1980365
248	0x3e54900b	0.20758073
249	0x3df17979	0.11790747
250	0xbe0ba799	-0.13638152
251	0x3acbc592	0.0015546551
252	0xbee0df62	-0.43920428
253	0x3f3e42d0	0.743207
254	0xbedb1f5d	-0.42797366
255	0x3e958953	0.29206333

network_body._body_endoder.seq_layers.0.bias f4 [128]
0	0xba9a6db4	-0.0011781962
1	0xbab608b4	-0.0013888092
2	0xb7bbd62d	-2.239187e-05
3	0x2d8aa6a8	1.5762794e-11
4	0x3b69f302	0.0035697822
5	0xba704fce	-0.0009167165
6	0x3a68815a	0.00088693725
7	0xb4f9d9df	-4.6538386e-07
8	0xbbf8b64c	-0.007590091
9	0xbb43b74d	-0.0029863894
10	0xb81e39ce	-3.772397e-05
11	0xb96664bf	-0.0002197204
12	0xba785368	-0.0009472878
13	0xbc18574d	-0.009298158
14	0xbbe8abf6	-0.0071005775
15	0xbb00fc07	-0.001968147
16	0xbaf30e69	-0.0018543723
17	0x3b04413b	0.0020180482
18	0x3b255396	0.0025226823
19	0x38d92088	0.00010353426
20	0x3a614b54	0.00085942936
21	0x39aea5ae	0.00033311307
22	0x3afc8a00	0.0019267201
23	0x36d02940	6.203685e-06
24	0xbb43b69b	-0.002986348
25	0x391e2dc8	0.00015085109
26	0xbb53d30a	-0.0032321834
27	0x3a3f6920	0.00073017366
28	0xba0617f6	-0.0005115265
29	0xba7d54b3	-0.0009663805
30	0xb8db1257	-0.0001044615
31	0xbc0af505	-0.008481269
32	0xbb2ff80a	-0.0026850724
33	0xba0c9667	-0.0005362988
34	0xbb10b881	-0.002208263
35	0x3ae20c87	0.0017246165
36	0xba4e1a79	-0.0007862221
37	0xbb926933	-0.004468107
38	0x3b5de7d3	0.0033860102
39	0xba8b1621	-0.0010611453
40	0xbb80622d	-0.0039179535
41	0xbb156900	-0.002279818
42	0xbb3d9d3c	-0.002893283
43	0xbba5065f	-0.00503616
44	0x39a662ed	0.00031735693
45	0xbbb06f3c	-0.005384354
46	0xbb919ead	-0.0044439645
47	0xbb1e1551	-0.0024121592
48	0x366ef120	3.5605117e-06
49	0xbad7be7f	-0.001645997
50	0x3b15b74f	0.0022844856
51	0xb33aa0e2	-4.3452822e-08
52	0xba329755	-0.00068127114
53	0x3a315091	0.00067640195
54	0xbbb00a5d	-0.005372329
55	0x3a442dfc	0.0007483659
56	0x3a829b16	0.0009964432
57	0xbb153b76	-0.0022771037
58	0x3b8a9be2	0.0042300085
59	0x3a1b8155	0.0005932053
60	0xbaed4840	-0.0018103197
61	0xbba7027c	-0.0050967317
62	0xbc3d0fe1	-0.01153943
63	0x3a5a57e6	0.0008329138
64	0x3aa55318	0.0012613265
65	0xbb9a6820	-0.0047121197
66	0x3b44a36a	0.003000463
67	0xbb06de1c	-0.0020579165
68	0xba4b41b7	-0.0007753628
69	0xb8d66638	-0.00010223355
70	0xbb34dcb2	-0.0027597365
71	0xbc2e72af	-0.01064746
72	0xbb2f68b4	-0.0026765289
73	0xbb256dfb	-0.0025242555
74	0xb6f7ffa4	-7.390934e-06
75	0x3b01b452	0.0019791317
76	0xb95bf531	-0.00020976808
77	0xb8c33db1	-9.3098155e-05
78	0xbae1cbeb	-0.001722691
79	0xbbd0f011	-0.0063762744
80	0x3a3f376c	0.000729433
81	0xbb4277ce	-0.002967346
82	0xba143d74	-0.0005654909
83	0x3b4a9765	0.0030912992
84	0xb9c38bc2	-0.00037297426
85	0x3868e528	5.552653e-05
86	0xbb548d96	-0.0032433025
87	0x3ba4a603	0.005024673
88	0x3a62a124	0.00086452276
89	0x390b82c0	0.00013304781
90	0x36384148	2.7456135e-06
91	0xbb37031f	-0.0027925444
92	0xb94e780e	-0.00019690415
93	0x380da9c3	3.3775123e-05
94	0xbb043237	-0.0020171532
95	0xbb9de064	-0.004818009
96	0xbb0b2ae4	-0.0021235282
97	0xba34ff31	-0.00069044816
98	0xba3faa85	-0.0007311481
99	0xbb303e77	-0.00268927
100	0x39aef0df	0.0003336733
101	0xba062b4e	-0.0005118147
102	0xba2772bc	-0.0006387641
103	0x3b3815be	0.0028089131
104	0x3a8ff23b	0.0010982224
105	0xbafb4d8e	-0.0019172893
106	0xbb61e30e	-0.003446761
107	0xbadef3e2	-0.0017009939
108	0x383e6be7	4.5400022e-05
109	0x3b3b6bd4	0.0028598206
110	0xbaa881f0	-0.0012856107
111	0xbb3e6e5b	-0.0029057476
112	0x3bb18009	0.0054168743
113	0x38abf002	8.19862e-05
114	0xba13a41c	-0.0005632059
115	0xbb22ac06	-0.0024821772
116	0x3a4ee76b	0.00078927603
117	0x3a96489b	0.001146573
118	0xbb983384	-0.004644813
119	0x3a5e7399	0.00084858533
120	0xb7341e26	-1.07358555e-05
121	0xbb07e0b1	-0.0020733292
122	0xb67ec5a4	-3.7963991e-06
123	0xba63a981	-0.0008684621
124	0xbc040c2b	-0.008059542
125	0xbb2d0c46	-0.002640502
126	0x3aeca9e6	0.0018056005
127	0xbb21a3ad	-0.0024664209

network_body._body_endoder.seq_layers.2.weight f4 [128, 128]
0	0x3d07b3ec	0.03313057
1	0xbd3fb8a2	-0.04680694
2	0xbcaa72b1	-0.020806642
3	0x3e2286fe	0.15871808
4	0xbd9aa83e	-0.07551621
5	0xbdf228be	-0.11824177
6	0xbb183e47	-0.002323048
7	0x3c3df2e7	0.011593557
8	0x3c03e5c1	0.008050383
9	0xbdb267ec	-0.08711228
10	0x3e063929	0.13107742
11	0x3d262328	0.04056087
12	0x3d80b1f8	0.06283945
13	0xbe2e8662	-0.1704345
14	0x3d452bbc	0.04813741
15	0x3cd30342	0.02575839
16	0xbdcccb8d	-0.09999762
17	0xbdeb406c	-0.11486897
18	0x3b5e8315	0.0033952643
19	0xbdaf3044	-0.08554128
20	0x3cce4994	0.02518157
21	0xbd43b5b5	-0.04778071
22	0xbc5ef980	-0.01360929
23	0x3b167c1e	0.0022962163
24	0xbcfbf2cd	-0.030755425
25	0xbd961dcd	-0.07329903
26	0x3df755ce	0.12076913
27	0x3d0370a8	0.03208986
28	0x3aa8d680	0.0012881309
29	0xbcb8701b	-0.022514394
30	0x3d0d6621	0.034521226
31	0x3dcb0c66	0.09914474
32	0xbd998466	-0.07495956
33	0xbd1c8b89	-0.03821901
34	0x3e11aa9d	0.1422524
35	0x3c120e1d	0.008914498
36	0xbe12b526	-0.14326915
37	0x3d898ec0	0.067166805
38	0x3e240e46	0.1602107
39	0xbe2686b6	-0.16262326
40	0x3d44c5aa	0.04804007
41	0x3c18fd72	0.00933777
42	0x3d2d7a4c	0.04235296
43	0xbbd1cec4	-0.006402822
44	0xbdd5dccd	-0.10442505
45	0x3da7a3fb	0.08185574
46	0xbdf13510	-0.11777699
47	0x3daeaed0	0.085294366
48	0xbd1c5639	-0.038168166
49	0xbc7a8a04	-0.015291695
50	0xbdc2866e	-0.09498297
51	0xbd4532a8	-0.048144013
52	0x3c39115d	0.011295644
53	0x3d9661eb	0.07342895
54	0xba620032	-0.0008621245
55	0x3d30203a	0.042999484
56	0xbdc2bffa	-0.09509273
57	0xbd9149e4	-0.07094172
58	0x3d6eb6d5	0.05827983
59	0x3e3b8856	0.18313727
60	0xbcdda1b7	-0.02705465
61	0xbddaeb53	-0.10689416
62	0x3e0089c8	0.1255256
63	0x3d00e626	0.031469487
64	0xbd729732	-0.059226222
65	0x3e30591a	0.1722149
66	0xbdc0caf1	-0.09413708
67	0x3d6fcffa	0.05854795
68	0xbd3cd950	-0.046105683
69	0x397a954d	0.00023897477
70	0x3d7c2b65	0.06156482
71	0xbcba709b	-0.022758773
72	0xbd3d663a	-0.04624007
73	0xbd914edd	-0.0709512
74	0x3c89c594	0.016817845
75	0xbe2b6446	-0.1673747
76	0x3dc5e3b9	0.09662575
77	0xbab27132	-0.0013614057
78	0x3c932f87	0.017966999
79	0xbda208b7	-0.079118185
80	0x3d1ef257	0.038805332
81	0xbc7c3226	-0.015392816
82	0x3c8f2e14	0.017478026
83	0x3cf7f5c3	0.030268556
84	0xbd0ed641	-0.034872297
85	0xbc1aa073	-0.009437668
86	0xbd301b57	-0.042994823
87	0xbe4e158d	-0.20125408
88	0xbcdf6012	-0.02726749
89	0x3e19483e	0.14968964
90	0x3c045c07	0.008078582
91	0x3cea6318	0.028611705
92	0xbb119cc6	-0.0022218688
93	0x3d670af5	0.056406934
94	0xbdb8d7f4	-0.09025565
95	0xbc884337	-0.016633613
96	0xbc99e999	-0.018788146
97	0x3cb38d94	0.021918096
98	0x3d44d599	0.048055265
99	0xbd2cb30e	-0.042162947
100	0x3daade4d	0.08343182
101	0x3da9f030	0.08297765
102	0x3defb6d6	0.11704795
103	0xbdad400a	-0.0845948
104	0xbc5558b1	-0.013021634
105	0x3d9cc405	0.07654575
106	0xbdadcdc3	-0.084865116
107	0x3c537ded	0.012908441
108	0x3e22fd19	0.15916862
109	0xbd77c4ab	-0.06049029
110	0xbc0ca253	-0.008583623
111	0x3ddb578f	0.1071006
112	0x3cb4be2a	0.022063334
113	0xbd7ebe2b	-0.062193077
114	0x3ccdf50c	0.025141262
115	0xbcc38d55	-0.023871103
116	0xbe078b3a	-0.13236704
117	0xbe14ecaf	-0.14543413
118	0x3dfaeb42	0.12251903
119	0xbc4016dc	-0.0117242
120	0x3e331312	0.17487743
121	0x3e22643e	0.15858552
122	0x3c2d4f59	0.010578
123	0x3e033e0a	0.12816635
124	0xbd7843f2	-0.060611673
125	0x3c4960cd	0.0122911455
126	0x3d7971ef	0.06089967
127	0x3e240e7d	0.16021152
128	0xbe081132	-0.1328781
129	0x3de1e815	0.11030594
130	0xbd88b748	-0.06675583
131	0xbd51e92d	-0.051247764
132	0xbdaaf270	-0.083470225
133	0xbddbc942	-0.10731746
134	0xbc6197bc	-0.013769086
135	0xbcac76d4	-0.021052755
136	0x3d1c3426	0.03813567
137	0xbda1e792	-0.07905497
138	0xbdb27bbc	-0.08715007
139	0xbc475657	-0.012166581
140	0x3e2eb28e	0.170603
141	0xbceb8310	-0.028749019
142	0xbbb284cf	-0.005447961
143	0x3d9890c6	0.07449488
144	0x3cf57caa	0.029966671
145	0xbddff978	-0.10936254
146	0xbd718b83	-0.05897094
147	0xbd245602	-0.040121086
148	0x3dfb16cc	0.122602075
149	0xbd218ac0	-0.039438963
150	0xbcb8762a	-0.022517283
151	0x3c065775	0.008199562
152	0xbd27c471	-0.040958825
153	0xbc854a59	-0.016270803
154	0xbcaef937	-0.02135907
155	0xbd3c92c5	-0.046038408
156	0xbda60835	-0.08107034
157	0xbd8b660e	-0.06806575
158	0x3da23aa0	0.07921338
159	0xbd8df356	-0.06931178
160	0x3d9faec5	0.077970065
161	0xbe01b8ad	-0.12668104
162	0xbd2379ac	-0.039910957
163	0x3db53ad9	0.08849115
164	0x3db8ae5b	0.09017631
165	0xbe11d148	-0.1423999
166	0x3d95ae50	0.07308638
167	0x3dcb84db	0.099374495
168	0xbd5f8383	-0.05456878
169	0xbd46881b	-0.048469644
170	0xbd0d1cf5	-0.034451444
171	0x3d48df8a	0.04904131
172	0x3e656962	0.22403482
173	0xbd520594	-0.05127485
174	0xbd891d0c	-0.066949934
175	0xbc3d1bfe	-0.011542318
176	0xbcfe9757	-0.031078024
177	0xbdeb4cca	-0.11489256
178	0xbe5df77a	-0.21676436
179	0xbdbb3693	-0.091412686
180	0xbde166f0	-0.11005962
181	0xbc8b24ef	-0.016985385
182	0xbda738e0	-0.08165145
183	0xbae52190	-0.0017481316
184	0xbe194322	-0.14967015
185	0x3d47e0a1	0.048798207
186	0xbd8f6308	-0.070013106
187	0xbcd7a0cd	-0.026321793
188	0xbdc30f75	-0.095244326
189	0x3c121cbb	0.008917983
190	0xbdb460d3	-0.0880753
191	0xbd8e9e09	-0.069637366
192	0x3cc0c2a8	0.02353032
193	0xbdec453a	-0.115366414
194	0x3dc4d079	0.096100755
195	0x3e0c73b0	0.13716006
196	0x3db19a30	0.08671987
197	0xbdde3a64	-0.10850981
198	0x3d18bbad	0.037288357
199	0x3d7f8ec5	0.062392015
200	0x3a8a1f4d	0.0010537893
201	0xbda17be8	-0.07884961
202	0xbd070974	-0.032968
203	0x3dea427a	0.11438461
204	0x3cc144d4	0.02359239
205	0xbc6d9705	-0.014501338
206	0xbe0dd98c	-0.13852519
207	0x3d3e17aa	0.046409287
208	0xbd118a1e	-0.03553211
209	0xbe3d2dd5	-0.18474515
210	0x3db9afce	0.09066735
211	0xbd812e04	-0.06307605
212	0x3d8edbe8	0.069755375
213	0xbd6ebccf	-0.05828553
214	0xbe16f8d0	-0.14743352
215	0x3c30ddcc	0.010795068
216	0xbb8d0253	-0.0043032556
217	0xbde8251e	-0.113352045
218	0x3dd1a235	0.10236017
219	0x3c6e5409	0.014546403
220	0xbb1c57b0	-0.0023855977
221	0xbd92d7b2	-0.07170047
222	0x3a1dd6e2	0.0006021095
223	0x3cc2f471	0.0237982
224	0xbe394cec	-0.1809575
225	0x3e172dac	0.14763516
226	0x3c8a1bed	0.01685902
227	0xbe08e9bd	-0.13370414
228	0x3d920a84	0.07130912
229	0xbd41be57	-0.047300663
230	0xbe325283	-0.17414288
231	0xbdaa77cf	-0.08323633
232	0xbdf978e8	-0.12181264
233	0x3d16ef0a	0.03684906
234	0x3e20f8d0	0.15719914
235	0xbd976fc9	-0.07394368
236	0x3e4270c4	0.18988329
237	0x3e012110	0.12610269
238	0x3e0b5aaa	0.13608804
239	0xbdec0ac4	-0.11525491
240	0xbe39d9fd	-0.18149562
241	0xbd742af9	-0.059611294
242	0x3da775bc	0.08176753
243	0x3d7fb902	0.062432297
244	0x3c008d7e	0.007846234
245	0x3d00c7b1	0.03144044
246	0x3d8eac6a	0.06966479
247	0x3d2fc37e	0.042911045
248	0xbcd49c52	-0.025953446
249	0xbc846553	-0.016161596
250	0x3ddffeae	0.10937248
251	0x3de052dd	0.10953305
252	0xba20552e	-0.00061162084
253	0x3e324049	0.17407335
254	0xbcd879d0	-0.026425272
255	0x3dde1a4e	0.10844861

network_body._body_endoder.seq_layers.2.bias f4 [128]
0	0xbbd04a4e	-0.006356514
1	0xbb86e268	-0.004116345
2	0xbaed4b69	-0.0018104139
3	0x3a91bba4	0.0011118543
4	0xbb9739cf	-0.0046150456
5	0xbb34d549	-0.0027592948
6	0xbb8d04bf	-0.0043035443
7	0xbb84cf8a	-0.004053061
8	0xbaf07e87	-0.0018348255
9	0xbb4068d4	-0.0029359357
10	0xbb4c90de	-0.0031214277
11	0xbae018d0	-0.0017097238
12	0xbaa37130	-0.0012469646
13	0xbb52b27e	-0.0032149847
14	0xbb626a49	-0.0034548214
15	0xbb2216d1	-0.0024732838
16	0xbabdf17f	-0.0014491527
17	0xba99c46e	-0.0011731514
18	0xbb41e2dd	-0.0029584684
19	0xbb5c3cf5	-0.003360567
20	0xbb14c28d	-0.002269897
21	0xbb42717e	-0.0029669697
22	0xbb54c8c4	-0.0032468298
23	0xbb1ecc9a	-0.0024230839
24	0x39ed43d7	0.00045254707
25	0xba1a103d	-0.00058770535
26	0x396aba8e	0.00022385476
27	0xbb0323e2	-0.0020010401
28	0xbb3e5c83	-0.002904684
29	0xbad20730	-0.001602387
30	0xbadd30d4	-0.0016875514
31	0xbb2c5ae1	-0.0026299285
32	0xb9484738	-0.00019100017
33	0xbb2563ca	-0.002523648
34	0xbb63512e	-0.0034685838
35	0xb6492000	-2.996996e-06
36	0x3a19b611	0.0005863617
37	0xba914e67	-0.0011085988
38	0xbb134ae2	-0.0022475054
39	0xbb0c351f	-0.0021393967
40	0xbb1b0388	-0.0023653228
41	0xbb16aa8f	-0.0022989844
42	0xbb57660f	-0.0032867228
43	0xbb213f3e	-0.0024604346
44	0xbb7fb59f	-0.0039018167
45	0xbaded7b0	-0.0017001536
46	0x39f8c629	0.00047449887
47	0xbb64a6f8	-0.003488956
48	0xbafe9722	-0.0019423703
49	0xbb3f93c2	-0.0029232358
50	0xbb83dcd5	-0.004024128
51	0xbb1e7536	-0.002417875
52	0x3a4935b1	0.0007675542
53	0xbb4b056f	-0.003097858
54	0xbaab6dae	-0.0013078952
55	0xbb207a44	-0.0024486938
56	0xba632466	-0.00086647866
57	0xbb64e733	-0.0034927845
58	0xbaa4b862	-0.0012567157
59	0xbabc92ca	-0.0014387008
60	0xbaeef46f	-0.0018230806
61	0xbb0566dd	-0.00203555
62	0xbb4fad41	-0.003168896
63	0xba330380	-0.00068288296
64	0xbb1ab160	-0.002360426
65	0xbb4a456a	-0.0030864128
66	0xbb6bc74b	-0.0035976942
67	0xba846598	-0.0010101078
68	0xbafa3886	-0.0019090332
69	0xbb07c7be	-0.002071842
70	0xba9afbff	-0.0011824368
71	0xbb5b1bdf	-0.003343336
72	0xbb711254	-0.0036784606
73	0xbb3f37b7	-0.0029177496
74	0xbb5087d4	-0.003181924
75	0xbb5f88c8	-0.0034108628
76	0xbb6707b6	-0.0035252399
77	0xbb3e97d4	-0.0029082196
78	0xbadb17d1	-0.0016715472
79	0xbb137992	-0.0022502881
80	0xbad69734	-0.0016371966
81	0xba8cc189	-0.001073883
82	0xbbdbb078	-0.0067043863
83	0x38f28d10	0.00011565734
84	0xbb309cdf	-0.0026948971
85	0xbb9686b9	-0.004593697
86	0x39dedf74	0.00042509625
87	0xba51789c	-0.00079906895
88	0xbb6db6ed	-0.0036272362
89	0xbbb3ef5c	-0.0054911803
90	0xbb321ba0	-0.002717711
91	0xba9fdada	-0.001219596
92	0xb94b01af	-0.00019360216
93	0xbb132b1a	-0.002245611
94	0xba5ac857	-0.0008345893
95	0xbb694ca0	-0.003559865
96	0xbb493be1	-0.0030705857
97	0xbb5a2eda	-0.0033292086
98	0xbb32033f	-0.002716258
99	0xbb1323f5	-0.0022451852
100	0xbb18580d	-0.0023245842
101	0xbb916c9e	-0.004437997
102	0xbb488d65	-0.0030601856
103	0xbb3dd037	-0.0028963217
104	0xb945d00c	-0.00018864888
105	0xb9ffb765	-0.0004877403
106	0x39fc358c	0.0004810508
107	0xbad7b161	-0.0016456061
108	0xba2f97c2	-0.0006698334
109	0xbb601b20	-0.0034195855
110	0xbb2cac0e	-0.002634767
111	0xbb5b6e82	-0.0033482616
112	0xbb35876b	-0.0027699124
113	0xbac8643f	-0.0015288665
114	0xbb137fcc	-0.0022506593
115	0xbb13d463	-0.0022557012
116	0xbb82d684	-0.0039928574
117	0xbb8b05f5	-0.0042426535
118	0xbafc475d	-0.0019247342
119	0xbb673b87	-0.0035283284
120	0xbb707ba7	-0.0036694796
121	0xbb4fea98	-0.0031725522
122	0xbb30b6e0	-0.002696447
123	0xbb2b189e	-0.0026107202
124	0xbb1192b9	-0.0022212698
125	0xbbae102e	-0.0053119874
126	0xbb397b76	-0.0028302348
127	0xbac7603a	-0.0015211173

action_model._discrete_distribution.branches.0.weight f4 [4, 128]
0	0x3c175858	0.009237371
1	0x3c27410b	0.010208379
2	0xb9affeea	-0.00033568527
3	0xbcd9f06c	-0.0266039
4	0xba3ce6a5	-0.00072059996
5	0x3b152f53	0.0022763803
6	0xba84af5f	-0.0010123065
7	0x383e9366	4.5436806e-05
8	0x3c4eb615	0.012616654
9	0x3bb2ce16	0.0054566963
10	0xbb1daef2	-0.0024060574
11	0xbbbfc40e	-0.005852229
12	0x3c41d1b7	0.011829785
13	0x3b2861eb	0.002569313
14	0x3b6e1cff	0.00363332
15	0x3bf75da6	0.0075490056
16	0xba0da1d3	-0.0005402837
17	0xbbfba64d	-0.0076797367
18	0xbada81ac	-0.0016670725
19	0x3b9f7a05	0.004866841
20	0xbb51b5a4	-0.0031999135
21	0x3b8dfefd	0.0043333755
22	0x3af90744	0.0018999358
23	0xbbbaea99	-0.0057042358
24	0xbbca8464	-0.006180333
25	0xbbe03b04	-0.0068429727
26	0x3bec1b95	0.0072054365
27	0x3bcabb95	0.0061869123
28	0xbbd4fe8d	-0.0065000714
29	0xbadba4fe	-0.0016757546
30	0xbbf28958	-0.0074016266
31	0x37935bde	1.7566545e-05
32	0x3c3a14c1	0.011357487
33	0x3c27d7e6	0.010244345
34	0xbac2599b	-0.001482773
35	0xbb56b069	-0.0032758957
36	0x3b2d275c	0.0026421165
37	0xbbeb5eae	-0.0071829176
38	0xbbe2e12f	-0.0069238166
39	0xbc3f0cc3	-0.0116607575
40	0xbb679c94	-0.003534113
41	0xbb3769e6	-0.0027986704
42	0x3b9e7e2e	0.004836819
43	0x3c572632	0.013131665
44	0x3bb61e12	0.005557784
45	0xbb8f3e1f	-0.004371419
46	0x3cb4bbb5	0.022062162
47	0x3bb826c9	0.005619858
48	0x39b73ff5	0.00034952132
49	0xbb5ef3e8	-0.0034019891
50	0xb9192ca6	-0.0001460785
51	0xbb07805c	-0.0020675873
52	0x3b82e284	0.003994288
53	0x3aa7fa03	0.0012815598
54	0x3911ddae	0.0001391086
55	0x3b23f401	0.0025017264
56	0xbc5be578	-0.013421409
57	0x3c2462cb	0.01003332
58	0x3ba26715	0.004956136
59	0xb9dfc892	-0.0004268331
60	0x3bf129a7	0.0073597017
61	0x3ba6b28e	0.0050872033
62	0xbb64da68	-0.003492022
63	0xbc9683af	-0.018373339
64	0xb9dd3165	-0.00042189207
65	0xbc452041	-0.012031616
66	0x3c00f83d	0.007871685
67	0x3c618538	0.013764672
68	0xbb48ac76	-0.0030620373
69	0xbb205739	-0.0024466051
70	0x3c395a6b	0.011313061
71	0x3c3fa350	0.011696652
72	0xbb26c5b9	-0.0025447442
73	0xbbe94ccb	-0.00711975
74	0x3bcedb56	0.006312768
75	0xbbbf7f65	-0.005844044
76	0xbb9353d8	-0.004496079
77	0xbc1ac77b	-0.009446974
78	0x3c49f114	0.012325544
79	0xbae36e02	-0.001735151
80	0x3b6180d7	0.003440907
81	0xbb462a46	-0.00302376
82	0xbaacf161	-0.0013194495
83	0xbb950ecf	-0.0045488845
84	0xbbc6ee75	-0.0060709068
85	0x3bc84fc9	0.0061130268
86	0xbca6c385	-0.020356903
87	0xbc73d2bf	-0.014881789
88	0x3b3b2063	0.002855324
89	0x3c059156	0.008152327
90	0x3bf95348	0.007608805
91	0xbc3e223c	-0.011604842
92	0xbc2e77c0	-0.010648668
93	0xbb808b7d	-0.0039228783
94	0xbbdfe6f0	-0.00683295
95	0x3bf87064	0.0075817574
96	0x3a47d265	0.0007622599
97	0x3bc8a077	0.0061226445
98	0x3a0be726	0.0005336873
99	0xbb92df4a	-0.0044821845
100	0x3c1e0fea	0.009647349
101	0xbb5c7906	-0.0033641472
102	0x3adc871c	0.0016824934
103	0x3bb1813e	0.005417018
104	0x3b750cd2	0.0037391675
105	0xbb7ae134	-0.0038281204
106	0xbbb5ebad	-0.0055517764
107	0x3bf5e9ec	0.0075046923
108	0xbc64e152	-0.013969736
109	0xbc286c96	-0.010279795
110	0x3bd988c0	0.0066386163
111	0x3b8db8ff	0.004325032
112	0x3c319311	0.010838286
113	0x3c1a3a9d	0.009413389
114	0xbbd3582d	-0.0064497204
115	0xbc9a97de	-0.018871244
116	0x3c31bf37	0.010848812
117	0x3a6ac591	0.0008955831
118	0x3c19c2dc	0.009384837
119	0x3c0e2343	0.008675399
120	0xbafae1c8	-0.0019140774
121	0x3bbb6fb7	0.0057201046
122	0xbc0c04d1	-0.00854607
123	0xbb774894	-0.003773247
124	0x3a5d8e95	0.00084517273
125	0x3b3b076e	0.0028538364
126	0x3c1ad8dc	0.009451117
127	0x3cb5d6d1	0.022197159
128	0x3c24354e	0.010022474
129	0x3c0101e1	0.007873983
130	0xbb4b6b4f	-0.0031039303
131	0x3c483413	0.012219447
132	0x3b1f421c	0.002430088
133	0xba575434	-0.00082141464
134	0xbba7ca47	-0.005120549
135	0x3b0a6be6	0.0021121441
136	0xbc3b52ad	-0.011433286
137	0x3bd188ca	0.0063944804
138	0xbbfaf879	-0.007659015
139	0xbbaf442f	-0.0053487043
140	0x3c461453	0.012089807
141	0xbb1e07fd	-0.0024113648
142	0xbc150acb	-0.0090968115
143	0x3b98fad7	0.0046685743
144	0xbb1a8244	-0.002357618
145	0x3b598f9b	0.0033197168
146	0xbbfec4bb	-0.007774917
147	0x3c0c322b	0.008556883
148	0x3b1f317a	0.0024290965
149	0xbbf89694	-0.0075863097
150	0xbb1bece4	-0.002379232
151	0xbc8588db	-0.01630061
152	0x3c8a47e2	0.01687998
153	0xbbc44069	-0.0059891236
154	0xbbbda542	-0.0057875225
155	0x3c45823c	0.012054976
156	0x3c1af45d	0.009457675
157	0x3bb04322	0.0053790966
158	0xbc01ad51	-0.007914857
159	0x39afdad8	0.00033541652
160	0x3ae9769f	0.0017811841
161	0x3b240757	0.002502879
162	0xba2b5249	-0.0006535394
163	0xbbb2f49f	-0.00546129
164	0x3b04c7ce	0.0020260694
165	0x3b6b71ef	0.0035926064
166	0xbc040a49	-0.008059093
167	0xbc119665	-0.0088859545
168	0xbaea0edd	-0.0017857213
169	0x3a20c561	0.00061329274
170	0xbbaffda1	-0.005370811
171	0xbab3b4d5	-0.0013710508
172	0xb9058a82	-0.00012735467
173	0x3ac52b82	0.0015042874
174	0xbc22a949	-0.009928056
175	0x3bed6123	0.0072442456
176	0xba9a1168	-0.0011754455
177	0xb949143e	-0.00019176395
178	0xbaea23c9	-0.0017863448
179	0xbc121a54	-0.00891741
180	0xbc8c91b6	-0.017159324
181	0xbb6dcef2	-0.003628668
182	0x3c07b075	0.008281817
183	0x3b557143	0.003256873
184	0x39d82a0e	0.00041230064
185	0x3c3fe1ab	0.011711518
186	0x3c0b95c7	0.008519596
187	0x3c25d5aa	0.010121742
188	0x3b74b9f3	0.003734228
189	0xbc51d58c	-0.012807261
190	0xb9ec47ec	-0.00045067014
191	0xbb91dde7	-0.0044515016
192	0x3aa0ec61	0.0012277478
193	0x3a8812fe	0.0010381637
194	0x3b0fcc24	0.0021941746
195	0x3c368890	0.0111409575
196	0xb895dca2	-7.14597e-05
197	0xbc7facfa	-0.015605206
198	0x3b120762	0.0022282233
199	0x3b63af24	0.0034741843
200	0xbb9f4752	-0.004860797
201	0xbb62d3fc	-0.0034611216
202	0x3c7e4a6b	0.015520672
203	0xbb9f15ca	-0.0048548924
204	0xbbc12faa	-0.0058955746
205	0x3c2df207	0.010616786
206	0xbc687544	-0.014188115
207	0x3b346a9b	0.0027529362
208	0xbc26fb6c	-0.01019178
209	0x3b365006	0.0027818694
210	0x3b2162bf	0.0024625508
211	0x39ddee9f	0.0004233019
212	0xba9cae6e	-0.001195384
213	0x3c36c36b	0.01115499
214	0x3c02f73b	0.007993515
215	0x3b840905	0.0040293955
216	0x3b7bac32	0.0038402197
217	0x3be34fac	0.006936988
218	0x3a7e3a0d	0.00096979813
219	0x3c15a45b	0.009133424
220	0x395ee4ce	0.00021256806
221	0xbc5cd2df	-0.01347801
222	0x3ba3dd08	0.005000714
223	0x3c3318de	0.010931222
224	0x3c808f73	0.015693402
225	0x3b8f66a2	0.0043762485
226	0xbb85db43	-0.004084976
227	0x3b8bde4f	0.0042684446
228	0xbafb6e5c	-0.001918267
229	0xbbba887b	-0.0056925393
230	0xbb1e9b58	-0.0024201479
231	0x3b705bf9	0.0036675914
232	0xb98d2631	-0.0002692207
233	0x3c21db96	0.0098790135
234	0xbaae8b91	-0.001331674
235	0x3aeae1ae	0.0017920041
236	0xb9dff16c	-0.00042713748
237	0xbbb1cfec	-0.0054263975
238	0x3ba09b15	0.0049012997
239	0x3c0d79a6	0.00863496
240	0x3c557daa	0.013030449
241	0x3a887617	0.001041117
242	0xbb008e73	-0.0019616156
243	0xbc4bf40e	-0.012448324
244	0x3b92153a	0.004458097
245	0x3bc8f99c	0.0061332714
246	0xbbf284e7	-0.007401097
247	0x3b822c21	0.0039725457
248	0x3af025a6	0.0018321767
249	0x3c80be26	0.01571567
250	0xbba98015	-0.0051727393
251	0xbb850db0	-0.0040604696
252	0xbc4f44ce	-0.012650682
253	0x3b06724a	0.00205149
254	0x3ab76b21	0.0013993719
255	0xbbd8f6b5	-0.0066212066

action_model._discrete_distribution.branches.0.bias f4 [4]
0	0xbad6475b	-0.001634817
1	0x3aaa3809	0.001298667
2	0xba412ad5	-0.0007368748
3	0x3a3a3129	0.00071026623

exp_avg f4 [128, 7]
0	0xb8eb0f4b	-0.00011208522
1	0xb5fefae8	-1.8997498e-06
2	0xb7ef0b39	-2.8496246e-05
3	0xb5fefae8	-1.8997498e-06
4	0xb5fefae8	-1.8997498e-06
5	0xb5fefae8	-1.8997498e-06
6	0xb6fefae8	-7.598999e-06
7	0x3bf56770	0.0074891374
8	0x390519b9	0.00012693451
9	0x3af9903d	0.0019040179
10	0x390519b9	0.00012693451
11	0x390519b9	0.00012693451
12	0x390519b9	0.00012693451
13	0x3a0519b9	0.00050773803
14	0x2ff7f889	4.5105633e-10
15	0x2d067e1f	7.645023e-12
16	0x2efc2c7a	1.1467534e-10
17	0x2d067e1f	7.645023e-12
18	0x2d067e1f	7.645023e-12
19	0x2d067e1f	7.645023e-12
20	0x2e067e1f	3.058009e-11
21	0xa8a5b600	-1.839761e-14
22	0xa5b3c115	-3.1182388e-16
23	0xa7a88505	-4.6773587e-15
24	0xa5b3c115	-3.1182388e-16
25	0xa5b3c115	-3.1182388e-16
26	0xa5b3c115	-3.1182388e-16
27	0xa6b3c115	-1.2472955e-15
28	0x398c271b	0.00026732017
29	0x369807d5	4.5308648e-06
30	0x388e8752	6.796293e-05
31	0x369807d5	4.5308648e-06
32	0x369807d5	4.5308648e-06
33	0x369807d5	4.5308648e-06
34	0x379807d5	1.8123459e-05
35	0xbbaf86ba	-0.005356637
36	0xb8be66bf	-9.079044e-05
37	0xbab28057	-0.001361857
38	0xb8be66bf	-9.079044e-05
39	0xb8be66bf	-9.079044e-05
40	0xb8be66bf	-9.079044e-05
41	0xb9be66bf	-0.00036316176
42	0xba001625	-0.00048861123
43	0xb70af0fb	-8.281549e-06
44	0xb90241f7	-0.0001242234
45	0xb70af0fb	-8.281549e-06
46	0xb70af0fb	-8.281549e-06
47	0xb70af0fb	-8.281549e-06
48	0xb80af0fb	-3.3126194e-05
49	0xad01c086	-7.37555e-12
50	0xaa0cbf7c	-1.2500932e-13
51	0xac03f382	-1.8751394e-12
52	0xaa0cbf7c	-1.2500932e-13
53	0xaa0cbf7c	-1.2500932e-13
54	0xaa0cbf7c	-1.2500932e-13
55	0xab0cbf7c	-5.000373e-13
56	0x348613f8	2.4973974e-07
57	0x319170c7	4.2328767e-09
58	0x338859ba	6.349315e-08
59	0x319170c7	4.2328767e-09
60	0x319170c7	4.2328767e-09
61	0x319170c7	4.2328767e-09
62	0x329170c7	1.6931507e-08
63	0xbbe2f77c	-0.006926475
64	0xb8f63382	-0.00011739788
65	0xbae6d048	-0.001760968
66	0xb8f63382	-0.00011739788
67	0xb8f63382	-0.00011739788
68	0xb8f63382	-0.00011739788
69	0xb9f63382	-0.00046959153
70	0xb0c58ecc	-1.4374222e-09
71	0xadd64ccb	-2.4363086e-11
72	0xafc8e7ff	-3.654463e-10
73	0xadd64ccb	-2.4363086e-11
74	0xadd64ccb	-2.4363086e-11
75	0xadd64ccb	-2.4363086e-11
76	0xaed64ccb	-9.7452345e-11
77	0xb77f345a	-1.52113735e-05
78	0xb48a6a8d	-2.578203e-07
79	0xb681c3e0	-3.8673024e-06
80	0xb48a6a8d	-2.578203e-07
81	0xb48a6a8d	-2.578203e-07
82	0xb48a6a8d	-2.578203e-07
83	0xb58a6a8d	-1.0312812e-06
84	0x3ab53ffa	0.0013828271
85	0x37c49c2d	2.3437746e-05
86	0x39b85269	0.00035156615
87	0x37c49c2d	2.3437746e-05
88	0x37c49c2d	2.3437746e-05
89	0x37c49c2d	2.3437746e-05
90	0x38c49c2d	9.375098e-05
91	0xbbb4c046	-0.005516085
92	0xb8c411a6	-9.3492956e-05
93	0xbab7d08e	-0.0014023946
94	0xb8c411a6	-9.3492956e-05
95	0xb8c411a6	-9.3492956e-05
96	0xb8c411a6	-9.3492956e-05
97	0xb9c411a6	-0.00037397182
98	0xbbbf0bb7	-0.005830254
99	0xb8cf3c71	-9.881787e-05
100	0xbac248a8	-0.0014822679
101	0xb8cf3c71	-9.881787e-05
102	0xb8cf3c71	-9.881787e-05
103	0xb8cf3c71	-9.881787e-05
104	0xb9cf3c71	-0.0003952715
105	0x378e4f1c	1.6964557e-05
106	0x349a5e83	2.8753502e-07
107	0x3690b896	4.313023e-06
108	0x349a5e83	2.8753502e-07
109	0x349a5e83	2.8753502e-07
110	0x349a5e83	2.8753502e-07
111	0x359a5e83	1.1501401e-06
112	0x3c066d5c	0.008204784
113	0x3911d1bf	0.00013906414
114	0x3b08b4a4	0.0020859623
115	0x3911d1bf	0.00013906414
116	0x3911d1bf	0.00013906414
117	0x3911d1bf	0.00013906414
118	0x3a11d1bf	0.00055625656
119	0x3b54fea0	0.00325004
120	0x38670b88	5.508543e-05
121	0x3a589acd	0.0008262813
122	0x38670b88	5.508543e-05
123	0x38670b88	5.508543e-05
124	0x38670b88	5.508543e-05
125	0x39670b88	0.00022034172
126	0x38b8df83	8.815436e-05
127	0x35c88a58	1.4941425e-06
128	0x37bc01ad	2.2412127e-05
129	0x35c88a58	1.4941425e-06
130	0x35c88a58	1.4941425e-06
131	0x35c88a58	1.4941425e-06
132	0x36c88a58	5.97657e-06
133	0x322663c5	9.685157e-09
134	0x2f347d94	1.6415519e-10
135	0x312935bb	2.462328e-09
136	0x2f347d94	1.6415519e-10
137	0x2f347d94	1.6415519e-10
138	0x2f347d94	1.6415519e-10
139	0x30347d94	6.5662076e-10
140	0x3c294bac	0.010332983
141	0x3937a485	0.00017513528
142	0x3b2c2a3d	0.0026270293
143	0x3937a485	0.00017513528
144	0x3937a485	0.00017513528
145	0x3937a485	0.00017513528
146	0x3a37a485	0.00070054113
147	0x39a5e925	0.0003164496
148	0x36b3f891	5.3635526e-06
149	0x38a8b909	8.04533e-05
150	0x36b3f891	5.3635526e-06
151	0x36b3f891	5.3635526e-06
152	0x36b3f891	5.3635526e-06
153	0x37b3f891	2.145421e-05
154	0x3992436b	0.0002789752
155	0x369ea897	4.7283934e-06
156	0x3894be0d	7.09259e-05
157	0x369ea897	4.7283934e-06
158	0x369ea897	4.7283934e-06
159	0x369ea897	4.7283934e-06
160	0x379ea897	1.8913574e-05
161	0x2e07e883	3.0901958e-11
162	0x2b136d06	5.237619e-13
163	0x2d0a3635	7.856428e-12
164	0x2b136d06	5.237619e-13
165	0x2b136d06	5.237619e-13
166	0x2b136d06	5.237619e-13
167	0x2c136d06	2.0950477e-12
168	0xb9b5edc3	-0.00034700157
169	0xb6c558b0	-5.881382e-06
170	0xb8b90326	-8.822074e-05
171	0xb6c558b0	-5.881382e-06
172	0xb6c558b0	-5.881382e-06
173	0xb6c558b0	-5.881382e-06
174	0xb7c558b0	-2.3525528e-05
175	0x37d8380c	2.5775305e-05
176	0x34ea8ae6	4.3686958e-07
177	0x36dbe238	6.553044e-06
178	0x34ea8ae6	4.3686958e-07
179	0x34ea8ae6	4.3686958e-07
180	0x34ea8ae6	4.3686958e-07
181	0x35ea8ae6	1.7474783e-06
182	0xb9be082c	-0.00036245713
183	0xb6ce22e9	-6.1433425e-06
184	0xb8c140bb	-9.215014e-05
185	0xb6ce22e9	-6.1433425e-06
186	0xb6ce22e9	-6.1433425e-06
187	0xb6ce22e9	-6.1433425e-06
188	0xb7ce22e9	-2.457337e-05
189	0x38a3301e	7.781408e-05
190	0x35b10470	1.3188819e-06
191	0x37a5f443	1.9783276e-05
192	0x35b10470	1.3188819e-06
193	0x35b10470	1.3188819e-06
194	0x35b10470	1.3188819e-06
195	0x36b10470	5.2755277e-06
196	0xbbd51666	-0.0065029142
197	0xb8e7254d	-0.00011021886
198	0xbad8b2f8	-0.0016532829
199	0xb8e7254d	-0.00011021886
200	0xb8e7254d	-0.00011021886
201	0xb8e7254d	-0.00011021886
202	0xb9e7254d	-0.00044087545
203	0xb6572ef5	-3.206483e-06
204	0xb3696b58	-5.434717e-08
205	0xb55ad4a2	-8.152075e-07
206	0xb3696b58	-5.434717e-08
207	0xb3696b58	-5.434717e-08
208	0xb3696b58	-5.434717e-08
209	0xb4696b58	-2.1738867e-07
210	0x31332fd4	2.6075115e-09
211	0x2e425f44	4.4195106e-11
212	0x30363953	6.6292677e-10
213	0x2e425f44	4.4195106e-11
214	0x2e425f44	4.4195106e-11
215	0x2e425f44	4.4195106e-11
216	0x2f425f44	1.7678042e-10
217	0x385667d2	5.1118266e-05
218	0x35689353	8.664112e-07
219	0x375a0a1f	1.2996169e-05
220	0x35689353	8.664112e-07
221	0x35689353	8.664112e-07
222	0x35689353	8.664112e-07
223	0x36689353	3.4656448e-06
224	0xbc9378b9	-0.018001901
225	0xb99ff81b	-0.00030511696
226	0xbb95f898	-0.004576754
227	0xb99ff81b	-0.00030511696
228	0xb99ff81b	-0.00030511696
229	0xb99ff81b	-0.00030511696
230	0xba9ff81b	-0.0012204678
231	0xb7a1424c	-1.9223568e-05
232	0xb4aeeccb	-3.2582315e-07
233	0xb6a3fdff	-4.8873476e-06
234	0xb4aeeccb	-3.2582315e-07
235	0xb4aeeccb	-3.2582315e-07
236	0xb4aeeccb	-3.2582315e-07
237	0xb5aeeccb	-1.3032926e-06
238	0xbb3b2e2e	-0.002856146
239	0xb84b0b10	-4.8409274e-05
240	0xba3e5a5f	-0.0007261391
241	0xb84b0b10	-4.8409274e-05
242	0xb84b0b10	-4.8409274e-05
243	0xb84b0b10	-4.8409274e-05
244	0xb94b0b10	-0.0001936371
245	0x39c23a94	0.00037046208
246	0x36d2b05f	6.27902e-06
247	0x38c58556	9.418528e-05
248	0x36d2b05f	6.27902e-06
249	0x36d2b05f	6.27902e-06
250	0x36d2b05f	6.27902e-06
251	0x37d2b05f	2.511608e-05
252	0x33ae71e1	8.123221e-08
253	0x30bd3a72	1.3768171e-09
254	0x32b166cc	2.0652259e-08
255	0x30bd3a72	1.3768171e-09

exp_avg_sq f4 [128, 7]
0	0x34d1f7b7	3.910952e-07
1	0x2ef71036	1.1235139e-10
2	0x32d92545	2.5279073e-08
3	0x2ef71036	1.1235139e-10
4	0x2ef71036	1.1235139e-10
5	0x2ef71036	1.1235139e-10
6	0x30f71036	1.7976223e-09
7	0x3afc68d6	0.0019257318
8	0x35148077	5.532124e-07
9	0x390284e4	0.00012447272
10	0x35148077	5.532124e-07
11	0x35148077	5.532124e-07
12	0x35148077	5.532124e-07
13	0x37148077	8.851398e-06
14	0x2193ab02	1.0006373e-18
15	0x1badc1cf	2.8745695e-22
16	0x1f98b752	6.467778e-20
17	0x1badc1cf	2.8745695e-22
18	0x1badc1cf	2.8745695e-22
19	0x1badc1cf	2.8745695e-22
20	0x1dadc1cf	4.5993112e-21
21	0x12d1e597	1.3246353e-27
22	0x0cf6fae2	3.8053296e-31
23	0x10d9127a	8.5619876e-29
24	0x0cf6fae2	3.8053296e-31
25	0x0cf6fae2	3.8053296e-31
26	0x0cf6fae2	3.8053296e-31
27	0x0ef6fae2	6.0885273e-30
28	0x39849fc1	0.00025296028
29	0x339c0e21	7.266886e-08
30	0x3789286b	1.6350494e-05
31	0x339c0e21	7.266886e-08
32	0x339c0e21	7.266886e-08
33	0x339c0e21	7.266886e-08
34	0x359c0e21	1.1627018e-06
35	0x39a4952d	0.00031391662
36	0x33c1a8f7	9.0179974e-08
37	0x37aa3586	2.0290503e-05
38	0x33c1a8f7	9.0179974e-08
39	0x33c1a8f7	9.0179974e-08
40	0x33c1a8f7	9.0179974e-08
41	0x35c1a8f7	1.4428796e-06
42	0x3a6c5c2b	0.00090164196
43	0x348b0f2c	2.5901807e-07
44	0x387470b4	5.8279096e-05
45	0x348b0f2c	2.5901807e-07
46	0x348b0f2c	2.5901807e-07
47	0x348b0f2c	2.5901807e-07
48	0x368b0f2c	4.144289e-06
49	0x1bfda166	4.195964e-22
50	0x16153853	1.2053897e-25
51	0x1a032684	2.7121278e-23
52	0x16153853	1.2053897e-25
53	0x16153853	1.2053897e-25
54	0x16153853	1.2053897e-25
55	0x18153853	1.9286235e-24
56	0x2d19c28f	8.740244e-12
57	0x2734ece9	2.5108447e-15
58	0x2b1f0436	5.649399e-13
59	0x2734ece9	2.5108447e-15
60	0x2734ece9	2.5108447e-15
61	0x2734ece9	2.5108447e-15
62	0x2934ece9	4.0173516e-14
63	0x3ad77d26	0.0016440495
64	0x34fd8f67	4.722926e-07
65	0x38dedb04	0.0001062658
66	0x34fd8f67	4.722926e-07
67	0x34fd8f67	4.722926e-07
68	0x34fd8f67	4.722926e-07
69	0x36fd8f67	7.556682e-06
70	0x23379f29	9.954153e-18
71	0x1d581003	2.859564e-21
72	0x213de619	6.434022e-19
73	0x1d581003	2.859564e-21
74	0x1d581003	2.859564e-21
75	0x1d581003	2.859564e-21
76	0x1f581003	4.5753024e-20
77	0x384fd633	4.9552134e-05
78	0x32748e54	1.4235031e-08
79	0x3656f110	3.2028802e-06
80	0x32748e54	1.4235031e-08
81	0x32748e54	1.4235031e-08
82	0x32748e54	1.4235031e-08
83	0x34748e54	2.277605e-07
84	0x37009e2c	7.666222e-06
85	0x31175755	2.2023035e-09
86	0x350503c8	4.9551863e-07
87	0x31175755	2.2023035e-09
88	0x31175755	2.2023035e-09
89	0x31175755	2.2023035e-09
90	0x33175755	3.5236855e-08
91	0x3958d99b	0.0002068043
92	0x337f295e	5.9409437e-08
93	0x3760435a	1.3367122e-05
94	0x337f295e	5.9409437e-08
95	0x337f295e	5.9409437e-08
96	0x337f295e	5.9409437e-08
97	0x357f295e	9.50551e-07
98	0x39882703	0.00025969007
99	0x33a034ef	7.460209e-08
100	0x378cce88	1.6785474e-05
101	0x33a034ef	7.460209e-08
102	0x33a034ef	7.460209e-08
103	0x33a034ef	7.460209e-08
104	0x35a034ef	1.1936335e-06
105	0x32e80158	2.7008966e-08
106	0x2d087f4a	7.758969e-12
107	0x30efefc5	1.7457685e-09
108	0x2d087f4a	7.758969e-12
109	0x2d087f4a	7.758969e-12
110	0x2d087f4a	7.758969e-12
111	0x2f087f4a	1.241435e-10
112	0x39a1dba2	0.00030871952
113	0x33be743e	8.868709e-08
114	0x37a76421	1.9954578e-05
115	0x33be743e	8.868709e-08
116	0x33be743e	8.868709e-08
117	0x33be743e	8.868709e-08
118	0x35be743e	1.4189934e-06
119	0x38e5c182	0.000109556146
120	0x33072c82	3.1472617e-08
121	0x36ed9c2e	7.081332e-06
122	0x33072c82	3.1472617e-08
123	0x33072c82	3.1472617e-08
124	0x33072c82	3.1472617e-08
125	0x35072c82	5.0356186e-07
126	0x36a39d40	4.876085e-06
127	0x30c08549	1.400772e-09
128	0x34a9351f	3.1517354e-07
129	0x30c08549	1.400772e-09
130	0x30c08549	1.400772e-09
131	0x30c08549	1.400772e-09
132	0x32c08549	2.2412353e-08
133	0x25b3ea70	3.121041e-16
134	0x1fd3b3ba	8.965931e-20
135	0x23ba10ff	2.0173359e-17
136	0x1fd3b3ba	8.965931e-20
137	0x1fd3b3ba	8.965931e-20
138	0x1fd3b3ba	8.965931e-20
139	0x21d3b3ba	1.4345489e-18
140	0x3a0eefb9	0.00054525916
141	0x34283087	1.5663873e-07
142	0x3813d2a7	3.5243716e-05
143	0x34283087	1.5663873e-07
144	0x34283087	1.5663873e-07
145	0x34283087	1.5663873e-07
146	0x36283087	2.5062197e-06
147	0x358f93d1	1.069735e-06
148	0x2fa8f18f	3.073066e-10
149	0x33947c57	6.914404e-08
150	0x2fa8f18f	3.073066e-10
151	0x2fa8f18f	3.073066e-10
152	0x2fa8f18f	3.073066e-10
153	0x31a8f18f	4.9169055e-09
154	0x35649bff	8.5163623e-07
155	0x2f867fcb	2.446526e-10
156	0x336c6cab	5.5046865e-08
157	0x2f867fcb	2.446526e-10
158	0x2f867fcb	2.446526e-10
159	0x2f867fcb	2.446526e-10
160	0x31867fcb	3.9144417e-09
161	0x1f41c457	4.1031748e-20
162	0x1964001a	1.1787344e-23
163	0x1d486413	2.6521517e-21
164	0x1964001a	1.1787344e-23
165	0x1964001a	1.1787344e-23
166	0x1964001a	1.1787344e-23
167	0x1b64001a	1.8859751e-22
168	0x35442149	7.3064126e-07
169	0x2f66c7de	2.0989385e-10
170	0x334ad5b4	4.7226152e-08
171	0x2f66c7de	2.0989385e-10
172	0x2f66c7de	2.0989385e-10
173	0x2f66c7de	2.0989385e-10
174	0x3166c7de	3.3583016e-09
175	0x314b0c76	2.9547471e-09
176	0x2b6eec00	8.48821e-13
177	0x2f51fd76	1.9098487e-10
178	0x2b6eec00	8.48821e-13
179	0x2b6eec00	8.48821e-13
180	0x2b6eec00	8.48821e-13
181	0x2d6eec00	1.3581136e-11
182	0x364cc5b9	3.0513459e-06
183	0x3070f353	8.7657276e-10
184	0x3453c5d2	1.9722873e-07
185	0x3070f353	8.7657276e-10
186	0x3070f353	8.7657276e-10
187	0x3070f353	8.7657276e-10
188	0x3270f353	1.4025164e-08
189	0x3708c8ac	8.152954e-06
190	0x3120f326	2.3421278e-09
191	0x350d75b7	5.269789e-07
192	0x3120f326	2.3421278e-09
193	0x3120f326	2.3421278e-09
194	0x3120f326	2.3421278e-09
195	0x3320f326	3.7474045e-08
196	0x39eee8ce	0.0004556835
197	0x340c8f23	1.3090589e-07
198	0x37f7139e	2.945383e-05
199	0x340c8f23	1.3090589e-07
200	0x340c8f23	1.3090589e-07
201	0x340c8f23	1.3090589e-07
202	0x360c8f23	2.0944942e-06
203	0x2f0a1c04	1.256098e-10
204	0x2922827a	3.6084396e-14
205	0x2d0ed4b3	8.118994e-12
206	0x2922827a	3.6084396e-14
207	0x2922827a	3.6084396e-14
208	0x2922827a	3.6084396e-14
209	0x2b22827a	5.7735034e-13
210	0x251c8739	1.3576658e-16
211	0x1f382eb6	3.9002154e-20
212	0x2321e10c	8.775483e-18
213	0x1f382eb6	3.9002154e-20
214	0x1f382eb6	3.9002154e-20
215	0x1f382eb6	3.9002154e-20
216	0x21382eb6	6.2403446e-19
217	0x32a0cb22	1.8718826e-08
218	0x2cbd338e	5.377427e-12
219	0x30a64a5a	1.2099222e-09
220	0x2cbd338e	5.377427e-12
221	0x2cbd338e	5.377427e-12
222	0x2cbd338e	5.377427e-12
223	0x2ebd338e	8.603883e-11
224	0x3a9e4590	0.0012075175
225	0x34ba3bf6	3.4688827e-07
226	0x38a3aea8	7.804978e-05
227	0x34ba3bf6	3.4688827e-07
228	0x34ba3bf6	3.4688827e-07
229	0x34ba3bf6	3.4688827e-07
230	0x36ba3bf6	5.5502123e-06
231	0x32274c72	9.738061e-09
232	0x2c44db17	2.7974895e-12
233	0x302d0489	6.294348e-10
234	0x2c44db17	2.7974895e-12
235	0x2c44db17	2.7974895e-12
236	0x2c44db17	2.7974895e-12
237	0x2e44db17	4.475983e-11
238	0x394cdc29	0.00019536972
239	0x33710d91	5.6124524e-08
240	0x3753dcf2	1.2628023e-05
241	0x33710d91	5.6124524e-08
242	0x33710d91	5.6124524e-08
243	0x33710d91	5.6124524e-08
244	0x35710d91	8.979924e-07
245	0x36a61298	4.94935e-06
246	0x30c369c9	1.4218183e-09
247	0x34abc002	3.1990936e-07
248	0x30c369c9	1.4218183e-09
249	0x30c369c9	1.4218183e-09
250	0x30c369c9	1.4218183e-09
251	0x32c369c9	2.2749093e-08
252	0x29029d74	2.9002367e-14
253	0x2319b0ee	8.331613e-18
254	0x27071489	1.8746146e-15
255	0x2319b0ee	8.331613e-18

exp_avg f4 [128]
0	0xb67efae8	-3.7994996e-06
1	0x398519b9	0.00025386902
2	0x2d867e1f	1.5290045e-11
3	0xa633c115	-6.2364775e-16
4	0x371807d5	9.0617295e-06
5	0xb93e66bf	-0.00018158088
6	0xb78af0fb	-1.6563097e-05
7	0xaa8cbf7c	-2.5001865e-13
8	0x321170c7	8.465753e-09
9	0xb9763382	-0.00023479576
10	0xae564ccb	-4.8726172e-11
11	0xb50a6a8d	-5.156406e-07
12	0x38449c2d	4.687549e-05
13	0xb94411a6	-0.00018698591
14	0xb94f3c71	-0.00019763575
15	0x351a5e83	5.7507003e-07
16	0x3991d1bf	0.00027812828
17	0x38e70b88	0.00011017086
18	0x36488a58	2.988285e-06
19	0x2fb47d94	3.2831038e-10
20	0x39b7a485	0.00035027057
21	0x3733f891	1.0727105e-05
22	0x371ea897	9.456787e-06
23	0x2b936d06	1.0475238e-12
24	0xb74558b0	-1.1762764e-05
25	0x356a8ae6	8.7373917e-07
26	0xb74e22e9	-1.2286685e-05
27	0x36310470	2.6377638e-06
28	0xb967254d	-0.00022043772
29	0xb3e96b58	-1.0869434e-07
30	0x2ec25f44	8.839021e-11
31	0x35e89353	1.7328224e-06
32	0xba1ff81b	-0.0006102339
33	0xb52eeccb	-6.516463e-07
34	0xb8cb0b10	-9.681855e-05
35	0x3752b05f	1.255804e-05
36	0x313d3a72	2.7536342e-09
37	0x39828050	0.00024891132
38	0xb67bba08	-3.75102e-06
39	0xb9be004e	-0.0003623985
40	0x380baa75	3.3298933e-05
41	0x38a5f14e	7.9127596e-05
42	0x35a66361	1.2396887e-06
43	0xb8653746	-5.4649332e-05
44	0x371998df	9.155104e-06
45	0xb0d54f83	-1.5520388e-09
46	0xb85dc031	-5.2869498e-05
47	0x3680b6ac	3.835963e-06
48	0x38c12162	9.209175e-05
49	0x31ffd0ac	7.4452e-09
50	0xb631b544	-2.6480566e-06
51	0xa9e1e093	-1.00309646e-13
52	0x39ee3c38	0.00045439764
53	0xb708bede	-8.150671e-06
54	0x387983c0	5.9488928e-05
55	0xb3de452d	-1.03502636e-07
56	0xb9441ed2	-0.00018703498
57	0x3420b1f2	1.4965897e-07
58	0x385e1675	5.294984e-05
59	0xb88c46b7	-6.688892e-05
60	0xb8ccaa7e	-9.759235e-05
61	0xb3c5dfdd	-9.214248e-08
62	0xb8e7f737	-0.00011060986
63	0x35977c44	1.1286543e-06
64	0x398ccf98	0.0002685755
65	0x373788df	1.0939518e-05
66	0xb7210e93	-9.599741e-06
67	0xb883f68c	-6.29249e-05
68	0xb4dd757f	-4.1249947e-07
69	0x37393509	1.10392075e-05
70	0x38ce7771	9.845093e-05
71	0xb95e22af	-0.0002118449
72	0x38f72c60	0.00011786143
73	0x3918e5d2	0.00014581464
74	0xb93bbc65	-0.00017903892
75	0xb9d2ddb2	-0.00040219497
76	0xb55e12d9	-8.272887e-07
77	0x36d3bdf1	6.310402e-06
78	0xb94bcc8b	-0.00019435787
79	0xb83d398f	-4.5114717e-05
80	0x37a20bed	1.9317458e-05
81	0x39036a20	0.00012532668
82	0xb953f62c	-0.00020214234
83	0x37929dff	1.7478129e-05
84	0xb9243124	-0.00015658565
85	0x2fb1b204	3.23226e-10
86	0x37c92d10	2.3982051e-05
87	0xb7acd5a1	-2.0603477e-05
88	0xb6c5e48d	-5.8976643e-06
89	0x2eee83f3	1.0846426e-10
90	0x2c60f520	3.1968386e-12
91	0x38e693df	0.00010994798
92	0xb90453bc	-0.00012619694
93	0xae14d79f	-3.3842814e-11
94	0x37c41b9a	2.3377874e-05
95	0xb7bf2704	-2.2787142e-05
96	0xb90f758e	-0.00013681335
97	0xb99bf429	-0.00029745817
98	0x39ac6337	0.00032880317
99	0x393cfd34	0.00018023403
100	0xb9cf3ff0	-0.00039529754
101	0xaf1aa78f	-1.4065747e-10
102	0xb989f517	-0.00026313282
103	0x38a92f77	8.067389e-05
104	0x38cc89b0	9.753124e-05
105	0x374d4ed3	1.2237305e-05
106	0xb6c008b8	-5.723061e-06
107	0xb02c366b	-6.265057e-10
108	0xb8dd2767	-0.000105454405
109	0xb8bcd400	-9.004027e-05
110	0xb9a7f9f4	-0.00032038952
111	0xb9677d22	-0.00022076492
112	0xb40fb834	-1.3384926e-07
113	0x2f8a302b	2.513628e-10
114	0xb8ac10ac	-8.2047045e-05
115	0x37386e73	1.0992971e-05
116	0xb95a2ead	-0.00020807488
117	0xb312a1f7	-3.414058e-08
118	0xb9d35cd9	-0.00040314233
119	0x33861430	6.243533e-08
120	0xb96a4ccd	-0.0002234459
121	0x391f0401	0.00015164913
122	0x2da9b8d6	1.929516e-11
123	0xb43ec53d	-1.7766884e-07
124	0x35852903	9.921208e-07
125	0x35bc9895	1.4051499e-06
126	0xb6a13f26	-4.8055254e-06
127	0x39eb42f2	0.0004487257

exp_avg_sq f4 [128]
0	0x2ff71036	4.4940557e-10
1	0x36148077	2.2128495e-06
2	0x1cadc1cf	1.1498278e-21
3	0x0df6fae2	1.5221318e-30
4	0x349c0e21	2.9067544e-07
5	0x34c1a8f7	3.607199e-07
6	0x358b0f2c	1.0360723e-06
7	0x17153853	4.821559e-25
8	0x2834ece9	1.0043379e-14
9	0x35fd8f67	1.8891704e-06
10	0x1e581003	1.1438256e-20
11	0x33748e54	5.6940124e-08
12	0x32175755	8.809214e-09
13	0x347f295e	2.3763775e-07
14	0x34a034ef	2.9840837e-07
15	0x2e087f4a	3.1035875e-11
16	0x34be743e	3.5474835e-07
17	0x34072c82	1.2589047e-07
18	0x31c08549	5.603088e-09
19	0x20d3b3ba	3.5863723e-19
20	0x35283087	6.2655494e-07
21	0x30a8f18f	1.2292264e-09
22	0x30867fcb	9.786104e-10
23	0x1a64001a	4.7149377e-23
24	0x3066c7de	8.395754e-10
25	0x2c6eec00	3.395284e-12
26	0x3170f353	3.506291e-09
27	0x3220f326	9.368511e-09
28	0x350c8f23	5.2362356e-07
29	0x2a22827a	1.4433759e-13
30	0x20382eb6	1.5600862e-19
31	0x2dbd338e	2.1509707e-11
32	0x35ba3bf6	1.3875531e-06
33	0x2d44db17	1.1189958e-11
34	0x34710d91	2.244981e-07
35	0x31c369c9	5.6872733e-09
36	0x2419b0ee	3.3326452e-17
37	0x349a28c4	2.8714396e-07
38	0x2f9fd399	2.907228e-10
39	0x34fa47b9	4.6618314e-07
40	0x33ec289d	1.0996994e-07
41	0x340f1bd4	1.3328037e-07
42	0x2fab5d48	3.1171e-10
43	0x34fa033c	4.6568482e-07
44	0x30e86ca2	1.6911097e-09
45	0x23b97fb3	2.0111823e-17
46	0x33e588d5	1.0688533e-07
47	0x2e8ed3ff	6.4950705e-11
48	0x34cf6205	3.8628073e-07
49	0x27638e54	3.1579735e-15
50	0x30688829	8.4594604e-10
51	0x15e15c56	9.1022457e-26
52	0x35517af0	7.8037465e-07
53	0x300835f4	4.9553184e-10
54	0x33ca91d9	9.4328875e-08
55	0x29bf0d42	8.484404e-14
56	0x34413bd0	1.7996285e-07
57	0x2a6a4e95	2.0810639e-13
58	0x3383fc3d	6.146045e-08
59	0x3539fb6f	6.9283755e-07
60	0x35388d18	6.875066e-07
61	0x2bab701a	1.2181395e-12
62	0x33cceee6	9.5429456e-08
63	0x2f768734	2.2421603e-10
64	0x3473a2e7	2.2690402e-07
65	0x33f5b968	1.1442427e-07
66	0x34439e19	1.8218306e-07
67	0x3548e8a7	7.484436e-07
68	0x2c6d2039	3.3697613e-12
69	0x3048e232	7.308102e-10
70	0x3519766a	5.7169257e-07
71	0x3438d36b	1.7213249e-07
72	0x350eaa2f	5.314677e-07
73	0x340d8954	1.3181608e-07
74	0x35db0dc3	1.6320777e-06
75	0x3587efd1	1.012808e-06
76	0x2de7612a	2.6304809e-11
77	0x2f23fc97	1.4914502e-10
78	0x35100e24	5.366476e-07
79	0x33c045d3	8.953398e-08
80	0x318511b0	3.8728203e-09
81	0x348640a3	2.5006474e-07
82	0x34810732	2.4033358e-07
83	0x310e098a	2.0669142e-09
84	0x3528fd45	6.295343e-07
85	0x231dd6a8	8.556442e-18
86	0x31a4aa49	4.7923874e-09
87	0x34172b9e	1.4078839e-07
88	0x309a1b83	1.1212794e-09
89	0x2078f9a7	2.108902e-19
90	0x1c9f74ea	1.0551959e-21
91	0x34ea93f7	4.3693555e-07
92	0x34bdcb5e	3.5351962e-07
93	0x1dfe7004	6.734906e-21
94	0x31896cde	3.9996015e-09
95	0x32fc93ba	2.940384e-08
96	0x35b0bd92	1.3168194e-06
97	0x351b37eb	5.782337e-07
98	0x358d77c4	1.0540175e-06
99	0x34033c5a	1.2222281e-07
100	0x35dca2ed	1.6438695e-06
101	0x21167704	5.0979493e-19
102	0x35472628	7.41888e-07
103	0x34059d59	1.2443833e-07
104	0x3567389a	8.613657e-07
105	0x30759996	8.934874e-10
106	0x2f6f7aa0	2.1780489e-10
107	0x23d92059	2.3540887e-17
108	0x355cddc2	8.2279087e-07
109	0x3463548c	2.117178e-07
110	0x3544c8dc	7.330798e-07
111	0x34796fcf	2.3230608e-07
112	0x2ac3387e	3.4678158e-13
113	0x208881ca	2.3125183e-19
114	0x34bf66ea	3.5651402e-07
115	0x30daa4b9	1.5908405e-09
116	0x348f4a25	2.6689773e-07
117	0x2c4153b4	2.7473414e-12
118	0x3546e200	7.408962e-07
119	0x288e6d72	1.5812631e-14
120	0x3606ac35	2.0067794e-06
121	0x348ee97e	2.661945e-07
122	0x1e5ba818	1.16285244e-20
123	0x2b095b56	4.879893e-13
124	0x2f8121d7	2.3489008e-10
125	0x2db4ef9b	2.0570037e-11
126	0x2fbf947e	3.4848208e-10
127	0x35b05285	1.3137038e-06
