results/SnakeAgent/SnakeAgent/SnakeAgent-133229.onnx (onnx, 77659 bytes, 6 tensors)

network_body._body_endoder.seq_layers.0.weight f4 [128, 7]
-0.45641276 -0.123077564 -0.11114894 -0.07112376 -0.18511868 -0.7839095 -0.34667736 0.27029723
-0.30326563 0.50229263 0.32298762 -0.06129079 0.1027014 -0.35142353 0.13173454 -0.61828357
0.004651835 -0.10040856 0.0061542164 0.24434513 0.61103094 -0.41892952 0.17272525 0.028233785
0.17008795 -0.13683982 0.4033838 0.55859715 -0.31680712 0.47339192 0.34323627 0.12057735
-0.40820092 0.36888942 -0.46172124 -0.09886614 -0.23671512 0.42902648 0.23718558 -0.40855178
0.08371731 0.6956271 -0.094099835 0.07792468 0.39384016 -0.2934985 -0.07241408 -0.514689
-0.551899 -0.18714662 0.6711066 -0.41394487 0.26786757 -0.32472435 0.49272478 0.31603032
0.095625736 0.20474498 0.28093937 0.63034326 0.07670005 -0.19831811 0.6422614 -0.0453637
0.6558769 0.008516426 -0.107746676 -0.47235334 1.0016435 0.16859491 -0.092936434 -0.5265423
-0.436093 -0.24048415 0.08725639 0.15462168 -0.8910062 -0.060366556 -0.6125031 -0.8413249
-0.23561926 0.98254454 -0.18953016 -0.60644525 -0.31706685 0.050031595 0.23665172 0.2162886
-0.122533254 -0.6288723 0.47516575 0.35556456 0.44325566 0.29216897 -0.5379323 -0.009407478
-0.4021205 0.3967249 0.19318369 0.3704085 0.2594939 0.0010111883 -0.05112352 0.07138333
1.2783896 -0.31999114 -0.018070837 -0.21812277 1.0150381 -0.5945072 -0.35619894 -0.20509776
0.080429874 -0.5000569 -0.7555221 0.4197668 -0.597898 -0.4516764 0.13731776 -0.59423447
0.20926535 0.06629132 -0.23534991 -0.10465704 -0.29645005 -0.018875098 -0.60402167 -0.27183533
-0.037703883 0.83392066 0.054998603 0.014541084 0.37158453 0.045915373 0.3808527 -0.23720156
-0.03915333 -0.026283458 0.24704993 0.051235195 -0.28346702 0.208683 0.33270502 -0.37533027
-0.18218315 -0.04093163 -0.039516646 1.2078996 0.397582 -0.5875623 -0.44188866 -0.0868114
-0.029070152 -0.6251215 -0.02895998 -0.13358273 -0.25313905 0.46694362 0.059425075 0.2266559
-0.04538152 0.75088537 -0.56313956 -1.3290057 -0.11628256 0.040339626 0.15848543 -0.13576685
0.14501722 0.66787344 0.15713368 -0.38418704 0.066986956 0.29214597 1.0413337 -0.23099121
-0.47056174 0.16405347 0.015025121 0.5292537 -0.20260915 -0.33562374 0.19413224 0.60914224
0.45974156 0.37239105 0.25643784 -0.21886072 0.16341412 -0.011804131 0.14942543 -0.6614684
0.19377053 0.19168477 -0.05690651 0.61276346 -0.16232814 -0.55157655 -0.64691126 0.38949597
-0.21188726 -0.0041515846 0.10007117 0.025688015 -0.4191263 0.65577126 -0.37630764 -0.068935305
-1.4489198 -0.12656596 0.15886517 0.08314992 0.17777485 -0.36373198 -0.33506086 -0.48010984
-0.40010542 0.41138312 0.29804683 0.7949941 0.035072275 0.049478136 -1.1135224 -0.12412409
-0.30791977 0.15497836 0.54262114 0.3089536 -0.0017895885 0.29230133 0.333486 -0.50757974
0.17859152 -0.51562965 0.18917741 -0.23034374 -0.18322115 0.30675942 -0.24680376 -0.5586361
0.36655504 0.08646648 -0.27757725 0.042304847 -0.18200167 -0.15761611 -0.04333286 -0.11690947
0.14573388 -0.7414077 0.19520044 -0.009076773 -0.34166455 -0.09467576 0.33007923 0.38110763
00000000: efae e9be 1710 fcbd 0ea2 e3bd 55a9 91bd
00000010: c08f 3dbe 4bae 48bf b27f b1be 6664 8a3e
00000020: a245 9bbe 4096 003f a25e a53e 0d0c 7bbd
00000030: 1d55 d23d c9ed b3be 6be5 063e d547 1ebf
00000040: 6c6e 983b 01a3 cdbd 4fa9 c93b 9c35 7a3e
00000050: 866c 1c3f ee7d d6be e3de 303e 8a4a e73c
00000060: 892b 2e3e bd1f 0cbe 5288 ce3e 3900 0f3f
00000070: 8b34 a2be 6d60 f23e aabc af3e 42f1 f63d
00000080: b6ff d0be 13df bc3e ba66 ecbe 557a cabd
00000090: 7365 72be 5ca9 db3e c7e0 723e b32d d1be
000000a0: fb73 ab3d 9e14 323f 6ab7 c0bd fa96 9f3d
000000b0: 6ba5 c93e 6f45 96be d54d 94bd a9c2 03bf
000000c0: 4149 0dbf 5da3 3fbe a4cd 2b3f 95f0 d3be
000000d0: f025 893e 4542 a6be 6c46 fc3e bace a13e
000000e0: 6dd7 c33d aba8 513e 49d7 8f3e 2d5e 213f
000000f0: ea14 9d3d e713 4bbe 3e6b 243f 49cf 39bd
00000100: 8ce7 273f 7b88 0b3c 4aaa dcbd 4cd8 f1be
00000110: db35 803f 25a4 2c3e 7555 bebd 7acb 06bf
00000120: 9547 dfbe 7a41 76be 7ab3 b23d 2555 1e3e
00000130: fb18 64bf ec42 77bd 01cd 1cbf 1261 57bf
00000140: 2d46 71be 0a88 7b3f 3214 42be ff3f 1bbf
00000150: 9656 a2be eeed 4c3d d454 723e c27a 5d3e
00000160: b7f2 fabd c6fd 20bf ed48 f33e 8f0c b63e
00000170: 68f2 e23e 2c97 953e eeb5 09bf d321 1abc
00000180: bde2 cdbe 871f cb3e f2d1 453e 2fa6 bd3e
00000190: 62dc 843e d989 843a e566 51bd 6c31 923d
000001a0: 45a2 a33f e1d5 a3be 4b09 94bc 935b 5fbe
000001b0: c5ec 813f a031 18bf b55f b6be 2605 52be
000001c0: 6bb8 a43d bb03 00bf e569 41bf adeb d63e
000001d0: d80f 19bf 2142 e7be 079d 0c3e c01f 18bf
000001e0: a849 563e bec3 873d 91ff 70be 6e56 d6bd
000001f0: 4dc8 97be f39f 9abc 2aa1 1abf 002e 8bbe
00000200: 636f 1abd d37b 553f 3746 613d ba3d 6e3c
00000210: 5440 be3e c211 3c3d 20ff c23e f7e4 72be
00000220: 3e5f 20bd 6850 d7bc a8fa 7c3e ffdb 513d
00000230: 9722 91be ffb0 553e 5058 aa3e 4a2b c0be
00000240: 388e 3abe eda7 27bd 35dc 21bd 749c 9a3f
00000250: de8f cb3e 7c6a 16bf 3b3f e2be 2dca b1bd
00000260: 8724 eebc f607 20bf 7b3d edbc e9c9 08be
00000270: 719b 81be 3c13 ef3e b567 733d 7c18 683e
00000280: f9e1 39bd 063a 403f ea29 10bf dc1c aabf
00000290: 8d25 eebd 2a3b 253d 014a 223e 7706 0bbe
000002a0: 657f 143e c1f9 2a3f a7e7 203e 2ab4 c4be
000002b0: 7530 893d 2894 953e 6c4a 853f f688 6cbe
000002c0: 78ed f0be a2fd 273e ed2b 763c 2c7d 073f
000002d0: c678 4fbe e0d6 abbe 9aca 463e bff0 1b3f
000002e0: 3f63 eb3e 0aaa be3e d24b 833e 061d 60be
000002f0: 0856 273e 1d66 41bc fb02 193e fe55 29bf
00000300: c86b 463e 0349 443e cd16 69bd 11de 1c3f
00000310: 5939 26be 1f34 0dbf fa9b 25bf 046c c73e
00000320: f9f8 58be 040a 88bb 1df2 cc3d ac6f d23c
00000330: b997 d6be a0e0 273f 65ab c0be f42d 8dbd
00000340: 3476 b9bf 829a 01be 8dad 223e 814a aa3d
00000350: 9c0a 363e 143b babe 198d abbe f5d0 f5be
00000360: 9eda ccbe cfa0 d23e 9899 983e bc84 4b3f
00000370: f2a7 0f3d 96a9 4a3d e787 8ebf c534 febd
00000380: a9a7 9dbe a6b2 1e3e 38e9 0a3f 2b2f 9e3e
00000390: a090 eaba 85a8 953e adbe aa3e bff0 01bf
000003a0: b2e0 363e 4e00 04bf b9b7 413e 3bdf 6bbe
000003b0: 539e 3bbe 920f 9d3e 20ba 7cbe c702 0fbf
000003c0: 1aad bb3e 5615 b13d 9b1e 8ebe d947 2d3d
000003d0: a55e 3abe 1e66 21be cc7d 31bd 3b6e efbd
000003e0: 433b 153e e5cc 3dbf a0e2 473e bfb6 14bc
000003f0: a8ee aebe 5de5 c1bd 2500 a93e 8a20 c33e

network_body._body_endoder.seq_layers.0.bias f4 [128]
0.030388834 0.081278905 0.10027706 0.011005132 0.020582143 0.096044876 -0.022552885 0.10714446
0.11366695 -0.06920209 0.06619889 0.024501512 0.08132514 0.07857496 0.007754146 -0.026184011
0.036932174 0.010717581 0.12742029 0.047495667 -0.051089678 0.024285669 -0.031159747 -0.0314909
0.058712143 -0.02057867 0.091772735 0.059217937 0.038689367 0.008690235 0.022521859 0.17749274
0.045537975 -0.022802541 0.026615778 0.018444171 -0.03302039 0.068591416 -0.019832594 -0.0052778195
0.024795467 0.076281674 -0.11247521 0.03966193 -0.007470656 0.03795173 -0.023038361 0.13595769
0.004051653 0.10302375 0.102656424 -0.05835889 0.18573374 0.0096348515 0.025643073 0.06699772
0.11940546 0.13207638 0.037528854 0.13992976 0.031106012 0.0763572 0.010467017 0.00959488
0.062298343 -0.09113602 0.09134191 0.02725675 0.11944489 0.079519 0.05119249 0.03184912
0.026896363 -0.0042925924 -0.010604803 0.0031603195 0.23032464 -0.040097725 0.028315853 0.093276635
0.018874539 0.060167823 -0.047482982 0.036854498 0.07127706 0.09499672 0.06678439 -0.10395753
0.13920906 0.019305354 0.077011876 0.14288203 0.03868945 0.047823764 0.01051966 0.051890403
0.035239834 0.09787732 0.094648875 0.041786846 0.05146375 -0.04532055 0.061729744 0.050949007
0.028164221 0.04362037 -0.07458096 0.05685477 0.026916148 0.15740684 0.057458326 0.16808961
0.01168414 0.06959918 -0.011877135 0.122351885 0.055036526 0.1333756 0.05629709 -0.022687089
0.036713656 -0.034638386 -0.061295148 -0.019769818 0.033490233 -0.019292003 -0.0082787685 0.10465252
00000000: 01f2 f83c 8e75 a63d 0f5e cd3d df4e 343c
00000010: e29b a83c 2db3 c43d d4c0 b8bc 8e6e db3d
00000020: 38ca e83d d3b9 8dbd 4993 873d 65b7 c83c
00000030: cc8d a63d e9eb a03d 7e16 fe3b da7f d6bc
00000040: 3146 173d cb98 2f3c 777a 023e d18a 423d
00000050: 6943 51bd bdf2 c63c ba42 ffbc 9afc 00bd
00000060: 257c 703d 9994 a8bc 58f3 bb3d 828e 723d
00000070: be78 1e3d 7d61 0e3c c37f b83c a8c0 353e
00000080: 0786 3a3d 65cc babc 5509 da3c 3b18 973c
00000090: 6340 07bd a879 8c3d f777 a2bc 8ff1 acbb
000000a0: dd1f cb3c 9139 9c3d 6759 e6bd 8c74 223d
000000b0: 68cc f4bb 4673 1b3d f2ba bcbc 7e38 0b3e
000000c0: bbc3 843b 1efe d23d 883d d23d bb09 6fbd
000000d0: fc30 3e3e 7fdb 1d3c 6c11 d23c 1a36 893d
000000e0: da8a f43d 083f 073e dbb7 193d bf49 0f3e
000000f0: 09d2 fe3c 2a61 9c3d da7d 2b3c d833 1d3c
00000100: 8c2c 7f3d 86a5 babd 7811 bb3d 8c49 df3c
00000110: 869f f43d dcda a23d 37af 513d 3974 023d
00000120: c355 dc3c e0a8 8cbb c5bf 2dbc 5d1d 4f3b
00000130: 39da 6b3e 833d 24bd a6f6 e73c d207 bf3d
00000140: c79e 9a3c 8972 763d 847d 42bd bef4 163d
00000150: b5f9 913d a48d c23d 41c6 883d afe7 d4bd
00000160: d28c 0e3e 4326 9e3c 67b8 9d3d ab4f 123e
00000170: d478 1e3d dae2 433d a75a 2c3c 088b 543d
00000180: a557 103d e873 c83d 45d7 c13d af28 2b3d
00000190: a7cb 523d 0ba2 39bd 54d8 7c3d e8af 503d
000001a0: a7b8 e63c 46ab 323d e7bd 98bd 8ce0 683d
000001b0: 417f dc3c 422f 213e 6c59 6b3d af1f 2c3e
000001c0: d66e 3f3c 048a 8e3d 5198 42bc a093 fa3d
000001d0: fb6d 613d 9d93 083e c797 663d 46da b9bc
000001e0: 0f61 163d fbe0 0dbd 9f10 7bbd 50f4 a1bc
000001f0: 0e2d 093d 430a 9ebc aca3 07bc 0f54 d63d

network_body._body_endoder.seq_layers.2.weight f4 [128, 128]
0.04340644 0.12496791 -0.06408816 -0.0228857 -0.121374935 0.04849863 0.044601403 -0.04789229
0.06883519 -0.028337397 -0.26047465 -0.027779782 0.34791848 0.15550256 -0.066275865 0.052810114
-0.03318379 -0.005059212 0.19694284 -0.15837578 0.01933096 0.0670547 -0.047271743 0.069295645
0.127909 0.0089349095 0.049519856 -0.107013516 -0.13384122 0.012536429 0.061516516 0.07226811
0.08824562 -0.093968414 -0.02543864 -0.025857532 0.037305895 0.17985053 -0.009220784 0.014818094
-0.0031956264 0.17205042 -0.02032954 0.12353904 0.14439888 -0.007295019 0.019829525 0.10687649
0.2190276 0.10867915 -0.022465117 -0.10357305 0.15381905 -0.05500054 0.10056602 0.13944149
0.11269541 0.12720068 0.017534172 0.19429862 0.03135069 -0.12228523 0.074858144 0.002746642
-0.0063815084 0.06372543 -0.096558146 -0.0306683 0.033234864 -0.01935617 0.04211686 -0.16433908
0.04798422 -0.031702127 -0.15694828 -9.53758e-05 0.13728185 -0.13296664 -0.030175883 -0.038386296
-0.2137908 -0.10105794 -0.10190941 -0.015330784 -0.16746332 0.07172025 -0.116164744 -0.062782556
0.07776298 -0.024593469 0.08629276 -0.030428417 0.21390694 0.031287663 -0.033595987 0.158534
-0.08759342 0.00696843 0.25220436 -0.124365 -0.100841105 -0.09379829 -0.028697254 0.06949216
-0.060572088 -0.25695905 0.03401989 -0.13201183 -0.22472523 0.058430474 0.27337793 -0.26292583
-0.0967463 -0.02102953 -0.02231708 -0.116765276 0.23870704 0.148018 -0.096792586 -0.06680776
-0.118857086 0.0955251 -0.14384317 0.014879958 -0.16645797 -0.26602387 0.071444176 0.16351411
-0.022503387 0.21497212 0.018347302 -0.1080055 0.02100179 0.087397985 -0.082073785 -0.23948595
0.085114345 0.071103096 -0.23666702 -0.0115189245 -0.14823909 0.12529439 0.06835805 0.05606841
-0.08591223 -0.13463396 -0.09868009 -0.24525517 -0.00011241956 0.028466236 -0.20109798 -0.03424692
-0.048549153 -0.16143547 0.1333441 -0.12841898 -0.03796975 -0.0135563845 -0.11807954 0.12551464
-0.050940037 0.0067442334 0.018593445 -0.115658075 -0.031582918 0.10652497 0.07835951 0.13280515
-0.04777063 0.09875375 0.05288385 -0.049504474 0.0345329 -0.0033258882 0.018860001 -0.11181917
0.147545 0.26429513 -0.0012888426 -0.07944052 -0.011024232 0.04207666 -0.031503607 -0.016169688
0.22491683 0.0047881487 -0.19986665 0.05409291 -0.17698787 -0.023665635 -0.09432398 -0.029805642
0.20233731 0.026301293 0.094740026 0.29587466 -0.016892564 0.09607652 -0.0848627 -0.008185341
-0.011732488 -0.009526688 0.045389667 -0.062102396 0.11202415 -0.031799648 -0.11647727 0.043022815
-0.23071465 0.02164538 0.07016567 -0.0078639705 -0.17986555 0.024059717 -0.10214138 -0.037224457
0.09479261 -0.13178903 -0.1805042 0.124846995 0.16705188 -0.002267675 -0.16462214 0.20325424
-0.105621085 0.0040141824 -0.2361862 0.059576806 0.16714767 0.05310434 -0.029267693 -0.00312767
-0.107347235 -0.1688889 -0.10989787 -0.029745093 -0.09235876 0.04871111 0.08045729 -0.19152136
0.0033989253 0.041270766 -0.09993469 -0.03790477 0.06667009 0.06272179 0.07097077 0.083492056
-0.051880084 0.23280852 0.13206568 0.017381197 0.01368954 0.07438997 -0.013112324 0.2130865
00000000: f4ca 313d 2def ff3d a740 83bd cb7a bbbc
00000010: 6c93 f8bd 80a6 463d f6af 363d b52a 44bd
00000020: 77f9 8c3d d423 e8bc ef5c 85be 6d92 e3bc
00000030: 5f22 b23e 103c 1f3e a4bb 87bd 6b4f 583d
00000040: baeb 07bd bfc7 a5bb 62ab 493e 432d 22be
00000050: f65b 9e3c f953 893d 04a0 41bd e0ea 8d3d
00000060: 94fa 023e ba63 123c 55d5 4a3d e729 dbbd
00000070: ac0d 09be 9865 4d3c bef8 7b3d 4e01 943d
00000080: 1fba b43d 8372 c0bd b264 d0bc 2dd3 d3bc
00000090: 11ce 183d bd2a 383e c512 17bc 97c7 723c
000000a0: b76d 51bb fc2d 303e 238a a6bc 0902 fd3d
000000b0: 4ddd 133e 0e0b efbb 8771 a23c 10e2 da3d
000000c0: c548 603e 2d93 de3d c408 b8bc 1b1e d4bd
000000d0: be82 1d3e 3f48 61bd 8ff5 cd3d c0c9 0e3e
000000e0: dacc e63d e540 023e d3a3 8f3c 38f6 463e
000000f0: 9569 003d ae70 fabd 3a4f 993d 0201 343b
00000100: f91b d1bb 7a82 823d 47c0 c5bd 163c fbbc
00000110: 4821 083d d590 9ebc bb82 2c3d 8148 28be
00000120: 1a8b 443d 17da 01bd 0db7 20be 7e04 c8b8
00000130: 9d93 0c3e 6828 08be 6a33 f7bc f33a 1dbd
00000140: faeb 5abe 77f7 cebd e1b5 d0bd f82d 7bbc
00000150: 817b 2bbe 11e2 923d c8e7 edbd 2494 80bd
00000160: 3242 9f3d 3e78 c9bc 42ba b03d 0445 f9bc
00000170: 6c0a 5b3e 7e27 003d f29b 09bd bd56 223e
00000180: 2e64 b3bd 6d57 e43b ee20 813e 14b3 febd
00000190: c885 cebd 5119 c0bd 8116 ebbc e851 8e3d
000001a0: 701a 78bd 2390 83be 7158 0b3d 1c2e 07be
000001b0: 5f1e 66be cb54 6f3d 31f8 8b3e 379e 86be
000001c0: ed22 c6bd 1f46 acbc 4fd2 b6bc a222 efbd
000001d0: 9e6f 743e 0892 173e 313b c6bd 82d2 88bd
000001e0: 586b f3bd aaa2 c33d a04b 13be 11cb 733c
000001f0: f573 2abe 4834 88be 5351 923d 3e70 273e
00000200: 0659 b8bc a721 5c3e 154d 963c fd31 ddbd
00000210: f20b ac3c b7fd b23d 4d16 a8bd ce3b 75be
00000220: 6e50 ae3d 809e 913d d758 72be dfb9 3cbc
00000230: fdcb 17be 2c4d 003e 4eff 8b3d fda7 653d
00000240: c0f2 afbd 7cdd 09be c918 cabd 2c24 7bbe
00000250: cbc2 ebb8 0632 e93c a1ec 4dbe 8046 0cbd
00000260: 7adb 46bd 574f 25be 5b8b 083e 4480 03be
00000270: 2b86 1bbd 991b 5ebc b0d3 f1bd e986 003e
00000280: 80a6 50bd bbfe dc3b 4851 983c 24de ecbd
00000290: 175d 01bd c329 da3d f37a a03d 13fe 073e
000002a0: 23ab 43bd 683f ca3d bc9c 583d 34c5 4abd
000002b0: 5f72 0d3d 25f7 59bb 4a80 9a3c 7301 e5bd
000002c0: 0916 173e b151 873e 62ee a8ba b6b1 a2bd
000002d0: fb9e 34bc 9358 2c3d ed09 01bd 4b76 84bc
000002e0: 9950 663e e7e5 9c3b d8a9 4cbe 8790 5d3d
000002f0: 4f3c 35be 6fde c1bc ee2c c1bd f62a f4bc
00000300: 8331 4f3e cf75 d73c 0f07 c23d e27c 973e
00000310: 4662 8abc c4c3 c43d 7fcc adbd cf1b 06bc
00000320: 9f39 40bc d315 1cbc 84ea 393d 155f 7ebd
00000330: eb6c e53d 5940 02bd a38b eebd b138 303d
00000340: 7640 6cbe a751 b13c 05b3 8f3d e2d7 00bc
00000350: ad2e 38be e218 c53c 802f d1bd ac78 18bd
00000360: a122 c23d b4f3 06be 18d6 38be c8af ff3d
00000370: a60f 2b3e 469d 14bb b592 28be e121 503e
00000380: de4f d8bd 6789 833b ccda 71be cf06 743d
00000390: c228 2b3e f083 593d cdc2 efbc 98f9 4cbb
000003a0: ded8 dbbd 36f1 2cbe 2212 e1bd fbab f3bc
000003b0: 9726 bdbd 4d85 473d cbc6 a43d 2d1e 44be
000003c0: 81c0 5e3b 890b 293d 8faa ccbd 0842 1bbd
000003d0: 548a 883d 4874 803d 2059 913d e2fd aa3d
000003e0: 3680 54bd 5b65 6e3e 3a3c 073e 0363 8e3c
000003f0: 184a 603c c559 983d 13d5 56bc 5933 5a3e

network_body._body_endoder.seq_layers.2.bias f4 [128]
0.09250921 0.07591628 0.06041469 -0.01639131 0.096241534 0.12874034 0.049872316 0.031866092
0.018750332 0.08353262 0.11037884 0.015482668 0.021077938 0.07390375 0.020734878 0.051336825
-0.025567131 0.016750673 0.086483456 0.051146675 -0.013325396 0.071850486 0.047563806 0.011921027
0.00074202905 0.03259488 -0.0063508702 0.01286365 0.053080373 0.08213327 0.07507087 0.09860831
0.050693512 -0.09617743 -0.0026066697 0.037017576 -0.045278702 0.10351861 -0.015283069 0.06388705
0.030705266 -0.009549309 0.11577879 0.061848614 0.043531574 -0.039835047 0.035540663 0.043504067
0.089865655 0.017007874 0.04912821 0.015592997 0.058300614 0.0675131 0.012359925 0.06632439
0.032178346 0.0021053106 0.050019126 0.052507464 -0.006360833 0.03689607 -0.042798366 0.019746006
0.059218798 0.10521371 -0.025918264 -0.08167011 0.013973427 0.099177964 -0.02567355 0.086488925
0.14406657 0.034176663 0.047491614 0.10171916 0.023951834 0.047347534 -0.08801832 0.10268744
0.013964745 0.046586096 0.045348324 0.00880008 0.015614676 0.08426109 -0.04280952 0.044648144
0.052170105 -0.039094757 0.00619628 0.080413006 0.11371811 0.050062276 -0.025610605 -0.0014831603
0.006872448 -0.009287784 0.08494614 0.07064683 0.02932592 0.059968386 0.08430644 -0.03565423
0.1122149 0.047193877 0.09764678 0.058987632 0.13933386 0.05218019 -0.007956358 0.049317528
-0.021902068 0.04058207 0.01637453 0.028777862 0.020862665 0.07514036 0.019576276 0.0028555149
0.048472032 0.064622834 0.06016565 0.109531745 -0.006344083 0.070481494 0.09200806 0.03084675
00000000: 7875 bd3d ff79 9b3d 6575 773d 1247 86bc
00000010: 481a c53d 82d4 033e ea46 4c3d 0586 023d
00000020: 4c9a 993c 2613 ab3d 4d0e e23d 04ab 7d3c
00000030: a4ab ac3c d95a 973d 31dc a93c 9046 523d
00000040: 2972 d1bc b538 893c 3d1e b13d 2d7f 513d
00000050: c352 5abc 5926 933d 44d2 423d 6950 433c
00000060: ba84 423a 3582 053d f61a d0bb 0fc2 523c
00000070: ce6a 593d 7d35 a83d c2be 993d 27f3 c93d
00000080: 00a4 4f3d acf8 c4bd a9d4 2abb be9f 173d
00000090: 2976 39bd 9101 d43d d665 7abc 37d7 823d
000000a0: 9c89 fb3c b474 1cbc 6e1d ed3d f954 7d3d
000000b0: 2a4e 323d 132a 23bd 1693 113d 5231 323d
000000c0: 7c0b b83d 1954 8b3c a93a 493d c579 7f3c
000000d0: a0cc 6e3d 4f44 8a3d 4881 4a3c 15d5 873d
000000e0: 71cd 033d 40f9 093b dbe0 4c3d 1112 573d
000000f0: 896e d0bb 5520 173d 574d 2fbd 60c2 a13c
00000100: 698f 723d 497a d73d 8a52 d4bc a942 a7bd
00000110: cdf0 643c d11d cb3d 5651 d2bc 1b21 b13d
00000120: 3086 133e d4fc 0b3d 9186 423d 2352 d03d
00000130: a336 c43c 7def 413d f342 b4bd cb4d d23d
00000140: 63cc 643c 10d1 3e3d 2abf 393d 362e 103c
00000150: b3d4 7f3c 1491 ac3d 0959 2fbd f9e0 363d
00000160: 52b0 553d d321 20bd 2a0a cb3b 93af a43d
00000170: 0ae5 e83d 1a0e 4d3d 55cd d1bc 9a66 c2ba
00000180: 4632 e13b ca2b 18bc 3ef8 ad3d 49af 903d
00000190: e93c f03c 69a1 753d dba8 ac3d 2b0a 12bd
000001a0: edd0 e53d 5e4e 413d 09fb c73d 049d 713d
000001b0: 89ad 0e3e e5ba 553d 625b 02bc 2d01 4a3d
000001c0: f76b b3bc 6239 263d e123 863c 8dbf eb3c
000001d0: 2ee8 aa3c 30e3 993d 6d5e a03c 9723 3b3b
000001e0: 9c8a 463d fa58 843d 4270 763d 2e52 e03d
000001f0: 07e2 cfbb 9a58 903d b96e bc3d 53b2 fc3c

action_model._discrete_distribution.branches.0.weight f4 [5, 128]
-0.08210459 -0.08317773 -0.13526146 -0.00020954975 -0.08725096 -0.106752746 -0.09274092 -0.12921308
-0.11031602 -0.0852805 -0.062144946 0.006987519 -0.08223039 -0.10251623 -0.105979435 -0.119986735
-0.029811187 -0.0022647418 -0.11501801 -0.03324528 0.1237029 -0.12232604 -0.07831752 0.08851732
-0.050058775 -0.022775058 0.11535979 -0.08667414 -0.04046212 -0.10125703 -0.1160097 -0.1050619
-0.11125491 -0.046400208 -0.079019666 -0.08174312 -0.085294455 -0.072028495 -0.037030324 -0.1204709
-0.08921714 -0.009694873 -0.0456683 -0.1128507 -0.094638415 0.10555561 -0.090053245 -0.051566876
-0.12674937 -0.028313177 -0.1327316 -0.029330024 -0.10244839 0.016825674 -0.07239225 -0.016499296
-0.09626663 -0.09834033 -0.019728906 -0.07668682 -0.08709479 -0.083074264 -0.02579107 -0.025740555
-0.003297809 -0.06744011 -0.050830096 -0.059183612 -0.10788604 -0.11045485 0.048056845 -0.088591315
-0.0541175 -0.09284172 0.11072375 -0.1031396 -0.07733552 -0.09073305 -0.06876359 -0.110514216
-0.08803051 -0.11385311 -0.11342592 0.0591059 -0.04623163 -0.06340443 -0.0737837 -0.0941704
-0.058599018 -0.009282046 -0.082225725 -0.102107346 -0.101351924 -0.017260052 -0.03705778 -0.0747038
-0.09283813 0.11616509 -0.08911034 -0.10552635 -0.07308305 -0.091029055 -0.09017744 0.0562455
-0.07637547 -0.110675916 -0.07043857 -0.053427294 -0.06536023 -0.10949156 0.014723833 -0.11427935
-0.1305123 -0.08865424 -0.037439924 -0.10943579 -0.02900995 -0.113378815 -0.066428624 -0.079691544
-0.1102783 -0.097338855 -0.12593527 -0.13849539 -0.08047475 -0.030200731 -0.107996844 -0.017113324
0.09441627 0.06734486 -0.11431361 0.06354263 0.087733306 0.11005743 0.017043773 -0.18293333
-0.14664617 0.024250386 0.11230758 -0.028151214 -0.21173865 -0.10249131 -0.16491188 -0.11029407
0.109530956 0.023251086 0.10247836 -0.04033727 0.23454215 -0.11891227 -0.04376646 -0.04998197
0.036797367 -0.092394434 0.12805197 0.05671813 0.06235596 -0.16343322 0.045526635 0.0464438
0.06427311 0.029343536 0.014466836 -0.122214064 0.033358563 0.10175318 0.043417092 -0.03168966
-0.018884435 0.0908126 -0.08859878 0.054646574 0.07303028 0.057565566 0.08031778 0.04997701
0.081885085 -0.0053646197 -0.0022423195 0.07287564 0.08611563 0.02021023 0.015615176 0.043134995
-0.1289155 0.066440955 -0.07541395 -0.015774375 -0.012920557 0.011042678 -0.008270783 0.076550715
-0.009628349 0.07833329 0.07489705 0.057205573 0.06362134 0.08817189 -0.043700933 0.07501617
-0.09844271 -0.18007673 -0.0036688575 0.06345255 -0.09895151 0.062129475 0.047508806 0.081144
-0.06501666 -0.15359926 -0.1527521 0.03426406 0.059285942 0.009977454 -0.044695314 -0.24689831
-0.013161777 0.030534694 -0.059573226 0.08799304 0.10125607 -0.035910048 0.09519465 -0.1600686
-0.007481816 0.10322203 0.08527952 0.07073917 -0.10025217 -0.19690588 0.071258895 0.012907252
0.103412606 -0.21212003 0.040202066 -0.06275043 0.04821824 -0.21901336 -0.038283065 -0.14845793
0.024659725 -0.136173 0.022909617 -0.17873193 0.00879196 -0.1279907 0.013193411 -0.07549767
-0.10913164 -0.14381342 -0.08304607 0.029869627 0.10177654 -0.040719524 0.061996605 -0.0741405
00000000: 7426 a8bd 1659 aabd fb81 0abe 95ba 5bb9
00000010: a2b0 b2bd 2fa1 dabd f4ee bdbd 6f50 04be
00000020: 5eed e1bd 8ba7 aebd b38b 7ebd 8ff7 e43b
00000030: 6868 a8bd 07f4 d1bd bf0b d9bd 9bbb f5bd
00000040: 9736 f4bc 106c 14bb 908e ebbd 342c 08bd
00000050: f257 fd3d 1386 fabd f064 a0bd 9248 b53d
00000060: 6e0a 4dbd c292 babc c141 ec3d 3682 b1bd
00000070: 9cbb 25bd d95f cfbd 7e96 edbd b22a d7bd
00000080: 9dd9 e3bd 250e 3ebd 10d5 a1bd f068 a7bd
00000090: dcae aebd ad83 93bd 1cad 17bd 72b9 f6bd
000000a0: 7ab7 b6bd 3fd7 1ebc af0e 3bbd 451e e7bd
000000b0: c9d1 c1bd 8a2d d83d d66d b8bd ca37 53bd
000000c0: 96ca 01be 09f1 e7bc cbea 07be 8545 f0bc
000000d0: 76d0 d1bd ffd5 893c 6342 94bd 8829 87bc
000000e0: 7027 c5bd a866 c9bd 849e a1bc fb0d 9dbd
000000f0: c15e b2bd d722 aabd cb47 d3bc dbdd d2bc
00000100: 0e20 58bb 0a1e 8abd 3833 50bd 846a 72bd
00000110: 5bf3 dcbd 2736 e2bd 41d7 443d 5d6f b5bd
00000120: 50aa 5dbd cd23 bebd 22c3 e23d db3a d3bd
00000130: 1662 9ebd 40d2 b9bd edd3 8cbd 4755 e2bd
00000140: 5749 b4bd d22b e9bd d94b e8bd 0719 723d
00000150: 615d 3dbd 2fda 81bd e91b 97bd 69dc c0bd
00000160: 8605 70bd b913 18bc f665 a8bd a81d d1bd
00000170: 9991 cfbd f464 8dbc e6c9 17bd 4efe 98bd
00000180: eb21 bebd f6e7 ed3d 7b7f b6bd 331e d8bd
00000190: 91ac 95bd 716d babd f3ae b8bd ae61 663d
000001a0: be6a 9cbd 0eaa e2bd 1942 90bd 94d6 5abd
000001b0: 96db 85bd 1c3d e0bd 3b3c 713c 4b0b eabd
000001c0: 04a5 05be 5b90 b5bd 9b5a 19bd df1f e0bd
000001d0: 46a6 edbc 2733 e8bd bb0b 88bd 5235 a3bd
000001e0: 97d9 e1bd 9859 c7bd 2df5 00be bcd1 0dbe
000001f0: f2cf a4bd 8667 f7bc 732d ddbd 3e31 8cbc
00000200: 515d c13d 1aec 893d 411d eabd a322 823d
00000210: 85ad b33d ca65 e13d 629f 8b3c e052 3bbe
00000220: 6a2a 16be bfa8 c63c 8401 e63d 609d e6bc
00000230: 04d2 58be f7e6 d1bd a9de 28be dbe1 e1bd
00000240: c451 e03d 1079 be3c 2de0 d13d b138 25bd
00000250: d12b 703e 4788 f3bd 7644 33bd e5b9 4cbd
00000260: d6b8 163d 4b39 bdbd 0e20 033e 4551 683d
00000270: f768 7f3d 0a5b 27be 237a 3a3d db3b 3e3d
00000280: 9fa1 833d db61 f03c 4f06 6d3c 5e4b fabd
00000290: fda2 083d f963 d03d 1fd6 313d 04cd 01bd
000002a0: 88b3 9abc f5fb b93d 4773 b5bd 16d5 5f3d
000002b0: e690 953d dfc9 6b3d a67d a43d b1b4 4c3d
000002c0: 5eb3 a73d b1c9 afbb e1f3 12bb d33f 953d
000002d0: 645d b03d ed8f a53c ccd6 7f3c 52ae 303d
000002e0: 6d02 04be 3212 883d a172 9abd 4339 81bc
000002f0: beb0 53bc 59ec 343c 2e82 07bc 9fc6 9c3d
00000300: 39c0 1dbc 346d a03d a063 993d 6450 6a3d
00000310: e84b 823d 7793 b43d c0ff 32bd 14a2 993d
00000320: 559c c9bd 0966 38be 3771 70bb 69f3 813d
00000330: 17a7 cabd 7a7b 7e3d 9898 423d d32e a63d
00000340: 7427 85bd 2049 1dbe 0c6b 1cbe 7958 0c3d
00000350: d1d5 723d 7a78 233c 6f12 37bd e9d2 7cbe
00000360: 7ea4 57bc e523 fa3c 0e03 74bd b235 b43d
00000370: 585f cf3d 6a16 13bd 6af5 c23d 06e9 23be
00000380: 062a f5bb 1266 d33d 07a7 ae3d b3df 903d
00000390: 0251 cdbd b2a1 49be 2ff0 913d f078 533c
000003a0: fdc9 d33d fe35 59be ecaa 243d 4c83 80bd
000003b0: 7d80 453d 0a45 60be b4ce 1cbd 5b05 18be
000003c0: 3103 ca3c ef70 0bbe f3ac bb3c 8105 37be
000003d0: 270c 103c fe0f 03be 2d29 583c 869e 9abd
000003e0: 6980 dfbd d343 13be 0f14 aabd 26b1 f43c
000003f0: 3870 d03d 84c9 26bd 27f0 7d3d f9d6 97bd

action_model._discrete_distribution.branches.0.bias f4 [5]
-0.11468488 -0.065532416 -0.093055345 0.08486215 0.088232696
00000000: e8df eabd dc35 86bd cd93 bebd 35cc ad3d
00000010: 58b3 b43d
