results/SnakeAgent/SnakeAgent/SnakeAgent-30357.onnx (onnx, 501069 bytes, 18 tensors)

network_body.observation_encoder.processors.0.self_ent_encoder.seq_layers.0.bias f4 [128]
000000 2e 61 dc bb d9 8c ec bc 13 3a 28 3c 62 b7 bc bc
       -0.006725452 -0.028875755 0.010267752 -0.023036662
000010 ea 68 a9 3c 52 3e d3 bb d3 d3 8e 3a f7 f6 ea bb
       0.02067991 -0.006446638 0.0010896869 -0.007170554
000020 a7 4b 5a 3c 2e 33 c2 3c cf f7 25 bc 0b 46 ab bc
       0.013323701 0.023706045 -0.010129883 -0.020907423
000030 62 b0 88 3c 3f ed a2 3b 5a fb 45 3c 6b 37 e6 3c
       0.016685668 0.0049721296 0.012083853 0.028102597
000040 80 4f 99 ba 68 b6 a0 bb 77 16 56 3c db 81 93 3b
       -0.0011696666 -0.004904557 0.0130668795 0.004501564
000050 f6 60 31 bc 40 89 33 bc 37 5e 86 3c a7 b8 87 3c
       -0.01082634 -0.010958016 0.016402347 0.016567541
000060 ac 79 26 3c c5 6b 4a bb 11 43 2a 3c 08 67 9d bb
       0.010160845 -0.003088699 0.010391966 -0.004803542
000070 51 be f7 3c 54 2b a4 ba 66 16 38 bc 27 ef d7 3c
       0.030242117 -0.001252512 -0.011235809 0.026359154
000080 b4 41 88 3a ba dc 11 3c f0 87 f6 bc 9d 45 70 bc
       0.0010395558 0.008902723 -0.030094117 -0.014665035
000090 dc 94 81 3c cd f6 c5 b9 f6 d6 3e bc 0e 8e d4 3c
       0.015818052 -0.0003775865 -0.01164793 0.025946643
0000a0 1e 28 ae 3c 73 35 81 bc de ef 91 3c b0 b3 43 3c
       0.021259364 -0.015772557 0.017814573 0.011944696
0000b0 e9 0d a3 3c 1e e9 cc 3c 01 1d 73 bb 9d 97 f8 3c
       0.019904094 0.025013503 -0.0037096145 0.030345732
0000c0 ea e0 2c bc 61 7a b5 bc 3b 54 1d bc 12 d2 3f 3a
       -0.010551671 -0.022153081 -0.009602602 0.00073173747
0000d0 19 7b 43 bc c5 8c b8 bc a0 f7 dc ba 6f 12 5a bc
       -0.011931204 -0.022528062 -0.0016858466 -0.013310059
0000e0 fe d3 8e bb 87 25 75 3c 0e b8 9c 3c 93 dc ee 3c
       -0.0043587675 0.0149625605 0.019130733 0.029157912
0000f0 35 51 81 bc 1c 71 c2 bc 6d 4d 35 3c a7 58 47 bc
       -0.015785793 -0.023735575 0.011065823 -0.012167132
000100 21 95 90 3c f5 96 94 bc f1 e2 98 bc 19 4a 22 bc
       0.017649235 -0.018138388 -0.018662902 -0.009905362
000110 87 5f 21 bc e5 0a 8e bc 4d 47 64 3d 8d 56 77 bc
       -0.009849436 -0.01733918 0.05573206 -0.015096319
000120 30 d8 28 bd 07 de 95 bc c5 93 26 3c e0 f0 29 bb
       -0.041221797 -0.018294347 0.010167067 -0.0025930926
000130 19 5f e8 3b ed 38 c3 bb 87 ad d3 3b 83 89 6b 3c
       0.0070914146 -0.005957714 0.006459895 0.014376047
000140 8e 82 b8 bb 96 a4 88 bc 30 57 c5 bc c2 58 1b 3c
       -0.0056307977 -0.016680043 -0.024089426 0.009481611
000150 cd 46 a9 3c 07 c2 aa bc 70 9a 44 bc 75 d0 43 3c
       0.020663643 -0.020844473 -0.011999711 0.0119515555
000160 aa 15 67 3c 33 b3 21 bd a7 dc 3e 3c 5d 1a 98 bc
       0.014104286 -0.03947754 0.011649287 -0.018567258
000170 3c ad 11 3d 88 a9 69 bc eb b4 b7 3c 96 57 88 bc
       0.0355656 -0.014261611 0.022425136 -0.016643327
000180 a6 d2 15 3c 80 e2 ba bc 38 4a af bc 4d 34 88 3a
       0.009144461 -0.022813082 -0.021397695 0.0010391563
000190 81 e0 70 bc e9 ed f8 3b ab 31 16 3c d3 83 cf bb
       -0.014701963 0.0075967205 0.009167115 -0.0063328533
0001a0 57 e8 3e bd 09 e7 00 bb c6 29 4d 3c eb c5 d6 bb
       -0.046608295 -0.0019668958 0.012522167 -0.0065543554
0001b0 00 67 fb 3c 22 28 cc 3c c9 46 02 bc ff ab 83 bc
       0.030688763 0.02492148 -0.007951447 -0.016073225
0001c0 9e 1c 9e bc 1e 38 16 bc 10 24 15 bc 2a 90 81 bb
       -0.019300755 -0.009168653 -0.009102836 -0.0039539533
0001d0 b5 f8 b1 bc 42 58 3f bb 96 44 98 3c 61 a7 a8 bc
       -0.021725038 -0.0029196893 0.018587392 -0.020587625
0001e0 b0 e2 19 bb 90 08 4f 3c 46 3c 78 bc 8c c1 ed bb
       -0.0023481064 0.012636319 -0.015151089 -0.0072557386
0001f0 22 1e aa 3c b3 9b 67 3c 8a 5a 21 3b a5 50 ca 3b
       0.020766322 0.014136243 0.0024620616 0.0061741644

network_body.observation_encoder.rsa.fc_q.bias f4 [128]
000000 ad f4 14 bd 30 6b 9a bc 84 7a e6 3b bc 9a 94 3c
       -0.036366154 -0.01884994 0.007033648 0.01814019
000010 ba a0 8e bb a5 3d a9 bb f6 00 80 bc e1 01 6d 3c
       -0.004352656 -0.0051648193 -0.015625458 0.01446578
000020 1c 06 bd bc 26 62 e6 3b 5e 7b 03 bd ac ac b2 ba
       -0.023074202 0.007030743 -0.032100074 -0.0013631782
000030 a3 52 a3 bc 02 0e 5e 3c f9 fd 47 bb 2e de 82 3c
       -0.019936865 0.013553144 -0.003051637 0.015975084
000040 42 b0 49 bc 66 4b 47 bc 94 64 89 3c 24 7c 62 3c
       -0.01231009 -0.0121639725 0.016771592 0.013823543
000050 58 af 4e bc 1f fd 00 3d 03 a1 c3 bb 0d 69 03 bd
       -0.012615047 0.031491395 -0.005970122 -0.032082606
000060 cf 4a 1b bb 50 ca a4 3c ae 06 c2 3b d2 97 04 bd
       -0.0023695712 0.020116001 0.0059212064 -0.03237135
000070 b8 39 8b bc 11 44 48 3c 29 3f 08 3c c0 1b 0a bc
       -0.016995296 0.01222326 0.00831584 -0.008429468
000080 b7 3d 85 3c 8d 64 a8 bb eb c7 d1 bb 4c 53 b2 3c
       0.01626478 -0.0051389397 -0.006402006 0.021768235
000090 25 bd 8f 3c 76 b5 80 bc 17 35 d3 bc a0 b3 f6 3c
       0.017546246 -0.015711527 -0.025782151 0.030114949
0000a0 22 a3 66 bc 18 bb 96 3c cc 6d 11 3c 4f 82 92 3c
       -0.01407698 0.01839976 0.008876275 0.017884402
0000b0 e9 bc 7d bc 05 fb 3a bb 4f 69 25 bc aa 80 31 bd
       -0.015486934 -0.0028530967 -0.010095908 -0.043335594
0000c0 0f b8 d3 3c 66 68 09 bd 09 81 2b 3c e1 fa 35 3a
       0.025844602 -0.033546828 0.010467776 0.0006941986
0000d0 16 13 49 bc 71 45 27 bc b7 98 fd 3c c7 39 31 bb
       -0.012272617 -0.010209427 0.03095661 -0.0027042495
0000e0 73 fd 24 bd d5 9c 9d bc 58 26 b9 3b ef 00 bb bc
       -0.04028077 -0.019239822 0.005650323 -0.022827594
0000f0 d3 91 0b bd 77 b6 02 3c 65 4a 7a 3c 47 f4 98 bc
       -0.034074616 0.007978073 0.015276526 -0.018671168
000100 2f 47 06 bc 46 6b 3f bb ca 1a 3c bc 7e 7b 91 bc
       -0.008195682 -0.0029208227 -0.011480996 -0.017759081
000110 92 d0 22 3c f8 c1 06 bc e2 68 2a 3d e7 00 43 3c
       0.009937422 -0.008224957 0.04160393 0.011902071
000120 c9 19 f2 bb 9b f2 05 3d a5 90 9c 3c 0e ea 80 3c
       -0.0073883277 0.03270207 0.01911194 0.015736606
000130 48 4a 87 3c a2 b2 5c bc bc 22 e2 bc ff 3a 9e 3c
       0.016514912 -0.013470324 -0.027604453 0.01931524
000140 07 02 00 bd 6a bb d8 bc 46 a3 e8 bc dc 29 e7 bc
       -0.031251933 -0.026456553 -0.028398167 -0.028218202
000150 e4 1d a3 3c 81 68 e8 3c 11 e1 d7 bc d2 d2 68 bc
       0.019911714 0.028370144 -0.026352437 -0.01421042
000160 90 6f b3 3b 66 f0 ed 3c 7c 7f 91 3c 16 99 9e 3c
       0.005475946 0.029045295 0.017760985 0.019360106
000170 9c 59 a2 bc 74 15 83 3c 47 b0 04 3d fa 0a d7 3c
       -0.01981812 0.01600144 0.032394674 0.026250351
000180 46 d2 a5 3c 4b c6 fd bc ee 01 7f bc 09 a4 38 bc
       0.020241868 -0.030978343 -0.015564425 -0.011269578
000190 5d 62 aa 3c 96 4d 38 bd 51 55 e4 3c a5 c4 d3 3c
       0.020798856 -0.044995867 0.027872713 0.025850603
0001a0 dd 3a 37 3c da 7c 86 3c 45 37 01 bd 8b 16 ec 3c
       0.011183468 0.016416956 -0.03154685 0.028819343
0001b0 6a 12 e3 3c 05 97 33 3d 1c 1e 27 3c b7 0a 2b 3b
       0.027718741 0.043845195 0.01020005 0.0026098916
0001c0 54 10 cb bc f8 b2 1a bc 5b 53 54 b9 57 3c 86 3c
       -0.02478806 -0.009442084 -0.00020248948 0.016386194
0001d0 6e ce c3 3c c6 2e 32 3d 28 8d 22 bc ed cf 2d 3d
       0.023902144 0.043501638 -0.00992135 0.04243462
0001e0 cb 73 81 3c 48 4b 88 3b eb 01 9d bc f2 a6 de bc
       0.015802285 0.004159365 -0.019165954 -0.027179215
0001f0 28 d1 25 3d f5 2f d5 3c 46 4b 12 bd 9c e6 8e bc
       0.04048267 0.026023844 -0.035716318 -0.017443947

network_body.observation_encoder.rsa.fc_k.bias f4 [128]
000000 89 10 02 38 da 7c c2 37 dd c4 33 b9 16 62 62 38
       3.1009815e-05 2.318474e-05 -0.00017144108 5.397395e-05
000010 54 dd 30 b7 5b fd f2 38 2d 1a 38 37 87 ca 12 b9
       -1.0541949e-05 0.0001158665 1.0973349e-05 -0.00013999092
000020 f8 4d 08 38 7e 7f 87 38 87 3b ac b7 33 81 d2 b8
       3.249754e-05 6.461049e-05 -2.0531717e-05 -0.000100376456
000030 83 e6 69 38 e8 2c 4d b9 8c f6 12 b8 7f b8 01 b8
       5.576621e-05 -0.00019567052 -3.5038727e-05 -3.0927822e-05
000040 0a ed b8 37 e3 3d 3d b9 74 34 fd b8 39 1c aa 38
       2.204489e-05 -0.00018047499 -0.0001207375 8.1114886e-05
000050 c4 d3 1d b7 15 8b 7d 37 45 f3 8a b5 fc ca d4 b6
       -9.407235e-06 1.5112358e-05 -1.0352602e-06 -6.341723e-06
000060 9f 14 4c b9 b1 89 6f b7 8d 26 f8 38 ec 75 00 38
       -0.00019462638 -1.4277569e-05 0.00011832742 3.06274e-05
000070 7c 91 15 b7 de e0 8c b8 50 f4 0a b9 e1 d1 e8 38
       -8.914965e-06 -6.717605e-05 -0.00013251719 0.00011101715
000080 e0 c5 db 38 45 aa 3f b9 ea 76 c3 38 b9 06 e2 38
       0.00010479591 -0.0001827861 9.320474e-05 0.00010777772
000090 45 be 90 38 ff 0b 9a 38 e2 a2 6f b9 d3 89 4d 39
       6.9018955e-05 7.345527e-05 -0.00022853495 0.00019601667
0000a0 fd 83 3e 38 9e 36 15 39 71 3e 92 38 7b c9 8e b8
       4.5422454e-05 0.00014230094 6.973453e-05 -6.808616e-05
0000b0 dd f0 6b b9 75 9f 30 b9 15 74 76 b9 6e 99 b8 b8
       -0.00022501075 -0.0001684407 -0.00023503632 -8.802382e-05
0000c0 5c f3 d3 b7 a2 80 de b8 ce db ed b8 3c f5 b2 38
       -2.5266483e-05 -0.00010609745 -0.000113419825 8.53338e-05
0000d0 8d e5 38 b9 15 2d a6 38 40 88 b6 38 c2 d2 15 39
       -0.00017633122 7.923894e-05 8.703815e-05 0.0001428826
0000e0 d0 c6 f1 b8 c1 90 59 38 5f b8 2b b9 a2 6c 59 b9
       -0.00011528807 5.1871644e-05 -0.00016376514 -0.00020735202
0000f0 be f2 13 b9 49 3e 85 b8 2b 30 04 39 29 f8 37 b9
       -0.00014109441 -6.353536e-05 0.00012606445 -0.00017544687
000100 3c a7 31 39 fe 55 97 b9 8f c7 8f 39 d6 9e f6 39
       0.00016942335 -0.00028865034 0.00027423768 0.00047039118
000110 e2 db 2e b8 f9 3e ba 39 b2 1d 9c b9 dd 0b 15 b9
       -4.1689615e-05 0.00035523603 -0.00029776763 -0.00014214167
000120 2b 65 67 39 07 aa d7 b9 03 71 34 b9 11 48 8a b9
       0.00022067565 -0.00041134676 -0.00017208238 -0.00026375105
000130 3b d3 26 b9 53 70 58 39 a2 9b 8a 39 9d e4 03 37
       -0.00015909683 0.00020641209 0.00026437367 7.861437e-06
000140 28 df 81 39 54 b5 6a 39 25 ef b8 39 b9 21 df 39
       0.00024771062 0.00022383529 0.0003527339 0.00042559
000150 32 71 c9 b8 13 08 05 39 bc 1c 8a 39 49 8b 23 39
       -9.605511e-05 0.00012686876 0.0002634282 0.00015596779
000160 ec 57 f9 b8 49 b6 52 b9 36 63 9c b9 17 56 47 b8
       -0.00011889622 -0.00020095067 -0.00029828557 -4.7525475e-05
000170 66 fa 64 39 47 39 95 b9 96 6a 9e b9 57 db 8c b9
       0.00021837055 -0.0002846217 -0.0003021552 -0.00026866302
000180 1f 71 3b 39 ca 29 6c 36 95 cb ae b7 30 d8 a7 b9
       0.0001787585 3.5191065e-06 -2.0837217e-05 -0.00032013794
000190 ba b5 de b8 f2 1f 63 37 a0 1a 64 b8 4a 41 52 38
       -0.00010619634 1.3537692e-05 -5.4384232e-05 5.0128707e-05
0001a0 dc ba 6d 39 39 cd 10 39 33 6e 93 37 5c 1b b3 38
       0.00022671692 0.00013809362 1.7575081e-05 8.540481e-05
0001b0 1c fe 0a 39 10 51 7b b7 9a 93 15 38 a1 d8 bf 38
       0.00013255369 -1.497964e-05 3.5661833e-05 9.14794e-05
0001c0 12 fb b7 37 23 89 b7 b9 19 7b 65 39 f3 e8 11 39
       2.1932214e-05 -0.00035006655 0.00021885 0.00013915058
0001d0 67 4f 5d 38 5c 66 1b b6 5d 10 a7 38 11 3a 91 38
       5.2764455e-05 -2.315638e-06 7.9662284e-05 6.9249545e-05
0001e0 65 e3 ef 38 85 6c 1e b9 8d 33 fa 38 a1 93 63 b9
       0.000114387636 -0.00015108481 0.00011930531 -0.00021703403
0001f0 af 2a 6e 38 03 59 34 b7 3c ab d2 b8 35 10 95 38
       5.6783374e-05 -1.0749561e-05 -0.00010045475 7.1078925e-05

network_body.observation_encoder.rsa.fc_v.bias f4 [128]
000000 7c 12 48 bb ab a0 89 bb 3c d0 6a 3c af ce 3b b9
       -0.0030528596 -0.0042000613 0.0143318735 -0.00017910705
000010 8a 94 2f 3c e2 60 23 3c 11 9c 8f 3b ca 50 f3 bb
       0.010716567 0.009971829 0.0043826182 -0.0074254023
000020 ca b3 76 bc e6 13 86 bc 93 07 01 3c 82 8c 22 3c
       -0.0150575135 -0.01636691 0.007875341 0.009921195
000030 c1 05 99 3c d5 cd 81 3c 9b 7d bb bb e2 66 af ba
       0.018679501 0.015845219 -0.0057217604 -0.0013382102
000040 e0 94 16 bb 9a a6 8d 3c 03 35 9f 3c 46 a1 61 3c
       -0.002297692 0.017291356 0.019434458 0.013771361
000050 c1 be 18 3c d0 fd 11 bc 1a 9a ec bb 5a 0c 2d 3c
       0.009322823 -0.008910611 -0.007220519 0.010562027
000060 a7 6a 83 39 01 53 3b bc 0e 80 95 3c e0 a9 04 bc
       0.0002506573 -0.011433364 0.018249538 -0.008097142
000070 5f df 9d 3c 61 a2 ca 3c 15 f9 45 bb da 04 87 bc
       0.01927155 0.024735631 -0.003020828 -0.016481806
000080 12 39 a0 3b c7 07 5c 3c de 24 78 3c f4 9d 74 3c
       0.004889616 0.013429589 0.015145509 0.014930237
000090 a2 10 8b bb b3 cf 30 bc 3d 24 e7 bb b8 16 bb 3b
       -0.004243926 -0.010791707 -0.0070538805 0.0057094954
0000a0 2a 9f cb 3c 07 1f 39 3b 8f 94 10 3c 48 23 ee 3c
       0.024856169 0.0028247254 0.008824482 0.029069558
0000b0 bb 4c 4d 3c f0 98 ac 3b ed 74 7d bc 32 d6 10 3c
       0.012530501 0.005267255 -0.015469772 0.008840131
0000c0 ec 95 8d bc 8f 63 27 bc 11 0a d1 3a e2 40 b0 3b
       -0.017283402 -0.010216608 0.0015948435 0.0053788284
0000d0 2b 89 e6 bb 08 20 05 3d 07 9a d5 bc 4a 95 c0 3c
       -0.0070353947 0.03250125 -0.026074423 0.023508687
0000e0 27 ce e2 3a c2 33 eb 3b dd 24 01 bc e0 0e 9f 3c
       0.001730387 0.007177801 -0.007882324 0.019416273
0000f0 c8 d8 31 39 72 21 30 bd 90 ce 41 3c f4 ae 7a 3c
       0.00016960793 -0.043000646 0.0118290335 0.015300501
000100 ce fc 1b bc 35 81 a7 ba b5 84 7f 3c ca 12 52 bb
       -0.009520723 -0.0012779596 0.015595605 -0.0032054656
000110 bb c0 99 3b ce bc 48 bc 41 6f 9c bb 5d ca e5 bc
       0.0046921647 -0.012252046 -0.0047740047 -0.028050596
000120 d6 9a b5 bb 8e 58 2e 3c 0c 20 38 bc 70 9e c6 bc
       -0.0055421395 0.01064123 -0.011238109 -0.02424547
000130 5a 19 90 bc 21 76 20 bc 3f d3 0c 3d 71 f1 07 3c
       -0.017590214 -0.009793789 0.034381147 0.00829731
000140 fe 02 cb 3c e2 1d c2 3b c7 ec 9f 3c 42 22 e8 bc
       0.0247817 0.0059239725 0.019522084 -0.028336648
000150 c3 ab 25 3c d9 77 9f bc 3e 22 83 bc ea d2 cd 3c
       0.010111752 -0.019466328 -0.016007539 0.025124986
000160 22 d6 47 bc 1d fa 4d bc bb 56 96 bc 0b 60 ff bb
       -0.012197049 -0.012571839 -0.018351903 -0.0077934316
000170 8b 48 25 3a 19 5f d3 bb b7 ae 4c 3b e8 6e b4 bc
       0.000630506 -0.0064505455 0.0031232068 -0.02202554
000180 43 95 3d 3c 27 64 73 3c 70 c3 74 bb b7 65 9f bc
       0.011571231 0.014855421 -0.0037347935 -0.019457681
000190 04 23 4c bc 50 52 1b 3c 0d cf 19 3c 91 37 be ba
       -0.01245952 0.009480074 0.009387744 -0.001451241
0001a0 22 e4 e0 3b 85 04 af 3c 0f d9 95 bb 8f 98 8b 3c
       0.006863133 0.02136446 -0.0045729945 0.017040519
0001b0 ee 59 e1 3b 5f 47 de ba 7d a5 37 3c fd 39 d4 bb
       0.0068771755 -0.0016958526 0.011208889 -0.0064766393
0001c0 a7 a1 06 3b ea 4c 97 3a 53 84 9e 3a 1e 95 a2 bb
       0.002054313 0.0011543308 0.0012093879 -0.004961624
0001d0 e0 67 04 bc bd 68 05 bc 5c ea 8c 3c 75 e0 7d bb
       -0.008081406 -0.008142647 0.017201595 -0.0038738523
0001e0 ed 73 a1 bc 4d 67 46 bc d6 ef a8 ba 1c af e2 bb
       -0.019708598 -0.01210959 -0.001288886 -0.0069178473
0001f0 19 27 b9 bc 38 f6 b2 3b fa 6e 24 3c 3e 42 15 3c
       -0.022601651 0.0054614805 0.0100362245 0.009110032

network_body.observation_encoder.rsa.fc_out.bias f4 [128]
000000 38 97 97 3c e2 55 15 bd 4c f3 8e bc 13 c7 b0 bc
       0.018504724 -0.036458857 -0.017449997 -0.021579301
000010 48 92 bc 3c a0 7f 07 bc 15 0a 72 3c d2 1a a0 3b
       0.023018971 -0.008270174 0.014772912 0.0048860097
000020 b8 a8 cf 3c 84 45 f9 3c 64 5d 79 bc 56 bf 0f bd
       0.025349006 0.030428655 -0.01522002 -0.03509458
000030 b7 da 89 3c f1 e8 98 3c 6d 77 1e 3c 5f 1d 1e 3d
       0.016827924 0.018665763 0.009672028 0.03860223
000040 5f 35 d5 bb 00 b8 38 bc 70 f4 77 3b 08 04 5a bb
       -0.0065066065 -0.011274338 0.0037834905 -0.0033266563
000050 a6 eb c1 3b 0e 0e 86 3c ff 83 9b bb 3d d9 58 3c
       0.005917984 0.016364124 -0.00474596 0.013235387
000060 1d a3 84 bb b0 a6 d6 bc 7a 79 cd 3b 75 ed 0f 3d
       -0.004047765 -0.02620253 0.0062705847 0.035138566
000070 48 9b 2f 3d e4 b2 1c 3b ff 62 0b 3a 8f 14 25 3d
       0.042872697 0.0023910338 0.0005317181 0.04030281
000080 3c c9 c2 3b 8e ab a5 3b 68 44 bb bc 13 5c 4c bb
       0.005944399 0.0050558513 -0.022859767 -0.003118281
000090 7b e7 f7 3c 7a 17 b8 bc 9a 18 50 3b 38 4e 75 3d
       0.030261746 -0.022472132 0.0031752945 0.05988905
0000a0 7c 44 83 3c 49 8f 79 bc 18 e6 0b 3c 21 90 f3 3a
       0.016023867 -0.015231916 0.008538745 0.0018582382
0000b0 82 18 37 3c c4 d8 d3 3c cf 46 b7 3b b3 84 75 3d
       0.011175277 0.025860198 0.005593158 0.059941005
0000c0 f9 6a 21 3b 50 15 b3 bc 34 3b b0 bc 43 f1 3e 3a
       0.002463041 -0.021860749 -0.021512605 0.00072838756
0000d0 bc 4c 17 bc 90 3f 80 ba bb 73 76 bc 17 d3 29 bc
       -0.0092346035 -0.0009784568 -0.015042241 -0.010365269
0000e0 b2 95 4f 3c d4 a6 85 3b da 96 8d 3c 0e 74 1f 3d
       0.0126699675 0.0040787254 0.017283846 0.038929038
0000f0 ea ab a4 bc 3a 1e e3 bc c6 77 c6 3c d0 7c a7 bc
       -0.020101506 -0.027724374 0.024227034 -0.020445257
000100 9f d2 ab 3b 2a 3f f0 bc b0 63 07 bc 56 88 0e bc
       0.005243614 -0.029326994 -0.008263513 -0.008699497
000110 06 14 02 bb 4c da d0 bb 06 b2 2f 3d 41 62 f0 bc
       -0.001984836 -0.0063736793 0.042894386 -0.029343726
000120 51 97 61 bd 30 8f bb bc 4b de c5 3b 34 92 31 bc
       -0.055075947 -0.022895426 0.0060384623 -0.01083808
000130 07 45 38 3b 94 f8 ac bc b8 0d 92 bc 01 53 8e 3c
       0.0028117315 -0.021114625 -0.017828807 0.017373564
000140 8f bb e7 bb 84 47 81 bb b0 8b 1e bc 56 f2 6f 3c
       -0.0070719193 -0.003945293 -0.009676859 0.01464518
000150 41 92 8c 3c 5e d6 9a bc d3 ad b5 bb e4 25 2f 3c
       0.017159583 -0.018901046 -0.005544403 0.010690186
000160 0d 24 87 ba bb 7c 29 bd fd 7d 08 3c a4 41 06 3c
       -0.0010310427 -0.041378718 0.008330819 0.008194361
000170 81 2a a5 39 a7 3d 06 bb 14 a3 be 3c 3d 55 72 bc
       0.0003150292 -0.0020483525 0.023271121 -0.01479083
000180 57 d4 8f 3c c6 7e 44 bc f2 e2 c2 bc 10 a0 f0 3b
       0.017557306 -0.011993116 -0.023789857 0.0073432997
000190 de 84 52 bc e0 a2 b5 3c 55 60 96 bb 84 f7 6e 3a
       -0.012849061 0.022172391 -0.0045891204 0.0009115862
0001a0 44 57 05 bd ab f3 8e bc 2e 16 83 3b 80 de 07 3b
       -0.032553926 -0.017450174 0.0040004468 0.0020731986
0001b0 8b d0 2d 3d 1b 7b b6 3c 67 ed 88 bb 1c a2 8f bb
       0.04243521 0.022275498 -0.004178691 -0.0043833386
0001c0 87 77 b8 bc 3b b8 8f ba 58 54 f2 3b 6e 6c 5c bc
       -0.022517933 -0.0010964939 0.0073953085 -0.013453586
0001d0 2c 83 d6 bc 05 80 21 3c 15 9a 6b 3c 1d 2f ed bc
       -0.026185594 0.009857182 0.014379998 -0.02895313
0001e0 ab 3a d9 bc df 6a 2b 3c d0 7c 8b bc 8b 65 19 3c
       -0.026517233 0.010462492 -0.017027289 0.009362589
0001f0 33 5e 2b 3c 74 7f 28 bc b7 a6 08 bc 4b 57 ab 3c
       0.010459471 -0.010284293 -0.008340529 0.020915648

network_body.observation_encoder.x_self_encoder.seq_layers.0.weight f4 [128, 7]
000000 85 80 5c bd 3b 97 cf 3c 15 81 37 bc 2d 5d d2 3c
       -0.053833503 0.025340667 -0.011200209 0.025679195
000010 5d 80 c3 bc 5b 2a 12 3d 26 90 2f 3d 9e 8d 52 bc
       -0.02386492 0.035684925 0.04286208 -0.012851147
000020 52 ae eb 3b 90 d2 8a bd e3 c1 a7 bc ad c4 ed bc
       0.0071924115 -0.06778443 -0.020478195 -0.029024446
000030 6d 59 7d 3d e1 bf ce 3c ff 76 96 bd 64 6c 8e 3c
       0.06185286 0.02523798 -0.073469155 0.017385669
000040 3d 47 bd 3b e0 0e 0a 3a db f5 1e 3c 27 0e ea 3c
       0.0057763145 0.0005266499 0.009702171 0.028571201
000050 45 57 99 3b 09 d2 66 3d 3d 15 57 bd 76 0e 2a bc
       0.004679593 0.05635265 -0.05251049 -0.010379424
000060 37 3d 4d bd 77 7c 8c bd 09 92 71 bb 48 76 dd bc
       -0.050107207 -0.06859677 -0.0036860725 -0.02703394
000070 e8 6f fc bc cd 00 0a 3d 0e b2 94 3d 3e ae a0 3d
       -0.03081508 0.03369217 0.07260524 0.07845734
000080 d6 d3 1a 3d 2b 7e 6e bd 04 23 04 3d 0b f7 49 3d
       0.03779968 -0.058225792 0.032259956 0.049307864
000090 a5 e7 aa bc 6b ec 37 bc cc 4e 86 bc b2 7d 0f bd
       -0.02086241 -0.0112258 -0.016394995 -0.03503198
0000a0 cf 24 03 bc 36 51 77 bd 14 76 42 bb 85 e8 94 bc
       -0.008004381 -0.060380183 -0.002967243 -0.01817728
0000b0 c9 2f ad 3c a0 01 9e 3c 2e a5 83 3c ce e0 26 bd
       0.02114095 0.019287884 0.016069975 -0.040741734
0000c0 19 8b 9f 3c ab 45 01 bd b5 47 d4 bb 31 83 a6 3d
       0.019475507 -0.03156058 -0.0064782747 0.081304915
0000d0 c6 ad cc bc 0b da 07 3c 44 66 32 bd 76 54 b3 3c
       -0.024985205 0.008291732 -0.04355456 0.02189086
0000e0 7d be 24 3c 23 e8 ce 3c f2 8e e3 3c 9c 48 29 bc
       0.010055182 0.025257176 0.027778123 -0.010332253
0000f0 c8 52 a8 bd ec 46 52 ba f2 2c cf 3c 73 31 98 bd
       -0.08218914 -0.00080214324 0.025289986 -0.07431307
000100 df b9 41 3d 7a 98 85 bd b6 38 5f bc 04 2f b0 3c
       0.0472964 -0.06523223 -0.013624361 0.021506794
000110 eb 55 ef 3c 5d 60 79 3a a2 bc 31 3c cc e6 0c 3d
       0.029215774 0.00095129554 0.010848196 0.034399793
000120 72 34 49 3c 60 4b 10 37 79 00 0e 3c c9 c7 ad bc
       0.01228057 8.6006185e-06 0.008667105 -0.021213429
000130 15 f4 97 bc c3 da 8a 3c 94 f1 1e bc 5c d2 f7 39
       -0.018549005 0.016950017 -0.009701151 0.0004726824
000140 0e 1b 46 bc 23 b1 50 bc 89 ee e5 bb 68 a0 46 bc
       -0.012091411 -0.012737545 -0.007016961 -0.012123205
000150 32 05 ca 3c 76 88 80 bc 46 bf 77 bd b4 5a b8 bc
       0.02466068 -0.01569007 -0.060485147 -0.022504188
000160 f7 a6 04 3d 3b 0d a5 3c f0 a8 36 bc c9 da 47 3c
       0.032385793 0.02014791 -0.011148676 0.012198159
000170 d0 99 0b bb bf c4 dd 3b 58 43 ea bb 82 bb b8 bc
       -0.0021301396 0.0067678387 -0.0071491413 -0.022550348
000180 86 97 a1 bc 03 13 8f bc 85 2d c5 bb 55 87 1f bd
       -0.019725572 -0.01746512 -0.0060173892 -0.038947422
000190 dd a2 48 bd dc 8c 26 3c a5 cc ef bc d2 72 76 3d
       -0.048983444 0.010165419 -0.029272387 0.060168095
0001a0 bb 0f 8d 3c 6f 1b 91 3d 0f 74 9e 3c 24 07 8c 3c
       0.017219415 0.07085311 0.01934245 0.017093249
0001b0 71 fc 02 bd 00 42 9c 3c b6 c3 67 bc 9b 74 ad bc
       -0.031979028 0.01907444 -0.014145782 -0.021173766
0001c0 7c b5 39 3d 23 ad 51 bd b5 4c 5a 3d d5 06 67 bc
       0.045339093 -0.051190507 0.05329581 -0.01410075
0001d0 a9 46 5b ba 60 74 af bc 6f 43 53 bc cc 9c 13 3c
       -0.0008364716 -0.021417797 -0.012894495 0.009009551
0001e0 45 55 a2 bd 05 89 71 3d 2d 19 a3 ba 56 c3 06 bd
       -0.0792642 0.058968563 -0.0012443416 -0.03290113
0001f0 eb 8f 80 bd 2f 88 70 3b 8e 8e 11 bd 55 32 35 3c
       -0.0627745 0.0036702265 -0.03553634 0.011059363
000200 c7 e5 36 3c 07 37 28 bc 4d ae 6b 3b 54 ec f1 3c
       0.011163182 -0.010267026 0.0035962046 0.029531635
000210 ad 40 b8 3c 54 a5 06 bc e3 93 35 bd 31 6f 1c bd
       0.022491777 -0.008218128 -0.04433049 -0.038191978
000220 44 1b b3 bb 18 75 0c 3c 93 53 80 3d c1 25 69 bc
       -0.005465897 0.008572839 0.062659405 -0.014230193
000230 b6 b8 57 bd 3d 6a 56 3b 85 8e 0e 3d 99 bf 3b 3d
       -0.05266639 0.0032717132 0.034803886 0.04583702
000240 2d eb 0c bd 37 00 47 bd 63 99 3e 3d be 34 b9 bd
       -0.03440397 -0.04858419 0.046533 -0.09043263
000250 76 77 34 3d dd 78 7b 3c 8b c2 4f 3d 4f 6e b1 3a
       0.04405924 0.01534864 0.05072264 0.0013536903
000260 49 4b d2 bc 62 9d 5e 3d fc 70 17 3d 59 a9 4e 3d
       -0.025670664 0.05434931 0.036972985 0.05045447
000270 b8 1e 37 bd 52 5d b0 bc 05 8d 8f bc 9b 78 e4 bc
       -0.04470703 -0.021528874 -0.017523298 -0.02788954
000280 37 dd 0b bd 86 13 08 3d 08 5c e3 bb bd b7 37 bc
       -0.034146514 0.033221744 -0.006938461 -0.01121324
000290 98 21 2a bd bd fb 22 bb 99 e9 c9 3c bf da cc bc
       -0.041535944 -0.0024869286 0.02464752 -0.02500665
0002a0 41 86 6e 3d f8 53 f6 3b cd 47 68 bd e0 82 42 bc
       0.058233503 0.007517334 -0.0567091 -0.011872023
0002b0 56 a4 a7 bd 59 31 6e 3d f3 f1 f2 3c c5 ff 98 3d
       -0.081856415 0.05815253 0.029656386 0.07470659
0002c0 88 03 ed bc be 6d 30 bd a8 87 31 bd b6 6a fb bc
       -0.028932348 -0.04307341 -0.043342263 -0.030690532
0002d0 14 e6 2f bd 2a cd 1c bd d7 23 1a 3d 5d 03 78 3c
       -0.04294403 -0.038281597 0.037631836 0.015137521
0002e0 f3 fe 66 bd a2 63 6b bd 5a 4e 02 3d 18 0f 5e 3d
       -0.056395482 -0.057468064 0.031813003 0.054213613
0002f0 20 b6 9b bb 03 76 18 bd 49 89 35 bc 5b fc 16 3c
       -0.0047519356 -0.03722192 -0.011080095 0.00921544
000300 e5 01 b5 bc b9 bc 93 bc 7b d4 52 3d d3 58 b1 38
       -0.02209563 -0.018034326 0.05147217 8.4565625e-05
000310 5e 5f b7 bc e2 27 53 bb cb df 74 bd e5 41 a4 bc
       -0.022384342 -0.0032219817 -0.059783738 -0.020050952
000320 d8 db 1e bd 9c 1a 20 3d 36 91 27 3c 7f 8b 1c 3d
       -0.038783878 0.039087877 0.010227492 0.03821897
000330 e8 64 08 bc 3e 07 86 bc 13 ea 92 bc ec 47 96 bb
       -0.008324839 -0.016360875 -0.01793388 -0.0045862105
000340 04 10 06 3a be 93 4a bd 81 bb c8 3a d0 11 4e 3c
       0.0005114081 -0.049457304 0.001531467 0.012577489
000350 74 99 f3 3b e9 1c 11 bd 4c 41 9c bb 36 96 f5 3c
       0.0074340645 -0.03542796 -0.004768526 0.029978853
000360 d4 a8 b1 3d d5 b0 96 3c 07 27 d4 3c 8d 42 a4 3b
       0.086747795 0.018394867 0.025897516 0.0050128163
000370 35 b9 70 bc da 9a 9e bc de 22 98 bc a1 1a 97 bc
       -0.014692594 -0.019360948 -0.018571313 -0.018445315
000380 05 39 66 3c 6c 7a eb bc 4f e8 39 bd 8f ac d3 3b
       0.01405168 -0.028744899 -0.045387562 0.0064597796
000390 cc 8c 26 bd 44 2a 48 3d 02 aa 0e bd 78 02 99 bd
       -0.040661618 0.048868433 -0.0348301 -0.07471174
0003a0 12 f7 1d bd f6 23 c9 bc 9b b0 52 3d 94 8f 3d ba
       -0.038565703 -0.02455328 0.051437955 -0.00072311726
0003b0 cd 88 24 3d bb e6 65 3d b7 32 d0 bc 91 62 52 3b
       0.040169526 0.056128245 -0.025414808 0.0032102207
0003c0 c4 d3 7b bd 57 ea b9 ba 6d b7 8c 3c 40 5c c3 3d
       -0.061481252 -0.0014184219 0.017177308 0.0953908
0003d0 47 b0 a3 bc bf 6c 39 3c 30 46 26 3d e1 37 9a bd
       -0.019981517 0.011317431 0.04059428 -0.07530189
0003e0 d8 5f 62 3c 43 4b 08 3d 4c 2a cb 3d 45 92 5c 3c
       0.013816796 0.0332749 0.09920177 0.013462608
0003f0 3f 44 8d 3d 65 65 42 3c ca 69 8b 3a f5 6e 7b bd
       0.068977825 0.011864995 0.0010636386 -0.061385114

network_body.observation_encoder.x_self_encoder.seq_layers.0.bias f4 [128]
000000 2f ac 53 3c 55 4c f9 bb ab d2 df 3c e8 eb 8e bc
       0.01291947 -0.0076079764 0.027322134 -0.017446473
000010 49 e2 02 3d 29 f6 ba bc fd a3 2e bc 9e 4c 4e 3c
       0.031954084 -0.022822456 -0.010659215 0.012591509
000020 17 d8 0c bd 87 1b 65 3b ec 15 87 3c a9 0e 05 bd
       -0.034385767 0.0034959035 0.016489945 -0.032484684
000030 69 3c 0f bc c4 8f d2 3b 51 a3 85 bc 0c 6c dd bc
       -0.00874243 0.0064258296 -0.016313227 -0.02702906
000040 4d 82 a6 bb af 5b 9a 3c 8a 82 24 3c b2 98 2e bc
       -0.005081451 0.018842546 0.010040889 -0.010656523
000050 f9 95 8f 3c 8f 00 bb 3c 57 87 dd bc 1b f7 c9 bc
       0.017527567 0.022827415 -0.027042074 -0.024653962
000060 b5 d0 9d bc c6 2d 98 bc b7 84 ec bb 93 9b 87 3c
       -0.019264558 -0.018576514 -0.0072179693 0.016553676
000070 4f 20 93 bc 58 25 83 bc 7e 88 db bc 42 99 28 3b
       -0.017959742 -0.016009018 -0.026798483 0.0025726114
000080 df c9 82 bc f4 22 e8 3c 12 c1 8a ba 23 de 65 bc
       -0.0159654 0.02833698 -0.0010586104 -0.014030012
000090 c7 d0 64 bc 5b 92 42 bc 20 54 c6 bc 11 61 46 bc
       -0.013965792 -0.011875714 -0.024210036 -0.012108103
0000a0 74 0f 4c 3b a9 c2 89 bb 8b f0 1b bc 37 eb a6 3c
       0.003113714 -0.0042041135 -0.009517799 0.020375831
0000b0 11 68 c6 3c 23 e4 34 3b d6 f7 b4 bc 8d 2e c4 bc
       0.024219545 0.00276018 -0.022090834 -0.023947978
0000c0 d8 c5 cc 3c aa f7 e7 3b ea a3 01 bd a2 0e c2 bc
       0.024996683 0.0070790844 -0.03165046 -0.023688618
0000d0 06 df d0 3a bf 43 8b 3c b3 63 65 3c 6f 04 da 3c
       0.0015935607 0.017000077 0.014000821 0.026613442
0000e0 e9 42 56 3c f3 c8 96 3c 45 3a a4 3c b9 3c 73 ba
       0.013077476 0.018406367 0.020047316 -0.0009278763
0000f0 ee 34 2a bc f6 14 a5 3c c9 2e 96 3c 0e 77 26 3c
       -0.010388596 0.020151597 0.018332856 0.010160221
000100 fd fb 50 bb f8 95 0e 3c 37 0a ac ba 81 12 0b bd
       -0.0031888478 0.0087027475 -0.0013125603 -0.033953194
000110 35 47 5e 3c cf ca ed bc 85 2a 46 3c bc ea 37 3d
       0.013566782 -0.02902737 0.012095098 0.044901595
000120 c8 7a da bc d0 e9 07 bb 90 ad 43 bb 42 7f ce 3b
       -0.026669875 -0.0020738728 -0.002985809 0.0063017914
000130 2a 4f 6c 3c a2 80 70 bc a7 e2 e7 3c c5 55 f5 3b
       0.014423171 -0.014679106 0.028306318 0.007487031
000140 ac 93 47 3c ee f5 4a bb 7d 9b 8c 3c c3 60 fd bb
       0.012181204 -0.003096934 0.017163986 -0.007732482
000150 85 7d 85 bc 95 19 7b bc b3 d8 eb bc b2 a8 83 bc
       -0.016295204 -0.015325923 -0.028789854 -0.016071651
000160 52 fa c6 bb 95 9c 03 3d ef 50 b1 3c d9 51 dc 3a
       -0.006072321 0.03213175 0.021645037 0.001680906
000170 8a 72 90 bc 6e b7 35 bc de 9a b1 3a f4 b1 2e 38
       -0.017632741 -0.011091096 0.0013550182 4.1650565e-05
000180 24 83 87 bc f0 55 f6 bc 63 03 0c bc 93 cb 39 bc
       -0.016542025 -0.030070275 -0.008545729 -0.01134004
000190 58 7a 1a bc 55 62 ae bb e7 76 ac bc ab 31 25 bc
       -0.009428583 -0.0053217807 -0.02105279 -0.010082643
0001a0 56 7e 1d b8 89 91 ac 3c 4f a7 bb bc 32 0e a8 3c
       -3.7549376e-05 0.02106549 -0.022906927 0.020514581
0001b0 a7 fc d7 bb 0d 38 93 bc 09 3d 08 bc a3 de ef 3c
       -0.006591398 -0.017971063 -0.008315333 0.029280966
0001c0 75 1c ba 3c 98 67 85 3c 1b fc ee 3c 34 57 43 3c
       0.022718647 0.016284749 0.029172948 0.011922646
0001d0 ec f5 7f bc e2 ae 89 3c c6 c9 be 3c 7c d0 7a 3c
       -0.015622597 0.016807023 0.023289572 0.015308496
0001e0 02 49 46 bc c9 d4 d4 3c 47 01 cf 3c 18 93 57 3b
       -0.012102367 0.02598037 0.025269164 0.0032894071
0001f0 74 68 b3 bc a1 e5 9c ba 70 00 ba 3b aa c5 bf 3a
       -0.021900393 -0.001197029 0.0056763217 0.0014631052

network_body._body_endoder.seq_layers.0.weight f4 [128, 135]
000000 79 ca 8a bb ac 86 d2 3d fe 89 f7 bb fd 76 e0 3c
       -0.0042355624 0.10279593 -0.0075542917 0.027400488
000010 d0 ba 80 bd 3c a9 3a bc 19 a5 e9 3d ff c5 0c bd
       -0.06285632 -0.011392888 0.11408443 -0.03436851
000020 bb 54 4b bd 4f b4 0d be 43 aa 55 bb 8e 7b c2 bb
       -0.049641352 -0.13838314 -0.0032602705 -0.005935139
000030 c0 8c c4 bd 5e 1c 8a 3d 79 91 83 3c fc 6e 69 bd
       -0.095971584 0.06743692 0.016060578 -0.05699061
000040 3b 38 3c 3e 5c 35 36 3d 4c c9 c0 3c a0 11 3b 3e
       0.18380825 0.04448448 0.023533486 0.18268442
000050 35 9f 16 be fd 92 09 3d 9a 5f 35 bd a2 b4 c3 bd
       -0.1470917 0.033587445 -0.044280626 -0.09555937
000060 12 08 2e be f5 19 d5 bc ae ba d3 bd c6 df 0b be
       -0.16995266 -0.026013354 -0.10338341 -0.13659582
000070 80 d4 98 bc 22 c3 be 3c 7a ca 77 3b 90 66 69 bd
       -0.018656015 0.023286406 0.0037809894 -0.056982577
000080 1d 03 ff bd 3b cd 0b 3e 3d 42 3b 3d 70 ab 49 3d
       -0.12451766 0.13652508 0.045717467 0.04923576
000090 4f c3 88 bd b8 34 c8 bd 08 12 b6 3d 72 d6 99 bd
       -0.06677877 -0.0977568 0.08890158 -0.07511605
0000a0 e9 d4 82 be cc 5e 26 3e 09 45 42 bc 1b e5 eb 3d
       -0.25553063 0.162471 -0.01185728 0.11518308
0000b0 de 82 c7 3a 81 dd e5 bc c9 d2 b1 3d fc b1 11 3e
       0.0015221497 -0.028059723 0.08682782 0.14228052
0000c0 25 42 bf bd 80 21 26 bd 61 44 94 3d 41 ff 9b 3d
       -0.09338788 -0.04055929 0.07239605 0.07617045
0000d0 34 04 2b bd 3e 2f c3 bd d8 5f a7 bb 1b d9 d6 3d
       -0.041752055 -0.09530495 -0.005107861 0.10490628
0000e0 2d 82 aa bd 3c 37 37 3e 15 6b 27 3d ed 82 35 3d
       -0.0832561 0.17892164 0.040873606 0.044314314
0000f0 74 57 09 3e fe 2e a3 3d c0 8d 1e be b4 d5 83 bd
       0.13412267 0.079679474 -0.15483761 -0.06437245
000100 85 1a d3 3d c1 66 e6 3d 04 b3 0a bd 6e 84 cf bd
       0.103077926 0.112500675 -0.03386213 -0.10132681
000110 a7 10 37 bd e9 88 c9 bd 88 27 fd bc 36 7d 82 3d
       -0.044693615 -0.09840567 -0.030902639 0.06371538
000120 56 fa 98 3b fd e8 4d 3d 11 05 8d 3d 1f 61 93 3d
       0.0046685142 0.050271023 0.06885732 0.07196259
000130 18 74 d3 3c 17 0a 98 bb 49 50 ea bd d9 7f d7 bb
       0.025812194 -0.0046398747 -0.114410944 -0.00657652
000140 f0 64 cc 3b 38 f0 cf 3d e7 0a 07 bd 0b 84 d5 bc
       0.0062376186 0.1015324 -0.03296938 -0.02606394
000150 53 92 96 bd ea d5 fb 3d b8 b0 15 bd f2 c3 3a be
       -0.07352128 0.1229666 -0.036545485 -0.1823881
000160 7d d0 ed bc 5e 0e 51 bd 1c 0f 9b 3d 7f 8b 15 bd
       -0.029030079 -0.051039092 0.07571241 -0.036509987
000170 80 14 94 bc e1 08 3b 3d da fe 88 3d 4e cb c4 3d
       -0.018076181 0.045662764 0.06689234 0.0960909
000180 42 f7 03 be 2c 4b f8 3c 50 ec 00 bd 41 3e 4a be
       -0.1288729 0.030309282 -0.031475365 -0.1975031
000190 36 60 b9 3b 5a 55 c9 3b 69 f9 09 be 50 5b 1e 3d
       0.005657221 0.006144208 -0.13474049 0.0386613
0001a0 cd 79 07 3d a1 0a b1 bd 7b e0 98 bc cc 84 7b bd
       0.033075143 -0.086446054 -0.018661728 -0.06140594
0001b0 ad 69 d1 3d d1 3d e5 3d 16 e7 38 3d 92 8f da 3d
       0.10225234 0.11193431 0.045142256 0.10671915
0001c0 c0 e3 de bd 42 88 14 3e e9 00 6d bd c8 eb 01 be
       -0.108832836 0.14505103 -0.057862196 -0.126876
0001d0 d6 df 27 3d 24 54 cb bc 45 b2 df bd 36 4a a3 3d
       0.04098495 -0.024820395 -0.10922674 0.07973139
0001e0 a3 39 06 bd ca ea d9 bc 7d 42 ae 3b 11 17 b5 3b
       -0.03276981 -0.026601214 0.0053179846 0.0055264314
0001f0 b7 56 33 bd 72 69 14 3d 48 a8 2b be 61 2c 5d 3b
       -0.04378387 0.036233373 -0.16763413 0.0033748376
000200 d2 ce 9b bd bf be 2f bd b1 07 2d 3e eb a5 d1 3d
       -0.07607807 -0.04290652 0.16897465 0.102367245
000210 be 0e e1 bc 38 52 8b bd 23 a8 a4 3d 6b 9b 7d 3d
       -0.02747285 -0.06802791 0.08039882 0.061915796
000220 15 5a 2f bc bd f9 0b be d4 a1 a1 3c 04 51 32 be
       -0.01070263 -0.13669486 0.019730486 -0.17413718
000230 b7 80 3e 3d b3 31 77 3d e1 fc b9 3d 3f 5f 07 bd
       0.04650947 0.06035013 0.09081436 -0.033049818
000240 03 4a ad bd e1 5a 2d 3c f5 e5 26 3c 6a 74 57 3e
       -0.08461382 0.010580749 0.010186662 0.21040502
000250 13 4d 16 3d 0a df 01 bd c0 a9 3d 3e 5b 1b a9 3d
       0.036694597 -0.031706847 0.18521786 0.08257171
000260 10 2f 40 bd 9e a3 62 3d 28 26 07 be 18 bf f2 3d
       -0.046919882 0.05533182 -0.13198149 0.118528545
000270 68 a9 fd 3c e2 87 ce 3d 09 2f 02 bd 4c a3 09 bd
       0.030964568 0.10084511 -0.031783137 -0.033602998
000280 44 4d 6b be 9a 10 0e bd 4c 4f de 3d cb 3c 1c be
       -0.22978693 -0.0346838 0.108549684 -0.15257566
000290 a5 46 a9 bd 9f 7f 27 3e 7a 0f d5 bc cb 00 20 be
       -0.082654275 0.16357277 -0.026008356 -0.15625302
0002a0 4b 88 11 be d2 3f d5 bc 57 8e 27 3e f5 23 a6 bd
       -0.14212148 -0.026031408 0.16362892 -0.08112327
0002b0 66 85 32 3c 13 55 b1 bd d8 31 a3 3d e6 03 b3 bd
       0.0108960625 -0.08658805 0.07968491 -0.08740978
0002c0 5b f4 a1 bd e0 31 a3 bd 85 a2 35 bd 39 4e 20 bd
       -0.07907935 -0.07968497 -0.044344444 -0.0391371
0002d0 c8 f9 01 3e 5c 9a 87 bd 6a c0 3f bd 70 db 56 be
       0.1269294 -0.066212386 -0.04681436 -0.20982146
0002e0 ed ab c8 bd 3d b1 ef bd 13 cd 54 bd 62 43 41 3e
       -0.09798417 -0.117037274 -0.051953387 0.18873361
0002f0 fe 4f 09 3e 8d b0 57 3d cd 04 86 3d 6e 0a 8e 3d
       0.13409421 0.052658606 0.065438844 0.06935583
000300 b4 e1 67 bc 35 3e 2b bd 14 50 69 3c 66 bd bc 3d
       -0.014152933 -0.041807372 0.0142402835 0.092158124
000310 13 b0 36 bd ed 5c f9 3d a6 5e 82 ba 6a 86 cd bd
       -0.04460151 0.12175927 -0.000994642 -0.10035403
000320 72 db d7 bd a8 2d 6d 3c e8 6b 04 be 6f 18 6e 3e
       -0.10539903 0.014476217 -0.12931788 0.23251508
000330 2c d5 27 3e bf e1 86 bd c8 25 d8 bd 0b 00 c5 3d
       0.16389912 -0.065860264 -0.10554081 0.09619149
000340 a1 26 c2 3c 54 36 43 bd 44 ee 0b 3e c4 20 f0 ba
       0.02370006 -0.047659233 0.1366511 -0.0018320312
000350 c2 12 2f 3e c2 af 18 be 8a 2f 10 be 5e eb bd 3d
       0.17097 -0.14910796 -0.14080635 0.09273408
000360 aa eb 95 bc c6 d7 0e be 09 20 5e bc 62 ae 55 be
       -0.01830085 -0.13949499 -0.013557442 -0.20867303
000370 b9 42 b1 bd ee 81 88 3d 8e ca 7e 3d a0 98 64 3d
       -0.086553045 0.06665407 0.06220489 0.055809617
000380 1b e7 33 3c 10 50 89 3d d3 93 ca 3c 29 a5 40 3d
       0.010980393 0.06704724 0.024728691 0.04703251
000390 cf d6 01 bd 1f 01 0c be 81 42 95 bc 4b 4c 1e be
       -0.031698998 -0.13672303 -0.018220188 -0.15458791
0003a0 e7 cd 93 3b e6 ac dd 3d 53 e7 bf 3c 70 2f e0 bd
       0.0045106295 0.108239934 0.023425734 -0.10946548
0003b0 c0 bc a8 bd c7 9e 9e 3d 3f 8d 1a be 4e 7d a7 3c
       -0.08239126 0.07745128 -0.15092944 0.020445492
0003c0 41 58 9d 3c ef 0a ee 3d 14 fb ec 3d 8a a1 02 be
       0.019207122 0.11623179 0.11571327 -0.12756935
0003d0 b3 f3 ac bd b5 65 1b 3e df 2c b8 bd 9d b8 20 bd
       -0.084449194 0.15175517 -0.089929335 -0.03923856
0003e0 7c a0 b3 39 37 7e 18 3e e6 e5 4e 3b aa 45 8b bc
       0.0003426111 0.14891897 0.0031570136 -0.017000992
0003f0 c0 f4 8e 3e 04 88 29 3e b4 99 b3 3c 24 eb 69 bc
       0.27921104 0.16555792 0.021923877 -0.014277253

network_body._body_endoder.seq_layers.0.bias f4 [128]
000000 9a c1 f6 3c 8d fe 4e 3d dd 39 3d bc 22 b2 66 3c
       0.030121613 0.050535727 -0.01154944 0.014080556
000010 14 27 cb 3c 9a 02 8e 3b 6c 30 da 3c 14 84 1b 3d
       0.024798907 0.004333806 0.026634417 0.037967756
000020 ae ab c1 3c 0a 32 76 ba 3c 56 25 bd d8 31 27 3d
       0.023641434 -0.00093916117 -0.040365443 0.04081902
000030 1e 8b 04 bd 0a 96 67 3c 9d df 1e 3d ac b3 04 bd
       -0.032359235 0.014134893 0.038787473 -0.03239791
000040 ce 73 6e 3c 1c b9 4c 3c 51 9c 06 bc 59 47 fa bb
       0.014553977 0.012495305 -0.00821598 -0.0076379
000050 3b aa 9b 3c 0c fb 9c 3c 0e f2 98 3c c4 07 07 3d
       0.01900207 0.019162677 0.018670108 0.03296639
000060 66 73 66 3c 54 13 3d 3d a9 0c 0b 3d 0b 11 71 3c
       0.014065599 0.04616101 0.03394762 0.014713536
000070 bf d1 cc 3c 47 c8 64 3b 42 3b 62 3c 0a ce ca 3c
       0.025002358 0.0034909414 0.0138080735 0.02475645
000080 ff 80 1d 3c 5f 83 1c bc f0 18 d2 3c f5 28 5e bc
       0.009613275 -0.009552806 0.025646657 -0.01355957
000090 8c b6 11 3c 43 e2 dd bb dc 81 2b 3c eb a1 a6 3a
       0.00889362 -0.0067713573 0.010467973 0.001271305
0000a0 51 5d 55 3c 58 5c c5 3c 77 eb 46 bc 00 ad 41 bc
       0.013022737 0.024091884 -0.0121411 -0.011821032
0000b0 2d 6b dd 3c 56 55 7d 3c 4b 6a eb 3c 1a c0 53 3b
       0.027028644 0.01546224 0.028737208 0.0032310546
0000c0 15 2b 23 3d a8 5d 8c 3b b4 3a 92 3c 88 1e d5 3b
       0.039836008 0.0042836256 0.017850257 0.0065038837
0000d0 ef 5b 7f bb 3d bd 20 bd 90 23 18 3d c7 2f 06 3d
       -0.0038964709 -0.03924297 0.03714329 0.032760408
0000e0 7a d9 a8 3c 50 d8 15 3d ec 1b 95 3c 34 d3 06 3c
       0.020611513 0.036583245 0.01820179 0.008229066
0000f0 ef c1 03 3d 8d 90 ca 3c fc 7d b1 3c f7 18 4d 3d
       0.03216737 0.02472713 0.02166652 0.050072636
000100 17 33 10 bc a6 61 9f 3c d9 59 23 bc 43 d0 a8 3a
       -0.008801243 0.019455742 -0.009970152 0.001287945
000110 36 3f b8 3c 39 3f f6 3c b4 87 ee bb ca f6 fc 3c
       0.022491079 0.030059444 -0.0072793607 0.030879397
000120 3c 2f 2f 3c e5 85 c5 3c 8d 6a f1 3c 8f b9 96 3c
       0.010692414 0.024111697 0.029469753 0.018399028
000130 78 15 cb 3b 22 2f 94 3c f3 49 c7 bc 0b 3c 02 3d
       0.0061976276 0.01808888 -0.024327254 0.031795543
000140 79 50 5f bc 44 17 7c 3c 5b a5 fa bc af 30 13 3d
       -0.013630026 0.015386406 -0.030596426 0.0359351
000150 21 a2 3b 3d be db d2 3c a4 0a 2b 3d 9b 12 b8 bb
       0.045808915 0.025739547 0.041758195 -0.0056174523
000160 fd 4a 37 bb e6 c0 f4 3c 75 47 2f 3c 00 84 46 bc
       -0.002796828 0.029877137 0.010698189 -0.012116432
000170 25 42 0e bd bb 28 00 bd 9f 2c b0 3b 6f 84 03 3d
       -0.03473105 -0.031288844 0.005376413 0.03210872
000180 e5 3a 04 3b d5 10 c4 3c a7 4c 85 3d 3f 34 ba 3c
       0.0020176705 0.023933807 0.06508761 0.022729991
000190 85 69 af 3c 1e c4 1e 3b 83 35 54 3b 0f 97 a7 bc
       0.02141262 0.0024225782 0.0032380528 -0.020457773
0001a0 6f 29 b9 bc 43 01 23 3d b3 f5 18 3d 1e ce 17 bc
       -0.022602765 0.039796125 0.037343692 -0.009265451
0001b0 ed 2f 75 3c 18 a5 1a 3c f7 5e 1d bd c3 72 87 39
       0.01496504 0.0094387755 -0.038420644 0.0002583471
0001c0 46 3b cb 3c ee ba 51 bc 32 01 0e bc 75 e1 ab 3c
       0.024808537 -0.012800915 -0.008667277 0.02098153
0001d0 c7 9e 45 bd c6 fa 1d 3c 3f bd c3 3c 54 5b 31 bd
       -0.048247125 0.009642309 0.02389395 -0.043299988
0001e0 27 22 2f 3d 04 48 fb bb 6d 68 c8 3c a0 d4 cb 3b
       0.04275718 -0.007668497 0.024463857 0.0062204152
0001f0 7d a5 fc ba d2 cb f6 3c ef 45 d7 3b 81 77 00 bd
       -0.0019275394 0.030126486 0.006569616 -0.031363968

network_body._body_endoder.seq_layers.2.weight f4 [128, 128]
000000 93 90 1f 3e 13 90 11 3c 77 74 1a bd 76 0d 16 3e
       0.15582494 0.008884448 -0.037708726 0.14653572
000010 e9 12 2a bd c0 55 46 bc e9 87 0f 3d ce 8a 17 bc
       -0.04152194 -0.012105405 0.035041723 -0.009249402
000020 32 df 0a bd b9 95 c2 3d 8d 4b 61 3e 70 5b ac 3d
       -0.033904262 0.095012136 0.22001477 0.08415878
000030 95 ea b4 bd af ad d8 bd 37 a0 cd 3c 03 cc d1 3d
       -0.088338055 -0.105800025 0.02510081 0.1024399
000040 72 77 d6 bb 01 8c eb b9 9f 1d d7 bd f6 80 43 3d
       -0.0065450007 -0.00044927004 -0.10503697 0.04773041
000050 a1 e5 f8 bd d5 e3 5f 3c 2b fb 8b 3c b2 19 79 3d
       -0.12153173 0.013665159 0.01708754 0.06081552
000060 f2 68 c6 bd da 4e 6d 3d 3e 41 29 bc c6 2a 18 be
       -0.096879855 0.057936527 -0.010330496 -0.14860067
000070 eb 22 06 3e ff 23 6d bd 53 2a c7 bc 6c d6 d2 3c
       0.13099258 -0.057895657 -0.024312174 0.02573701
000080 ee 2b ed bc b9 08 45 bd d2 e4 90 bd 90 0a 5b 3d
       -0.028951611 -0.04810402 -0.07074894 0.05347687
000090 d3 17 34 bd 60 a2 ae bd b1 01 69 3d 75 0c a7 bb
       -0.043968033 -0.08527064 0.05688638 -0.0050979205
0000a0 4c ed b6 3b ea 75 2c 3e 82 90 23 bd 36 0f 29 3c
       0.005582487 0.16841856 -0.039932735 0.010318568
0000b0 24 b9 91 bd aa 94 07 3e 38 18 6b bb 4b ff 03 3d
       -0.07115391 0.13240305 -0.003587259 0.03222589
0000c0 50 f6 29 3b 0c 36 f9 bc e5 58 67 3d 32 dc 2b be
       0.0025934167 -0.03042128 0.05648126 -0.16783217
0000d0 2f 04 50 bd 4d ce 82 bc ab 86 ae 3c 8f 58 da 3d
       -0.05078524 -0.015967513 0.021304449 0.106614225
0000e0 7f 90 b9 bd 6f d4 9a bc 19 cc 99 3a 27 df 95 bd
       -0.090607636 -0.018900124 0.00117338 -0.073179536
0000f0 65 bd e6 bd 1a d5 1c be 47 04 80 bd 92 2e c4 3d
       -0.11266593 -0.15315667 -0.06250816 0.09579195
000100 00 b8 39 bd 51 32 b2 bc 26 f1 0d 3d 04 33 04 3e
       -0.04534149 -0.021752508 0.034653805 0.12910086
000110 e6 42 34 3d 73 7c 89 bd 3b 23 5a be 83 c5 9d bd
       0.04400911 -0.0671319 -0.21302502 -0.07703688
000120 a0 1c 2b 3e 1c d4 2b 3e f3 a7 2d bd fe 39 a9 3d
       0.16710138 0.16780132 -0.042396497 0.08263014
000130 d4 c0 6b bb 72 fe 6d bc 99 76 aa bc 33 85 54 bb
       -0.0035973089 -0.0145259965 -0.020808505 -0.0032428026
000140 5e 79 c5 3c 30 72 61 bd 9c 4f 0b 3e ce 64 37 bc
       0.024105724 -0.05504054 0.13604587 -0.011193467
000150 c3 c9 1f bd 95 48 12 be 20 13 4a 3e b8 53 50 bd
       -0.039010774 -0.142855 0.19733858 -0.05086109
000160 16 a1 cc bd 79 35 9e bc f6 4e c1 bc 1d 5d 92 bd
       -0.09991662 -0.019312607 -0.023597222 -0.07146666
000170 b8 4c 11 3e 3d a9 8b bc 22 d0 d6 bb 31 9c 89 3d
       0.14189422 -0.017048473 -0.006555573 0.06719244
000180 f8 59 60 bd 11 96 35 3e 65 b9 64 bd 0d f0 c4 3d
       -0.0547733 0.17733027 -0.05584087 0.096160986
000190 57 35 aa 3d 58 99 0d bd 18 ef 6b bd 16 ab 35 3d
       0.08310955 -0.034570068 -0.057601064 0.044352613
0001a0 78 56 bd bd 84 11 2a 3e 76 68 80 3d 37 42 3f bd
       -0.09245008 0.16608244 0.06269924 -0.046694007
0001b0 81 e3 da 3c f9 0f 5f 3d 11 4a 70 be d8 5c a8 bd
       0.02671981 0.054458592 -0.23465754 -0.082208335
0001c0 2c 9c 04 3c 0c 63 aa 3c 7c 73 14 3d cd 9e 8a bd
       0.008093875 0.020799182 0.036242947 -0.0676857
0001d0 85 b3 2e 3d 9a a7 6f bd 88 58 d8 3d bb 6c 0a be
       0.042651672 -0.058509447 0.10563761 -0.1351804
0001e0 ea 52 6a 3c f9 0c c8 bd 1d 73 ff bd 06 de 87 bd
       0.014301995 -0.09768099 -0.12473128 -0.066341445
0001f0 5b 28 e7 bd f8 ab 04 be 01 09 af bd 0b e3 f2 bd
       -0.11286994 -0.12956226 -0.08546639 -0.11859711
000200 5d af e4 3c 97 9e 82 3d 6a 5f b9 bd 6d c9 d3 3d
       0.027915651 0.06377905 -0.09051402 0.10341153
000210 55 11 ae 3c a8 c5 b7 bd c9 60 22 bd 4e f9 01 3e
       0.021248499 -0.08973247 -0.039643083 0.12692758
000220 e3 30 b8 3d ab 0e 88 bd d7 39 22 3d 46 35 09 be
       0.089936994 -0.06643423 0.03960594 -0.13399228
000230 ac 89 cb 3d eb da f8 ba 5d 39 94 3c 7b 84 c4 3d
       0.09938368 -0.0018986141 0.01809376 0.09595581
000240 44 bd 2e bd 5c a1 39 bd 27 bd 63 bd 52 87 d3 3d
       -0.042660967 -0.0453199 -0.05560031 0.10328545
000250 93 5a 07 3e 51 08 a1 3d 05 71 40 3d aa 41 02 bb
       0.13218145 0.07862914 0.046982784 -0.0019875565
000260 d3 7c 4f bd cb d3 5d bd d4 16 54 bd 20 ad c4 3c
       -0.05065615 -0.05415706 -0.051779583 0.024008334
000270 b1 32 89 3b ec 1d 2c 3e 5e 94 c7 b9 3f 6e 21 3d
       0.004186951 0.1680829 -0.0003806678 0.03941178
000280 85 89 a1 3d 64 17 ca 3d 41 25 e1 bd 8f b0 da 3c
       0.07887558 0.09867743 -0.10993434 0.026695518
000290 45 f1 de 3d ce 6f 13 3d 23 d2 1b 3d 38 3d b2 3d
       0.10885862 0.035995297 0.0380422 0.08703083
0002a0 c4 88 22 3e 3b df cc bd 5b 75 07 3e b9 ea b4 3d
       0.15872484 -0.10003515 0.13228361 0.08833832
0002b0 4c cf f2 bd 55 ff 4f bc 91 b3 20 3c fb 2d 93 bd
       -0.11855945 -0.012695153 0.009808437 -0.071865045
0002c0 b3 4e c3 bd f6 b8 26 be 50 29 3d 3d 66 ca 8d 3c
       -0.09536495 -0.16281494 0.046181977 0.017308425
0002d0 6e 75 b1 3d e4 cb 93 bd a9 3f 95 3d ea cb 30 3e
       0.08664976 -0.072166234 0.07287533 0.17265287
0002e0 a9 03 05 bd 1a f1 4f 3e a7 2f b6 3d c4 06 15 3d
       -0.032474194 0.20306817 0.08895808 0.036383405
0002f0 d8 73 da bd e2 aa f7 bd 57 af dd 3d 32 27 20 3d
       -0.10666627 -0.1209314 0.10824459 0.03909988
000300 a8 33 09 bd 41 54 92 bd 45 33 b8 bd 75 64 c2 bb
       -0.03349653 -0.071449764 -0.08994154 -0.0059323856
000310 9a 83 fe 3d f8 e2 5a 3d 8f d7 c6 bc 73 dd 35 be
       0.12427445 0.05343911 -0.024272708 -0.17760257
000320 4a 21 26 3e e7 86 c6 bb 0d a5 c4 bc 28 1a 8d bd
       0.16223636 -0.006058562 -0.024004484 -0.068897545
000330 c0 45 6f bd 23 71 8b bb 60 97 2c 3e 76 48 af bd
       -0.05841613 -0.0042554303 0.1685462 -0.08558743
000340 8b f7 4d 3d 35 57 0d 3d 02 50 b9 3d e2 8a 92 bd
       0.050284903 0.034506995 0.090484634 -0.07155396
000350 c6 67 35 3e ec 77 a6 bd c8 59 0d 3e db 45 3b 3d
       0.17715368 -0.08128342 0.1380378 0.045720916
000360 b3 69 da 3b 53 fe 1d 3e b3 c8 e8 3c f3 2a b3 bd
       0.0066654324 0.15429048 0.028416013 -0.08748426
000370 6b e9 5a bd 52 ec 8b 3d 64 89 da bd bc 2d ae 3d
       -0.05344526 0.06832184 -0.106707364 0.08504817
000380 02 e8 85 bd 3b eb 5a 3d 66 fc db bc b2 22 96 3d
       -0.065383926 0.05344699 -0.026853751 0.07330836
000390 50 e3 bc bc 37 d7 55 be 7f 57 bd bd 5c a4 9c bd
       -0.02305761 -0.20882879 -0.09245204 -0.076485366
0003a0 d3 18 87 3d ab e2 61 3e 4e 35 41 3c e3 54 66 3d
       0.06596532 0.22059123 0.011792494 0.056233298
0003b0 d4 52 77 3e 0e 30 ee 3b 03 23 17 3c 6e f4 b3 bd
       0.2415269 0.007268912 0.009224656 -0.08786856
0003c0 b5 06 15 3c f3 3d 2d 3d c3 bc c7 bd 1c cb 2c ba
       0.009095837 0.042295408 -0.097528 -0.0006591545
0003d0 af 01 1f 3e 04 a2 10 3e 85 a1 b6 bd cc 17 e8 bc
       0.15527986 0.14124304 -0.08917526 -0.02833166
0003e0 d6 4c 99 bb c4 11 8a 3e b3 0c ac bd ae b7 73 bd
       -0.004678349 0.2696668 -0.0840086 -0.059501342
0003f0 8d 7c d3 bd c8 3e 70 bd 52 a1 5a 3d 54 db 9b 3d
       -0.103264906 -0.058653623 0.053376503 0.07610193
