results/SnakeAgent/SnakeAgent/SnakeAgent-10724.onnx (onnx, 77659 bytes, 6 tensors)

network_body._body_endoder.seq_layers.0.weight f4 [128, 7]
00000000: 6795 063f 6a9f 5cbd 2faf 60bf 8fee 113d
00000010: 92b0 30be 6ed4 a7be 69b1 b03d a4a8 98bf
00000020: bcb7 193f ad45 eabe 40d1 57be aed1 79bd
00000030: 1e6e 763e f3f4 193e 9daf 983f d61f 9d3e
00000040: 361e acbe 955a 9fbe 6800 403e 1d9a 3bbe
00000050: 0efd 2bbd 9e0c 023e 1410 91bd a490 033f
00000060: c44c 2c3e 872e 29bf 622b 373f b5ca 1abf
00000070: e4d8 8cbd 0800 38be 439c af3e 2f4f 993e
00000080: d1ca 81bd ab56 42bf f966 7b3e fdd8 acbd
00000090: 392f f2bd 8256 77be c464 1a3f 3321 6dbd
000000a0: 1f5f 683d 8917 f43e 31e7 ee3e df23 e0bd
000000b0: 8e2e 613f a450 e23e df07 3dbb e54d c7be
000000c0: 6a82 a43e 8ac9 7abe d4f9 0c3f 1bbf af3e
000000d0: c40e 5d3c eb11 57bf b4c4 c1be 4f57 68be
000000e0: a34c dd3e 777e b03e 46cd 9e3e 03b7 6fbd
000000f0: 92c5 d13d 0b2b 343e 63cd 343d d0ad 1e3e
00000100: 92bd 8dbe cb2f 0bbe 6c1f 5f3e 8e0a 1abe
00000110: fa89 babe 6043 c93d 809d 0e3e 551f 583f
00000120: 778a 83be 67f3 563f 52d4 c1be 1753 e33e
00000130: 89d6 d23e bebd 9d3e 878d ea3d 7152 5bbe
00000140: d9c9 82be 18ba 283d 5479 e83e fbc5 e43e
00000150: 3844 813e 66b1 253f 924c 7ebe 89ad 82be
00000160: b099 0fbe bdc9 343d 5f0a febd 7fc5 0cbe
00000170: 36e7 9f3e ea94 90bf 7b60 b1bd 86d4 813e
00000180: 0f9d 1d3e e114 083f b152 0dbe 676b 82be
00000190: 36a7 103e 0273 e03e 84d7 083f 22cd 82bf
000001a0: f898 47be c24a 1a3e 9f77 403f 424b ff3e
000001b0: 7e3c b23d e9ca 6cbe 60ef 43bf a166 3dbe
000001c0: 32fb a03d 2f65 c53b 2352 ba3e 18cd 873d
000001d0: 77f3 3ebf 6e97 9dbd d3f6 0ebf 030f 48bd
000001e0: 7d5d 81be 267b 01bf 8390 8a3c e81c 453f
000001f0: e05a 46be 67f7 d2be 30f2 353f 9c3f 9abe
00000200: 7580 593c 8056 4f3e b42d ca3d 5e79 7e3f
00000210: 680e aa3e 73a3 83be b6b3 6d3e c3d9 e63b
00000220: 7a00 5b3e 3e24 4c3e 2abf 89be 2a04 72be
00000230: 56f1 803e 8214 f1bd 3531 ea3e 7510 153f
00000240: bf10 c33e 0cd1 16be f5ed c2bd 10d7 97be
00000250: 8d50 bfbd cc85 103f 394c 003f 8c70 1fbe
00000260: eaa7 a8bd 28a2 843d 3d11 b0be 66fb c1be
00000270: 5441 ae3e 7c4e 37bf 6e35 8cbe 7161 29bb
00000280: dd5d a5bd 31a4 bfbe 5a5b ac3e 3282 683d
00000290: 0ac6 643e 19d4 ca3e dd61 de3e b221 1b3e
000002a0: 02da 50be 3a7b 103f 3f4d 17bd c595 acbe
000002b0: f7be 06be 5367 11bf 49f9 273e 98fd e03d
000002c0: 47ab 9e3e 48cc 9cbe 1b87 03bf c2e2 94be
000002d0: 1c91 0c3f 50fb 3abe 1c67 973e 4b9e 033f
000002e0: 9b01 993e a4b5 41bf 85c2 f03e 29b4 033e
000002f0: 4d27 5c3f a8e7 e03d 8d0c dfbe b99c b23e
00000300: 9fb1 d1bd e950 873e 7a5a e3be 3cbd 8bbb
00000310: 11a0 463d 0a36 e33d 94be 293f 10ea bbbe
00000320: 2182 373f 77ac 5b3e c594 2d3f cf08 013f
00000330: 4207 32be 73d1 993e fbe3 763e 3e48 f53d
00000340: 86c3 50bd 048b 96bc 4387 b03e 2adb f5be
00000350: 846f 60be dbc5 d13e 80d7 e93d 190e 5a3e
00000360: 1f9d a63d a3cb 8c3c a1f3 393d 248b 40be
00000370: 8f62 2ebf 3fc0 263e ddd1 edbd bdf5 b93d
00000380: 6de8 7abe 6777 f53d ab23 c43e 7c01 b4bd
00000390: 9f31 c43d 1294 72be 3d43 a23d 2717 343f
000003a0: 81af 453f 9e5e 433e ecac 58be 0794 edbd
000003b0: c1d9 aebc a7cd 053f beae 67be 2a1a 03be
000003c0: 6972 3cbe 9c4c 96be db5f ce3e bd09 7c3d
000003d0: daf2 813e 84d9 cbbe 94b0 753f 9ec3 e8be
000003e0: bbd5 193f 43a0 0b3f c71f ae3e 41db 6d3e
000003f0: 99c2 713d 0946 2cbe d8ff f7be 4e66 323f
0.5257172 -0.053862967 -0.8776731 0.035627898 -0.17254856 -0.32779258 0.08627588 -1.1926465
0.6004598 -0.45756283 -0.21075916 -0.06099098 0.24065444 0.15034847 1.1928593 0.3068835
-0.336168 -0.31123796 0.18750155 -0.18320508 -0.04198938 0.12700126 -0.07083145 0.5139258
0.16826159 -0.6608662 0.7155057 -0.60465556 -0.06877306 -0.17968762 0.34298906 0.29943225
-0.06337512 -0.75913495 0.24551 -0.08439825 -0.11825413 -0.24154094 0.60310006 -0.05789299
0.05673134 0.47674206 0.4666076 -0.10944342 0.8796166 0.4420215 -0.0028843803 -0.38926616
0.32130748 -0.24490944 0.5506871 0.3432549 0.01349229 -0.84011716 -0.37845385 -0.22689556
0.43222532 0.34471485 0.31015986 -0.058524143 0.10242762 0.17594545 0.044141185 0.15495992
-0.27683693 -0.1359245 0.2178933 -0.15043089 -0.36433393 0.09827304 0.13927269 0.8442281
-0.25691578 0.8396515 -0.378573 0.4439933 0.41179302 0.30808824 0.114527754 -0.21418168
-0.25544623 0.041193098 0.45405066 0.44682297 0.2524736 0.64723814 -0.24833897 -0.25523022
-0.14023471 0.044137705 -0.12404322 -0.13747214 0.31231087 -1.1295445 -0.0866098 0.25357455
0.15391944 0.5315686 -0.13801076 -0.25472566 0.14126286 0.43837744 0.5345385 -1.0218852
-0.19491947 0.1506758 0.7518253 0.49862105 0.08702944 -0.23124279 -0.7653713 -0.18496181
0.07860412 0.006024025 0.3639079 0.066309154 -0.7459025 -0.076948985 -0.55845374 -0.04884244
-0.25266638 -0.50578535 0.016914612 0.7699723 -0.19370604 -0.41204378 0.71072674 -0.30126655
0.013275255 0.20247841 0.098719984 0.9940394 0.33214116 -0.2571064 0.23213086 0.007045002
0.213869 0.199357 -0.2690366 -0.23634401 0.25184125 -0.1177149 0.45740667 0.58228236
0.38098714 -0.14728183 -0.09518043 -0.29656267 -0.09341536 0.5645416 0.50116307 -0.15570277
-0.08235152 0.06476241 -0.34388152 -0.37887114 0.34034216 -0.7160413 -0.27384514 -0.0025845433
-0.080745436 -0.37429956 0.33663446 0.05676479 0.22341171 0.39614943 0.4343404 0.15149572
-0.20395663 0.5643803 -0.036938902 -0.33708015 -0.13158785 -0.56798285 0.16403688 0.10985869
0.3099005 -0.30624604 -0.5137803 -0.29079252 0.5490892 -0.1825993 0.29570854 0.5141341
0.29884037 -0.75667787 0.47023407 0.12861694 0.8599747 0.10981685 -0.43564263 0.34885195
-0.10238957 0.26428917 -0.44404966 -0.004264502 0.048492495 0.110942915 0.66306424 -0.36702013
0.71682936 0.21452509 0.6780513 0.50404066 -0.17385581 0.3004261 0.24110405 0.1197667
-0.050967716 -0.018376835 0.34478197 -0.4801877 -0.2191754 0.40971264 0.114180565 0.2129444
0.08135437 0.017186945 0.04539836 -0.18803078 -0.6811914 0.16284274 -0.11612294 0.09080074
-0.24502726 0.11985665 0.38308463 -0.087893456 0.09579777 -0.23689297 0.07922981 0.7034783
0.7722092 0.19079062 -0.21159714 -0.116004996 -0.021344068 0.52266926 -0.22625253 -0.1280295
-0.18403019 -0.29355323 0.40307507 0.061532725 0.25380594 -0.3981439 0.9597256 -0.45461744
0.6009175 0.54541415 0.3400862 0.2322817 0.059023473 -0.16823591 -0.4843738 0.69687355

network_body._body_endoder.seq_layers.0.bias f4 [128]
00000000: 91db af3c 443a 2f3d cbbe 993b 3df8 c63c
00000010: e605 8f3d d77d e53c 54a6 d13c 6505 ce3d
00000020: 80fd 033b 9e27 00bc ecce 793d fccb 163d
00000030: 7087 c5bb 8a79 623d 18c7 323d 9842 b23d
00000040: ee49 b03c 0047 d5bb 44cc 1f3d 93c2 273c
00000050: 8ba8 1b3d 60dd 353d a2e7 523c a586 013d
00000060: 2156 363c 0fdf 943d f83e 31b7 ee45 663d
00000070: 988c d23c 0f20 363c 7deb c43c 137d 273c
00000080: 68a1 713d 62d1 f03c f3eb b03c f487 6e3d
00000090: 1638 0b3c 3061 aa3c ae4b 35bc 08ca aabc
000000a0: 9d58 153d b6f7 473d 88c1 7d3d ae84 133d
000000b0: 15b9 183d 0a96 633c 5f4f 813c 1d0e 49bd
000000c0: 01ef edbc e255 8f3d c751 1c3d 3808 c4bb
000000d0: 356c 193d 86f2 78bb a91b bf3c 202e 6e3d
000000e0: 2b27 643d 4caf f73c 09c7 ac3c 3106 ad3d
000000f0: 653a 1ebd 151a b2bd dcf2 543c b30d 2c3d
00000100: ca77 e7bc 938c 9a3d 89b1 d53c a922 1b3d
00000110: 9149 183c 3007 fe3c f660 063c b71e 4d3d
00000120: 0331 813c 30c2 523d 108a 1fbb f4a5 813b
00000130: ea00 aabc b1bf 2d3c 7358 fe3c 6fc8 a83c
00000140: ea0f 39bd 4bbc 5b3d 6406 43bc 1af4 883c
00000150: 035b 333d bff2 b53d 5958 29bb 6b8d 8e3d
00000160: 8c8a e53d 6fc9 a2ba c8c9 d13b 6f5b 97bc
00000170: 9cf4 82bd 0802 8d3d 269c 4c3d 5885 1f38
00000180: 2754 413d 5b01 4abd f96f 903d 9503 3fbd
00000190: 4d92 483d c518 413c ca1c 2fbb 0bf0 893c
000001a0: 1083 b13c 03fa 37bc c29a 54bc 3088 c53c
000001b0: 9686 a7bc 3808 a23b 897b 393d ecf0 cc3c
000001c0: a80d 373d b7f1 1e3d a561 563d f9a9 723d
000001d0: 71f2 913d 7cce 103d 6f8b 333d 80d6 f93b
000001e0: b7aa 553d 9e0f 35bd d239 e7bb a13f 9539
000001f0: b1d1 a1bc 8f82 18bb e013 cd3b 0055 1cbc
0.021467002 0.042780176 0.0046919337 0.024288291 0.06983547 0.028014107 0.025592007 0.10059623
0.0020140111 -0.0078219455 0.06098835 0.03681563 -0.0060281083 0.05529169 0.0436469 0.08704108
0.021519627 -0.006508708 0.039013162 0.010239261 0.038002532 0.044400573 0.012872608 0.031622548
0.011128933 0.072691076 -1.0564683e-05 0.056219034 0.025701806 0.011116042 0.02403807 0.010222691
0.05899182 0.029396717 0.021596884 0.058235124 0.008497259 0.020798296 -0.011065407 -0.02084829
0.03646146 0.04882022 0.061952144 0.036015205 0.037285883 0.013890753 0.015784917 -0.049085725
-0.02904463 0.06998803 0.038163926 -0.005982425 0.03745671 -0.0037986352 0.02332862 0.058149457
0.055701416 0.030234955 0.021091001 0.084484465 -0.038629908 -0.08696381 0.012997355 0.042005252
-0.028255362 0.07546344 0.026085632 0.03787485 0.009294883 0.031009287 0.008201828 0.05007812
0.01577044 0.051454723 -0.0024343766 0.0039565507 -0.020752389 0.010604785 0.031048035 0.020603387
-0.045181192 0.053646367 -0.011903379 0.01671796 0.043787967 0.08884191 -0.0025840013 0.06960567
0.11208066 -0.0012419651 0.006402228 -0.018476216 -0.06394312 0.06885153 0.049953602 3.803274e-05
0.047199395 -0.0493177 0.07052607 -0.046634275 0.04896765 0.011785691 -0.002672004 0.016838094
0.02166894 -0.011229041 -0.01297635 0.02411279 -0.020449918 0.0049448274 0.045283828 0.025017224
0.044690758 0.038804736 0.052339215 0.05924413 0.0712632 0.03535317 0.043834146 0.0076244473
0.05216476 -0.044204347 -0.0070564533 0.00028466902 -0.019753309 -0.0023271178 0.006258473 -0.00954175

network_body._body_endoder.seq_layers.2.weight f4 [128, 128]
00000000: d8f6 14be 1456 88bc 2dce 16be 8a35 e0bd
00000010: b651 63be 2259 45be 0ecb bfbc 083d b8bc
00000020: f526 8d3d 025d 85bd bac2 4bbe 3f17 0d3d
00000030: cecf 6639 1628 d1bc ef2b cdbd 9d34 02be
00000040: aa7b 15be 5983 2e3c c392 ecbc 49c0 c2bc
00000050: 7de6 4bbd a6fb 64bd 2a9f 9a3d 2ed7 a43d
00000060: b03c 24be 2980 c5bc 971d 1f3e 7fc4 1bbd
00000070: 960b d63d 583d 4c3c be7b 453c d277 2fbe
00000080: c209 b73d 39fd 173d dbd4 9cbd c182 4e3d
00000090: 35ea 0fbe ff5d 873d abb2 80bd 4121 6bbc
000000a0: 9ea0 c23d 0466 e13c 2dbd dcbb 029f 35be
000000b0: e412 733d cd7f b5bd c49e b43c 7c67 42bd
000000c0: 9175 8c3d 5d78 723d 7533 44bd 1dcf 10bd
000000d0: 4102 b83d 8b57 133e 75f7 d53d 14f8 4b3d
000000e0: ab97 173b f7b8 f2bd ff9b 163e c329 9ebd
000000f0: 7539 483c e009 eebd e947 b23d 4fdc 803d
00000100: 750e 31bd f9be bfbd 136c f43c c960 673d
00000110: af40 da3c 226b 80bc 448c c7bd 45c2 8cbe
00000120: 5103 533c 2299 d43c 3807 1cbd 5f32 523d
00000130: b11a 01be afc2 e1bd 3b8c 4abe da90 1fbc
00000140: a318 03bd 5b7d 4c3c 9867 a0bd 0298 cd3c
00000150: 312c 2bbd 3ca1 3b3e c6e6 b9bc fa9c ce3d
00000160: f7b6 063e 7c9d b13d 8873 84bd 0e36 a93d
00000170: 7729 9cbd 4841 083e af62 9abc 052c a93d
00000180: be2f 90bc 2744 dd3d 22ff dbbc 39c6 d13d
00000190: c505 0bbd 7705 a6bd 9c0c adbd 9b99 363d
000001a0: 3b46 5a3d 8f67 18be 0ff3 7a3d 05a7 5b3d
000001b0: 337a e93d 91f3 50be e84c b53c adad c83c
000001c0: 2b7c 1b3e c542 253c 07c6 1f3d d589 263e
000001d0: bf11 053e 02fc e53d b82c 67be 124c 90bd
000001e0: 0d97 5cbd a1f9 233e daf5 313e eb7c dabd
000001f0: 49b6 403d 92d8 abbd 597b f9bc 64e4 42bd
00000200: 6606 f73d 0902 763d 3d0f 72be 4711 f23c
00000210: da15 38bd 35d0 4a3e f477 56bd 9835 16be
00000220: a4d3 1dbe 8db7 303c 434f 32bd 9520 dd3d
00000230: 1b74 f0ba 26ee 343d 2777 a33d bbf0 cbbd
00000240: cdc1 4bbe 400d 8a3d 21c1 bc3d 6b70 8bbe
00000250: 94dc 2c3d 9117 68bd d894 003e 69a0 113e
00000260: 1926 cd3d 3bda 803c 9900 f5bd f487 72be
00000270: 10ea d6bd 6a42 d33d 3c6f 5f3e b553 b5bd
00000280: 6df0 5dbc de7c ecbc d4ca 41bb 0e9e a83d
00000290: 69f2 90bb 7ef4 9abc bd63 bdbd e3b1 483d
000002a0: cdd0 7f3d e9d9 2ebc feca 293a 8ba9 4e3d
000002b0: 28b6 8d3d a257 113e 9474 10bc cfdf fa3a
000002c0: cb9a b5bd 11db 793c ec17 5fbd 10a0 a6bd
000002d0: 4c85 29bd 8393 2b3c 48b8 983d 5b9e 27bd
000002e0: 287a 263c eeae 713d b877 833d 4f2a 933d
000002f0: f866 37bb c702 43bd 254e 1bbe d476 363e
00000300: ef27 aa3d 502b debd f2f9 aebd c53c d53c
00000310: 5cf9 21bb a9ea 393e f778 fe3c 63da 24bd
00000320: fc28 89bd cfe7 02be 372e 203d 1204 83bd
00000330: efc0 223e 0663 a23d 6fec 343d 48b7 0cbe
00000340: fd6b 43be 8fd7 cbbd 0054 96bd 0d37 8d3b
00000350: c09c 0d3e 039b 423e 7347 13bc 21d5 2dbd
00000360: 3966 96be 22b4 893d 62ce 9ebd 95c9 063b
00000370: f19a 9a3c 56ac f13d a1bf 0f3d a087 1a3d
00000380: 0de8 913d 5c0f 31bd d6fe 0abd 6943 4fbe
00000390: 94dd 03be ac35 e6bd 74a4 c4bb 26d4 52bd
000003a0: 8c38 9d3d 6807 26be 7c23 2cbd c49e 13bd
000003b0: 598d b83d 727a 953c b8cd e2bd de16 133e
000003c0: 5aba ac3d 4db0 6b3d c6cf 1c3e 7dd5 7fbd
000003d0: f755 b83c e743 973c df1e 453e 0e5e 433b
000003e0: c25e 64be 4477 33bd c3d6 c4bd f892 0dbc
000003f0: 22f2 6b3c a27d cabd 628b 083e 5cfd 63bc
-0.14547288 -0.016642608 -0.14727087 -0.10947712 -0.22199139 -0.19272283 -0.023412254 -0.02249004
0.06892196 -0.065118805 -0.19898501 0.034445997 0.00022011923 -0.02553181 -0.10018145 -0.12715383
-0.14597955 0.010651433 -0.028878575 -0.02377333 -0.049780358 -0.055904053 0.075498894 0.08048855
-0.16038775 -0.024108963 0.15538631 -0.03802919 0.104514286 0.012465797 0.012053428 -0.17135552
0.08937408 0.037106726 -0.076577865 0.050417665 -0.14054187 0.06609725 -0.06284078 -0.01435119
0.095032915 0.027514465 -0.0067364187 -0.17736438 0.059344187 -0.08862267 0.022048362 -0.04746197
0.068583615 0.05919682 -0.047900636 -0.03535377 0.08984805 0.14388864 0.10447589 0.049797133
0.0023131173 -0.118516855 0.14707945 -0.07722809 0.01222073 -0.11622977 0.08705122 0.062920205
-0.043226678 -0.09362597 0.02983669 0.056488786 0.026642172 -0.015676085 -0.097435504 -0.27491966
0.012879209 0.025951926 -0.03809282 0.05131757 -0.12607838 -0.11023461 -0.19780056 -0.009739125
-0.032005917 0.012481059 -0.07832259 0.025096897 -0.04179019 0.18323225 -0.02269305 0.10088535
0.13155733 0.08672616 -0.06467348 0.08262263 -0.07625096 0.13306153 -0.018845884 0.08260349
-0.01760089 0.10804015 -0.026855055 0.10242886 -0.03394105 -0.08106511 -0.08449671 0.044580083
0.053289633 -0.14883254 0.061266955 0.05362608 0.11400261 -0.20405413 0.022131398 0.024496878
0.15184085 0.01008672 0.039007213 0.16263516 0.12995051 0.11229707 -0.22575653 -0.07045759
-0.05385499 0.16013195 0.17378941 -0.106683575 0.04704884 -0.08390917 -0.030454325 -0.04758109
0.12061767 0.060060535 -0.23638625 0.029549254 -0.044942714 0.19805987 -0.05236049 -0.14668882
-0.15412766 0.010785949 -0.04353262 0.1079723 -0.0018345149 0.04417243 0.07981711 -0.09958025
-0.19898148 0.067408085 0.09216524 -0.27234206 0.042202547 -0.0566631 0.1255678 0.14221348
0.10017032 0.01572906 -0.119630046 -0.23684675 -0.10493863 0.10315402 0.21819776 -0.088538565
-0.0135460915 -0.028868135 -0.0029570358 0.082332715 -0.004423429 -0.018915411 -0.09247539 0.04899777
0.062454987 -0.010672071 0.00064770866 0.050454658 0.06919509 0.14193586 -0.008816857 0.0019140186
-0.08867415 0.015249983 -0.054466173 -0.08135998 -0.041386887 0.010472181 0.07457024 -0.040922504
0.01016096 0.059004717 0.06419319 0.07185804 -0.0027984958 -0.04761007 -0.15166529 0.17818767
0.08308398 -0.10848105 -0.08543767 0.026029954 -0.002471528 0.18155922 0.03106354 -0.040247332
-0.0669727 -0.1278374 0.039106574 -0.06397261 0.15893911 0.079290435 0.044170793 -0.13741791
-0.19084163 -0.09953224 -0.073402405 0.004309541 0.13829327 0.19004445 -0.008989203 -0.042439584
-0.29374865 0.06723811 -0.07754208 0.002056693 0.01887271 0.118004486 0.03509486 0.037727
0.07124338 -0.04322754 -0.033934437 -0.20240559 -0.12877494 -0.11240706 -0.0060010497 -0.05147185
0.07676801 -0.16213763 -0.042026028 -0.036040083 0.09011335 0.018246863 -0.11074394 0.14364192
0.08433981 0.05754118 0.15313634 -0.062459458 0.022501929 0.018464996 0.19250058 0.00298107
-0.22301772 -0.043814912 -0.09611275 -0.008640997 0.014400991 -0.09887244 0.1333442 -0.013915386

network_body._body_endoder.seq_layers.2.bias f4 [128]
00000000: 5d13 a7bc 6cb6 7b3d b955 dc3c e189 893c
00000010: 3a84 54bc a912 853c 1822 ca3c a29b 133d
00000020: 128e b63b 04a8 853d 838d 173c 9297 2d3c
00000030: 1230 1b3c 994e 363d 426f a4bc 2907 003d
00000040: 0303 9d3c 326f b43c 6bb4 793c 54e8 613c
00000050: 49be 653c d1d1 feba 0201 ad3c 3275 933c
00000060: aca4 373d 67e0 14bd e3ad 87bc 9b33 9b3c
00000070: 9fc6 463d 406f 58bc 669a 033d a0f0 563d
00000080: 7aff 3f3d 812f 753c d21a ad3c 487a 903d
00000090: 9917 113d 8cd8 363d f0b3 4dbb 43b0 273d
000000a0: e330 0b3d 434c 03bb 9387 333d 7843 e43b
000000b0: 5979 c43c b825 163d be15 113b 84a8 43bc
000000c0: d176 0d3d 5c05 0d3d 496b f0b9 6e81 183d
000000d0: 311b 903d 9379 4f3d ade4 193c 500b 3e3c
000000e0: d4fd 243d 0277 433d 9171 c43b c7ff 833d
000000f0: 1b9f a93b 2165 3a3d 3179 04bb 0ffc ec3b
00000100: 7604 943c 9228 153d e8bc 803d b73f 68bc
00000110: fe13 3c3d 61a8 d6bb 4c41 ae3b b0e1 813c
00000120: b906 b03c 2723 0e3d 9338 f0bc fead 733c
00000130: 10f2 023d 8eb5 9cbb fcfd 8b3d de7d 1d3d
00000140: 421b 653d 4839 e03c ef24 433c 5807 00bc
00000150: d6b3 433d 9278 ff3c d1aa 10bd ed89 663d
00000160: 393d c93c 1113 923b a3f3 1a3d 6c59 a53b
00000170: 4c94 d93b 9eb4 a83c d607 00bc e40f 843d
00000180: 7bbc 023d 35cf 4a3c 19b3 683d e84b cabc
00000190: 5509 5d3c 8c39 503d 0efd 8b3c 30da 5ebb
000001a0: 2307 363d 2201 7bbc e172 8c3b a50b 3b3c
000001b0: e9b2 fc3c 8c9e c73a b624 af3c db05 47bc
000001c0: 9c9c 583d 5535 f9ba 3fe7 393b 6548 753c
000001d0: 7733 03bd a75b 213c 76b7 ca3c cf7f 2c3d
000001e0: c01a 023d 5821 153d dd22 153d 32de ea3c
000001f0: 5874 5a3d 94c4 183c 5734 383c 5fce f03c
-0.020394975 0.061453268 0.026896344 0.016789379 -0.012970978 0.01624425 0.02467446 0.036037095
0.0055711353 0.06526187 0.009250048 0.010595219 0.00947191 0.04450855 -0.020072583 0.03125683
0.019166475 0.022025678 0.015240769 0.0137883015 0.014022418 -0.0019441192 0.021118645 0.018000219
0.044834778 -0.03634682 -0.016562408 0.018945506 0.048529264 -0.013210118 0.032129668 0.05247557
0.0468745 0.014964939 0.021130953 0.07054573 0.035422895 0.04464011 -0.0031387769 0.04093958
0.03398217 -0.002003447 0.043830466 0.0069660507 0.023983644 0.036657065 0.0022138203 -0.011942033
0.03453714 0.03442894 -0.000458563 0.03723281 0.07036436 0.05065305 0.009392899 0.011599377
0.040281132 0.047720917 0.0059949835 0.0644527 0.0051764376 0.0455066 -0.0020213837 0.007232196
0.018068533 0.036415644 0.06286031 -0.014175347 0.045917504 -0.006550834 0.0053178426 0.015854686
0.02148758 0.034701493 -0.029323852 0.014873026 0.03196913 -0.004782385 0.06835553 0.038450114
0.0559342 0.027371064 0.011910661 -0.007814251 0.047778927 0.031185422 -0.035319153 0.05628388
0.024565326 0.0044578393 0.037830006 0.0050460603 0.006639993 0.020593937 -0.007814368 0.064483434
0.03191803 0.012378504 0.056811426 -0.024694398 0.013490994 0.05083613 0.01708844 -0.0034004562
0.0444404 -0.015320094 0.0042861556 0.0114163505 0.03084703 0.0015229746 0.02137981 -0.012147392
0.05288373 -0.0019013087 0.0028366593 0.0149708735 -0.032031503 0.009848512 0.024745684 0.042114075
0.031763792 0.036408752 0.0364102 0.028670404 0.05333361 0.009324212 0.011242948 0.02939528

action_model._discrete_distribution.branches.0.weight f4 [5, 128]
00000000: 2132 123c 880b 59bd 14be c0bb 4945 62bc
00000010: d741 df3c 20ed b5bb 5e55 a9bc 8ede a1bc
00000020: 75c9 98bc 9aaa 3ebb c9d0 8c3b 500a 17bd
00000030: c9cf 6fbc 5705 bebc 5f5b 88bb 38e2 8fbc
00000040: e14e 08bd 86e1 66bc 0343 d8bc f34a 33bc
00000050: c202 8b3c c329 87bc 7595 d9bc 24ce da3c
00000060: 911e 1dbd 430b a93c 28e1 1d3d 8c2a 29bd
00000070: a36a 12bc b9ec be3b 4605 e8bc b5d9 0bbd
00000080: 5525 1cbd 6c74 f2ba 097c 15bc f538 c2bc
00000090: 6872 0dbc 6984 d9bc d627 dc3b 464f 9ebc
000000a0: 6317 72bc 3f38 53bc 4681 74bc 14b3 99bc
000000b0: ff37 fdbc 7014 9c3b 7cda e2bc 350c 583d
000000c0: cef3 afbc c080 debc f487 ffba 07f0 a5bc
000000d0: c5e7 72bd c95f 58bd 5a45 dbbc 8613 9abc
000000e0: b0ab 4abd b9b3 0bbc 984f 37bb 1575 58bd
000000f0: 1655 72bc 18bd b5bb 2692 7cbb bb5b 65bc
00000100: eb82 143d 7cc1 ccbc b6ce 7ebd 420c 683d
00000110: 1db7 99bc 9470 933c 0d86 873b e0b7 82bc
00000120: 63b5 c83c 9c00 09bd 9550 463c 23c8 55bc
00000130: df12 38bd 0ece 95bc b683 71bd 325d a1bc
00000140: ec68 40bd c733 93bc 0cf5 37bb 2472 143c
00000150: 74c7 3cbd 2ac9 9dbc 8e81 2a3d 6523 01bd
00000160: c056 20b9 0f5c 19bc bdb4 15bd 26d4 01bc
00000170: 7174 a7bb 4751 a3bc c7a0 6bba 0044 6bbd
00000180: 5c5b 87bd 6e86 7fbc f92f c3bc 47b7 8e3c
00000190: 95f2 59bc 465a 7b3c 15ba 1f3c 3ae0 d23c
000001a0: 193d 6dbd 1039 df3b ae31 a43b 3594 a5bc
000001b0: 50b2 97bc 3e8c 5bbc e82e efbc ad4c 403b
000001c0: 8391 63bd 4f4a 70bb 924c 243c 6c88 d3bc
000001d0: ae80 8d3c 4071 d1bc a739 3abd cc93 aebc
000001e0: 5f90 5ebc b13b bebc 2ee1 46bc 2945 9bbb
000001f0: b92e 0ebd 5d75 d8bc 2669 5b3c 1f00 17bc
00000200: 7ecb a83b b918 ffbc 1438 f53c 108a 1a3d
00000210: ae93 15bb f6bc 13bd 1265 a53b 6540 613d
00000220: 6db2 a4bc 21ec 833d 31aa 0f3d 04d6 bcbc
00000230: 2f84 9abc 730c 683c 1145 043c a538 143d
00000240: a3a8 753b c2f3 9dbc d492 8dbc ba14 a43b
00000250: e678 c9bb 318d 3cbc 9f4b 23bc 1b35 93bb
00000260: e7f9 653d 417b 8cbc 30c2 9fbc a15c 093c
00000270: 8a00 8b3d efd5 a93c 72bc 433d fa94 70bd
00000280: f789 323d 4723 ce3b 37c3 993c 4185 b13d
00000290: 38a8 2c3d 1507 93bd 325c 1bbc 6796 583d
000002a0: e43f 523d f163 deb8 732e 8f3d e3fb ef3c
000002b0: 4853 ae3b c5e3 543c 0f4e 50bb 6992 e0bc
000002c0: 47d8 78bd 5538 293d 7fee c9bc bf09 56bd
000002d0: c8df 01bd a197 66bd 4506 e3bb a61c 11bd
000002e0: 1db2 0e3d 053d e83c a0fe f9bc aa67 233d
000002f0: 54db bb3c 768c c13c 0350 d63b 1930 54bd
00000300: 970a 473c 67cb 4dbd 7cde 653d e1b2 abbc
00000310: 9447 b83c 40c4 66bb 0fbe ceba 1dba 033d
00000320: 1382 9bbd ea6e 2bbc 57e8 e03a 7061 be3c
00000330: 1a32 103c cbe7 9a3c e15a 51bd c176 f73c
00000340: 5ab7 003d 6e2e ccbc ea1c c83b 43b3 35bd
00000350: 4ffd 893c 60d1 293c d029 89bc f9d5 cc3c
00000360: bb28 30bd 2ffd 683c 3b8e 723b ba1a 873c
00000370: 8df1 853c e897 c23b 8b59 1c3c 5c48 703d
00000380: 94fb 233d 56ce f9bc 0fa9 52bc 1d19 16bb
00000390: 8be6 e1bc 1d39 873d 5c03 3cbd 2fae 24bd
000003a0: d853 cbbd 979d 75bb a802 783c a14d 033d
000003b0: a742 f93c 57b1 a93b a7e9 cf3c e705 3cbd
000003c0: 5426 53bd 81b9 edbc 082a 87ba 5696 9d3c
000003d0: 6a6e 5cbc edda cd3c f9f7 803b 2bd7 1fbd
000003e0: 0821 da3c 32b5 993d 0f5f 793c a8cd 3abd
000003f0: e30b 363d fef7 44bd db4e e63c 4ea5 9cbd
0.0089230845 -0.052989513 -0.005882034 -0.013810464 0.027253075 -0.005551949 -0.020670589 -0.019759443
-0.01865075 -0.0029093386 0.00429735 -0.03687507 -0.014636942 -0.023195906 -0.004161283 -0.017563924
-0.03327835 -0.014091855 -0.026399141 -0.010943162 0.016969088 -0.016499406 -0.026560524 0.026709624
-0.03835923 0.020635253 0.038544804 -0.04130034 -0.008936557 0.0058265594 -0.028322827 -0.03414317
-0.03812154 -0.0018497831 -0.009123811 -0.0237088 -0.008633234 -0.026552396 0.006718616 -0.01932491
-0.014776084 -0.012891828 -0.014923399 -0.018762149 -0.03091049 0.0047631785 -0.027692072 0.052746017
-0.02147856 -0.027161002 -0.0019495473 -0.020256056 -0.059303064 -0.052825723 -0.026766468 -0.018808138
-0.04948014 -0.008526736 -0.0027971026 -0.052846033 -0.014790794 -0.0055462234 -0.003853926 -0.013998921
0.036257666 -0.024994604 -0.062208854 0.056652315 -0.018764073 0.017998017 0.004135853 -0.015956819
0.024500554 -0.033447847 0.012104173 -0.013048205 -0.044939872 -0.018286731 -0.0589635 -0.01969776
-0.04697506 -0.017969025 -0.0028069643 0.009060416 -0.04608865 -0.019260962 0.04162746 -0.031527895
-0.00015291106 -0.009360327 -0.03654932 -0.007924115 -0.0051103164 -0.019936217 -0.0008988496 -0.057437897
-0.06609222 -0.015596015 -0.023826586 0.017421378 -0.013302465 0.015341347 0.009748955 0.025741685
-0.057919595 0.0068122223 0.005010805 -0.020212272 -0.018517643 -0.013400136 -0.029197171 0.0029342577
-0.055558693 -0.0036665385 0.010028021 -0.025821887 0.017273273 -0.025566697 -0.045465138 -0.02131071
-0.013584225 -0.023221822 -0.012138648 -0.004738469 -0.034712527 -0.02642315 0.013391769 -0.009216337
0.0051512113 -0.031139718 0.029933967 0.037729323 -0.002282362 -0.03606888 0.005047449 0.054993052
-0.020104611 0.064415224 0.035074417 -0.02305127 -0.018861858 0.014163124 0.008073107 0.036186833
0.0037484549 -0.019281272 -0.017281927 0.0050073536 -0.0061484454 -0.011508272 -0.00996676 -0.0044924146
0.05614653 -0.017148616 -0.019501776 0.008383901 0.06787212 0.020731894 0.047787137 -0.058735825
0.043588605 0.0062908265 0.018769844 0.08667994 0.042152613 -0.07179085 -0.00948243 0.05287781
0.051330462 -0.000106044004 0.06991281 0.029294914 0.0053199865 0.012993758 -0.0031784808 -0.027413564
-0.060753133 0.041313488 -0.024649857 -0.05225539 -0.031707555 -0.05629695 -0.0069282376 -0.035427712
0.03483783 0.028349409 -0.030516922 0.039893784 0.022931732 0.023626547 0.0065403 -0.051803682
0.012148521 -0.050242808 0.05612038 -0.02095932 0.022495069 -0.003521219 -0.0015773195 0.032159913
-0.07593169 -0.010463456 0.0017159086 0.023239821 0.008801008 0.018909356 -0.05111206 0.030207993
0.031424858 -0.024924483 0.0061069624 -0.04436041 0.01684442 0.01036486 -0.01674357 0.025004374
-0.043007594 0.01422052 0.0037011045 0.016492236 0.016350532 0.005938519 0.009542833 0.058662757
0.040034845 -0.030493896 -0.0128576895 -0.0022903152 -0.027575752 0.0660269 -0.04590164 -0.040205177
-0.09928101 -0.0037477964 0.015137352 0.032056455 0.03042729 0.0051786113 0.025379969 -0.045904066
-0.051550224 -0.02901912 -0.0010312209 0.019236725 -0.013454059 0.025128806 0.0039358106 -0.03902356
0.026627079 0.075052634 0.015220418 -0.045606285 0.04444493 -0.048088066 0.028113773 -0.07648717

action_model._discrete_distribution.branches.0.bias f4 [5]
00000000: ba67 24bd 18c9 953c a0c6 d73b e342 083b
00000010: b61d 0b3c
-0.040137984 0.018284366 0.0065849572 0.002079182 0.00849097
