results/SnakeAgent/SnakeAgent/SnakeAgent-149496.pt (torch, 448511 bytes, 33 tensors)

network_body._body_endoder.seq_layers.0.weight f4 [128, 7]
000000 00 bc 07 3f 25 c5 f7 3d 05 4e e5 3c 0c 38 89 3e
       0.5302124 0.12098149 0.027991304 0.26800573
000010 76 d4 8f 3e 01 ed 51 bd 5c 9f ff 3e de 83 e3 3d
       0.28091782 -0.051251415 0.4992627 0.11109136
000020 dc f7 eb 3e d0 6d 9b be 33 c5 fc be 76 09 d7 3e
       0.4608754 -0.30357218 -0.493692 0.41999406
000030 ee d8 a3 3e 01 04 b3 3d 99 f3 0a 3e 56 c5 74 bf
       0.32001442 0.08740998 0.13569488 -0.9561361
000040 ed fd f3 be 77 8e 78 bd c4 b6 5d bf 57 0c 10 3f
       -0.47654667 -0.06068274 -0.86607003 0.5626883
000050 fb 17 36 3f 48 5d 5a bd 93 a9 40 3e bd 5f 10 3e
       0.7113034 -0.053311616 0.18814687 0.14099021
000060 28 d8 91 3e 08 c5 2b bf 89 ee 8a be d0 1d a4 3e
       0.28485227 -0.6709752 -0.27135113 0.32053995
000070 e6 7d 69 bd d1 85 14 bf 5b 62 dc be 15 a2 4e 3e
       -0.05700483 -0.5801669 -0.4304379 0.20179017
000080 97 4b 1b be 2f 95 37 3e a8 81 07 3e 2f 21 48 3e
       -0.15165554 0.17928003 0.13233054 0.19543909
000090 9e 61 0a 3c dd 21 49 3f 78 7a 58 be ac 14 68 3d
       0.008446125 0.78567296 -0.21140468 0.05666034
0000a0 9a 40 01 bc 2e 27 75 be 69 40 a1 3d 3a 25 a6 3e
       -0.007888937 -0.23940727 0.078736134 0.32450277
0000b0 3b 5b 18 3e 9c 11 ec bc 7d f8 ea 3e 0c 0d 98 bf
       0.14878552 -0.02881699 0.45892707 -1.1878982
0000c0 30 be 0b 3f b6 d9 4d 3d d6 6b 0e 3f b8 ae 94 3f
       0.5458708 0.050256453 0.55633295 1.161582
0000d0 4b ad cd bd 7d 97 5d 3e 14 8e a1 be 8a cb af 3d
       -0.10042819 0.2163982 -0.3155371 0.08583744
0000e0 40 0d e8 be a3 af 11 bf 22 26 b1 bd ec 61 f0 3e
       -0.4532261 -0.56908625 -0.086498514 0.46949708
0000f0 5d e3 1b bc 6d 79 8d 3d 66 a1 77 be 50 e2 58 bd
       -0.009514657 0.06907926 -0.24182662 -0.052950203
000100 70 09 a0 3e cf 89 2d 3e 59 e4 3f 3e 8f 49 31 3d
       0.312572 0.16947101 0.18739451 0.04328304
000110 c3 d8 cf bc b6 e9 85 be 6b 76 c0 3d 93 f6 45 3e
       -0.025371915 -0.2615487 0.093975864 0.19332342
000120 c0 3b 0f 3f f0 4d 69 3c cf 40 57 3d 05 ac 37 be
       0.55950546 0.014239773 0.05255204 -0.17936714
000130 bc df 08 3f e1 a5 0a 3e 30 5e c0 3e 5c 0d 36 3f
       0.5346639 0.1353984 0.3757186 0.71114135
000140 9f 47 85 be ec 05 8d 3e fb b8 80 3d 3a c6 b3 3e
       -0.26031205 0.2754358 0.06285282 0.35112172
000150 b2 a7 4f 3d 0a 65 80 3e ef 18 e9 3e 17 42 86 3d
       0.050697036 0.25077087 0.45526835 0.065555744
000160 b6 80 30 3f 14 47 0a 3f 4b 79 42 3f 6b 0b dd 3d
       0.689464 0.54014707 0.7596633 0.107931934
000170 d4 7d 5b be fc d0 60 be f1 0c 8b 3e 1c 9c 9a bd
       -0.21434718 -0.21954721 0.2715831 -0.07549307
000180 ae 4e ba bd 1a 21 d4 3e ee 29 d5 3e b8 50 2c 3f
       -0.09097038 0.41431504 0.41633552 0.6731067
000190 1a d9 41 be 57 6d 84 bd 20 e8 17 3f d9 92 a9 be
       -0.18930474 -0.064661674 0.5933857 -0.33119848
0001a0 88 84 03 bf 42 9f a5 be 17 93 84 3e be a0 50 3e
       -0.513741 -0.32348067 0.2589347 0.20373818
0001b0 fd 3a 3c bf 5a 20 2e bf 90 a4 51 bf ae 0c c4 bc
       -0.7352751 -0.68018115 -0.8189173 -0.023931827
0001c0 87 cc cb be 1c af c1 be 07 f9 23 3e 77 d6 47 be
       -0.3980448 -0.3782891 0.16012965 -0.19515406
0001d0 73 c2 11 3c 4f a8 f0 3e df e3 12 3f 15 29 4f 3d
       0.008896458 0.4700341 0.57378954 0.05057629
0001e0 24 ca 02 3e 8d ed 51 3e e8 45 05 be 76 cc da 3d
       0.12772423 0.20500775 -0.13014948 0.10683529
0001f0 74 e1 f2 bd b9 bc 3f bf 35 b5 9b 3e 6e 8f 22 3b
       -0.11859408 -0.7489734 0.30411687 0.002480473
000200 b3 9e a9 be 37 b7 0e 3e 8f af b6 3e 91 23 f3 3d
       -0.3312889 0.13937078 0.35680816 0.11872018
000210 dd ef 56 be 85 0d 18 bf a0 e5 68 3f 06 d2 f0 3e
       -0.20989938 -0.5939563 0.9097538 0.47035235
000220 65 4e a6 be 10 4b 16 3f ca d0 e9 be c0 05 1d 3f
       -0.32481685 0.58708286 -0.45667106 0.613369
000230 3d 42 6c be 59 66 3d bd cf 99 31 bd 9b b0 28 bf
       -0.23072143 -0.046240184 -0.043359574 -0.6589448
000240 ad 50 92 bd 84 63 1d 3e 95 a6 e2 be c5 19 35 be
       -0.07144294 0.15369993 -0.44267717 -0.17685612
000250 c3 28 f8 3d 43 b1 92 3d 77 7d a9 be 94 1d a4 3e
       0.1211715 0.07162716 -0.33103535 0.32053816
000260 e6 43 df 3e 1d 2f 87 3e 46 df 91 3e 6b e9 0e bf
       0.4360649 0.26403132 0.28490657 -0.5582492
000270 89 32 c4 3e 16 fc fe 3e 9d cf 2f be 03 47 a4 bc
       0.38319805 0.498017 -0.17169042 -0.020053392
000280 f9 a3 82 3d 55 41 4a be 63 80 71 3e 66 87 d3 3e
       0.063789316 -0.19751485 0.23584132 0.41314238
000290 77 30 8c bd fb 19 6f 3e e8 1c ae 3e 2d 07 2f 3e
       -0.068451814 0.23349755 0.3400643 0.17092581
0002a0 6d 41 df be 10 9b df be 22 27 60 be 78 4c ac 3e
       -0.43604603 -0.4367299 -0.21889928 0.3365209
0002b0 7d b1 48 be c0 47 8a 3c 0d a6 f8 bd 2a e0 38 3e
       -0.19598956 0.016879916 -0.12141047 0.18054262
0002c0 53 7a d3 be 7b 77 26 bf 35 9e 3b be 61 f7 c9 3e
       -0.41304263 -0.6502606 -0.1832207 0.39446548
0002d0 19 1b 35 3e 5d 2e 2b 3f 79 e4 7d 3e 6b 3d 99 3e
       0.17686118 0.6686762 0.24794187 0.2992967
0002e0 17 10 47 be a6 9f 2c bf 8f 77 6e bc bf b8 01 3e
       -0.19439732 -0.67431104 -0.014554872 0.12668131
0002f0 64 6b 24 be dc f2 b5 3e b1 a8 7d 3f 64 cb 34 3f
       -0.16056591 0.3553685 0.9908553 0.7062285
000300 6d 8a 81 bd 35 bc cd bd 8a 83 19 3e ab d0 89 be
       -0.06325231 -0.10045663 0.14991584 -0.26917014
000310 b1 2f 7b be 0a 25 99 3e f9 fc ee 3e 1a d7 50 3e
       -0.24529912 0.2991107 0.46677378 0.20394555
000320 5d 8a 0a be d9 43 08 bf f9 d2 ab bd d9 38 5a 3e
       -0.13529344 -0.5322853 -0.08389849 0.21310748
000330 fe ae b3 3e db 9c f1 3e 26 d1 1a bf b4 92 d9 3c
       0.35094446 0.47189984 -0.60475385 0.026559211
000340 d0 20 da be 19 40 b8 3d af ab 60 be fd 48 01 be
       -0.4260316 0.08996601 -0.21940492 -0.12625499
000350 47 69 7d 3e b6 46 f9 3e b2 fb 0d 3d 5d 72 1e bd
       0.24747191 0.4868676 0.034663863 -0.038683284
000360 03 73 2c bf fd ab 81 3d ce 75 f8 bd ff 06 86 be
       -0.67362994 0.06331632 -0.121318445 -0.26177213
000370 2f 05 dd 3e 76 6b 60 bf f7 25 40 3e 51 fe cc 3e
       0.43168017 -0.8766397 0.18764482 0.40037778
000380 ec 8c 8d 3e 3c 4f 06 bd 95 30 7b be 45 18 cb be
       0.27646577 -0.032790408 -0.24530251 -0.39666954
000390 f2 cf 0f bd 21 ab 02 be 30 dd a5 bd 36 0f f1 bd
       -0.03511042 -0.12760593 -0.08098829 -0.117704794
0003a0 ff 2f b4 3e 8a 03 97 3c e8 77 43 3f 7a da 14 bf
       0.35192868 0.018434305 0.7635484 -0.5814587
0003b0 22 87 81 be fc 7e 2b 3d 71 aa 05 be 1b e2 02 bf
       -0.2529841 0.04186915 -0.130533 -0.5112626
0003c0 3c 3d 8a 3e f8 d3 e2 3d 67 b5 0e 3e 36 e9 9a 3e
       0.26999843 0.11075586 0.13936387 0.3025605
0003d0 6b 18 25 bf 69 04 8c 3e 21 aa 18 3e 9c c1 5d 3f
       -0.64490384 0.27347115 0.14908649 0.8662355
0003e0 d4 47 26 3e de 9f a5 bd 8d 9f a7 3d d4 61 3c 3f
       0.16238338 -0.08087133 0.08184729 0.73586774
0003f0 ce e9 80 bf 51 83 89 3c e3 b3 0d 3e ca cc fc 3d
       -1.0071352 0.01678625 0.13838153 0.12343748

network_body._body_endoder.seq_layers.0.bias f4 [128]
000000 2e b1 c5 b8 59 07 5c 3d 47 1f 01 3e 7d 51 13 3d
       -9.426694e-05 0.053717945 0.12609588 0.035966385
000010 dd db 8b 3c cb 10 12 bd a5 62 e3 3c 67 5c 5e bb
       0.017072612 -0.035660546 0.027756998 -0.0033929588
000020 0d bf 8a 3d 33 97 ac bc 3b d4 1d 3d 45 8f 41 bd
       0.06774721 -0.021068191 0.038532477 -0.047255773
000030 c3 26 97 bd af f5 80 bd 07 d8 4c bd 26 ec af 3c
       -0.0738044 -0.062968604 -0.050010707 0.021474909
000040 5d 6e 9a bc 25 58 26 bd d1 eb d2 bd fc d8 23 3d
       -0.018851453 -0.040611405 -0.10298885 0.040001854
000050 f1 e6 19 bc f2 45 0e bd 18 b3 98 bd 2e 3e 87 bd
       -0.00939344 -0.034734674 -0.074560344 -0.06603657
000060 7a 4c 3b bd 43 1f 18 3d df c3 12 bd 53 7f 73 3b
       -0.04572723 0.03713919 -0.03583133 0.0037154749
000070 33 18 b2 3d 64 e6 96 3d dd 8d 9d bb ba 9f 5a bd
       0.08696022 0.07368162 -0.004808171 -0.053374983
000080 c5 e8 f8 bd 9e 7b 97 3c ad a8 ad bd 1b 09 98 3c
       -0.12153772 0.018491562 -0.08479438 0.01855903
000090 94 6a 24 3c 31 3a 3f bd 57 e8 d4 3c 9e 48 18 3c
       0.010035176 -0.046686355 0.025989695 0.009294657
0000a0 da c6 42 bb 48 d5 2f bc 09 e6 24 bc e4 a7 84 bd
       -0.0029720576 -0.010732003 -0.01006461 -0.06477335
0000b0 3b 2f 00 3c 41 59 ca 3c 8a c4 43 bc 67 45 c3 3c
       0.007823761 0.024700763 -0.011948714 0.023836805
0000c0 6d 08 4d bd 56 13 18 3d f3 e2 2b bd 91 99 e1 bb
       -0.050056864 0.037127815 -0.041964483 -0.0068847616
0000d0 0c a1 b4 3d 95 3e b1 bd 18 ba 4d bd 83 11 4e 3d
       0.0881978 -0.08654515 -0.0502263 0.05030967
0000e0 53 6f a7 3b be 8d 96 bd 82 7a 32 bb 08 fe eb bd
       0.0051097064 -0.07351254 -0.0027233665 -0.11523062
0000f0 44 1f ba bd d6 f1 81 3d b0 7a bc bd bf 12 70 bd
       -0.09087995 0.06344955 -0.09203088 -0.058611628
000100 c0 e5 a0 bd 18 3a 06 3d 67 ad 8b bc 22 8f 15 3d
       -0.07856321 0.032770246 -0.017050458 0.036513455
000110 b4 e7 cf bd a6 56 9e bd 59 23 8c bd e5 02 35 bc
       -0.10151616 -0.07731371 -0.068426795 -0.011048053
000120 f1 79 8b bd f1 12 cc bc ff f6 6f 3d a8 2c 8b bc
       -0.06810368 -0.024911376 0.058585163 -0.016989067
000130 ca cd 22 3e e6 f9 7e bd d3 1d 03 3d 70 1c 73 bd
       0.15898815 -0.06225004 0.032010864 -0.059353292
000140 c9 57 b8 3c ab f0 28 3d 1a 54 ca bd 1d 63 58 bd
       0.022502797 0.041245144 -0.09879322 -0.052828897
000150 62 c6 37 3d 66 f0 08 bc e6 9c 01 3d 87 6d 3b bd
       0.044866927 -0.008358097 0.03164377 -0.04575875
000160 c5 7c 73 bd e8 c8 f9 bc 32 56 2b bd a9 d0 30 3d
       -0.05944516 -0.030491307 -0.04183025 0.043167744
000170 e6 39 2c 3c f7 84 0f be e5 e0 8f bd 67 cc 7e bd
       0.010511851 -0.14015566 -0.07025317 -0.062206652
000180 6d 61 9b bd 46 8d 95 bd e9 3b 5f bd bb 7b ac bd
       -0.07586942 -0.073023364 -0.054500494 -0.08422037
000190 aa 44 9f bc 08 67 be bc 3d 40 f3 bc 12 f6 56 bd
       -0.019441921 -0.023242489 -0.029693717 -0.052480765
0001a0 62 4f 34 bc a5 6a 0a bd 56 fe 28 3d bf 6e 11 bc
       -0.011005254 -0.03379311 0.04125818 -0.008876502
0001b0 bf 9b 86 3b 67 5f 0a 3d cb 2c ae bd 10 0b 37 bd
       0.004107922 0.03378239 -0.08504637 -0.044688284
0001c0 3a 8e 26 3d 8b e6 11 3d 0e 54 ce bd 33 93 af bd
       0.04066298 0.035620254 -0.10074626 -0.08572998
0001d0 43 10 c6 bc 49 fb 67 3d 55 ef fc 3c 33 4c 88 bc
       -0.024177676 0.05663613 0.030875841 -0.016637897
0001e0 60 0d 98 bd 6f 4f c7 bc 56 71 93 bc dd 40 d4 3c
       -0.07424426 -0.02432987 -0.017998379 0.025909835
0001f0 9e d5 7e bc 41 a0 4d bd 2e 82 2a bd 05 9f 8a bd
       -0.01555386 -0.05020166 -0.041628055 -0.06768612

network_body._body_endoder.seq_layers.2.weight f4 [128, 128]
000000 ab 0f 93 bc 88 d4 8c be aa 7d 40 3d 2b bb 92 bc
       -0.017951807 -0.27505898 0.046994843 -0.017911514
000010 7d c5 99 3d de a1 01 3d f2 f4 9e bd 2e 29 29 bc
       0.07508371 0.03164851 -0.07761563 -0.010324759
000020 77 73 fa bd 38 67 84 bd 8a d9 64 3d 4a 60 6c 3d
       -0.122290544 -0.06465 0.055871524 0.057709016
000030 4f 6e 82 bb 78 0d 44 be 94 9a 04 bd 25 ff 8b bd
       -0.003980435 -0.19145763 -0.03237398 -0.06835774
000040 e6 53 62 ba d0 04 c9 bd 94 7b 09 be a3 9e 46 3c
       -0.00086337177 -0.09815371 -0.13426048 0.012122783
000050 b9 23 db bc 71 22 99 bc 4e 21 a9 3d 1b f7 36 3c
       -0.026750432 -0.01869318 0.082583055 0.011167313
000060 e9 5c d2 bc 4e 7b 39 3c 6e de ca 3d e1 ba 44 3c
       -0.025679069 0.011320902 0.09905706 0.012007446
000070 f2 09 67 39 9b b3 de bd 97 9a bd bd 5d 9e b9 bd
       0.00022033582 -0.10874101 -0.09258001 -0.090634085
000080 c3 ff a3 3d 79 24 1a 3d 6f e7 86 3c 9b cc 2d 3d
       0.08007767 0.03763244 0.016467778 0.042431455
000090 52 8e 80 bd cf 76 4f bd aa 2e ec bc b2 cc 2c 3d
       -0.062771454 -0.050650414 -0.028830845 0.0421874
0000a0 0b 34 18 be a7 3a f2 bd ab cb 3c bd 7e cf aa bd
       -0.14863603 -0.11827593 -0.04609267 -0.08340357
0000b0 4e b6 6f be 02 39 99 3c 37 e4 46 3d 55 71 65 be
       -0.23409387 0.018703941 0.048557486 -0.22406514
0000c0 29 4c 3b be 7e 76 bd 3b 09 6b 81 bd 23 d3 34 be
       -0.18290772 0.0057819476 -0.063192435 -0.17658667
0000d0 8c ca cf bc e2 62 b2 bd 66 19 60 be e4 be 84 bd
       -0.025365137 -0.08710267 -0.21884689 -0.06481722
0000e0 da 10 0d bd 2b 0f c1 bb 80 84 e7 b9 b3 2c d4 bd
       -0.0344399 -0.0058917007 -0.00044158474 -0.10360088
0000f0 35 af db bd 7c c4 22 3d 8c 88 46 bd 21 b8 2a bc
       -0.107267775 0.039738163 -0.048470065 -0.010419876
000100 b2 ca 9b 3d f6 4b b4 bd 2c 4f d1 bc 49 e6 fa bd
       0.076070204 -0.08803551 -0.025550447 -0.12250955
000110 4c b1 56 be f8 f7 3c 3d 59 48 3b 3c 0a 08 b8 bc
       -0.20966071 0.04613492 0.011430823 -0.02246477
000120 7b a1 47 be c9 ad 3f be 43 52 75 3d 49 16 f3 bb
       -0.19495194 -0.18718638 0.059892904 -0.007418428
000130 1d 17 68 3d 2f 7a c8 3d fe b6 35 3d e5 b9 15 be
       0.056662668 0.0978893 0.044363968 -0.14621694
000140 ed 58 ab 3d 7a a1 7b 3c 9d 4c 83 ba 9b 56 80 bc
       0.083665706 0.015358323 -0.0010017339 -0.015666297
000150 3c 14 5e bd b2 70 84 bc fd 51 1b 3e 17 c5 2c 3c
       -0.054218516 -0.016167019 0.15167995 0.010545037
000160 33 4b 33 be 4b f2 65 3d 06 f7 b1 be e0 56 a3 bd
       -0.17509155 0.05613927 -0.34758776 -0.079755545
000170 1c 82 c5 3b e8 bc 7e bd 0d 6c 98 bd e8 cc 8b 3d
       0.006027473 -0.062191874 -0.07442484 0.06826192
000180 34 22 84 3d fd d6 1a be f7 0c 25 bd 60 60 85 3b
       0.06451836 -0.15121074 -0.040295567 0.0040703267
000190 24 34 78 bd ea 4a 8e 3d 79 96 8f bd 6a bb b7 bd
       -0.0605966 0.069478825 -0.07011122 -0.08971293
0001a0 2f 8e cc 3d c9 d1 91 be 1e da eb 3d 9b 05 61 bd
       0.09988057 -0.28480366 0.11516212 -0.054936986
0001b0 d6 44 2f be 92 3c c8 3d 4e 8e 67 3c 48 19 06 be
       -0.17116103 0.09777178 0.014133049 -0.13095582
0001c0 47 34 ae bd dd 8b b3 3d 72 79 6c 3c f9 e2 01 be
       -0.08506065 0.08766911 0.014433252 -0.1268424
0001d0 6e 90 95 be 1f 38 e8 bd 45 32 ac bd 49 55 9a 3d
       -0.29211754 -0.11338829 -0.08408026 0.07535798
0001e0 84 87 4b be 09 6e ec 3d a4 ff a3 3d 5d cc 00 be
       -0.19875914 0.11544425 0.08007744 -0.12577958
0001f0 a5 16 92 3d 2d ff 07 be 36 35 1a be 8c b1 a8 3d
       0.07133225 -0.13280936 -0.15059361 0.082369894
000200 f7 a3 ab 3d 1e 99 77 bc 9b c5 af 3c 17 5d c1 bd
       0.08380883 -0.01511219 0.02145653 -0.094415836
000210 68 c0 b8 3d fb d4 7a be 7d 0c 1a bc 45 16 4c bd
       0.090210736 -0.24495308 -0.0094023915 -0.049825925
000220 e5 ea 16 3b 69 b1 a8 bb b6 60 ba 3c d6 e5 93 3c
       0.0023028192 -0.005148102 0.022751193 0.01805393
000230 e2 05 e8 bd f3 2c 9a 3d 02 ff c3 ba 2f 1f 2c bd
       -0.11329247 0.07528105 -0.0014953318 -0.042021926
000240 58 9f 31 be 6f ad 72 3d 26 44 d9 3c 70 37 02 be
       -0.17345941 0.05924743 0.026521754 -0.1271646
000250 15 90 ee bd 5e a9 6f 3c 5f c4 a2 bd ad 66 83 3d
       -0.11648575 0.014627783 -0.07947611 0.06416068
000260 f8 dd 4c 3d 89 69 6f be 51 4b 9a bd eb 4c 0d 3e
       0.050016373 -0.23380102 -0.07533897 0.13798873
000270 f3 9c 0b be df 4d 33 3d 21 29 dc 3d 88 16 aa bb
       -0.1363409 0.043775436 0.10750032 -0.005190674
000280 31 3e b2 bd 84 c9 22 3c f5 d4 ae bc ea 36 57 bd
       -0.08703268 0.00993574 -0.02134178 -0.052542605
000290 d1 36 43 be bb 88 8e 3d 45 94 1a 3d e6 8d b6 3d
       -0.1906388 0.06959673 0.037739057 0.08913784
0002a0 d7 88 36 3d 87 58 06 be 9e ec 3c bd cb 4e 34 3d
       0.044564094 -0.13119708 -0.046124093 0.044020455
0002b0 fb 2a bd bd 64 a4 f3 bd 19 ff d9 bd f3 c0 91 bd
       -0.092367135 -0.118965894 -0.10644359 -0.0711688
0002c0 d2 5d 94 3d 7a bb 1a bd 11 34 c5 bd d9 e6 00 be
       0.07244457 -0.037776448 -0.096290715 -0.12588061
0002d0 79 08 12 be 67 81 ae 3d dd ca c6 bc 63 dc 4f be
       -0.14261045 0.08520775 -0.024266655 -0.20298915
0002e0 a4 17 72 be b5 78 c3 bd f7 8c 1e 3d 84 b9 08 3d
       -0.2364183 -0.095445074 0.038708653 0.033380046
0002f0 50 b5 71 3c c8 8f 53 be 69 6c f4 bc 3c 28 f4 bb
       0.014752701 -0.20660317 -0.02983685 -0.0074510854
000300 3b ca 2a 3d 08 ef 75 bd c6 f0 c1 3d d1 33 c8 bd
       0.04169677 -0.06004241 0.09469752 -0.09775508
000310 e1 19 17 3e 41 1f 97 bd 6e 39 04 be 0a 6d 96 be
       0.14755966 -0.07379008 -0.12912533 -0.29380065
000320 db 6b 5d 3c 9b 83 98 bc 88 6e 99 3c cb 25 51 3c
       0.013514484 -0.018617442 0.018729463 0.012765358
000330 e2 1d f8 39 35 f6 a2 3d 8f be 85 3d dd b9 43 be
       0.0004732451 0.079571165 0.06530487 -0.1911387
000340 18 e5 27 3d 49 e2 cd 3d 74 21 ed bd d8 aa 86 3d
       0.040989965 0.10052926 -0.11578646 0.065755546
000350 db 97 81 3d 24 f2 c2 bd 4f f6 b3 3d 4f 57 ce 3c
       0.06327792 -0.09518841 0.08787214 0.025188116
000360 09 5d 9c 3c 14 96 c8 bd de 19 f1 bd fc 40 b8 be
       0.019087331 -0.0979425 -0.11772512 -0.3598708
000370 aa 8f 43 3c 33 92 80 3d ff 6e c3 bd 6b ba af 3d
       0.011936108 0.06277885 -0.09542655 0.08580478
000380 83 26 1e be 66 59 28 be c7 c4 06 3d 88 bf 32 be
       -0.15444379 -0.16440353 0.032902505 -0.17455876
000390 4f f6 10 be a3 0e 60 be 74 19 ad 3d 6e d0 30 3e
       -0.1415646 -0.21880583 0.084521204 0.1726701
0003a0 9d 42 e6 bd 2f 29 7b bb 78 48 dc bd 1a 07 17 be
       -0.11243174 -0.0038324108 -0.1075601 -0.14748803
0003b0 ed a9 91 bd 1e 74 63 bd 22 40 8f 3c cc bc d6 3d
       -0.07112489 -0.05553066 0.017486636 0.10485229
0003c0 71 16 3d be 37 96 49 be 25 3d 0b be 50 b9 81 3c
       -0.18465592 -0.19686209 -0.13597544 0.015835434
0003d0 f2 33 56 be 61 a9 2f 3c 36 1f 9e 3c 84 e8 a3 bc
       -0.20918253 0.010721535 0.019301992 -0.020008333
0003e0 04 9d 5d 3d 3f 11 42 bd c8 a8 04 be 1b 4e 84 bd
       0.05410482 -0.04737973 -0.1295501 -0.0646021
0003f0 62 90 94 bd fe 3d 97 bd 8e 2f 7f 3d 1e dd 85 3c
       -0.07254101 -0.07384871 0.06230121 0.016340788

network_body._body_endoder.seq_layers.2.bias f4 [128]
000000 d1 44 2f 3c c0 92 7b bd 6b 39 8e bd 69 ca 97 bd
       0.010697559 -0.06141925 -0.06944545 -0.074116535
000010 4f 0f 2c bd 6c 8e 47 3c 63 9f bf bc ec 61 90 3c
       -0.042006787 0.012179952 -0.023391431 0.017624818
000020 0e 0f ea 3c c6 cf d3 bc 54 f5 b8 bc 8b 7a e1 3c
       0.028571632 -0.02585591 -0.022577919 0.027524253
000030 99 33 24 bd 19 21 21 3c 28 10 66 3d 88 09 c9 bc
       -0.04008827 0.009834551 0.05616775 -0.024540678
000040 ba ba 07 bd 2e 6b 13 3c a8 ca d1 bc 79 4b 5a bb
       -0.03313706 0.008997722 -0.02560933 -0.0033309145
000050 57 1e 08 bd cb 5b 0b 3d 59 14 82 3c cc 14 07 3b
       -0.03323206 0.034023087 0.015878843 0.002061176
000060 4f e7 3e bd 45 d1 8b 3c ca 55 5c bd 72 c8 11 bd
       -0.04660731 0.01706756 -0.053792752 -0.03559155
000070 11 af 60 3c 69 7a 0a 3d f6 de 67 bd bf 89 ba 3d
       0.013713614 0.033808146 -0.056609116 0.09108304
000080 84 56 f3 3b f9 ed 8a 3c fd de b5 3b 04 4d 10 bd
       0.007426085 0.016959177 0.005550264 -0.035229698
000090 7d 2c 3e 3d 27 60 21 bd bd 2e 31 3d 9d 26 12 3c
       0.046429146 -0.03939834 0.043257464 0.008920339
0000a0 91 17 25 bc 2f b9 86 bd 34 e0 49 3c a6 49 2f ba
       -0.010076419 -0.0657829 0.012321521 -0.00066866947
0000b0 59 ab 60 bd e2 d2 e8 bc 28 5c 47 bc 5d 78 87 bd
       -0.05485091 -0.02842087 -0.012167968 -0.06614754
0000c0 8e ef 1c bd 58 ee 8d 3c e4 3f da bc 10 1f 0b 3b
       -0.038314395 0.017325565 -0.026641794 0.0021228231
0000d0 05 07 24 bd 92 a7 19 bd 1a fe fe bc d0 42 7b 3d
       -0.040045757 -0.037513323 -0.031127024 0.061343014
0000e0 21 e5 c1 ba fa d4 35 bc b8 94 1e bd 9e fc fe 3b
       -0.0014793017 -0.011098141 -0.038716048 0.007781579
0000f0 24 03 1f bd 0b 01 24 3d 80 a6 6a bd 1d 18 de bc
       -0.038821355 0.040040057 -0.057287693 -0.027111107
000100 4e 51 10 3b e1 2c 4c 3c 5d f4 0b bc 66 e7 42 bd
       0.0022021118 0.012461872 -0.008542147 -0.04758396
000110 88 38 47 3d ae 91 53 3c ca f0 28 bb c6 8c 78 bd
       0.048637897 0.012913151 -0.0025778287 -0.060681127
000120 9d a4 14 3d bb 5c c0 bc be 41 aa 3c 43 59 5b bc
       0.0362898 -0.023481717 0.020783301 -0.013387981
000130 49 4c cb bc 3f f7 0c bd 9e 63 db bc f7 52 a5 bc
       -0.024816649 -0.03441548 -0.0267809 -0.020181162
000140 1e 9e 8d bd df 9f 8c bb 83 94 dc bc 3f e4 a3 b9
       -0.06914924 -0.004291519 -0.026926285 -0.0003125984
000150 cd 4d c8 bc 54 73 d9 3b d4 fa a8 3c 8b d3 b6 bc
       -0.02445116 0.0066360626 0.020627417 -0.022317668
000160 2c ff 30 bd c9 eb 0b 3d 3f 82 71 bd 0f 63 05 3d
       -0.0432121 0.03416041 -0.058962103 0.032565173
000170 e6 6b 09 3d 8e 16 9c ba 01 13 81 bd 67 a0 db 3a
       0.033550166 -0.0011908577 -0.06302453 0.0016756178
000180 32 80 fd bc 22 a3 82 bc 51 eb 74 3c fe 5f 60 bd
       -0.030944917 -0.015946928 0.014948682 -0.054779045
000190 af 07 45 3d cb 53 9f 3c 53 e6 94 3c 93 a6 78 bc
       0.04810303 0.019449135 0.018176233 -0.015176433
0001a0 ed 00 9f bd a9 9e 10 3d ae 72 18 3d 61 e8 a5 3d
       -0.077638485 0.03530756 0.037218742 0.081009634
0001b0 6e ee 4c 3b e9 b7 6e 3d aa 27 80 3d ba d2 21 3d
       0.0031270045 0.05828086 0.06257565 0.039507605
0001c0 5e 43 a9 bd 47 53 1a 3c 01 60 9b bb b8 5f 51 3c
       -0.082648024 0.009419269 -0.004741669 0.012779169
0001d0 fc e9 99 bd 23 eb b9 bb 74 57 a3 bc 80 f9 57 bd
       -0.07515332 -0.0056737824 -0.019939162 -0.052728176
0001e0 27 07 ed bb 3a 23 dd 3a e0 e3 96 bb a2 e3 80 bc
       -0.0072335186 0.001687146 -0.0046048015 -0.015733544
0001f0 3e 3f 86 bd 02 68 3c bc 0a ef 39 bd 13 c6 07 bd
       -0.06555031 -0.011499407 -0.04539398 -0.033147883

action_model._discrete_distribution.branches.0.weight f4 [5, 128]
000000 75 ef 8e 3d 0c c6 e4 bd af 89 53 3b f7 8d 6b bd
       0.069792666 -0.11170587 0.003227811 -0.057508435
000010 cc 63 36 bd 70 63 4e bd bc 76 e8 3c e8 08 9c 3b
       -0.044528767 -0.0503878 0.02837693 0.004761804
000020 12 99 bd b9 a2 8d c3 3d c4 6c 38 3d 06 75 1d 3e
       -0.00036162935 0.09548499 0.045025602 0.15376672
000030 fc e7 69 bd 26 f8 94 bd a5 26 93 bd 7f d9 60 3d
       -0.057106003 -0.07273893 -0.07185105 0.05489492
000040 ac 6b 61 3d 04 dc 8d bd ca f1 ed 3c d0 1a cc 3d
       0.055034325 -0.0692673 0.029045958 0.099660516
000050 16 e3 0f 3d f5 7c cb bc a8 e0 fa 3c 74 72 82 3d
       0.035128675 -0.024839858 0.030624703 0.063694865
000060 ba 5d 77 3c e0 ff 3a bd 35 bc 21 bd 48 12 46 3d
       0.01509803 -0.045654178 -0.03948613 0.048357278
000070 ef 87 48 bc 1f 9e 22 3d 42 c0 5a bd 21 f4 fc bd
       -0.01223944 0.039701577 -0.053406008 -0.123512514
000080 02 7a 70 bd 4d 15 a9 bc 10 06 a8 bc f6 b6 8e bd
       -0.058710106 -0.02064004 -0.020510703 -0.06968491
000090 cd 41 80 bd f4 7d 8a bd 73 48 13 be 74 c3 c2 bd
       -0.062625505 -0.06762305 -0.14383106 -0.09509936
0000a0 86 c2 10 bc 41 2d 33 3c f3 49 42 3c 2a e1 ac 3d
       -0.0088354405 0.010936082 0.011858451 0.08441384
0000b0 32 b7 3f bd 43 d1 fc bc 52 67 f6 bc 94 b1 23 3c
       -0.046805568 -0.030861503 -0.030078564 0.009991068
0000c0 a2 8e 9d 3b 5f f7 c5 3c 15 f0 a5 3c 02 38 a4 3d
       0.004808263 0.024165807 0.020256082 0.08018495
0000d0 20 51 8a 3c ef a9 03 3d 8d 50 03 3d 91 7d e6 bc
       0.016884387 0.032144483 0.03205924 -0.028136047
0000e0 a1 6f 4f bd 18 78 5d bd ae 58 84 bc b5 b0 9f bd
       -0.050643567 -0.05406961 -0.016155567 -0.07797376
0000f0 b0 2d bb 3c bf 5d a3 bd 76 6f 38 3d 4c 4d 19 bb
       0.022848934 -0.07976865 0.045028172 -0.002339202
000100 1f 53 24 3d 53 6c 5e 3b c4 ce 84 bd 3f 38 95 3d
       0.040118333 0.0033939078 -0.0648475 0.07286119
000110 1a 4c 2d 3a 20 26 91 3c 37 df 1c 3d a7 13 bf 3c
       0.0006610766 0.017718375 0.03829881 0.0233248
000120 76 8b a3 bd 50 1a 86 3c d3 ba 7b 3d 3e ed 37 3b
       -0.079855844 0.016369969 0.061457466 0.0028064991
000130 f0 56 68 3c ef 1d 96 3d 6d 9a 0f 3d ee 14 a0 bd
       0.014180884 0.07329928 0.03505938 -0.07816492
000140 dd 24 7c bd 6c 39 89 3d 54 b1 26 3b ea 96 b6 3c
       -0.061558593 0.067004055 0.0025435286 0.022288758
000150 6c 0d 8e 3c 35 c8 85 bc ae 46 b0 3d 52 5f cb 3c
       0.017340384 -0.016330818 0.08607231 0.024825726
000160 aa d0 9a bc 54 e1 14 3d c4 3e d2 bc a7 ce 91 bd
       -0.018898327 0.036347702 -0.025664695 -0.07119494
000170 01 48 7a 3c 88 12 5b bd 85 fe d7 3c 0f 8c a1 bc
       0.015275956 -0.05348447 0.026366482 -0.019720105
000180 96 75 06 bd 61 82 08 3c a3 d3 bd bd 43 16 41 3d
       -0.032826982 0.008331866 -0.09268882 0.04714037
000190 94 5a d5 bc 3c fb 14 bd 9a 46 2c 3d 04 3c ff 3d
       -0.026044168 -0.03637241 0.04205952 0.12462619
0001a0 a7 ba 1e 3c 26 5e b4 3b 71 e9 c7 3d 1b e0 e6 bd
       0.009688056 0.0055043874 0.09761322 -0.112732135
0001b0 0c 61 70 3d c2 b7 b8 3c dd 36 b7 bd a7 07 93 bd
       0.0586863 0.02254856 -0.08946011 -0.07179194
0001c0 e4 e3 ce bd e2 31 15 3d 3d ab 6c bd c3 1c ed 3c
       -0.101020604 0.036424525 -0.057780493 0.028944379
0001d0 b2 b1 6f 3d 4d 3c ed bc 39 17 39 3d 65 5e ec bc
       0.058519073 -0.028959418 0.045188162 -0.028853605
0001e0 a1 46 b5 3d 87 d6 e4 bc ea db 03 be bc 7a 45 bc
       0.08851362 -0.027934326 -0.1287686 -0.012053188
0001f0 90 03 9f bd aa d6 9f 3d 9e b1 08 bc f3 cb c9 3c
       -0.07764351 0.07804616 -0.0083431285 0.024633383
000200 1f 07 78 3d c7 c8 42 3c fa 16 e0 bc bd d7 4e 3d
       0.060553666 0.011888689 -0.027354706 0.050498713
000210 ab 7e 0a bd 94 7c 38 3d ba 45 25 3d 72 c6 27 bc
       -0.033812206 0.045040682 0.0403497 -0.010240184
000220 aa 68 c0 bc b3 2e 1c 3d e6 0c 58 bc 1f 98 c6 3b
       -0.023487408 0.038130473 -0.013186669 0.0060606147
000230 26 95 04 bd 81 0f 62 3d 33 9b 83 3d 4f c1 f9 3c
       -0.0323688 0.055190567 0.06426086 0.030487685
000240 56 1c cd bc 16 f5 27 bc 9b 01 80 bc cf 28 44 bd
       -0.025037926 -0.010251304 -0.015625766 -0.04789048
000250 1a 90 31 3d f6 4d 83 bc 99 c6 01 bd ee c7 a1 3c
       0.043350317 -0.016028386 -0.031683538 0.019748654
000260 09 f1 4c bc 61 f2 74 3d ba 4d 1a bd 76 ae 84 bb
       -0.012508639 0.059801463 -0.037671782 -0.0040491177
000270 03 b9 30 bb 90 9d 5d 3d 69 0e 01 3c ea d2 c9 bc
       -0.0026965744 0.05410534 0.007876971 -0.024636704
000280 3b 9f 26 bd c4 31 4f 3d 4d c1 3d 3d b9 ef 9c bc
       -0.040679198 0.05058457 0.046326924 -0.019157277
000290 ee c9 5f bd 2c 22 09 bb f2 a0 b5 bd 6d 09 e4 3c
       -0.054635935 -0.002092491 -0.088685885 0.027836526
0002a0 02 53 1b 3d 0f ca ea 3c 07 eb a1 bd 14 52 59 bc
       0.03792096 0.028660802 -0.07906156 -0.013264198
0002b0 9f 75 60 bc 67 2e d7 bc 38 b5 89 bd e4 6d 0c bd
       -0.013699918 -0.026267244 -0.06724018 -0.034284487
0002c0 a9 12 2c bd 15 f0 39 bc 0d 5f c1 bb 6f e0 01 bd
       -0.042009983 -0.011348744 -0.0059012235 -0.031708177
0002d0 a1 37 44 3c 96 bb 0f 3c 01 ee 2a 3d a8 be 8d 3c
       0.011976154 0.008772751 0.041730884 0.017302826
0002e0 ec 70 84 3d ec 37 72 bc 5f 8f 3d bc b3 69 e6 bb
       0.06466851 -0.014783841 -0.011569827 -0.0070316433
0002f0 ad 4c 37 bd ef 9d be 3c c9 df 07 bd b3 7f d6 3b
       -0.044750858 0.023268668 -0.033172403 0.0065459847
000300 14 fa 9f 3c ba 52 26 bc 5e 5a 89 3d 3d 22 b2 bd
       0.019528426 -0.0101515595 0.06706689 -0.08697937
000310 1f 2a b6 bd 96 c1 4e 3d 6e 5b f0 3c 65 75 a2 3c
       -0.08894753 0.050477587 0.029340472 0.019831369
000320 3f 07 7c bd 01 b7 43 3d d7 f0 6d bd d7 6f bc 3c
       -0.061530348 0.047781948 -0.05809101 0.023002548
000330 cd 4c 30 bd 80 ad 33 bd 49 78 67 bc 86 17 0b 3d
       -0.043041993 -0.043866634 -0.014127799 0.03395798
000340 7b 31 92 bc 30 56 9f 3c 6e b7 09 bc 48 14 b3 bd
       -0.01784586 0.019450277 -0.008405549 -0.08744103
000350 a3 4c 39 3c 5c 58 63 bc 75 19 0a bc 8e 82 3e bd
       0.0113097755 -0.013876047 -0.008428921 -0.046511225
000360 cb 0a 82 3c 52 20 c8 3a 65 78 7b 3c d4 e0 6c 3d
       0.015874287 0.0015268421 0.0153485285 0.0578316
000370 13 37 3e 3d 02 ac 40 3d 51 6d 1a 3c bb 6b 11 bd
       0.04643924 0.04703904 0.009425477 -0.03550313
000380 89 a9 50 3d 22 7e ad bb 30 4b 6c 3d 32 7b d7 3c
       0.05094293 -0.005294577 0.057688892 0.026303861
000390 50 50 eb 3d 53 7c 11 bd fa db 6b 3c 25 b6 af bc
       0.11489928 -0.035518955 0.014395708 -0.021449158
0003a0 af 08 d1 bc 6c c5 65 bc 0b e0 61 bd 29 8c 33 bd
       -0.025516836 -0.01402412 -0.055145305 -0.04383484
0003b0 ce 50 a7 3d bd 83 c5 bc f8 26 6f 3c 0c 4c 43 3d
       0.08169709 -0.02411067 0.014596693 0.047679946
0003c0 fd 26 09 bc 62 20 31 bd ec ab 5e 3d c7 cf e4 3c
       -0.008371112 -0.043243773 0.054363176 0.027931107
0003d0 24 3b a5 bd 01 2d 81 bc 0d 6a 84 3c 9e 54 96 3d
       -0.08067921 -0.01576853 0.01616385 0.07340358
0003e0 2c b9 f0 3c 7e f9 98 3d ff e1 a7 b8 80 1e ea bc
       0.029385172 0.07469462 -8.0052756e-05 -0.028578997
0003f0 0f e3 1f ba 8b 42 9a 3d f9 00 d5 3c 3c 50 c5 bb
       -0.0006099203 0.07532223 0.02600144 -0.0060215276

action_model._discrete_distribution.branches.0.bias f4 [5]
000000 53 38 cc bd 80 18 3d 3d 8e d9 4f 3d f0 f8 a3 3c
       -0.099716805 0.046165943 0.050744586 0.020016164
000010 d7 36 b0 bc
       -0.021510525

exp_avg f4 [128, 7]
000000 9f bd 90 ba 00 00 00 00 81 32 85 bb 53 81 21 b5
       -0.001104284 0.0 -0.0040648584 -6.0165365e-07
000010 00 00 00 00 de fd 4a bb 7e fd 07 bb e1 0f 7b bb
       0.0 -0.003097407 -0.0020750458 -0.0038309025
000020 00 00 00 00 36 d0 4b bb f6 98 44 bb 00 00 00 00
       0.0 -0.0031099445 -0.0029998398 0.0
000030 eb d9 16 bb f2 f1 64 39 ae 39 e7 3b 00 00 00 00
       -0.0023018073 0.00021833906 0.0070564365 0.0
000040 4f e9 5f 3b 4b 53 b0 3a 00 00 00 00 92 f7 1d 3b
       0.0034166162 0.0013452558 0.0 0.0024103862
000050 14 9c 63 3a 13 66 ca bb 00 00 00 00 a1 5a 31 3b
       0.000868262 -0.006176719 0.0 0.0027062076
000060 9b 8f 62 b9 00 00 00 00 f5 c3 bf 3a 81 02 9b 3a
       -0.00021606537 0.0 0.0014630543 0.0011826308
000070 5b a4 e1 bb 00 00 00 00 4d 68 9e bb 32 42 b0 bb
       -0.006886048 0.0 -0.004834211 -0.005378985
000080 00 00 00 00 30 77 a9 bb 72 e6 45 3a 9a 9d 17 bc
       0.0 -0.005171679 0.00075492926 -0.009253884
000090 00 00 00 00 eb 96 ce 3a 91 da bd bb 00 00 00 00
       0.0 0.001576153 -0.0057938774 0.0
0000a0 52 38 cd b9 3a 8a d9 38 cc 73 36 3c 00 00 00 00
       -0.0003914261 0.00010373113 0.011136007 0.0
0000b0 f6 79 1e 3c ac ee 25 3c 00 00 00 00 59 a4 18 3c
       0.009672632 0.010127705 0.0 0.009316527
0000c0 4d 03 12 ba 8c 67 36 bc 00 00 00 00 b6 ec 55 b8
       -0.000556995 -0.011133086 0.0 -5.100361e-05
0000d0 d2 44 f9 bb 00 00 00 00 9d b8 04 bb cc 97 55 ba
       -0.007607081 0.0 -0.002025164 -0.00081479247
0000e0 4c e5 69 3c 00 00 00 00 5f c2 c6 b8 05 f0 3f 3c
       0.01427586 0.0 -9.47758e-05 0.01171494
0000f0 00 00 00 00 8f d0 d9 3a c1 32 89 ba 6b 21 07 3a
       0.0 0.0016617941 -0.0010467396 0.0005154821
000100 00 00 00 00 e9 ef 12 39 53 39 20 3b 00 00 00 00
       0.0 0.00014013019 0.002444823 0.0
000110 1d b1 ae b8 b7 28 81 38 96 4e a0 bc 00 00 00 00
       -8.3299565e-05 6.158783e-05 -0.019568723 0.0
000120 dc 51 14 3b 8d 3e 3f bc 00 00 00 00 b9 c4 01 bb
       0.00226318 -0.011672628 0.0 -0.0019801094
000130 d7 95 95 b9 05 ba 3c 3b 00 00 00 00 1f eb 05 bb
       -0.00028531134 0.00287974 0.0 -0.0020434333
000140 fb 87 6c 3a 00 00 00 00 e8 08 92 ba 92 d7 4b ba
       0.0009022948 0.0 -0.001114157 -0.0007775958
000150 42 14 9f 3c 00 00 00 00 f1 66 88 bb 20 af 33 3c
       0.01941884 0.0 -0.004162662 0.010967046
000160 00 00 00 00 f7 80 e2 38 07 66 22 ba e9 f6 e5 3a
       0.0 0.00010800541 -0.0006195013 0.0017544898
000170 00 00 00 00 2a be bc b9 c0 f3 2d 3a 00 00 00 00
       0.0 -0.00035999838 0.0006635748 0.0
000180 2f 1a ac b9 91 af a3 b9 cb 6e f4 39 00 00 00 00
       -0.00032825905 -0.0003122059 0.00046621854 0.0
000190 0b 0a 0d 3a 52 e1 96 39 00 00 00 00 8e b8 ef 39
       0.00053802197 0.00028778106 0.0 0.00045723136
0001a0 3e 9e 4a 39 16 28 c9 bb 00 00 00 00 03 3e e7 3b
       0.00019323171 -0.006138812 0.0 0.007056953
0001b0 32 01 67 bb 00 00 00 00 fd f0 91 3b 34 82 37 3a
       -0.0035248515 0.0 0.004453777 0.0007000298
0001c0 dd ee 55 bb 00 00 00 00 e8 9b 9c ba 5c 23 1c bb
       -0.0032643594 0.0 -0.0011948319 -0.0023824787
0001d0 00 00 00 00 80 14 ac ba 88 34 5a 38 1f 88 cd bc
       0.0 -0.0013128668 5.2024174e-05 -0.025089322
0001e0 00 00 00 00 d7 40 e4 3b 3d 4f 6d bc 00 00 00 00
       0.0 0.0069657373 -0.014484224 0.0
0001f0 ab 54 93 3a d2 1e f4 3a c9 79 23 3a 00 00 00 00
       0.0011240443 0.0018624908 0.0006236104 0.0
000200 ce aa 5e b9 34 e1 2f 39 00 00 00 00 5b fe 83 b9
       -0.000212352 0.00016773195 0.0 -0.00025175777
000210 9b 1b 67 38 a3 b8 03 bc 00 00 00 00 0d 79 f4 3b
       5.51004e-05 -0.008039626 0.0 0.0074607194
000220 d2 77 01 bb 00 00 00 00 ab c8 78 3b 6f d6 32 3a
       -0.0019755256 0.0 0.0037961404 0.0006822114
000230 2c 4a b4 bb 00 00 00 00 39 63 ad 3a 15 c0 9c bb
       -0.005502006 0.0 0.0013228423 -0.00478364
000240 00 00 00 00 b0 75 1a 3a 73 67 19 3a cb d6 2f bc
       0.0 0.00058921706 0.0005851902 -0.010732363
000250 00 00 00 00 3f d2 31 3a 7b 2c 1f bc 00 00 00 00
       0.0 0.0006783343 -0.009715195 0.0
000260 65 30 42 ba 1d 60 14 3b ae b2 00 3a 00 00 00 00
       -0.0007407724 0.0022640296 0.0004909438 0.0
000270 31 d8 c0 3a c5 66 61 38 00 00 00 00 1f 6d 86 3a
       0.0014712868 5.3739892e-05 0.0 0.0010255909
000280 d3 47 4d 3a d4 48 02 3c 00 00 00 00 b8 02 75 bb
       0.0007830832 0.007951934 0.0 -0.0037385654
000290 69 2b b4 3b 00 00 00 00 6c 59 cd ba da 11 a1 ba
       0.005498339 0.0 -0.0015666909 -0.0012288645
0002a0 c3 9e b9 bb 00 00 00 00 99 aa 6d 3a fe 32 50 bb
       -0.005664678 0.0 0.00090662536 -0.0031768675
0002b0 00 00 00 00 42 2a 90 b9 99 8a de 39 d3 03 8a bb
       0.0 -0.00027497305 0.00042446403 -0.0042118817
0002c0 00 00 00 00 c5 43 81 bb a0 9c 53 bb 00 00 00 00
       0.0 -0.0039448463 -0.00322894 0.0
0002d0 f2 5a 8d bb a5 07 2e 3a 72 9e da bc 00 00 00 00
       -0.00431382 0.00066387124 -0.02668688 0.0
0002e0 fb a2 07 3a ff 0d 7f bc 00 00 00 00 45 dd 5e bb
       0.0005174127 -0.015567302 0.0 -0.0034006399
0002f0 cc da de 3a 2d 1c 1c ba 00 00 00 00 c1 63 9d 3a
       0.0017002462 -0.0005955126 0.0 0.0012007878
000300 4e 6c dd b9 00 00 00 00 09 f0 26 3a d4 80 0e 3a
       -0.00042233098 0.0 0.00063681655 0.0005436067
000310 c9 00 16 3c 00 00 00 00 32 1f 6d 3b 7c 60 da 3b
       0.009155461 0.0 0.0036181924 0.006664334
000320 00 00 00 00 4a be 72 3b 38 c2 00 bb e5 fc f0 ba
       0.0 0.003703969 -0.0019647013 -0.0018385915
000330 00 00 00 00 a1 d5 50 3a dd b5 f9 39 00 00 00 00
       0.0 0.00079664035 0.0004762848 0.0
000340 2f b5 02 ba 87 aa 64 bb 74 62 15 ba 00 00 00 00
       -0.0004986105 -0.0034891681 -0.00056985696 0.0
000350 ee 7f 5b b9 a2 ec bb 3a 00 00 00 00 72 f3 31 b9
       -0.00020933125 0.001433749 0.0 -0.00016970726
000360 50 5b 04 b9 cc d3 10 3b 00 00 00 00 98 4e 88 3a
       -0.00012622518 0.0022098897 0.0 0.0010399399
000370 bb 61 2d 39 00 00 00 00 cd fc 1e 3a 68 f4 d5 39
       0.00016534973 0.0 0.0006064892 0.00040808623
000380 d3 20 c8 ba 00 00 00 00 97 14 87 ba 01 8e 84 ba
       -0.0015268571 0.0 -0.0010305819 -0.0010113121
000390 00 00 00 00 cf 7c 51 ba c8 68 8b 38 60 5a 14 bb
       0.0 -0.0007991315 6.6475535e-05 -0.0022636876
0003a0 00 00 00 00 70 31 43 39 19 36 21 b9 00 00 00 00
       0.0 0.00018615066 -0.0001537431 0.0
0003b0 3e 03 4a 39 eb 73 8c b8 4f dd 01 3d 00 00 00 00
       0.00019265429 -6.6973116e-05 0.031705197 0.0
0003c0 7d 0b 2a bc ce 2e ab 3c 00 00 00 00 e7 f3 3f bb
       -0.010378716 0.020896342 0.0 -0.0029289664
0003d0 f6 e4 34 bb bc 48 de 3a 00 00 00 00 25 c9 31 bb
       -0.0027602292 0.0016958932 0.0 -0.0027127948
0003e0 f5 f4 2a 39 00 00 00 00 3f ac ea ba 5d 44 98 ba
       0.00016303717 0.0 -0.0017904117 -0.0011617054
0003f0 21 6f 05 3c 00 00 00 00 0d 96 b3 3a 78 81 d6 3b
       0.008144171 0.0 0.0013701335 0.0065461956

exp_avg_sq f4 [128, 7]
000000 dd d0 88 39 00 00 00 00 e6 9e ef 39 e9 e9 a0 39
       0.00026095557 0.0 0.0004570402 0.00030691855
000010 00 00 00 00 6b 71 f8 39 db 03 4e 37 c5 66 ce 3b
       0.0 0.0004738675 1.22794545e-05 0.006298872
000020 00 00 00 00 f1 8b a5 3b e9 13 cc 3a 00 00 00 00
       0.0 0.0050520827 0.0015569899 0.0
000030 1c 95 8d 3b aa 55 b2 38 21 7b 66 3c 00 00 00 00
       0.0043207537 8.5036576e-05 0.014067442 0.0
000040 ca fa 4f 3c 7c 71 5c 3b 00 00 00 00 a2 8f 2f 3c
       0.01269407 0.0033636978 0.0 0.010715397
000050 8e 50 9f 39 a7 8b a6 3b 00 00 00 00 32 1f c6 3b
       0.0003038686 0.005082566 0.0 0.0060461992
000060 a7 6e 86 3a 00 00 00 00 26 0e a0 3b e4 c3 a0 38
       0.0010256366 0.0 0.004884499 7.665882e-05
000070 7a 90 11 3c 00 00 00 00 50 95 e1 3b ee 25 09 3b
       0.008884544 0.0 0.0068842545 0.002092715
000080 00 00 00 00 ee b2 bb 3b 0e a6 dd 38 3d 2c 8e 3a
       0.0 0.005728117 0.00010569031 0.0010846924
000090 00 00 00 00 33 28 35 3a c3 bd 99 39 00 00 00 00
       0.0 0.0006910592 0.00029323818 0.0
0000a0 db 9a 17 3a 40 72 9e 37 e2 de 8b 3c 00 00 00 00
       0.0005783268 1.888827e-05 0.017074052 0.0
0000b0 17 b0 6e 3c 1d 1e a6 3b 00 00 00 00 85 d5 43 3c
       0.01456835 0.0050695078 0.0 0.0119527625
0000c0 b4 19 69 39 f5 22 5d 3b 00 00 00 00 4f ef 6d 3b
       0.00022230187 0.003374276 0.0 0.003630597
0000d0 8a f7 81 3a 00 00 00 00 27 2e d6 3a 54 38 77 38
       0.0009915691 0.0 0.0016340659 5.894185e-05
0000e0 05 a8 4c 3c 00 00 00 00 2f 81 37 3c f4 92 a6 3b
       0.012491231 0.0 0.011200233 0.005083436
0000f0 00 00 00 00 38 0f de 3b 52 f5 0e 39 57 17 1a 3b
       0.0 0.0067767166 0.00013633564 0.0023512447
000100 00 00 00 00 dc e2 4d 3b 8e 63 5f 3a 00 00 00 00
       0.0 0.0031415736 0.00085216097 0.0
000110 48 ba e0 3a f2 ad 1e 38 e9 81 3a 3b 00 00 00 00
       0.001714536 3.7832135e-05 0.002845878 0.0
000120 ed e0 1d 3b 7c 79 45 3a 00 00 00 00 38 f2 86 3a
       0.0024090365 0.0007533056 0.0 0.0010295575
000130 05 f7 82 38 f6 34 59 3a 00 00 00 00 2a 27 83 3a
       6.244894e-05 0.0008285785 0.0 0.0010006179
000140 e7 c6 7b 39 00 00 00 00 fe dd fc 39 02 0c 6d 37
       0.00024011322 0.0 0.00048230583 1.4129097e-05
000150 83 0c 40 3a 00 00 00 00 3f 68 13 3a ab 33 92 39
       0.0007326083 0.0 0.0005623139 0.00027885786
000160 00 00 00 00 67 3a d1 39 8c 5e 5b 37 67 40 15 3b
       0.0 0.000399071 1.3075431e-05 0.0022773982
000170 00 00 00 00 7b 58 e1 3a 04 0b d8 39 00 00 00 00
       0.0 0.0017192507 0.00041206938 0.0
000180 d7 ad c1 3a 86 00 09 38 e9 95 82 3a 00 00 00 00
       0.001477654 3.2663833e-05 0.000996289 0.0
000190 c4 0e 82 3a a9 c0 14 3a 00 00 00 00 54 30 64 3a
       0.0009922613 0.00056744606 0.0 0.0008704711
0001a0 51 7d 6b 37 10 97 84 3b 00 00 00 00 ae 81 60 3b
       1.4036269e-05 0.0040463284 0.0 0.0034256983
0001b0 8d 0b 8a 3a 00 00 00 00 ea 95 26 3b 1d 57 60 38
       0.0010532007 0.0 0.0025418946 5.3486892e-05
0001c0 df 17 15 3a 00 00 00 00 dd ac e7 39 a0 99 71 39
       0.0005687456 0.0 0.00044188547 0.00023040781
0001d0 00 00 00 00 38 ea 9c 39 72 8d 0a 37 78 2e 04 3b
       0.0 0.00029929145 8.258374e-06 0.00201693
0001e0 00 00 00 00 cb 55 d1 3a 9f a9 2d 3a 00 00 00 00
       0.0 0.0015971003 0.0006624702 0.0
0001f0 04 0d 26 3a a5 e6 a1 37 74 b9 3e 3a 00 00 00 00
       0.0006334337 1.9300098e-05 0.00072755595 0.0
000200 c8 cf 43 3a 7a f8 50 39 00 00 00 00 9e 10 30 3a
       0.00074696215 0.0001992899 0.0 0.00067163433
000210 e6 33 7f 37 ee 74 c6 3b 00 00 00 00 03 0a 9e 3b
       1.5211268e-05 0.0060564196 0.0 0.004822971
000220 38 30 02 3b 00 00 00 00 1d 27 84 3b 59 50 9e 38
       0.0019865166 0.0 0.004032983 7.548993e-05
000230 9c 1c 9b 3b 00 00 00 00 9b bb 2a 3b b5 f0 19 3b
       0.004733635 0.0 0.0026051763 0.002348942
000240 00 00 00 00 f3 43 0a 3b c9 e7 49 38 6b dd 57 3b
       0.0 0.002109763 4.8138e-05 0.0032938372
000250 00 00 00 00 da 25 37 3b ac 00 9c 3a 00 00 00 00
       0.0 0.0027946145 0.0011902056 0.0
000260 ea c6 13 3b b5 35 5b 38 56 13 0e 3a 00 00 00 00
       0.0022548982 5.2263687e-05 0.00054197514 0.0
000270 5f d5 e6 39 d9 7e 29 39 00 00 00 00 a0 d9 83 39
       0.00044027992 0.0001616435 0.0 0.0002514841
000280 54 ea 56 37 4d 72 3c 3a 00 00 00 00 a9 a8 ad 39
       1.2809953e-05 0.0007188663 0.0 0.00033122793
000290 e4 4d 73 39 00 00 00 00 ae a9 52 39 a0 16 30 37
       0.00023203302 0.0 0.00020090371 1.0495685e-05
0002a0 e2 81 88 3a 00 00 00 00 2a 23 56 3a a9 fe 00 3a
       0.0010414685 0.0 0.0008168692 0.000492076
0002b0 00 00 00 00 b4 10 15 3a 55 d9 5e 37 d1 ab 84 3c
       0.0 0.0005686388 1.3282833e-05 0.01619521
0002c0 00 00 00 00 8f f3 68 3c cb fa 82 3b 00 00 00 00
       0.0 0.014218225 0.003997182 0.0
0002d0 7a 19 44 3c da 5a 79 39 f0 f2 37 3c 00 00 00 00
       0.011968965 0.00023780335 0.011227354 0.0
0002e0 20 7d ec 3b e5 2c 8e 3b 00 00 00 00 6e ba dd 3b
       0.0072170645 0.004338848 0.0 0.006766609
0002f0 26 0e 03 39 70 2f 1e 3a 00 00 00 00 46 20 06 3a
       0.00012498404 0.00060342904 0.0 0.00051165035
000300 29 01 11 39 00 00 00 00 cb 8e 85 39 f7 a3 56 37
       0.0001382871 0.0 0.00025474126 1.279357e-05
000310 6f 79 72 3c 00 00 00 00 7b df 51 3c 7c 5f 8b 3b
       0.01479946 0.0 0.01280963 0.004253326
000320 00 00 00 00 02 c5 24 3c ac f0 20 39 a5 00 36 3c
       0.0 0.010056736 0.00015348446 0.011108552
000330 00 00 00 00 ad 21 1c 3c b3 cb 87 3b 00 00 00 00
       0.0 0.009529513 0.004144156 0.0
000340 f3 40 d1 3b 79 f5 18 39 6a 3e 5a 3b 00 00 00 00
       0.0063859164 0.00014587295 0.0033301362 0.0
000350 18 92 a4 3b c9 0e 40 3a 00 00 00 00 f4 33 d8 3a
       0.0050222985 0.0007326422 0.0 0.0016494975
000360 e4 eb 56 38 6f 92 f9 3a 00 00 00 00 ad a8 e7 3a
       5.1241266e-05 0.0019040833 0.0 0.0017674171
000370 25 8f 89 39 00 00 00 00 1d 3a b9 3a 0e 57 1c 38
       0.00026237327 0.0 0.0014131699 3.7274374e-05
000380 f2 49 4f 3a 00 00 00 00 9e a1 26 3a 27 7a 97 39
       0.0007907442 0.0 0.00063564803 0.00028891975
000390 00 00 00 00 f7 98 12 3a da d9 15 37 ab a1 3e 3b
       0.0 0.00055922515 8.931815e-06 0.002908806
0003a0 00 00 00 00 4e aa 9c 3b a0 08 d3 39 00 00 00 00
       0.0 0.004781044 0.00040251482 0.0
0003b0 35 21 75 3b 6f 95 82 38 5c a7 ed 3a 00 00 00 00
       0.0037403826 6.226717e-05 0.0018131542 0.0
0003c0 33 ed 71 3a e8 b3 0a 3a 00 00 00 00 67 0f c0 39
       0.0009228766 0.00052910903 0.0 0.0003663257
0003d0 9e e3 ac 37 d8 ff 75 3a 00 00 00 00 10 7e 01 3a
       2.060999e-05 0.0009384132 0.0 0.0004939744
0003e0 99 c3 cc 39 00 00 00 00 31 8a f3 39 e7 f3 a6 37
       0.00039055644 0.0 0.00046451532 1.9902318e-05
0003f0 25 ee 9c 3b 00 00 00 00 9d 1c 8b 3b f6 9d c2 3a
       0.004789131 0.0 0.0042453543 0.0014848101

exp_avg f4 [128]
000000 5c fc 87 ba 67 f2 e4 38 66 8d e3 39 42 07 1b 3a
       -0.0010374892 0.00010917038 0.00043402164 0.0005913862
000010 da eb c5 39 24 a6 59 38 4d 03 92 b9 f4 90 d5 b9
       0.0003775049 5.1891562e-05 -0.0002784975 -0.00040734524
000020 ef 3b 09 ba 50 2b 01 38 e9 91 15 b9 23 d5 cb b9
       -0.0005235066 3.0796335e-05 -0.00014264103 -0.00038877976
000030 d7 6a a2 b9 af c4 23 b9 6f 98 ca 38 34 82 b7 39
       -0.0003097865 -0.00015618162 9.6605036e-05 0.0003500149
000040 c3 4a da 37 d7 1f 74 3a a9 13 e7 37 6f d6 b2 39
       2.6022439e-05 0.0009312606 2.75465e-05 0.0003411057
000050 73 67 99 39 92 5e 94 3a b4 4d cd 39 93 18 21 ba
       0.0002925951 0.0011319688 0.0003915854 -0.00061453244
000060 9e 8a 5e 39 ad 07 ae 39 cc da 5e 3a 24 8a 8e 39
       0.00021223209 0.00033193585 0.0008501231 0.00027187273
000070 3f c2 80 ba 86 ab e4 ba 98 70 84 b8 13 e8 55 39
       -0.0009823515 -0.0017446137 -6.315223e-05 0.00020399717
000080 c2 68 0b 38 c2 a7 0c b8 dc e8 b4 ba 9b 44 18 ba
       3.3237746e-05 -3.3534838e-05 -0.0013802308 -0.0005808563
000090 5e 38 0e ba 5c 53 50 ba b7 74 0f b8 f7 ec 9f 39
       -0.00054252695 -0.0007946992 -3.4202556e-05 0.00030503396
0000a0 7e 27 c0 b6 fe c4 50 ba 70 8f 26 b7 75 92 48 39
       -5.7266434e-06 -0.00079639244 -9.927768e-06 0.00019128046
0000b0 ab 21 da b9 7a bf 4a ba e8 73 fa b7 d4 9f 82 3a
       -0.00041605285 -0.00077342207 -2.9856295e-05 0.0009965845
0000c0 03 6f b0 b6 8c 92 ed b9 03 6c 2e 39 13 00 1b ba
       -5.258132e-06 -0.00045313349 0.0001663417 -0.0005912792
0000d0 24 8a 72 b9 05 26 07 b8 5a ba 49 ba 14 61 45 b9
       -0.0002313038 -3.2221917e-05 -0.000769531 -0.00018823548
0000e0 6b 50 8e ba 56 82 63 3a 26 c7 5b b8 fd 85 30 39
       -0.0010857707 0.00086787844 -5.239914e-05 0.00016834582
0000f0 41 9b 85 b8 14 95 42 3a b2 22 19 38 4f 35 45 b8
       -6.3708525e-05 0.0007422727 3.6510355e-05 -4.7018108e-05
000100 a5 10 a2 b9 b6 38 78 ba cb f6 02 ba b3 1b 62 39
       -0.0003091145 -0.00094689 -0.00049958815 0.00021563358
000110 0a 2f 00 b8 00 30 35 39 d5 1c 72 b7 65 c1 86 b8
       -3.0561387e-05 0.00017279387 -1.4431037e-05 -6.4256405e-05
000120 67 b3 d0 ba 1f 61 ab b8 ee 85 57 ba a1 8a ce 39
       -0.0015922607 -8.1720056e-05 -0.0008221556 0.00039394668
000130 2a 0f fa ba fc e5 36 3a 0b 07 3c 3a c7 31 9f b9
       -0.0019078006 0.00069770194 0.00071726803 -0.0003036393
000140 9d 14 48 3a cc 0f c7 39 b3 65 59 b9 f1 44 70 ba
       0.0007632466 0.00037968007 -0.00020732619 -0.00091655465
000150 1e 7c b5 b9 eb 5f 99 39 6e 41 80 39 f4 96 63 ba
       -0.00034615485 0.00029253899 0.0002446281 -0.00086818566
000160 3b b2 bd 39 72 22 cc b9 b5 72 b3 3a 29 a0 33 3a
       0.0003618168 -0.00038935576 0.0013690802 0.0006852174
000170 64 5e 23 3a e3 2d d8 b9 6d 20 77 b8 11 d3 29 39
       0.0006232022 -0.0004123292 -5.8919588e-05 0.00016195724
000180 ed 3a 80 ba 01 25 58 b9 8a 1e c6 39 19 42 c0 b9
       -0.0009783186 -0.0002061315 0.00037788256 -0.0003667034
000190 3f 27 3a ba bf f1 2b ba 56 36 8b ba 73 6f e0 b7
       -0.0007101185 -0.00065591553 -0.0010621052 -2.6754778e-05
0001a0 c2 57 45 3a e8 cc 69 b9 7a b5 b1 3a 6e 21 cf b9
       0.00075280305 -0.00022296945 0.0013558113 -0.00039507024
0001b0 85 a4 0e b9 4a e1 e1 b8 4d 5c ae 38 af f1 8a 39
       -0.00013603464 -0.000107707994 8.314159e-05 0.0002650148
0001c0 72 69 32 b9 46 3b 37 b9 66 2d 36 b8 41 aa 52 38
       -0.00017014684 -0.00017474321 -4.3434462e-05 5.0226463e-05
0001d0 44 ed b7 38 4e 7e 09 39 bf 14 f4 b9 0c bf a4 b8
       8.770314e-05 0.0001311239 -0.00046554764 -7.855715e-05
0001e0 de e4 22 ba 60 53 9f 39 e7 48 f2 b9 e2 9d bc b9
       -0.00062139134 0.00030388962 -0.00046212153 -0.00035975786
0001f0 c4 9e 9c 3a e0 9d 1b ba 47 8d a1 38 60 95 4f b8
       0.0011949171 -0.0005936306 7.703393e-05 -4.9491762e-05

exp_avg_sq f4 [128]
000000 3b 27 45 36 a9 fc aa 37 f1 1f 98 38 a6 27 9a 37
       2.9378123e-06 2.0383233e-05 7.253874e-05 1.8376693e-05
000010 9b 07 d7 37 26 37 89 36 2d af 64 38 54 b0 66 37
       2.5633539e-05 4.0893383e-06 5.452258e-05 1.3750123e-05
000020 50 a9 08 38 66 42 14 37 3f 30 67 37 41 e6 5b 36
       3.258261e-05 8.836947e-06 1.3779906e-05 3.2767568e-06
000030 cd 33 4f 36 c1 31 fd 36 4a c2 4a 36 e4 7b 5b 37
       3.0875556e-06 7.5457797e-06 3.0213437e-06 1.3082263e-05
000040 b2 b1 04 36 25 77 9c 36 bf 5f 6f 36 e4 41 99 37
       1.9772965e-06 4.6630325e-06 3.5669507e-06 1.8269704e-05
000050 53 7c 45 37 0b 2f 54 37 d4 b3 3b 36 0e bf 1e 36
       1.17710615e-05 1.2647138e-05 2.7969845e-06 2.3655043e-06
000060 38 27 57 36 63 68 6b 38 55 89 ff 37 4e 7c 30 36
       3.2060325e-06 5.6125584e-05 3.0462319e-05 2.6298399e-06
000070 43 f3 1b 38 2f 38 12 38 a1 5b 4a 37 d3 d3 10 37
       3.7181435e-05 3.4861438e-05 1.2061472e-05 8.632388e-06
000080 34 19 0b 36 83 ba 7e 37 92 04 a9 36 06 22 91 36
       2.0727284e-06 1.5183005e-05 5.0371245e-06 4.3252976e-06
000090 ad bd 6f 37 2a a3 f2 36 41 b8 98 36 38 a1 00 37
       1.4289672e-05 7.231157e-06 4.551403e-06 7.666931e-06
0000a0 49 28 11 37 7a 64 ab 36 bb 66 17 37 83 25 36 37
       8.652053e-06 5.107894e-06 9.02422e-06 1.0856779e-05
0000b0 e2 77 ad 35 d5 1c 4e 38 54 a9 11 37 42 ef b6 37
       1.2924395e-06 4.914108e-05 8.682098e-06 2.1807504e-05
0000c0 68 b7 2c 37 c3 cd ba 37 67 35 26 37 23 6f 8d 37
       1.02947015e-05 2.2268743e-05 9.906805e-06 1.6860262e-05
0000d0 64 4d ca 36 ac ca be 35 e9 f6 4d 36 70 54 d3 37
       6.0290786e-06 1.4215088e-06 3.06911e-06 2.519248e-05
0000e0 d2 56 47 37 1f 10 37 37 24 0d 30 38 3d 55 25 36
       1.1881539e-05 1.09114035e-05 4.1973908e-05 2.4636531e-06
0000f0 84 c9 14 36 ca 6e a9 37 d9 56 9a 36 6c 8e d4 36
       2.2171016e-06 2.019796e-05 4.599668e-06 6.3346724e-06
000100 5a 54 ac 37 c5 1f 24 38 8c 24 ec 36 fc 8c bf 37
       2.0543277e-05 3.9130235e-05 7.0376027e-06 2.2834625e-05
000110 9f d0 79 36 16 e1 b0 36 78 ef b6 37 26 4c d3 37
       3.7225325e-06 5.271412e-06 2.1807602e-05 2.518862e-05
000120 f8 fb 9f 36 2b 45 14 37 8f 5b a9 37 a4 e8 83 36
       4.7679023e-06 8.837592e-06 2.0189005e-05 3.931187e-06
000130 c8 50 1d 39 67 71 84 37 3b d4 a8 37 c1 b1 e2 36
       0.0001500278 1.5788433e-05 2.0125988e-05 6.756018e-06
000140 00 8c b8 36 56 d3 12 38 fb cf 1b 37 a2 68 22 36
       5.4999255e-06 3.5005934e-05 9.287144e-06 2.4200785e-06
000150 f4 f8 87 37 e0 6f b1 36 d9 3d 00 38 c3 e2 51 37
       1.6209182e-05 5.288035e-06 3.057518e-05 1.2510168e-05
000160 c6 7c 58 37 66 0d d4 36 f7 21 81 37 c3 55 4c 37
       1.2903654e-05 6.319652e-06 1.5393814e-05 1.21793155e-05
000170 55 ed db 37 62 b6 ac 36 50 46 99 37 44 c6 50 37
       2.621735e-05 5.1472316e-06 1.8271763e-05 1.2443928e-05
000180 88 da bd 36 9d d0 4c 37 c4 7c b0 37 ab 98 f5 35
       5.6580793e-06 1.2207919e-05 2.1038933e-05 1.8298355e-06
000190 f8 64 0d 38 c7 83 a2 37 6d ed ca 36 87 3f 19 37
       3.3711054e-05 1.9373269e-05 6.047709e-06 9.134302e-06
0001a0 87 b2 14 37 8a d7 5b 37 aa 08 3e 38 76 ed 3f 37
       8.863054e-06 1.3103601e-05 4.53076e-05 1.1439775e-05
0001b0 57 41 7c 36 9d ab 6b 36 55 bb d9 36 79 db c3 37
       3.758896e-06 3.511762e-06 6.4889123e-06 2.3348011e-05
0001c0 49 9b 86 37 4f 65 3e 37 bc 49 b9 36 ab 18 91 36
       1.6046355e-05 1.134847e-05 5.5220135e-06 4.3242085e-06
0001d0 be a5 16 37 98 9f a7 35 04 5c 85 35 6f 2c 7d 35
       8.979287e-06 1.2488917e-06 9.936052e-07 9.4314504e-07
0001e0 a0 72 1b 37 46 bc 86 37 0f 31 92 36 ab 46 ba 36
       9.265408e-06 1.6061716e-05 4.3568502e-06 5.551459e-06
0001f0 73 fc eb 37 19 ef 35 36 e1 be f9 35 57 bc 09 37
       2.8131739e-05 2.7110275e-06 1.8607499e-06 8.209688e-06
