results/SnakeAgent/SnakeAgent/SnakeAgent-118537.onnx (onnx, 495949 bytes, 18 tensors)

network_body.observation_encoder.processors.0.self_ent_encoder.seq_layers.0.bias f4 [128]
-0.057154745 -0.02164759 -0.017634977 0.00018308901 0.020512395 -0.017374558 0.007680626 -0.033366486
0.0060533886 -0.08506167 -0.04286267 -0.010207499 0.023765072 -0.030144216 0.09294782 -0.017784018
-0.01257113 -0.008761434 -0.029574895 0.0030337546 0.02654894 0.014448026 0.035360448 -0.02303577
0.030150253 0.0490576 -0.0022138527 -0.0008749065 -0.007480856 -0.073983066 0.042050824 0.0022128148
0.0012589647 -0.0058925143 -0.005949621 -0.019954266 -0.004903211 0.02686705 0.062027123 0.080326386
0.05929675 -0.024550887 0.036240175 -0.007446715 -0.009568738 0.0005157313 -0.045963164 -0.011436883
-0.0033122157 0.018679818 -0.057073716 0.055697434 0.0006875303 0.020675715 -0.066819035 0.04145331
-0.024674254 0.024799483 -0.0730195 0.0020458787 -0.0046080905 0.0701426 0.0065619503 0.015569091
0.010974422 0.023008056 0.009365359 -0.0039796904 0.043909427 -0.039526794 0.010792474 -0.014831893
-0.02053797 -0.009373631 0.036165006 -0.049555805 -0.015734848 -0.0157751 0.020081125 -0.017131122
-0.025204347 0.0125541035 -0.037245486 -0.020059206 -0.006761629 -0.010534673 -0.019968964 -0.025572453
-0.0030095002 0.027502974 0.0013009233 0.039195444 -0.053807538 0.03820152 0.06454718 -0.03205687
-0.0075478917 -0.022464795 -0.005895174 0.053500712 -0.025582176 -0.017087104 -0.029005183 -0.008420464
0.0015478771 0.026093626 -0.03992188 0.016956145 -0.03383376 -0.036715943 0.005232182 -0.01773793
-0.020416725 0.022493413 -0.011632531 -0.014277606 -0.016849611 0.009607306 0.022202332 0.01014082
-0.033177607 -0.06407971 -0.009974116 -0.038782544 0.03302475 -0.011523033 -0.049753234 0.020251606
00000000: 181b 6abd 4956 b1bc 3a77 90bc 95fb 3f39
00000010: 9c09 a83c 1755 8ebc c3ad fb3b 4cab 08bd
00000020: 815b c63b d034 aebd c490 2fbd 5b3d 27bc
00000030: f8ae c23c 01f1 f6bc 6d5b be3d caaf 91bc
00000040: 24f7 4dbc 1e8c 0fbc 0d47 f2bc f5d1 463b
00000050: 2a7d d93c 6ab7 6c3c 1ed6 103d 83b5 bcbc
00000060: aafd f63c 9ff0 483d 4916 11bb fb59 65ba
00000070: f821 f5bb 6f84 97bd 7c3d 2c3d df04 113b
00000080: d803 a53a fe15 c1bb 0af5 c2bb 2177 a3bc
00000090: 1dab a0bb 4a18 dc3c 2710 7e3d 2982 a43d
000000a0: 26e1 723d f11e c9bc 9470 143d 9303 f4bb
000000b0: 32c6 1cbc 2432 073a df43 3cbd c461 3bbc
000000c0: c211 59bb 6b06 993c 21c6 69bd fe22 643d
000000d0: 613b 343a 1e60 a93c 6bd8 88bd f2ca 293d
000000e0: a921 cabc 4928 cb3c 3f8b 95bd 2614 063b
000000f0: 77ff 96bb eca6 8f3d a105 d73b 8015 7f3c
00000100: 10ce 333c 647b bc3c 2a71 193c 1068 82bb
00000110: 5fda 333d d9e6 21bd ebd2 303c 7801 73bc
00000120: 3f3f a8bc dc93 19bc c221 143d 07fb 4abd
00000130: 5ee6 80bc c83a 81bc 2c81 a43c 9156 8cbc
00000140: 5979 cebc baaf 4d3c b98e 18bd 3453 a4bc
00000150: a890 ddbb 9f99 2cbc f495 a3bc 527d d1bc
00000160: 093b 45bb eb4d e13c be83 aa3a 678b 203d
00000170: 4b65 5cbd 3279 1c3d 5031 843d 114e 03bd
00000180: 4e54 f7bb 1708 b8bc 4e2c c1bb 9023 5b3d
00000190: b691 d1bc 41fa 8bbc 479c edbc fcf5 09bc
000001a0: 23e2 ca3a 4dc2 d53c 2085 23bd 9de7 8a3c
000001b0: 4595 0abd 7563 16bd b972 ab3b 234f 91bc
000001c0: fa40 a7bc 1b44 b83c 5f96 3ebc 9fec 69bc
000001d0: 3208 8abc f667 1d3c aae1 b53c af25 263c
000001e0: 3ee5 07bd 393c 83bd 7a6a 23bc 72da 1ebd
000001f0: f644 073d 1acb 3cbc 0cca 4bbd b2e6 a53c

network_body.observation_encoder.rsa.fc_q.bias f4 [128]
0.08577747 -0.0006056555 -0.017523177 0.07206482 0.03726608 0.08148213 0.057029866 -0.023206145
-0.0841856 -0.09340199 -0.08952851 0.018732073 -0.08028973 -0.09648132 0.07318103 -0.10071884
-0.024545124 0.10625847 0.05066584 -0.09489313 -0.0743662 0.07329975 -0.0970703 -0.09893983
-0.0139004225 0.06889486 0.07457632 0.094001316 -0.05432966 -0.07666809 0.090328105 -0.09580641
-0.053225238 0.06469683 0.08057062 -0.08813996 -0.069371015 -0.0884525 0.07877569 0.08506227
0.09242328 -0.07982147 0.087168075 -0.08017509 -0.073323116 -0.076978356 -0.08186692 -0.08474593
0.09054675 0.08272272 0.068834506 -0.08072338 -0.07424191 -0.0654173 0.07820328 0.09346855
0.07663727 0.082647935 0.07800381 -0.065195374 0.078814544 0.07572434 -0.09329023 -0.070753194
-0.05194821 -0.0611785 -0.06617366 0.05515544 0.054050397 -0.058251213 -0.041620485 -0.06540766
-0.05515429 -0.048048355 -0.061842114 -0.059201088 -0.06041854 0.05612233 0.056256447 0.053700536
-0.048575938 0.05457456 0.062519886 0.0657952 -0.063300356 0.041996356 -0.056417957 -0.061378837
-0.028916223 0.05465744 0.044479664 0.066707015 0.046367604 -0.002942557 0.048995707 0.023355676
-0.08450342 -0.07168863 0.06798585 0.08002173 -0.024008434 0.045130994 0.08570996 0.08835987
-0.040093254 0.06573016 0.01497059 -0.07507637 -0.042440396 -0.02765041 -0.012678443 -0.07526206
-0.025003852 0.087191455 -0.075538345 -0.08428908 -0.056736708 -0.048607226 0.040334467 -0.017123483
-0.06174054 0.042185668 -0.014508587 0.046123173 0.08379694 -0.073690966 0.08671765 -0.0019926406
00000000: 19ac af3d dac4 1eba c48c 8fbc b896 933d
00000010: 51a4 183d 1ae0 a63d 2698 693d d01a bebc
00000020: 8069 acbd 8b49 bfbd b95a b7bd 0174 993c
00000030: f16e a4bd 0098 c5bd f0df 953d ae45 cebd
00000040: db12 c9bc 0a9e d93d fc86 4f3d 5457 c2bd
00000050: 4e4d 98bd 2e1e 963d cbcc c6bd f7a0 cabd
00000060: 99be 63bc c018 8d3d 78bb 983d c383 c03d
00000070: c788 5ebd 2904 9dbd f1fd b83d 2736 c4bd
00000080: b502 5abd c67f 843d 3602 a53d b982 b4bd
00000090: 6412 8ebd 9626 b5bd 2655 a13d 2135 ae3d
000000a0: 6b48 bd3d 7079 a3bd 2d85 b23d d632 a4bd
000000b0: 6e2a 96bd d4a6 9dbd d8a9 a7bd 468f adbd
000000c0: 9370 b93d 886a a93d 1bf9 8c3d 4d52 a5bd
000000d0: 240c 98bd 81f9 85bd 0b29 a03d 706c bf3d
000000e0: 00f4 9c3d 5243 a93d 76c0 9f3d 2785 85bd
000000f0: 8569 a13d 5d15 9b3d f30e bfbd 0de7 90bd
00000100: a5c7 54bd 4f96 7abd 0e86 87bd acea 613d
00000110: f363 5d3d d398 6ebd 3e7a 2abd 74f4 85bd
00000120: 77e9 61bd 5ace 44bd 284e 7dbd d77c 72bd
00000130: 6e79 77bd 87e0 653d 296d 663d 18f5 5b3d
00000140: 90f7 46bd 9389 5f3d 6d0a 803d a2bf 863d
00000150: 9ea3 81bd 5f04 2c3d 8416 67bd 6068 7bbd
00000160: b7e1 ecbc 7be0 5f3d 4f30 363d b09d 883d
00000170: f5eb 3d3d ead7 40bb b9af 483d 6754 bf3c
00000180: 2110 adbd 7dd1 92bd 2a3c 8b3d 6fe2 a33d
00000190: 56ad c4bc 47db 383d b488 af3d 05f6 b43d
000001a0: d338 24bd 899d 863d 3547 753c a4c1 99bd
000001b0: fbd5 2dbd 1d83 e2bc 3fb9 4fbc ff22 9abd
000001c0: e1d4 ccbc 6f91 b23d d9b3 9abd c19f acbd
000001d0: c064 68bd 5f18 47bd c135 253d 8c46 8cbc
000001e0: a6e3 7cbd e1ca 2c3d 6db5 6dbc a7eb 3c3d
000001f0: bb9d ab3d 4aeb 96bd 0699 b13d f696 02bb

network_body.observation_encoder.rsa.fc_k.bias f4 [128]
0.00018500065 -5.3268927e-06 -4.350587e-05 0.00020486704 0.00014833202 0.00018806841 5.4222226e-05 -6.964581e-05
-0.00020269564 -0.00017224462 -0.00019963099 8.384164e-05 -0.00019674918 -0.00020669185 1.9665711e-05 -0.00021332095
-0.00012255635 0.0001964228 5.5451434e-05 -0.00019715217 -0.00018384402 0.00019240752 -0.00018171973 -0.00019207413
5.7075893e-05 0.0001667917 0.00016259814 0.0001799757 -0.00013188533 -0.00016686736 0.00016908922 -0.00017914169
-1.0146932e-05 -1.1168042e-05 1.9958528e-05 -4.1648186e-06 2.8584465e-05 -6.6922644e-06 -7.554311e-05 6.324364e-06
0.0001755976 -4.7124217e-05 5.9217567e-05 -4.74906e-05 2.310993e-05 -3.6741338e-05 -5.528215e-05 1.5389181e-05
-1.2318359e-05 7.0813156e-05 2.2196213e-05 0.000101870144 -6.743118e-06 -0.00012035276 8.132187e-05 0.00010428564
2.3939137e-05 0.00016803888 1.1557442e-05 2.9165729e-05 -8.631043e-06 5.9252114e-05 -7.528761e-05 -3.5952376e-05
-2.4970686e-05 -4.0196748e-05 7.554412e-06 9.211089e-06 1.26445575e-05 -2.5119543e-05 3.803163e-05 7.2704147e-06
-2.4182622e-05 -3.1487474e-05 -8.958426e-06 9.0614285e-06 -2.4510095e-06 1.237441e-05 -2.7761813e-05 -8.714862e-06
-1.8407334e-05 3.309815e-06 -7.084824e-07 1.1311692e-05 3.1429438e-06 3.747422e-05 2.0431129e-05 -2.0803294e-05
4.646054e-05 1.05588915e-05 2.468425e-05 2.4221326e-05 4.5119864e-06 3.9036833e-05 3.0164152e-05 -2.8365645e-05
4.3200165e-05 2.6425658e-05 8.7709486e-05 -3.5681733e-06 0.00012279955 2.7404827e-05 -7.442203e-05 -1.3396549e-05
-7.860637e-05 5.740117e-05 -0.00012488433 8.2908555e-05 5.4804946e-06 -8.5350504e-05 0.00012084846 -6.1195765e-06
-0.00011726275 -5.6941866e-05 7.2869676e-05 6.4475e-05 5.181464e-06 -5.6153338e-05 6.39561e-05 0.00011069164
2.7824675e-05 7.3413525e-05 -0.000119625416 6.3543645e-05 -5.4558488e-05 -5.8253314e-05 -6.591376e-05 -0.00012753709
00000000: bcfc 4139 a9bd b2b6 127a 36b8 94d1 5639
00000010: 9389 1b39 3b34 4539 ac6c 6338 cf0e 92b8
00000020: b28a 54b9 909c 34b9 0954 51b9 23d4 af38
00000030: 754e 4eb9 6cbb 58b9 cbf7 a437 e8ae 5fb9
00000040: 7882 00b9 d8f6 4d39 8694 6838 a2ba 4eb9
00000050: 41c6 40b9 00c1 4939 058c 3eb9 8267 49b9
00000060: c664 6f38 cee4 2e39 1b7f 2a39 dcb7 3c39
00000070: b34a 0ab9 1ef9 2eb9 8b4d 3139 fbd7 3bb9
00000080: be3c 2ab7 605e 3bb7 9d6c a737 85bf 8bb6
00000090: acc8 ef37 1d8e e0b6 e66c 9eb8 e035 d436
000000a0: 9f20 3839 3ea7 45b8 6160 7838 a530 47b8
000000b0: 32dc c137 b61a 1ab8 c2de 67b8 0418 8137
000000c0: f3aa 4eb7 8681 9438 0132 ba37 1ea3 d538
000000d0: f142 e2b6 e565 fcb8 598b aa38 edb3 da38
000000e0: e8d0 c837 9833 3039 d6e6 4137 eda8 f437
000000f0: 0cce 10b7 7985 7838 bae3 9db8 92cb 16b8
00000100: 2478 d1b7 ee98 28b8 e87b fd36 5389 1a37
00000110: f623 5437 cfb7 d2b7 2784 1f38 63f4 f336
00000120: c9db cab7 6b11 04b8 264c 16b7 8a06 1837
00000130: 067c 24b6 b09b 4f37 0ae2 e8b7 0c36 12b7
00000140: 7369 9ab7 301e 5e36 8a2e 3eb5 59c7 3d37
00000150: 5deb 5236 a32d 1d38 8463 ab37 bc82 aeb7
00000160: a0de 4238 1826 3137 0611 cf37 e72e cb37
00000170: ab65 9736 7bbb 2338 0609 fd37 c2f2 edb7
00000180: d331 3538 abac dd37 acf0 b738 c074 6fb6
00000190: c1c3 0039 6be3 e537 0613 9cb8 bdc1 60b7
000001a0: 79d9 a4b8 09c2 7038 62f3 02b9 31df ad38
000001b0: 17e5 b736 34fe b2b8 0670 fd38 c356 cdb6
000001c0: f6ea f5b8 ddd4 6eb8 9cd1 9838 c136 8738
000001d0: 70dc ad36 3086 6bb8 2b20 8638 1f23 e838
000001e0: 0969 e937 96f5 9938 68df fab8 bc42 8538
000001f0: bbd5 64b8 0555 74b8 2e3b 8ab8 7abb 05b9

network_body.observation_encoder.rsa.fc_v.bias f4 [128]
-0.042073853 0.0074193454 -0.011613823 0.031950448 0.013729562 0.0042860173 -0.014450116 0.02536006
0.004998845 0.04906314 0.008783987 -0.029784193 -0.016427407 0.021945177 -0.0074182847 -0.0062972545
-0.00026004927 -0.013020603 -0.027364789 -0.008469199 0.0030141727 -0.015824398 -0.034165554 0.010008802
-0.009857955 0.014010605 0.0017818154 -0.011927815 -0.0006955438 0.006010512 -0.033778504 -0.016804215
-0.025324391 -0.0017471171 0.025444781 -0.0017597497 0.04446897 0.04156568 0.015870884 -0.012785303
0.011079401 0.036043964 0.0013582519 0.06478928 -0.002698087 0.031029575 0.03711424 0.009358913
0.00485988 0.041679777 -0.03268684 0.03593593 0.0016815374 0.013820513 0.04159437 -0.03127146
-0.006926419 0.00040942474 0.018807601 0.004340779 0.018569347 -0.020951666 0.0008965704 0.0171522
0.0060489085 0.007895861 -0.0029405607 0.016873775 0.043708693 -0.045762848 -0.019307258 -0.011886285
-0.032274086 0.01588828 0.043250963 0.0016955 -0.014750234 -0.007475703 0.021804418 0.026232472
-0.028484805 0.0033275287 -0.04073563 -0.0063807117 0.020272197 -0.01323378 0.05020912 -0.011837484
-0.037832554 0.053031005 -0.0065459237 0.025963884 0.0046849377 0.01718433 -0.01940143 0.018730437
0.009245627 0.014634832 0.018805588 0.0082376525 -0.011128558 -0.0047627613 -0.004962096 -0.0036182043
0.044496216 -0.0129254 -0.046656784 0.006092797 -0.016787816 -0.047522385 -0.018775739 -0.011956883
-0.024570685 0.018261211 0.003291718 0.0009264652 0.032944124 -0.012547116 0.042682998 0.0330337
-0.010673137 0.009474677 0.011707637 -0.025031125 0.03537984 0.030866325 -0.0041517606 -0.004325723
00000000: a255 2cbd fb1d f33b e747 3ebc 79de 023d
00000010: f5f1 603c b871 8c3b 2ec0 6cbc e7bf cf3c
00000020: 5acd a33b 6ef6 483d b6ea 0f3c fbfd f3bc
00000030: c592 86bc 5fc6 b33c 1515 f3bb 3359 cebb
00000040: 3957 88b9 5e54 55bc 1f2c e0bc 65c2 0abc
00000050: 6d89 453b 2ba2 81bc 2ef1 0bbd f5fb 233c
00000060: 4383 21bc bd8c 653c ce8b e93a e26c 43bc
00000070: 2755 36ba d4f3 c43b 545b 0abd fea8 89bc
00000080: 1975 cfbc 86ff e4ba 9371 d03c 67a7 e6ba
00000090: 1825 363d c640 2a3d a803 823c 7379 51bc
000000a0: 6086 353c d6a2 133d 5f07 b23a 3eb0 843d
000000b0: 63d2 30bb bc31 fe3c 1a05 183d 2056 193c
000000c0: a13f 9f3b 6ab8 2a3d a3e2 05bd 8e31 133d
000000d0: 0867 dc3a 6f6f 623c dc5e 2a3d 8116 00bd
000000e0: 04f7 e2bb 0fa8 d639 6612 9a3c 183d 8e3b
000000f0: be1e 983c d4a2 abbc d207 6b3a c582 8c3c
00000100: ec35 c63b a45d 013c 6cb6 40bb df3a 8a3c
00000110: e307 333d d371 3bbd 412a 9ebc b1be 42bc
00000120: d531 04bd 2328 823c ec27 313d 8a3b de3a
00000130: f7aa 71bc bef6 f4bb 2e9f b23c 7be5 d63c
00000140: f758 e9bc ab12 5a3b 67da 26bd 4a15 d1bb
00000150: e111 a63c 7fd2 58bc 14a8 4d3d 02f2 41bc
00000160: 4ff6 1abd 0a37 593d 307f d6bb 36b2 d43c
00000170: 1b84 993b 27c6 8c3c bfef 9ebc 9370 993c
00000180: f87a 173c efc6 6f3c 2d0e 9a3c 38f7 063c
00000190: 8e54 36bc f010 9cbb 1499 a2bb 651f 6dbb
000001a0: aa41 363d 0fc5 53bc 2f1b 3fbd 16a6 c73b
000001b0: 9a86 89bc d5a6 42bd 94cf 99bc cde6 43bc
000001c0: 7648 c9bc 8998 953c ddb9 573b 07de 723a
000001d0: 6bf0 063d 6b92 4dbc 5ed4 2e3d 584e 073d
000001e0: 62de 2ebc ad3b 1b3c 64d1 3f3c 130e cdbc
000001f0: 73ea 103d 60db fc3c 7e0b 88bb cbbe 8dbb

network_body.observation_encoder.rsa.fc_out.bias f4 [128]
-0.0668589 0.0024206766 -0.03973232 0.0643983 -0.004225745 -0.036780927 0.006318393 -0.07505695
-0.0021620705 -0.15010254 -0.0321218 -0.040262315 0.008720749 -0.06598683 0.12442638 0.015236488
0.019093331 -0.046092402 -0.09321399 0.017183898 0.034071248 -0.0052358764 0.07516325 -0.03140453
0.052913442 0.07854819 0.013727922 0.020168243 -0.004386472 -0.09143915 -0.05418606 -0.03033981
0.021740155 0.06739888 0.0028303186 -0.02604595 -0.030874554 0.01504497 0.110600494 0.119772635
-0.026771646 -0.00453342 0.07412395 -0.028173614 -0.0047155516 -0.007876248 -0.08896114 0.012495782
-0.004547411 0.014067936 -0.08977868 0.027745917 0.028380794 0.0376422 -0.08560143 0.036840674
-0.014815661 0.0418423 -0.042204995 0.007850899 -0.027929079 0.13117665 -0.022078315 0.01503158
0.08220184 0.053576346 0.041574527 -0.0072875777 0.035359077 -0.058176674 0.040672194 -0.022580137
0.0050783437 -0.05362847 0.0015929112 -0.083353445 0.049113877 0.024004662 -0.003829725 -0.038879465
-0.011471194 -0.0024872273 -0.03793429 -0.029077938 -0.01356163 0.015159501 -0.011893722 -0.06089922
0.09833618 0.071519375 -0.026423227 0.047501553 -0.06934405 0.039549515 0.054189175 -0.071190156
0.0401508 0.029400742 -0.0021751418 0.01749525 -0.035791125 -0.045435477 -0.04909886 -0.02062236
-0.120377146 0.058059633 -0.061795887 0.032841243 0.024311136 -0.047045063 0.0033866572 0.0070972713
0.0023809418 0.060962085 0.024734465 -0.027269669 -0.0052137435 0.0009035602 0.031640645 0.00786199
-0.02999872 -0.0972833 -0.024467994 -0.013577105 0.08020603 0.005707221 -0.048803367 0.039133314
00000000: 52ed 88bd 37a4 1e3b 5bbe 22bd 42e3 833d
00000010: 1e78 8abb 99a7 16bd 860a cf3b 75b7 99bd
00000020: 86b1 0dbb 7bb4 19be 2692 03bd 19ea 24bd
00000030: 79e1 0e3c 1a24 87bd 42d3 fe3d 76a2 793c
00000040: 9e69 9c3c 63cb 3cbd fae6 bebd 3fc5 8c3c
00000050: 4b8e 0b3d b791 abbb 31ef 993d 09a2 00bd
00000060: c4bb 583d e0dd a03d 14eb 603c df37 a53c
00000070: 65bc 8fbb 7344 bbbd 34f2 5dbd 318b f8bc
00000080: 6918 b23c 6d08 8a3d de7c 393b 515e d5bc
00000090: a2ec fcbc 2e7f 763c 8382 e23d 5b4b f53d
000000a0: 3650 dbbc 158d 94bb 4cce 973d 5acc e6bc
000000b0: ea84 9abb 610b 01bc 4231 b6bd 1cbb 4c3c
000000c0: 7302 95bb 337d 663c e2dd b7bd 684b e33c
000000d0: d77e e83c b52e 1a3d cd4f afbd 3fe6 163d
000000e0: 63bd 72bc d562 2b3d 25df 2cbd 0fa1 003c
000000f0: 86cb e4bc 2c53 063e 95dd b4bc 0447 763c
00000100: 7059 a83d df72 5b3d 0d4a 2a3d a2cc eebb
00000110: aed4 103d aa4a 6ebd e397 263d fbf9 b8bc
00000120: 3c68 a63b 87a9 5bbd 3bc9 d03a 36b5 aabd
00000130: a22b 493d 6da5 c43c 20fc 7abb 1340 1fbd
00000140: adf1 3bbc c000 23bb fc60 1bbd db34 eebc
00000150: 9931 5ebc 8e5f 783c e3dd 42bc 7671 79bd
00000160: 7b64 c93d c078 923d 8675 d8bc fd90 423d
00000170: 4104 8ebd acfe 213d 78f5 5d3d 25cc 91bd
00000180: 2a75 243d d3d9 f03c d38c 0ebb 3352 8f3c
00000190: b799 12bd 8d1a 3abd e31b 49bd 39f0 a8bc
000001a0: 4b88 f6bd f0cf 6d3d af1d 7dbd 8a84 063d
000001b0: 2628 c73c 53b2 40bd aef2 5d3b 3a90 e83b
000001c0: 9309 1c3b 61b3 793d ef9f ca3c a464 dfbc
000001d0: 0dd8 aabb e6dc 6c3a 9f99 013d 93cf 003c
000001e0: e0bf f5bc 773c c7bd 1a71 c8bc 8172 5ebc
000001f0: 0f43 a43d a403 bb3b 0ae6 47bd 414a 203d

network_body.observation_encoder.x_self_encoder.seq_layers.0.weight f4 [128, 2]
-0.019692443 0.022995971 -0.003405061 -0.030470448 -0.022955557 -0.020151908 -0.07278967 0.033951886
0.115928665 -0.03531065 0.021578545 -0.0150826415 0.10429109 0.020981867 -0.12799086 0.0053514247
-0.009390973 -0.008719769 -0.06306819 0.08352385 0.14151615 -0.013554132 0.009754861 -0.020504992
0.134028 -0.0018520867 -0.10593689 0.015939765 0.13876595 -0.0099873105 0.00011233036 0.026948312
0.063224286 -0.0201666 0.04359275 -0.0104170125 -0.0065565095 0.03784124 -0.07725015 0.016458966
-0.08193382 0.01844354 -0.08125496 0.0002539176 0.022327766 -0.010738512 -0.06840275 -0.030234871
-0.010067565 -0.022337638 0.1217 -0.01082464 0.021761023 0.0014728323 -0.009411081 0.026965745
-0.025816178 -0.017969156 -0.021044811 0.00046202965 0.014290865 0.016429015 0.14466839 -0.006330081
0.13038619 -0.0006400496 -0.089834824 0.028639214 0.091032 -0.01844412 0.012796 -0.0033203552
0.15244466 0.012642349 0.020849118 -0.049222644 -0.096980125 0.015988097 0.12228354 0.001311307
0.039392788 0.03254831 -0.09309984 -0.006852582 -0.07779822 0.006962391 -0.009589802 -0.015049735
0.087950364 -0.026073353 0.010959937 -0.0037482989 0.12773526 0.010263905 0.05445019 0.04464671
-0.015477054 0.0069460035 -0.11804872 -0.0075277155 -0.08113359 0.0259803 0.091774784 0.012339895
-0.022846894 -0.026382662 -0.011772401 0.025173523 -0.07828571 -0.06397889 -0.001188626 -0.014387944
0.018086167 -0.05461555 0.017743338 -0.019232312 0.014253772 0.013427314 -0.010318854 0.017863259
-0.10687168 -0.008835009 -0.11155894 -0.05833279 0.06306976 -0.014369771 0.009182124 0.00778475
-0.0125635555 0.020210128 -0.14430737 -0.037930164 0.034685098 0.020147989 -0.014630751 0.014133717
-0.011092957 -0.031764355 -0.043190103 -0.014651784 -0.07488198 0.016969021 0.15246966 -0.024806751
0.1177498 0.0013612431 0.106490366 -0.0013099543 -0.027016483 0.018075112 -0.044772096 -0.052077793
-0.04964041 0.021101365 -0.015265472 -0.030749489 0.029524704 0.0096378345 -0.089821905 0.0035806594
-0.05492267 0.01953636 0.044649802 -0.024447348 -0.07934361 0.01444674 -0.09151597 0.04967668
-0.0030492842 -0.021156695 0.07205293 -0.0107608745 -0.008767424 -0.03526208 -0.041355528 -0.020647641
-0.076065354 0.019871458 0.0030306664 -0.025865696 0.052138496 -0.023198843 -0.06630315 0.0666717
-0.0027268904 0.002359714 0.09809101 -0.028323008 0.102474704 0.035979684 -0.014780869 -0.009718928
0.04580594 0.04876677 -0.10780997 0.026531747 0.056233354 -0.01574103 0.09627344 -0.018568624
0.019180639 -0.02881587 0.11585712 -0.0032578518 -0.046392847 -0.050892614 0.17223307 -0.025179515
0.15500544 0.0005224052 -0.122998804 -0.006360501 -0.088303424 -0.00020991656 0.08831829 -0.024020545
-0.02749998 -0.008538921 -0.0908725 0.008818182 -0.07442921 0.021318382 -0.0058867666 -0.016948082
-0.016852885 -0.05441682 -0.009404655 -0.069003105 -0.01057212 -0.0022737493 -0.108618096 0.034555957
-0.032119565 0.045907237 0.04959977 -0.03463282 -0.04806792 -0.026654737 -0.105784535 -0.0058444315
-0.054391168 0.02823017 0.075554915 -0.003989102 -0.1143105 -0.020801175 0.010437168 -0.016019486
-0.0682297 0.019562231 -0.0736019 0.06719222 -0.06693693 0.017011415 0.088674136 -0.047311068
00000000: 0c52 a1bc 0c62 bc3c 7227 5fbb 299d f9bc
00000010: 4b0d bcbc 9d15 a5bc c012 95bd 2211 0b3d
00000020: 026c ed3d e6a1 10bd 7dc5 b03c 2f1d 77bc
00000030: 9196 d53d 2ae2 ab3c 0910 03be 015b af3b
00000040: 98dc 19bc 5ddd 0ebc e529 81bd 8d0e ab3d
00000050: 9ce9 103e 2612 5ebc dad2 1f3c 16fa a7bc
00000060: a33e 093e b8c1 f2ba 71f5 d8bd 1c94 823c
00000070: a918 0e3e d1a1 23bc e792 eb38 b5c2 dc3c
00000080: bc7b 813d 6d34 a5bc 508e 323d 1eac 2abc
00000090: fdd7 d6bb 6bff 1a3d 5435 9ebd f4d4 863c
000000a0: ebcc a7bd e816 973c 0069 a6bd 3e20 8539
000000b0: b8e8 b63c 95f0 2fbc be16 8cbd 1faf f7bc
000000c0: 6ef2 24bc 6cfd b6bc d93d f93d d559 31bc
000000d0: 2c44 b23c 0d0c c13a ef30 1abc 44e7 dc3c
000000e0: 737c d3bc 0d34 93bc 2b66 acbc 923c f239
000000f0: 3b24 6a3c 2496 863c f323 143e 916c cfbb
00000100: f583 053e 00c9 27ba 52fb b7bd c99c ea3c
00000110: fc6e ba3d 2018 97bc 50a6 513c 519a 59bb
00000120: 741a 1c3e db21 4f3c c5cb aa3c af9d 49bd
00000130: 849d c6bd 78f9 823c cb6f fa3d 29e0 ab3a
00000140: 555a 213d 6051 053d 21ab bebd a08b e0bb
00000150: ac54 9fbd c524 e43b 8b1e 1dbc 2a93 76bc
00000160: 521f b43d c997 d5bc 4f91 333c 05a6 75bb
00000170: 08cd 023e f029 283c 2a07 5f3d 78df 363d
00000180: 7893 7dbc 4d9b e33b 87c3 f1bd 0eab f6bb
00000190: 5e29 a6bd a3d4 d43c 6bf4 bb3d 452d 4a3c
000001a0: 6929 bbbc 7420 d8bc 07e1 40bc b438 ce3c
000001b0: 4254 a0bd 5d07 83bd accb 9bba 69bb 6bbc
000001c0: 7129 943c 8eb4 5fbd 7a5a 913c 158d 9dbc
000001d0: a788 693c 3dfe 5b3c 6910 29bc f855 923c
000001e0: 8adf dabd b7c0 10bc 0379 e4bd 5dee 6ebd
000001f0: b82a 813d 306f 6bbc 9f70 163c 3717 ff3b
00000200: 5fd7 4dbc b68f a53c 50c5 13be a95c 1bbd
00000210: f611 0e3d 650d a53c d1b5 6fbc 1b91 673c
00000220: 3cbf 35bc 571b 02bd 1be8 30bd 090e 70bc
00000230: b95b 99bd 9e02 8b3c 0221 1c3e 8737 cbbc
00000240: cf26 f13d bd6b b23a 9f17 da3d c6b2 abba
00000250: ac51 ddbc 4212 943c f262 37bd 864f 55bd
00000260: be53 4bbd c5dc ac3c 081c 7abc 5ae6 fbbc
00000270: cbdd f13c 02e8 1d3c 8cf4 b7bd 7fa9 6a3b
00000280: 98f6 60bd b70a a03c b6e2 363d ce45 c8bc
00000290: e77e a2bd 05b2 6c3c ba6c bbbd c679 4b3d
000002a0: 80d6 47bb ce50 adbc 7d90 933d 614e 30bc
000002b0: 3ea5 0fbc f96e 10bd 6a64 29bd 3e25 a9bc
000002c0: 27c8 9bbd 78c9 a23c 259e 463b 4ce4 d3bc
000002d0: 2d8f 553d 800b bebc f2c9 87bd 2c8b 883d
000002e0: a1b5 32bb 6ea5 1a3b f0e3 c83d a705 e8bc
000002f0: 42de d13d 6f5f 133d 752b 72bc 233c 1fbc
00000300: 029f 3b3d aabf 473d 79cb dcbd 1b59 d93c
00000310: f254 663d 55f3 80bc 022b c53d 3a1d 98bc
00000320: b720 9d3c 420f ecbc 7f46 ed3d af81 55bb
00000330: 6d06 3ebd c674 50bd de5d 303e 4545 cebc
00000340: bfb9 1e3e 05f2 083a cce6 fbbd c06b d0bb
00000350: 6dd8 b4bd 0c1d 5cb9 38e0 b43d bcc6 c4bc
00000360: a347 e1bc d5e6 0bbc 5c1b babd 237a 103c
00000370: 576e 98bd e3a3 ae3c c7e5 c0bb b4d6 8abc
00000380: 100f 8abc 2ce4 5ebd fb15 1abc 8051 8dbd
00000390: af36 2dbc 2f03 15bb 2a73 debd 8c8a 0d3d
000003a0: ce8f 03bd 3a09 3c3d 2129 4b3d 25db 0dbd
000003b0: dee2 44bd 095b dabc 90a5 d8bd a582 bfbb
000003c0: 46c9 5ebd f542 e73c 89bc 9a3d 03b7 82bb
000003d0: a01b eabd 3a67 aabc a800 2b3c 4c3b 83bc
000003e0: 03bc 8bbd f940 a03c 98bc 96bd 139c 893d
000003f0: 3b16 89bd 865b 8b3c c99a b53d 40c9 41bd

network_body.observation_encoder.x_self_encoder.seq_layers.0.bias f4 [128]
-0.007974402 -0.0043687834 -0.035925787 -0.017511325 0.027270084 -6.4542524e-05 0.023725849 -0.023720363
0.00022059021 -0.039115865 0.021839416 0.0035714235 0.024625989 -0.02374201 0.040407047 -0.036835022
0.04549103 0.008190385 -0.033408295 -0.019005755 -0.025692897 -0.017263765 -0.010313582 -0.001323292
-0.009284975 0.044927515 0.002183427 -0.0118897045 -0.017522367 -0.016311076 0.012129649 0.035455123
0.033424865 -0.0075112088 0.0137660485 -0.011737392 0.039032362 0.029960288 -0.030131584 0.035661574
0.008348941 -0.030320877 -0.03015393 0.0074957083 0.03099423 -0.02555408 0.028944766 0.014860078
-0.0071477275 -0.028198706 -0.034774806 0.043223802 -0.018569792 -0.028670717 -0.020002255 -0.0012346414
0.022095483 0.009087209 -0.019822465 0.010107539 -0.02949288 -0.022911254 0.037378885 0.0057634353
0.007945753 -0.009405763 -0.004690468 0.020357346 -0.0142247975 -0.01833436 -0.017768081 0.026327364
0.023326028 0.039531622 0.0056048925 -0.019644015 -0.028465068 0.014444052 0.018247936 -0.034022834
0.0018415507 0.041132785 -0.018583786 -0.00466854 -0.02696764 0.035671838 0.003293018 -0.014970824
-0.0032926686 0.007125831 0.01568927 -0.042123474 -0.0077504446 0.01658588 0.019727094 0.0059462464
-0.008926892 -0.008838099 0.014971371 0.020895671 0.0014707684 0.02069489 -0.013287471 0.046613548
0.03495083 -0.038539518 -0.02213795 0.005720479 -0.012350128 -0.025809912 -0.03883353 -0.0045258603
0.033922747 0.02730758 -0.024157275 -0.0046976865 -0.032145 0.033501077 -0.008250159 -0.021876782
-0.051588893 0.023349449 -0.030241188 -0.0071092956 -0.03456246 -0.018029537 -0.03387725 0.02672132
00000000: 11a7 02bc 0328 8fbb eb26 13bd e973 8fbc
00000010: 8365 df3c 015b 87b8 b65c c23c 3551 c2bc
00000020: 3c4e 6739 f537 20bd 93e8 b23c 8b0e 6a3b
00000030: 71bc c93c 9b7e c2bc dc81 253d 52e0 16bd
00000040: cd54 3a3d f730 063c 23d7 08bd f5b1 9bbc
00000050: e979 d2bc bd6c 8dbc 4cfa 28bc 5072 adba
00000060: 0220 18bc ea05 383d d417 0f3b 09cd 42bc
00000070: 118b 8fbc ce9e 85bc 6fbb 463c 6439 113d
00000080: 83e8 083d 9620 f6bb fe8a 613c 314e 40bc
00000090: 66e0 1f3d 476f f53c 83d6 f6bc df11 123d
000000a0: ffc9 083c 7d63 f8bc 6005 f7bc 8f9e f53b
000000b0: 9de7 fd3c ca56 d1bc 931d ed3c af77 733c
000000c0: 7c37 eabb f900 e7bc 0770 0ebd 710b 313d
000000d0: ad1f 98bc dade eabc c5db a3bc b1d3 a1ba
000000e0: 9601 b53c 84e2 143c b962 a2bc 179a 253c
000000f0: 0d9b f1bc 62b0 bbbc 9a1a 193d 33db bc3b
00000100: e72e 023c a11a 1abc 7fb2 99bb 73c4 a63c
00000110: 200f 69bc f131 96bc 5e8e 91bc 7cac d73c
00000120: 3a16 bf3c e9eb 213d 3fa9 b73b 7cec a0bc
00000130: 932f e9bc bfa6 6c3c b27c 953c 875b 0bbd
00000140: 3060 f13a da7a 283d 063d 98bc 8dfa 98bb
00000150: 3deb dcbc a21c 123d adcf 573b 3048 75bc
00000160: d0c9 57bb ce7f e93b c986 803c aa89 2cbd
00000170: 71f7 fdbb 1ddf 873c b79a a13c bbd8 c23b
00000180: 1942 12bc adcd 10bc 7b4a 753c 662d ab3c
00000190: ccc6 c03a 5488 a93c b1b3 59bc d9ed 3e3d
000001a0: 9a28 0f3d 9ddb 1dbd a55a b5bc db72 bb3b
000001b0: 3158 4abc 4f6f d3bc e80f 1fbd ab4d 94bb
000001c0: 94f2 0a3d 25b4 df3c 7ae5 c5bc 0def 99bb
000001d0: 7aaa 03bd 6d38 093d ad2b 07bc f036 b3bc
000001e0: e04e 53bd 5847 bf3c 5ebc f7bc 18f5 e8bb
000001f0: 5e91 0dbd aeb2 93bc dfc2 0abd abe6 da3c

network_body._body_endoder.seq_layers.0.weight f4 [128, 130]
0.3148644 -0.2755253 -0.008137325 -0.029297832 -0.08644972 -0.04189571 -0.050131213 0.10997999
-0.06084487 -0.005136534 -0.0524024 -0.099139914 -0.033691045 -0.09471796 -0.10491884 0.17643066
0.03810084 -0.014228909 -0.061922934 -0.004152696 -0.14279348 0.034930687 -5.528546e-05 0.076133266
0.07127781 -0.039926402 0.035273153 0.033995252 0.025751935 -0.013679746 -0.10061635 -0.18566212
0.04705621 -0.018564355 -0.08640067 -0.07958609 0.116995096 -0.03452445 -0.0644949 -0.019261628
-0.13372476 0.08567877 -0.016044317 0.005793849 -0.023236135 -0.095958985 0.0615467 -0.019889036
0.107579 -0.032101613 -0.02285125 -0.15839188 -0.037066583 -0.08272338 0.037902284 -0.15187931
-0.012105811 0.08710435 0.01384405 0.14866655 0.10967802 0.037344407 -0.11086447 0.06724611
-0.06445252 0.14344436 -0.02728901 -0.050380513 -0.07036656 0.008583364 -0.1712435 0.025283594
0.08054363 0.09096417 -0.0755171 -0.021151101 0.027232798 -0.009342201 0.08926603 0.13747032
-0.055605955 0.065457255 0.08743707 0.07676228 0.17804547 0.06470696 -0.03811014 -0.07286273
0.16323818 0.06558476 -0.03595765 0.08467258 0.03354005 0.0050725425 0.019518325 -0.047176797
0.016406374 0.027417216 -0.035397504 0.022031032 0.072444096 0.084273346 -0.09882504 -0.08411011
0.0139098205 0.04648038 -0.040473554 0.027123494 -0.13593291 -0.045268603 0.06350447 0.0030143138
-0.01953227 -0.16732213 0.03092287 0.22163679 0.10944132 0.20745394 -0.03597865 0.022529643
0.013287244 0.08253744 0.0917711 -0.066187955 -0.008967772 0.0155421095 0.047206752 0.010812397
0.049470622 0.016517524 -0.06479371 -0.28966206 -0.0627038 0.009698067 0.0585013 0.09151037
0.19815403 -0.061575532 0.095006354 0.09679197 -0.0033821897 0.12275033 0.019675327 -0.037067734
0.015704924 0.083506465 -0.080892585 0.12400435 0.1120141 -0.04991159 -0.079759516 0.05947072
0.058516856 0.045274574 0.05937795 0.117148 0.06939837 -0.010735187 0.065736465 0.05577354
-0.09606445 -0.01197879 -0.04836436 0.005244849 0.07205173 0.013324987 0.06827246 0.0672487
-0.09670398 -0.028088506 0.0207686 -0.07013657 0.0370982 -0.025857825 -0.08212164 0.016799133
0.044668943 0.044298287 -0.075695746 -0.08982954 0.030226558 0.11635038 0.10293664 0.06941506
-0.008385942 0.08363935 0.027715191 0.07492127 -0.11173141 -0.009357959 -0.077801034 -0.108665355
-0.060581733 -0.086858466 0.14911424 -0.12733926 -0.093545675 0.015508882 -0.09189779 -0.090765476
0.042857364 -0.076767385 -0.13727728 -0.031480405 0.021527816 -0.15666595 -0.13401113 0.01856709
0.066897355 -0.056426823 -0.03499816 0.032680057 0.11144529 0.06496641 0.064607844 0.001552762
-0.0028803444 0.0068822624 -0.039578877 -0.017731752 0.09891461 -0.024679422 0.13428888 0.07731815
0.028251685 0.06849981 -0.021106033 0.010135282 0.0692931 0.13179462 -0.029285282 -0.08851164
0.13831773 -0.03993615 0.055180855 0.04047582 -0.14623763 -0.044112153 0.027726352 -0.009638153
0.12503769 0.080212906 0.010746811 -0.11957455 0.04424614 -0.039721742 0.061786607 -0.016620502
0.064759806 -0.05564655 -0.12032948 -0.1309922 0.19195907 -0.033039264 0.18332468 0.10760241
00000000: e835 a13e a711 8dbe 6a52 05bc 0202 f0bc
00000010: 8d0c b1bd d69a 2bbd 6356 4dbd 303d e13d
00000020: 7838 79bd 5f50 a8bb e6a3 56bd de09 cbbd
00000030: 9fff 09bd 7dfb c1bd b0df d6bd 3daa 343e
00000040: a00f 1c3d 5f20 69bc e7a2 7dbd 5713 88bb
00000050: 7438 12be 7b13 0f3d 50e2 67b8 c2eb 9b3d
00000060: 1afa 913d de89 23bd 957a 103d 9b3e 0b3d
00000070: b9f5 d23c 0321 60bc f20f cebd 361e 3ebe
00000080: 03be 403d 4614 98bc d6f2 b0bd 08fe a2bd
00000090: 209b ef3d 8269 0dbd e715 84bd 90ca 9dbc
000000a0: 25ef 08be 5a78 af3d 5f6f 83bc 54da bd3b
000000b0: b559 bebc 2586 c4bd 6418 7c3d 55ee a2bc
000000c0: 6152 dc3d fb7c 03bd 8b32 bbbc 7b31 22be
000000d0: 21d3 17bd e06a a9bd 6d3f 1b3d 4086 1bbe
000000e0: 7457 46bc c463 b23d 27d2 623c 0b3c 183e
000000f0: df9e e03d 73f6 183d e90c e3bd 54b8 893d
00000100: afff 83bd 14e3 123e 348d dfbc cc5b 4ebd
00000110: 581c 90bd 3da1 0c3c 755a 2fbe 8a1f cf3c
00000120: 0ff4 a43d 6c4b ba3d b6a8 9abd 1345 adbc
00000130: 5117 df3c 0810 19bc 1cd1 b63d 05c5 0c3e
00000140: 12c3 63bd 740e 863d 3512 b33d 8b35 9d3d
00000150: 8d51 363e 1585 843d 6119 1cbd 0e39 95bd
00000160: e927 273e 4d51 863d 5448 13bd d168 ad3d
00000170: 4b61 093d 9237 a63b e5e4 9f3c 753c 41bd
00000180: a966 863c 129a e03c f9fc 10bd 6c7a b43c
00000190: 925d 943d 8197 ac3d c864 cabd ec41 acbd
000001a0: 04e6 633c 3662 3e3d 99c7 25bd 1732 de3c
000001b0: ff31 0bbe 926b 39bd a20e 823d cb8b 453b
000001c0: 2402 a0bc 7e56 2bbe f551 fd3c c1f4 623e
000001d0: c522 e03d ce6e 543e 595e 13bd 1690 b83c
000001e0: beb2 593c 6409 a93d 7df2 bb3d 8d8d 87bd
000001f0: 90ed 12bc 55a4 7e3c de5b 413d 7b26 313c
00000200: b5a1 4a3d c24f 873c 91b2 84bd 964e 94be
00000210: da6a 80bd a4e4 1e3c 0f9f 6f3d ca69 bb3d
00000220: e4e8 4a3e a036 7cbd b192 c23d de3a c63d
00000230: baa7 5dbb 8664 fb3d 272e a13c 56d4 17bd
00000240: 9da7 803c 7005 ab3d 03ab a5bd fef5 fd3d
00000250: a667 e53d 1870 4cbd f558 a3bd 9297 733d
00000260: 5faf 6f3d d571 393d 4b36 733d 4aeb ef3d
00000270: bc20 8e3d a3e2 2fbc d7a0 863d cc72 643d
00000280: 70bd c4bd b042 44bc b519 46bd fbdc ab3b
00000290: db8f 933d 0c51 5a3c 6ed2 8b3d b0b9 893d
000002a0: bc0c c6bd de19 e6bc e922 aa3c c3a3 8fbd
000002b0: 48f4 173d cad3 d3bc 642f a8bd 569e 893c
000002c0: c8f6 363d 1f72 353d 5f06 9bbd 8df8 b7bd
000002d0: b09d f73c 1c49 ee3d 72d0 d23d 7c29 8e3d
000002e0: 3165 09bc 1c4b ab3d f80a e33c 5370 993d
000002f0: 70d3 e4bd 2052 19bc 2656 9fbd f18b debd
00000300: 8d24 78bd dae2 b1bd 67b1 183e 3965 02be
00000310: e094 bfbd f718 7e3c e934 bcbd 40e3 b9bd
00000320: 348b 2f3d 3838 9dbd 6a92 0cbe 99f1 00bd
00000330: 1a5b b03c 0a6d 20be 373a 09be 031a 983c
00000340: 7b01 893d d01f 67bd 3b5a 0fbd 86db 053d
00000350: 6e3d e43d 1c0d 853d 1e51 843d 0c86 cb3a
00000360: 29c4 3cbb 9a84 e13b 761d 22bd 2e42 91bc
00000370: be93 ca3d 802c cabc 0683 093e fa58 9e3d
00000380: 1470 e73c a149 8c3d 8fe6 acbc 740e 263c
00000390: 8ae9 8d3d 2bf5 063e b0e7 efbc 9745 b5bd
000003a0: 2aa3 0d3e 1794 23bd 5205 623d f9c9 253d
000003b0: 51bf 15be f2ae 34bd 6022 e33c 58e9 1dbc
000003c0: e109 003e aa46 a43d 6413 303c 80e3 f4bd
000003d0: 713b 353d 44b3 22bd f413 7d3d b827 88bc
000003e0: caa0 843d a3ed 63bd 4d6f f6bd d222 06be
000003f0: eb90 443e 2e54 07bd 77b9 3b3e a75e dc3d

network_body._body_endoder.seq_layers.0.bias f4 [128]
0.1294109 0.12597103 -0.00177268 0.042560633 0.04945075 -0.01879974 0.057702806 0.08170372
0.2204573 0.06140914 -0.019081652 0.04328129 0.042206544 0.046822056 0.12891594 0.015905008
0.15018666 0.05235433 0.03706297 0.13990198 0.09619057 0.018875971 -0.037465654 0.028280752
0.039832532 0.16809459 0.06178585 0.04094731 0.09929341 0.07954317 -0.010065465 0.14167312
0.08352225 -0.011898369 -0.21165302 0.043606855 0.07916521 -0.010122794 0.0013024022 0.035386883
0.07748481 0.08705493 0.03746322 -0.0015931868 0.14092854 -0.033477984 -0.09742493 0.0098919775
0.00021256534 0.05128917 0.06820553 0.06977345 0.1328934 0.053160068 0.07985651 -0.04790671
0.030358585 0.05637485 0.05108678 0.0044477093 -0.06382116 -0.049136236 0.055892583 0.07304111
0.049657665 0.039574888 0.06272742 0.035940442 -0.014650302 -0.021233454 0.0044725733 -0.080568954
0.10089239 0.073946826 0.007317918 0.040415443 0.11335748 0.06353097 -0.07701342 0.10550069
-0.07553889 0.07632675 -0.028495027 -0.08434179 0.048515946 -0.14365661 0.18178749 0.017595315
0.06344673 -0.0014540121 0.05220987 0.11346069 -0.00080874615 0.095406 0.096607186 0.09066362
0.08864307 -0.13033602 0.08034658 0.06798416 0.017541014 -0.072737895 -0.007571567 -0.074425414
0.09435804 -0.0005092908 0.07566681 0.056315444 0.14891024 0.03031786 0.1432885 0.12739903
0.077037536 0.070038855 0.009923034 0.16281822 0.011483463 0.06473882 -0.0055312035 0.05834325
0.022546256 -0.03902117 0.07328461 0.056862 0.11779271 0.07428327 -0.027557986 0.094716124
00000000: 4a84 043e 8dfe 003e 4559 e8ba 0f54 2e3d
00000010: df8c 4a3d ea01 9abc c759 6c3d 4854 a73d
00000020: 8fbf 613e 2688 7b3d 2051 9cbc b947 313d
00000030: c5e0 2c3d 7cc8 3f3d 8a02 043e 384b 823c
00000040: 88ca 193e 7e71 563d 57cf 173d 7742 0f3e
00000050: 90ff c43d c8a1 9a3c 9675 19bd 09ad e73c
00000060: 7027 233d fd20 2c3e 2913 7d3d 5eb8 273d
00000070: 585a cb3d 88e7 a23d 9fe9 24bc c212 113e
00000080: b70d ab3d 60f1 42bc 92bb 58be 1a9d 323d
00000090: 5f21 a23d 13da 25bc 5eb5 aa3a d6f1 103d
000000a0: 5bb0 9e3d db49 b23d 0973 193d 7ad2 d0ba
000000b0: 924f 103e 3620 09bd b986 c7bd f611 223c
000000c0: 13e4 5e39 9814 523d 57af 8b3d 62e5 8e3d
000000d0: 3515 083e 5fbe 593d cf8b a33d d439 44bd
000000e0: 91b2 f83c 51e9 663d 5f40 513d 17be 913b
000000f0: abb4 82bd 1443 49bd 9fef 643d 9496 953d
00000100: d665 4b3d 4719 223d 3c77 803d 4936 133d
00000110: d207 70bc c8f1 adbc aa8e 923b 5601 a5bd
00000120: aba0 ce3d 6f71 973d 25cb ef3b aa8a 253d
00000130: f727 e83d 861c 823d 36b9 9dbd bf10 d83d
00000140: 22b4 9abd 3351 9c3d 676e e9bc 63bb acbd
00000150: a8b8 463d b81a 13be 8026 3a3e 0d24 903c
00000160: 5cf0 813d 8d94 beba 04da 553d 145e e83d
00000170: 0902 54ba 3964 c33d fdd9 c53d d9ad b93d
00000180: 7f8a b53d ce76 05be bf8c a43d 473b 8b3d
00000190: 2cb2 8f3c 9bf7 94bd e81a f8bb 5a6c 98bd
000001a0: ca3e c13d ed81 05ba 33f7 9a3d 06ab 663d
000001b0: ed7b 183e 295d f83c 38ba 123e e474 023e
000001c0: dbc5 9d3d 8870 8f3d 3994 223c d2b9 263e
000001d0: 2325 3c3c c995 843d 193f b5bb 55f9 6e3d
000001e0: edb2 b83c aad4 1fbd 3e16 963d 21e8 683d
000001f0: 4e3d f13d d421 983d 49c1 e1bc 87fa c13d

network_body._body_endoder.seq_layers.2.weight f4 [128, 128]
-0.13466042 -0.015949061 0.05397229 0.13188311 -0.06672619 0.06675595 0.06079216 -0.053668685
-0.08243166 0.09156643 0.062059633 -0.16160719 0.07580364 -0.07332073 -0.22961566 -0.12686694
0.16623323 0.031750225 0.08345432 0.004231273 -0.10862248 0.053882584 0.036786895 -0.051935714
0.018344747 -0.09927779 0.06902314 0.028743584 -0.21062876 0.095194474 0.031364217 -0.021185476
0.028380966 -0.011482447 0.16386074 0.1407993 0.03489975 -0.17818055 0.049493242 -0.10957878
-0.04605646 0.11507453 -0.011880879 -0.048611395 0.012369265 0.05642344 0.17029452 0.018821515
-0.2098918 -0.08280473 0.035704 -0.26162001 -0.05573005 0.02539182 0.14997606 0.026254741
0.122962005 0.08888167 -0.025952877 -0.018713813 -0.009609563 0.05824842 -0.04413336 0.27853328
0.02675323 0.034300447 0.04457674 0.07250864 -0.005927489 -0.10189357 0.0981353 0.020725127
-0.10402389 0.05362781 0.18882355 0.055468794 -0.15849221 -0.25245398 -0.00809532 -0.10373358
-0.06437975 -0.15109152 0.08392596 -0.022733929 0.045390133 0.041147124 0.07641939 0.21127023
-0.0012608799 0.058929987 0.032361727 0.09621546 0.058648407 0.056879863 0.13536653 -0.06875336
0.034158915 -0.082160234 -0.08582505 0.0032285168 -0.038234722 0.035346866 -0.103864245 0.06364353
-0.18585502 0.2412454 -0.0059948736 -0.11497802 -0.046289813 -0.088465795 0.024753427 -0.07185394
0.10015581 -0.05827265 -0.08956702 0.043576967 -0.08395656 -0.098213844 0.07309774 -0.102601364
-0.027526319 -0.05091468 0.059122242 0.045669332 0.008698837 0.005686436 -0.01533644 0.11286661
0.0833153 0.073952295 0.055580076 -0.08585981 0.006711703 0.024542147 0.2831938 0.05440798
-0.09366588 -5.733911e-05 -0.06833061 0.11728515 -0.030855967 0.036462646 -0.029760942 0.03911933
-0.1725479 0.044666164 0.093332194 -0.05758958 0.118633255 0.1490246 0.13853946 -0.036707673
-0.030007752 -0.07397944 0.012298328 0.08979721 -0.13022797 -0.24620405 -0.042440422 -0.052325357
0.021010382 0.10466702 -0.18024811 0.0038111783 0.20110124 -0.18395928 -0.018288475 0.13606976
0.055117182 -0.14215674 0.005086542 -0.05294058 -0.0071097105 -0.21587825 0.030587398 -0.059534878
-0.11143517 0.014100565 0.002610627 0.056883253 0.010865213 0.061973892 0.058512226 -0.04865003
-0.060082294 0.01002619 -0.08233938 -0.042955004 -0.2320119 -0.10712281 0.019295653 -0.011075505
0.14191614 0.13009118 -0.09436761 0.020131418 0.03192268 -0.13603373 0.037626896 -0.039844602
-0.051582143 0.023215713 0.045916148 -0.24382286 0.185015 -0.032322712 -0.07058242 0.14497478
-0.095612034 -0.24900858 -0.06417853 0.042787876 -0.07374982 -0.18275917 -0.07090692 0.19716585
0.16045731 0.08958756 0.09071161 -0.010872576 0.08684608 -0.018507628 0.0023705536 0.22545353
0.11997105 0.07541909 -0.060905322 0.23095062 0.040181316 0.15111445 0.07689677 -0.10335594
-0.11663956 0.08965923 -0.06097072 -0.11469362 -0.21108262 0.06727978 -0.19943288 0.1045339
0.013709126 0.006632944 -0.08100214 -0.019495163 -0.18010882 0.10138614 -0.097613215 0.0023030809
-0.18078758 0.06495824 -0.099447995 0.05498836 0.0795123 0.09043898 0.13060015 0.16324219
00000000: 6ce4 09be 9ba7 82bc 0c12 5d3d 5e0c 073e
00000010: bea7 88bd 58b7 883d 3301 793d b2d3 5bbd
00000020: eed1 a8bd 2e87 bb3d 3e32 7e3d 5b7c 25be
00000030: f03e 9b3d 2e29 96bd 5e20 6bbe 68e9 01be
00000040: 0b39 2a3e 860c 023d 19ea aa3d 7ea6 8a3b
00000050: 7675 debd fcb3 5c3d dbad 163d 8bba 54bd
00000060: b947 963c 2752 cbbd 015c 8d3d aa77 eb3c
00000070: 11af 57be 52f5 c23d c477 003d 2a8d adbc
00000080: 337f e83c e020 3cbc 1ccb 273e b12d 103e
00000090: 0af3 0e3d f674 36be 6db9 4a3d d76a e0bd
000000a0: b3a5 3cbd 32ac eb3d 05a8 42bc be1c 47bd
000000b0: 75a8 4a3c 441c 673d b061 2e3e 942f 9a3c
000000c0: e0ed 56be 8795 a9bd 5c3e 123d 0ff3 85be
000000d0: 3145 64bd 8202 d03c 5393 193e 2f14 d73c
000000e0: 81d3 fb3d 9807 b63d 219b d4bc b64d 99bc
000000f0: 6e71 1dbc e595 6e3d 2fc5 34bd ea9b 8e3e
00000100: 9729 db3c a07e 0c3d 1a96 363d 697f 943d
00000110: 623b c2bb 93ad d0bd 29fb c83d bec7 a93c
00000120: 7a0a d5bd d6a8 5b3d f65a 413e 3f33 633d
00000130: c84b 22be a641 81be 3ca2 04bc 4572 d4bd
00000140: 88d9 83bd bcb7 1abe 60e1 ab3d 813c babc
00000150: 01eb 393d e389 283d c581 9c3d 3957 583e
00000160: 1c44 a5ba 9260 713d bb8d 043d 9c0c c53d
00000170: 5039 703d dcfa 683d 869d 0a3e 90ce 8cbd
00000180: 38ea 0b3d a043 a8bd 0bc5 afbd 8695 533b
00000190: 039c 1cbd e0c7 103d c7b6 d4bd 8a57 823d
000001a0: c750 3ebe 0909 773e a570 c4bb 9979 ebbd
000001b0: 639a 3dbd 8e2d b5bd b3c7 ca3c 2928 93bd
000001c0: 7d1e cd3d 4daf 6ebd ea6e b7bd c37d 323d
000001d0: 6bf1 abbd 5724 c9bd 45b4 953d aa20 d2bd
000001e0: e07e e1bc e98b 50bd 2a2a 723d c40f 3b3d
000001f0: 9185 0e3c 4855 ba3b b145 7bbc 9c26 e73d
00000200: 36a1 aa3d 4d74 973d efa7 633d 45d7 afbd
00000210: d8ed db3b 9d0c c93c c7fe 903e e7da 5e3d
00000220: e6d3 bfbd 677f 70b8 ebf0 8bbd 3233 f03d
00000230: a7c5 fcbc db59 153d 38cd f3bc 973b 203d
00000240: 66b0 30be def3 363d f324 bf3d 0de3 6bbd
00000250: fef5 f23d e899 183e 4add 0d3e c95a 16bd
00000260: d1d2 f5bc 8882 97bd ed7e 493c 9ae7 b73d
00000270: 7b5a 05be ea1c 7cbe 02d6 2dbd 1d53 56bd
00000280: f71d ac3c aa5b d63d f692 38be f6c4 793b
00000290: 7ced 4d3e d25f 3cbe b6d1 95bc df55 0b3e
000002a0: 8ec2 613d 8991 11be 02ad a63b 39d8 58bd
000002b0: 93f8 e8bb 300f 5dbe 6c92 fa3c d8da 73bd
000002c0: 1f38 e4bd 0e06 673c 0e17 2b3b 6afe 683d
000002d0: 0204 323c 56d8 7d3d 84aa 6f3d 4145 47bd
000002e0: da18 76bd e444 243c 8da1 a8bd 96f1 2fbd
000002f0: 8794 6dbe 3463 dbbd eb11 9e3c 0976 35bc
00000300: 7752 113e 9f36 053e ce43 c1bd a5ea a43c
00000310: 5bc1 023d 6d4c 0bbe a91e 1a3d 1834 23bd
00000320: cc47 53bd e12e be3c 9212 3c3d b3ac 79be
00000330: 9274 3d3e d264 04bd 848d 90bd 4574 143e
00000340: 3ed0 c3bd 1bfc 7ebe 0870 83bd 5742 2f3d
00000350: 250a 97bd 3825 3bbe a637 91bd d8e5 493e
00000360: ec4e 243e af79 b73d 02c7 b93d e422 32bc
00000370: 5cdc b13d 4f9d 97bc 4a5b 1b3b 4add 663e
00000380: 62b3 f53d 5375 9a3d dc77 79bd 527e 6c3e
00000390: 2a95 243d bfbd 1a3e 0e7c 9d3d 47ac d3bd
000003a0: b9e0 eebd 429f b73d 6fbc 79bd 7de4 eabd
000003b0: 0b26 58be fbc9 893d 2238 4cbe df15 d63d
000003c0: 3e9c 603c 2b59 d93b 73e4 a5bd 52b4 9fbc
000003d0: 726e 38be 89a3 cf3d 70e9 c7bd 49ef 163b
000003e0: 6120 39be d308 853d 64ab cbbd 793b 613d
000003f0: 58d7 a23d 1238 b93d 0cbc 053e f628 273e

network_body._body_endoder.seq_layers.2.bias f4 [128]
-0.020143563 0.06844943 0.0047648223 0.06321001 0.06836198 0.071795404 0.0857301 0.063178435
0.09979873 0.02813802 0.10004445 0.09512807 0.10680097 0.14051428 0.10887381 0.12506643
0.13848056 0.027974097 0.10316356 0.08360813 0.045982905 0.008425551 0.10471655 -0.020222383
0.12614127 0.06703358 0.17105481 0.11134514 0.1740461 0.05895722 0.053250026 0.089828186
0.084506825 9.576128e-05 0.087315746 0.071803994 0.11232766 0.0050731082 0.13760297 0.022460483
0.039897855 -0.015939591 0.051018238 0.104792714 -0.01046742 0.021802034 0.021288225 0.12222664
0.045921832 0.030541204 0.087092794 0.13776846 -0.042283542 0.041820284 0.10998048 -0.032404337
0.06335617 0.17373091 0.118575476 0.11316885 0.07022042 0.050139826 0.1099142 0.037147313
0.14387782 -0.088910624 0.04293451 0.049455322 -0.015116656 0.10507064 -0.004773659 0.1076516
0.025287032 0.116134234 0.115763634 0.13157731 0.015574296 0.06252617 -0.04228673 0.08096716
0.06056161 0.1500031 0.18019477 -0.040183257 0.085898325 0.10197667 0.0037734732 0.086045384
0.1453065 0.07319663 0.016102977 0.061754197 0.12532747 0.11257862 0.050734982 0.07913134
0.083106406 -0.02455098 0.05469967 0.0023776793 0.06733125 0.07670781 0.03922427 0.036933355
0.03841895 0.05737936 0.026446588 0.07680942 0.09353664 0.061331492 0.17974223 -0.014369275
0.085114345 -0.006013333 0.088133216 0.12391017 0.031489152 0.09481823 0.12031688 0.11355521
0.024418393 0.021533592 0.09673227 0.09622515 0.0031902161 0.065846846 0.10062084 0.086336024
00000000: 1d04 a5bc 372f 8c3d 3a22 9c3b 4074 813d
00000010: 5e01 8c3d 7809 933d 4393 af3d b263 813d
00000020: 4763 cc3d b481 e63c 1be4 cc3d 81d2 c23d
00000030: 78ba da3d fae2 0f3e 3bf9 de3d 6a11 003e
00000040: d9cd 0d3e ef29 e53c 6b47 d33d bd3a ab3d
00000050: 9258 3c3d 520b 0a3c a175 d63d 69a9 a5bc
00000060: 2d2b 013e e748 893d fe28 2f3e ec08 e43d
00000070: 2439 323e 207d 713d b31c 5a3d d7f7 b73d
00000080: ea11 ad3d 72d3 c838 99d2 b23d f90d 933d
00000090: 0b0c e63d 513c a63b cbe7 0c3e 0cff b73c
000000a0: ef6b 233d bf93 82bc 80f8 503d 909d d63d
000000b0: 8b7f 2bbc 2e9a b23c a564 ae3c f651 fa3d
000000c0: 8818 3c3d 8c31 fa3c b55d b23d 2d13 0d3e
000000d0: 8231 2dbd bf4b 2b3d 723d e13d 69ba 04bd
000000e0: e1c0 813d 84e6 313e b3d7 f23d 12c5 e73d
000000f0: b9cf 8f3d 6b5f 4d3d b21a e13d c827 183d
00000100: b554 133e c616 b6bd 19dc 2f3d aa91 4a3d
00000110: daab 77bc 472f d73d 5b6c 9cbb 7178 dc3d
00000120: c026 cf3c c9d7 ed3d 7c15 ed3d 34bc 063e
00000130: 552b 7f3c b80d 803d da34 2dbd 1cd2 a53d
00000140: 730f 783d 6a9a 193e fa84 383e 3397 24bd
00000150: 76eb af3d 25d9 d03d 604c 773b 9038 b03d
00000160: 3acb 143e 1de8 953d 64ea 833c f8f1 7c3d
00000170: d855 003e 9f8f e63d 7ccf 4f3d 9d0f a23d
00000180: b133 aa3d 231f c9bc c30c 603d d7d2 1b3b
00000190: f7e4 893d fc18 9d3d a1a9 203d 6e47 173d
000001a0: 305d 1d3d 9f06 6b3d 84a6 d83c 424e 9d3d
000001b0: 2390 bf3d bb36 7b3d 590e 383e 1c6d 6bbc
000001c0: 6e50 ae3d 7e0b c5bb 307f b43d 9dc4 fd3d
000001d0: c5fa 003d 0f30 c23d b268 f63d a28f e83d
000001e0: 1509 c83c 3767 b03c 921b c63d b111 c53d
000001f0: f212 513b b6da 863d 4d12 ce3d f1d0 b03d
