results/MovePan/MovePan/MovePan-756.onnx (onnx, 520068 bytes, 7 tensors)

network_body._body_endoder.seq_layers.0.weight f4 [128, 875]
000000 e6 82 0c bc 7c d4 08 3c 12 05 97 bc bc ce 14 3c
       -0.0085761305 0.0083514415 -0.018435035 0.009082492
000010 97 13 5a bd 66 60 a8 3b 9e 3c ab bb bf 64 a6 3c
       -0.05324134 0.0051384447 -0.005225732 0.020311711
000020 ba cf 1a bc 57 74 5f bd 05 5f 08 3c 85 24 74 3d
       -0.00944894 -0.05455431 0.008323436 0.05960514
000030 98 d9 58 bd 83 52 92 3b fe 40 b1 bb 2d 65 73 bd
       -0.05294189 0.0044654026 -0.005409359 -0.05942266
000040 45 71 1d bd e3 5a 91 bc 6a 39 29 3c c9 ca 9a 3c
       -0.0384381 -0.017743533 0.01032863 0.018895524
000050 69 c2 19 3d d5 fc 95 bc 7d 6a ec 3b 56 22 f2 3c
       0.03753892 -0.018309036 0.007214843 0.029557388
000060 6f ae 4f 3d 04 fc 82 3c 1b b4 c8 3c 3b a1 93 bd
       0.050703462 0.015989311 0.024499943 -0.07208487
000070 05 09 a0 bc f6 88 2a 3c 40 b7 44 bc 03 b0 92 bd
       -0.01953555 0.010408631 -0.012006581 -0.07162478
000080 73 10 70 bc 8a e7 e5 3c 49 1a b8 bc c1 54 06 3d
       -0.014652359 0.028064508 -0.022473471 0.03279567
000090 e3 42 20 3d 8e 57 dd 3c 68 7e 49 3b f5 03 07 3c
       0.03912629 0.027019288 0.003074551 0.0082406895
0000a0 f7 7d 16 3d 26 3a 2d bd 29 44 15 3a 75 54 87 ba
       0.036741223 -0.042291783 0.00056940556 -0.0010324853
0000b0 9e 0d ae bc db 31 83 bc c9 ad c2 3a 6c bf bf bc
       -0.021246728 -0.016014984 0.0014852817 -0.023406707
0000c0 ad 93 cc 3b 9a a4 41 3c 9f 46 41 3d 49 02 ed 3c
       0.0062431903 0.011819029 0.04718649 0.028931754
0000d0 c4 89 27 3d 2e f1 c5 3c ad 5e a7 bd 0f 8c 75 3d
       0.040902868 0.024162855 -0.08172355 0.059948023
0000e0 f4 0f 94 bc b8 2d 3f bd 98 97 bb 3d 9e 50 45 bd
       -0.018074013 -0.04667446 0.091597736 -0.048172586
0000f0 7f 49 c7 bc d9 19 c2 bc 07 6b ed 3b 26 32 88 bb
       -0.024327038 -0.023693966 0.0072454247 -0.004156369
000100 1f 64 8b bd ac c1 ea bc 39 fb 6a bd 10 57 b9 bd
       -0.06806206 -0.028656803 -0.05736849 -0.09049809
000110 b8 29 21 3d 85 d2 ec bc f8 f6 75 bc 50 0a 01 bc
       0.039346427 -0.028908977 -0.015012495 -0.007875994
000120 fe 4d 22 3b ba f9 2c bc 56 62 6b bc d3 c0 da 3c
       0.0024765725 -0.010557586 -0.014366707 0.026703274
000130 87 0f be bc 72 b3 24 3d 81 ef 26 bd 20 f7 d5 3c
       -0.023200763 0.040210195 -0.040755752 0.026118815
000140 70 4a 4d bd e4 0a ab bc 7f 54 eb bb b1 0b b1 3c
       -0.050119817 -0.020879216 -0.0071817036 0.02161202
000150 aa 0e 89 bd 1f 68 1e bc ca 81 51 3d 36 1e 08 3c
       -0.0669225 -0.009668379 0.051149167 0.008307984
000160 05 5d e9 3c eb 0e 91 bc d0 01 ee bb 9c bf 58 bb
       0.028486738 -0.017707309 -0.0072633997 -0.0033073192
000170 09 e1 1d bd dc 0e d2 bc 5e fd d5 bb 3d c7 3b 3d
       -0.03854469 -0.025641851 -0.006530448 0.045844305
000180 0f 31 a1 3c 1a 50 de bc 8c 92 f5 3c 15 6c 11 bc
       0.019676713 -0.027137805 0.029977106 -0.008875866
000190 9d 1f 56 bd 56 3e 14 3d 73 2b 5a bd f7 12 a4 3b
       -0.052276243 0.03619226 -0.053264093 0.0050071436
0001a0 d8 9e 04 3c ea 12 46 3c 38 a1 d2 bc 91 52 c9 3c
       0.008094512 0.01208947 -0.02571164 0.024575504
0001b0 66 b3 05 3d 2e 92 91 bb 01 50 fe b9 54 f6 67 3d
       0.03264179 -0.004442475 -0.00048506263 0.0566314
0001c0 79 dd d6 bc e7 52 20 3d 07 d2 aa bb b0 8a 3d 3b
       -0.026228653 0.03914156 -0.0052130255 0.0028921776
0001d0 9d 05 37 3b df 3c e8 bc ca 23 f9 3c 3f 19 29 3d
       0.002792693 -0.028349338 0.030412573 0.041283842
0001e0 c5 42 8a 3c d6 cb 8e bd 5a bf 87 bd 67 00 5d bd
       0.016877541 -0.06972472 -0.06628294 -0.05395546
0001f0 77 26 9a 3b 06 21 dd 3c 34 a8 e8 bc 19 b0 13 bd
       0.0047042924 0.026993286 -0.028400518 -0.03605661
000200 e1 fc d5 bc bc 05 2a 3c 3e f6 25 3c 4a f9 f8 bc
       -0.026121559 0.010377344 0.0101295095 -0.030392308
000210 dd cc a8 bc ee 73 47 3d 6a 7f 8f 3d 1e 64 0d 3d
       -0.020605499 0.048694544 0.07006724 0.034519307
000220 56 fe db 3b 7d 15 3a 3d 76 67 33 bd 48 81 63 bc
       0.006713669 0.04543065 -0.04379984 -0.0138858035
000230 65 ff 6d bd 87 44 5d 3c d6 a2 09 3d 24 15 67 bc
       -0.05810489 0.013505108 0.033602558 -0.014104161
000240 74 95 96 bb e9 33 87 3d f7 27 73 3b 0b 32 ed bc
       -0.004595453 0.06601698 0.0037102678 -0.028954526
000250 c5 54 c5 3c 07 a1 25 bc c6 4d 00 3d 9c a3 93 3c
       0.024088273 -0.010109193 0.03132417 0.018022351
000260 b4 83 1c bd d3 1e 04 bd d4 db 0c 3c 23 ca 76 bb
       -0.03821154 -0.03225596 0.008597333 -0.0037657104
000270 50 e8 6b 3c f4 95 f1 b9 1a 44 95 bc 64 ce 9c bd
       0.014398649 -0.00046078826 -0.01822095 -0.076565534
000280 71 20 cc bc 81 da 3f bd 79 c5 fb bb be d7 b4 3c
       -0.024917813 -0.04683924 -0.0076834527 0.02207553
000290 e6 59 cc 3c 7d 83 60 3d 6b 52 ec 3c c4 d0 a5 3b
       0.02494521 0.054812897 0.028847894 0.005060287
0002a0 8a 55 11 3c b9 83 2b 3d 49 33 db bd c4 a8 76 3c
       0.008870492 0.041873667 -0.10703141 0.015054885
0002b0 96 0d a3 bc 54 bb 16 3d c9 f4 15 bc fe 8b ea 3b
       -0.01990394 0.036799744 -0.0091526 0.0071578017
0002c0 1b 57 bb bc 6e d8 06 bd c9 bb 00 3b d7 ad 8b 3c
       -0.022868684 -0.032921247 0.0019643179 0.017050667
0002d0 ad 6d f7 bb 54 69 a5 3b 01 0d 9c 3d b1 0d 18 3c
       -0.007550916 0.0050479565 0.07619668 0.009280608
0002e0 54 35 89 bb b0 98 39 3d 11 8d 16 bd 41 3e 4b 3b
       -0.0041872654 0.04531163 -0.036755625 0.0031012448
0002f0 ea c8 ee bc db 25 5d bb 36 d1 96 3c 1a 0f 07 3d
       -0.029148538 -0.0033744487 0.018410306 0.032973386
000300 6f 7b 9e bc 73 68 0a 3d 8c a6 2a 3c 78 f4 a3 bd
       -0.019345967 0.033791017 0.010415684 -0.08005613
000310 17 c9 e6 bb eb 60 ab bd f9 79 2a bc e1 c6 b8 39
       -0.0070430147 -0.08368095 -0.010405057 0.0003524339
000320 a4 7f 02 3d e1 d2 39 3c 8c 08 ae bc 34 db ee 3c
       0.03186001 0.011341781 -0.02124431 0.029157259
000330 85 c7 e0 bc 05 60 35 bd 0a 1c c9 bb 82 c9 2e 3b
       -0.027438888 -0.044281024 -0.0061373757 0.00266704
000340 5b af 53 bd cb 67 a7 bd 96 f3 7d 3c 35 f1 bf b9
       -0.051680904 -0.08174094 0.01549997 -0.00036610072
000350 a8 ea a9 bc 18 6b 05 3d 7c a2 12 3c 1b ca 59 3d
       -0.020741776 0.032572836 0.008949872 0.05317126
000360 3c 3e cd 3c f6 17 18 3d 3b a2 a0 3c d9 18 c0 3c
       0.02505409 0.037132226 0.019608608 0.023449348
000370 22 89 fd bc 67 fc a0 bc 1b 48 99 bb a6 b4 34 3d
       -0.03094918 -0.019651605 -0.004677785 0.044117592
000380 b5 e4 92 3c b4 5d c3 bc f0 c4 45 3d 03 c1 40 bd
       0.017931322 -0.023848392 0.048283517 -0.04705907
000390 18 de 5a bd 33 6e de bc 62 38 3b bd 54 cd 3a bd
       -0.05343446 -0.027152156 -0.045708068 -0.045605972
0003a0 68 29 59 bd 74 49 22 3d d1 f6 3b bd 55 e8 88 bb
       -0.053018004 0.03962083 -0.04588968 -0.0041780868
0003b0 5a ce 1f 3b e9 d3 5e bd a1 61 25 3c ce 4b a0 3c
       0.002438447 -0.054401312 0.010094077 0.019567396
0003c0 2c a2 56 bd f8 d7 27 3c 8b 5d 10 bd dc ad a9 3c
       -0.052400753 0.010244362 -0.03524546 0.020712785
0003d0 20 a3 b9 bc 05 39 6b 3b 51 d2 85 3d 0c a6 42 3d
       -0.022660792 0.003589214 0.06534255 0.047521636
0003e0 3e c4 36 3d 1b 97 77 bc 50 0e 00 3d 32 4a dd ba
       0.044620745 -0.01511171 0.03126365 -0.0016883074
0003f0 12 48 5e 3d 1b 50 87 bb f4 a4 09 bd f7 91 63 3c
       0.05426795 -0.0041294224 -0.033604577 0.013889781

network_body._body_endoder.seq_layers.0.bias f4 [128]
000000 cb c3 c5 3b fe 44 84 3b 57 1d 9b ba 5f da 99 3b
       0.006035303 0.004036545 -0.0011834305 0.0046952213
000010 88 b1 a4 bb ac 59 8c bb ed 89 f7 bb ba 38 9d bb
       -0.005026046 -0.0042831507 -0.007554284 -0.004798022
000020 c7 68 e4 ba 91 4b a4 bb 31 e5 39 3b ad 7a 98 3b
       -0.0017426246 -0.005013891 0.0028365368 0.004653296
000030 8b b4 70 3b 7e e6 20 3b 14 c0 74 3b 0d b8 0a bb
       0.0036728706 0.0024551447 0.0037345933 -0.0021166832
000040 ee 60 32 3b 2b f5 c4 bb cd f7 61 bb 8e 7b bb 3b
       0.002721842 -0.0060106716 -0.0034479976 0.005721516
000050 b6 a1 5d bb 64 71 81 ba f3 7c cd bb e9 b0 b0 bb
       -0.003381831 -0.0009875712 -0.0062709986 -0.005392183
000060 ce c2 a1 b9 91 b8 bc bb 80 56 eb b8 b5 41 aa 3b
       -0.00030853454 -0.0057593067 -0.00011221785 0.005195821
000070 44 c5 f3 39 de e2 5d ba e5 0c 32 3b e6 47 69 bb
       0.00046495546 -0.0008464287 0.002716833 -0.0035595833
000080 75 ff aa 3b b8 13 95 3b 9a 2e c7 3b 18 a7 5e bb
       0.005218441 0.00454947 0.0060785534 -0.0033974107
000090 28 52 b8 bb a1 79 02 3c 4a 0a d0 39 fb a6 1f 3a
       -0.005625028 0.007963569 0.00039680518 0.00060902507
0000a0 4c a3 8c 3b c6 07 c3 39 9a 39 bc 3b e9 e6 9d 3b
       0.0042919274 0.0003719909 0.0057441713 0.0048187864
0000b0 33 3e be bb c3 51 e0 3a 44 1b 66 3b 9a 94 9a bb
       -0.0058057546 0.0017114211 0.0035111466 -0.0047174217
0000c0 ec 2a c9 3b 5b ff 86 3b cd e1 20 3b d8 dd 68 bb
       0.00613915 0.004119796 0.002454865 -0.003553262
0000d0 c2 9e 18 3b 26 cd ab bb 27 a0 2a 3b 89 09 9a 39
       0.0023287986 -0.0052429615 0.00260354 0.00029380273
0000e0 86 55 2f 3b 91 06 32 ba 0e 34 98 ba 81 66 2d 3b
       0.0026753857 -0.00067911396 -0.0011612193 0.0026458802
0000f0 5e 4e 8b bb f0 be f6 3b 3b 32 ae bb 93 59 62 3b
       -0.0042512855 0.0075300857 -0.0053160465 0.0034538254
000100 a4 b8 f6 3b c6 b2 4f bb 37 61 35 bb 93 62 5e 39
       0.007529335 -0.003169225 -0.0027676353 0.00021208292
000110 b5 5c 92 3b cd 3d 31 3b f7 34 0d 3b 03 80 b8 bb
       0.004466618 0.0027044893 0.0021546462 -0.0056304946
000120 0a 06 b0 bb d6 9c c9 3b 83 6e 03 bc 63 5f 66 bb
       -0.0053718137 0.0061527295 -0.0080219535 -0.003515207
000130 ae 05 95 3b 94 b6 d6 38 98 19 b7 ba da 13 f6 ba
       0.004547796 0.00010238323 -0.001396942 -0.0018774227
000140 0e 09 75 bb 37 68 c3 3b e6 8b ab 3b ce b7 e9 bb
       -0.003738943 0.005963351 0.005235183 -0.007132507
000150 70 23 7e 3b 73 78 30 3a a3 b1 ae bb 31 99 e0 ba
       0.0038778447 0.00067318155 -0.0053312345 -0.0017135498
000160 fb 09 f5 b9 e6 09 b3 3a df 46 aa bb 26 62 6c 3b
       -0.00046737478 0.0013659566 -0.005196437 0.0036069243
000170 f5 b4 b9 3b 22 6f ad bb 39 a3 b4 bb 7a f7 35 3b
       0.0056673237 -0.005292789 -0.0055126217 0.0027765916
000180 d8 5f 58 3b 65 0b a6 3b 31 3d 09 bc ca e1 a6 bb
       0.0033016112 0.0050672763 -0.008376406 -0.005092834
000190 1c 22 db bb 65 e5 3f ba 8f 23 59 3b b3 23 8b 3b
       -0.0066874158 -0.0007320254 0.0033132767 0.004246199
0001a0 06 8b a7 3b 50 9c a0 bb 4f de ef 3a c9 2e f7 ba
       0.0051130084 -0.0049014464 0.0018300506 -0.0018858548
0001b0 99 b1 95 3b 3d ce a4 bb 91 ce 9c 3b 5c d4 7b 3b
       0.0045682904 -0.0050294683 0.004785367 0.0038426137
0001c0 0b 91 da 3b 38 90 4d 3b 11 01 3e 3b bd 05 8b 39
       0.0066701225 0.0031366479 0.0028992335 0.0002651642
0001d0 04 a3 94 3b 50 a9 08 3b 79 1f 8d 3b 97 0f 8d 3b
       0.0045360345 0.0020852871 0.0043067303 0.004304837
0001e0 de 7e 20 3b 39 7d 2e 3b f1 e6 ef bb ce 30 97 bb
       0.0024489681 0.0026624931 -0.0073212315 -0.0046139723
0001f0 b5 86 af 3b aa a6 d7 3b d5 dc ad bb 41 0f cd ba
       0.0053566345 0.006581147 -0.0053058662 -0.0015644805

network_body._body_endoder.seq_layers.2.weight f4 [128, 128]
000000 8d 44 75 3e 80 07 03 3e ce 89 48 bd c8 54 6f bd
       0.23951931 0.1279583 -0.048959546 -0.058430463
000010 00 ff 63 bd 1e 22 e8 3d 50 cf aa bc 87 1f ca 3d
       -0.05566311 0.11334632 -0.020850807 0.098692946
000020 d4 26 19 b9 71 43 e4 bd 62 f9 95 3c a2 d7 01 bd
       -0.00014605682 -0.11145676 0.018307392 -0.031699784
000030 f6 b4 f8 3c a2 e6 4e 3d 35 35 0d ba 86 33 26 3c
       0.030359726 0.050512917 -0.00053866516 0.01014412
000040 55 33 bb bd 03 af be 3d be f0 0a 3d f7 11 64 bc
       -0.0914065 0.093107246 0.033920996 -0.013920299
000050 e6 48 09 3d 89 f1 0a bd 1d f7 08 3d 27 91 ff bb
       0.033516787 -0.033921752 0.03343879 -0.007799286
000060 7b 17 92 bd e4 71 d9 3d fa af f3 bd aa a1 15 bc
       -0.07133385 0.10617426 -0.11898799 -0.009132782
000070 33 d4 36 3e 12 da 9a 3d 70 d6 4d 3d b3 04 25 3d
       0.17854385 0.07561125 0.05025333 0.040287685
000080 28 76 a3 bb 37 41 0c 3c bd aa 08 3b da 8d ac bd
       -0.0049884506 0.00856047 0.002085372 -0.084254935
000090 ae bb b8 bd 4d 6d 95 bd 6c 5a 25 3e 44 49 cb bc
       -0.09020172 -0.07296238 0.16147774 -0.02481521
0000a0 8a 13 09 be aa b0 1a be b1 36 9d bd ac 5d aa bd
       -0.1338636 -0.15106454 -0.07676447 -0.08318648
0000b0 51 fd 10 bd 85 9f c3 3d e6 1a 0c 3d f2 da 91 3d
       -0.03539783 0.0955191 0.03420534 0.07121839
0000c0 f4 89 96 bd aa 38 8b bd e0 4b 5c 3c c7 45 76 bd
       -0.07350531 -0.06797917 0.013445824 -0.06012514
0000d0 a8 54 30 3d 74 c0 c8 3c 46 fc ed 3d 56 f1 2b bb
       0.043049484 0.024505831 0.11620383 -0.0026236377
0000e0 a0 1a bf 3d 32 24 22 3c 72 89 a5 3c 78 31 f5 3c
       0.0933125 0.009896325 0.02020714 0.029930815
0000f0 04 1c eb 3d 01 10 00 be fd 0b 16 3e 19 4e c4 bc
       0.11479953 -0.12506105 0.1465301 -0.023963021
000100 50 ca 03 3d 90 88 5c be cf 01 3c 3c ad fd fd 3d
       0.032175362 -0.2153647 0.011475041 0.124019004
000110 96 e8 9f bd b9 36 3d 3d 95 12 0f be e7 c8 75 bd
       -0.07808034 0.046194766 -0.13971932 -0.06000605
000120 ed 32 08 be f5 15 fd bc f5 01 0f 3e c0 74 74 bc
       -0.13300677 -0.030894259 0.1396559 -0.0149204135
000130 f7 f9 33 bd 2d a4 a1 bc 43 86 b8 bc fa 34 23 3e
       -0.043939557 -0.019731605 -0.022524958 0.15938178
000140 e5 c6 f3 bd 48 a2 bc bd 4e 8b e8 3d 1c c1 b0 bc
       -0.119031705 -0.0921064 0.11354695 -0.021576457
000150 b1 60 10 be e3 7a 8f bd 50 31 d8 3c 62 12 1d 3c
       -0.14099385 -0.07005861 0.026390702 0.009586902
000160 d1 fe 05 3e cf 41 bb bd 1f c3 4b 3d a2 d9 58 bb
       0.13085486 -0.09143411 0.04974663 -0.0033088704
000170 b6 4a 41 bd 60 1c 25 be c8 1f 88 3d d0 f8 15 3e
       -0.04719039 -0.16124105 0.06646687 0.14645696
000180 10 15 c8 bd ed 61 ec ba 49 69 9c bb 0a f7 36 be
       -0.09769642 -0.0018034555 -0.004773293 -0.17867675
000190 b6 9a 59 3d 4d 98 c5 3d d7 8e 98 bd af 91 50 3c
       0.05312606 0.0964819 -0.074491195 0.012730046
0001a0 86 61 71 3c eb 7d ad 3d 71 15 ac bc ad 68 7b bc
       0.014732724 0.084712826 -0.021006318 -0.015344781
0001b0 56 b3 f1 3c 00 70 2b be 68 de 43 b9 00 36 46 bd
       0.02950446 -0.16741943 -0.00018679502 -0.048391342
0001c0 5f da d5 3d ca ac 2b bd 45 ff 06 bd f1 31 22 bc
       0.104420416 -0.04191283 -0.032958288 -0.009899602
0001d0 b3 b5 88 bd e1 e9 2d 3c 2a 72 47 bd cf 79 e9 3d
       -0.066752814 0.010614843 -0.04869286 0.11400186
0001e0 07 68 22 bd 19 28 12 3e ba 62 0f bd 37 47 dc 3c
       -0.03964999 0.14273109 -0.035006262 0.026889427
0001f0 17 00 ad 3d de 28 5b 3e 04 6d 99 3d 7c 6a 72 bd
       0.08447283 0.21402308 0.07491496 -0.059183583
000200 96 f2 b7 bd 15 08 44 be 81 88 30 3e 5c 01 e3 bc
       -0.089818165 -0.19143708 0.17239572 -0.02771061
000210 40 87 f7 b5 0d 0a ce 3c a0 fc 67 3c 65 2c 18 3e
       -1.8442297e-06 0.025151277 0.014159352 0.14860685
000220 96 3e 1e bd 81 0a e9 bd c3 26 ca 3c a3 6a 4a bd
       -0.038633905 -0.113789566 0.024676686 -0.049418103
000230 06 27 fe 3c c1 c1 e1 3d a6 23 10 3e 6f dc 8d 3d
       0.031024467 0.11023284 0.14076099 0.0692681
000240 38 0f 2b 3e 27 c0 b8 bc a4 1f a7 3d cb 55 1e be
       0.16705024 -0.022552563 0.08160332 -0.15462415
000250 93 11 25 3b a9 9c bf bb 8b e2 11 3e b7 31 cd bd
       0.0025187477 -0.005847533 0.14246576 -0.10019248
000260 9e e3 9f bd 04 58 9d 3c c8 e8 5d 3d 4b 25 e7 3c
       -0.078070864 0.019207008 0.054177076 0.028216025
000270 fb 4a db bc c9 d3 03 be 74 e3 2d 3e 7a 71 76 bd
       -0.026769152 -0.12873758 0.16981298 -0.060166813
000280 c3 e5 09 3e 9d 38 66 bb 06 33 5f 3e 9e cd 23 3d
       0.13466553 -0.003512896 0.21796808 0.039991014
000290 be ef d8 3d b2 70 1f 3c a4 1c fb bd e0 72 f5 bc
       0.10592602 0.0097314585 -0.12261322 -0.029962003
0002a0 2d aa 9a 3d e5 3b a9 3d 5d b9 13 be db c0 2d 3e
       0.0755199 0.08263377 -0.14426179 0.169681
0002b0 fd 56 e6 3d 6d 18 b0 bc 85 2e ed 3c 35 a5 9b 3b
       0.112470604 -0.021496022 0.028952846 0.004749919
0002c0 e1 1d 70 bd 71 7b ad bd 10 99 8f bc 8b 45 11 be
       -0.058622245 -0.0847081 -0.01752904 -0.14186685
0002d0 97 db af 3d 59 0a 05 3c a0 17 b9 3b df 24 fe bb
       0.08586805 0.008120143 0.0056485683 -0.00775586
0002e0 4b fe 17 be 6e 84 9f bc 12 b1 b8 bd 57 9f 4b 3e
       -0.14843099 -0.019472327 -0.090181485 0.19885002
0002f0 91 bf 83 bd 16 b4 ae 3c 0f e8 06 3e 7f 2e 61 3d
       -0.06433023 0.021326106 0.13174461 0.054975983
000300 6a df 8a 3e 09 96 a1 3c 17 d7 7f 3d 16 e8 8e 3c
       0.27123576 0.019724863 0.062460985 0.017444652
000310 bc ee 4f 3c 89 f2 3b bc 8f 30 7f 3c 81 29 f7 3d
       0.012691196 -0.011471399 0.015575542 0.12068463
000320 d8 fb a7 bc eb a8 7e bd bf aa f3 bd bd 47 a4 3b
       -0.02050583 -0.06217281 -0.118978016 0.0050134347
000330 3d cd b8 3d 1c 81 86 3d 05 ee e4 3d aa 1b 85 3d
       0.09023521 0.065675944 0.11178211 0.06499417
000340 f4 fc 0a 3e a3 6d 99 3c 5b fb 3e be c3 56 a7 bd
       0.13573056 0.018729037 -0.18650572 -0.08170845
000350 33 60 6e bd 5c 2a e5 3c 30 9f a7 bd ad 8c ad bd
       -0.05819721 0.0279743 -0.081846595 -0.084740974
000360 c2 d5 98 3d d6 fc aa 3d 82 b3 88 bd 76 90 cd 3d
       0.07462646 0.08349006 -0.066748634 0.10037319
000370 fb 99 f0 3d 22 60 40 bd 57 78 aa 3d 40 88 e3 bd
       0.117481194 -0.04696668 0.08323734 -0.11109972
000380 aa 5b c6 bd 6d 0d c2 bd 53 08 07 3d 27 f4 54 bd
       -0.09685452 -0.09475217 0.032966923 -0.051990654
000390 6a 0c e1 bd 26 be fe 3d 5c 11 53 bd 53 6c 98 3c
       -0.10988696 0.12438612 -0.051530227 0.01860634
0003a0 7d 5e 37 be af a2 93 3c ad b5 b5 3d ab 48 99 3d
       -0.17907138 0.01802191 0.088725425 0.074845634
0003b0 8d 76 44 3c fa 29 ab bd c0 44 40 3e bd b0 18 bd
       0.011991155 -0.08357616 0.18776226 -0.037277926
0003c0 7c bc f3 3d 41 4e 0e be 2d 51 dc 3c f3 81 bf bd
       0.11901185 -0.13897039 0.026894176 -0.09350958
0003d0 e4 40 7b bd 39 aa cb bc 30 61 18 3d 34 52 e4 3d
       -0.06134118 -0.024861442 0.03720206 0.111484915
0003e0 c1 af 93 bd ca 27 ce bd c3 cf da 3d 05 3b 1a 3e
       -0.07211257 -0.10066183 0.10684159 0.15061577
0003f0 89 ab a7 3b 71 b5 d6 bb 6a 3f eb bc 7f da 56 bd
       0.005116884 -0.006552391 -0.028716762 -0.052454468

network_body._body_endoder.seq_layers.2.bias f4 [128]
000000 1c 99 aa ba 84 18 fa 3a 95 d0 85 3b 43 ac 82 3b
       -0.0013015601 0.0019080793 0.004083703 0.0039878204
000010 2e d8 93 bb 1a e9 f0 bb 0a ef 36 bb 8e 94 55 3b
       -0.0045118546 -0.0073520066 -0.0027913474 0.0032589766
000020 ce eb a1 3b 55 38 c9 3b a0 7e ca 3b 08 69 b9 b9
       0.00494144 0.0061407485 0.0061796457 -0.00035364204
000030 8e 8f 81 3b 49 69 83 3b fb f5 55 3b 90 02 5a 3b
       0.0039538806 0.0040103537 0.0032647836 0.0033265688
000040 51 9e 69 ba 2e c4 9a b9 70 ec a2 bb f6 bb 50 3b
       -0.00089118356 -0.00029519334 -0.004972033 0.0031850315
000050 91 35 3e bb 71 ee 8d 3b f0 64 7f 3b 5b 9e 9a bb
       -0.0029023627 0.004331403 0.0038970076 -0.0047185845
000060 7f 40 9e 3a c6 01 68 39 28 4f 48 bb 2a 15 92 3b
       0.0012073665 0.00022125905 -0.003056476 0.0044580894
000070 21 e6 9e 3b c4 c1 72 3b 12 ef 12 bb ed 94 39 bb
       0.004849211 0.0037041763 -0.002242033 -0.0028317526
000080 da 85 9d 3a 71 6e 8e bb 74 82 c8 ba 5f 1c a7 bb
       0.001201804 -0.0043466617 -0.0015297667 -0.0050998176
000090 95 f9 cb bb 09 dc 15 3b 51 48 c4 3b fd 72 a6 bb
       -0.006224821 0.0022866747 0.005990066 -0.0050796256
0000a0 a7 d3 d5 bb f6 55 60 bb cc fa 40 3b 6f b8 71 ba
       -0.006525475 -0.0034230924 0.0029446362 -0.0009220903
0000b0 87 8a c0 bb 53 66 88 bb e6 7d 7d bb 30 cc c9 bb
       -0.0058758887 -0.0041625886 -0.0038679778 -0.0061583742
0000c0 df 2e 02 3a 3e de 1c bb af 81 91 3b 69 41 48 3a
       0.0004966091 -0.0023936178 0.0044405083 0.00076391414
0000d0 85 3a c8 3b 53 88 79 bb 00 76 cf bb 60 25 bd bb
       0.0061104917 -0.003807564 -0.0063312054 -0.0057722777
0000e0 9e 6d 9a 3b 41 44 93 3b db 98 91 ba 0b 1c a4 3b
       0.0047127744 0.0044942205 -0.0011108177 0.005008226
0000f0 5c 59 2f bb 16 48 86 3b ed ad be bb e6 99 b7 bb
       -0.0026756143 0.004097949 -0.0058190734 -0.005603063
000100 73 b6 7b bb b7 40 b3 3b b8 c5 16 bb 71 99 70 bb
       -0.0038408309 0.005470361 -0.0023006033 -0.0036712552
000110 58 8c d1 bb 4f 09 a7 3b fb 22 fb bb 79 6c e0 bb
       -0.006394904 0.005097545 -0.007664082 -0.0068488684
000120 4c 9d b8 3b c0 ff d4 3b 1d 1f b2 3b df 4e 01 3b
       0.0056339856 0.0065002143 0.005435838 0.0019730849
000130 fd df 17 ba ef ef c5 bb da a2 32 bb 01 13 88 3a
       -0.000579357 -0.006040565 -0.0027257712 0.001038164
000140 85 ba 71 3b c1 bf a3 3b 93 c6 25 3b 3f 23 2e 3b
       0.0036884856 0.004997224 0.0025295361 0.0026571301
000150 8c 5c f9 3b d8 d7 9a 3b 56 0e 43 bb 77 7f e9 bb
       0.0076099094 0.0047254376 -0.0029763184 -0.0071257907
000160 26 5f dc bb 41 e8 ed bb cb 0d 7c bb 2d 89 19 bb
       -0.0067252098 -0.007260353 -0.003846037 -0.002342771
000170 6d dd bf b9 73 7d 85 3b 2c e8 ed ba 63 19 7c 3b
       -0.00036595334 0.0040737926 -0.0018150858 0.003846728
000180 00 ed 71 3b 48 f1 78 bb 09 32 bb 3a 1f 83 a1 3b
       0.0036914945 -0.0037985612 0.0014281879 0.004928961
000190 97 5c 68 bb c0 00 92 3b 5e e1 c4 3b 9b a2 07 bb
       -0.0035455578 0.004455656 0.006008311 -0.0020696286
0001a0 2b b9 bc bb 1d 0e c8 bb 96 fb 8b bb cd 8c 87 ba
       -0.0057593784 -0.006105198 -0.0042719347 -0.0010341645
0001b0 68 2f e8 bb 51 a3 98 3b 2e 5a 8f 3b af ba 89 bb
       -0.0070857294 0.0046581407 0.004374764 -0.0042031626
0001c0 6e 8c 1a bb 20 36 a8 bb 67 d5 a3 3b 3a 5a 42 bb
       -0.0023582238 -0.0051334053 0.004999805 -0.002965583
0001d0 77 72 cd bb 21 d3 d9 bb 7d e8 ff bb cb bf a3 3b
       -0.006269749 -0.006647483 -0.007809697 0.0049972287
0001e0 b6 b4 b6 bb 71 5f e8 3a 0b 5e 9f 3b 08 bf a1 3b
       -0.0055757416 0.0017728639 0.0048635057 0.004936103
0001f0 82 b1 65 b9 6d 62 d6 3b 04 88 d7 bb 3b c4 a0 3b
       -0.00021905269 0.006542495 -0.0065774936 0.004906205

action_model._continuous_distribution.log_sigma f4 [1, 2]
000000 3d eb 56 3a b3 5b 91 3a
       0.00081985054 0.001108995

action_model._continuous_distribution.mu.weight f4 [2, 128]
000000 e0 61 6b bc 64 09 e3 bc d7 1e 52 3d ce 00 c0 bb
       -0.014366597 -0.027714439 0.051298942 -0.005859471
000010 c4 08 7d 3b 90 b5 63 bc 5b 71 7d bc 1a e6 ce 3b
       0.003860996 -0.013898268 -0.015468921 0.0063140513
000020 c0 2a 6f bb fa 8f 01 3c 67 5b 06 3d 84 b9 8c bc
       -0.0036493987 0.007907862 0.03280201 -0.017178304
000030 b7 0d 5b bc 7a cd c5 bc ca 6f ec ba 1e e6 36 bc
       -0.013369969 -0.02414583 -0.0018038687 -0.011163263
000040 15 da ba bc f3 e2 1c bd ba e4 38 bd 22 66 74 3c
       -0.022809068 -0.038302373 -0.045140006 0.0149169285
000050 a4 6d 07 bd 0b 0e ae 3c 94 fc b4 3a 62 fe 07 bd
       -0.033063546 0.02124693 0.0013808184 -0.033201583
000060 30 c7 ac 3c 87 4d 99 3c 69 2c ab bc b6 68 7d bc
       0.021091074 0.018713726 -0.0208952 -0.01546686
000070 82 4f 8f bc 45 69 3c 3c da 77 46 3a bd 85 97 bc
       -0.017493967 0.011499708 0.000757096 -0.018496389
000080 2e 8e f0 bc 73 00 2b bc 71 58 57 bd 25 10 ff 3a
       -0.029364672 -0.010437119 -0.05257458 0.0019459767
000090 86 04 ce 3b af 5e 82 bc 2a 64 c7 39 b4 86 50 3c
       0.0062871603 -0.01591429 0.00038030866 0.012727428
0000a0 eb 47 ac bb b1 b3 ac 3c 16 09 60 bc 53 37 1d bd
       -0.0052575967 0.021081777 -0.013674041 -0.03838284
0000b0 01 2e 0e bc 88 c2 13 3c 44 e3 06 bc e4 03 8d bc
       -0.00867796 0.009018548 -0.008232895 -0.01721377
0000c0 f6 9b cd 3c 38 35 7c 3b f9 49 bd bb c9 2a b5 3c
       0.025098782 0.003848387 -0.0057766405 0.022115128
0000d0 8e f4 63 3c ae d8 ed bb be f7 04 bb 2d 7a 9d bc
       0.013913287 -0.0072584962 -0.0020289267 -0.019223297
0000e0 8a 5b b6 3c 77 3a ff b9 d4 a9 f4 bc aa 90 f3 3b
       0.022260446 -0.0004868095 -0.029866137 0.007433017
0000f0 f6 5a b5 bc 3b 60 b9 3b 17 57 bc bc 52 13 31 bc
       -0.0221381 0.0056572235 -0.022990746 -0.010807829
000100 b6 bf e3 bc fa 66 79 bc 09 a3 14 3c 34 28 06 bd
       -0.027801376 -0.015222305 0.009072074 -0.032753184
000110 84 b0 c9 3b 8d 7c d3 3b 2d f5 16 bd c7 cc 89 ba
       0.0061550755 0.0064540566 -0.03685491 -0.0010513299
000120 10 b7 08 3d e3 0f 0f 3c 5e 15 32 3c 60 56 70 bc
       0.033377707 0.008731815 0.010869352 -0.014669031
000130 c2 4a e5 bc a9 64 e7 bb ad f3 3a bc 45 9f cd 3c
       -0.027989749 -0.00706156 -0.011410636 0.02510036
000140 7d 06 64 bc 19 91 08 3d e2 c9 2b 3d c0 fd 46 ba
       -0.013917563 0.0333415 0.041940577 -0.0007590912
000150 b0 91 c0 3b b7 88 38 bc 63 03 8b 3c 98 d7 7b 3b
       0.0058767423 -0.011263064 0.016969388 0.0038428064
000160 b6 04 7e bc 03 85 b1 bb d7 0b 14 3c c7 4c 17 3c
       -0.015504053 -0.0054174676 0.009036026 0.009234614
000170 ad fe 93 bc 94 16 29 3c 74 f6 5e bd 67 c4 fe bc
       -0.018065775 0.010320324 -0.054434255 -0.031099511
000180 07 38 6d bb da 4a f0 3b fc 92 38 3c 80 41 c8 ba
       -0.0036196725 0.0073331418 0.011265513 -0.001527831
000190 d6 6b 55 3c b9 20 29 3c 80 ce 79 3c 08 6c 05 3c
       0.013026198 0.010322743 0.015246987 0.008143432
0001a0 6a 54 22 bb b1 7d 52 bc 10 ee 06 bd 94 c6 c5 3c
       -0.0024769553 -0.01284735 -0.032941878 0.024142541
0001b0 4e 96 3e bc 49 39 a6 3b 52 a1 87 3c d0 6e 7c ba
       -0.011632515 0.005072747 0.016556416 -0.00096295495
0001c0 bf ea 8c bc 7f 55 a1 bc 9f ae 27 3c e0 e9 da bc
       -0.01720178 -0.019694088 0.010234504 -0.026722848
0001d0 31 86 17 bc 95 26 c1 bb 64 92 37 bc 06 92 95 3c
       -0.009248302 -0.005894492 -0.011204336 0.018258106
0001e0 39 25 1a bc 9a bc 0f 3d 16 6b 02 3c 65 9a 72 bb
       -0.009408289 0.035091974 0.007960102 -0.0037018296
0001f0 b3 92 f5 3c 9d 29 09 3d 4f f7 70 bc 84 7d 34 3d
       0.029977178 0.03348695 -0.0147074 0.044065014
000200 67 15 f6 3a 75 df d7 bc 3c 51 d6 3a e3 0c 3a bc
       0.0018774689 -0.02635167 0.0016351114 -0.0113556115
000210 cf cb 43 3c de e5 7d 3c 2e e7 89 3b fd 97 4a ba
       0.011950447 0.015496699 0.004208467 -0.00077283365
000220 2a 71 b0 bc 87 28 a4 bc ff 19 01 bd fc 86 41 bc
       -0.021538336 -0.020038856 -0.031518932 -0.011811968
000230 39 51 06 bd 71 7c 11 bd c5 4b 5a bc 66 44 78 bb
       -0.032792304 -0.035519067 -0.013323729 -0.0037882566
000240 93 a9 68 bc 86 fc 28 bc 7f 20 95 3c 4e b9 ed bb
       -0.014200586 -0.0103141125 0.018203972 -0.007254756
000250 e1 5c e3 3a 0d 02 9f bb c1 7f 5c bc 55 cb 8b 3c
       0.0017346406 -0.0048525394 -0.013458193 0.01706473
000260 0a 23 5f 3c 8a 76 58 3c b6 87 dc 3a 11 6f 32 bd
       0.013619194 0.013211856 0.0016825113 -0.043562952
000270 38 75 6b bc 15 48 95 bc 97 e5 df 3b a3 6b 85 3b
       -0.014371209 -0.018222848 0.006832789 0.004071669
000280 1f c8 92 bc d2 ab 3a 3a 6a e5 07 bc a1 f4 a3 3c
       -0.01791769 0.000712094 -0.008294443 0.02001411
000290 19 63 ac 3c 7e 40 4c bc 4c 3d b7 bc 03 89 c8 3c
       0.021043347 -0.012466548 -0.022368096 0.024479395
0002a0 dc a8 86 3b ea 38 04 3d 2d ff ba bc f8 13 4a bc
       0.004109485 0.03228084 -0.022826755 -0.0123338625
0002b0 2b bd da 3b 44 e8 91 3c 47 e6 8b 3a 5d 6b 8b 3c
       0.0066753826 0.017810948 0.0010673486 0.017018968
0002c0 75 a2 51 3c 53 ea 54 3a 30 95 9d bc 91 ba 0c 3c
       0.01279508 0.0008122075 -0.019236177 0.008589403
0002d0 b0 9a 3c 39 95 e5 9c 3b c0 19 ea 3c cb 3d 2e 3c
       0.00017986703 0.0047881105 0.028576732 0.01063485
0002e0 5e 21 a4 bc 0c 55 b5 bc e4 11 23 bc 91 44 f4 bc
       -0.020035442 -0.02213528 -0.009952996 -0.029817851
0002f0 73 e0 6a bb f3 19 57 bc 10 99 8f 3c cd 09 0e 3c
       -0.0035839349 -0.013128745 0.01752904 0.008669329
000300 b6 6f f5 3b b4 04 f5 bc be 62 68 3c 10 cf a8 3b
       0.0074901236 -0.02990947 0.014183698 0.005151637
000310 77 ba b1 3c 4a d1 0e bd 63 2c ca 3c 0f c4 0f 3c
       0.021695359 -0.034867562 0.024679368 0.008774771
000320 1e bd d5 bc 2e 8e 09 bd b9 dc b2 bc 13 df 18 bc
       -0.026091155 -0.03358286 -0.021833764 -0.009330529
000330 75 3e 91 bb bf 7f 6c 3c a5 8e 91 3b 0e 0e fa 3a
       -0.0044324943 0.014434754 0.0044420534 0.0019077675
000340 7c 41 d1 bc 38 2c e5 bc b1 3e 14 3c 6c ea 56 bb
       -0.02554392 -0.027975187 0.00904815 -0.0032793535
000350 5c e5 a4 bc e0 4d ed bc 4d a8 3d 3c d3 80 05 3d
       -0.020128898 -0.028967798 0.011575771 0.03259356
000360 20 5b f2 3c 4b cf 5b 3c 9b 2a 7f 3c f2 86 54 3c
       0.029584467 0.013416122 0.015574123 0.012971627
000370 4a 96 e2 bb f2 d4 b0 bb 4d 66 f5 ba 86 61 08 bd
       -0.0069148885 -0.005396479 -0.0018722505 -0.03329613
000380 9d b8 69 bc 8e 2b 3b 3c 43 95 f1 3b e1 7d 9a bc
       -0.014265207 0.011423958 0.0073725297 -0.018858852
000390 2a eb 6b 3c ef 3a 8d bc fd 2d 42 bc 0f 2f 9c 3c
       0.014399329 -0.017240016 -0.011851785 0.019065408
0003a0 8f 8a 8b 3b 5b b2 a0 3c fe e0 35 3c c0 de 77 3c
       0.004258461 0.019616297 0.011101006 0.015128791
0003b0 3b 01 ff 3b 0e a1 04 3c a7 f6 ed bb 56 18 9b 3b
       0.007782129 0.008095039 -0.0072620693 0.0047331257
0003c0 db 43 82 bb f9 8b 41 3c d9 f5 fc bc 38 39 18 3c
       -0.003975374 0.011813157 -0.030878948 0.009290986
0003d0 8c b9 93 3c 72 66 85 3d 3a 88 02 3d 17 4f 99 3b
       0.018032812 0.065136805 0.031868197 0.0046786177
0003e0 7f 6e cf 3a 77 57 04 3b 6b dc 0b 3b 4e d5 8e bc
       0.0015825777 0.0020193735 0.0021341096 -0.017435696
0003f0 2a 3a 0c 3c b7 ca 05 bd ea 08 f1 3c 4c 08 f1 bc
       0.008558789 -0.032664027 0.029423196 -0.029422902

action_model._continuous_distribution.mu.bias f4 [2]
000000 2b b1 23 3b 55 a7 ca bb
       0.0024977427 -0.0061844983
