results/EatItemAgent/EatItemAgent/EatItemAgent-1631.pt (torch, 561627 bytes, 36 tensors)

network_body._body_endoder.seq_layers.0.weight f4 [128, 45]
0	0xbde35676	-0.111004755
1	0x3ca12d06	0.01967479
2	0xbeda3ed1	-0.4262605
3	0xbd3f7d3b	-0.04675029
4	0x3d0707a7	0.032966282
5	0x3dbdb463	0.09262922
6	0xbbac1e5c	-0.0052526426
7	0xbd401b23	-0.04690088
8	0xbcb7a339	-0.022416698
9	0x3d20c886	0.039253734
10	0x3dd8a490	0.10578263
11	0xbdb60ead	-0.08889518
12	0x3d561527	0.052266266
13	0x3dc2a3d9	0.09503908
14	0x3e085d95	0.13316949
15	0x3cb8d022	0.022560183
16	0xbd7da0d7	-0.061920967
17	0xbde3bedc	-0.11120388
18	0x3e7e8d62	0.24858621
19	0x3cfe5dd0	0.031050593
20	0x3e37287d	0.17886539
21	0x3e5cab31	0.2154968
22	0x3e3beca2	0.18351987
23	0xbd239e82	-0.039946087
24	0xbebc628c	-0.36793935
25	0xbd004438	-0.03131506
26	0x3d1b59b6	0.037927352
27	0x3dbcc5d2	0.09217419
28	0x3e10d25d	0.14142747
29	0xbc62cf95	-0.013843437
30	0x3ec25f7b	0.3796347
31	0xbd66825c	-0.056276664
32	0xbe98737f	-0.29775617
33	0xbc4ef557	-0.012631736
34	0x3dd6c375	0.10486499
35	0x3db94cbf	0.09047841
36	0xbc8e0074	-0.0173342
37	0x3d3ac617	0.04559907
38	0xbe4f12c2	-0.20222
39	0x3d89fa68	0.06737214
40	0x3e5c6c37	0.21525656
41	0xbe6202aa	-0.22071329
42	0xbddcf3f8	-0.10788721
43	0x3d9c1a0c	0.076221555
44	0x3d0895ce	0.03334599
45	0x3e5ee39d	0.21766515
46	0x3d93f42a	0.07224305
47	0xbe0ab677	-0.13546167
48	0x3d17ba47	0.037042882
49	0x3d48dcba	0.049038626
50	0x3deea8db	0.116533004
51	0xbe086400	-0.13319397
52	0x3e0c2e2b	0.13689487
53	0xbd35e755	-0.04441007
54	0xbe5ce8f5	-0.21573241
55	0xbe01d96e	-0.12680599
56	0xbd48f44f	-0.049061116
57	0x3da5f313	0.08103003
58	0x3e0db9ee	0.13840458
59	0xbd424606	-0.04743006
60	0x3e1160c7	0.14197074
61	0xbd9cb0cb	-0.07650908
62	0x3dcda58b	0.100413404
63	0x3df2909e	0.1184399
64	0x3e573c97	0.21019207
65	0x3ce4d9fb	0.027935972
66	0xbdaf9e54	-0.085751206
67	0xbd73cc1f	-0.059520837
68	0x3d865aba	0.065602735
69	0xbdc14914	-0.09437767
70	0x3e328d47	0.17436706
71	0x3dd85311	0.10562719
72	0xbe292428	-0.16517699
73	0x3e6ce2db	0.23133413
74	0xbdc3edd7	-0.09566849
75	0x3d2debf3	0.042461347
76	0xbc6a9ed2	-0.014320092
77	0x3d9be1f8	0.076114595
78	0xbd8b6af2	-0.068075076
79	0xbd77b89c	-0.06047879
80	0x3e15f8ec	0.14645737
81	0xbe1ac048	-0.15112412
82	0xbd3fed64	-0.046857253
83	0xbe06cbf9	-0.13163747
84	0x3d1625fb	0.036657315
85	0xbbb22326	-0.005436319
86	0x3d5f0adc	0.054453716
87	0x3db10cbd	0.08645008
88	0xbdcaa84d	-0.09895382
89	0xbe16831e	-0.14698455
90	0x3e16383a	0.14669886
91	0x3d30ce97	0.04316577
92	0x3e13268f	0.14370178
93	0x3d2b20ca	0.041779317
94	0xbd398111	-0.045289103
95	0xbdb7646f	-0.08954703
96	0x3d21b860	0.039482474
97	0xbe6bae9f	-0.23015831
98	0xbd079979	-0.033105347
99	0xbe845483	-0.25845727
100	0xbe2ce077	-0.16882502
101	0xbdd2cf40	-0.10293436
102	0xbc0f11bd	-0.0087322565
103	0xbcd51d1b	-0.026014855
104	0xbdada1c0	-0.08478117
105	0xbc4446c7	-0.011979765
106	0x3d66be3e	0.056333773
107	0xbe1891be	-0.14899346
108	0x3df62d05	0.120203055
109	0x3ce59c87	0.02802874
110	0x3d4b7dce	0.049680524
111	0xbdfb5171	-0.12271393
112	0xbcf813b7	-0.030282838
113	0x3db3908e	0.08767806
114	0xbd940db2	-0.07229175
115	0x3e90eaf8	0.28304267
116	0x3d6e226f	0.058138307
117	0xbdb493b7	-0.08817237
118	0x3e31a936	0.17349705
119	0xbe454b64	-0.1926704
120	0x3d97bf23	0.07409503
121	0xbe101a33	-0.14072494
122	0xbcf349fd	-0.029698366
123	0x3d68fce9	0.05688182
124	0xbc7095d8	-0.014684163
125	0xbe3886d2	-0.1802018
126	0xbd68bd44	-0.056821123
127	0xbe96290e	-0.29328197
128	0x3dc59ac3	0.09648659
129	0x3d134a0b	0.035959285
130	0xbe8e5ed5	-0.27806726
131	0x3c557ebb	0.013030703
132	0x3f0c22e6	0.5474075
133	0xbdc7ca01	-0.09755326
134	0xbdb0e884	-0.08638099
135	0xbe4a4aa8	-0.19755042
136	0xbd54eafc	-0.05198191
137	0x3e43df42	0.19128135
138	0xbdd71557	-0.10502117
139	0x3d8ea0f6	0.069642946
140	0xbd9b615e	-0.07586931
141	0xbdec47f6	-0.11537163
142	0x3d6a839f	0.05725443
143	0xbe916457	-0.28396866
144	0xbed52404	-0.4162904
145	0x3d0e29a0	0.034707665
146	0x3d07c5b9	0.033147547
147	0x3c35755f	0.011075347
148	0xbd84c71d	-0.0648329
149	0x3cbb1e6d	0.022841657
150	0x3d116b49	0.035502706
151	0x3db21e8d	0.08697233
152	0x3ca3db40	0.020002007
153	0xbe8772dd	-0.2645482
154	0xbe8e786c	-0.2782625
155	0xbca0ad40	-0.019613862
156	0x3c1412f3	0.009037721
157	0x3e81d80a	0.25360137
158	0xbe36ce13	-0.17852049
159	0xbe5b1519	-0.21394767
160	0xbc210292	-0.009827273
161	0x3deded87	0.1161757
162	0x3c2f24b5	0.010689904
163	0xbcb4e337	-0.022081
164	0x3e8f6bd5	0.28011957
165	0x3b9d4bcb	0.004800295
166	0x3d9308d4	0.07179418
167	0x3e618d68	0.22026598
168	0x3d84051e	0.064462885
169	0x3ddc5765	0.10758857
170	0xbebeba30	-0.37251425
171	0xbe072c12	-0.13200405
172	0xbdd86e05	-0.105678596
173	0xbdf88610	-0.121349454
174	0x3dfef593	0.12449183
175	0x3d8e2971	0.06941498
176	0xbda00a18	-0.07814425
177	0x3ecd0de7	0.4004967
178	0x3e60ef26	0.21966228
179	0xbc2c8cea	-0.010531643
180	0x3d131139	0.035905097
181	0xbcf51ffe	-0.029922482
182	0x3e690be5	0.22758444
183	0xbd0c8ba3	-0.034312855
184	0xbdaf19c9	-0.0854984
185	0x3e7d49bf	0.24735163
186	0xbc5b45c6	-0.0133833345
187	0x3cc6d5bb	0.024271837
188	0x3da21c28	0.07915527
189	0xbe6abf13	-0.22924452
190	0x3df1a752	0.11799492
191	0xbd3d19f4	-0.04616733
192	0xbd0c39b5	-0.03423472
193	0x3d14d9e1	0.036340598
194	0xbcd19955	-0.02558581
195	0x3d19c2d3	0.037539314
196	0xbe9f7f68	-0.3115189
197	0x3e577586	0.21040925
198	0x3e9cacde	0.30600637
199	0xbe1fb53e	-0.15596482
200	0xbd9771a6	-0.073947236
201	0x3e277e4b	0.1635677
202	0xbd87ab2e	-0.06624447
203	0xbc7fb4ea	-0.015607098
204	0x3e171c27	0.14756833
205	0xbd66dce3	-0.056362998
206	0x3e36bb6d	0.17844935
207	0x3d179f6b	0.037017267
208	0x3d50af6b	0.05094854
209	0xbdbbded5	-0.09173361
210	0x3eab95c9	0.33512715
211	0xbe30a344	-0.17249781
212	0x3cdcf543	0.026972419
213	0xbd9eee8d	-0.07760344
214	0xbd4471b7	-0.04796001
215	0x3e2c74b4	0.16841394
216	0xbe679edb	-0.22619192
217	0xbd7632fb	-0.060107213
218	0x3c249c04	0.010046963
219	0x3b8bbab0	0.0042641982
220	0x3e837497	0.25674888
221	0x3d278584	0.040898815
222	0x3e2849de	0.16434428
223	0x3e4ce283	0.20008282
224	0xbd90f172	-0.07077302
225	0xbe1353c2	-0.1438742
226	0xbd7344b0	-0.059391677
227	0x3e23a0d8	0.15979326
228	0x3de39edd	0.11114285
229	0xbc6324f2	-0.013863789
230	0x3d9daaac	0.07698569
231	0x3d68ff29	0.056883965
232	0x3e0c47b9	0.13699235
233	0x3e01bd6e	0.12669918
234	0xbd4a8eff	-0.049452778
235	0xbe1042c0	-0.14087963
236	0x3e0deae4	0.13859135
237	0x3b1b4a35	0.0023695354
238	0x3cb7b283	0.022423988
239	0xbb7e1335	-0.0038768773
240	0xbd865b0c	-0.065603346
241	0xbe7cfc14	-0.24705535
242	0xbe8c1e2e	-0.27366775
243	0x3e408878	0.18802059
244	0xbdaee6ff	-0.08540153
245	0xbe017151	-0.12640883
246	0xbc12741d	-0.008938816
247	0x3c6d30f3	0.014477002
248	0xbdaff39b	-0.08591386
249	0x3dd5e8bf	0.104447834
250	0x3e4e76da	0.20162526
251	0x3db64ff4	0.089019686
252	0xbe7adf58	-0.24499261
253	0xbd813d30	-0.06310499
254	0x3c8e3b3b	0.017362228
255	0xbe0cafd3	-0.13738947

network_body._body_endoder.seq_layers.0.bias f4 [128]
0	0x38d187d7	9.991199e-05
1	0xba6fe475	-0.0009151169
2	0xbbe3efb1	-0.0069560637
3	0xba98793b	-0.0011632809
4	0xbaa6bf58	-0.001272182
5	0xbb8c311c	-0.004278315
6	0xbb14bfc3	-0.0022697307
7	0xbb816066	-0.003948259
8	0x3bc54d10	0.0060211495
9	0xbb86b24b	-0.0041106096
10	0xbb0b2f34	-0.0021237852
11	0xbaaafc7d	-0.0013045218
12	0xba6a8db7	-0.0008947509
13	0xbc0e718e	-0.008694066
14	0xbb7a11fc	-0.0038157692
15	0xbbbcc3f2	-0.005760663
16	0xbb59b6d0	-0.0033220537
17	0xba8387d8	-0.0010034991
18	0xbac5c5c9	-0.0015088852
19	0x3afef02d	0.001945024
20	0x36c32c6c	5.8166243e-06
21	0x3a4425a2	0.00074824144
22	0xbb219964	-0.0024658078
23	0x39cba37d	0.00038840986
24	0x39fff3e1	0.00048819094
25	0x3b38d322	0.0028202017
26	0xba6beb61	-0.0008999613
27	0xbafdd572	-0.001936598
28	0xbb41a91b	-0.0029550258
29	0x3adde702	0.0016929808
30	0xbaac6b2f	-0.0013154502
31	0xbb7d9a1f	-0.00386966
32	0xbc050fdc	-0.008121457
33	0x399e2277	0.00030161787
34	0xbacd00b0	-0.0015640464
35	0xb9d15b03	-0.00039931395
36	0x3c041cce	0.008063508
37	0xbb221143	-0.0024729527
38	0xbc5ebf69	-0.01359544
39	0x38f75cde	0.00011795176
40	0x39a6d5c1	0.00031821246
41	0xba781474	-0.0009463497
42	0x3b1fa4a1	0.00243596
43	0xbad12856	-0.0015957456
44	0x3aabc778	0.0013105711
45	0x3ac488bb	0.0014994362
46	0xba95b106	-0.0011420555
47	0xbade3912	-0.0016954264
48	0xbb8e3b77	-0.004340585
49	0xbb118f31	-0.0022210593
50	0xba20bf76	-0.00061320455
51	0xba31eb67	-0.0006787092
52	0xbb2cd7c1	-0.0026373717
53	0xba166ad1	-0.0005737963
54	0xbb35abc7	-0.0027720795
55	0x3b48b3de	0.0030624787
56	0x3b0bb801	0.0021319392
57	0xbab27091	-0.001361387
58	0xbab4cfc6	-0.0013794831
59	0xba4c147a	-0.00077850337
60	0xbb82f412	-0.0039963806
61	0xb90f2a5a	-0.0001365332
62	0x3b1e52f5	0.0024158333
63	0xbbd481a3	-0.0064851805
64	0xb90cc4ef	-0.00013424804
65	0xbb1e7357	-0.0024177635
66	0xbb25a1f1	-0.0025273527
67	0x3b77c88f	0.0037808751
68	0xbaaad080	-0.0013032109
69	0x3966c594	0.00022008113
70	0xbb09395a	-0.0020938725
71	0xbb40defe	-0.0029429789
72	0xbb4d9e64	-0.0031374926
73	0x3ab9d56f	0.0014177988
74	0xbb252f8e	-0.0025205347
75	0xbb28cd72	-0.002575722
76	0xbac89d0a	-0.001530559
77	0xbbb97afa	-0.005660412
78	0xba800bb2	-0.000976911
79	0x3949f535	0.000192602
80	0xbb203a77	-0.002444891
81	0x38f8c296	0.00011861806
82	0xbba41a30	-0.0050080046
83	0xbb92c071	-0.004478507
84	0xbb38ef6d	-0.002821888
85	0x3a695e0d	0.0008902259
86	0xba58ad4a	-0.0008265568
87	0xba5014fb	-0.00079376966
88	0xba3e3fb2	-0.0007257416
89	0x39a84f05	0.0003210233
90	0x386fa0ba	5.713173e-05
91	0xb8459f5f	-4.7116886e-05
92	0xbb4a44a7	-0.0030863674
93	0xbac7c0a8	-0.0015239911
94	0xb904679c	-0.00012627098
95	0xbb0b6082	-0.002126724
96	0xbb76a486	-0.0037634685
97	0x3b33b91f	0.0027423573
98	0xbb5c101a	-0.0033578933
99	0xbad9a0c2	-0.0016603696
100	0x3b34f4a9	0.002761165
101	0xbb219a8c	-0.0024658768
102	0xbb8543fe	-0.004066943
103	0xb93d9444	-0.00018079678
104	0xbaa5dd25	-0.0012654407
105	0xbbbd704f	-0.0057812105
106	0xbb4a416b	-0.0030861746
107	0x3ae3cafb	0.0017379218
108	0x3b049227	0.0020228715
109	0x3b385551	0.0028127024
110	0x3a87f517	0.0010372725
111	0xbbab365c	-0.005224986
112	0xbb8be900	-0.004269719
113	0xbb46ad7a	-0.0030315802
114	0xbb2393e9	-0.0024959987
115	0xbc0766e9	-0.008264282
116	0xbb585cdd	-0.0033014335
117	0x39c7a159	0.0003807645
118	0xbbc1bc84	-0.0059123654
119	0xbbc6ceba	-0.006067124
120	0xbaf54aba	-0.0018714287
121	0xbbf4f55d	-0.0074755386
122	0xbc2509c7	-0.010073132
123	0x3b651e10	0.0034960546
124	0xbba7424f	-0.00510434
125	0x39704dc0	0.00022917148
126	0xbb3f6dfb	-0.002920984
127	0xbb2fb390	-0.0026809908

network_body._body_endoder.seq_layers.2.weight f4 [128, 128]
0	0xbcfb38e9	-0.030666785
1	0xbe28c1ca	-0.16480175
2	0xbd987ebb	-0.07446047
3	0x3e3f04a4	0.18654114
4	0xbc87341b	-0.016504338
5	0xbdf2b679	-0.1185121
6	0x3d4be040	0.04977441
7	0x3d310ee5	0.043227095
8	0x3d392edb	0.0452107
9	0x3d921c24	0.07134274
10	0x3c65b153	0.014019328
11	0x3cb7498d	0.022373939
12	0xbcf49569	-0.0298564
13	0x3d17a5e2	0.037023433
14	0x3d1be455	0.03805955
15	0x3d953ed5	0.07287375
16	0xbd1e2f70	-0.03861946
17	0xbd37cab1	-0.044871036
18	0xbdfdb9f6	-0.12388985
19	0x3de6c86c	0.11268696
20	0xbd0f2594	-0.034947947
21	0x3e058643	0.13039498
22	0x3da4ee9e	0.08053325
23	0xba5eb0b9	-0.00084949617
24	0x3d5505ed	0.052007604
25	0x3d1d0643	0.03833605
26	0x3c5cae8c	0.01346935
27	0xbdbe9fea	-0.09307845
28	0x3c614992	0.013750451
29	0xbd37098b	-0.044686835
30	0xbd902d87	-0.07039934
31	0x3d0b1d7f	0.033963677
32	0x3cdcfcd8	0.026976034
33	0xbda1d48a	-0.07901867
34	0x3b4b6475	0.003103522
35	0xbd035546	-0.032063745
36	0xbba89009	-0.0051441235
37	0xbda6d908	-0.08146864
38	0xbda984f0	-0.08277309
39	0x3d158454	0.03650315
40	0x3d03bff5	0.032165486
41	0x3e29f755	0.16598256
42	0xbd04e1b1	-0.0324418
43	0x3dde1c7c	0.10845277
44	0xbdbb6a13	-0.091510914
45	0x3e2bbd63	0.16771464
46	0x3dbbc385	0.09168152
47	0x3e00d1fe	0.12580106
48	0xbc981b06	-0.018567573
49	0xbb90b7f6	-0.004416461
50	0xbcaa2ce1	-0.020773353
51	0xbd3cc458	-0.046085685
52	0x3e0b87b4	0.13625985
53	0xbd5c4e65	-0.0537857
54	0x3e138b55	0.1440862
55	0x3dcb1492	0.09916033
56	0x3d489c50	0.048977196
57	0xbdc5abd8	-0.09651917
58	0xbd89a416	-0.0672075
59	0x3d7c574c	0.06160669
60	0x3ac5835b	0.0015069054
61	0x3d71c284	0.059023395
62	0xbe332817	-0.17495762
63	0xbe290eb8	-0.16509521
64	0x3dda9ef0	0.10674846
65	0xbd5a7417	-0.05333337
66	0xbdd22336	-0.10260622
67	0xbd426a35	-0.04746457
68	0x3e179ee6	0.14806709
69	0x3d0c13a6	0.034198426
70	0x3d066409	0.032810245
71	0x3de6e7af	0.11274659
72	0xbc00f721	-0.00787142
73	0x3d6f6f30	0.058455646
74	0xbd2d889b	-0.042366605
75	0x3ddaa95e	0.106768355
76	0xbe11095a	-0.14163724
77	0xbd7420b9	-0.05960152
78	0xbdd263ef	-0.10272967
79	0x3da66d8e	0.08126365
80	0x3d374e1e	0.044752233
81	0x3c2340ab	0.0099641485
82	0xbda6c9b3	-0.0814394
83	0x3da7ef29	0.08199913
84	0x3d056501	0.032567028
85	0xbc530f5a	-0.012882078
86	0xbdd728c9	-0.10505826
87	0x3c88dacb	0.016705891
88	0x3d2127a4	0.039344445
89	0xbd7341e0	-0.059388995
90	0x3e2f0d77	0.1709498
91	0xbc56ccef	-0.013110383
92	0xbc7f20a0	-0.015571743
93	0x3dbf1824	0.09330776
94	0x3e51fcc6	0.20506582
95	0x3c83aab9	0.016072618
96	0xbbc57b3a	-0.0060266526
97	0x3d984cfa	0.07436557
98	0x3d6928c8	0.056923658
99	0xbdd200d2	-0.10254063
100	0xbd197bf6	-0.037471734
101	0xbd9de1f9	-0.077091165
102	0x3da50f02	0.08059503
103	0x3d527e3d	0.05138992
104	0x3c58399a	0.013197327
105	0xbe1a788d	-0.15085049
106	0x3acdab2d	0.0015691273
107	0x3da89536	0.08231585
108	0x3e627403	0.22114567
109	0x3df14482	0.11780645
110	0xbe25a665	-0.16176756
111	0xbcc01602	-0.023447994
112	0x3d141372	0.036151357
113	0xbd14663f	-0.036230322
114	0x3a997f04	0.0011710827
115	0xbde28a9f	-0.11061596
116	0x3ddbaf8c	0.10726842
117	0xbd28341b	-0.041065317
118	0x3c522595	0.012826343
119	0xbd3a585b	-0.04549442
120	0x3b2ff46f	0.0026848575
121	0x3d958036	0.07299845
122	0xbd49e89d	-0.049294103
123	0xbd7aac29	-0.06119934
124	0xbe02cceb	-0.12773483
125	0xbdf00665	-0.1171997
126	0x3d6ba630	0.057531536
127	0xbd159ac8	-0.036524564
128	0x3db12513	0.086496495
129	0xbb4d9b24	-0.0031372989
130	0x3cb98c50	0.022649914
131	0xbd8e37a7	-0.069442086
132	0x3b9e772f	0.004835985
133	0x3c0e71fb	0.008694167
134	0x3b5a25bc	0.0033286652
135	0x3d01af30	0.031661212
136	0xbbd08ab1	-0.0063641896
137	0x3de9ee1c	0.11422369
138	0xbcbbdef8	-0.022933468
139	0x3d34da02	0.04415322
140	0xbda740ad	-0.08166633
141	0xbd2a14bb	-0.041523676
142	0x3dcd234e	0.100164995
143	0x3d7db170	0.061936796
144	0x3d223c39	0.039608214
145	0xbdf34f14	-0.11880317
146	0x3d9446a1	0.07240034
147	0xbcfb7c78	-0.030699
148	0xbd3af950	-0.04564792
149	0x3cc6d63c	0.024272077
150	0x3e1d3e65	0.15355833
151	0x3cfd94be	0.030954715
152	0x3df83db3	0.12121143
153	0x3d027ffb	0.031860333
154	0xbda3635c	-0.07977936
155	0x3e7c08da	0.24612752
156	0xbe8fffb5	-0.28124776
157	0xbcb5b11b	-0.022179177
158	0x3cb293cd	0.021798993
159	0x3e0efe73	0.13964252
160	0x3e361687	0.17782031
161	0x3c8e36cd	0.017360115
162	0x3cc0afc1	0.023521306
163	0x3d227a86	0.03966763
164	0x3e38bb9e	0.1804032
165	0x3e2c6e32	0.16838911
166	0x3dd72faa	0.10507138
167	0xbe2f45f1	-0.17116524
168	0xbccefc8b	-0.025266906
169	0xbd807445	-0.06272177
170	0x3d794579	0.06085727
171	0x3d0fff15	0.035155375
172	0x3c2e456c	0.010636669
173	0xbdb389ca	-0.087665156
174	0xbc4d0542	-0.012513461
175	0xbcd9f6f7	-0.02660702
176	0xbe2f5bed	-0.1712491
177	0x3c04e5d6	0.008111438
178	0x3df60b21	0.120138414
179	0xbd7e3d37	-0.062070098
180	0xbd2027ad	-0.039100338
181	0x3e1a3ce2	0.15062287
182	0xbde71291	-0.11282838
183	0xbd602464	-0.054722205
184	0xbdfe422c	-0.12414965
185	0x3d14c6de	0.036322467
186	0xbbd72dc5	-0.0065667355
187	0x3d49dc77	0.049282517
188	0x3e17d824	0.14828545
189	0x3cb91860	0.02259463
190	0x3d445cf7	0.04794022
191	0x3da04d98	0.078273
192	0xbd8430bc	-0.06454608
193	0xbd368038	-0.044555873
194	0xbd1fc785	-0.039008636
195	0x3db87973	0.090075396
196	0x3d522128	0.05130115
197	0x3e0e7e38	0.13915336
198	0xbc6329c1	-0.013864935
199	0xbb8128ef	-0.0039416472
200	0xbdb80c1f	-0.08986687
201	0xbd974de6	-0.07387905
202	0x3e295fc7	0.16540442
203	0x3e831293	0.25600109
204	0x3e2ae723	0.16689734
205	0xbe84c391	-0.25930455
206	0x3e09ee7c	0.13469881
207	0xbcd2ee73	-0.025748467
208	0x3cd68a9d	0.026189143
209	0xbd4eb65c	-0.05046688
210	0xbe5c0792	-0.21487263
211	0x3d1ae3f1	0.037815038
212	0xbc12e8af	-0.008966609
213	0xbd6f9f1a	-0.05850134
214	0x3d92ca5d	0.07167504
215	0x3dc75a48	0.09734017
216	0xbd0554ce	-0.03255158
217	0x3d8056c2	0.06266548
218	0xbdbbe3b6	-0.09174292
219	0xbde892d7	-0.113561325
220	0xbdf8051f	-0.12110352
221	0x3e64341d	0.22285505
222	0x3e3ba263	0.18323664
223	0x3e0f94b5	0.14021571
224	0xbe249e63	-0.16076045
225	0x3b5f0dc1	0.0034035298
226	0x3e466d10	0.19377542
227	0xbc8340de	-0.016022142
228	0x3c9c2111	0.019058736
229	0x3e3eba6d	0.18625803
230	0xbe4ce509	-0.20009245
231	0x3c603522	0.013684543
232	0x3e1d39f1	0.15354134
233	0x3c5756af	0.013143226
234	0x3d5e0cbc	0.054211363
235	0xbd8a2ab1	-0.06746424
236	0xbd1a7c43	-0.03771616
237	0xbdf087a3	-0.11744621
238	0xbe045ab8	-0.12925231
239	0x3d35d177	0.044389214
240	0xbe005360	-0.12531805
241	0x3e2c75e2	0.16841844
242	0xbd972eab	-0.07381948
243	0xbd861533	-0.06547012
244	0xbd859013	-0.065216206
245	0xbb445a73	-0.0029961138
246	0xbdda69c4	-0.106647044
247	0xbd919514	-0.071085125
248	0x3e824bdd	0.25448504
249	0xbd5f6683	-0.054541122
250	0x3c9707c4	0.01843632
251	0xbe3f62f2	-0.18690088
252	0xbcbd4b8c	-0.023107313
253	0xbce67fad	-0.028137052
254	0xbe227d40	-0.15868092
255	0x3e120fbe	0.14263818

network_body._body_endoder.seq_layers.2.bias f4 [128]
0	0x3b25f39d	0.0025322207
1	0xbb1ab4a7	-0.0023606212
2	0x38dda3aa	0.00010568586
3	0x395587e9	0.00020363893
4	0x3ac39c36	0.0014923874
5	0xbb0109ef	-0.0019689759
6	0xb966a8d6	-0.00021997406
7	0xb7cd8951	-2.4501847e-05
8	0xbc552c49	-0.013011047
9	0xb998d552	-0.00029150635
10	0xbb0590b3	-0.0020380437
11	0x3abd4987	0.0014441469
12	0xba813919	-0.0009858935
13	0xbaef9be2	-0.001828071
14	0xba0b0f49	-0.0005304707
15	0xb93da690	-0.00018086494
16	0xb9c6d020	-0.00037920568
17	0x3acb34b1	0.0015503374
18	0xbb35da53	-0.002774854
19	0xbb1e378d	-0.0024141998
20	0x39f515e3	0.00046746348
21	0xbb27e58c	-0.0025618998
22	0xbb85e6c1	-0.004086346
23	0x37c32f00	2.3267698e-05
24	0xba052efc	-0.00050805486
25	0xbbb698f6	-0.0055724336
26	0xba2ead94	-0.00066634384
27	0xbb912d60	-0.004430458
28	0x3b253dbc	0.0025213799
29	0x3a3b8287	0.0007152934
30	0x3a516285	0.0007987398
31	0xb9d156fe	-0.000399284
32	0xbb941773	-0.004519397
33	0xb95b2f4a	-0.00020903084
34	0xba7294a9	-0.00092537195
35	0xbae105fc	-0.0017167921
36	0xbb2315d3	-0.0024884834
37	0xbb46325f	-0.0030242426
38	0xba50fc58	-0.00079721725
39	0xbbb4ff08	-0.005523566
40	0x3b2d99f6	0.0026489473
41	0xbacab79b	-0.0015466096
42	0xb96fd110	-0.00022870698
43	0xbae33047	-0.0017333113
44	0xb9b0f024	-0.00033748255
45	0xbabf94a8	-0.0014616447
46	0xbb8912c9	-0.0041831476
47	0xbb0c8648	-0.0021442343
48	0xbadc1ebc	-0.0016793828
49	0xb9c1b2d1	-0.00036945057
50	0x3a374f4c	0.0006992712
51	0xba031baf	-0.00050013786
52	0xbb9dc831	-0.0048151244
53	0xbb14120b	-0.0022593762
54	0xb984aea3	-0.00025307116
55	0xb9b5e3f9	-0.00034692863
56	0xbb1ebd90	-0.0024221875
57	0x3a89fb2d	0.0010527127
58	0xbb2b2c1e	-0.0026118825
59	0x38d39aec	0.000100901205
60	0xba2f1f49	-0.0006680382
61	0xbb91e324	-0.004452126
62	0xbbe21539	-0.0068995026
63	0xb87035ed	-5.727068e-05
64	0xbb5ecc5d	-0.0033996322
65	0xbb11c69b	-0.0022243622
66	0xbb2026a6	-0.0024437099
67	0x3b803793	0.003912875
68	0xb9d22ace	-0.00040086213
69	0x3aa50eeb	0.0012592947
70	0xb955a305	-0.00020373992
71	0xbbb11ca7	-0.005405027
72	0xbad66f41	-0.001636006
73	0xba8de411	-0.0010825415
74	0xbba41e0f	-0.005008466
75	0xbb85b3eb	-0.004080286
76	0xbb3e3c16	-0.0029027513
77	0xbbed8d35	-0.007249499
78	0xbba0f504	-0.0049120206
79	0xbb75b7f9	-0.003749369
80	0xbb3103f8	-0.0027010422
81	0xbaef5090	-0.0018258262
82	0xbb065d44	-0.0020502368
83	0xbaef160a	-0.0018240821
84	0x3affbf5c	0.0019511986
85	0x39bc2716	0.00035887276
86	0xba2ea1ee	-0.00066617026
87	0xbb03d5b1	-0.0020116384
88	0xbb115685	-0.0022176814
89	0xbb0219af	-0.0019851734
90	0x3aa9968c	0.0012938543
91	0xbb816aec	-0.0039495137
92	0xbb146852	-0.0022645188
93	0xba5fc1b2	-0.0008535638
94	0xbba28fae	-0.0049609756
95	0x3b7201aa	0.0036927261
96	0xb99f59b6	-0.00030393683
97	0xbad09222	-0.0015912692
98	0xbb0f01f5	-0.0021821235
99	0x3adac93f	0.0016692056
100	0xbb106954	-0.0022035437
101	0xbb334e96	-0.0027360073
102	0x3a6191c0	0.0008604787
103	0x3a1979e7	0.00058546517
104	0x39b668dc	0.0003479187
105	0xba422385	-0.00074058055
106	0xbb17ee2d	-0.0023182735
107	0x3b10a13f	0.0022068766
108	0xba710f5d	-0.000919571
109	0xbb2a889c	-0.0026021367
110	0x3af4b428	0.0018669413
111	0xbafdb5e3	-0.0019356575
112	0xb9a83fdd	-0.0003209104
113	0x39fca382	0.00048187008
114	0xbab2382d	-0.0013597064
115	0xbb1dc4fb	-0.0024073708
116	0x3ad931f0	0.0016570669
117	0xbab5e085	-0.0013876116
118	0xbbf02551	-0.007328667
119	0xba1bd612	-0.000594468
120	0xbb96e7df	-0.004605278
121	0x39dc2e5f	0.0004199622
122	0xbbef473e	-0.007302194
123	0x3ba06b6e	0.004895619
124	0xb95a84fa	-0.00020839638
125	0xbc0210c7	-0.00793857
126	0x3b950f41	0.0045489375
127	0xbb1c39a9	-0.002383808

action_model._continuous_distribution.log_sigma f4 [1, 2]
0	0x3c768c4a	0.015048096
1	0xbbf5a281	-0.0074961786

action_model._continuous_distribution.mu.weight f4 [2, 128]
0	0xbcbe0677	-0.023196442
1	0xbc21dfda	-0.0098800305
2	0x3c9a5f23	0.018844193
3	0x3d31f1fc	0.043443665
4	0xbc5f9ea8	-0.013648666
5	0xbcc10997	-0.023564143
6	0x3c838ec9	0.016059296
7	0x3cc178c0	0.023617148
8	0x38f2c79c	0.000115766394
9	0xbcbb84fb	-0.022890558
10	0xbc958aa8	-0.018254593
11	0xbcd16566	-0.025561046
12	0xbbb00533	-0.0053717135
13	0x3c55e062	0.013053985
14	0xbaf02991	-0.0018322935
15	0x3cbc2ada	0.022969652
16	0x3b16d05b	0.0023012373
17	0x3c104703	0.008805993
18	0x3bcc3559	0.0062319455
19	0xbbdbb707	-0.006705168
20	0xbcb9f335	-0.022698978
21	0xbc35f8ca	-0.011106679
22	0x3a91f835	0.0011136594
23	0xbb7a00d8	-0.0038147476
24	0x3c5a0c7c	0.013308641
25	0x3c652e83	0.01398814
26	0xbcd82c2f	-0.026388256
27	0xbc7d4c7b	-0.015460129
28	0xbd3e7939	-0.046502326
29	0x3bc687c5	0.0060586655
30	0x3c44301c	0.011974361
31	0xbca05813	-0.019573247
32	0x3cf567db	0.029956749
33	0xbb9438cf	-0.0045233737
34	0x3c918a90	0.017766267
35	0x3bebdb41	0.007197768
36	0xbc5a1a84	-0.013311986
37	0x3bdb82d5	0.006698946
38	0xbc25cf39	-0.0101202065
39	0x3c0c0edb	0.008548464
40	0x3ca2bd46	0.019865643
41	0xbc1e4aa9	-0.009661355
42	0x3cab7d22	0.020933691
43	0xbc9a3123	-0.018822258
44	0x3c42ece6	0.011897301
45	0xbc941269	-0.018075185
46	0xbb9af579	-0.0047289697
47	0xbc26dbb6	-0.010184219
48	0x3c1667e6	0.009180045
49	0xb9fc8696	-0.0004816546
50	0xbb8f51ac	-0.0043737497
51	0xbc3dc99b	-0.011583711
52	0xbbade97c	-0.0053073745
53	0x3c754cfd	0.014971969
54	0x3bf8f0df	0.0075970734
55	0x3d50c250	0.05096656
56	0xbbaeb985	-0.0053321742
57	0x3d2b9923	0.04189409
58	0x3c2624ff	0.0101406565
59	0x3d02945a	0.03187976
60	0xbd1ac965	-0.03778972
61	0x3bb0e050	0.005397834
62	0x3c679432	0.014134454
63	0x3c2bb24e	0.010479523
64	0xbb286796	-0.0025696508
65	0x3d2ccea2	0.042189248
66	0x3b1b5c99	0.0023706316
67	0x3d32e5cd	0.043676186
68	0x3b2ebb58	0.0026661959
69	0x3c848b61	0.016179742
70	0xbb55334c	-0.0032531796
71	0x3c273e2a	0.010207692
72	0x3b89f258	0.004209798
73	0xba6cae3f	-0.000902865
74	0x3bd27275	0.0064223357
75	0x3be4cd3f	0.006982475
76	0x3c05a22b	0.00815634
77	0x3b55ff5c	0.0032653427
78	0x3b923a28	0.004462499
79	0x3b4ef466	0.0031578778
80	0xb8eb4524	-0.00011218552
81	0x3c4775b1	0.012174056
82	0xbba04bc0	-0.0048918426
83	0x3c5e470b	0.013566743
84	0xbcdd20b2	-0.02699313
85	0xbc88fa45	-0.0167209
86	0xbc25013a	-0.010071093
87	0xbcbf7aa5	-0.023373911
88	0xbb3dd2a1	-0.0028964656
89	0x3a5da841	0.0008455553
90	0x3c4c0978	0.012453429
91	0x3cdee1a8	0.02720721
92	0x3b4d34ab	0.003131191
93	0x3c48c9d8	0.012255155
94	0xbbb2213f	-0.005436092
95	0xbbf1848d	-0.0073705376
96	0x3c035eee	0.0080182385
97	0x3cef7306	0.029229652
98	0x3c2e5765	0.010640954
99	0xbc31f862	-0.010862442
100	0xbc386129	-0.011253634
101	0x3c89483b	0.016758075
102	0xbd282703	-0.04105283
103	0xbcbd6359	-0.023118662
104	0xba057d0d	-0.00050921814
105	0xbc675d99	-0.0141214365
106	0x3bf75317	0.007547747
107	0xbb7cedd2	-0.00385939
108	0xbcaed05c	-0.021339588
109	0xbc16a112	-0.009193676
110	0x3b542009	0.0032367727
111	0xbcb5b17b	-0.022179356
112	0xbc61de3a	-0.013785893
113	0xbcab56d8	-0.020915434
114	0xbb48a6ee	-0.0030617076
115	0x3ce2c7a1	0.027683081
116	0xbc3af885	-0.011411791
117	0x3ba487f5	0.00502109
118	0xbb682236	-0.0035420782
119	0xbc7b6199	-0.015343093
120	0x3aed04de	0.0018083116
121	0xba924078	-0.0011158129
122	0xbbb29173	-0.005449468
123	0x3b909eb4	0.00441345
124	0xbc89b7a5	-0.016811201
125	0x3ca6cd6f	0.02036163
126	0xbc83ecd5	-0.016104141
127	0x3cae5b3c	0.021283738
128	0x3caebdda	0.021330763
129	0xbc85f723	-0.016353196
130	0xbc3ec5ad	-0.011643809
131	0x3c331d7b	0.010932322
132	0x3ce5c5c9	0.028048413
133	0xbb0f901b	-0.0021905962
134	0xbb894dca	-0.0041901814
135	0x3b4cd603	0.003125549
136	0xba7badd8	-0.0009600795
137	0xbc3a0d27	-0.011355675
138	0xbb2ffc67	-0.0026853324
139	0x3af2bbd2	0.001851911
140	0xbcc6d395	-0.024270812
141	0x3cd41a47	0.025891436
142	0xbc949397	-0.018136783
143	0x3c388df8	0.011264317
144	0xbcad3336	-0.021142583
145	0x3cf393cc	0.029733561
146	0x36729873	3.6149547e-06
147	0x3bc6177d	0.0060452805
148	0xbc4897fe	-0.012243269
149	0x3bd14666	0.006386566
150	0xbbb5ea33	-0.0055516004
151	0xbc61b7b5	-0.013776709
152	0xbb6f820a	-0.0036546015
153	0x3c211cd3	0.009833532
154	0xbc6b6972	-0.014368402
155	0x3bc8c078	0.0061264597
156	0x3cebc7aa	0.02878173
157	0x3cd56f05	0.026053915
158	0x3caf2a62	0.021382514
159	0xbc2c0efe	-0.010501621
160	0xbbd836f3	-0.0065983473
161	0x3c3f7203	0.011684897
162	0xbce0ae9a	-0.027427007
163	0x3c83ac52	0.01607338
164	0xbbc2ff61	-0.0059508537
165	0xbb6d668a	-0.0036224448
166	0xbce9438c	-0.028474592
167	0x3ca8b4ce	0.020594027
168	0xbc0fd2a3	-0.008778247
169	0x3bb9179c	0.0056485664
170	0xba229552	-0.000620206
171	0xba638625	-0.0008679352
172	0xb93089c7	-0.00016835994
173	0xbcaef1ae	-0.021355476
174	0x3b0203b6	0.0019838638
175	0x3d059bc5	0.032619257
176	0xbc47f8b4	-0.012205292
177	0x3c3b98e8	0.01145003
178	0x3d1ecde8	0.038770586
179	0x3c434e6c	0.011920553
180	0xbbaa39e3	-0.005194889
181	0xbcb69b50	-0.022290856
182	0xbaf52fd5	-0.0018706272
183	0x3ca17af8	0.019711956
184	0xbc00e39d	-0.007866767
185	0x3cc2d19b	0.023781588
186	0xbd18d178	-0.03730914
187	0xbcb5b1b7	-0.022179468
188	0xbbd39040	-0.006456405
189	0xbc20f162	-0.009823175
190	0x3c5e3a08	0.01356364
191	0x3c92e7a4	0.01793272
192	0x3b327942	0.002723292
193	0x3aef0fb6	0.0018238935
194	0xbd016314	-0.03158863
195	0xbd1edc8d	-0.038784552
196	0x3cbb773f	0.02288401
197	0x3b8aaaea	0.0042318003
198	0x3cff950f	0.031199006
199	0x3af83a90	0.0018938351
200	0xbc34bd7e	-0.011031507
201	0xbc0ea5f0	-0.008706555
202	0x3c9301c7	0.017945183
203	0x3b60993f	0.003427103
204	0xbc403bc7	-0.011733002
205	0x3c23d369	0.009999135
206	0xbb561287	-0.0032664852
207	0xbc6233c5	-0.013806288
208	0x3badb83b	0.005301503
209	0x3bce4faf	0.00629612
210	0xbc9dc49b	-0.019258788
211	0xbb66afa9	-0.0035199916
212	0xba90741e	-0.0011020934
213	0x39d5cbe8	0.00040778448
214	0x3b866ef8	0.004102584
215	0x3a9bc4aa	0.0011884172
216	0xba4b080a	-0.00077450334
217	0x3c8cd8bb	0.017193189
218	0xbcb73c72	-0.02236769
219	0xbbbdb29b	-0.0057891137
220	0xbd146e43	-0.036237966
221	0xbc276aa9	-0.010218301
222	0xbc509059	-0.012729728
223	0x3baa15be	0.00519058
224	0x3c9edaae	0.019391384
225	0xbc3f666c	-0.011682134
226	0x3c8ed369	0.017434793
227	0x3c135a13	0.008993643
228	0x3c139729	0.009008207
229	0xbc4fdd1c	-0.012686994
230	0xbce365c1	-0.027758481
231	0x3c5246b5	0.012834241
232	0x3cf94b1d	0.030431325
233	0x3d136035	0.035980422
234	0x3c6d117e	0.0144695025
235	0x3c845a01	0.016156198
236	0x3b7efb5d	0.0038907148
237	0x3c90527f	0.017617462
238	0x3c35c80c	0.011095058
239	0xbc2ee583	-0.010674837
240	0x3c346062	0.011009308
241	0xbbc47f93	-0.0059966533
242	0x3d1b64a8	0.03793779
243	0x3d00cf19	0.031447504
244	0xbd136d85	-0.035993118
245	0xbc205042	-0.00978476
246	0x3aa4d581	0.0012575836
247	0xbb21738a	-0.0024635517
248	0x3cd0f9bb	0.025509706
249	0x3c1a334d	0.009411645
250	0xbbef5175	-0.0073034116
251	0xbca2fd53	-0.019896185
252	0xbc6fa96b	-0.014627795
253	0xbcaeac05	-0.02132226
254	0xbbf921c1	-0.0076029007
255	0xbbfd691f	-0.0077334787

action_model._continuous_distribution.mu.bias f4 [2]
0	0xb931355e	-0.00016899916
1	0x3aa5af96	0.001264083

exp_avg f4 [128, 45]
0	0xb9a60bf7	-0.00031670902
1	0xb94c0831	-0.00019458008
2	0xbb34dc17	-0.0027597004
3	0xb9396059	-0.00017678867
4	0xba138f9c	-0.00056290044
5	0xbabe6ec7	-0.0014528864
6	0xbb76f95d	-0.0037685253
7	0xb898589f	-7.264432e-05
8	0x39b08774	0.00033670256
9	0xba935f4f	-0.0011243614
10	0x3b355843	0.0027671016
11	0xb898589f	-7.264432e-05
12	0xbb84c187	-0.0040513906
13	0xbb655624	-0.003499397
14	0xbb2a6c13	-0.0026004359
15	0xb898589f	-7.264432e-05
16	0xbacdacc8	-0.0015691752
17	0x3b0334f4	0.0020020576
18	0xbb060d3b	-0.0020454663
19	0xb898589f	-7.264432e-05
20	0xbad55d28	-0.0016278373
21	0x39cd369c	0.00039141334
22	0x3a7220c9	0.0009236453
23	0xb898589f	-7.264432e-05
24	0x3b1bb487	0.0023758726
25	0xbba032b3	-0.0048888563
26	0xbada3c25	-0.0016650005
27	0xb90e65f6	-0.00013580159
28	0xbb681cc6	-0.003541754
29	0xbba91912	-0.0051604593
30	0xbb204d73	-0.0024460226
31	0xb90e65f6	-0.00013580159
32	0xba7a8499	-0.0009556502
33	0xaf63369f	-2.0664935e-10
34	0x2ee7fc4b	1.054948e-10
35	0xac1af15c	-2.2018698e-12
36	0x2ec703bb	9.050135e-11
37	0x2ef05312	1.0928693e-10
38	0x2f4f33ce	1.8844945e-10
39	0x2d705367	1.366094e-11
40	0xaf989d7c	-2.7760538e-10
41	0xa69a6659	-1.0713638e-15
42	0xa688ede0	-9.501372e-16
43	0xa4893e6f	-5.9520046e-17
44	0x261dfb1c	5.4810634e-16
45	0xba19fb5c	-0.0005873942
46	0xb947580b	-0.00019010917
47	0xbb857974	-0.004073316
48	0xb9ab4c35	-0.0003267244
49	0xba8fbd54	-0.0010966458
50	0xbb8c6638	-0.0042846464
51	0xbb383d5e	-0.002811275
52	0xb960a403	-0.00021423404
53	0x392ea72f	0.00016656214
54	0xbb255a1a	-0.0025230707
55	0x3ad77872	0.0016439094
56	0xb960a403	-0.00021423404
57	0xbb8bf62b	-0.004271289
58	0xbbf74eeb	-0.0075472496
59	0xbb45b7cb	-0.0030169364
60	0xb960a403	-0.00021423404
61	0xbb199bb7	-0.002343876
62	0xba5be67e	-0.0008388533
63	0xbb258a0a	-0.002525928
64	0xb960a403	-0.00021423404
65	0xbb092e5f	-0.002093218
66	0xbb3837c2	-0.0028109406
67	0xba5eb279	-0.00084952224
68	0xb960a403	-0.00021423404
69	0x3ba67f80	0.005081117
70	0xbbee9506	-0.0072809486
71	0xbb2242a8	-0.0024758969
72	0xb953f699	-0.00020214393
73	0xbbace87c	-0.0052767377
74	0xbbfbb81b	-0.007681859
75	0xbb6ed63d	-0.0036443614
76	0xb953f699	-0.00020214393
77	0xbaba0f33	-0.0014195204
78	0x358e155a	1.0586039e-06
79	0xb40e23d8	-1.323782e-07
80	0x34391d2c	1.724008e-07
81	0x3647dc8a	2.9781681e-06
82	0x35b68ee8	1.3601648e-06
83	0x361d65a7	2.3453993e-06
84	0x34368ee8	1.700206e-07
85	0xb667dc93	-3.4550073e-06
86	0xa9baf046	-8.30174e-14
87	0xa9a5c814	-7.36218e-14
88	0xa7a62aec	-4.612079e-15
89	0x293f45b6	4.2470984e-14
90	0x38cc5d6e	9.744881e-05
91	0xb72dd0db	-1.03602315e-05
92	0x39bd27cc	0.0003607854
93	0xb894711d	-7.078259e-05
94	0x3917d695	0.0001448042
95	0xb93491ca	-0.00017220448
96	0xb906cd15	-0.00012855635
97	0xb71074e9	-8.610289e-06
98	0x3651e5e5	3.1277243e-06
99	0xb8d71a11	-0.00010256854
100	0x38b09a46	8.42107e-05
101	0xb71074e9	-8.610289e-06
102	0xb946944a	-0.00018937993
103	0xb9a001a1	-0.00030518792
104	0xb903bc1d	-0.00012563211
105	0xb71074e9	-8.610289e-06
106	0xb8cbc3d0	-9.716267e-05
107	0xb79061c9	-1.7211672e-05
108	0xb8decb26	-0.00010623624
109	0xb71074e9	-8.610289e-06
110	0xb8aea1ed	-8.3271276e-05
111	0xb8dc1b1e	-0.000104954685
112	0xb7f5f3ca	-2.9319799e-05
113	0xb71074e9	-8.610289e-06
114	0x39514ba8	0.00019959977
115	0xb9a0863d	-0.00030617593
116	0xb8e48f8f	-0.00010898627
117	0xb710e233	-8.635735e-06
118	0xb965ffe1	-0.00021934464
119	0xb9abd399	-0.00032773314
120	0xb91ec0b4	-0.00015139842
121	0xb710e233	-8.635735e-06
122	0xb887607b	-6.4552725e-05
123	0xb5ac039e	-1.2816051e-06
124	0x341f4fdc	1.4837082e-07
125	0xb465cc55	-2.1401623e-07
126	0xb678dfcf	-3.7085154e-06
127	0xb5e5e96f	-1.7129768e-06
128	0xb6463a73	-2.953832e-06
129	0xb465eb7d	-2.1412957e-07
130	0x369201e0	4.3513573e-06
131	0x2eeb7a4f	1.0708289e-10
132	0x2ed0d3c4	9.496362e-11
133	0x2cd15044	5.9490485e-12
134	0xae70efce	-5.478267e-11
135	0x391a2616	0.00014700773
136	0x39ce1eea	0.00039314415
137	0x3b753d65	0.0037420627
138	0x39f3d10f	0.00046504333
139	0x3a513a0c	0.0007981367
140	0x3b740016	0.0037231497
141	0x3ba551cc	0.0050451513
142	0x39433350	0.00018615765
143	0xb9d2bf59	-0.00040196886
144	0x3b1ff631	0.0024408216
145	0xbb639c17	-0.0034730488
146	0x39433350	0.00018615765
147	0x3bc88085	0.0061188363
148	0x3bf356a6	0.007426101
149	0x3b85a1fe	0.004078149
150	0x39433350	0.00018615765
151	0x3b345c41	0.0027520808
152	0xbab5aa3c	-0.0013859938
153	0x3b57d3ff	0.0032932756
154	0x39433350	0.00018615765
155	0x3b2eae8a	0.0026654326
156	0x3a9d3692	0.0011994413
157	0xb9c7e5e5	-0.00038127523
158	0x39433350	0.00018615765
159	0xbba45c9f	-0.005015924
160	0x3c0c4ef1	0.008563743
161	0x3b3f1cd1	0.0029161463
162	0x39796cd9	0.0002378704
163	0x3bcb4d38	0.0062042736
164	0x3c1418d5	0.009039124
165	0x3b8c67cc	0.0042848345
166	0x39796cd9	0.0002378704
167	0x3adb5c5e	0.0016735902
168	0xb4046cca	-1.2333035e-07
169	0x32a6994c	1.9394655e-08
170	0xb2a32b8e	-1.8995504e-08
171	0xb4a78663	-3.1203953e-07
172	0xb41fff88	-1.490099e-07
173	0xb489ef71	-2.5692455e-07
174	0xb29ff9de	-1.8623663e-08
175	0x34cb2d6f	3.7844754e-07
176	0xae253e9f	-3.7572275e-11
177	0xae128af9	-3.331999e-11
178	0xac12e253	-2.0873483e-12
179	0x2da91350	1.9221652e-11
180	0xb8ff462e	-0.000121724195
181	0x39d1b733	0.0004000008
182	0xb86ae280	-5.6000892e-05
183	0x38de1daa	0.0001059131
184	0x39a62ac7	0.0003169386
185	0xb9d2baec	-0.0004019359
186	0x3adb6a1d	0.0016739998
187	0xb7a89043	-2.0094338e-05
188	0xb93d0812	-0.00018027451
189	0xb857f77d	-5.1490486e-05
190	0xbab2ae68	-0.0013632299
191	0xb7a89043	-2.0094338e-05
192	0x3ab60e13	0.0013889692
193	0xb876ff27	-5.88886e-05
194	0x3a531d35	0.00080533634
195	0xb7a89043	-2.0094338e-05
196	0x39a49898	0.0003139421
197	0xbad847a3	-0.0016500842
198	0x3a18b666	0.00058255193
199	0xb7a89043	-2.0094338e-05
200	0x39e633c1	0.00043907578
201	0xba9bceba	-0.0011887171
202	0xba6fc392	-0.0009146269
203	0xb7a89043	-2.0094338e-05
204	0x37bb24c6	2.2309261e-05
205	0x3a80c6ae	0.0009824836
206	0x39ae93c5	0.00033297963
207	0x37e49014	2.724681e-05
208	0x3a3ad76c	0.0007127437
209	0x3a87be3d	0.0010356378
210	0x3a010f00	0.00049231946
211	0x37e49014	2.724681e-05
212	0x3947bb30	0.00019047852
213	0xb510535a	-5.376547e-07
214	0x33e54bf3	1.06774586e-07
215	0xb3a30302	-7.590826e-08
216	0xb5a0da76	-1.198451e-06
217	0xb51a0c40	-5.7387297e-07
218	0xb584d0ef	-9.895574e-07
219	0xb39a0c40	-7.173412e-08
220	0x35c3a6cf	1.457718e-06
221	0xaa4ff317	-1.8469632e-13
222	0xaa386a23	-1.6379306e-13
223	0xa838d819	-1.02609105e-14
224	0x29d4c542	9.44891e-14
225	0xb8d9b43e	-0.00010380939
226	0xb9ac376b	-0.00032847686
227	0xbaf1e4b8	-0.0018455004
228	0xb99c0f2a	-0.00029765937
229	0xba2bcffe	-0.00065541256
230	0xbb1ded07	-0.0024097578
231	0xbaf3e281	-0.0018606932
232	0xb8fcb751	-0.00012050442
233	0x38f75317	0.000117933545
234	0xbabd6a4e	-0.0014451237
235	0x3a96867f	0.0011484175
236	0xb8fcb751	-0.00012050442
237	0xbb2e8485	-0.002662928
238	0xbb8e122f	-0.0043356637
239	0xbaf28d17	-0.0018505183
240	0xb8fcb751	-0.00012050442
241	0xbab6ba89	-0.001394109
242	0xb97e4fbd	-0.00024253032
243	0xbac985d9	-0.0015374973
244	0xb8fcb751	-0.00012050442
245	0xbaa5b910	-0.0012643654
246	0xbabdc2ef	-0.001447765
247	0xb9bcba8f	-0.0003599715
248	0xb8fcb751	-0.00012050442
249	0x3b3f2597	0.0029166692
250	0xbb8e0ebc	-0.0043352526
251	0xbac1b923	-0.0014779906
252	0xb8fca4a1	-0.00012046961
253	0xbb4dce7b	-0.003140359
254	0xbb9604ca	-0.0045782076
255	0xbb0e292d	-0.0021692023

exp_avg_sq f4 [128, 45]
0	0x3604540d	1.9718457e-06
1	0x34cc40f9	3.8045235e-07
2	0x386dc07b	5.6684465e-05
3	0x343ac56d	1.7394423e-07
4	0x37fbe747	3.0029229e-05
5	0x38cbac3e	9.711877e-05
6	0x37cbcc31	2.429457e-05
7	0x343fafd5	1.7852228e-07
8	0x38b0ce46	8.4307554e-05
9	0x38ae2638	8.304085e-05
10	0x38a9b8b0	8.092949e-05
11	0x343fafd5	1.7852228e-07
12	0x38bcceaf	9.0030364e-05
13	0x39162076	0.00014317207
14	0x38048579	3.159556e-05
15	0x343fafd5	1.7852228e-07
16	0x382f7a64	4.1837236e-05
17	0x3880ae14	6.13594e-05
18	0x3815a6e9	3.5679815e-05
19	0x343fafd5	1.7852228e-07
20	0x37e70567	2.7539862e-05
21	0x38b3d2e5	8.574667e-05
22	0x3810268b	3.436817e-05
23	0x343fafd5	1.7852228e-07
24	0x3804881c	3.1598014e-05
25	0x38c2cbc5	9.288596e-05
26	0x3836c889	4.3578944e-05
27	0x342e6b5c	1.624407e-07
28	0x3829574c	4.037404e-05
29	0x38b38adc	8.56125e-05
30	0x374810e1	1.1924859e-05
31	0x34250a8f	1.5370664e-07
32	0x385daba1	5.2850348e-05
33	0x37fb0b53	2.9926805e-05
34	0x3726e07e	9.94664e-06
35	0x332e4cda	4.0582428e-08
36	0x37881bbf	1.6225384e-05
37	0x37065bab	8.0083655e-06
38	0x33260508	3.8654463e-08
39	0x328e1ecd	1.6544982e-08
40	0x36d12711	6.2332333e-06
41	0x36599d28	3.2426997e-06
42	0x3714c409	8.86713e-06
43	0x328e1ecd	1.6544982e-08
44	0x31b35564	5.2192934e-09
45	0x36304310	2.626508e-06
46	0x352233cc	6.042508e-07
47	0x388ca1b7	6.705842e-05
48	0x3424c981	1.5346997e-07
49	0x37d57d37	2.5449886e-05
50	0x38c46c9d	9.366239e-05
51	0x3817e338	3.621282e-05
52	0x342d3a6a	1.6133131e-07
53	0x38788438	5.9250946e-05
54	0x3867fd77	5.531075e-05
55	0x38334bab	4.2747397e-05
56	0x342d3a6a	1.6133131e-07
57	0x38864692	6.402763e-05
58	0x39458b9f	0.00018839397
59	0x3814c0dd	3.5465568e-05
60	0x342d3a6a	1.6133131e-07
61	0x37e313d6	2.7069746e-05
62	0x38105333	3.440976e-05
63	0x38516e3f	4.9932158e-05
64	0x342d3a6a	1.6133131e-07
65	0x3844d263	4.692598e-05
66	0x3895fd59	7.152063e-05
67	0x3839e55f	4.4321056e-05
68	0x342d3a6a	1.6133131e-07
69	0x382f65f9	4.181822e-05
70	0x38cd794f	9.797757e-05
71	0x38319ee5	4.234807e-05
72	0x3411b570	1.3570184e-07
73	0x3851c588	5.001345e-05
74	0x38e1142c	0.000107325934
75	0x37f04ce5	2.8646036e-05
76	0x34109386	1.3464714e-07
77	0x37f88107	2.9623987e-05
78	0x37cd7e99	2.4496856e-05
79	0x371b8c03	9.271319e-06
80	0x339ba546	7.247813e-08
81	0x38169459	3.5900946e-05
82	0x3588f563	1.0204207e-06
83	0x35990b30	1.1402644e-06
84	0x31fa9333	7.2926922e-09
85	0x3646e54f	2.9637774e-06
86	0x348ab257	2.5834262e-07
87	0x353dbf02	7.068594e-07
88	0x30b52979	1.318127e-09
89	0x303eb6d6	6.9381423e-10
90	0x35751244	9.129619e-07
91	0x342a9e29	1.5890022e-07
92	0x37dd6c1e	2.6395599e-05
93	0x330ee4d9	3.3270087e-08
94	0x36ffe214	7.625911e-06
95	0x37192197	9.127331e-06
96	0x378878c8	1.6268707e-05
97	0x331c10f3	3.6336996e-08
98	0x376280d4	1.3500645e-05
99	0x372dcfd8	1.0359996e-05
100	0x3768c06e	1.3873081e-05
101	0x331c10f3	3.6336996e-08
102	0x36f42768	7.276354e-06
103	0x37fb3431	2.9945835e-05
104	0x378d75bd	1.6863336e-05
105	0x331c10f3	3.6336996e-08
106	0x3616c92a	2.2468835e-06
107	0x372ea23e	1.0408983e-05
108	0x3731350c	1.0562373e-05
109	0x331c10f3	3.6336996e-08
110	0x36a80cbd	5.008273e-06
111	0x37801850	1.527011e-05
112	0x37376129	1.0930272e-05
113	0x331c10f3	3.6336996e-08
114	0x371f29cc	9.48687e-06
115	0x379b9212	1.854546e-05
116	0x37303894	1.0503591e-05
117	0x33070131	3.143322e-08
118	0x37715deb	1.4386586e-05
119	0x36e85a8f	6.924681e-06
120	0x35c798ba	1.4871105e-06
121	0x32003f7c	7.465015e-09
122	0x35ea1262	1.7439709e-06
123	0x35d7ddf4	1.6083345e-06
124	0x34ad8f6f	3.2328123e-07
125	0x317380e8	3.5434429e-09
126	0x35d84d36	1.6115725e-06
127	0x349dd77d	2.9400317e-07
128	0x34d79979	4.0158537e-07
129	0x3088f0e9	9.963773e-10
130	0x34c4d51a	3.6662897e-07
131	0x349a085e	2.8690823e-07
132	0x347247ab	2.2564079e-07
133	0x307368ec	8.855199e-10
134	0x33a141dc	7.5091265e-08
135	0x36e5706c	6.8378195e-06
136	0x3522b8aa	6.0618424e-07
137	0x39210fa3	0.00015359982
138	0x34abbc7b	3.198837e-07
139	0x386dece7	5.6725836e-05
140	0x39025a01	0.00012431295
141	0x381eaddb	3.783205e-05
142	0x34b3c617	3.3485478e-07
143	0x39238669	0.00015594963
144	0x39167ff6	0.00014352784
145	0x38e675c8	0.00010989193
146	0x34b3c617	3.3485478e-07
147	0x392390e5	0.00015598869
148	0x39b079e8	0.00033660163
149	0x385bc0ec	5.239334e-05
150	0x34b3c617	3.3485478e-07
151	0x38ee1817	0.000113532114
152	0x381d2931	3.747008e-05
153	0x3915037d	0.00014211047
154	0x34b3c617	3.3485478e-07
155	0x38c24cd9	9.264955e-05
156	0x388655c5	6.405594e-05
157	0x38dddaed	0.00010578879
158	0x34b3c617	3.3485478e-07
159	0x38993c30	7.306819e-05
160	0x396a9a25	0.00022373402
161	0x38385ead	4.3957192e-05
162	0x34ad05f5	3.2228095e-07
163	0x3917178a	0.00014409251
164	0x398701cb	0.00025750542
165	0x381363ce	3.514048e-05
166	0x34ad051d	3.2227481e-07
167	0x390da42f	0.00013507971
168	0x380bf8b0	3.337179e-05
169	0x37dcd15b	2.6323532e-05
170	0x345c2a83	2.0504562e-07
171	0x390bbf85	0.0001332742
172	0x36272f2e	2.4912401e-06
173	0x3641c8ed	2.8876195e-06
174	0x3260af61	1.3078393e-08
175	0x36a91e71	5.0401363e-06
176	0x351045a7	5.374554e-07
177	0x35924abd	1.0899599e-06
178	0x314f217b	3.0141496e-09
179	0x35833d81	9.778161e-07
180	0x36578b7b	3.2118685e-06
181	0x355c91a8	8.2168344e-07
182	0x38e3be58	0.00010859658
183	0x344dd5cb	1.916989e-07
184	0x3818ecc7	3.646014e-05
185	0x3908ef97	0.00013059225
186	0x384ebb6c	4.9288778e-05
187	0x3477d7ff	2.3082247e-07
188	0x38ac5bae	8.218676e-05
189	0x3875ee60	5.8634556e-05
190	0x38c4c2b9	9.382278e-05
191	0x3477d7ff	2.3082247e-07
192	0x38bf1bc5	9.112762e-05
193	0x3961623d	0.00021494269
194	0x382c982f	4.1149728e-05
195	0x3477d7ff	2.3082247e-07
196	0x3803fca4	3.1468124e-05
197	0x38e587d7	0.00010944873
198	0x38660a13	5.4845656e-05
199	0x3477d7ff	2.3082247e-07
200	0x3808e454	3.2637574e-05
201	0x391700fe	0.00014400852
202	0x38105675	3.4412795e-05
203	0x3477d7ff	2.3082247e-07
204	0x388e05ad	6.772145e-05
205	0x390136ee	0.00012322862
206	0x38ad59cb	8.266008e-05
207	0x346337bc	2.1161298e-07
208	0x385a4097	5.2035404e-05
209	0x38cc7f5e	9.751202e-05
210	0x37fda493	3.0236586e-05
211	0x3456c830	2.0003131e-07
212	0x383a8177	4.446643e-05
213	0x382118ae	3.8408376e-05
214	0x375964e7	1.2957701e-05
215	0x3359ced3	5.0712355e-08
216	0x3802651f	3.108859e-05
217	0x3674dea4	3.6488427e-06
218	0x36831c86	3.907425e-06
219	0x3256a086	1.2492938e-08
220	0x3692442c	4.3590753e-06
221	0x352f4105	6.5287196e-07
222	0x3585ac64	9.959444e-07
223	0x31927d72	4.2634207e-09
224	0x362678e2	2.480629e-06
225	0x360dcb01	2.11288e-06
226	0x34acea76	3.220809e-07
227	0x384df517	4.9104066e-05
228	0x33f4181d	1.13665216e-07
229	0x37a49454	1.9619394e-05
230	0x3875be98	5.8590056e-05
231	0x3787c3cf	1.6184435e-05
232	0x34019b82	1.2070635e-07
233	0x384b591f	4.8481972e-05
234	0x3858ff55	5.173621e-05
235	0x37dac86c	2.6080954e-05
236	0x34019b82	1.2070635e-07
237	0x385651c7	5.1097737e-05
238	0x38d2f755	0.000100596495
239	0x37ea2543	2.7912325e-05
240	0x34019b82	1.2070635e-07
241	0x3810c951	3.4519766e-05
242	0x368a419e	4.1203593e-06
243	0x382db9e5	4.1419542e-05
244	0x34019b82	1.2070635e-07
245	0x382129e3	3.84244e-05
246	0x38427923	4.636602e-05
247	0x381a71f2	3.682258e-05
248	0x34019b82	1.2070635e-07
249	0x381432a7	3.5333123e-05
250	0x38ad1120	8.2524726e-05
251	0x37bd1257	2.2539096e-05
252	0x33f357ad	1.13315174e-07
253	0x382b8fc9	4.0903487e-05
254	0x38bcd4ff	9.004212e-05
255	0x3782e2ee	1.560288e-05

exp_avg f4 [128]
0	0xb918589f	-0.00014528864
1	0xb9e0a403	-0.00042846808
2	0xb79074e9	-1.7220578e-05
3	0x39c33350	0.0003723153
4	0xb8289043	-4.0188675e-05
5	0xb97cb751	-0.00024100883
6	0x387f4671	6.086234e-05
7	0x390ca3ef	0.0001341251
8	0xb953f61f	-0.00020214215
9	0x39a9caf4	0.00032385404
10	0xb63f71f5	-2.852755e-06
11	0x3980aa65	0.00024541016
12	0x394b5873	0.00019392539
13	0xb74a8064	-1.20700315e-05
14	0xb8aa88dd	-8.1317245e-05
15	0xb86f18d5	-5.7005167e-05
16	0xb7089565	-8.141015e-06
17	0xb99fa275	-0.00030447883
18	0x38706e3b	5.732312e-05
19	0x39206b86	0.00015298845
20	0xb84e9fda	-4.92631e-05
21	0x38a0a340	7.659802e-05
22	0x39d2a560	0.00040177535
23	0x39284a4c	0.00016049406
24	0xb90219a0	-0.00012407312
25	0xb8a6a388	-7.945957e-05
26	0x3830ba8a	4.2135398e-05
27	0xb9272110	-0.00015938678
28	0x37872069	1.6108346e-05
29	0xb89cbd5a	-7.473929e-05
30	0xb782fc85	-1.5614796e-05
31	0xb884f2e5	-6.339493e-05
32	0x3962b754	0.00021621335
33	0xb91a50e7	-0.00014716723
34	0xb71cacf4	-9.338593e-06
35	0xb65b66e6	-3.2693438e-06
36	0x336fa58a	5.579708e-08
37	0x3611cfbd	2.1727603e-06
38	0x3778ff9c	1.4841466e-05
39	0x3882ddb4	6.2401785e-05
40	0x38ad5bdf	8.266395e-05
41	0xb90b5d86	-0.00013290913
42	0xb8cbae4a	-9.712258e-05
43	0xb84d4b5a	-4.8945985e-05
44	0x398fd271	0.00027431877
45	0xb8aee969	-8.3404426e-05
46	0x3860bad6	5.3579766e-05
47	0x39aedf79	0.00033354366
48	0x368b8f28	4.1591884e-06
49	0xb94719c1	-0.00018987713
50	0xb9805752	-0.0002447912
51	0xb8fbd502	-0.000120082885
52	0x3a032a42	0.00050035503
53	0xb4fa9b05	-4.667892e-07
54	0x37eb7166	2.8066988e-05
55	0x358f175d	1.066113e-06
56	0xb83c71af	-4.492857e-05
57	0x354e91e3	7.6953273e-07
58	0x390c0aee	0.00013355512
59	0xb92b0212	-0.00016308602
60	0x38a3ae0f	7.8048666e-05
61	0x3994f2bb	0.00028409608
62	0xb46c7cf9	-2.2024678e-07
63	0xb9959a97	-0.00028534673
64	0xb8dff64d	-0.00010679346
65	0xb9207549	-0.00015302481
66	0x39293508	0.00016136852
67	0xb8f91882	-0.0001187781
68	0xb88c689e	-6.695207e-05
69	0xb6c153c4	-5.7616e-06
70	0xb93ef2ed	-0.00018210309
71	0xb88cc945	-6.7132096e-05
72	0x391b6e2b	0.00014822993
73	0xb6fd9878	-7.5577373e-06
74	0x3985aa12	0.0002549445
75	0xb684e777	-3.9608526e-06
76	0x3923e47e	0.00015630011
77	0xb837f8ac	-4.3862194e-05
78	0xb7385816	-1.0987764e-05
79	0x39c91bdc	0.00038358464
80	0x38a54fe4	7.882694e-05
81	0x38be96c6	9.08799e-05
82	0x386e5cd3	5.683007e-05
83	0x381a5b0a	3.6801248e-05
84	0xb90d95eb	-0.00013502657
85	0x395d65f7	0.00021114187
86	0xb8a29285	-7.752053e-05
87	0xb973f255	-0.00023264562
88	0x375da476	1.3210918e-05
89	0x37829735	1.5567619e-05
90	0x3a1b9a21	0.0005935748
91	0x39741a48	0.00023279444
92	0x37681a14	1.3834349e-05
93	0x37df5879	2.662487e-05
94	0xb86eadcf	-5.6905494e-05
95	0xb9918b5e	-0.00027760392
96	0x372a3a4f	1.0146366e-05
97	0xb71efdfb	-9.476668e-06
98	0xb6f7352a	-7.3673627e-06
99	0x386531ec	5.4644348e-05
100	0x37fcdd63	3.0143832e-05
101	0xb9831b42	-0.00025006576
102	0xb63e2e27	-2.833907e-06
103	0xb70f344b	-8.53564e-06
104	0x3a01b551	0.0004947978
105	0x372854f1	1.0033357e-05
106	0xb737d3a7	-1.0956929e-05
107	0x397c5520	0.00024064304
108	0xb9764fe6	-0.00023490153
109	0x3575a841	9.1514454e-07
110	0x3917b410	0.0001446756
111	0x387d9c3e	6.0465412e-05
112	0x3897c897	7.237604e-05
113	0xb4cdf210	-3.836035e-07
114	0xb6326f5f	-2.6588893e-06
115	0x35e5c7b7	1.7119954e-06
116	0xb750c9f7	-1.244479e-05
117	0x38134c14	3.5118384e-05
118	0x3787b7b1	1.6178792e-05
119	0xb8bafc5e	-8.916178e-05
120	0x36215126	2.4038104e-06
121	0x384c03a5	4.8640784e-05
122	0x392720af	0.00015938537
123	0xb3dd044d	-1.0291897e-07
124	0xb93fe3cb	-0.00018300039
125	0xb5c7cb80	-1.4885882e-06
126	0xb892afbb	-6.994555e-05
127	0xb86da154	-5.665545e-05

exp_avg_sq f4 [128]
0	0x353fafd5	7.1408914e-07
1	0x352d3a6a	6.4532526e-07
2	0x341c10f3	1.4534798e-07
3	0x35b3c617	1.3394191e-06
4	0x3577d7ff	9.2328986e-07
5	0x35019b82	4.828254e-07
6	0x355c3f6c	8.204868e-07
7	0x35cfa5db	1.5470972e-06
8	0x3620a914	2.3940274e-06
9	0x353c7d30	7.021763e-07
10	0x33895e2a	6.396688e-08
11	0x35f734aa	1.8418261e-06
12	0x359c3de4	1.1640918e-06
13	0x3537543f	6.8295407e-07
14	0x364e0ce6	3.07039e-06
15	0x34ef53e1	4.457825e-07
16	0x33512267	4.8692893e-08
17	0x364607b2	2.9508778e-06
18	0x35d05dc4	1.5524497e-06
19	0x361bf62f	2.3240098e-06
20	0x35449e83	7.3246355e-07
21	0x36c26790	5.793707e-06
22	0x34c2304a	3.617045e-07
23	0x3578189e	9.242302e-07
24	0x35973867	1.1266792e-06
25	0x35b00d2e	1.3116858e-06
26	0x36864ec8	4.0026825e-06
27	0x348013ae	2.3856177e-07
28	0x351b02d2	5.7746104e-07
29	0x348203a2	2.421703e-07
30	0x35700735	8.9417455e-07
31	0x356e9a3b	8.8886344e-07
32	0x351bd0c5	5.80458e-07
33	0x35ef0475	1.7808185e-06
34	0x3425cda3	1.5441633e-07
35	0x340d2773	1.3146e-07
36	0x34c1f4bd	3.6127122e-07
37	0x353c24ee	7.00892e-07
38	0x339eaea3	7.3892146e-08
39	0x34c54444	3.674378e-07
40	0x35396df4	6.9077873e-07
41	0x35c8dfa0	1.4966245e-06
42	0x356e13b8	8.8690604e-07
43	0x351dbccb	5.876179e-07
44	0x35cf9acd	1.5467755e-06
45	0x35fa2080	1.863591e-06
46	0x35f51fec	1.8263213e-06
47	0x366deac7	3.545241e-06
48	0x35af6caf	1.3070147e-06
49	0x355a3ef7	8.1302954e-07
50	0x35ed5540	1.7682687e-06
51	0x36337a85	2.6744394e-06
52	0x35812744	9.622677e-07
53	0x3512223a	5.4439045e-07
54	0x349a6e67	2.8765064e-07
55	0x33b63a1d	8.485606e-08
56	0x35aef527	1.3035359e-06
57	0x344f7532	1.9321013e-07
58	0x34f45984	4.5513673e-07
59	0x34b154a9	3.3030418e-07
60	0x3533b3a6	6.694412e-07
61	0x34cb8ce8	3.791422e-07
62	0x34805fb8	2.3911502e-07
63	0x35d59593	1.5913268e-06
64	0x35aa452f	1.2686122e-06
65	0x347be90e	2.3460981e-07
66	0x358654d4	1.0008466e-06
67	0x35471a98	7.4171976e-07
68	0x36214372	2.4030128e-06
69	0x34d3cc57	3.945049e-07
70	0x36355205	2.7018843e-06
71	0x35a0eb5d	1.1989429e-06
72	0x34afc245	3.273764e-07
73	0x35bf3913	1.424722e-06
74	0x35283492	6.2661377e-07
75	0x35258f33	6.167567e-07
76	0x3655859f	3.181725e-06
77	0x3548264d	7.456154e-07
78	0x35181806	5.665937e-07
79	0x366502f4	3.4125378e-06
80	0x3657e596	3.2171133e-06
81	0x349ae80e	2.8853577e-07
82	0x35ef0858	1.7809316e-06
83	0x353fc23b	7.143569e-07
84	0x355d891e	8.252845e-07
85	0x36013b90	1.9257168e-06
86	0x34507dcf	1.9417278e-07
87	0x35a063cc	1.1949974e-06
88	0x351a32c5	5.744335e-07
89	0x3601cb0c	1.9340687e-06
90	0x362c522d	2.567783e-06
91	0x359a4e88	1.149675e-06
92	0x34d73d4c	4.009147e-07
93	0x36355dc6	2.7025685e-06
94	0x32fd5ada	2.9494391e-08
95	0x35357ffe	6.761401e-07
96	0x35567dd6	7.990433e-07
97	0x34f92b84	4.6411526e-07
98	0x35f8145f	1.8483369e-06
99	0x3606e84a	2.0102766e-06
100	0x34c1c7d2	3.609444e-07
101	0x35687038	8.6590035e-07
102	0x3495cf30	2.7904161e-07
103	0x352afede	6.3700816e-07
104	0x36a9f345	5.064913e-06
105	0x34bf0f74	3.5587766e-07
106	0x34c0f691	3.5942188e-07
107	0x36964fc1	4.479633e-06
108	0x359c1639	1.1629373e-06
109	0x355d0530	8.2336464e-07
110	0x366e0bbf	3.54716e-06
111	0x3610e1f1	2.1589187e-06
112	0x35442627	7.307121e-07
113	0x34ba066c	3.4649872e-07
114	0x33b27f95	8.311978e-08
115	0x34794aca	2.321714e-07
116	0x348390ce	2.450601e-07
117	0x3507647a	5.043763e-07
118	0x36087266	2.0332168e-06
119	0x35ef49d1	1.7828371e-06
120	0x34e9f06f	4.357457e-07
121	0x34068b9f	1.2530516e-07
122	0x35ade232	1.2955336e-06
123	0x31a756de	4.8702153e-09
124	0x35a68e8d	1.2409452e-06
125	0x35b390db	1.3378698e-06
126	0x351acd0f	5.766787e-07
127	0x3558b5de	8.073092e-07
