results/EatItemAgent/EatItemAgent/EatItemAgent-61313.onnx (onnx, 496184 bytes, 19 tensors)

network_body.observation_encoder.processors.0.self_ent_encoder.seq_layers.0.bias f4 [128]
00000000: a991 013d 85ca 043d 7a72 84bc 23fa bcbb
00000010: d43c 35bc b654 823b 6ec9 32bd d8b4 673b
00000020: c45b dd3c 83de d0bc 49c9 c23c 1a34 b5bc
00000030: 8c57 33bd 30bc 003c 14ad 483d c423 d03c
00000040: 3506 2a3d 7e03 663c ea8d 3abd 698a d23c
00000050: 62bd 33bd c461 6e3c afd4 8bbc b87c 353d
00000060: da75 3b3c 985b 103c f48d 3dbd 5f56 733c
00000070: 3b02 673b 0611 12bd 655e c63c 6dbf 3a3a
00000080: 2d5d 41bc b17a 163c 41ed 7ebc 218e 213c
00000090: cb65 203c e095 babc ba81 34bd b0b3 123d
000000a0: d213 0c3d 0c0e 583c f059 d93b 73fd 11bc
000000b0: 6e15 6c3c 9325 acba b17f 04bd 69ce acbc
000000c0: 5faa 7ebd b7ea 463d c68a 32bd 2af7 5c3d
000000d0: e389 533c fe75 e23b e707 b13c 2c79 e73b
000000e0: 6242 b23c af8a c8bc b86b ed3c 3db5 06bd
000000f0: e004 143d 0af8 5b3c acf0 293c 6fc1 593c
00000100: 686c 213c f6c5 49bc cb34 46bc 6138 6abd
00000110: ee87 2fbd 4f79 d0bc a87d e8bc 58b9 67bc
00000120: c745 02bd e392 aa3c fb46 59bc 4980 c73c
00000130: a591 b4bc 9367 96bc 73eb b1bc 6933 be3c
00000140: bfd4 19bb e4e8 f43c 08df 09bd 9b03 0fbc
00000150: b3d1 2abd 1805 b3bc ca55 833c ecd7 b9bc
00000160: 92f2 a2bc 0a62 543c 1a99 be3b 828b ecbc
00000170: e06a 10bd bca0 223d 7385 383d 6353 b63a
00000180: 3695 623c ea25 373c 1488 d33c 7bab f2bc
00000190: 92b9 793c ee4e 753c 40bf db3c 7d03 f53b
000001a0: 0dc2 bc3c b2aa 193d 7d71 e03b d855 79bc
000001b0: b06d a2bc 07db fa3c 9acc ef3b cec3 163d
000001c0: 1865 70bc dfe5 053d 64be 703d 8df0 523d
000001d0: 227f 7d3d 5093 363d d65d 0fbd f3ec da3c
000001e0: 7c1f 09bd 91db 46bd 9719 a73c ee37 8abc
000001f0: 6823 26bd 8925 abbc fa17 8abc e8a5 14bc
0.031633053 0.0324197 -0.016167868 -0.0057671233 -0.011061866 0.0039773835 -0.04364913 0.0035355594
0.027021296 -0.025496727 0.02377762 -0.02211957 -0.043784663 0.007857367 0.048993185 0.02540768
0.041509826 0.014038919 -0.045545496 0.025700765 -0.04388178 0.014549676 -0.017069189 0.044308394
0.011441672 0.0088109 -0.046277955 0.014852135 0.0035249132 -0.035660766 0.024214933 0.00071238616
-0.011802 0.009184525 -0.015559495 0.009860546 0.009789894 -0.022776544 -0.04406903 0.035815895
0.03419859 0.013186943 0.006633036 -0.008910525 0.014409406 -0.0013133757 -0.03234834 -0.021094518
-0.062174197 0.048563685 -0.043589376 0.05394665 0.012911293 0.0069110384 0.021610213 0.0070640054
0.02176017 -0.024480192 0.028982028 -0.032887686 0.03613746 0.013425836 0.010372322 0.013290747
0.009852506 -0.012315264 -0.012097548 -0.057182673 -0.042854242 -0.02544847 -0.02838023 -0.0141433105
-0.031804826 0.020821994 -0.013261552 0.024353163 -0.022042105 -0.018359935 -0.021718716 0.023217874
-0.0023472754 0.029896207 -0.033659965 -0.008728887 -0.04170389 -0.021853015 0.016032118 -0.022685967
-0.019891057 0.012962827 0.005816591 -0.028875116 -0.035258174 0.03970407 0.045049142 0.0013910349
0.01382952 0.011178473 0.025821723 -0.029622784 0.015241997 0.014972432 0.026824594 0.0074772225
0.02304175 0.037516303 0.0068494664 -0.015218221 -0.019827694 0.030622019 0.0073180916 0.036807828
-0.01467254 0.032689925 0.05877532 0.05149894 0.06188882 0.044574082 -0.0350016 0.026724314
-0.03347729 -0.04854924 0.020397944 -0.016872372 -0.04056111 -0.020891922 -0.016857136 -0.009072758

network_body.observation_encoder.rsa.fc_q.bias f4 [128]
00000000: 363d ef3c bd34 4c3c 6cf8 693c 18d8 473c
00000010: 50ff 4f3d 5d77 673d ba72 0cbd 4039 45bd
00000020: 5a8c 1fbd ac86 2cbc 28e8 353d 1939 8a3b
00000030: a418 2d3d b743 f13c 4ac8 73bd ecc1 17bd
00000040: e4c2 53bd cbd0 71bd 46e4 77bb 8dca 47bc
00000050: 7ceb 6bbd c1a4 613d 4821 1dbd c97d 55bd
00000060: ae78 4fbd 9ba3 433d ce67 163d 0e31 c73c
00000070: 62c1 51bd ab25 633d 1ef1 75bd 8df9 4fbd
00000080: e7cf ca3c d8a9 27bd 0ee8 d63c 38f3 adbc
00000090: 76dc dfbc 2b9d c03c dd49 0bbd e39d abbc
000000a0: 6206 fcbc de48 8bbc bdf4 b23c 1202 dabc
000000b0: 79d5 133d 8f83 9b3c cabb cf3c b359 c5bc
000000c0: 3e4d b83c dae3 ccbc 50b2 bcbc 749b a8bc
000000d0: 2f16 cebc 509d cbbc 7c36 97bc 336d 963b
000000e0: 08a0 0bbc 3c05 0b3d 2122 0d3d 553b bfbc
000000f0: dd0d e63c 1fd2 643c 7cf2 e1bc d165 1639
00000100: 61d8 14bd 27f9 c0bc 57c8 aabc 603f 03bc
00000110: 964e 09bd e123 09bd 3017 06bb 12f1 0cbd
00000120: 95e7 8b3c 5276 883c 0848 83bc 93b4 05bb
00000130: cee6 63bd dfa5 e2bc c803 18bc dd5b 433d
00000140: 6861 2dbd 9bb4 213d 8499 c2b8 36a9 1dbc
00000150: 1c87 ba3c 9898 8abc 82f0 b4bb 35d4 42bd
00000160: 00b4 343d b8f2 a0bc a82f 0ebd b2d2 80bd
00000170: fd1e 19bd 63a2 0f3d d2b1 09bd c4c6 293d
00000180: 73a2 a83a b4af a13c 1d4a 78bc 5a22 b73c
00000190: 0742 d5bc 21f7 d9bb 237d 9fbc 7435 de3b
000001a0: cf75 5abc 57a4 8f3c be3c bbbc e227 563c
000001b0: 6347 743c 8577 713c c6e0 ed3c f9bd d3ba
000001c0: cdcb 2cbb b773 9ebc 3711 553c 7d75 d8bb
000001d0: 0020 f8bc 5ee8 2ebc 736a 063c 3738 5abc
000001e0: 9c27 f7bb f69c a03c a573 cebc acc7 95bc
000001f0: a370 093c 3eff c1bc 274c 88bc 9fbb 60bc
0.029203992 0.012463746 0.01428042 0.012197517 0.050780594 0.056510318 -0.0342891 -0.0481503
-0.03895221 -0.010530155 0.044410855 0.0042182324 0.042259827 0.029451234 -0.059517182 -0.037050173
-0.051699534 -0.05903701 -0.003782527 -0.012194288 -0.057597622 0.055088762 -0.038361818 -0.05212191
-0.0506522 0.04776345 0.03672009 0.024315383 -0.051209815 0.055455845 -0.0600444 -0.0507751
0.024757339 -0.04093346 0.0262337 -0.02123414 -0.027326804 0.023512444 -0.03400599 -0.02094931
-0.030764762 -0.01700252 0.021845216 -0.026612315 0.036092255 0.01898363 0.0253581 -0.024090623
0.02249777 -0.025010992 -0.023034245 -0.020581938 -0.025157062 -0.024855286 -0.018458597 0.0045906543
-0.008522041 0.03394054 0.034456376 -0.023343721 0.028082782 0.013966112 -0.027581446 0.00014343044
-0.036339168 -0.023556305 -0.020847483 -0.008010715 -0.03352221 -0.033481482 -0.0020460598 -0.03440959
0.0170782 0.016657982 -0.016025558 -0.002040182 -0.055640034 -0.027666984 -0.009278245 0.04769503
-0.042329222 0.03947888 -9.2792354e-05 -0.009622863 0.022769503 -0.016918465 -0.005521835 -0.047565658
0.044116974 -0.019646987 -0.034713417 -0.06290187 -0.03738307 0.035066973 -0.03361685 0.041449323
0.0012865796 0.019737102 -0.015154389 0.022355247 -0.02603246 -0.0066517745 -0.01946885 0.0067812745
-0.013333752 0.017534418 -0.022856113 0.013071032 0.014909598 0.014737968 0.029037844 -0.0016154639
-0.0026366592 -0.019342287 0.013004593 -0.0066058026 -0.030288696 -0.010675518 0.00820409 -0.013319067
-0.0075425636 0.019606095 -0.025201628 -0.018283688 0.008388671 -0.02368128 -0.016637875 -0.013716607

network_body.observation_encoder.rsa.fc_k.bias f4 [128]
00000000: a6c0 2f37 9c5f 3b37 aaa6 c7b6 6911 7ab5
00000010: 49c4 3e37 450d 8f37 a064 c0b5 72c7 73b7
00000020: 8b73 3db6 63eb ef36 44f3 1d37 14df c536
00000030: ea24 5637 320f c5b6 7429 74b7 c3ff 24b7
00000040: 689d d2b6 6c8b cfb7 0717 c1b6 7ec0 bd36
00000050: 895e 7bb7 2438 9137 54a0 a1b6 7a74 86b7
00000060: 3a78 9cb7 0eb1 2d37 e92f 5d37 7d9e 8f34
00000070: 8e83 e1b6 d159 8337 9376 aab7 8c03 bcb7
00000080: f262 dd37 a316 99b7 bdc1 bf37 9a03 e336
00000090: 17a4 8db7 1640 d637 056b e2b6 72ad f3b7
000000a0: 34bd 4db7 f6e2 03b7 e18e 4ab7 7ee4 12b7
000000b0: c51d 73b7 6351 7eb7 9081 2237 df81 b537
000000c0: e8ff 71b7 01d0 52b6 8c16 05b8 b5fb a537
000000d0: 9774 5737 2983 db36 0092 61b7 11a3 90b6
000000e0: e4f2 fdb7 9593 91b8 7c6e 02b7 0b1c d0b6
000000f0: d309 1236 47a3 db37 6bae 84b7 002b aab7
00000100: 0ae0 6536 2031 70b7 5e8e dab6 ddb6 1b37
00000110: b26a 2db8 4f1c 82b5 3515 dd37 06f3 3736
00000120: e057 52b7 5785 4237 46a9 b737 9283 2c34
00000130: 5510 35b8 bd9a 9db7 0dc7 e437 c97b e436
00000140: d06e 1ab7 38a5 d035 71b4 9ab7 7ce0 9eb7
00000150: 49fa 3bb6 0e5b 88b7 4562 2c37 a81a ac36
00000160: accd 1435 df89 b137 da80 b3b7 4709 4b36
00000170: daee 20b7 7a2d 6fb5 f76d 1337 c0a0 5938
00000180: 25be 9db7 76fb cf37 98c7 e137 73ec 0b36
00000190: 7756 ba37 670c cc37 10b2 dfb7 b718 b8b7
000001a0: 5586 e2b7 a550 3a37 264a 49b7 81fd 82b7
000001b0: 46cd 3837 d1ff bf37 3638 ab36 856f d837
000001c0: a8b7 02b8 56b3 c835 bc46 ba37 890c 0337
000001d0: 16b6 9db5 614c 06b7 6335 4b37 ed15 01b8
000001e0: 0002 dc36 ed39 af37 373b e9b7 898c 3db6
000001f0: d5f9 0136 571d 1eb8 8aa4 5f37 fc21 bfb7
1.0475667e-05 1.1168329e-05 -5.9500644e-06 -9.315759e-07 1.1370584e-05 1.7053108e-05 -1.43344e-06 -1.4530366e-05
-2.823045e-06 7.1501577e-06 9.414569e-06 5.897027e-06 1.2763989e-05 -5.8728265e-06 -1.4553185e-05 -9.834711e-06
-6.276812e-06 -2.4741246e-05 -5.754529e-06 5.655048e-06 -1.49827765e-05 1.731149e-05 -4.8168386e-06 -1.6028283e-05
-1.8652634e-05 1.0352827e-05 1.3183781e-05 2.675114e-07 -6.7208375e-06 1.5658241e-05 -2.0320795e-05 -2.2412998e-05
2.6391328e-05 -1.8249562e-05 2.285919e-05 6.7655465e-06 -1.688492e-05 2.554063e-05 -6.7477836e-06 -2.9048624e-05
-1.22630045e-05 -7.861052e-06 -1.2073405e-05 -8.755478e-06 -1.449086e-05 -1.5158529e-05 9.686119e-06 2.1637357e-05
-1.4424302e-05 -3.1413513e-06 -3.173067e-05 1.9786743e-05 1.2842144e-05 6.5419777e-06 -1.3445038e-05 -4.310518e-06
-3.0273055e-05 -6.941628e-05 -7.774328e-06 -6.2021477e-06 2.1761414e-06 2.6182866e-05 -1.5816846e-05 -2.0285603e-05
3.4254067e-06 -1.4316553e-05 -6.51348e-06 9.281296e-06 -4.1345782e-05 -9.693994e-07 2.6355128e-05 2.7410583e-06
-1.2537435e-05 1.1594347e-05 2.1894124e-05 1.6066613e-07 -4.3168973e-05 -1.8787914e-05 2.7272408e-05 6.80934e-06
-9.204916e-06 1.5545293e-06 -1.8442255e-05 -1.8939601e-05 -2.8010857e-06 -1.6254864e-05 1.0274879e-05 5.1291026e-06
5.543359e-07 2.1164245e-05 -2.1398464e-05 3.0254757e-06 -9.592355e-06 -8.9100615e-07 8.787486e-06 5.188654e-05
-1.8804401e-05 2.4793419e-05 2.6915033e-05 2.0850246e-06 2.2213191e-05 2.432447e-05 -2.6666588e-05 -2.1946018e-05
-2.7003853e-05 1.110524e-05 -1.1997798e-05 -1.5615255e-05 1.1015049e-05 2.2888098e-05 5.102741e-06 2.5801137e-05
-3.116546e-05 1.4953355e-06 2.2205866e-05 7.811127e-06 -1.1750406e-06 -8.004806e-06 1.2112173e-05 -3.0776417e-05
6.5567438e-06 2.08886e-05 -2.7803339e-05 -2.8244997e-06 1.936792e-06 -3.769746e-05 1.33301455e-05 -2.27848e-05

network_body.observation_encoder.rsa.fc_v.bias f4 [128]
00000000: 4671 cc3c dc6e babb 8c3d bfbb 41d3 0a3d
00000010: 9b96 333d c0b5 d13c f692 81bc 3c6a b73b
00000020: 0317 4dbc ceb2 173d 5373 10bd 5635 443b
00000030: 1b4d b3bc ea02 123d 6858 0ebd 7a19 523b
00000040: 0204 a1bc bd75 0fbc 4aff b0bc 20d7 343c
00000050: 5a68 953c ba07 733c d345 ecb9 d797 aa3c
00000060: 8fd0 6ebc 4a6f 343b ee68 f9bb cc58 f9bc
00000070: 732d 353c 5adc 56bc fce4 80bc 66ba ecbc
00000080: 8a18 cebc 47f1 873c 22e4 34bc 8489 32bc
00000090: a864 5b3c a22c 0a3d 7f17 15bd 4416 af3c
000000a0: 5349 b3bb f9c1 2f3d b558 a13b 65cc c1bc
000000b0: dc73 ccbc 89a6 0b3d 03e8 4fbc 8a1d d63c
000000c0: 656e 343d ee5b cc3c ea54 4abd 9ee0 ffbc
000000d0: 2db7 ff3b 5adb 6abc f5e9 263d 8466 8cbc
000000e0: e9ac b33c 3c2f 4cbc 24da 323c 6c5d 3f3c
000000f0: 6e8e 0d3d 2569 223c 00be c03c dc54 e0bc
00000100: b1cc 683b 4d4e d73c f10b d13c 10d0 b7bb
00000110: ebad 203d 9503 11bd 5b34 3c3b 03a7 983a
00000120: 9f30 18bd 57f1 bebc a76b 2b3c d600 8c3b
00000130: b394 a5bc 3aa8 9a3c 87d6 d4bc 7829 ec3c
00000140: b65b 1cbc 3869 9abc f788 233b 4ebd 673c
00000150: 4617 973c 1f95 263c ac60 a03b 342b 123d
00000160: 20b1 b23c df3e 5a3a b25e 9e3c d6e4 1ebc
00000170: 8066 e93c 6587 0abd cf96 563d 114f 62bb
00000180: 81c6 cd3b 4868 243d 3bb5 cd3c 7b29 8dbc
00000190: ae0c c5bb 6444 0b3d 8cec 073d 55d7 41bc
000001a0: 5939 523c f735 49bc 3fb3 dfbc bdbb d2bc
000001b0: a059 b13c 6f76 c53b a716 3c3b 9817 893c
000001c0: fda6 703c 6740 72bc 03a1 d13c 9e22 e4bc
000001d0: 9636 c13b 1ea2 513c 8336 923b c159 e6bc
000001e0: fbea 0bbd 74ec 123c 1708 953c 1d7c aabb
000001f0: 3865 06bd 9496 c0bc 9537 173c c35e dbbc
0.024956357 -0.005689485 -0.0058361944 0.033892874 0.0438448 0.02559936 -0.015817147 0.005597381
-0.012517693 0.037035756 -0.03526623 0.0029939017 -0.021887353 0.03564731 -0.03475228 0.0032058642
-0.019655231 -0.008756098 -0.021606106 0.011037618 0.018238235 0.014833385 -0.0004506545 0.020824356
-0.014576091 0.0027532154 -0.0076113855 -0.03043785 0.011058199 -0.013114059 -0.015734188 -0.028897475
-0.025158186 0.016594542 -0.011040719 -0.010897044 0.013390698 0.03373397 -0.03639936 0.021372922
-0.0054713874 0.042909596 0.004923905 -0.023657033 -0.02495759 0.034094367 -0.012689593 0.026137132
0.044050593 0.02494618 -0.049397387 -0.031235036 0.0078038187 -0.014334524 0.040750463 -0.017138727
0.021933036 -0.012462433 0.010916267 0.011679988 0.03455966 0.009912764 0.023528099 -0.027384214
0.0035522396 0.026282454 0.02551839 -0.00560952 0.03922836 -0.035403807 0.002871773 0.0011646453
-0.037155744 -0.02330844 0.010462678 0.0042725606 -0.020212507 0.018879045 -0.0259812 0.028828368
-0.00954335 -0.018849 0.0024953464 0.014144255 0.018443715 0.010167389 0.0048943367 0.035685733
0.021812975 0.00083254086 0.019332264 -0.009698113 0.028491259 -0.03382053 0.052389916 -0.003453199
0.006279767 0.040138513 0.025110831 -0.017231693 -0.0060134744 0.03400077 0.033184573 -0.011831124
0.012831056 -0.012280933 -0.02730715 -0.025724286 0.021649182 0.0060260813 0.0028700025 0.016734883
0.014688251 -0.0147858625 0.025589472 -0.027848538 0.0058963997 0.012794999 0.0044620647 -0.02811897
-0.03415964 0.008967508 0.018192334 -0.0052027837 -0.032811373 -0.023509301 0.00922956 -0.026778584

network_body.observation_encoder.rsa.fc_out.bias f4 [128]
00000000: 33bc 483c 7117 0a3c 5ef9 c73b b1e4 2f3c
00000010: 68d5 febc 1b97 b8bc 9bf1 ddbc c1cd 373c
00000020: 1712 0e3d 076a a1bc 2290 be3c ca43 f9bc
00000030: ee82 00bd d203 b4bc ff29 d43c c7d6 1b3c
00000040: 0653 c53c d2f0 073d 6cf8 16bd 3ce7 64bb
00000050: ed13 61bd 99fb 373c d6dc 93bc 4c86 f93c
00000060: 7a34 1f3c 4b32 f33b 4fe3 39bd e1cd 3c3d
00000070: 3131 1b3c f82d a2bc 6e9c f13c 8706 7fbd
00000080: 4958 ebbc b4d7 bdba 4852 b4bc dc4b 41bc
00000090: ab0e 893d a8cc a43c 5c0a 90bc bd71 e4bb
000000a0: 69bd 253d aec6 c53a a63c dc3b b135 24bc
000000b0: 8632 19bc 0f5a a5bb 28e4 57bd 696d 99bb
000000c0: 0da1 26bd b68b 373d b5dd c33b 4772 9f3c
000000d0: 4d23 6ebc 058b 823d 024f 9b3c eefa fd3c
000000e0: 01f4 723c 4d2f a9bb f596 4ebb aacb 8ebc
000000f0: 3c79 143b 1b4b e93b eeb2 9ebc 342d 8c3c
00000100: c6db 71bb d609 acbc 8eea afbc edfa eebc
00000110: fa24 d1bb 3dd6 9b3b 35eb 95bb c1f5 47b9
00000120: 4b9b 27bd e3cf 203c 49ce 97bc baab 0a3d
00000130: 8324 7fbc fa90 a43b ae2c 0a3d 5977 873c
00000140: b771 883c f0ef 193c 207d 09bd cbe1 913b
00000150: 8b23 75bd 78d1 4b3b 99d8 083d 0c51 1fbc
00000160: fef6 90bc bede 9eba d774 82bb a704 1abd
00000170: b80d 05bd 3acc b63c 3085 ddbb 5d6f 503d
00000180: d4d5 60ba 35a8 81bb 82c4 363c 499b 74bd
00000190: aef6 1dbc 9712 dbbb dd87 ff3b 210a d4bc
000001a0: b055 1e3c d4d0 063d 9aca b6ba 0904 8d3b
000001b0: 162d c4bc 788f 96ba f009 1d3b 57cf 3fbc
000001c0: d8e4 b53b e66d f13c fed1 8f3d b357 a13c
000001d0: e6df 4e3d 5b58 453c fbc4 973b 8465 793c
000001e0: 3480 0b3c e323 bbbc a3b4 2c3d 8b26 93bc
000001f0: fc5a e2bc 1a30 283d 35bd 12bb 637b d6bc
0.012251901 0.00842844 0.006102725 0.010735677 -0.03110762 -0.02253299 -0.027092746 0.011218489
0.03468522 -0.019703878 0.023262087 -0.030427832 -0.031374864 -0.021974478 0.025898932 0.009511656
0.02408744 0.03318865 -0.036858007 -0.0034927865 -0.054950643 0.011229419 -0.018049639 0.030459546
0.009717101 0.007421767 -0.045382794 0.04609478 0.009472177 -0.01979731 0.029493537 -0.062262084
-0.028728621 -0.001448384 -0.022011891 -0.011797871 0.06692251 0.020117119 -0.017583065 -0.0069715665
0.04046384 0.0015089118 0.006721097 -0.010022567 -0.009350425 -0.005046136 -0.05270782 -0.004682232
-0.040680934 0.044810973 0.0059773573 0.019463671 -0.014534784 0.06374172 0.018958572 0.031003442
0.014828683 -0.0051631094 -0.0031523083 -0.017431099 0.002265527 0.007119549 -0.01937243 0.017111398
-0.0036904677 -0.021000784 -0.02147415 -0.029172385 -0.006382582 0.004755764 -0.004575158 -0.0001906967
-0.040919583 0.009815189 -0.018530982 0.033855177 -0.01557267 0.0050221654 0.033734016 0.016536402
0.016655786 0.009395584 -0.033566594 0.0044519654 -0.05984835 0.0031100195 0.03340969 -0.009723913
-0.0176959 -0.0012120826 -0.0039812136 -0.037602093 -0.032483786 0.02231418 -0.006760262 0.050887454
-0.0008576785 -0.0039568194 0.01115525 -0.059718404 -0.009641333 -0.0066855657 0.0077981786 -0.025883736
0.009663984 0.032913998 -0.0013945878 0.0043034595 -0.02394728 -0.0011486849 0.0023962222 -0.0117071485
0.005550962 0.029471349 0.07022475 0.019695139 0.050506495 0.012044991 0.004631636 0.015221957
0.008514453 -0.02284426 0.042164456 -0.017962715 -0.027631275 0.0410615 -0.0022390608 -0.026181882

network_body.observation_encoder.x_self_encoder.seq_layers.0.weight f4 [128, 5]
00000000: 9f8f c23c 3105 19bd c0ab 49bc 5d38 88bd
00000010: 6ddb 94bd 75a4 843d 0982 b6bc 9499 f5bc
00000020: 4b37 d0bb c110 acbd 173d 1abd 0c7d e23c
00000030: e71e 04bd 8be3 a93c 25b5 803c 6d93 95bd
00000040: 12e1 e93a d0fe 233d 482e a73c 8d36 c83d
00000050: a74b b03d 7e8a f2bb 0ac4 b0bb cf03 c4bb
00000060: 4a8c 40bc 0b6c 9e3d b0a7 64bc 699e 13bd
00000070: cf6e 10bd 6ee7 cdbd f1a5 4bbd 108b 6dbb
00000080: fd7f fd3b 0d8d 9b37 ba68 1a3c 62be 083d
00000090: 2134 933c 6026 b4bd 4caf 09bd 190b bfbc
000000a0: 6f3c 213d c890 3ebd f47c ba3c 586f fabc
000000b0: bdbc 18bd 3ba6 753d 7334 1bbd 14eb 7e3d
000000c0: 5f18 3dbc b199 893d 7a58 60bd fd9d 4c3d
000000d0: 0d0b 34bd fb3d 753d 582a 383c 737f 083e
000000e0: 10e1 89bd 8b39 9e3c 965e f5bc f84a cbbc
000000f0: 677f 3ebc 981f a53c ed11 0cbd 2f0f bb3c
00000100: 7bae 02bc f2ec 1abd c64d 823d 9e4d 42bd
00000110: 0849 40bb d5fd 47bd a042 813d 833a 2abd
00000120: b89e c53c 16dc c6bd 2d9f ebbc 52de a4bd
00000130: 4bc5 6f3d c414 39bd 3b3f 043d 4e03 bc3c
00000140: 929e dcbc 2819 143d 5451 1bbd 75e1 e83c
00000150: 884e 88bc f9c6 5dbd 0213 893d db39 08bd
00000160: 7115 0e3d d513 9cbc 5541 59bd 36e7 3b3c
00000170: 9150 6b3d 6e5c 383d 265a 883d fb60 80bd
00000180: 33ce 4f3d a7b6 053b d3b3 533d c788 4b3d
00000190: 75b9 8abd c0c1 893c 01b3 46bd 9d1b ea3a
000001a0: fe55 0abd b5a1 773d 8856 cfbc ee3e 71bc
000001b0: d6b5 37bd e132 94bd cb96 3bbd c2b0 823d
000001c0: da1a 75bd c49e b1bb 360d ab3b 7e0d ae3b
000001d0: 64a9 843c 411b 57bd b907 8c3d 499b c2bc
000001e0: 2d60 8dbc 01ea d7bc 1581 59bc 3770 54bb
000001f0: d1a8 8cbd 5744 a6bd b135 8b3d 7734 efbc
00000200: 8f0c 953d c00a 8cbb 217a bb3c c808 33bb
00000210: 5d23 73bc b9fa aeba 12b0 e9bc 4d6b aa3d
00000220: c95a 40bd 4e35 0a3d e167 31bd 1a54 f4bb
00000230: 2e7c 5e3d ff4a 51bd c69f 8a3d ae0c 303d
00000240: dee0 193d 1bd4 87bd ae3d af3d 5647 8cbd
00000250: 8561 a63d 07be 34bc a246 4dbd e92a 4b3d
00000260: 4dd4 59bd acb1 c53b d6cc fc3a f4e0 4abd
00000270: 393f 2d3c b883 30bd adb6 9bbc e2b5 6dbd
00000280: 842c 363d a14c 06bd 1e00 8c3c 1528 46bd
00000290: 89ae 4fbd 7352 63bd b9f0 083d b0c7 1f3d
000002a0: a3e7 793d 6f6b be3d ad4d 9a3c fdbb 5dbd
000002b0: 01ee 623d cbb0 77bd 9204 453c 0f6c 3bbd
000002c0: 3d3e 4e3d 1cf6 19bc 9fca 433d 34de 653d
000002d0: 670d 70bd b23f b73c 8aac 27bd e661 c83b
000002e0: 7c53 ef3c 8463 a03d a639 87bd d37d 923c
000002f0: e554 aebd 0996 d7bb e307 65bc 38b1 24bc
00000300: 053f 723d 0bc5 113d edda 893d bc7e 163d
00000310: ead0 323c be1d 08bd f9fb 47bd d818 40bd
00000320: 85d2 80bd b904 15bb 0645 923b c836 043d
00000330: 0bdc 7c3d 135d 84bd 8317 223d 29a3 07bd
00000340: bd69 b03d de8a d83c 840e f23b f430 ea3c
00000350: 3970 163c 160f c23b 5acd 1a3d 4f49 523d
00000360: b74c 43bd 8658 c93c effd b9bb 9b08 62ba
00000370: 4f31 9c3d 8421 dabc df3a a2bb c5e9 b3bd
00000380: 5422 f7bc 4cd7 c13c 86e7 64bc 7815 853c
00000390: 2c0d 9dbd 84ee 53bd ed07 643d 0e49 33bd
000003a0: 1499 303d 6c77 0cbd 80d8 713c 282c 273d
000003b0: 5ff8 b0bc 70d4 d9bb 4895 35bb 2a68 a8bd
000003c0: dc88 d73c 4bf5 023d 1f16 9fbc bf94 e3bc
000003d0: 3eb5 51bd ae28 1b3d 7e85 5abd 45a3 313d
000003e0: 183b 24bd f8aa 37bc 0722 bebc 3957 1bba
000003f0: bb8d fb3a 894a d13b b7d4 0a3c d311 6b3c
0.023750124 -0.037358467 -0.012309015 -0.066513754 -0.07268415 0.0647668 -0.022278802 -0.029980458
-0.0063542477 -0.08401633 -0.037655916 0.027647518 -0.032256033 0.020738384 0.015711376 -0.0730351
0.0017843565 0.04003793 0.02040781 0.0977603 0.086081795 -0.0074017635 -0.0053944634 -0.0059818993
-0.0117521975 0.07735451 -0.013955995 -0.036039744 -0.035261925 -0.10053907 -0.0497188 -0.0036246218
0.0077362047 1.8543122e-05 0.009424383 0.03338469 0.017969193 -0.08796382 -0.03361444 -0.023320721
0.039364275 -0.046524793 0.02276466 -0.030570671 -0.03728937 0.059972983 -0.037891816 0.062235907
-0.011541455 0.067187674 -0.054771878 0.049955357 -0.04395585 0.059873562 0.011240564 0.13329868
-0.067323804 0.019314548 -0.029952329 -0.024816021 -0.011627055 0.020156667 -0.034196783 0.022834389
-0.00797617 -0.037823625 0.0636249 -0.047437303 -0.0029340405 -0.048826057 0.06311536 -0.041559707
0.024123535 -0.09709947 -0.028762424 -0.08050217 0.058537763 -0.04518582 0.032286864 0.022950795
-0.026931081 0.036156803 -0.037919357 0.028427819 -0.01663901 -0.054144833 0.066930786 -0.0332583
0.034688417 -0.019052425 -0.05304082 0.011468699 0.05744988 0.045010023 0.066578194 -0.062684976
0.050733756 0.0020403059 0.051685166 0.049690988 -0.06773654 0.01681602 -0.048510555 0.0017861013
-0.033773415 0.06045695 -0.025309816 -0.014724476 -0.044851147 -0.07236267 -0.045798104 0.0638137
-0.05984006 -0.0054205377 0.0052200807 0.005311667 0.016194053 -0.052516226 0.068374105 -0.023755686
-0.017257774 -0.026356699 -0.013275404 -0.0032415518 -0.06868137 -0.081185035 0.0679735 -0.029199822
0.07277786 -0.0042737424 0.022885384 -0.0027318466 -0.014839974 -0.0013349868 -0.02852634 0.08321247
-0.04696158 0.03374224 -0.043311957 -0.0074563148 0.054317646 -0.051096912 0.067687556 0.042980842
0.037567966 -0.06632253 0.08556686 -0.06849544 0.08124069 -0.011031634 -0.05011619 0.04960147
-0.05318098 0.006033143 0.001928712 -0.04953094 0.0105741555 -0.043094367 -0.019008005 -0.058034785
0.044476047 -0.032787923 0.0170899 -0.04837807 -0.05070356 -0.05549855 0.033432696 0.039008796
0.06101192 0.09297835 0.018835867 -0.054134358 0.05540276 -0.060471337 0.012025015 -0.04575735
0.050352324 -0.009397056 0.047800656 0.056120113 -0.05860653 0.02236924 -0.04093603 0.006115186
0.029214613 0.07831481 -0.066027924 0.017882263 -0.08512286 -0.006579165 -0.013978931 -0.010052018
0.05914213 0.035588305 0.0673121 0.036741957 0.010914067 -0.03323149 -0.048824284 -0.046898693
-0.062901534 -0.002273841 0.0044637946 0.032278806 0.061733287 -0.06463065 0.039573204 -0.033114586
0.08613918 0.026433405 0.0073869843 0.028587796 0.009182029 0.0059222085 0.037793495 0.051339444
-0.047680583 0.024578344 -0.005676023 -0.0008622498 0.07626592 -0.02662731 -0.0049508656 -0.087848224
-0.030167736 0.023662232 -0.013971215 0.016245589 -0.07668528 -0.051741138 0.05567162 -0.043770842
0.043114737 -0.034293577 0.01476109 0.040813595 -0.021602808 -0.006647639 -0.0027707387 -0.08222993
0.026310377 0.03197221 -0.019419728 -0.027780889 -0.051198237 0.037880592 -0.053349964 0.043368597
-0.04009542 -0.011210196 -0.023209585 -0.0005925778 0.0019192019 0.006387059 0.008473567 0.014347511

network_body.observation_encoder.x_self_encoder.seq_layers.0.bias f4 [128]
00000000: 2f48 34bd 40b5 3bbd 1d98 bf3c 30ed 5a3d
00000010: e218 cfbc 12e3 1ebd 6962 e73c 9ad3 77bc
00000020: 5ddc 16bd 51db da3c 36da 423d 82c7 50bd
00000030: 85b4 28bc 9132 22bc e6e1 32bd 0769 5a3d
00000040: 4fc3 41bc b795 f03c a68d 1c3d d00f 713d
00000050: e95b 8cbc 06bf 2fbd 7a34 363d 82c1 1c3d
00000060: c716 1ebd b620 353d fa69 00bd 0bcb 2cbd
00000070: 79fa aabc 1cbb 173d f4c9 093c 690f e0bc
00000080: d8da 25bd ffd5 2e3d cedf 40bd 7680 463d
00000090: 8a60 913b eb96 4dbd 304d 323d 04f1 f3bc
000000a0: 31a1 263d bbea 123d 97a9 cc3c 655d debc
000000b0: 13ee f6bc 74ea 15bd 4b3c cfbc 348e 1bbd
000000c0: 0a77 4e3b 2017 3abd 4d24 3a3c 0ab3 02bd
000000d0: 28cc 70bc 1fe3 523d f829 303d cca3 1dbd
000000e0: 863b 463c 1c2c 373d e9da 13bd 285e 213d
000000f0: a760 ee3c ca06 0f3d ae24 043b b708 c7bb
00000100: f913 bdbc d6fd f03c da5c 3b3c 023f 67bc
00000110: 89db 23bd 5635 96bc 0b0b 743c cefe ecbb
00000120: 4a78 85ba 22cf 9b3b fda6 bb3b 04b8 bc3c
00000130: 1b6d 553d df48 e7bc fecd 2f3c b82b 093d
00000140: 311d 20bd 2e78 363d 3d72 683b 43dd 3e3d
00000150: 1f88 4cbd 74a4 bfbc bcb4 343d 93b7 0f3d
00000160: 5657 883b 40ef 3cbd 4006 7f3d 7edf 773c
00000170: 829e 6c3c ca5f e73c 59ed 46bd cb0c 3f3d
00000180: 5f92 b13c f6cc 28bd 4325 9abc fb95 123d
00000190: ffdc 1abd 1ce9 0cbd 36b4 b53b 74a4 033d
000001a0: 5069 623d e88c 5b3d 67c5 0c3d 64ce f6bc
000001b0: 4c13 4dbd d6d9 0abd 3841 603c 119f 10bd
000001c0: 2fd4 ae3c bff2 013d f204 253c 2fdb 8f3c
000001d0: 9e9a 39bd d44a 5abb 70ad 323d ae1a 3fbd
000001e0: 25d7 38bd 47a2 0cbd 9a0e 5abc f375 343d
000001f0: dbc9 c63c 3047 40bc 2569 09bd 6a6d a5bc
-0.044014152 -0.04582715 0.023387963 0.053448856 -0.02528042 -0.03879077 0.028245168 -0.015126133
-0.03683125 0.026715906 0.047571383 -0.050971515 -0.010296945 -0.009899751 -0.043672465 0.053322818
-0.01182635 0.029368265 0.038221024 0.05885297 -0.01713367 -0.042906784 0.04448364 0.03827048
-0.03859594 0.04422065 -0.031351067 -0.042185824 -0.020871388 0.037043676 0.008409966 -0.027351098
-0.04049191 0.04268455 -0.047088437 0.048462354 0.004436557 -0.050192755 0.043530643 -0.029778011
0.040681068 0.035868388 0.02498321 -0.027144143 -0.03014282 -0.036600545 -0.025297305 -0.037977412
0.0031504058 -0.04543221 0.011361194 -0.031909026 -0.014697112 0.05148613 0.043008775 -0.038486287
0.012099152 0.0447198 -0.03609744 0.039396435 0.029098822 0.034918584 0.0020163464 -0.006074037
-0.023080813 0.029417913 0.011435712 -0.014114143 -0.040004287 -0.01833598 0.014895211 -0.0072325235
-0.0010182944 0.0047549168 0.0057266937 0.023036964 0.052106004 -0.02823299 0.010730265 0.03348896
-0.03909034 0.044548206 0.0035468482 0.04659773 -0.049934503 -0.023393847 0.044117674 0.03508718
0.004160802 -0.046126604 0.06226182 0.015128968 0.014442088 0.028243918 -0.048566196 0.04664306
0.02167624 -0.04121109 -0.018816596 0.035787564 -0.037808415 -0.034401998 0.0055451645 0.032139257
0.055276215 0.053601176 0.034367945 -0.030127712 -0.05006723 -0.03389915 0.013687424 -0.035307948
0.021341411 0.03172564 0.01007198 0.01756057 -0.04531347 -0.0033308761 0.043622434 -0.046656303
-0.045127053 -0.034334447 -0.013309145 0.044057798 0.024266174 -0.011735722 -0.03354754 -0.020193774

network_body._body_endoder.seq_layers.0.weight f4 [128, 133]
00000000: da09 fc3d cc2a 1fbd cdfc 153e 90b5 3bbb
00000010: 7bb2 273e f19d 11be 192e 2c3c d39c aabc
00000020: 1127 99bd 2528 d1bd 9e3b 483c faf8 863d
00000030: 312e cabd 4573 11be e779 5f3d 84f4 22be
00000040: 956d 32bd 4cf4 6a3e d37a d83c 2437 eabd
00000050: 954c 9dbb 0497 dd3c b142 cabc f9b8 883d
00000060: bfe9 d93d 5076 4d3d e5fa 013e 97e4 81bd
00000070: f42f 363d c616 87bd 9b66 413d fb7d 323d
00000080: 4f68 f1bd b83c 46be f5b0 10be eb77 c53d
00000090: 6610 343e 1f9e 713d 36bc bf3c 5b1e cdbd
000000a0: b6f1 36bd 866b 193e 0078 dabb 2fe7 3bbd
000000b0: 85da d8bc 39bb 613b db93 bd3d a46a 88bd
000000c0: f87e a73d 96c3 3cbd 03c4 893d d03c e6bd
000000d0: af4d 8abd fcb1 293d 1808 253d 14e0 2a3c
000000e0: 754b 363d 9295 5a3c aea8 bebc ca41 9fbd
000000f0: 9f7c f4ba b4d9 ce3b 24d7 7d3d 4730 4c3c
00000100: cc80 233e c0dc 40bd 7529 d9bc 6256 fe3c
00000110: 89de d4bd 358a f1bd 1272 1abe a1ce 893d
00000120: 7ea2 563d 1d81 eabd d11e ce3c 2737 543d
00000130: 292a b6bd 10d5 103e d061 3dbe 089a c93d
00000140: 07f7 773b a03d c8bc 5419 543d fe55 843d
00000150: 95dd d73c 5a1c c0bd e66e 50bd 9949 26bd
00000160: 7ebb 673d d263 78bd 4a1f 1b3e 0606 0f3d
00000170: 4c24 d23d f3ca abbd 93cb 453c ef41 3d3d
00000180: 3f84 edbd 16bb 84bd 0593 9fbd a93e fbbc
00000190: a880 b43c 3956 4dbd c9ae 9b3d bdb5 00bc
000001a0: ae62 b3bc 401e a6bd 6b44 5e3d d102 333c
000001b0: 2b50 d1bd 552e 5cbd f394 6bbe d9f9 0e3e
000001c0: 8bcb 2cbd a276 87bc 8137 c1bd 344d f6bd
000001d0: 8f07 773d 4cc7 dcbd 7016 4b3e 3811 c2bd
000001e0: 767b 42bd dd71 883b f659 ab3d a5d9 bebc
000001f0: 35ee 953d c8d3 133e 3b4c 53bd 2b14 54ba
00000200: 64de fbbc 1feb d5bb 6a13 b2bd 4cfc 813d
00000210: f628 ab39 13b5 81bd 860b f03d 5d7e aabe
00000220: 8bff d8bd 3b93 b0bc fd5e d03d 4004 7cbc
00000230: 08da fabd ed1a 963d 228a 9fbd bebd e2bc
00000240: 02ac 6ebd 220c b8bd e140 203d 00f3 f53d
00000250: 9891 0bbe 6392 de3d 6be8 72bc 08a4 f03d
00000260: cab5 86bd 09f5 213c 3356 80bc fd41 3b3e
00000270: 163e bc3c bffd 1e3c 1232 cfbb c5f3 28bd
00000280: a8da 2ebd 25fb b9bc 1711 613d 4d8a 423c
00000290: 7ee6 893c 9c01 08bd b2b4 36bc c0cb fc3c
000002a0: 3bed ea3c 977a 06bd 57fb 2abe 16f9 04bc
000002b0: de35 14bd 5355 00bc ffe2 2cbc 3874 dd3d
000002c0: 0ce1 7f3d db5a 09bc b904 083d e0b6 b4bd
000002d0: f0e0 55bb ee00 153d f96d bf3c b3bf e83b
000002e0: c9e1 b5bc 6cd1 bcbd 21cc 483d 8e0b 663d
000002f0: e2d5 aa3d 368c 92bd c37f dc3d 125d a93c
00000300: 768e f43c 0be2 903c edcc 043e de8c ee3d
00000310: 3e18 abbc 0289 ffbd 4742 9a3c 03a7 6fbd
00000320: 118f b8bd 4723 f33d 633d 233d e78f 80bd
00000330: ee81 043d 7fe8 1e3d d433 36be 30d1 9dbc
00000340: 5237 2a3e c69b 0c3e 7129 20bd 6b47 82bd
00000350: e097 903d 4f61 ad3d 6555 68bd b8cd db3c
00000360: d77a 84bd e465 81bc e65a d7bd 9f4c a9bd
00000370: 5cdf 45bd 090f a1bb 2451 be3b 6b0b c3bc
00000380: 9f19 babc 306e 82bd cacd d2bd 5d80 023d
00000390: f4cf b3bd 41c2 9c3d 809c 90bc a46d a5bc
000003a0: 1f1e bcbd b288 fa3d 6179 1a3c 2be5 d83d
000003b0: 9ca8 bcbd 50c7 353e eda8 b3bd 1635 f83d
000003c0: 24fc 12bd 6f33 1f3d 555c 123d dd6c 57bd
000003d0: 667a 71bd 35b0 0e3d e8f2 5f3d b28d 2dbb
000003e0: 7189 5cbd d312 d5ba 4382 f93d 4911 f3bc
000003f0: ddb5 4f3b c3dd 03be 94ae 243d 0242 193d
0.123065665 -0.038859174 0.14647217 -0.0028642155 0.16376679 -0.14220406 0.010509037 -0.020826733
-0.074781545 -0.10212735 0.012221245 0.06590457 -0.098720916 -0.14204128 0.054559615 -0.15913588
-0.043561537 0.22944754 0.026425755 -0.114362985 -0.004800389 0.027049549 -0.024690004 0.06675906
0.10640287 0.05016166 0.12693365 -0.06342428 0.044479325 -0.065961406 0.047216993 0.043577176
-0.117874734 -0.193591 -0.14130004 0.09642013 0.1758438 0.058988687 0.023405176 -0.100155555
-0.044664107 0.14982423 -0.006667137 -0.04587477 -0.026471386 0.0034443869 0.09256717 -0.06660965
0.08178514 -0.046084963 0.067268394 -0.11242068 -0.06753098 0.041429505 0.040290922 0.010429401
0.044505555 0.013341324 -0.023273792 -0.0777622 -0.0018652863 0.0063125733 0.061972752 0.012462682
0.15967101 -0.047085524 -0.026509026 0.03104705 -0.10394008 -0.11793939 -0.15082577 0.067288645
0.05240106 -0.11450408 0.025161179 0.05181041 -0.0889476 0.14143777 -0.18494344 0.09843832
0.0037836449 -0.024443448 0.051781967 0.06461714 0.026350776 -0.09380408 -0.05088701 -0.040597532
0.05657529 -0.06064207 0.15148655 0.034917854 0.10260829 -0.08388319 0.012072462 0.046205457
-0.115974896 -0.06480996 -0.077917136 -0.030669527 0.022034004 -0.050131056 0.07601697 -0.00785583
-0.02189764 -0.081112385 0.054264467 0.010925964 -0.10220369 -0.053755123 -0.23006038 0.13962497
-0.0421863 -0.01653606 -0.09434415 -0.12026444 0.060309943 -0.107802 0.19832778 -0.094759405
-0.047481023 0.004163964 0.08366768 -0.02329714 0.07320825 0.14436257 -0.05158637 -0.00080901635
-0.030745693 -0.0065282728 -0.08695109 0.0634695 0.0003264618 -0.06333365 0.11720948 -0.33299533
-0.10595616 -0.02155458 0.101743676 -0.015381873 -0.122486174 0.073293544 -0.077900186 -0.027678367
-0.05826951 -0.08986689 0.039124373 0.12009239 -0.13629758 0.10867765 -0.014825921 0.117500365
-0.06577642 0.009885081 -0.015666103 0.18286891 0.022978824 0.0097040525 -0.0063231075 -0.0412481
-0.042688996 -0.022702763 0.05494794 0.011873794 0.01683354 -0.03320466 -0.01115148 0.030858874
0.028677573 -0.032831755 -0.16697441 -0.008116027 -0.036184184 -0.007832843 -0.010552167 0.108131826
0.06247048 -0.008383478 0.03320763 -0.08823943 -0.0032635294 0.03637784 0.023367869 0.0071029305
-0.02220239 -0.092196316 0.049022797 0.056163363 0.08341576 -0.07155649 0.10766556 0.020674262
0.029853087 0.01768591 0.12968798 0.11647962 -0.020885583 -0.12477304 0.018830432 -0.058508884
-0.09011663 0.11871963 0.039853465 -0.06277447 0.032350473 0.038795944 -0.17793208 -0.019264787
0.16622666 0.13731298 -0.03910202 -0.06361278 0.07060218 0.08465826 -0.056722064 0.026831493
-0.06468742 -0.015795656 -0.105153844 -0.082665674 -0.048308715 -0.0049151224 0.0058080126 -0.023809155
-0.022717295 -0.06368673 -0.102931574 0.031860698 -0.08779898 0.076542385 -0.01765275 -0.020193882
-0.09185433 0.12233104 0.009428353 0.10590585 -0.09211847 0.17751813 -0.087724544 0.121195
-0.03588499 0.03886741 0.035732586 -0.052594054 -0.05895462 0.034836013 0.054675013 -0.0026482162
-0.05384201 -0.001625622 0.121830486 -0.029671328 0.0031694092 -0.12877564 0.040205553 0.037416466

network_body._body_endoder.seq_layers.0.bias f4 [128]
00000000: 07b5 523c 797a 1bbc d9d1 fc3c c0b7 743c
00000010: 1ce7 4abc d867 1ebc 95c2 74bd 44b4 a9bb
00000020: 673e 81bd 1c00 6f3c d41d 8fbc 18b6 03bd
00000030: c644 2a3b 2566 de3c 0e6b 7abc 5026 81bc
00000040: 1d46 3bbd a8f7 09bb f055 45bc 9303 0bbc
00000050: 98f3 143d 6d34 d63b 5b39 383c c51d 85bc
00000060: 8a84 febb 8ccd 39bc 03a2 a8bb 2243 49bd
00000070: 1350 07bd a67c 95bb 414e 95bd 1ed8 42bd
00000080: 55b2 8abd 863e 1bbc 4a40 083d 5cd1 36bc
00000090: 2b1b 03bc e0e4 d5bc ee4e 10bd 8efe 81bd
000000a0: b476 61bc 2ccf 7dbd bb50 2bbd 5dca eabb
000000b0: 1889 cbbc 7ed8 4f3b 0070 4f3c aae1 c9bb
000000c0: 878d 8ebd 40fc 36bc d059 3cbd bd3a d4b9
000000d0: ba1c 20bc bffe 04bd 1be9 473c d6bb 9bbc
000000e0: 8810 5cbc 0314 89bd 9371 883a 09c3 52bc
000000f0: 53b7 10bd 1977 08bd 6915 43bd d77e d0bc
00000100: de29 e23b 8509 42bd 3d68 9bbc 88cf 0ebd
00000110: 475b 12bc bdb3 2f3c ada3 863c fd98 1b3c
00000120: 2d83 073c 06be dabc 12a9 10bc cb90 82bc
00000130: d10a f33c 6a73 3dbd 42b0 80bc 5d89 133c
00000140: 27b6 a5bc fd3b 13bc 6b7f 30bc fed1 5ebc
00000150: 7321 8ebd 2d23 7ebd aa1a 76bd 3586 e2bc
00000160: a462 97bc 30f2 a2bc 8197 133c c06d 663c
00000170: ee8c 57bc 47a5 bdbc ff18 df3c 23f3 03bd
00000180: 0a9b 51bb eb6c 3abc c724 09bd 3db3 d6bc
00000190: 2f9a 6fbc a122 a439 9bb7 003d ecf0 50bd
000001a0: 8a1d d5bc 4e81 0ebd 4c34 73bc 2ed6 dcbc
000001b0: d747 7cbc 1bdd ddbc d56e 09bc e72e b8bc
000001c0: 3cc2 2cbd 8d0d aa3c 3e49 1cbd 8c28 07bd
000001d0: 2588 46bd 1e92 8ebc c82a cf3c bc6a eebb
000001e0: 57b6 40bd 58a4 2cbd 4836 aebc a58e c83b
000001f0: d2a2 cb3b 9426 f9bc ad0f c0bb 4011 8fbd
0.012860543 -0.009489649 0.030861782 0.014936388 -0.012384202 -0.009668313 -0.05975588 -0.00517896
-0.063107304 0.014587428 -0.017470278 -0.03215608 0.0025980934 0.027148316 -0.015284313 -0.01576534
-0.045721162 -0.0021052156 -0.012044415 -0.008484739 0.03636512 0.0065370114 0.011244143 -0.016249547
-0.0077672647 -0.01134051 -0.0051462664 -0.04913629 -0.03303535 -0.0045619784 -0.072903164 -0.047569387
-0.067722954 -0.009475356 0.033264436 -0.011158314 -0.008002083 -0.026110113 -0.035231523 -0.063473806
-0.013761211 -0.061965153 -0.041825037 -0.007165237 -0.024845645 0.0031714733 0.01266098 -0.0061609345
-0.06960588 -0.0111685395 -0.04598409 -0.00040479554 -0.009772474 -0.032469507 0.012201573 -0.019010466
-0.013431676 -0.0669327 0.0010409824 -0.012863883 -0.03533108 -0.033316705 -0.04762784 -0.025451107
0.0069019636 -0.04737236 -0.018970603 -0.034865886 -0.008932895 0.010724005 0.016435469 0.0094969245
0.008271021 -0.026701938 -0.008829372 -0.015938183 0.029668244 -0.046252646 -0.015709046 0.009004918
-0.020228459 -0.00898647 -0.010772566 -0.013599871 -0.06939974 -0.062045265 -0.060084023 -0.027651886
-0.018479653 -0.019890875 0.009008289 0.014064252 -0.013156159 -0.0231501 0.027233599 -0.032214295
-0.003198328 -0.011378507 -0.03348234 -0.026208514 -0.014624163 0.00031306318 0.0314251 -0.05101101
-0.026015062 -0.034791283 -0.0148440115 -0.026957598 -0.015397987 -0.02708297 -0.008388241 -0.022483302
-0.042177424 0.020758415 -0.038155787 -0.032997653 -0.04846968 -0.017403658 0.025288954 -0.0072759073
-0.047048893 -0.042148918 -0.021266118 0.00612052 0.006214478 -0.030413903 -0.0058612437 -0.06985712

network_body._body_endoder.seq_layers.2.weight f4 [128, 128]
00000000: 6110 8cbd c181 1d3d 94af f73c 8d36 3abc
00000010: 8074 183d 92d0 6c3a 0fd8 0ebd 9f0c fc3d
00000020: 59a0 0cbe 3bba d73a 97b6 cabd 8ca2 abbd
00000030: 72f9 d13a 6b66 523d 0c37 25bd 9dfa 323e
00000040: 04ae e8bc 931a 3c3d 6101 093e 073a 8f3b
00000050: ff4f cbbb d4c4 2d3d a5b8 4f3d 349b 3b3b
00000060: 886f 73be 0f36 223c 359b c8bd 76d7 17be
00000070: 64cc e33c 2b33 77bd 6531 d23d b1c1 09bd
00000080: a0ae ddbd 6ddd c3bd 6143 263c f75f 273d
00000090: c995 1bbe d5e0 9a3c 39bf 89bd f98a fbbc
000000a0: 0e07 05bd 1f29 db3d 4dbd 92bb 4159 cabb
000000b0: ab84 20bd 742b 02bd 4ddb 8e3d 88e9 133d
000000c0: e6f0 4dbd dfca 85bd 1658 afba bcde 4ebd
000000d0: 5630 a33b d36e 46bd a559 16bd c256 f2bc
000000e0: 4353 9f3d 0517 403d a833 5d3d 4a19 41bd
000000f0: 5543 e23d 2feb 0cbc 6608 75bc af5f 22be
00000100: 4e7d cb3c 8c29 82bd c48a d73d b5a6 cf3c
00000110: b18e 273c 63d1 40bc f3a5 833d d769 913d
00000120: b0cf 363d 0a17 4dbe 0a1c d93c 81d1 343e
00000130: 37c1 993d 1bf5 90bd 0130 773c bc12 e03c
00000140: 3d8a 52bd 46fb 1b3d ff39 0ebe a2e0 8bbc
00000150: 4b5e b83d eced 643d b60d 093e 8b1e a7bd
00000160: 1b71 44bd a459 4cbd eb78 a33d e39e 34be
00000170: 1241 c43c b7f4 b6bc f3c4 703c 51d4 013e
00000180: e5e6 143c f400 a5bd 654f a93d 54e2 9abb
00000190: 2401 f2bd 8b36 d2bd 752a 2c3d 3737 d2bd
000001a0: b8ce e2bd 11cb 53bd f63d fbbc f00d 0fbe
000001b0: 9ca8 8c3e 9899 cf3d b6a7 e6bb cb7e 523d
000001c0: d5d6 233e 6d58 733b 60dc 10bc 3cc1 313d
000001d0: 28d7 983c 9d8c 48bc 1c46 34be c9e6 913d
000001e0: 8a99 ed3c 6001 1b3d 8ff6 63bd 5bd8 81bd
000001f0: eb20 f0ba c893 28bd e786 ea3c 5c33 1bbe
00000200: 5be4 e3bc e3e3 493c 0ad9 2cbe 6bda cebd
00000210: 7d03 343e d8b4 30bd 1fe7 933b bff5 153e
00000220: 5f58 b5bc 38aa 963d 2691 97bc 67c5 113d
00000230: 3f9c 0e3e 9c34 1ebd 5e50 66be cbf0 d4bd
00000240: 78e1 67bd 2533 05bd cd93 c03d 656b 0bbe
00000250: 95e2 bd3d f95a 58be 735c 17bd c6cb bbbd
00000260: b46b 13be c899 d8bd 0f5d 2bbd 47e1 a53b
00000270: 90cd dfbb 684e b8bc ca0c 30bd 0d91 d5bd
00000280: b2f9 1d3e 0ef4 5b3d f582 cebb 9ee8 993d
00000290: ecc2 b6bd 2191 813b 570d 273c d309 bcbd
000002a0: 5f66 1a3e dfe4 b63d 3703 5fbe b3a8 60bd
000002b0: 7121 833d f6fb bdbc 053d 9a3d 6bf4 d23d
000002c0: 7a12 d53d a2b1 e0bc 7e06 fe3d f8ce ba3c
000002d0: 2a34 21be dfc8 fdbb fd4e a1bd 4ea8 883d
000002e0: bb85 c03c 7575 b0bd d720 00be ad89 853d
000002f0: c33d 76bd fa71 9fbc 87b7 973d 2b34 dfbc
00000300: 2f8b 0cbd cee7 26be 29c1 bc3d 88ad 37bd
00000310: 3b26 3ebd b7e7 febd 7c30 dcbd 8740 d7bc
00000320: 949c 9f3c 5f37 80bc 7781 22bd 222a ca3d
00000330: 8fdc cbbd 92dc 0bba 6483 903c e790 e8bb
00000340: 194e d0bd 466b 763d 02f9 123d 69c3 b7bd
00000350: d498 1d3e 0338 0ebe 5428 af3d c0cb a83d
00000360: 3453 27bd d250 6dbb 2196 5ebd 8776 99bd
00000370: 5e63 9ebd c95d 5bbe fe2a be3c 581b 19be
00000380: 75d6 dbbd 6ed8 7e3d 5b1b 1e3d b4d0 3cbd
00000390: 07f8 cb3d eab7 12bc 64b1 86bb 229a a53d
000003a0: 3e27 acbc 5219 2a3d b0ca 01be 9620 953d
000003b0: 1e84 5b3d afff 05be d973 7ebc ffdd b1bc
000003c0: bde4 73bc 4c21 473e 8da3 e33d 5620 a2bd
000003d0: e91f 343e b09e 143d 5d4b 8dbd 5ac7 b5bd
000003e0: 662c 953d bb8d 0a3d 310a 893c 3e98 293d
000003f0: 53fd c63d c450 51be 3479 5bbc 1d8a f0bd
-0.068390615 0.03845382 0.03023509 -0.011365545 0.037220478 0.0009033765 -0.03487402 0.12307095
-0.13733043 0.0016458699 -0.098981075 -0.08380613 0.0016019775 0.051367205 -0.0403357 0.17478414
-0.02840329 0.04592378 0.13379432 0.004370931 -0.0062046046 0.042424038 0.0507132 0.0028626444
-0.23773015 0.009900584 -0.097952284 -0.14828286 0.027807422 -0.060351532 0.102633275 -0.033631984
-0.10824323 -0.09563718 0.0101479 0.040863004 -0.15193857 0.018906036 -0.06725926 -0.030705916
-0.03247743 0.107012026 -0.004478133 -0.0061751907 -0.039189022 -0.03177972 0.06975422 0.036111385
-0.050278567 -0.06532835 -0.0013377692 -0.050505385 0.0049801273 -0.048445534 -0.036706585 -0.029582385
0.07779553 0.046896953 0.05400434 -0.04714326 0.11047999 -0.008600994 -0.014955616 -0.15856813
0.024840023 -0.06355581 0.10524514 0.025348047 0.010226891 -0.011768672 0.06428137 0.071002655
0.04463166 -0.2002832 0.026502628 0.17658044 0.07507556 -0.07078 0.015087129 0.027352683
-0.051401366 0.03808143 -0.13889311 -0.017074887 0.0900236 0.055890962 0.13384137 -0.081601225
-0.04795943 -0.049890175 0.07982048 -0.17638735 0.02395681 -0.022333486 0.014695394 0.12678649
0.009088253 -0.080568224 0.082670964 -0.0047266874 -0.11816624 -0.102643095 0.042032678 -0.10264438
-0.11074585 -0.05170733 -0.030669194 -0.1397016 0.2747239 0.101367176 -0.0070390357 0.05139045
0.1599992 0.0037131563 -0.008841604 0.043397173 0.018657282 -0.012240556 -0.1760487 0.07124097
0.029003877 0.03784311 -0.05565506 -0.06340095 -0.0018320357 -0.04115656 0.02862878 -0.15156311
-0.02781885 0.012322399 -0.16879669 -0.10100254 0.17579456 -0.043141216 0.0045136358 0.14644526
-0.022136865 0.073566854 -0.01850183 0.03558865 0.1392679 -0.03862439 -0.22491595 -0.1039749
-0.056611508 -0.03251948 0.09403191 -0.13615187 0.09271733 -0.21128453 -0.0369534 -0.09169726
-0.14396554 -0.105762064 -0.041836794 0.0050622555 -0.006829925 -0.022498325 -0.042980947 -0.10428057
0.15427282 0.053699546 -0.0063022324 0.07515071 -0.08923897 0.0039540683 0.010196052 -0.09181561
0.15078114 0.089303724 -0.2177857 -0.054848384 0.06402863 -0.023191433 0.0753117 0.10300525
0.10403915 -0.027428452 0.12403582 0.022803769 -0.15742555 -0.007744893 -0.07876394 0.066727266
0.023501268 -0.08616153 -0.12512527 0.065204 -0.060117494 -0.019463528 0.07408052 -0.027246555
-0.034312423 -0.16299364 0.0921653 -0.044843227 -0.04642318 -0.1244654 -0.10751435 -0.026275886
0.019483842 -0.015651403 -0.03967425 0.098713174 -0.099541776 -0.0005335297 0.017640777 -0.007097352
-0.10171146 0.060160898 0.035882004 -0.089728184 0.1539033 -0.13888554 0.08552614 0.08241987
-0.040850833 -0.0036211503 -0.054342393 -0.074933104 -0.077337965 -0.21422495 0.02321386 -0.14951837
-0.10734264 0.062218122 0.038600307 -0.046097472 0.09959417 -0.008954981 -0.004110502 0.08086039
-0.021014806 0.041528054 -0.12674975 0.07281606 0.053592794 -0.13085817 -0.01553055 -0.021712301
-0.014886078 0.19446295 0.11115179 -0.07916324 0.17590298 0.03628415 -0.0689914 -0.08875914
0.07283859 0.03382657 0.016728492 0.041404955 0.097162865 -0.20440966 -0.013395596 -0.11745093

network_body._body_endoder.seq_layers.2.bias f4 [128]
00000000: b454 c6bb ea48 2abd f42a eabb ae18 edbc
00000010: f72e cebc 6386 17bd ee03 513b 531c 4dbc
00000020: e55d 233b 6c88 03bd ddf3 68bd 8399 90bc
00000030: 60dc fa3c 12a8 38bd d60e 9fbc 6a04 bcbc
00000040: 0b92 ccbc 284b 82bc fd34 7ebd d24a 60bb
00000050: fbd3 eebc 3c16 47bd abf2 1fbb 6008 89bc
00000060: 6490 d93b 80f9 f13c 2ee6 adbb c21b b6bd
00000070: a228 96bd 5fb1 cebc afb1 88bc 6bdc c1bc
00000080: 9660 92bb c1a9 16bc 9905 2fbd cf02 61bc
00000090: bf09 f5bc ea7f 013c 6ce7 9dba 89c1 67bc
000000a0: 7f4b 08bd 0d36 99bc 2ba7 d5bc 4a01 263b
000000b0: 1eb0 02bd 8584 f9bc 5bb5 07bd c6c2 18bc
000000c0: 8e9b 07bd a5be 48bc f1be 93ba e028 61bc
000000d0: 8009 bebc 5e10 3fbd a483 0f3c f337 f9bc
000000e0: fee3 81bc 633b 74bb a69e 35bd 3376 dbbc
000000f0: 9046 b8bb 2e58 f4bb 45ce 12bc dafa b4bc
00000100: ef51 1fba 006e 113b f4fc 1dbd eba0 5abc
00000110: 4702 e7bb 5015 8bbc c36a f7bb 1ccc 70bc
00000120: 5480 dabc 924f 60bc 479f 80bc b937 18bc
00000130: fe48 ddbc 82de a1bd c530 2fbd c0dd 92bc
00000140: 6985 aebc 9543 48bd dd0c 87bd 0723 a3bc
00000150: b19c 7ebd dc2a 9d3c cd4d a1bd 009f 3c3c
00000160: 0ce5 95bd ce12 13bd 3910 10bd 7ee3 06bd
00000170: 2df2 e0bc 51d7 b3bb 5a21 a1bc 8660 1abd
00000180: 5d0f d63b add3 51bc 1ff6 97bc 1472 bbbc
00000190: ed8e 47bc e58e 0bbd 037f dbbc 63b5 d8bc
000001a0: 93c0 d2bc b914 4cbd 7f99 b8bd b5dc 05bc
000001b0: b222 3e3c 3fe6 893b 23ba 94bc da36 193c
000001c0: 1090 50bd 0578 aebc f57f ffba e468 183b
000001d0: d866 38bd 36e5 89bd 6a76 48bd a3d2 4b3c
000001e0: d88b 9fbd 3144 7fbd 50fa 93bd c266 fabb
000001f0: 47d1 2fbd 7a95 f6bc 6ee1 4bbc dfc4 52bc
-0.006052578 -0.041573443 -0.0071462337 -0.028942432 -0.025168879 -0.036993396 0.0031893211 -0.01251896
0.0024927792 -0.032112524 -0.05687319 -0.017651325 0.030622661 -0.04508216 -0.019416254 -0.022951324
-0.024971982 -0.015904978 -0.062062252 -0.0034224284 -0.029153815 -0.04860519 -0.0024406116 -0.016727626
0.006639527 0.029537916 -0.0053069806 -0.08892013 -0.07331969 -0.025231062 -0.016686289 -0.023664674
-0.0044670803 -0.009195746 -0.042729948 -0.01373358 -0.029911874 0.007904032 -0.0012047119 -0.0141452635
-0.033275124 -0.018702531 -0.026080688 0.0025330358 -0.03190624 -0.030458698 -0.03313194 -0.009323781
-0.033107333 -0.012252484 -0.0011272115 -0.0137426555 -0.02319789 -0.04664647 0.008759413 -0.030422186
-0.015855785 -0.0037266843 -0.044340752 -0.02678976 -0.005623646 -0.007456801 -0.008960311 -0.022092272
-0.0006077578 0.002219081 -0.038571313 -0.01334403 -0.007049832 -0.016977936 -0.007550569 -0.014697101
-0.02667252 -0.013690846 -0.01570095 -0.009290629 -0.027012344 -0.07903768 -0.04277112 -0.017928004
-0.02130385 -0.048892576 -0.0659425 -0.019914163 -0.06216115 0.019185476 -0.078761674 0.011512518
-0.07319078 -0.035906605 -0.03517172 -0.032931797 -0.027459228 -0.005488314 -0.019669224 -0.03768971
0.006532593 -0.012806815 -0.018549977 -0.022881545 -0.012180072 -0.03407182 -0.026793962 -0.02645368
-0.025726592 -0.04982445 -0.09013652 -0.008170296 0.011604952 0.0042083557 -0.018155163 0.009351457
-0.05091864 -0.021297464 -0.001949309 0.002325588 -0.045019954 -0.06733172 -0.048941053 0.012440356
-0.07790345 -0.06232089 -0.07225478 -0.007641644 -0.04292419 -0.030100573 -0.012443883 -0.012864321

action_model._continuous_distribution.log_sigma f4 [1, 2]
00000000: 1bfd cfbd 1dbd 3abe
-0.10155698 -0.18236203
