results/EatItemAgent/EatItemAgent/EatItemAgent-22682.onnx (onnx, 95068 bytes, 7 tensors)

network_body._body_endoder.seq_layers.0.weight f4 [128, 45]
00000000: 823f 10bc 7f4d 683c 903b 933d 000c 2cbe
00000010: 0999 983e 364e 693e 0cd4 8f3d 444e 6b3d
00000020: d0c7 1f3e 0247 80be d9b5 fdbd d528 973d
00000030: 2f6e a2bc 1273 193e 06ba 233e 5cd1 4fbe
00000040: aba2 453e d388 553e c356 6cbd 26bd 25be
00000050: f4ca 853c 750f bbbd f8cc 1e3e 8c82 4cbe
00000060: 5aad 58bd 3a6f 97be 4c37 7f3c 65ca 06be
00000070: 1e8c 473e cc35 a83d 3112 6fbd 38d1 7b3d
00000080: 549c 20bd 020f 9a3d b277 ca3d 7227 063e
00000090: 47f7 a8bd 54e9 4c3e 1c28 a6bd 2094 55bd
000000a0: 8d2f 843d b3fb 0ebd 9dd8 5d3e 75d3 bcbd
000000b0: 61ee 6cbd 0539 83be 5472 96be 6714 71be
000000c0: 5e73 f73d 23dd f0bc a4ba c9bc 3390 a4bd
000000d0: 08a0 0ebe 8466 a3be 0ebe 9cbd 4517 4bbd
000000e0: 5685 03be bfa9 113e 4966 e1bd 879c 08be
000000f0: ff4c 7f3e 115f dcbc 6ad1 3dbc eeb7 8bbd
00000100: d8bb 913d 6320 83be 22e9 eebd 43b4 8c3b
00000110: 775d 02be ae6d 31be 0c4a 8cbd 151b 543e
00000120: ef91 3fbe 6bde ca3e efb7 c43d 4819 86be
00000130: 67d3 20be 8cb5 0ebe da6d 8abe 2fda b7bd
00000140: 5471 ba3c 893b 4a3d 34a3 153b c6f8 383d
00000150: 7c8f cfbd 195d 563e 9ba5 1e3d fd63 4ebd
00000160: dfd6 2c3e 9d97 913c a59f 3b3e a861 ccbd
00000170: d832 bb3b f245 553d 4ac6 963e 141c 41be
00000180: d291 ed3d 76bb 1a3e fd7d 4b3d 4290 813d
00000190: f463 1ebd 9914 f23c 92ba 473e fe32 4fbe
000001a0: 3723 98be eedd a13d a5d6 313c 76fe c63d
000001b0: e6ea 8a3d ac5b 09be 366b acbd 1c76 b4bd
000001c0: 1be6 b43d 6a8f 3e3e 25e4 18bd 7409 8cbd
000001d0: 2fcd 6fbd 2985 b7be 19a3 113e 63a6 d43d
000001e0: d65c 733e 6ca9 4b3e 04cf b6bd a2a8 21bd
000001f0: 0ba3 3b3e 391d ac3e 5144 fabd 9da0 713d
00000200: 0b9d 83bd ebd3 63bd d76c 223e 1326 173d
00000210: 77d1 a93d 248f ac3d a328 ccbd f9de 4bbd
00000220: 85d8 adbd d009 193e 4df1 dd3d dd18 42bd
00000230: 9750 b83d 48ad d83d e0c0 59be 87a9 17be
00000240: b73c e9bd 4687 49be d25c afbd e653 593e
00000250: 4e46 fabd e5e8 913e bba5 9b3d 3124 4e3e
00000260: 75c5 563d cddb 9ebe bbd7 c5bd 7bfb f93d
00000270: 620f 93be 4967 f73c ee36 5dbc 209e 593d
00000280: a1c2 3a3c 97ca 0dbd 1299 753d 8a30 93bd
00000290: 16e6 7ebd e31c 03be 39fc 623e 28ca e63d
000002a0: a067 1d3d aeb5 cbbe cd15 9a3e 5e7a a1be
000002b0: bcca 1b3d f2cc 083e 7e04 aebd 1e5f 55bd
000002c0: 541d 89be 8ad8 233e 3336 493e 7188 a6bb
000002d0: 4a50 42be dddb f6bc 11ce 53be bb59 293c
000002e0: 1c83 c03d e28f 2b3e 7f0d 76bd 52c4 ca3d
000002f0: 68ca b33e 1bfc 643e ceff 003d 9370 e33d
00000300: 8f29 50be 5a10 2d3e 5b0f a9bd d0a9 91be
00000310: e26b 20bc 4e51 05bf 31ea 95bd 07b2 0bbe
00000320: ec4d 69bd e5bf a2bd d16d 37be e14f 363e
00000330: a804 2b3e 3854 1a3e e686 cb3d 0e0e 8e3d
00000340: 0a49 01be b907 2c3c d8bd ec3d c6f7 f73c
00000350: 9863 163e 6009 f4bd b982 67be dc27 fbbd
00000360: 2ca8 a53e c30d d53c 3afe 5b3e a655 cb3d
00000370: bcae 2e3c 4dc4 31bd cee0 dc3d 11dd 003e
00000380: da45 30be 9c68 10be de65 8d3d 403a 56be
00000390: e6fa 923d 1223 5f3e ef7c fbbd d2f8 98bd
000003a0: 4276 663d e807 1e3d de29 71bd e29a 6fbe
000003b0: 4647 503d 2145 a43e ab0e 1c3d 2b75 b0bd
000003c0: a409 cfbd 4820 2ebd b6dc 503e 7c21 333e
000003d0: 38d2 3d3d a57b 043e ed35 bbbd aa0c fd3d
000003e0: b226 30bc b5df 6a3e ffc1 953b baa6 17be
000003f0: 1179 083e 238b 14be 1f29 5b3c 3cff 9d3e
-0.008804204 0.014178633 0.07189095 -0.16801453 0.29804257 0.22783741 0.070228666 0.057447687
0.15603566 -0.25054175 -0.123882 0.07380835 -0.01982793 0.14985302 0.15988931 -0.20294708
0.19300334 0.20852976 -0.05769993 -0.16185436 0.016332127 -0.091338076 0.15507877 -0.19971675
-0.052899696 -0.29577047 0.015577149 -0.13163145 0.19487044 0.08213386 -0.058366958 0.061478823
-0.039211586 0.07522394 0.09886111 0.13100985 -0.082502894 0.20010883 -0.08113119 -0.052143216
0.06454382 -0.034908008 0.21664663 -0.0922002 -0.057844523 -0.2562944 -0.293841 -0.23542939
0.120825514 -0.029402321 -0.02462513 -0.08035316 -0.13928235 -0.3191415 -0.076534376 -0.04958274
-0.12843832 0.14224909 -0.110058375 -0.1334096 0.24931715 -0.0269008 -0.011585573 -0.06822191
0.071159065 -0.25610647 -0.1166556 0.00429395 -0.12730967 -0.17326996 -0.06850061 0.20713456
-0.18708013 0.39622816 0.09605395 -0.26191163 -0.15705644 -0.13936442 -0.27036935 -0.08977162
0.022759117 0.049373183 0.0022832872 0.045159124 -0.10134789 0.20933951 0.038732152 -0.050388325
0.16878842 0.01777249 0.18322618 -0.09979564 0.005712848 0.05206866 0.29448158 -0.18858367
0.11600079 0.15110573 0.0496807 0.06326343 -0.03866954 0.029550837 0.19504765 -0.20234296
-0.29714367 0.07903658 0.010854398 0.09716503 0.067830846 -0.13413876 -0.08418886 -0.0881159
0.08832952 0.18609396 -0.03732695 -0.068377405 -0.058545288 -0.3584378 0.14222373 0.10383298
0.23765883 0.19888848 -0.08926204 -0.03946746 0.18323915 0.33616045 -0.122200616 0.058991063
-0.06426438 -0.055622023 0.15861832 0.036901545 0.082919054 0.084257394 -0.09968688 -0.04977319
-0.084885634 0.1494515 0.1083704 -0.047386993 0.08999746 0.10579926 -0.21264982 -0.14810763
-0.113885336 -0.19680509 -0.08562626 0.21223411 -0.12220441 0.28497997 0.0759997 0.20130993
0.052434403 -0.3102707 -0.09660288 0.12206169 -0.28722674 0.030200617 -0.013501866 0.053129315
0.011398942 -0.034617033 0.059960432 -0.071869925 -0.062231146 -0.12803988 0.22166528 0.11269027
0.038428903 -0.39787048 0.30094758 -0.3153867 0.03803514 0.1335943 -0.084969506 -0.052092664
-0.26780188 0.16000572 0.19649582 -0.005082183 -0.1897594 -0.030134136 -0.20684077 0.010336335
0.09400007 0.16754106 -0.060071465 0.099007264 0.3511536 0.22361796 0.031493954 0.11105456
-0.20328353 0.16900769 -0.08254882 -0.2844987 -0.009791346 -0.52077186 -0.07320059 -0.13642131
-0.056959078 -0.07946757 -0.17912985 0.17803909 0.16700995 0.1507119 0.09937839 0.069362745
-0.12625518 0.010499888 0.11559647 0.030269515 0.1468643 -0.11915851 -0.2260846 -0.12263462
0.32354867 0.026007539 0.21483698 0.099284455 0.010661777 -0.043400098 0.107850656 0.1258433
-0.17214146 -0.14102405 0.06904195 -0.20920658 0.07176761 0.21790722 -0.122796886 -0.07469334
0.056265123 0.03858176 -0.05887782 -0.23398927 0.05084922 0.3208399 0.038099926 -0.08616098
-0.10109261 -0.042511255 0.20396695 0.17493242 0.04634306 0.12937792 -0.09141145 0.12355931
-0.010751413 0.229369 0.0045702453 -0.14809695 0.13327433 -0.14506201 0.013376503 0.3085879

network_body._body_endoder.seq_layers.0.bias f4 [128]
00000000: 300b dfbc bf3a e3bc 9491 ccbb 9e87 71bc
00000010: 472e fbbc 30b0 e93b 9e5a a2bc 6845 a8bc
00000020: 6178 6fbc e58a 29bc bb2e adbc cd41 52bc
00000030: 53b9 4abc e2dc 17bd 35b9 67bc cd6e 4bbc
00000040: 3e8d 6cbc 4293 bebc 52cb b23c 3289 d8bb
00000050: 0843 8ebc b542 d23b 3b84 573b 019f babc
00000060: 874b 9f3c 850e 8cbc 8d19 493b 9521 52bc
00000070: 1d62 f5bc ab6d f03b 63bd a33b f5ae 03bd
00000080: 5a2a 573b f0f3 89bc fe74 4abc 19b5 05bd
00000090: 70d6 83bc 84e9 aebc 9973 a8bc 2fa7 81bc
000000a0: 5452 963a 0b2d d2bc 576f 8b3a 0730 e93b
000000b0: 8839 babc 6216 ac3b 043e 8abc 0404 10bd
000000c0: e8ae 00bc ec2e 01bd 15e9 cbbc 8bb3 96bc
000000d0: 9ee6 83bc c3fc 6fbc 3a95 a03c a1b2 8ebc
000000e0: 38c4 8639 2216 a1bc f904 dd3a ac98 17bd
000000f0: 665e 1cbb bed7 013c 27bb 283c b8fc 69bc
00000100: dcb1 313c 0701 39bc 469f 00bd 9dfc 7c3a
00000110: 7280 5cbc b394 36bd 9724 843b 6590 233c
00000120: 5231 32ba a282 fcbc 1a4f 4a3c 9f86 4ebc
00000130: 4b90 f0bc a3b1 48bd 8af6 a8bb 3a87 ea3b
00000140: af14 8cba ae09 8bbc dffb 31bc a15d 9abc
00000150: 5529 353b 507b 9c3b 0614 af3b 38e6 35bc
00000160: 2104 5bbc 80e0 e0bc 35e1 67bc 9e32 cdbc
00000170: 20dc 36bc 1ac2 52bc 5f46 a3bb 377d 43bc
00000180: 6aeb 63bc 1b84 bebb 6d1f 91bc 14fe e4bc
00000190: 97f2 debc 4c10 70bc 2b09 c6bc c808 19bd
000001a0: 5502 95bc 2c83 90bc 649a b7bc c109 28bd
000001b0: bf59 983b 57b9 b3bc 1529 45bc 288b f1bc
000001c0: 7bac 45bd d372 88bc b991 4a3b bdac 483b
000001d0: 5bea 16bd adb0 ad38 9638 13bd ded8 993a
000001e0: b21b 91bb 224e bebb 24e7 8dba 3475 23bc
000001f0: 0227 07bc e41c aebb 7643 c13b 6155 593c
-0.027227014 -0.027737973 -0.00624294 -0.014741806 -0.030661715 0.007131599 -0.0198186 -0.020540908
-0.014616103 -0.010348056 -0.021140447 -0.012833071 -0.012373286 -0.037075885 -0.014143278 -0.012416554
-0.014437972 -0.023263577 0.021825466 -0.006608152 -0.017365947 0.0064166435 0.0032885212 -0.022780897
0.019445194 -0.017096767 0.0030685395 -0.012825389 -0.02995401 0.007337292 0.004996942 -0.032149274
0.003283164 -0.016839951 -0.012356995 -0.03264341 -0.016093463 -0.021351583 -0.020562934 -0.01582679
0.0011468627 -0.025656244 0.001063804 0.007116321 -0.022732511 0.0052516917 -0.016875274 -0.03516008
-0.007854201 -0.03153889 -0.024891416 -0.01839616 -0.016101178 -0.014647665 0.019602407 -0.017419161
0.00025704666 -0.019663874 0.0016862444 -0.037010834 -0.0023859977 0.007924972 0.010298527 -0.014281444
0.010845628 -0.011291749 -0.031401895 0.00096506794 -0.013458358 -0.044575404 0.004032682 0.009983157
-0.00067975104 -0.03082401 0.012347961 -0.012605338 -0.02936568 -0.048997533 -0.005156343 0.0071572335
-0.0010687317 -0.01697239 -0.010863273 -0.018843474 0.0027643044 0.004775442 0.005342963 -0.011102252
-0.013367684 -0.0274508 -0.014152815 -0.02504855 -0.01116088 -0.01286366 -0.004982754 -0.011931709
-0.013911108 -0.005814088 -0.01771518 -0.027953185 -0.027215285 -0.014652323 -0.024174294 -0.03736189
-0.018189589 -0.017640673 -0.022412486 -0.041024927 0.0046493704 -0.021938963 -0.0120337205 -0.0294853
-0.048260193 -0.016656315 0.0030909611 0.0030620538 -0.036844593 8.282191e-05 -0.035942636 0.0011737605
-0.0044283504 -0.005807654 -0.0010826332 -0.009976674 -0.008249046 -0.0053135026 0.0058979345 0.013264985

network_body._body_endoder.seq_layers.2.weight f4 [128, 128]
00000000: 9ee4 14be d495 663d 0046 d63c 4a36 ae3d
00000010: 7c76 7cbc 5a8f 9bbc 0582 8ebc f0b2 273c
00000020: f8c6 3fbd 94a2 e5b9 4f97 28be 7407 12bd
00000030: b6fd 7c3b f20e 0f3e 7172 b7bd 718d b13c
00000040: 9188 d63d 8561 43bd fdb0 73bd 017f 1dbd
00000050: c524 c03b a950 233b 1f22 27bc a1e0 acbd
00000060: 6e07 593e f2e7 6f3d c0c1 f1bc 8ba7 af3c
00000070: c21a b3bb 2c31 86bd f086 94bd 97df 20bd
00000080: 6ca1 87bd 1ceb 7ebd ed9d 303d c0c7 433d
00000090: 4eb5 7d3d ecbe 0bbe 1e94 c33d 4c6b 093d
000000a0: 0d20 2abe e907 1bbc dbf0 9e3d 088c c63b
000000b0: 61a1 5e3d 93f9 183c 3e19 cfbd 673f 113e
000000c0: b3ed bcbd ad7e 143d 6ceb 103d 1f62 01be
000000d0: 3739 26bd f42e f9bd 7bc8 9fbd d27c 99bd
000000e0: fdde 523d c15a 43bd c82f c3bd 51e1 f03d
000000f0: 9b01 3fbd 16a4 00bd 67f0 9f3c f618 63bd
00000100: 847a 07bd cee0 93bd ec96 c1bc d366 283c
00000110: 8a37 dc3b ded9 153c db42 ccbd ab52 aabc
00000120: 3746 9bbd f785 743c 0b69 0d3d 9e1a aabd
00000130: 6837 03be e898 aa3d 3456 99bd a3bf a8bd
00000140: f0e7 ebbc d593 bebd 6a70 9dbb fd5c 3dbe
00000150: ecf9 363d 8a62 f33c 2728 aebd 5c11 153e
00000160: 6f6a da3d bafd cabc 99eb 0b3d 122f 9e3d
00000170: d52f 0e3d 6615 f03c cac7 61bd bd10 f33d
00000180: 060a 1cbd 40de 78bd 267e 493d f92a dbbd
00000190: c846 833d 32e8 90bd 3cd0 2a3e 53c0 c03c
000001a0: 4677 36be 8bd4 97bd 74c9 9f3d 24b1 e5bd
000001b0: 5c06 0b3e b776 2c3e bf6a 52bc 795b a53d
000001c0: 8e71 e9bd a61d cebd 5f61 4cbe bd4f f23d
000001d0: 1776 513a 56f3 d53c ad44 f93b 98d0 0bbe
000001e0: 62b2 93bd 736a 04be 24f4 07bd 3702 603e
000001f0: dff7 97bc d040 85bd 4f19 1a3c 0111 31bc
00000200: 33b3 26be aef6 c43c 3bff 20be 554d 533b
00000210: 89a2 a33d 02bc 09bb 276e 4a3d 20bf e03d
00000220: 29a3 d4bc 98d3 fdbc 29a1 88bd ddb5 35be
00000230: 3aef d4bb 9335 053b c931 bebd c821 92bc
00000240: 819b ac3d 0522 a7bc 6d58 023d 2310 403d
00000250: 1a1d 8cbb f9e1 233d 6181 73bd 3cba 8d3d
00000260: 5de5 6fbe 09e1 7bbb 68bf 933d d77a 633e
00000270: 57ea e8bc d6e3 a1bd bf04 26be 0ee3 f5bd
00000280: 5d5b d4bb 3e57 9abd ddec b9bd bfec 6d3d
00000290: d919 233e 3ee3 5d3d 6945 dc3b fcc9 153e
000002a0: eff4 7dbd 21ed 3b3a 5bd0 c33c 2b14 c0bd
000002b0: 23ee bdbd 4087 37be 2a4b ccbd a4db 793d
000002c0: a535 033d 4da9 b8bd 65db 85bc 439f 093c
000002d0: 7aed 0ebc 384f dd3b c58a 7e3c 1def 02bd
000002e0: 0fe8 db3c bb8e 8bbd b6f5 46bc de0e 25be
000002f0: 0796 133d b1df 15bc e99d 6a3c 90a0 d5bd
00000300: 5a8d 2b3d 3e0f a8bc b26a a73d 7e78 aabd
00000310: 7e18 323e 155f 71bd c2ee b03a 3e3e 90bd
00000320: 8d46 6fbe e6c1 063e dbcd 4c3e fabb ce3c
00000330: 8ff8 bb3d af61 11bc 3fa1 ddbd b9a2 19be
00000340: a09a 363e 77e6 41bc a527 51be f8cf 883d
00000350: 5196 413c 1e06 0d3d be8b 463d 1fe4 693d
00000360: c2cc 3a3d 9d2e 6bbd 800a e03d b051 a3bd
00000370: bd52 913d 3a3e d2bd 21b7 383d fa35 61bd
00000380: faad 10bd 0865 21bd 1565 95bd 604f 033d
00000390: 4671 143e 0185 fe3d 8373 bfbd 9b4a bb3d
000003a0: ec00 a9bd 23de a0bd a756 5b3e 6357 cebd
000003b0: 9138 a33d b217 99bd 2822 e7bd eae2 5b3d
000003c0: f39b fcbd 6eee f9bd ea36 30be cb11 8e3d
000003d0: b103 8b3d 3094 2a3d 768a 9abd fab8 483d
000003e0: d0f3 e3bd 4390 413a a16f 513d b6b6 dbbd
000003f0: 03c5 8f3d 2bdd 87bd 5f26 c8bc 7e0c 0cbd
-0.14540336 0.05629523 0.026156425 0.085064486 -0.015409108 -0.018989254 -0.017395983 0.010235533
-0.04682061 -0.00043799414 -0.1646397 -0.03565164 0.0038603372 0.13970545 -0.08957375 0.02167389
0.10475267 -0.047700424 -0.05949496 -0.0384512 0.0058637583 0.0024919903 -0.010201006 -0.08441282
0.2119424 0.05857081 -0.029511333 0.021442195 -0.0054658363 -0.065523475 -0.072523 -0.039275732
-0.06622586 -0.062235937 0.04311936 0.04779792 0.061940484 -0.1364705 0.095497355 0.033549592
-0.16613789 -0.009462335 0.07760783 0.0060591735 0.05435312 0.009336847 -0.101122364 0.14184342
-0.09225025 0.03625362 0.035380766 -0.12635086 -0.040581908 -0.12167159 -0.078019105 -0.07494511
0.05148219 -0.04769397 -0.09530598 0.11761726 -0.04663239 -0.031406485 0.019523812 -0.055443726
-0.033075824 -0.072206125 -0.023631535 0.010278421 0.006720488 0.009146182 -0.09973689 -0.020791372
-0.07581752 0.014924518 0.034524005 -0.08305858 -0.12814105 0.08329946 -0.07487145 -0.08239677
-0.02879712 -0.093055405 -0.0048046606 -0.18492503 0.044671938 0.029710073 -0.08503752 0.14557403
0.10664832 -0.02477919 0.03416023 0.07723822 0.034713585 0.029307079 -0.055122174 0.11868427
-0.038095497 -0.06075883 0.04919257 -0.10701556 0.06409985 -0.07075538 0.16680998 0.023529207
-0.17818937 -0.07413586 0.07802096 -0.112154275 0.13576645 0.16842161 -0.012842833 0.08074088
-0.11398612 -0.10064249 -0.19959019 0.11831615 0.0007990314 0.026117008 0.0076070637 -0.13653791
-0.07211758 -0.12931232 -0.033191815 0.21875845 -0.018550811 -0.06506503 0.009405448 -0.010807277
-0.16279297 0.024043407 -0.15722363 0.0032242138 0.079899855 -0.0021016602 0.049421456 0.10973954
-0.025956707 -0.030984685 -0.06671364 -0.17745157 -0.0064982446 0.0020326122 -0.092868395 -0.017838374
0.084280975 -0.020401964 0.03182261 0.04689039 -0.00427593 0.040010426 -0.059449557 0.06920287
-0.23427339 -0.0038433692 0.07214242 0.22214828 -0.028432054 -0.079047844 -0.16212748 -0.12006198
-0.006480618 -0.075361714 -0.09078381 0.058087107 0.15927829 0.054171793 0.0067221415 0.14627832
-0.062001165 0.0007168819 0.023903063 -0.09378847 -0.092739366 -0.17922688 -0.09975274 0.06100048
0.03203358 -0.090166666 -0.016339967 0.008399787 -0.008723611 0.0067538284 0.015536015 -0.031966317
0.026844053 -0.06814333 -0.012143543 -0.16118953 0.03603175 -0.0091475705 0.014319875 -0.104310155
0.04188285 -0.02051508 0.081746474 -0.08323763 0.17392156 -0.058928568 0.001349889 -0.07043122
-0.23366757 0.13159904 0.20000403 0.025236119 0.09178268 -0.008873387 -0.10821771 -0.1500348
0.17832422 -0.011834732 -0.2042528 0.06680292 0.011815623 0.034429662 0.048473112 0.05710232
0.04560543 -0.0574175 0.10939503 -0.07974565 0.07095859 -0.10265775 0.04509652 -0.054983117
-0.035322167 -0.03940299 -0.072946705 0.03205812 0.14496335 0.12427712 -0.09348204 0.09145089
-0.08252129 -0.07854869 0.21419774 -0.100752614 0.079697736 -0.07475223 -0.11285812 0.0536832
-0.123344325 -0.1220368 -0.17208448 0.069369875 0.067878135 0.04164523 -0.075459406 0.049004532
-0.11130488 0.00073838624 0.05113185 -0.10728209 0.07019999 -0.06633981 -0.02443236 -0.0341916

network_body._body_endoder.seq_layers.2.bias f4 [128]
00000000: 6ae1 9bbc 695f d6bc cfb4 53bc 3ab8 72bc
00000010: b519 dcbc ea51 c9bc d508 c2bc 8127 9fbc
00000020: 3324 8dbc 6ee0 aabc 5bd7 a4bc 79e6 b7bc
00000030: cb14 7fbc 9863 bcbc 4734 0dbc 92e0 a4bc
00000040: 680f c6bc f214 bcbc d31f 62bc 5967 8ebc
00000050: 7c1f d9bc d7f9 8cbc a620 8fbc 8751 70bc
00000060: 2ef5 c7bc 70a0 06bd e625 c2bc 0e2b 52bc
00000070: 2009 e1bc 2490 c8bc b7ba 9abc 31b9 00bd
00000080: 2b5b 90bc 8290 433a 910a a3bc 35c2 e0bc
00000090: b3dd b5bc 9098 a138 bc39 b2bc c8a4 82bc
000000a0: 0966 cfbc ec20 b3bc 7921 22bc 6a28 0dbd
000000b0: 5a8d e5bc 6f74 4dbc e731 09bc aa22 cebc
000000c0: cfa8 6fbc a2fc 6fbc 86e1 0fbd 603a eabc
000000d0: 8ada b6bc 64c7 9ebb 7750 0dbd 9619 fabc
000000e0: 96b9 cabc 5e71 aebc 1c0e 14bd 8f1e a5bc
000000f0: 309b 17bd 1842 96bc abe0 80bc 6066 ddbc
00000100: ea28 21bc 30a1 17bc 9026 02bc 42d7 bcbc
00000110: f79a 19bd d74f 91bc b1e5 11bd b1cf bfbc
00000120: 540e 21bd db10 10bd 4938 9abc fb28 9fbc
00000130: 8612 86bc 7555 4bbc 7028 82bc 5fd6 b8bc
00000140: 9c4e 85bc 3d8a 12bc df4d cabc 0f3e adbc
00000150: 7fd2 0bbd 78f0 a5bc 253a b6bc 32c2 04bd
00000160: ce25 abbc a617 afbc 3108 c7bc 5c7e aa3a
00000170: 5e65 bcbc 0df7 aebc be97 33bd 6550 4dbc
00000180: f932 17bd d69a 2cbd 6d16 a7bc bfde cabb
00000190: 38a2 ebbc 69ca 26bd d6d7 dcbc 9352 99bb
000001a0: c3f0 ffbc df26 adbc 0a65 cdbc a7e6 07bd
000001b0: 9f26 ecbb c5c0 8739 7c59 b6bc a1ab dabc
000001c0: 24c8 84bc 5ce9 11bc 00bf 8ebc 2545 963b
000001d0: 8001 cbbc 2364 37bd 94b0 94bc 307e e2bc
000001e0: 45aa febc 3834 b4bc 99ca a0bc 55c1 fbbc
000001f0: d2c3 42bc c7db 393a ef0a 8dbc 220a efbb
-0.019028384 -0.026168542 -0.012921526 -0.014814431 -0.026867727 -0.024575192 -0.023685852 -0.019428017
-0.017229175 -0.02085897 -0.02012222 -0.022448765 -0.015568922 -0.022996709 -0.008618421 -0.020126615
-0.024177268 -0.022959206 -0.013801533 -0.017383264 -0.02650427 -0.017208977 -0.017471623 -0.014667875
-0.024408903 -0.03286785 -0.023699712 -0.012827648 -0.027470171 -0.024482794 -0.01888786 -0.031426612
-0.017621597 0.0007460193 -0.0199025 -0.027436355 -0.022200441 7.705495e-05 -0.021756046 -0.015947714
-0.025317209 -0.021866284 -0.009895676 -0.03446237 -0.028021503 -0.012539967 -0.008373714 -0.025163013
-0.014627649 -0.014647635 -0.035127185 -0.028592288 -0.022321004 -0.0048455466 -0.034500565 -0.030529778
-0.024746697 -0.021294292 -0.03614627 -0.020156173 -0.037013233 -0.018342063 -0.01573213 -0.027026355
-0.009836415 -0.009254739 -0.007943764 -0.023051862 -0.0375013 -0.017738266 -0.03561944 -0.023414465
-0.039320305 -0.035172325 -0.018825667 -0.01942872 -0.016366255 -0.012410511 -0.015888423 -0.022563158
-0.016272835 -0.008944091 -0.024695335 -0.021147756 -0.03413629 -0.020256266 -0.022244522 -0.03241176
-0.02089205 -0.021373581 -0.024295898 0.0013007629 -0.022997554 -0.021358037 -0.043845885 -0.012531375
-0.036913846 -0.04213985 -0.020396436 -0.006191104 -0.028763875 -0.040720377 -0.026958387 -0.004679033
-0.031242734 -0.0211367 -0.025072593 -0.03317895 -0.0072067524 0.0002589283 -0.022259466 -0.026693167
-0.016208716 -0.008905735 -0.01742506 0.0045858794 -0.024780989 -0.044773232 -0.018150605 -0.027648062
-0.03108705 -0.021997556 -0.019627856 -0.030731836 -0.0118875075 0.00070899393 -0.017217128 -0.007294909

action_model._continuous_distribution.log_sigma f4 [1, 2]
00000000: 2567 e1b9 b237 ffbc
-0.00042992193 -0.031154487

action_model._continuous_distribution.mu.weight f4 [2, 128]
00000000: 5869 acba a247 df3a 062e 393c 084e b4bb
00000010: ca0b a33a de98 e43a 6207 6b3b 19d7 683b
00000020: 2ea3 e63c 5100 81bb 4ffa 3839 6bf2 9bba
00000030: 23dc 8e3c af5e 21bb 24ad 2abb a8a1 3fbc
00000040: 8c13 043b 8368 0fbb 7087 e6bb c044 623c
00000050: bcd0 f33b d95b c03b c162 1ebc 9ccc 4dba
00000060: f73a ba39 b857 9bba f621 a13b 7eb3 02ba
00000070: ba91 24bb 86bc 403c afcf 893b a6ec b8ba
00000080: 804c fe3b 89e8 e23b 843f f23a 6c92 2f3a
00000090: 2372 a5bc 639a 0f3c 6d6d 273b f606 e6b9
000000a0: 8b0d a83b 761e 263b 3dbc 833b 9cab bf37
000000b0: d81a 9dba ec72 17bc f4d6 ce3c 8281 c03b
000000c0: e2d3 d73b 920d c93c 4659 6a3a 84a2 8fbb
000000d0: 8935 3c3a c8b3 7ebc d260 113c e82d 033a
000000e0: 3be4 2d3b 415a 05bb 75ad 9bbb e444 bbbb
000000f0: 983d b7ba b9dc f33b ac5b 25bc 2987 9e3b
00000100: 5ca2 333c e8b0 0e3d d34d 82bb c1b6 3839
00000110: a9f8 e83a 0c07 143b b61a ef3a acb4 d73b
00000120: a5c9 0a3c 51ff 703b faa5 febb 3e86 133b
00000130: e12e 983b b691 f538 7c6b 503c 6589 163c
00000140: 9949 2d3b 57ea 313b 6acc 14bb a57e 3dbb
00000150: 6071 7f3b f365 083b d393 2dbc 0e29 893b
00000160: 6ffa c0bc 9648 f3ba a940 fe3b 7b00 703c
00000170: 86e6 b33a 8584 563b e751 e3b9 3a77 0c3a
00000180: 0df0 3bbb fda3 de3a 7d61 223b 524d 5b3c
00000190: af87 9e3b dad0 1fba cb4a 1f3b 5402 46bc
000001a0: 20bb e6ba 87b0 3fbb a55c dc3b 2117 acba
000001b0: 98dc 283c 775f 51bc fe20 7dbb 9c81 463b
000001c0: f4c7 bbbb 7462 03bc f080 b9bb 365f b4bb
000001d0: 3b67 44ba b050 ffba b5bb 4f3c 072d 823b
000001e0: 456c 2b3c 7787 26ba 0575 1f3b d97a 183a
000001f0: d69f 18bc 9ac0 f0b9 e3bc ff3b 546c 923b
00000200: 9c30 a3bb 8aff 94ba 466b 903c 73e9 5739
00000210: 3ce8 2f3b 4b88 2aba 8d22 1b3c 711a f23b
00000220: 4aa4 343a 7fe3 5fbc 491a eabb a8fa 2ebb
00000230: 8874 48ba 4adf 38bb 38b3 38bc b201 6b3b
00000240: a553 0d3d a48e e23b 28b6 9fbc 07ac 373c
00000250: d739 043b 8107 e83a c1a6 1dbb 4d9a 8fbb
00000260: 019c 523b d422 0cbb 85fd 3d3b dcf0 4b3c
00000270: 48d7 a23b 6bcf 2c3c d41c 553a 0b45 a63b
00000280: 41e5 4ebb c42d f2bc 10f7 85bb 8595 043b
00000290: 6adf 473c ebd9 61bc 013f 8bbb c9bc 56bc
000002a0: afbf 7eba 5939 c53a 02e9 17bc 50c0 113a
000002b0: b9c2 1d3b f2d1 a13b 0610 30bc 8920 bb3b
000002c0: c8b5 713b 709c 063c e315 76bb c42c 943a
000002d0: 5821 1639 3c18 67bc 1bfd 9a3a 4723 7ebb
000002e0: 516a 803a c7b2 90bc aacd 5b3b 474e 28bb
000002f0: a39c c53a ef4a 9dba 85fa 623c a222 9b3b
00000300: 9920 d8bc 7c87 51bc 2ab3 2cbc 0c7b 9eb9
00000310: 2bd0 abba 6a67 24bb 7c6b 093a ace4 89b9
00000320: 1dc6 433a 02ac a53b c304 43bc 7ea2 9cbc
00000330: d83a 22bc 00a9 02ba 6678 ffbb 6fc7 833c
00000340: e6c6 09bc 37f0 67bc 2f3d 2e3c 5b68 2bbc
00000350: 37ef 6fbb 8b15 99bc e4f3 febb 480b 9e3a
00000360: 9303 703b f170 9c3b f262 123a 6c89 8cbc
00000370: 3758 8f3b b3e6 9dbb 9dd0 2e3a cb38 713b
00000380: b41d 7dbb 95f6 7eba 860b 1f3b 7d96 12bc
00000390: e8c0 51ba 7c07 31bb c4f2 99ba f64c 36bc
000003a0: 2693 553a abb7 5ebb ad2f b73b 5cbb e23b
000003b0: dca1 78bc 6c2f cfbc b3c7 39bc 5a87 2aba
000003c0: bf42 ffbb ae76 b53c e9ce d63b fac6 d9bc
000003d0: f285 9cba 8ec1 dbba 0caa 073c 9728 d73a
000003e0: c27d c53b afb9 b3ba 08b4 c7bb d69f f33b
000003f0: 8738 b93c 21aa e9bc 95e4 7e3c ed26 84bc
-0.0013153953 0.0017034898 0.011302477 -0.005502466 0.0012439427 0.0017440578 0.0035862555 0.0035528599
0.028153982 -0.0039368053 0.00017640855 -0.0011897808 0.017438954 -0.0024623086 -0.0026043141 -0.011696257
0.0020153252 -0.0021882362 -0.0070351884 0.013810337 0.0074406546 0.005870324 -0.009667099 -0.00078506186
0.00035520617 -0.0011851704 0.0049173785 -0.0004985853 -0.0025111274 0.0117636975 0.004205666 -0.0014108613
0.0077605844 0.006924693 0.0018482064 0.0006697539 -0.020196026 0.008764836 0.00255474 -0.00043874205
0.0051285676 0.0025347746 0.0040202425 2.2848886e-05 -0.001198615 -0.009243708 0.025248982 0.0058748135
0.0065865377 0.024542604 0.00089396944 -0.004383387 0.0007179608 -0.015545793 0.008873181 0.0005004094
0.002653374 -0.0020347985 -0.0047509023 -0.0057149995 -0.0013980148 0.0074420837 -0.010092657 0.0048378897
0.010964002 0.03483668 -0.0039765625 0.00017615689 0.0017774302 0.0022587208 0.0018242213 0.006582817
0.008470927 0.0036773274 -0.007771251 0.0022510435 0.0046442603 0.00011709651 0.012720939 0.009188031
0.0026441573 0.0027147734 -0.0022704848 -0.0028914597 0.003897749 0.002081272 -0.010594326 0.0041858023
-0.023556916 -0.0018561061 0.007759173 0.014648552 0.0013725318 0.0032732796 -0.00043357836 0.00053583423
-0.0028677017 0.0016986128 0.0024777346 0.013385134 0.004837952 -0.000609649 0.0024306055 -0.012085516
-0.0017603375 -0.0029249506 0.0067249113 -0.0013129452 0.0103065 -0.012779108 -0.0038624401 0.0030289656
-0.0057306234 -0.0080190785 -0.0056611225 -0.005504514 -0.0007492189 -0.0019479003 0.01267903 0.003972653
0.010462825 -0.00063525833 0.0024331224 0.00058166456 -0.009315452 -0.00045919867 0.0078044995 0.00446848
-0.00498016 -0.001136766 0.017629277 0.00020590964 0.0026841303 -0.00065052946 0.009468687 0.007388406
0.0006890936 -0.013665079 -0.0071442467 -0.0026699696 -0.0007646759 -0.0028209263 -0.011273198 0.0035859165
0.034503598 0.0069139767 -0.019496039 0.011210448 0.0020176077 0.0017702432 -0.0024055692 -0.0043824078
0.0032136443 -0.0021383064 0.002899022 0.012447562 0.004969511 0.010547499 0.0008129601 0.0050741485
-0.0031569751 -0.029562838 -0.00408829 0.0020230722 0.012199262 -0.013784866 -0.004249454 -0.013106533
-0.0009717894 0.0015046998 -0.009271862 0.0005559968 0.0024072363 0.0049383575 -0.010746008 0.0057106656
0.0036882032 0.008216009 -0.0037549667 0.0011304845 0.00014317536 -0.014104899 0.0011824699 -0.003877835
0.000979731 -0.017663373 0.0033539333 -0.0025681423 0.0015076589 -0.0012000481 0.013853674 0.004734353
-0.026382731 -0.01278865 -0.010540763 -0.00030227785 -0.0013108304 -0.0025086054 0.00052421517 -0.0002630105
0.0007468181 0.0050559053 -0.011902991 -0.019120451 -0.009901725 -0.00049842894 -0.007796335 0.016086308
-0.0084092375 -0.014156393 0.0106347045 -0.010461892 -0.003661109 -0.01868703 -0.007780539 0.0012057805
0.0036623224 0.004774206 0.0005584202 -0.017155372 0.0043745297 -0.0048187613 0.0006668659 0.0036807533
-0.003862244 -0.00097260746 0.0024268343 -0.008947012 -0.00080014626 -0.0027012518 -0.0011745323 -0.011126747
0.0008147232 -0.0033983986 0.0055904 0.0069193076 -0.015175309 -0.025291167 -0.011339116 -0.00065051543
-0.007789939 0.022151317 0.0065554273 -0.026584137 -0.0011941774 -0.0016766058 0.008280288 0.0016415295
0.0060269544 -0.0013711954 -0.0060944594 0.0074348254 0.022609962 -0.028523507 0.015557428 -0.016131843

action_model._continuous_distribution.mu.bias f4 [2]
00000000: d71d 09bb db30 96bc
-0.0020922327 -0.018333843
