results/EatItemAgent/EatItemAgent/EatItemAgent-19734.onnx (onnx, 496184 bytes, 19 tensors)

network_body.observation_encoder.processors.0.self_ent_encoder.seq_layers.0.bias f4 [128]
000000 b5 34 26 3c 0b c7 5d 3c 98 59 49 bc 30 0a 1d bc
       0.010144402 0.013536225 -0.012289427 -0.009584948
000010 c9 e7 3b bc 56 67 a3 3b 0a af 86 b9 37 f8 30 3c
       -0.011468836 0.004986684 -0.00025688886 0.0108013665
000020 0e 39 07 3c ac 65 f3 3b 6f 85 7b 3b 1d 3f b7 3b
       0.008253349 0.0074278917 0.0038379093 0.0055922405
000030 be 4a e8 39 9e 19 84 3c 51 83 c7 3b 38 8e 78 ba
       0.00044306176 0.016125496 0.006088652 -0.00094816415
000040 de 08 77 b9 4d 0b fc 3b 80 51 22 3a 36 6b b9 bb
       -0.00023559059 0.007691777 0.0006191954 -0.0056585325
000050 94 28 e6 3b d5 c3 44 3c 78 01 d9 3a 70 d3 39 bc
       0.0070238803 0.012009581 0.0016556224 -0.011341915
000060 1e 8c f2 3b c7 5a 07 bc 3f b6 27 3b e9 b3 6b 3b
       0.007401957 -0.008261389 0.0025590805 0.003596539
000070 02 f7 51 3a 23 58 9f bc d4 5b c3 3b 49 c3 a3 bc
       0.00080095243 -0.019451207 0.0059618745 -0.01999058
000080 da 7b d8 bb ac a6 42 bc de dd 11 3c 01 6c 68 3b
       -0.006606561 -0.011880558 0.008902995 0.0035464766
000090 9c b8 28 3b 09 62 73 3c 59 51 95 bc de f8 49 3b
       0.0025744801 0.014854916 -0.018227266 0.0030818502
0000a0 53 14 26 3c 31 ba ae bc e5 19 1f bc ee 5d 41 3c
       0.010136682 -0.021329017 -0.009710764 0.01180218
0000b0 10 e4 6a 3c 20 81 1f 3c a1 1b 1e 3c d1 ee c1 bb
       0.014336601 0.009735376 0.009650142 -0.0059183617
0000c0 b9 4e 99 b9 35 a9 86 3b 72 d8 df bb cc e8 bc 3b
       -0.00029241087 0.0041095265 -0.006831222 0.0057650562
0000d0 e6 e9 2c 3b 1e cb fd 3b 16 9c 1a 3b 0b 37 4e bc
       0.0026384532 0.0077451607 0.002359157 -0.012586365
0000e0 02 f4 ac 3a 27 58 a3 3c 6e c6 47 3c 18 56 79 3c
       0.0013195279 0.019939495 0.012193305 0.01521828
0000f0 2f 79 43 ba e5 08 9c 3c 1e b0 88 3c 2c 36 48 bb
       -0.00074567174 0.01904721 0.016685542 -0.0030549867
000100 64 e9 13 3c 14 88 4e bb 90 02 f4 3b 19 ae ac bb
       0.009027813 -0.0031514214 0.0074465945 -0.0052697775
000110 56 5e 33 bb 31 96 60 3c f6 6a 4c 3c 6f d7 ce ba
       -0.002736946 0.013707683 0.012476673 -0.0015780757
000120 e6 fb 36 3c d3 69 ed ba 26 f8 2a bb 2b 84 f7 3b
       0.011168456 -0.0018113203 -0.002608785 0.0075535974
000130 b8 34 d0 3c 55 ed 31 b9 e1 30 9f bb 91 d2 0c bd
       0.025415763 -0.00016968448 -0.0048581217 -0.0343805
000140 4e 47 ab bc 14 26 f4 3a e3 30 cb bc 20 37 81 b6
       -0.020908024 0.0018627071 -0.024803584 -3.850917e-06
000150 c9 58 9d 3b e5 75 29 3c a5 90 39 3c 9a 50 01 3c
       0.004801844 0.01034305 0.01132599 0.007892752
000160 f9 06 34 bc 93 b1 bd bb 9e 10 4d bb cb 90 5f 3c
       -0.010987991 -0.0057889908 -0.0031290422 0.013645361
000170 b6 ab a4 bc 1a e9 c8 3b b7 36 ff ba 01 d7 0a 3c
       -0.02010141 0.0061313035 -0.0019471262 0.0084741125
000180 8b fd 84 bc f0 21 8c 3c 19 75 b2 3c 4a 35 32 3b
       -0.01623418 0.017106026 0.021784352 0.0027192407
000190 29 d8 d3 3b 60 50 5d 3b bf 0d e6 3b ea 2d b5 3b
       0.0064649773 0.003376983 0.0070206816 0.005529155
0001a0 fe 48 c0 bb c4 77 92 bb 6e 60 4b 3c d6 fd 08 bc
       -0.0058680763 -0.0044698436 0.012413127 -0.0083613
0001b0 cb e9 86 3b ce 62 89 bc f4 e7 78 3c 59 34 ea ba
       0.0041172258 -0.016770747 0.015192021 -0.0017868384
0001c0 1f 3b 7f bc b1 96 85 3b 0d fc ea bb 4e 02 db 3b
       -0.01557806 0.0040768017 -0.00717116 0.0066836243
0001d0 38 77 99 3c 95 b6 28 3b f9 2e be bc c0 57 ec 3b
       0.018733606 0.0025743593 -0.023215758 0.007212609
0001e0 1b 2d cc 3b 35 7c 63 bc 70 b0 22 ba 15 34 37 3c
       0.006230963 -0.013884594 -0.0006206101 0.011181851
0001f0 69 88 a0 3c 7c 1c 43 bc 42 48 4b 37 b2 26 75 bc
       0.019596295 -0.011908647 1.2116567e-05 -0.014962839

network_body.observation_encoder.rsa.fc_q.bias f4 [128]
000000 60 42 d2 3b ed d8 f1 3b da a6 62 3b 17 3a 3b 3a
       0.006416604 0.007380596 0.0034584315 0.000714214
000010 42 85 0e 3c 28 4d 39 3c cb e8 ea bb 2d 3f cf 3b
       0.008698763 0.011309899 -0.0071688644 0.00632467
000020 b1 79 5c 3b af 04 58 3b 32 5b ec 3b 96 fd c7 3b
       0.003364187 0.0032961776 0.0072130198 0.006103228
000030 19 f5 b4 bb 40 4c 7c bb 7f 3a 6e 3b 34 7e 2f 3c
       -0.005522382 -0.0038497597 0.0036350784 0.0107112415
000040 50 77 25 bc 08 2b 26 3c 76 1b 9b 3c e8 1a b8 3b
       -0.010099247 0.010142095 0.018933993 0.005618442
000050 a6 50 17 3c b2 f0 18 3b 0c 08 c3 3c 4a c7 a7 bb
       0.009235537 0.0023336825 0.023807548 -0.0051201927
000060 19 cb 23 bc 2a 4e e5 3c 8a 99 01 3a 7a 23 9e 3b
       -0.009997153 0.027991373 0.00049438386 0.0048260065
000070 9d ca 08 bc 93 79 84 3c 57 d8 12 bc cb 9e 18 3c
       -0.008349088 0.016171252 -0.008962712 0.009315203
000080 11 e9 38 bc 9e 41 bd bb d8 11 04 bc 62 f4 8c 3c
       -0.011286036 -0.0057756444 -0.008060895 0.017206375
000090 f4 8b 4d 3b 29 22 28 3c 73 8f ad 3c 27 23 7f 3c
       0.0031363936 0.010262051 0.021186566 0.015572346
0000a0 ec 71 3e bb f8 fa c8 bc 5e 5c a3 38 b1 53 42 bc
       -0.0029059602 -0.024533734 7.7896504e-05 -0.011860774
0000b0 1e 2f 9d bb a8 5e d1 ba a9 75 30 bc a3 7c b9 bc
       -0.0047968766 -0.0015973644 -0.01077024 -0.02264244
0000c0 99 6c 3b 3c a8 51 cd bb 05 d6 da bc 79 cb 1f bb
       0.011439466 -0.0062658377 -0.02671338 -0.0024382754
0000d0 97 bf 5f bc 0e 19 02 bc c1 11 04 3c 70 ba 61 3c
       -0.013656518 -0.007940544 0.0080608735 0.01377736
0000e0 16 98 1d 3c a3 95 16 3c ff b8 4c 3b 09 97 c8 3c
       0.00961878 0.00919095 0.0031238196 0.024486082
0000f0 39 c7 bd bc 3b 23 21 bc 7c e2 58 3c 4d d0 1d 3c
       -0.023166286 -0.00983506 0.013237592 0.009632182
000100 7f 26 74 bc 46 9f 22 bd 22 9b f5 3c d5 a7 d8 3c
       -0.014901756 -0.039702676 0.0299812 0.026447216
000110 a9 55 07 3c 4e 73 e2 bc 74 6f 32 3c 79 9c ca 3a
       0.008260169 -0.027642872 0.01089083 0.001545801
000120 80 c9 f2 3b 74 eb 65 bc 24 75 09 3c 1f bb 16 3c
       0.0074092746 -0.014033187 0.008389745 0.009199887
000130 43 0a 37 bb 96 9a d0 bc 37 eb e3 3c 75 4c ed 39
       -0.00279297 -0.025464337 0.02782212 0.00045261128
000140 9c 31 53 3c 61 27 aa bc e5 e9 59 bc 55 50 df bc
       0.012890246 -0.02077073 -0.013300394 -0.027259985
000150 fc 42 9a 3c 34 0d cc 3c dd 7e 30 ba e3 26 78 3b
       0.018830769 0.02490864 -0.0006732771 0.0037864975
000160 ac a0 5d 3b 19 8c 96 3c b1 f3 f9 bc fe b9 6f 3c
       0.0033817692 0.01837735 -0.030511709 0.014631746
000170 e6 1a 10 bd 98 ca be 3c b2 33 17 3c f0 bc 29 bc
       -0.035181902 0.023289964 0.009228634 -0.010359988
000180 5c e7 e9 bb fe 7b 16 bc 32 fc bc 3c 4a e9 22 bc
       -0.007138176 -0.0091848355 0.023069475 -0.009943316
000190 2c ee ec bb bd b1 24 3c ba 36 38 bb 94 7a 0a bc
       -0.0072305407 0.010052142 -0.0028108791 -0.008452076
0001a0 f8 61 07 bc 74 e9 c3 bb 4b cb 9d bb c1 e7 f2 bb
       -0.008263104 -0.0059787575 -0.004815494 -0.007412881
0001b0 1d ab 1f ba bf 59 14 3c 02 5a 22 bb 3a 89 16 3c
       -0.00060908665 0.0090546 -0.0024772887 0.009187991
0001c0 b1 1d 1c 3c 1a 06 75 bc ba 3b 96 bb 99 83 c8 ba
       0.009528563 -0.014955068 -0.0045847567 -0.0015298008
0001d0 c1 3c 25 3c f1 cd db bb 3c d4 23 bc 53 08 02 ba
       0.010085286 -0.0067078997 -0.009999331 -0.0004960347
0001e0 21 39 b9 ba 21 c1 aa bc 24 55 07 3b 3a f8 57 bc
       -0.0014131406 -0.020844044 0.0020650113 -0.01318174
0001f0 17 1f 24 3b 8d 99 9b bb 1c b5 8e bb 3d d2 20 bc
       0.0025042945 -0.0047485293 -0.004355086 -0.00981575

network_body.observation_encoder.rsa.fc_k.bias f4 [128]
000000 34 58 d5 b6 f4 91 85 b7 f4 9e 2d 37 a0 35 83 b7
       -6.358163e-06 -1.59228e-05 1.0348613e-05 -1.5641388e-05
000010 3f 50 f2 b7 eb 49 56 b7 ff 65 ad b5 6c 58 a2 b7
       -2.8886016e-05 -1.2772604e-05 -1.2919189e-06 -1.935308e-05
000020 72 71 0e b6 5a 8b f9 35 6c bd b8 b5 8b db 23 b7
       -2.1225683e-06 1.8592502e-06 -1.3764197e-06 -9.766673e-06
000030 f5 f4 c9 b7 65 48 25 37 62 30 00 37 63 63 27 b7
       -2.4075134e-05 9.851622e-06 7.6406595e-06 -9.977116e-06
000040 ce f0 80 37 5c 12 47 b7 8a 3a e5 b7 48 c3 ad b7
       1.5370922e-05 -1.1865599e-05 -2.7326187e-05 -2.0714142e-05
000050 8e 03 0b b7 b0 4d 66 b7 e8 59 6a b7 be d0 b5 37
       -8.285873e-06 -1.3727156e-05 -1.396842e-05 2.1674085e-05
000060 1f f2 1e 37 29 f3 a7 b7 b1 82 d0 b4 64 84 7a b7
       9.473907e-06 -2.0021182e-05 -3.883811e-07 -1.4931986e-05
000070 a7 ce 11 37 7c a8 8a b7 e6 de 56 37 0c ec a4 36
       8.6907885e-06 -1.6529339e-05 1.2807292e-05 4.9150603e-06
000080 a0 76 b4 36 e8 6a 46 36 60 c7 bb 36 2e 40 b3 b3
       5.378228e-06 2.9566527e-06 5.5962446e-06 -8.347011e-08
000090 cb 94 11 37 7f d0 01 b7 a7 80 3c 35 e6 e4 10 b7
       8.677317e-06 -7.7375435e-06 7.022267e-07 -8.636363e-06
0000a0 08 89 4f b6 75 29 01 b7 4d e9 70 b6 c8 bb fa b5
       -3.0925166e-06 -7.698652e-06 -3.5898586e-06 -1.8681103e-06
0000b0 69 75 cf 36 1a 3f da b7 75 39 be 37 eb a0 8f 36
       6.182749e-06 -2.6017009e-05 2.267652e-05 4.2804654e-06
0000c0 ee fe ce b6 39 99 cf 37 ed b0 a1 b5 26 77 87 b6
       -6.168956e-06 2.4747673e-05 -1.2046927e-06 -4.037184e-06
0000d0 ea 69 25 b6 26 b9 8b b5 57 0d ce 36 a3 0f 8b b7
       -2.4648566e-06 -1.0410192e-06 6.1408314e-06 -1.6577373e-05
0000e0 6c 5e f2 35 36 e6 8b b6 4e 01 6f 36 be 23 8c b7
       1.8057885e-06 -4.169323e-06 3.5614535e-06 -1.6705944e-05
0000f0 22 56 b4 36 3e dc 62 36 46 a8 fb 35 62 b0 2c b6
       5.374445e-06 3.3804822e-06 1.8749931e-06 -2.5732666e-06
000100 cc de 87 38 7b 01 b9 37 50 76 b9 34 c5 3e 6c b8
       6.478801e-05 2.2054408e-05 3.454502e-07 -5.6325243e-05
000110 92 44 41 37 84 86 40 38 05 45 2f b9 c0 05 95 38
       1.1519662e-05 4.5901645e-05 -0.00016715012 7.105945e-05
000120 d1 f2 9b b8 be 62 93 38 85 da cb b7 a6 22 3f b8
       -7.436204e-05 7.0278984e-05 -2.4301242e-05 -4.5570217e-05
000130 d4 1f d8 b7 22 b5 b3 b8 3c f9 7a b8 c1 48 4f b8
       -2.5764028e-05 -8.569124e-05 -5.9836762e-05 -4.9420403e-05
000140 d7 8a 24 38 4e 78 f9 37 29 03 8d 38 ac 63 96 37
       3.922995e-05 2.9739134e-05 6.7239926e-05 1.7927807e-05
000150 e3 ea 96 b8 81 4c e4 b7 cc 0c b2 b4 96 49 1d 38
       -7.1963084e-05 -2.7215343e-05 -3.3164395e-07 3.750025e-05
000160 19 3b e4 38 6d e5 a0 b8 89 82 27 b7 27 68 bc b8
       0.00010882895 -7.6721284e-05 -9.984368e-06 -8.9839385e-05
000170 d1 0e 88 38 5d 6f 3b 38 45 3d c7 b6 a6 89 d7 38
       6.487745e-05 4.468799e-05 -5.937795e-06 0.00010277638
000180 e9 e6 8b b7 a2 da 7a b7 f4 ee 82 b4 30 57 80 37
       -1.6677617e-05 -1.4952066e-05 -2.4388248e-07 1.5299389e-05
000190 70 f6 04 37 1e 2f 2e b7 fc c3 e8 b3 90 08 ed 36
       7.925191e-06 -1.03821785e-05 -1.0838991e-07 7.064147e-06
0001a0 22 20 5c 37 86 68 f2 36 3a 90 1d b7 00 47 59 37
       1.3120503e-05 7.22433e-06 -9.39151e-06 1.2950739e-05
0001b0 aa e2 8c b7 77 da a8 b6 5b ff 80 37 4c 79 08 37
       -1.679485e-05 -5.032223e-06 1.5377698e-05 8.134473e-06
0001c0 8d 91 78 b6 3c 3e d1 b6 50 7c a9 b4 08 e9 cd 36
       -3.7039601e-06 -6.2359304e-06 -3.1569152e-07 6.1366045e-06
0001d0 a6 bf 9d b7 e7 0d f6 36 20 56 e2 36 0e 93 c0 b7
       -1.8805102e-05 7.3329898e-06 6.745351e-06 -2.2956661e-05
0001e0 1b 4f e1 36 5f be 5b 37 ae 25 90 b6 3d 6d 67 37
       6.7147316e-06 1.3097741e-05 -4.295921e-06 1.3794107e-05
0001f0 a9 32 3e 36 fe a0 b7 36 d8 a9 e4 32 f7 d6 8f 37
       2.8341694e-06 5.472567e-06 2.661993e-08 1.714703e-05

network_body.observation_encoder.rsa.fc_v.bias f4 [128]
000000 93 d1 da 39 3f 54 d3 3b b8 1f df 3a f3 60 db 3a
       0.00041736345 0.006449252 0.0017023003 0.0016737267
000010 6b 4c 1c 3c d0 4f f0 bb 86 e2 a2 3a 11 6f 3b bb
       0.009539704 -0.007333733 0.0012427128 -0.0028600136
000020 fe 63 0e bc 26 30 21 3c 32 00 91 3c a8 8e c2 bb
       -0.008690832 0.00983814 0.017700288 -0.005937416
000030 e2 c9 4c bc d7 30 3e bc cb 75 10 bb 09 a7 e2 3b
       -0.0124993045 -0.011608324 -0.0022042866 0.006916885
000040 af 53 8d bc 5d 3e d3 3b 7b 8e 69 bc 79 45 86 3b
       -0.017251818 0.0064466433 -0.014255161 0.0040976373
000050 50 bf 9c bc af 79 3d bc a9 a0 03 3c 8d 5f c9 bb
       -0.019134194 -0.011564656 0.00803391 -0.0061454237
000060 68 cd 4e bc 48 f3 c3 3a 17 f1 da bb a8 1a f3 bb
       -0.012622215 0.0014949823 -0.006681572 -0.007418949
000070 03 9b 4c 3a 4a 59 75 bc a3 07 6a bb 07 46 2b bb
       0.0007805081 -0.014974901 -0.0035710118 -0.002613427
000080 2a fa 85 ba ba a6 05 3d 2f cf 9a 3a 37 10 4d 3c
       -0.001022165 0.032629706 0.0011811013 0.012516073
000090 2c 17 8a 3b 67 6a 77 3b 2d 8d 6a 3b e2 95 25 bc
       0.004214188 0.003775263 0.0035789714 -0.010106536
0000a0 73 09 14 bb eb b7 fb bb 3a 99 b4 bb a4 d2 47 3a
       -0.002258864 -0.007681837 -0.00551143 0.00076226355
0000b0 53 10 b0 3c 2a 6f d1 bb 2f 8f 93 bb de 62 9b 3c
       0.021492159 -0.0063914256 -0.004503153 0.018968042
0000c0 de 4c ad 3b 52 d0 0c bc c5 1d 8b bc 7f 99 a2 3a
       0.0052887043 -0.008594589 -0.016981969 0.0012405365
0000d0 2c 05 e9 ba 08 b0 a0 3b 76 0b d7 3b 11 f9 46 3c
       -0.0017778031 0.004903797 0.0065626455 0.012144343
0000e0 d3 da a0 3b a2 e8 17 3c a9 23 cc ba 35 48 23 3c
       0.0049088984 0.009271773 -0.0015574592 0.009965946
0000f0 c5 4d 55 bc 29 93 f3 3a 0b 27 40 3b b2 91 44 3b
       -0.01301903 0.0018583286 0.0029320146 0.0029994068
000100 1f 66 7a 3b 86 9a 18 3c 68 5b 02 3c 92 06 3c 3b
       0.0038207842 0.009314185 0.007956363 0.002869044
000110 5d dc 41 3b 2d b9 02 3c 19 cc b3 3b f8 69 fc bb
       0.002958081 0.00797872 0.005486977 -0.007703062
000120 6c db 30 bc f3 56 ac bb 69 0f de 3b 07 6a 69 bb
       -0.010794502 -0.0052593886 0.0067767394 -0.0035616176
000130 42 d0 7a bc 4f a1 11 3c e2 41 a2 38 8c 9c e0 3a
       -0.015308442 0.008888557 7.7370336e-05 0.0017136498
000140 9c 02 fa 39 56 ba a4 bb 6f 8a 51 bc 71 c0 73 bb
       0.0004768566 -0.005027096 -0.012789353 -0.0037193561
000150 b1 3b 89 3b bd 59 47 3c 25 9a 6c 3b 1c 99 28 3b
       0.004188024 0.012167391 0.003610262 0.0025726026
000160 5f 4c c4 bb 90 0a e6 3a 7b d6 1b bb de 82 14 bb
       -0.0059905495 0.0017550755 -0.0023778963 -0.002266101
000170 94 99 84 bc bf 33 37 3b a8 00 91 bb 1f 3d 0d bb
       -0.016186513 0.0027954427 -0.004425127 -0.0021551324
000180 c0 00 10 3b d6 ec 6d 3c 6e 0a 79 bc cb 5a 0f bb
       0.0021973103 0.014521798 -0.015200241 -0.0021874185
000190 67 9c d7 bb 67 ca 55 3b 2e cb ab 3b f0 60 c1 bb
       -0.006579924 0.0032621862 0.0052427268 -0.0059014484
0001a0 20 32 fa bb 23 26 0f bc a7 1b dd b9 e4 6e 16 3b
       -0.00763537 -0.00873712 -0.00042173007 0.002295428
0001b0 c2 75 01 3b 3e 19 99 3a 92 85 00 3c 75 15 c0 bc
       0.0019754027 0.0011680496 0.007844346 -0.023447732
0001c0 b9 72 e6 bb 7f 2f 62 3b b5 d2 9d bc ed 44 a7 3b
       -0.007032719 0.0034513173 -0.019265512 0.005104652
0001d0 10 ac 80 b7 99 01 50 3b 19 1e 5b bc 9d 41 eb bb
       -1.5338912e-05 0.0031739234 -0.013373875 -0.0071794526
0001e0 48 a7 1e bc a4 a5 04 3c 4a 78 e3 ba 9a d1 ef bb
       -0.009683438 0.008096132 -0.0017354575 -0.0073186876
0001f0 04 8e 84 3b ea 39 28 ba c6 0f cf bb 31 35 af 3b
       0.00404525 -0.0006417321 -0.006319019 0.005346917

network_body.observation_encoder.rsa.fc_out.bias f4 [128]
000000 3d ef 9d 3b 6d 18 83 3c 67 5c ca bc d7 6c 98 bc
       0.004819779 0.016002858 -0.024702264 -0.018606586
000010 65 a9 f6 bb d0 39 bb 3b 8f 53 07 bc 60 48 07 bb
       -0.0075275176 0.005713679 -0.008259668 -0.0020642504
000020 df b1 16 ba a8 29 63 3c 93 57 ee 3b b1 88 9c 3a
       -0.0005748551 0.013864912 0.0072736233 0.0011942593
000030 04 65 14 bc a3 73 34 3c cb 46 62 3b 52 77 6d 3c
       -0.009057287 0.011013898 0.003452706 0.01449378
000040 ba 86 ae bb 61 ea 7c ba fd d4 71 bc 1d 0d 7d bc
       -0.0053261193 -0.0009647962 -0.014760253 -0.015445021
000050 83 00 bb 3b cf 21 de 3b bd 37 6e bb 3b fb 2d bc
       0.005706848 0.0067789326 -0.003634914 -0.01061898
000060 6d 3d 6e 3b ea b2 3d bb be ab ab bc d3 ff 9c 3c
       0.003635253 -0.0028945752 -0.020955916 0.019164955
000070 71 43 93 bb 20 3a ba bc 0e 74 d8 3b 6a 17 86 bb
       -0.0044941236 -0.022732794 0.0066056317 -0.0040921466
000080 44 01 3c bc 40 d3 4f bc cb 97 c2 bb 12 f5 36 bc
       -0.011474911 -0.012684643 -0.0059385053 -0.011166828
000090 70 fa 3f 3c 37 fd ec 3c 09 e7 90 bb 5e d3 3b 3b
       0.011717424 0.028929336 -0.004422073 0.002865992
0000a0 51 ff 22 3c 91 1e 1e 3b 1b 9b 65 bc 2f 74 55 3c
       0.0099485675 0.0024127106 -0.014014031 0.013028189
0000b0 cc b9 5f 3c ae 46 94 38 52 6c 27 ba a6 0c b9 bc
       0.013655137 7.070355e-05 -0.00063866854 -0.022589039
0000c0 4d 6e 10 3b 51 a8 d0 3b 3e 71 11 3c 99 0d 8f 3b
       0.00220384 0.006367721 0.008877097 0.0043656346
0000d0 42 8c 0b bb 48 e8 80 3b 7a 3f 71 3b eb ef 50 bc
       -0.0021293317 0.00393394 0.0036811517 -0.012752513
0000e0 70 85 c9 3a a4 38 8c 3c c8 d8 05 3b f0 9e 88 3c
       0.001537485 0.017116852 0.00204234 0.01667735
0000f0 c7 c9 00 bc 92 2c 02 3c a2 f9 88 3c dd 38 03 3c
       -0.0078606075 0.007945197 0.016720597 0.008009163
000100 55 aa b9 ba b1 e2 41 bb cb 82 89 bb 67 b9 8f bb
       -0.0014165143 -0.0029584581 -0.0041965 -0.0043861154
000110 7e 9b e5 ba 98 07 67 3c 0f 26 a1 3c aa 5c 4e bb
       -0.0017517654 0.014100932 0.019671468 -0.0031488338
000120 7e 20 a4 3b 6e be 0c 3b 3f e9 a3 3a b4 a2 d6 ba
       0.005008756 0.002147581 0.0012505426 -0.0016375394
000130 89 00 0a 3c a3 ab 89 3a f9 41 2a bc ef 3d 85 bc
       0.008422979 0.0010503422 -0.010391706 -0.016264884
000140 e6 e1 f4 bb 09 f3 b7 3a e0 a5 9a bc db 99 c0 ba
       -0.0074732183 0.0014034222 -0.018877923 -0.001469429
000150 6a 69 e5 bb 12 e6 60 3c 5d 64 69 3b 31 51 7b 3c
       -0.0070010917 0.013726728 0.00356128 0.015339182
000160 d6 c0 cc bb 09 39 af bb 72 9b 14 3a 46 36 a0 3c
       -0.006248574 -0.0053473753 0.0005668915 0.01955713
000170 4c cd 8b bc 0a ee 7e 3c f7 43 a0 bb c6 0a a2 3b
       -0.017065667 0.015559683 -0.0048909145 0.004945132
000180 48 c7 08 3b 94 45 96 3c ae 87 75 3c 12 27 f9 3b
       0.0020870734 0.018343724 0.014985962 0.0076035345
000190 46 24 3e 3b 20 31 fd 3b d4 e1 ee ba 30 6d b9 3a
       0.002901332 0.0077268034 -0.0018225261 0.001414692
0001a0 0b 0d a0 3c b0 10 87 bc f1 44 33 3c 4f b8 00 ba
       0.01953747 -0.01648745 0.01094173 -0.00049102766
0001b0 16 92 0d bb 9d bb ca bc c3 94 ab 3c 78 06 ac 39
       -0.0021601967 -0.024747664 0.020944959 0.00032811216
0001c0 6f 86 b0 bb f0 20 c0 bb da 4a b5 bc f4 c0 c2 3b
       -0.0053871195 -0.0058633015 -0.022130419 0.005943412
0001d0 4f 5f 20 bc 23 04 41 bc 48 58 85 bc d8 e2 cd bb
       -0.009788348 -0.011780771 -0.016277447 -0.0062831454
0001e0 d9 87 4b 3b 13 1e 56 bc a9 fd 4c bc 24 38 e4 3a
       0.0031056313 -0.013068694 -0.012511649 0.0017411751
0001f0 25 fd b6 3c 3a cf de 3a af 53 97 bb 42 d2 3c 3a
       0.022337506 0.0016999014 -0.00461813 0.0007202962

network_body.observation_encoder.x_self_encoder.seq_layers.0.weight f4 [128, 5]
000000 7c 96 30 3d 1e 75 fa 3d d6 fc 4b bc d6 d6 5b bc
       0.043112263 0.122293696 -0.0124504175 -0.01341792
000010 19 6d ee ba eb 60 3d 3d 01 b8 2b 3d 8d 84 14 bd
       -0.0018190473 0.046235006 0.041923527 -0.036259223
000020 1e a6 25 3d c8 86 cc bb 28 16 07 3d 33 9a 9a 3d
       0.040441625 -0.006241653 0.032980114 0.075489424
000030 f4 1a 20 bd 5c d5 98 bc b2 63 95 3c e8 32 e4 3c
       -0.039088205 -0.018656425 0.018236015 0.027856305
000040 3f 86 da 3d dc 5b 14 bd 13 14 25 3c 8a 3c 74 3c
       0.10670137 -0.036220416 0.010075587 0.014907012
000050 7f 24 d4 3d a8 2a 94 3c 39 ff 26 bd c2 eb 76 3c
       0.103585236 0.018086746 -0.040770743 0.0150708575
000060 cb 70 cd 3c f0 61 f1 bd 4d c2 eb bc 65 2c bd bc
       0.025078198 -0.11786258 -0.028779173 -0.023092458
000070 cc cd b3 3c 98 08 5a ba 7c c4 ce 3b 91 9b ba 3d
       0.021948718 -0.00083173206 0.006310044 0.09111703
000080 4a 7d 58 bd 0a ac 65 bc 37 7b 59 3c 01 67 79 bd
       -0.05285386 -0.014018068 0.013274006 -0.060889248
000090 aa 5f 63 bd 19 11 b8 bc 71 c6 91 3c dc ea 45 bc
       -0.055511154 -0.02246909 0.01779482 -0.012079921
0000a0 2c 5f d2 3d 32 db 28 3d 7f da 72 bc 83 7a 87 3c
       0.10272059 0.041224666 -0.014822601 0.01653791
0000b0 55 09 e6 bb 3b 6e a9 bc 12 09 af 3d 9e cc 68 bd
       -0.0070201554 -0.020682445 0.08546652 -0.056835763
0000c0 9a 6b 0e bc a0 73 61 b9 7e ec 6b 3d 40 03 94 3d
       -0.008692646 -0.00021500746 0.057598583 0.072271824
0000d0 57 e5 03 3c 61 e9 64 3c 1f 47 64 3b 57 60 c0 3d
       0.008050284 0.0139716575 0.003483243 0.09393375
0000e0 92 34 94 bc 47 46 00 3d f1 d2 81 bb 23 ca 75 3c
       -0.018091474 0.03131702 -0.0039619138 0.015001806
0000f0 bc d4 36 3d c8 87 9f bc 91 b2 d5 bc c4 0f 57 3d
       0.044636473 -0.019473925 -0.026086124 0.05250527
000100 e4 f1 4a 3b 2c 85 54 bd bb 89 4e 3d 66 5b 26 bd
       0.0030966932 -0.051884815 0.05042432 -0.040614508
000110 bd e4 8d bc 2a 85 61 3c c4 14 8b 3c 90 df 72 3d
       -0.017320985 0.013764659 0.016977675 0.059295237
000120 ab 2e 2a 3d 0f a9 a9 bc f2 31 bb 3c 81 a1 6c bd
       0.041548412 -0.020710496 0.022850964 -0.05777121
000130 94 57 c6 bd 6b 2b 03 3d 8c 04 21 3c 91 ac df bc
       -0.09684673 0.03202383 0.009827744 -0.027303966
000140 82 fa 44 bd f1 6d 5f bd 74 ef 18 3d c8 cd 81 bb
       -0.048090465 -0.054548208 0.037337735 -0.0039612986
000150 b8 cc d0 bc 9d 86 45 3d 34 80 0a bd 7f e8 b8 3d
       -0.025488243 0.04822408 -0.03381367 0.0902872
000160 34 3f 9b bb c0 21 7f bc 59 12 ab 3c c4 49 48 3d
       -0.004737759 -0.0155720115 0.020882772 0.048898473
000170 2e c4 4a bd 43 ea 89 3d 25 28 5e bc ac b2 00 3d
       -0.049503498 0.06734135 -0.013559376 0.031420395
000180 19 81 91 bd 3e 4b e8 3a 4b 1d f1 3c a9 25 dd 3b
       -0.071047015 0.0017722619 0.029432913 0.006748874
000190 32 07 0b 3d 16 b8 ed bc 59 03 56 3d 2b 48 0b bd
       0.03394241 -0.029018443 0.052249286 -0.03400437
0001a0 85 b6 4a 3d 72 04 00 3c bc 3d f4 3d 72 40 a8 bd
       0.04949047 0.00781356 0.119258374 -0.08215417
0001b0 ba 86 32 bc c4 3a 90 3d e5 27 6c 3d 41 23 67 3d
       -0.010896379 0.07042459 0.057655234 0.056430105
0001c0 49 2b 09 bd ac 04 1d 3d fb cd 67 3c 33 43 97 3c
       -0.033488546 0.038334534 0.014148231 0.01846466
0001d0 91 14 b2 bd 93 ae 6a 3d d9 11 3e bd d2 68 de bc
       -0.08695329 0.057295393 -0.04640374 -0.027149592
0001e0 6c 18 34 3e 8d a7 b1 3d d5 1b 81 3c 7b fa 80 3c
       0.17587441 0.08674536 0.015760342 0.015744438
0001f0 16 3d db 3b 19 dc 47 bd 53 ef 35 3d 25 e0 c1 bd
       0.0066906316 -0.048793886 0.04441769 -0.0946658
000200 35 34 4c 3d 64 e1 81 bc 47 44 a3 3c a7 be ec 3c
       0.049854476 -0.015854545 0.019930018 0.028899504
000210 e1 89 8d bd af 60 f6 bc a0 76 74 3d 3f 34 d4 bc
       -0.06911064 -0.0300754 0.059683442 -0.02590382
000220 99 ed f1 3d 38 39 7a bd aa 43 36 3d 4f e7 e7 3b
       0.11812896 -0.061089724 0.044498123 0.0070771347
000230 d0 6c d6 bd 50 29 89 bd 9d d4 b8 bb 00 b7 4e bc
       -0.10469973 -0.06697333 -0.00564058 -0.012616873
000240 a2 bb 17 bc 5c 67 6d bd 28 b0 5f 3d 27 95 c0 bd
       -0.009261044 -0.0579599 0.054611355 -0.094034486
000250 11 6b 11 3d a0 74 1b bb 51 1f 29 3c 4c e3 0e bd
       0.035502497 -0.0023720637 0.010322408 -0.034884736
000260 98 81 8c 3d be 02 87 bb 15 61 bb bc c4 ce 9c bd
       0.068606555 -0.0041202 -0.02287344 -0.07656625
000270 ae 99 93 3d 8b 99 e9 bc 19 86 e2 3c 84 af 82 bb
       0.072070464 -0.028515598 0.027651833 -0.0039882082
000280 45 3c 4f bc 78 12 f8 bd 83 a3 4b 3d 09 59 09 3d
       -0.012648647 -0.12112898 0.049716484 0.033532176
000290 b2 9c 88 bc 56 38 2d bd 35 99 d3 bd d1 8b 20 3c
       -0.01667628 -0.042290054 -0.10331956 0.00979896
0002a0 29 b5 13 3c 19 7e 15 bc a8 bc 07 3d 4c 39 6c 3d
       0.00901536 -0.009124302 0.0331389 0.05767183
0002b0 6f 60 a5 bc 2b 52 59 3d ba fa 7e 3c c0 9e aa bd
       -0.020187585 0.053056877 0.015562708 -0.083310604
0002c0 93 ab 8a bd d5 55 de 3c 05 ae aa bc 4c bf 18 bd
       -0.067710064 0.027140537 -0.020834932 -0.03729181
0002d0 c1 76 a7 bd 9c 59 1f 3d c5 ef 34 bd ca a5 3e 3c
       -0.081769474 0.038903818 -0.044173975 0.011636207
0002e0 4a f9 42 3c 8d fd 8c bd 06 30 da bc 09 39 10 3d
       0.011900255 -0.068842985 -0.026634227 0.035210643
0002f0 64 58 ee 3c 03 06 0b bd 50 85 b3 3d bc c4 b5 3d
       0.029094882 -0.03394128 0.08765662 0.08875415
000300 d2 be 91 3a d3 ec b6 bb bb 39 de 3b 62 71 da 3d
       0.0011119491 -0.005582431 0.0067817844 0.10666157
000310 3c f1 a5 3d 4e 9b 88 bc 70 5d 62 3b 48 45 0d 3d
       0.081026524 -0.016675618 0.0034540556 0.0344899
000320 2a ca be bd b4 d4 a5 bd 8d 63 8b 3c ef 58 a4 3b
       -0.093159035 -0.080972105 0.017015243 0.0050154845
000330 47 92 ad bc 32 8d 8f 3d 38 8f 8a 3d 77 cc 27 bd
       -0.021187915 0.07009353 0.06765598 -0.040966477
000340 1b 1a fe 3c 73 95 84 3c 42 96 bb 3d 05 28 aa 3d
       0.031018307 0.016184544 0.09159519 0.08308414
000350 f0 21 8f bc 84 3f b3 3a cd c6 f0 3c 54 44 89 bd
       -0.017472237 0.0013675545 0.02939167 -0.06702486
000360 ef 22 93 bd 8e c8 3f 3d 7d 21 2e bd b1 60 64 bd
       -0.071843974 0.046822123 -0.042512406 -0.055756275
000370 db aa 78 bd 8a 39 60 3c ac 39 b3 b9 d8 98 0e bd
       -0.060709815 0.013685593 -0.0003418451 -0.034813732
000380 60 42 7e 3c 98 e9 08 be 42 4a 50 bd 9f fd 7b bd
       0.015518755 -0.13370359 -0.050852068 -0.06152117
000390 31 91 e3 3c 79 49 26 3c cb 35 21 3d a2 19 c0 b8
       0.027779194 0.010149353 0.03935794 -9.160048e-05
0003a0 10 67 6a 39 39 97 2f b9 66 0b 8d bb 2c a0 e0 bd
       0.00022354373 -0.00016745635 -0.0043043373 -0.1096805
0003b0 13 d0 bd bc 74 cb 1a bc f6 58 71 3b 63 f7 2f bc
       -0.023170507 -0.009447921 0.0036826706 -0.010740134
0003c0 48 23 06 be 0a 36 5a bd ce 33 32 3d 9f 6a 4b bc
       -0.13099396 -0.053274192 0.043506436 -0.012415557
0003d0 0c 4a 1e bd b4 eb 58 3d e3 17 0e 3d 72 1c 1a 3d
       -0.038644835 0.05295916 0.03469075 0.037624784
0003e0 87 ed bd bc 47 27 cc 3c 82 b8 8b 3d ce 8e e8 3b
       -0.02318455 0.024921073 0.068223014 0.007097102
0003f0 cf 77 85 3d cc 2c 38 ba a7 78 05 bd a6 69 db 3d
       0.06516992 -0.0007025718 -0.032585766 0.1071351

network_body.observation_encoder.x_self_encoder.seq_layers.0.bias f4 [128]
000000 43 90 63 3c f0 f9 12 3c b4 99 31 3c 42 11 16 3c
       0.013889375 0.008970723 0.010839868 0.009159388
000010 68 64 7b 3c cb de 85 bc ec e4 88 3c 2b f7 10 3a
       0.015343763 -0.016341588 0.016710721 0.0005529995
000020 77 a6 cf 3c 67 7e 02 3c 4a 06 8c 3b 0e 6a 4f bc
       0.025347931 0.007964707 0.0042732107 -0.012659563
000030 f4 35 dc b9 6c 7d 58 3c 80 8a 0d bc bb 19 a7 3b
       -0.00042001868 0.013213497 -0.008638978 0.005099503
000040 fa 78 54 bc 95 9b 1d bc ea bc 9e ba cc 14 4e bc
       -0.012968296 -0.009619613 -0.0012110744 -0.012578201
000050 0d 4e a0 bc db 0f 91 3c 51 42 11 3c 03 37 2e 3c
       -0.019568468 0.017707756 0.008865909 0.010633233
000060 bb 3c df 3c 5d 8a b8 3c d1 9f 16 3c 36 37 87 3c
       0.027250638 0.022526914 0.009193377 0.016505819
000070 b0 45 7b bc 79 32 63 3c ea 6f 3f bc 1a ee 02 bc
       -0.015336439 0.013867014 -0.011684397 -0.007991338
000080 7a 15 c1 bb 3a 4a de ba 69 d4 af bb dd 12 94 bb
       -0.005892453 -0.0016959377 -0.0053658974 -0.0045188502
000090 a7 73 00 3c 2a f6 7b bc 33 21 b0 3c b3 69 4c 3b
       0.007840074 -0.015378514 0.021500206 0.0031190931
0000a0 66 62 18 bc 96 90 8a 3c 03 88 2d 3c 89 93 59 3c
       -0.009300804 0.016914647 0.01059151 0.013279804
0000b0 6a 78 a4 ba 94 49 ef 3a fc 0a d3 3b 10 46 0c bc
       -0.0012548093 0.0018256181 0.0064405184 -0.008561626
0000c0 30 bc fe bb 6b cd 8c bc 29 37 7f bc cb 08 9b 3c
       -0.0077738985 -0.017187795 -0.015577116 0.018925091
0000d0 29 3b be 3c b0 5a b2 3c 47 8d 40 bc e0 b1 51 bb
       0.02322157 0.021771759 -0.011752433 -0.003199689
0000e0 36 55 34 bb 32 25 0e 3c 84 13 31 3b 09 10 85 bb
       -0.002751661 0.00867586 0.002701969 -0.0040607494
0000f0 87 d8 9f 3b a8 1e 92 bb 92 d0 39 3c e5 52 08 ba
       0.004878107 -0.004459221 0.011341231 -0.00052003405
000100 c0 98 bf 3b c1 a3 8a bb 18 f0 7a ba 22 e9 bf bc
       0.0058470666 -0.004230947 -0.000957252 -0.023426596
000110 31 3d 8d 3b 40 57 e1 ba f2 4c eb bc 2e 93 21 3c
       0.004310273 -0.001719214 -0.028723214 0.0098617505
000120 28 1c e4 bb 62 dd 85 bc f9 63 6d 3a 80 aa 8a 3c
       -0.0069613643 -0.016340915 0.00090557296 0.016927004
000130 ba 5d 4d bb 87 75 3f bc 77 7b b8 bb 10 7e b5 b9
       -0.0031336383 -0.011685736 -0.0056299525 -0.00034616934
000140 11 96 10 3c 05 5a e5 bb 8c 6f b2 3c 51 84 9c 3c
       0.008824841 -0.0069992566 0.021781705 0.019106062
000150 c8 a2 41 3a 8c 1e e2 b9 ec 18 f7 bb 36 d3 75 bb
       0.0007386622 -0.00043128838 -0.0075408127 -0.0037509925
000160 ef dd 1f 3c 51 d0 30 bc 5b 7d 19 bc 0f ab 84 bc
       0.009757503 -0.010791854 -0.009368266 -0.016194848
000170 52 2c e3 3a f7 bf 62 3c 30 c8 59 3c 61 13 8a bc
       0.0017331934 0.013839713 0.013292357 -0.016854944
000180 7a 38 7c bc d5 bc 05 3d 16 92 85 bb 49 d2 a8 3c
       -0.015394324 0.032650787 -0.0040762527 0.020608084
000190 5e de 4b 3b ed c1 c2 bb 35 37 88 bc a9 0e 01 bc
       0.0031107883 -0.005943528 -0.016627887 -0.00787703
0001a0 91 01 20 bc 53 45 55 bc 8f 76 82 3c ea bd 05 3c
       -0.009765998 -0.013017016 0.015925674 0.008162955
0001b0 e5 d6 cd ba 94 35 e2 3a 97 ce 22 3a 93 6b d6 bc
       -0.0015704302 0.0017258399 0.0006210594 -0.026174342
0001c0 24 40 1e bb 4c 0d 22 bc 79 9a 99 bc 61 72 ae 3b
       -0.0024147118 -0.009890866 -0.018750416 0.0053236936
0001d0 ae 3f c8 3b 88 76 85 bc 66 a0 17 3c 85 53 5f 3c
       0.006111107 -0.016291872 0.009254551 0.013630752
0001e0 a4 c6 96 3b 98 73 26 bc 84 17 ed ba 17 77 d0 3b
       0.0046013165 -0.010159396 -0.0018088673 0.006361853
0001f0 a6 ff 45 bc 38 34 8b bc 9f 8f 8b bc f8 7b eb 3a
       -0.012084877 -0.016992673 -0.017036257 0.0017966023

network_body._body_endoder.seq_layers.0.weight f4 [128, 133]
000000 73 97 38 be 15 81 00 be 81 66 bf bd 3e d3 d6 ba
       -0.18026523 -0.12549241 -0.09345723 -0.0016389859
000010 8e 78 1b 3d b9 ff 0b be fc ae 5e 3d 9e 05 4e 3e
       0.037956767 -0.13671769 0.054366097 0.2011933
000020 c1 0f 9d 3d 86 61 35 bd 78 9a 72 3d bc cc b4 bc
       0.076690204 -0.04428246 0.059229344 -0.022070281
000030 57 c0 a4 bd 3f 12 d9 3d 4f 5d 9f bd f8 1a b7 bd
       -0.080444984 0.10599183 -0.07781469 -0.08940691
000040 8c af ab 3d 66 bf 1a be 48 b9 d7 bd 72 68 36 bd
       0.08383092 -0.15112075 -0.105333865 -0.0445332
000050 0c 0c 8a bd 52 43 67 3d b0 16 8e bd 54 f4 a6 bd
       -0.06740579 0.056460686 -0.06937921 -0.08152071
000060 83 cc a8 3d 70 05 10 be f4 67 ff 3b 84 42 c0 3d
       0.082421325 -0.14064574 0.0077943746 0.09387687
000070 b5 ab 3a 3d 95 fc 4a 3d 39 af 05 bc 8c 99 38 3e
       0.04557391 0.049557287 -0.008159452 0.18027323
000080 6a a2 c5 bd 6e eb 27 3e 6f 89 f5 3c a6 97 4e be
       -0.09650119 0.16398403 0.02997276 -0.20175037
000090 4d 18 3b be 3d 08 f5 3d f2 fc 55 3d 82 a8 40 bd
       -0.18270989 0.11964462 0.05224318 -0.0470357
0000a0 77 e5 98 bd 4d 9a 31 bd 33 8e e7 bd de 7e 33 bd
       -0.07465642 -0.043360043 -0.11306419 -0.04382216
0000b0 30 70 56 bd 14 ab dc 3c 35 da 32 3d 57 83 80 3d
       -0.052353084 0.026937045 0.04366513 0.06275051
0000c0 95 9f 0d be 1d 4c 31 be 09 ea 52 bd 89 d0 a8 bd
       -0.13830407 -0.17314191 -0.051492725 -0.082429
0000d0 a7 e2 a0 3d 2a 75 e2 3d b8 39 ef bd c8 19 ba bd
       0.078557305 0.110575035 -0.11680931 -0.09086949
0000e0 c1 b0 11 3d 03 86 58 3d 32 37 95 bd e3 f5 ee bc
       0.035568956 0.05286218 -0.07285918 -0.029169982
0000f0 84 44 46 3d fb 1b 38 bd cb c3 03 be c0 cb 41 bd
       0.048405185 -0.04494856 -0.12867658 -0.04731345
000100 11 59 eb ba d4 69 f7 bc 8b d3 3c bd fb f0 6b 3c
       -0.0017955621 -0.03020183 -0.04610018 0.014400716
000110 09 20 5a bd fe 3a 3a bc b9 e1 ab bc 90 6a fe 3c
       -0.053253207 -0.011366604 -0.020981656 0.031056672
000120 fa f6 10 3d f1 1c 34 bc ac 7e 23 3c bc 70 e3 bc
       0.035391785 -0.010993228 0.009978931 -0.027763717
000130 08 93 99 3d a8 8a c9 bc 61 f5 0c 3e 21 9a 21 be
       0.07498747 -0.02460225 0.1376548 -0.15781452
000140 18 6d 48 3c b1 25 a5 3d 8b 5e 11 3d e2 9f 41 3e
       0.012233041 0.0806383 0.035490554 0.18908647
000150 77 90 b9 3c 07 55 a1 bd 43 30 89 3d 2a 0d 32 bc
       0.022651894 -0.07877546 0.06698658 -0.010867396
000160 e5 02 ad bc f6 5d 06 3e 78 81 d7 bd 3a 55 b1 3d
       -0.021119544 0.13121781 -0.10522741 0.08658834
000170 3c de 72 3c 5d a9 9f bd 44 04 31 3d ae da 22 bd
       0.014823493 -0.07795975 0.04321696 -0.03975933
000180 ce 37 f3 3c 0c 91 bd bd 00 4a f6 3c d9 b3 ab 3d
       0.029689696 -0.09256181 0.030064583 0.083839126
000190 87 f5 d2 3d bf 3d 81 bd ca 3f 49 bc ea 65 28 bd
       0.10300737 -0.06310605 -0.012283275 -0.041112818
0001a0 ad 87 dc bc 28 42 50 3c 16 f8 4c 3d e1 71 2f be
       -0.026920164 0.012711085 0.05004128 -0.17133285
0001b0 45 6d 81 be 3e 43 07 bb de 79 0a 3e fb e8 43 bc
       -0.2527868 -0.0020639445 0.13523051 -0.011957402
0001c0 44 0d e0 bc 3c fb 03 3e 95 1a 6b 3e 18 19 d4 bd
       -0.027350076 0.12888807 0.22959359 -0.10356349
0001d0 f3 56 e6 3d b0 b5 19 be 09 e6 be 3d 1e fc 15 bc
       0.11247053 -0.15010715 0.093212195 -0.009154348
0001e0 dd 83 27 3b 23 d1 b3 bd 8e a1 ff bc 83 50 f1 3c
       0.0025560774 -0.08780124 -0.031204965 0.029457336
0001f0 16 a0 a3 3d 1e c6 cc bd 4b 4f c3 3d 64 fb c9 bc
       0.07989518 -0.09998725 0.09536608 -0.024656005
000200 7e ed 03 be f4 05 99 3d 9a ed 09 be 78 06 f3 3c
       -0.12883565 0.074718386 -0.13469544 0.02966617
000210 a8 9a 32 be 07 5d 24 3e 38 f4 04 3e 24 9f 52 3d
       -0.17441809 0.16051112 0.12983787 0.0514213
000220 ea 03 9e 3d 58 9b 93 3c 5c 33 64 be a7 a5 d2 bd
       0.0771559 0.01801841 -0.22285217 -0.10285502
000230 88 34 c1 3d 25 8d 95 3d ba 2f 69 3d 09 5f 0a 3e
       0.09433848 0.07302312 0.05693028 0.13512816
000240 28 26 e0 3d b0 cc 2c be 04 b1 a8 bc 8f 85 ce bc
       0.10944778 -0.16874957 -0.02059222 -0.02521017
000250 41 ab 7e 3d f5 9a 43 bd 0d 49 f3 bd 6c 32 b5 bc
       0.06217504 -0.0477552 -0.11879168 -0.02211877
000260 ee e9 1f be c1 b9 a3 bc e5 2f 6c bd 09 9d 89 3d
       -0.15616581 -0.019986035 -0.057662863 0.06719405
000270 cb 01 d8 bc b4 ab f2 3d 39 15 a7 bd ad f5 a4 3d
       -0.026368042 0.11849156 -0.08158345 0.080546714
000280 97 38 f9 3a 03 14 5d bd 07 9e 2d bd ce 13 ae bc
       0.0019014057 -0.053974163 -0.042387035 -0.021249678
000290 5c 02 e0 3d 40 ad 63 bd 89 1a c9 3d 56 fe 05 3e
       0.1093795 -0.055585146 0.09819514 0.13085303
0002a0 66 0d 0b be 44 2a a0 3c 9c f5 cc 3d ad 86 b8 3d
       -0.1357933 0.019551404 0.10007784 0.09010062
0002b0 91 ed 9b 3d cf f7 0c 3e ac f6 86 3d 63 fb ad 3d
       0.076136716 0.13766406 0.06590018 0.08495214
0002c0 3c 93 68 3d a0 98 03 3e e7 96 7c 3d b7 26 1a 3b
       0.05678104 0.1285119 0.06166735 0.002352161
0002d0 9b 04 a4 bd e0 0b 1c bd c5 15 03 bc 1e 00 ee 3d
       -0.08008691 -0.038097262 -0.008000796 0.11621116
0002e0 00 98 20 3d 9b a0 7e 3d ac cf 52 3d f5 55 c2 3d
       0.03920746 0.062164884 0.051467583 0.09489051
0002f0 bb 75 7d bd 09 9c cd bd 99 f5 d6 3d 21 0e 09 be
       -0.061879855 -0.10039527 0.10496063 -0.13384296
000300 9d 1e 63 bc 29 91 50 3d 7b 85 f2 3c 3b d0 1c bd
       -0.013862279 0.050919686 0.029604664 -0.03828452
000310 00 09 16 3c fc b8 e8 bd 0d cb 18 3e ce f7 b4 3c
       0.009157419 -0.11363408 0.14921208 0.022090819
000320 c3 5b b1 3c 14 c8 0b bc f3 6e c0 bd 94 3f 65 be
       0.0216502 -0.008531589 -0.09396162 -0.22387534
000330 5e 70 a7 3d c4 26 17 3e 59 82 c9 3d 3d 92 d6 bd
       0.08175729 0.14760882 0.09839315 -0.104771115
000340 73 ec 03 3d 58 65 e1 3c aa 0c 84 bd f1 a7 29 3d
       0.032207917 0.027514145 -0.06447728 0.041419927
000350 4c aa 30 be 0f d8 02 be 5f 86 13 3d c9 55 1f bd
       -0.17252463 -0.12777732 0.036016818 -0.03890017
000360 8b 81 22 bd 50 e8 43 3d 46 cf d8 bd 58 a4 2c be
       -0.039674323 0.047828972 -0.10586409 -0.16859567
000370 2d 4a cb 3d 59 7b 0e 3e ed fc d4 bd ca c9 bf 3d
       0.09926257 0.13914241 -0.10399804 0.0936466
000380 cd 17 8c bd 8c 5f a2 3d af bd 19 bd f4 96 3d bc
       -0.06840477 0.0792838 -0.037534412 -0.011571635
000390 48 b4 16 3e 2b b7 ef 3c b1 51 a1 3c bf e3 e3 3c
       0.1471721 0.029262146 0.019692274 0.027818559
0003a0 55 be c3 bd 94 a5 21 3e d7 e7 2c bd c4 49 4a bd
       -0.09557787 0.1578582 -0.042213287 -0.049386755
0003b0 f8 78 02 bd 7b 91 11 be 20 66 91 3a 46 58 51 3d
       -0.031853646 -0.14215653 0.0011093058 0.051109575
0003c0 c4 ce 80 3d d7 8d 00 3d 5d 48 7a 3d da e3 ce bc
       0.062894374 0.03138527 0.061104167 -0.025255132
0003d0 33 b7 90 bd 91 ce 25 3d 77 a9 08 bd d9 f6 0d 3e
       -0.070661925 0.0404802 -0.03336474 0.13863696
0003e0 df 58 1b be a7 fa d9 3c c6 92 1a 3d bd 10 21 3e
       -0.1517062 0.026608778 0.03773763 0.15729041
0003f0 3b 66 0d bd 62 8c 1b 3e ca 4e 65 3d 36 6f 68 3e
       -0.034521323 0.1519027 0.055983342 0.22698674

network_body._body_endoder.seq_layers.0.bias f4 [128]
000000 a6 4a e8 bc 06 5f 1f bc 43 a3 23 bd 9e 32 b2 bc
       -0.028355908 -0.009727245 -0.03995062 -0.021752652
000010 64 dc a6 bc 35 97 a9 bc 8e 11 5d 3c 2f e8 d8 3c
       -0.020368762 -0.020701984 0.013492955 0.026477901
000020 bb 15 67 3c 55 e1 13 bd d6 20 db bc 1b f0 1f 3c
       0.014104302 -0.036103565 -0.026749056 0.009761835
000030 c6 92 4a bc 7b 8b 64 3c 93 67 41 bc 80 41 e6 bb
       -0.012364095 0.01394927 -0.011804479 -0.007026851
000040 97 61 df bc f0 c0 b4 bc ef 1c 37 3c e1 d4 bb bb
       -0.027268214 -0.022064656 0.011176332 -0.0057321643
000050 1e 85 98 bc 3c 3c 25 bc ad 9c f9 bb bb 0f d3 3b
       -0.018618163 -0.010085162 -0.007617554 0.006441084
000060 15 c1 b2 bb 94 a1 45 bd b1 0e 81 3c f9 1b bd ba
       -0.005455146 -0.048249796 0.015754076 -0.0014427892
000070 7e a8 f2 3c 70 a2 d7 bb 24 42 6a bc 83 5b 8a bc
       0.029621359 -0.0065806434 -0.014297996 -0.01688934
000080 e1 42 3b bc d1 79 9f bc 1a 02 b8 bc cf d2 cc 3a
       -0.011429519 -0.019467266 -0.02246194 0.0015626791
000090 6d a8 c6 bc b3 a2 23 bd 6a a3 91 bb 89 93 0c ba
       -0.024250234 -0.039950084 -0.0044445293 -0.00053625606
0000a0 f0 b1 4a bc 56 c5 99 b9 05 8a 25 3c cd cc db 3a
       -0.012371525 -0.0002932946 0.010103707 0.0016769409
0000b0 2b 39 62 ba ad 42 d2 bc e0 b5 2c 3c eb f1 25 bc
       -0.00086297345 -0.02566656 0.010541409 -0.0101284785
0000c0 26 c8 67 bb 2f 6c 79 bb 5e cf 3d bc 6f 61 c5 bc
       -0.00353671 -0.0038058867 -0.011585085 -0.024094312
0000d0 b6 67 95 3b 50 ea 35 bd a5 9a 42 bc 2f 04 33 bc
       0.0045594824 -0.04441291 -0.01187769 -0.01092629
0000e0 c6 50 cb 3c 3f bd 07 bc ed bf ea bb c9 3a c4 3c
       0.02481879 -0.008284866 -0.0071639926 0.023953812
0000f0 75 44 16 3c 7b a8 d2 3c 31 b7 03 bd 4f 73 b4 3c
       0.009171595 0.025715103 -0.032157127 0.02202764
000100 bd e6 b0 3c 93 74 8b bb a8 dc ed bc f7 49 b4 3c
       0.0215944 -0.00425584 -0.029035881 0.022007925
000110 79 75 59 3c 9d a9 91 3a 3a 3d 07 bd d1 e2 4a bc
       0.013272637 0.0011113171 -0.033017375 -0.012383179
000120 9b f4 60 bb cf d2 68 bc 49 44 5c bc 34 0a e9 bc
       -0.0034325484 -0.014210417 -0.013444015 -0.028447248
000130 fd 4b f4 bc d0 62 1e 3b 3b 88 63 bc cc 3c a8 3a
       -0.02982139 0.0024167784 -0.01388746 0.0012835502
000140 2e 14 9a bc 7e a8 5c bc 06 0b 04 3c 5a 0b 07 bc
       -0.01880845 -0.013467906 0.008059269 -0.0082424525
000150 e7 f2 12 bc d1 ac 8b bc 2e 5c ad 3b 5b 8a 2f bc
       -0.008969045 -0.017050179 0.0052905297 -0.010714139
000160 f7 59 81 bc 02 3d 48 bc 19 1e 22 bc 14 7c 13 3c
       -0.015789969 -0.012221577 -0.009894871 0.0090017505
000170 8e f1 ec 3b e1 26 68 3c c8 d6 95 bc 3e a3 26 bb
       0.007230944 0.014169426 -0.018290892 -0.002542689
000180 fc 85 c3 3b e5 73 1a 3c a8 0b a5 3b 92 2b fa 38
       0.0059669 0.0094270455 0.00503679 0.000119290446
000190 4a 5f 3f bc 0a 9f 9e 3b 54 5e b4 bc 71 b3 91 ba
       -0.0116804335 0.0048407363 -0.022017635 -0.00111161
0001a0 65 94 06 bb 67 7e 0f 3d a6 ed 7c bc 63 b5 a3 bb
       -0.0020535227 0.035032656 -0.015437519 -0.004995988
0001b0 8b 36 7f 3b d4 ec 80 bc 1a de 86 3c 60 87 33 3b
       0.0038942422 -0.015737928 0.016463328 0.0027393922
0001c0 84 10 cf 3b 31 88 74 3c b2 96 9d 3c a9 0d f1 bb
       0.0063191075 0.014925049 0.019236896 -0.0073563647
0001d0 4b 72 aa bc f8 f6 53 bc 10 9e f2 bc ed 7a 79 bb
       -0.020806452 -0.0129373 -0.029616386 -0.0038067654
0001e0 01 8c 51 3c 3e 38 9d 3c 52 99 1a 3c 5d e2 11 3c
       0.012789727 0.019191857 0.0094359685 0.008904067
0001f0 78 d1 7f 3c 53 f6 9f bc 18 5e 94 bc f5 b8 f0 3b
       0.015613906 -0.019526636 -0.018111274 0.0073462673

network_body._body_endoder.seq_layers.2.weight f4 [128, 128]
000000 86 03 91 3c 22 de 41 bd b7 85 20 bd 65 09 5a be
       0.017701875 -0.047330983 -0.03919002 -0.21292646
000010 4b d1 84 3d 2f b8 28 bd e3 8b eb 3d d7 d3 d9 3d
       0.06485232 -0.041191276 0.11501291 0.10636108
000020 f7 08 3c be 10 78 33 be ca f5 31 3d 60 dc 92 3d
       -0.18362795 -0.17526269 0.043447293 0.071709394
000030 02 53 ba 3d 9c 60 5d 3d 0e 70 98 3d 4d b9 ed bd
       0.09097864 0.054047212 0.07443248 -0.11607609
000040 7d a8 9f bd 23 64 32 be 6c 21 b6 3d 00 2d 7a 3d
       -0.077958085 -0.17421012 0.088930935 0.06107807
000050 fb a7 ab bd c5 6b 62 be 4f ab 97 bd bf de 00 bd
       -0.08381649 -0.22111423 -0.074057214 -0.031462427
000060 a1 e3 29 be c8 79 0a bc 61 76 bb bc 5b a5 3c bd
       -0.1659074 -0.0084518865 -0.022883596 -0.046056133
000070 20 dc 9e bc 9c ea 15 3e a0 fd 57 3d 33 86 06 be
       -0.019392073 0.14640278 0.05273211 -0.1313713
000080 95 ba 17 3e e1 f7 1d 3c db 64 d1 3c cd e4 6a 3d
       0.14817269 0.0096416185 0.025560787 0.057347108
000090 6c 89 e5 bd 90 2b 9d bc 82 b9 09 3d a0 01 73 bd
       -0.11207852 -0.019185811 0.03362418 -0.05932772
0000a0 aa 9b e4 3d 8f c8 f9 bd 91 13 8e bd d6 de 8f bd
       0.11162503 -0.12196457 -0.06937326 -0.070249245
0000b0 5a c8 c8 bb 4f db fd bd 45 2a 31 be 58 61 41 bd
       -0.0061273994 -0.123953454 -0.17301281 -0.047211975
0000c0 26 c0 36 3e 67 d2 68 bd 76 05 50 3d c1 32 22 3b
       0.17846736 -0.05684128 0.050786458 0.002474949
0000d0 e1 3f df bc 85 3b 55 bd 68 05 11 3e 6c cb 6e 3c
       -0.02725214 -0.052058715 0.14162219 0.014574867
0000e0 0d b0 3d bd 83 ff d6 bc 1d 7a a2 3c 0e 61 14 bd
       -0.046310473 -0.026244884 0.019833619 -0.03622537
0000f0 6f 49 e1 3d 14 a8 ce 3b d2 d4 56 3d 28 fd e6 bc
       0.110003345 0.0063066576 0.052449055 -0.028196886
000100 af 13 8e 3d 01 03 af 3d 13 71 a8 bc 75 19 12 3e
       0.06937348 0.08545495 -0.02056173 0.14267524
000110 6b 71 93 bd 3e 7a bd bb d7 11 1a bd 5a 35 11 be
       -0.07199367 -0.0057823947 -0.03761467 -0.14180508
000120 4d d0 2c 3d 75 f4 42 3e a6 b4 2d 3d 5c 74 fb bc
       0.04219084 0.19038565 0.042408608 -0.030695133
000130 c4 52 bc 3b 77 4a aa 3d 5b c7 b3 bd 6e e2 fb bd
       0.005747171 0.08314984 -0.087782584 -0.122990474
000140 6d aa ea bd 2d f9 ca 3c 6a 2d 2b be ee 1a 8a 3c
       -0.114582874 0.02477702 -0.16716543 0.016858544
000150 a8 54 85 39 e7 65 15 be 05 4a af bd 84 97 ed 3c
       0.0002543081 -0.14589654 -0.0855904 0.029002912
000160 72 9a 46 bd f1 47 36 bc 1e e3 1d bd bc 93 21 3e
       -0.048487134 -0.011125551 -0.038546674 0.15779012
000170 3f 2d 88 3d dd 9a 0d 3e 0d 56 69 bd 5a f7 26 bd
       0.06649255 0.13828607 -0.05696683 -0.040763237
000180 da c6 93 37 9b 48 58 3d f8 0e f1 bc ff 10 cc 3d
       1.7616363e-05 0.052803617 -0.029426083 0.09964179
000190 04 a8 0c 3e 96 c2 d5 3d 11 5c 10 bd 3f 13 a5 bc
       0.13735968 0.10437505 -0.03524405 -0.020150779
0001a0 3c 80 2a be 2d 5a 94 bd d3 1a dd bd c5 0a 51 3b
       -0.1665048 -0.07243762 -0.10796132 0.0031897288
0001b0 e1 b5 a8 bc 07 48 c7 3d ae 8a a4 bd 23 fe 8d 3c
       -0.02059454 0.09730535 -0.080342636 0.017333096
0001c0 9b 31 bd 3b c2 ca a9 bc 3a 56 03 3c 4c a2 1a bd
       0.0057737357 -0.020726565 0.0080161635 -0.037752435
0001d0 bd a6 6f 3d 6f 48 99 3c 85 49 c5 bc fc f0 51 bd
       0.058508623 0.018711297 -0.024082908 -0.05125521
0001e0 51 e7 9d 3d fb f2 1d be 06 f5 47 bd f9 b1 55 bd
       0.07710136 -0.15424721 -0.048817657 -0.05217168
0001f0 94 88 91 3d f0 e3 c9 3d f5 4e 84 bd 1d 49 f6 bb
       0.07106128 0.09857929 -0.06460372 -0.00751604
000200 2c 3c 24 be d2 69 8c 3d 0d 3a 2a bd b0 09 fc 3d
       -0.16038579 0.06856121 -0.041559268 0.12306535
000210 f0 53 c6 3d 42 e7 b5 bd ce 37 28 3e c2 2a d1 bb
       0.096839786 -0.088819996 0.16427538 -0.006383271
000220 5a 64 0e 3e 6c 0f f7 3d 83 6e 12 3d f7 ff 88 3d
       0.13905469 0.12063488 0.035749923 0.066894464
000230 b4 dd 0f be ec 45 33 be 15 16 71 3d 16 fb 1d bd
       -0.14049417 -0.17507142 0.05885895 -0.038569532
000240 20 dd aa bc 23 b9 69 bb c4 74 d8 bd f9 d5 8c bd
       -0.020857394 -0.0035663329 -0.10569146 -0.068767495
000250 a5 dc d8 bc d3 93 9a bb 82 7d 82 3d ec 4d bf bd
       -0.026472399 -0.004717329 0.06371595 -0.09341034
000260 e7 c7 db 3d 3b 5a 1a 3d 16 d9 d3 bd b5 63 24 bc
       0.10731488 0.037683707 -0.1034414 -0.010033538
000270 91 92 f3 bd 25 df 93 be 7e 6f 8e 3d 78 78 ad 3d
       -0.1189319 -0.28881183 0.06954859 0.08470243
000280 09 ed 6c 3d 50 a1 29 bd 19 24 25 3d c7 89 00 3c
       0.05784324 -0.041413605 0.04031763 0.007845349
000290 ec 84 34 bd 0a 89 a5 bd 04 f5 a2 bd a5 02 45 bc
       -0.044072077 -0.08082779 -0.07956889 -0.012024556
0002a0 7b 21 4c 3d 2b 83 0a 3e 00 f8 1e 3e 92 1c 3c 3d
       0.049836617 0.13526599 0.15524292 0.045925684
0002b0 3d 50 c3 3d 98 03 e8 bd 92 5b b4 3b 31 ce b3 3d
       0.095367886 -0.113288105 0.00550408 0.08779562
0002c0 6a 85 3a be 36 41 59 bc dc e8 c3 bd b2 b9 ad bd
       -0.18214956 -0.013260176 -0.09565899 -0.08482684
0002d0 26 65 7b 3d a6 01 52 be 5e 07 36 3e 41 a3 68 3e
       0.06137576 -0.20508441 0.17776248 0.22718526
0002e0 b1 22 27 3b cb a9 b4 bd 9a 04 05 3e b8 15 ab bd
       0.0025502855 -0.08821448 0.12990037 -0.08353752
0002f0 be 88 6b 3c 05 cb 3d bd cc f4 71 3c 60 46 35 3e
       0.014375864 -0.046336193 0.014767837 0.17702627
000300 c3 71 a5 bd 04 cd 32 bd 4f 1d 94 bd 76 5c c6 bd
       -0.08078339 -0.04365255 -0.07232153 -0.09685604
000310 6f 43 79 3c ec aa 69 3d b9 66 83 3d 93 0d e9 bb
       0.015213831 0.05704777 0.06416077 -0.007112214
000320 dc 11 86 3c 1e f9 0c 3e 82 a5 7a 3c 17 83 8d 3c
       0.016365938 0.13766906 0.015298249 0.017274423
000330 ec 03 37 3c 95 75 7b bd 8c 51 08 be 1b 0c f9 bd
       0.011170369 -0.06139143 -0.13312358 -0.12160512
000340 3e 7f 86 3d c0 65 13 3e 1b 9d 07 3e 66 c2 33 3e
       0.06567238 0.14394283 0.13243525 0.17554626
000350 4b 7a 14 bd 83 8b 2b be 75 9c 5e 3b cc 78 2b bc
       -0.03624944 -0.16752438 0.0033967767 -0.010465812
000360 92 a0 46 be c0 99 5b 3c 6d 60 a6 bd 2b 9d 8e bd
       -0.1939719 0.013403356 -0.081238605 -0.06963571
000370 c7 20 cb 3c e9 20 bb 3b e5 bb 81 bc 17 20 4e bd
       0.024795903 0.0057107103 -0.015836665 -0.050323572
000380 60 18 e2 3c d9 bb 11 be 8a b9 1f 3c af 78 08 bd
       0.027599514 -0.14231814 0.009748826 -0.033318218
000390 21 bf c5 3d 70 a2 d3 3d 44 18 05 3e d8 63 a6 bd
       0.096555956 0.10333717 0.12997538 -0.081245124
0003a0 35 d5 cd bd a9 a4 81 be e1 7e 17 3e 3f c6 75 bc
       -0.10050432 -0.25320938 0.14794494 -0.015000879
0003b0 4a f9 4b 3d 37 14 ca bd 2c 90 5c 3d 55 9c d6 3c
       0.049798287 -0.09867137 0.05384843 0.026197592
0003c0 ed 26 bf 3c 52 d7 d9 3d 69 9b 89 bd a8 8e 12 bd
       0.023333991 0.10636772 -0.06719095 -0.03578058
0003d0 3a a2 e0 bd 71 95 c3 3d 7f 08 97 bd e1 84 21 be
       -0.10968442 0.09549988 -0.073746674 -0.15773346
0003e0 6f 35 3f bd a8 0a 6f 3d e6 f8 20 be 19 6e 82 bd
       -0.046681818 0.058359772 -0.15719947 -0.06368656
0003f0 0a ef 5d 3e aa 69 75 bb c0 d9 3b bd d8 f6 e6 3b
       0.21673217 -0.0037447014 -0.04586196 0.007048469
